16 - Recurrent Neural Network/model/lstm/weights_150.pth (torch, 204551 bytes, 9 tensors)

rnn.weight_ih_l0 f4 [256, 1]
00000000: e5fe a63d dfb2 823e 84c8 c93d c420 c33d
00000010: d71d c43c 282b ab3d 5c36 dc3d 6432 483d
00000020: 50f6 683e e0e7 423e 3e11 043e da77 9a3d
00000030: f1b1 7b3d 3c91 143e 129f 5c3e e2aa 17bc
00000040: 0169 ab3d 1f67 483d c9da 8e3e fdb9 003e
00000050: c627 ae3d d2ad b03d 571f 8e3d 6300 6b3d
00000060: de48 b73d f2db 443e c6fc 0a3e d136 363e
00000070: 448a 423d e959 0b3e c0c8 863e e6fc ae3d
00000080: e08e 013e 1249 053e 3b34 d43d 9ae4 193e
00000090: 36a3 683d 4a02 733d b1db 963c a8d5 9c3d
000000a0: 3e3c 313e 6e70 e33d 5f1b b83c e04c f23d
000000b0: 856d 473e b810 ae3d 08a3 393d 00d8 0d3e
000000c0: 8a8b bc3d 6c51 133e 9c3d 383d c45c eb3d
000000d0: e8d8 dc3d acf4 373e f88c 313e f11a 1b3e
000000e0: f1f5 9e3d 55ea 5fbc a75f d53c 427b 123e
000000f0: 55f6 6e3d 83c0 803e 12bf 0d3e 4421 903d
00000100: a39f c83d 976a fbbd fe37 453b c99c eebc
00000110: daa4 e83d fa78 673d 3bc2 623b 7ec9 cb3d
00000120: 62a1 1f3e 0254 323c ab15 14bc cec3 663a
00000130: 4075 b63d 9313 60bd af01 b6bc a208 d23d
00000140: e107 ccbb 0550 e6bc 9755 83bd b6b9 19bd
00000150: 45e9 213d 104e febc bcaf 0b3e ecdc 9e3d
00000160: f55b 153e fe8e b4bd 83e6 93bd ef10 49be
00000170: a982 873d 93b0 d13d bab1 bb3d fabf b23d
00000180: ac66 d23d 4c85 9c3d b350 b3bc 6e04 4bbd
00000190: e50b a33c 591e 163e 9ede 163e 897f 51bd
000001a0: 83cb 05be e50b 1f3d f938 d03d 2e6d 1c3e
000001b0: 5cb1 0a3e c531 593d dae1 0b3e 2ce9 bb3d
000001c0: 696a 2a3e 37a5 4c3b 5024 3ebc 32c4 0f3e
000001d0: 9e56 87bd b1a9 fa3d 5b74 003e bff8 0abd
000001e0: 7229 083e 1702 933d fa86 38bd c056 943c
000001f0: 2478 57bd 319e 15bd c9f2 b6bb 0283 623d
00000200: 851f 463e e04f e6bc b8d6 2fbe 36c3 0a3e
00000210: 4fed f63d f8ca a73d 5b73 7dbd ac02 00be
00000220: 77b2 333e 62c7 5ebe 4f1b 0bbe a2aa 7b3e
00000230: 3275 db3d 38f2 963d 07ff 26be d99e fbbd
00000240: 4c7b cb3d 4637 333e 3db2 623e 0415 35be
00000250: 1b26 cb3d c41d 49bd e145 183e 139a 93bd
00000260: c722 083e f56e 74be 430b 813d 52b7 5bbe
00000270: 50bd 533e 2d15 773d fca9 62be 7c7c 2cbe
00000280: aaf1 46be 825c 99bd 2c8d b63d da77 5cbe
00000290: bfba b13d 2b68 ccbd c46a f2bd 36fe 203e
000002a0: 57b0 0c3e e259 cdbc 6a34 04be 67ae f5bd
000002b0: 4c05 e6bd 4168 3ebe 8f6d 033e b29c d5bd
000002c0: 3bd1 82bd e087 1bbe 2098 bdbd f2ed 143e
000002d0: 5c7d cdbd 2d79 7f3d 733c 07be 5d67 d73d
000002e0: a85f 993d 350d 00be 1648 02be d32f 86bd
000002f0: a9be 0dbe 9a1a 12be 9b99 0dbe d0b1 bbbd
00000300: b926 493e 6d4c c23d e621 0d3e e333 d83d
00000310: 86db 1a3e 3842 0b3e 16a3 fb3d 3253 cc3d
00000320: db7d 893d 86b3 5f3d 0a32 223e d52f e13d
00000330: 781e 1b3d 5dab 2e3e c6e4 c93d c7af 893d
00000340: f540 033e a9d2 b43d a816 6d3d 8a74 cb3d
00000350: 3566 393e edcc d53c cab6 cb3d 1ca6 bc3d
00000360: 0e6c 873d 315f 9a3e 374a 2f3e 1e85 6c3e
00000370: e833 773d 0021 843d 8903 ab3d d5bc e53d
00000380: 5068 a03d b9bb 4e3e 9a5c a63d 14d1 a43e
00000390: cfa2 e53d 5916 1c3e 63da 193e d68b 6f3e
000003a0: ba71 013e 71da 923d 2276 293e 3697 e23d
000003b0: eb0d 123e 4a5f 153e dbdd 023e ec7d fb3d
000003c0: e56a e33d fbd7 ea3d f5f5 d73d c50f bb3d
000003d0: 2e32 053e 438c ef3d 0333 443e ecaf 5d3e
000003e0: b8de f73d f2e7 2b3e bf95 273e 0734 693d
000003f0: c057 a13d ac10 943d 8f1f db3d 2136 133e
0.08154086 0.25527093 0.098526984 0.09527734 0.02394001 0.08357841 0.10752556 0.04887618
0.22750211 0.19033766 0.12897202 0.07542391 0.061448995 0.14508528 0.21545056 -0.00925705
0.08369637 0.04892647 0.27901295 0.12570949 0.0850368 0.086269036 0.06939571 0.057373416
0.08949445 0.19224527 0.13572988 0.17794348 0.04749514 0.13608517 0.26325035 0.0854433
0.12652159 0.13016155 0.10361525 0.15028611 0.056796275 0.059328355 0.018415304 0.07657939
0.17308137 0.11105429 0.022473989 0.11831069 0.19475372 0.084992826 0.045321494 0.13851929
0.092063025 0.14386529 0.04498063 0.11492303 0.10783559 0.17964429 0.17338932 0.15146996
0.07761753 -0.013666709 0.026046587 0.14304832 0.05834039 0.25146875 0.13842419 0.07037595
0.09796073 -0.1227619 0.0030093188 -0.029127495 0.11359568 0.056511857 0.0034600634 0.09950541
0.15588906 0.010884287 -0.009038369 0.0008802981 0.089090824 -0.054706167 -0.0222176 0.10255553
-0.006226525 -0.028114328 -0.06412809 -0.037530623 0.039529104 -0.031043082 0.13641256 0.07756981
0.1458586 -0.08816336 -0.07221701 -0.19635366 0.06616718 0.10238757 0.09164758 0.08728023
0.10273489 0.07642612 -0.021889066 -0.04956477 0.019903133 0.14660014 0.14733359 -0.051147018
-0.13065915 0.038829703 0.10167117 0.15276024 0.1354422 0.05302598 0.13660374 0.091753334
0.16642155 0.0031226405 -0.011605337 0.14039686 -0.06608318 0.12239397 0.12544386 -0.03392863
0.1329706 0.07178133 -0.0450506 0.018107772 -0.05260481 -0.036527816 -0.0055831415 0.05530072
0.19347961 -0.02811426 -0.17171752 0.1355103 0.12056982 0.0819301 -0.06187759 -0.12501019
0.17548548 -0.21755746 -0.13584636 0.2457681 0.107157126 0.07370418 -0.16308223 -0.12286157
0.099356264 0.17501554 0.22138305 -0.17683798 0.099193774 -0.049100652 0.14870407 -0.07207122
0.13294517 -0.23870452 0.06300976 -0.2145665 0.20677686 0.06032293 -0.22135156 -0.16844362
-0.19428125 -0.074883476 0.08913645 -0.21530095 0.08678197 -0.09980806 -0.1183677 0.15721974
0.13739143 -0.025067274 -0.1291062 -0.11996155 -0.11231479 -0.18594457 0.12834762 -0.10430278
-0.06387564 -0.15188551 -0.09257531 0.14543894 -0.10033676 0.06237142 -0.13206653 0.10517762
0.07488948 -0.12505038 -0.12722811 -0.065520905 -0.13842262 -0.1426796 -0.13828127 -0.091647744
0.19643678 0.09487233 0.13782462 0.105567716 0.15122804 0.13599479 0.122869655 0.09976806
0.06713458 0.054614566 0.15839401 0.10995451 0.037870854 0.17057557 0.09858088 0.0672298
0.12817748 0.08829243 0.057882935 0.099343374 0.18105395 0.026098693 0.099469736 0.0921137
0.06612407 0.3015075 0.17118154 0.23097655 0.060352236 0.06451607 0.08350284 0.112176575
0.07832396 0.20188798 0.08123131 0.32190764 0.11212694 0.152429 0.15024714 0.23393187
0.1264104 0.07170571 0.1654897 0.110639974 0.14263122 0.14587131 0.12779944 0.12279877
0.11104373 0.11466976 0.105449595 0.09133867 0.13007423 0.11696675 0.19160084 0.2164914
0.12103027 0.16787699 0.16365717 0.056934383 0.07878065 0.072297424 0.10699379 0.14376117

rnn.weight_hh_l0 f4 [256, 64]
00000000: 4b1e 0cbd e93a 123e 9f6a e9bc 89f2 0b3e
00000010: 0868 b1bd 79c0 96bd f524 bb3d ac0d b53d
00000020: d8f1 e1bc 34d0 c83d f006 b93d 8e1d e73d
00000030: ff86 0d3c f6fd 773d cf73 f23a 1df5 7fbd
00000040: fe10 fc3d b98f c939 ca1c b9bd 6dbf b33c
00000050: b809 1a3d 3c33 a93d c5a8 66bd 2c2d aa3d
00000060: 71ba 80bc cbcd 363d 8445 7bbc 42be 0d3e
00000070: 9843 e3bd e716 98bb fe93 a23d a542 7c3d
00000080: 8d5e b13d 8eaa 90bc 2aa1 a3bd a550 de3d
00000090: 3334 50bd d800 8abc 0ed8 713c 3a3e cd3d
000000a0: 9b8e a73d cac2 edbd 5de7 ce3d fab1 0c3d
000000b0: 89b6 e6bd 4591 ba3d e55a b43d 1503 5abd
000000c0: 95ba 7bbd a440 75bd f641 be3d 43dc 8ebd
000000d0: c9a9 c5ba b78d 8ebd 78b7 1bbc cb47 a9bd
000000e0: a547 a33d 8708 ef3b 99b3 c43c 011f 783d
000000f0: 48ed a7bd 3f78 c53d e516 3f3e fb1e 59bd
00000100: 9038 a43d b161 04bd 0216 1fbd f898 883d
00000110: 3916 433e b361 d33d c747 0abd a029 52be
00000120: 14e4 2f3e ab75 a9bc a26a 63bb 67f0 1a3e
00000130: bf17 043e 1a34 673d 95e1 21bd 7fd1 e13c
00000140: 363b 1d3e a22b 853d fd2a 183e 58b3 3fbe
00000150: c898 9e3b 67e9 3cbe 488c 893d 9acd 72bb
00000160: 839f aa3d 1b55 e5bb 5a91 ef3c 5169 033c
00000170: a768 c53d 8318 033e 23a0 f9bd db33 a8bd
00000180: f3f9 80be 74f2 54be d3da 4a3e 8d1e f2bd
00000190: f3bf b03d 38f7 30be 2840 c3bc 9915 1c3e
000001a0: 85fc 6b3e d1d3 29be 8e3e 42be dfd0 803c
000001b0: e5a3 32bc a116 aebd acf7 da3d 6a37 d6bd
000001c0: 692b 18be 4ba7 23be be16 8abd 6f8f e3bb
000001d0: ce0d a8bd 105a ea3d bdad abbc 402b 693e
000001e0: 64af a43d 0fc6 7bbc 7d19 38bd b024 2ebe
000001f0: fa2a e5bd 5c68 5f3c 6b71 e9bc 038c 33bd
00000200: 69f6 0b3c 58da 0dbd 3f55 8c3d 42f0 113e
00000210: 70b8 013e 0c84 143e 7580 9b3d d5ca 1cbd
00000220: b5f7 edbc 94f6 843c 3758 f6bc ee04 b6bc
00000230: 4c8a 1f3e a80c 773c b373 a3bc 25f1 a43d
00000240: 301a 133e cc21 1d3e a647 2bbd f391 9ebd
00000250: 87e2 903c 4dc2 d1bd 6d55 18bc 116a 823d
00000260: 5efb bf3d 9874 c33c 21a5 f6bc e23a 6fbd
00000270: 7725 d73d 0afa 883d 01e8 403c af07 ccbd
00000280: 20bd 68bc efde 99bd 9ad0 a13d fad3 ddbd
00000290: a0d2 1abc 5c0d 06bd f877 03be 6655 2d3d
000002a0: 0171 83bd c793 55bc 97a3 77bd c2a2 efbd
000002b0: db2c 4a3d 07f0 033d b102 91bd 9be6 9cbd
000002c0: 8118 06be b09b 0dbd b9f2 753d 0994 d7bd
000002d0: 2fb1 3b3d 1538 ee3d aa02 a8bd 2c58 84bd
000002e0: 93b0 143e 9b11 81bd 7d1a e3bd 19e5 70bd
000002f0: 8499 ce3d c39d 1f3d a631 2b3e 8c6d 53bd
00000300: 6fa0 0c3e ed1f 83bd 01d8 f3bd 789a babc
00000310: a281 b23c 15ec 38bd dbd1 7fbc 156a 02bc
00000320: 392c f43c e4d3 b7bd ea0c b0bd faa0 ae3d
00000330: c10c cd3d fa15 f93d f6e7 d0bc 7cd0 78bb
00000340: fbb7 ec3d 62de 883d bcc0 2fbd ef12 5b3d
00000350: 2c25 acbd 35c9 163e 83d8 553c d4c6 a23d
00000360: 4fa1 8e3b 700f b73d 88be 0f3d e788 b13d
00000370: db72 ad3d 5616 5f3d ff7c ae3d f855 783d
00000380: 6968 b23c cd77 e8bd 8458 11bd c214 23bd
00000390: 822d 093d e028 b33d 2cbd 803d 4540 833d
000003a0: 273e 1bbd ec1f 54bb 969e 53bd 3ae3 ad3d
000003b0: 2cf4 c9bb 37c2 543d 8277 253d 3df3 c038
000003c0: 01a8 dfbd f912 5f3d 7329 163d c0af fe3d
000003d0: 8d3c 2cbc bbde 73bd cc0e ec3b 4dbd bd3d
000003e0: e73c ba3c 7585 14be df57 d2bd 8b4e d8bc
000003f0: e81b 633d 3568 99bd c280 adbd 0761 ad3d
-0.034208577 0.14280285 -0.028493224 0.13666739 -0.086624205 -0.0736093 0.09137908 0.08840498
-0.02758114 0.098053366 0.09034526 0.11284934 0.008638143 0.06054493 0.0018497648 -0.062489618
0.123079285 0.0003844479 -0.09038694 0.021941865 0.037606925 0.08261725 -0.056313295 0.08309397
-0.015713902 0.044629853 -0.015336398 0.13842109 -0.11096877 -0.004641402 0.079383835 0.061586995
0.08660612 -0.017659452 -0.07989724 0.108552255 -0.05083103 -0.016846105 0.014760984 0.100216344
0.08181497 -0.11609419 0.10102723 0.03434942 -0.112652846 0.09109739 0.08806399 -0.053225596
-0.061457235 -0.0598761 0.09289925 -0.06975605 -0.0015080507 -0.06960624 -0.009504192 -0.082656465
0.079726495 0.0072947177 0.02401142 0.060576443 -0.08199555 0.09642076 0.18661077 -0.05300806
0.08018601 -0.03231973 -0.038839348 0.066698015 0.19051446 0.10321369 -0.03375986 -0.20523691
0.17176849 -0.020685991 -0.003470101 0.15130769 0.12899683 0.056446172 -0.039521772 0.027565716
0.15354618 0.06502463 0.14860149 -0.18720758 0.0048399903 -0.18448411 0.0671621 -0.0037048818
0.08331206 -0.0069986708 0.029244114 0.008020715 0.096391015 0.12802319 -0.12188747 -0.08213016
-0.25190696 -0.20795614 0.19810037 -0.11822233 0.086303614 -0.17281806 -0.023834303 0.15242614
0.23045547 -0.16584708 -0.18969175 0.015724597 -0.010903333 -0.0850041 0.10691771 -0.10459788
-0.1486031 -0.15981786 -0.06742619 -0.006944589 -0.08205758 0.11442959 -0.020956868 0.22770405
0.080412656 -0.015367045 -0.044946183 -0.17006183 -0.11189838 0.013635721 -0.028496465 -0.043834697
0.0085426355 -0.034632057 0.06852197 0.14251807 0.12668014 0.14503497 0.075928606 -0.038279373
-0.02904878 0.016230859 -0.030071361 -0.022219148 0.155801 0.015078701 -0.01995263 0.08053807
0.14365458 0.15344924 -0.041816376 -0.07742681 0.017686142 -0.10242138 -0.009297711 0.06367887
0.09374116 0.023859307 -0.030108036 -0.058405764 0.10505193 0.06688316 0.011774064 -0.09962403
-0.014205247 -0.07513224 0.07901116 -0.10831447 -0.009449631 -0.032727584 -0.12838733 0.04231777
-0.06418038 -0.013035721 -0.060458746 -0.117009655 0.049359184 0.03221133 -0.070805915 -0.07661172
-0.13095285 -0.034572303 0.06004593 -0.10526282 0.045823272 0.116317905 -0.08203633 -0.0646213
0.14520483 -0.06302186 -0.110890366 -0.058812235 0.100878745 0.038968813 0.16718158 -0.051618144
0.13733076 -0.06402574 -0.11906434 -0.022778735 0.02179033 -0.04514702 -0.015613998 -0.007959862
0.029806243 -0.08975962 -0.08596213 0.085267976 0.10012198 0.12162395 -0.025501233 -0.0037966063
0.11558529 0.06683041 -0.042908415 0.053484853 -0.084055275 0.14725192 0.013052109 0.0794808
0.0043527256 0.08938491 0.035093814 0.0866869 0.084691726 0.05446466 0.08519935 0.06062886
0.021778302 -0.11350975 -0.035484806 -0.039814718 0.033490665 0.08748031 0.06286082 0.06408743
-0.03790107 -0.003236766 -0.05166491 0.08490606 -0.0061631408 0.05194303 0.040397175 9.20058e-05
-0.10920716 0.054461453 0.036660623 0.124358654 -0.010512483 -0.059538584 0.0072039124 0.09264622
0.022734119 -0.14504035 -0.10270666 -0.02640464 0.055446535 -0.07490579 -0.08471824 0.08465772

rnn.bias_ih_l0 f4 [256]
00000000: 1f65 003e 61bc 0e3e 2205 e63d 3f2a 273e
00000010: 0971 df3d d4b1 993d 0155 a63d 9663 d83d
00000020: 2131 0a3e afaa 943d 80d2 b33d 5a00 bb3d
00000030: 7de9 453d 8010 c83c cca7 313e c235 0b3d
00000040: 58ce 253e 1ad7 103e 0a84 7b3e a880 1b3d
00000050: 9dc2 6abd 088f de3d 333c 043e 3d04 083e
00000060: 9c12 67bd ec31 c03e a723 1d3e 2797 773e
00000070: f883 983e e846 a33d f12f c53d bc73 4d3e
00000080: aaf9 203e c174 9c3d 59cb b5bc 9713 873e
00000090: 2f1a 8e3d 2681 5f3e e81e e13d 2d83 603e
000000a0: 14c7 cb3d cf85 ab3d 1104 133d af32 923d
000000b0: 362d ba3d 4daa db3d 069c 1a3d 6325 f3bc
000000c0: 1189 053e dee5 aa3d 26cd 823b 62c7 be3c
000000d0: 212e 0c3e 9c23 c6bd afba 043d ed6f 273e
000000e0: 072f 0f3e 6f23 fa3c b2a0 f03d b4c4 1d3e
000000f0: f1a3 4cbc 1e2f 093e 7dd4 13bc a160 583e
00000100: 2ca8 17bd a720 373c 33a0 993d 3867 603d
00000110: cea8 083e b502 d53d d2dd a53d a53c 17be
00000120: 037c a03c 9800 233d 8b61 b3bd dc6f 9b3d
00000130: 7351 8f3d 760d d3ba 06e2 6f3c 62c8 dc3d
00000140: 9bda 2a3e 82e2 133e 598e f7bd e334 80bd
00000150: 27c2 543d 456e e33d 78c6 bebd c295 63bc
00000160: 484e 34bd 3bc6 18be d58d 18bd 5f56 22be
00000170: 2740 2fbd e100 e93c 36de 7c3c d755 613d
00000180: 41b5 563d 8279 963d af05 9cbd 7a5a 0b3e
00000190: 0334 213e d36b e03d ef0b 713d 8d92 253e
000001a0: aaee 753d ecf0 aa3c 6111 cb3d 3fba 15be
000001b0: e1b7 613b 9631 efbd 8a10 c9bc 782e aebd
000001c0: 7f28 df3d c8dc bf3c eb14 81bc b29d c8bd
000001d0: 174b f73d a82c fcbc 7383 163e 85bf 483c
000001e0: 9709 33ba ae31 fe3c a187 ba3d ebca 3cbd
000001f0: e763 f1bd 4db6 08be a6c2 c0bd 861d 443d
00000200: 5946 163e 76f9 5c3e fe5b 923d 4e33 2fbd
00000210: 025a 963d fad0 103e 7d57 0a3e 42d8 2a3c
00000220: 19db 8b3d a694 783d ab9e d03e 3631 43bc
00000230: 43d6 99bd 5959 033e 05d7 483d 74ac ed3d
00000240: 23da f63d 1a57 49bd 12ca 2abd 8b6a e83c
00000250: 8269 ae3d aeb1 4dbd 5a7f 30be 397a 763e
00000260: 189c dfbd 9af2 2fbe a3cd 5dbe f420 753e
00000270: 24d3 1a3d 0c02 de3c 5241 84bd ffcd 1bbe
00000280: 9ac4 34be 138d 40bc 2376 b7bc c500 5fbe
00000290: 1c8e cf3d 864d d73d 5042 e5bd d37e eb3d
000002a0: 0b8a eb3d 795b 903d 0359 303d a27c c43e
000002b0: 6991 943d 58c7 debd c2cc 583d f83a 3d3e
000002c0: 04d5 7b3e 17eb a2bd a27e 543e d3ae 83be
000002d0: b493 023d 5cfd 873d 246e 16bd 90b2 9f3c
000002e0: ac23 be3d 4c40 c6bd bbda c13c 30e7 213e
000002f0: 71c1 1a3e b438 a3bd 0f27 443e b333 5c3d
00000300: 0888 d23c 0aa2 9a3e 860c 983d bc1b dc3d
00000310: cc9d 133e 9c2b 54bd 2e1b 773c c672 563e
00000320: e334 acbb 4233 8b3c 2378 3e3e 48eb b93d
00000330: 6a40 4d3e e0ce b13c 0c4c 583d 030c 073e
00000340: 621c 1b3e 923f 0e3d 2251 e63d cc29 bd3c
00000350: bbce 8bbc 0228 0d3e 86eb 4b3d fb37 713b
00000360: ca12 423e c31f 173e c23d 273e 09c7 653e
00000370: c382 273e ff97 073e ca86 3c3e 0574 333e
00000380: 4d59 873e 20cd ca3c b028 8d3d bd1d 383e
00000390: 0275 6e3c 35e6 333c f2b5 783d f3a0 893d
000003a0: 4c03 823e ded1 0d3e a1b7 fb3c 0825 033e
000003b0: a39b dd3d 7b46 173e c1d1 f23d d0d9 f83d
000003c0: e3a7 f03b 4784 6b3e 75be 06bd 7be6 8a3e
000003d0: 3214 533d 7a4a b13d ce44 963d ae77 503b
000003e0: b392 b03c eb9a 9e3b ef9e 053e d04b d73d
000003f0: 447b 143e d504 ca3d 845b 153e 2412 e33d
0.12538575 0.13939048 0.11231448 0.1632471 0.109102316 0.07504621 0.08121682 0.105658695
0.13495304 0.07259118 0.08780384 0.091309264 0.048318375 0.02442193 0.17349166 0.033986814
0.16191995 0.14144555 0.24562088 0.037964493 -0.057314504 0.10867125 0.12913589 0.13282867
-0.05641423 0.37538087 0.15345632 0.24178754 0.29788184 0.07972509 0.09628285 0.2006368
0.1572024 0.076394565 -0.02219169 0.26382133 0.06938588 0.2182661 0.10992223 0.2192504
0.099500805 0.08375131 0.03589255 0.071385734 0.090906546 0.10725842 0.03774645 -0.029680913
0.13040568 0.08344625 0.0039917408 0.023288433 0.13689472 -0.09674761 0.032404598 0.1635129
0.13982783 0.030534474 0.117494 0.15407068 -0.012490259 0.1339688 -0.009022829 0.21130611
-0.037025616 0.0111772185 0.07501259 0.054785937 0.13345644 0.10400907 0.080989495 -0.14769228
0.019590383 0.039795488 -0.08758839 0.07589695 0.06997957 -0.0016102034 0.0146412905 0.107804075
0.16684954 0.14441875 -0.120876975 -0.06260087 0.05194297 0.111050166 -0.09315199 -0.0138906855
-0.044019967 -0.14919369 -0.037244637 -0.1585326 -0.04278579 0.028442802 0.015433839 0.055013504
0.05241895 0.073473945 -0.076182716 0.13608733 0.15742497 0.10958066 0.05884927 0.16169186
0.06004206 0.020866834 0.09915424 -0.14621828 0.0034441876 -0.1167938 -0.02454402 -0.08504957
0.10896396 0.023420706 -0.015757045 -0.09795703 0.12074869 -0.030783013 0.14698581 0.012252693
-0.0006829737 0.031029548 0.091079004 -0.046091955 -0.11786633 -0.13350792 -0.09412126 0.04787972
0.14675273 0.21579537 0.07146452 -0.042773537 0.073413864 0.14142218 0.13509937 0.010427536
0.06828899 0.060688637 0.40746054 -0.011913588 -0.0751157 0.12827052 0.049033184 0.116051584
0.12053325 -0.049155332 -0.041696616 0.028371116 0.08516218 -0.050218277 -0.17236081 0.24070062
-0.109184444 -0.17182389 -0.21660475 0.23938352 0.037799016 0.027100585 -0.06457771 -0.152153
-0.17653123 -0.011752385 -0.0223952 -0.21777637 0.10134527 0.10512833 -0.11194289 0.11498799
0.11500939 0.07048697 0.04305364 0.38376337 0.07254297 -0.108778656 0.052929647 0.18479526
0.24592978 -0.07954996 0.20751432 -0.25719318 0.031879142 0.06640121 -0.036726132 0.019494325
0.092841476 -0.096802324 0.02366387 0.15810847 0.15112855 -0.079698 0.19155525 0.05376024
0.02569963 0.3020175 0.07424264 0.107474774 0.14415663 -0.0517994 0.015082164 0.2094222
-0.005255328 0.016992215 0.18600516 0.090780795 0.20044103 0.021705091 0.0528069 0.13188176
0.15147546 0.034728594 0.112459436 0.02309122 -0.01706635 0.13784793 0.04978516 0.0036807049
0.1895248 0.1475821 0.16332152 0.22439207 0.16358475 0.13241576 0.18410793 0.17524727
0.2643532 0.024756014 0.06892526 0.17980094 0.014554264 0.010980179 0.06072039 0.06720152
0.2539314 0.13849589 0.03072721 0.12807095 0.10820701 0.1477298 0.11856414 0.121509194
0.0073442324 0.22999679 -0.032896478 0.27128968 0.05153293 0.086567834 0.07337342 0.0031809616
0.021554327 0.004840245 0.1304891 0.10512507 0.14500147 0.09864203 0.14585692 0.110874444

rnn.bias_hh_l0 f4 [256]
00000000: 5c33 3e3e af73 333e 41d9 493e 8d9d 123e
00000010: 1935 353d daa6 083e 319c 16bd 1d5e 523e
00000020: 23e5 b63d dda8 b13d 033f 5e3d 5ad4 833e
00000030: 62bc a63d e638 df3d 32e8 c53c 04fd dfb9
00000040: ae6e 15bc 2142 143e df24 853d 59df 5fbc
00000050: 40e1 843d c0c8 67bd 1ff1 7f3d 6e10 603e
00000060: de75 e2bd 9210 833e c0a5 b13d 3168 6b3e
00000070: d563 783e 7856 2ebc ab56 4c3e 8237 163e
00000080: f510 b13e 7749 0e3e 4efc c23c 9e07 933e
00000090: fcd2 5e3e 87a8 4d3e c134 d63d 6a71 603e
000000a0: 5b33 873e 61ec 113e cb79 4e3e eaab 693e
000000b0: 8429 52bc c6a7 463e 2aa8 f9bb 8ff6 9c3d
000000c0: 7cb5 603d 4881 543e 4cd6 383e b7aa 20be
000000d0: 104a c33d 2ff8 b83d 6fc6 bf3d 37f5 733e
000000e0: 4b68 043d dfb7 3e3e e41f 5b3e 8f99 923d
000000f0: b23e a93d c84c 113e 5ecb 49be 564d 833d
00000100: 27de d73c 8f7c 06be e8c9 c53d 9058 093d
00000110: 5aa0 9db9 4455 ccbc 28f7 03bd fa06 bebd
00000120: a93b ef3d 1c9b b7bd d765 95be 7e75 1c3d
00000130: 924f 383d e0cb 02bd c3b1 9d3b 55f5 7ebd
00000140: cb25 3e3c 31a4 53bd 3486 3d3c f403 7b3d
00000150: 287d 8dbb 56e9 e93d 8332 3cbe 9029 28bb
00000160: 7b73 18bd f885 84bc 301f e83d e486 62be
00000170: 43d2 ec3d 1d4c f93d c3ab a6bd 62de a63c
00000180: 8d7b b23d 9719 ffbc 2ff2 47bb 1564 613d
00000190: fb4f dc3d c058 96bd eaf3 8bbd d0e6 b53d
000001a0: 0bee 833d 16fe 9bbd 3727 fb3b 985f 513d
000001b0: b358 aebc 82b5 07be 3f83 8bbc 655e dbbb
000001c0: 65f4 ad3d 98a0 c9bd cb61 5cbc 03a7 32be
000001d0: e9e5 753d a68d a7bd 3004 0d3d cec7 8b3c
000001e0: 2602 a8bd 3aaa febc b645 223d 4b48 99bb
000001f0: ad4c a3bd 54a2 77bd 30df 5ebc fdf3 c6bc
00000200: 699d b5bc 5a2a 7b3e a0ea 54bd 5255 243a
00000210: 92a6 a8bd 0b41 553d 8063 8bb9 fed3 233e
00000220: 0812 013d 4a05 e6bd 41f6 ce3e 86f1 953d
00000230: 7eaf b53d a3ce 59bc e745 9fbc 2b45 d33d
00000240: d1aa 0e3e 4b44 8e3d 1ddf b4bb f2c2 18bd
00000250: af0e 013e d578 c83c e538 efbd 87a8 3a3e
00000260: 3ac1 fcbd 1882 81bd 80e6 6bbe 1001 653e
00000270: 5c4c 9d3d 4a7d 14be 236c c0bd 9116 71bd
00000280: 7acc 59be 24bd e1bd 1a20 e23d 4bb3 d3bc
00000290: 113c 1ebd 8a9d c13c 0f58 f1bd 49f7 163e
000002a0: 4701 99bd 0eaa 0b3e 504c 8e3d 2968 b23e
000002b0: 00cc 833d a670 9ebc 3f13 fb3b 463b 633e
000002c0: beb5 f73d 0749 1a3d ccaf 313e 27e3 2bbe
000002d0: 0048 39bd 4c36 123e 48bf dcbd d684 263e
000002e0: dc55 813d 1227 ae3d 4ed2 6d3d d21a d23d
000002f0: 5b87 273e 0d1f 253e 53ee 883e 9bdc c2bd
00000300: 2af8 41bd b60a 6f3e 0de5 853e 2aed 433d
00000310: 3924 5d3e 2730 cd3d 787a bf3d 9a19 213e
00000320: 6203 993d 0975 253e 2b3b c93d f13b ac3d
00000330: 249d 763d 9832 bdbd 5ddb 3c3b dd5a 3c3e
00000340: b547 283e 7341 843e 54cf 823d d341 a23d
00000350: 4f21 913d 8d98 f83d 389c b23a 881a de3d
00000360: ab4e 1a3d 33df 083e ef9c 723d cca5 d03e
00000370: 202b 733e a376 ff3c 337a d73c d978 093e
00000380: 0dff 253e 634b babd 8cfc 18bd 68f1 1a3e
00000390: 0ecc 1c3d 22b3 193d 6f2c 553d 0708 d83b
000003a0: cab7 833d 4e0d ee3d b388 613d 329a 813e
000003b0: 8bb8 4b3e b333 273d 2f3a 053d 139e 973d
000003c0: cfb9 a83a 2e20 6d3e 97d3 ea3d be21 413e
000003d0: a287 5c3d 40b3 20bd 5fd8 143e 93c0 593e
000003e0: d5d0 183e 4c5a 783d d43f 203e afcd 263e
000003f0: 0a24 12bd 1092 6b3e 1dbc 0e3e 618b 8e3c
0.1857428 0.17524599 0.19711782 0.14317913 0.04424009 0.13344899 -0.03677005 0.20543714
0.08930423 0.08674786 0.05425931 0.2574795 0.081414 0.108995244 0.02415857 -0.00042722386
-0.009120626 0.14478351 0.06501173 -0.01366409 0.064882755 -0.056587934 0.06248581 0.21881267
-0.11057638 0.2559858 0.086741924 0.22988965 0.24256833 -0.010640733 0.19954936 0.14669612
0.3458325 0.13895212 0.023801949 0.2871675 0.21760172 0.2008382 0.10459281 0.21918264
0.2640637 0.14250328 0.20163648 0.22819486 -0.012827281 0.19399938 -0.0076189237 0.07664215
0.054860577 0.20752442 0.18050498 -0.15690123 0.09535611 0.09031712 0.0936402 0.23824011
0.032326024 0.18624829 0.21398884 0.07158195 0.08263911 0.14189446 -0.19706485 0.06411235
0.026351048 -0.13133453 0.09657651 0.033531725 -0.00030064845 -0.024943002 -0.03221813 -0.092786744
0.11681301 -0.08965132 -0.2917926 0.038197987 0.04499776 -0.03193271 0.0048124506 -0.062245686
0.01160569 -0.051670257 0.011567641 0.061283067 -0.0043178983 0.114214584 -0.18378644 -0.0025659539
-0.037219506 -0.016177163 0.113340735 -0.22121769 0.11563542 0.121727206 -0.0813823 0.020369712
0.08714972 -0.031140132 -0.0030509343 0.055027086 0.107574426 -0.073411465 -0.06833632 0.088819146
0.064418875 -0.076168224 0.007664587 0.051116556 -0.02128253 -0.13252833 -0.017030356 -0.0066946023
0.0849388 -0.09845084 -0.01345105 -0.17446522 0.060033713 -0.08181314 0.03442782 0.017063048
-0.08203535 -0.03108703 0.039617263 -0.0046778074 -0.07973609 -0.060457543 -0.013603017 -0.024286265
-0.022169786 0.24527875 -0.05198157 0.0006268817 -0.08234896 0.052063983 -0.0002658628 0.15998837
0.031511337 -0.112314776 0.40422252 0.073214576 0.08871363 -0.013293895 -0.019442512 0.10315927
0.13932349 0.069466196 -0.0055197612 -0.03729529 0.12603258 0.02447168 -0.11680774 0.1822835
-0.123415425 -0.063236415 -0.23037148 0.22363687 0.0768058 -0.14500919 -0.093956254 -0.05885941
-0.21269408 -0.11022404 0.11041279 -0.02584233 -0.038631503 0.02363469 -0.11784374 0.1474277
-0.07470947 0.1363909 0.06948149 0.34845093 0.06435394 -0.019340824 0.0076622064 0.2219058
0.120952114 0.0376673 0.17352217 -0.1678587 -0.04523468 0.14278525 -0.107786715 0.1626161
0.063152045 0.08503546 0.05806189 0.10259022 0.16360228 0.16125126 0.26744327 -0.095147334
-0.04735581 0.2334393 0.26151314 0.0478336 0.21595849 0.1001895 0.09349531 0.15732422
0.07471348 0.16157927 0.098257385 0.084098704 0.060208455 -0.092381656 0.0028817274 0.18394037
0.16433604 0.25831184 0.06387201 0.07922711 0.07086431 0.12138472 0.0013626879 0.10844904
0.03767268 0.13366394 0.059231695 0.40751493 0.2374692 0.0311845 0.026303386 0.13425006
0.16210575 -0.0909641 -0.037350222 0.15131152 0.03828054 0.03752435 0.05204433 0.006592754
0.06431539 0.116236314 0.055062007 0.25312954 0.19894616 0.04082079 0.03252619 0.07403197
0.0012872758 0.23156807 0.11466139 0.18860528 0.053840287 -0.039233446 0.14535664 0.21264867
0.14923413 0.06063299 0.15649348 0.162894 -0.0356789 0.23004937 0.13938947 0.017400445

rnn.weight_ih_l1 f4 [256, 64]
00000000: 1d5e 0f3e ec63 eebd adf8 28be f48d ed3d
00000010: 96ce ff3d 79c7 203e 24e2 adbd 7555 a2bd
00000020: 358e a43d 0743 333c 88e4 2dbe a773 bfbc
00000030: 7904 cd3d 06b3 66bb 88a1 cfbd 1fda 52bc
00000040: 59fa c13c bd28 493e c9b0 6a3c 3127 01be
00000050: 04e1 f23d c32d 673d 5a70 2f3e 4317 31bd
00000060: ce20 763d 33ea 3bbe e593 0c3d 097d 9fbe
00000070: b437 393e 8625 b0bc e949 fcbd fe10 2fbe
00000080: d9d3 0dbe 0741 dfbd 38bb f53d f2ec 8fbd
00000090: c050 f73c e24a ea3c c65d 7abd 0faf 4d3e
000000a0: 1d30 043e 5873 ff3c 2532 30be 90c9 29be
000000b0: c9de b8bd 0493 d6bd 8cef 353e ee11 dfbd
000000c0: c9b5 963b b592 33be c423 14bd 2006 153e
000000d0: e03e dbbd 1304 113d b3fa 06bd f6bc 643e
000000e0: 87e1 a53d 8570 f0bc 1aa5 20be bbb2 a1bd
000000f0: c56d 1bbe 3fb9 49bd 567b d1bd 9f04 26be
00000100: a213 ecbc b0d6 43be db0a 02be bcce 223d
00000110: 8b94 9cbc ba6b fabc 4719 e9bb c009 ccbd
00000120: 71dd c13d 168e c3bb ae82 babe db58 123e
00000130: 0d83 e5bc 06ad 49bb c284 2ebe 8b1b 7abd
00000140: cb7f c03c 3f87 f53d 2b34 103e b493 08bc
00000150: cf7c 003e dafd c73c 4fcb 463d d8d2 25bd
00000160: de88 363e 7d37 39be 5604 abbc a8d1 1ebe
00000170: 529f 203e 8c3d 9fbc f9bf cebd ce15 01be
00000180: fa12 d1bd f5e6 2bbc 625e 2d3e c95c 87bd
00000190: 2bf4 2f3e 64ec 22bd 8e5e 733c f314 423e
000001a0: 8167 403e a77f 40be 432e 37be a9d1 fcbd
000001b0: 3ed1 fc3c b811 033d f09b 22bd d4b7 2fbe
000001c0: f3e1 a6bd 8a92 483d afbe 21bd 2bb6 573e
000001d0: 005f 89bd 0941 ba3d 162f bebd 60a2 df3c
000001e0: 50d9 303e a719 1e3d bf6f 023d e548 033d
000001f0: b932 d5bd 0565 4fbe 5fc6 2abe db4e 28be
00000200: 9931 53bd 8a4f 3abe 6982 31be 89fe 173e
00000210: 9b7b 2d3e 6e03 1c3e d598 a0bd a2b7 d9bd
00000220: 96cc a83c 2b11 eabd 1345 9fbe b109 4f3d
00000230: d1af 80bc 7556 1d3e fcaa 073d d904 693b
00000240: 79a3 143e c85e 223e c6d1 c33d daa8 43be
00000250: 7014 ad3d 4eb2 64bd 2810 243d 617e 68bd
00000260: 3e7a 343e 2f8f 9bbd 7cc5 3f3e 6ac4 84be
00000270: b96a 913c 28c0 683c b3e5 38bd 3637 0abe
00000280: ae8e 30bd 7406 74bd 5e4c b93d f237 abbd
00000290: 5186 be3d 04f7 b0bd a7af 00be 8269 573d
000002a0: 7ffd 063c 1bdd 07bc 34d9 e9bc 2ac7 68be
000002b0: fc27 19bd 1ac1 c23c ae3d f03d 3c94 6dbe
000002c0: 4e99 08be 6347 003d b756 a0bd 13db 803d
000002d0: fb71 90bd b009 c53d 41ce 57bd 631b a93d
000002e0: b09d df3d 9a93 81bd 3f39 20be 22b2 48be
000002f0: f7a4 31bd 3388 19be b485 94bd 8663 3b3c
00000300: 0d7c f43d 274e 56be 7ea0 eebd 01a6 593e
00000310: a155 003e 02e0 0f3e 722d 4e3a 1c70 a3bd
00000320: 7af8 093c 770b fc3b 16eb 73be e6b3 3d3e
00000330: 304b 053e 5b3f 0a3c 3b1a 0dbe 2e3c ef3c
00000340: f1cc 5bbc 4f38 b93d 0427 203e 2a6c f43c
00000350: db60 fb3c 01a0 153d a76d e23c 7c28 1dbe
00000360: c240 d53b 3064 10be 68bb f73d 9829 33be
00000370: 8c74 cd3d 60eb b0bc 49cf b53c 2e5d d5bd
00000380: 10c7 1abd 12d3 08be e4cf 1b3e cf7b 8cbd
00000390: 03e7 393d 2889 e33c da6e a3bd 2d65 633d
000003a0: 6912 2c3e d853 5bbe 2541 edbd 3c32 94be
000003b0: 11de 04be 70c2 b4bd 63c2 f43c a571 8fbe
000003c0: b8ab a9bd 1300 f53c 455a 22be d4f6 4c3e
000003d0: 69d6 42be 2003 7ebc 15b3 0e3d 20a9 303e
000003e0: fea1 283e b178 b1bd dfbe bbbd 4d32 2fbe
000003f0: 8b15 c1bd 5728 09be 8b1c 84be fe1a 173c
0.14000745 -0.11640152 -0.16501112 0.11599341 0.12490575 0.15701093 -0.084903985 -0.07926456
0.08034936 0.0109412735 -0.16981709 -0.023370577 0.10010619 -0.003520192 -0.101382315 -0.012869387
0.023678945 0.19644447 0.014324375 -0.12612607 0.118593246 0.056440126 0.17132702 -0.043235075
0.06008988 -0.18351059 0.03432073 -0.31150082 0.18087655 -0.021502268 -0.12318785 -0.17096326
-0.13850345 -0.10901075 0.119986 -0.070276156 0.030189872 0.02860016 -0.061124586 0.20086311
0.12908979 0.03118293 -0.17206629 -0.16580796 -0.09026868 -0.1047726 0.17767161 -0.10892092
0.004599307 -0.17536433 -0.03616692 0.14553118 -0.10705352 0.035404276 -0.03295393 0.22337708
0.080996566 -0.029350528 -0.15687981 -0.07895418 -0.15178593 -0.04924893 -0.102286026 -0.162127
-0.028817955 -0.19124866 -0.12699454 0.03974794 -0.0191138 -0.030568946 -0.007113609 -0.09962797
0.09466065 -0.0059678657 -0.36427826 0.14291708 -0.028016591 -0.0030773296 -0.1704283 -0.061061423
0.023498436 0.11988687 0.140824 -0.008335996 0.1254761 0.024413038 0.048533734 -0.04048428
0.17825648 -0.18087573 -0.020876091 -0.15509665 0.15685776 -0.019438528 -0.1009521 -0.12605974
-0.102086976 -0.010492076 0.16930535 -0.06609494 0.17182986 -0.03977622 0.014854087 0.18953304
0.18789484 -0.18798696 -0.17888741 -0.12344677 0.030861493 0.03199932 -0.039699495 -0.17159969
-0.08148565 0.048967876 -0.03948849 0.21065585 -0.06707573 0.09094436 -0.09286325 0.027299106
0.17270398 0.038598683 0.03184485 0.03205194 -0.10410065 -0.2025338 -0.16677235 -0.16436331
-0.051560972 -0.18194404 -0.17334904 0.14843191 0.16941683 0.15235683 -0.078416504 -0.10630728
0.020605367 -0.11429056 -0.31107387 0.05054635 -0.015708836 0.15365012 0.033122048 0.0035555868
0.14515485 0.15856469 0.095614955 -0.1910738 0.08451164 -0.055834107 0.04005447 -0.05676115
0.17624757 -0.075956695 0.18727678 -0.25931102 0.017751085 0.01420597 -0.045140933 -0.13497624
-0.04310482 -0.059576467 0.09047769 -0.0836028 0.093029626 -0.086408645 -0.12567006 0.052590854
0.008239149 -0.008292462 -0.028545953 -0.22732225 -0.037391648 0.023773719 0.117305145 -0.23201078
-0.13339731 0.03131808 -0.078290395 0.06291785 -0.0705299 0.09620988 -0.052686933 0.08257177
0.109187484 -0.06326981 -0.15646838 -0.19599202 -0.043370213 -0.14993362 -0.07252064 0.011437302
0.11937723 -0.2092825 -0.11651705 0.21254732 0.12532665 0.14050296 0.0007865048 -0.079803675
0.008421058 0.0076917964 -0.23820147 0.18525657 0.13016963 0.008437957 -0.13779537 0.0292035
-0.013415561 0.09043943 0.15639883 0.029836733 0.030685833 0.036529545 0.027640177 -0.15347475
0.006507964 -0.14100718 0.12096292 -0.17496336 0.10031995 -0.02159661 0.022193568 -0.10418163
-0.037787497 -0.13361767 0.15216023 -0.06859552 0.045386326 0.027775362 -0.07980128 0.05551641
0.16803898 -0.21418703 -0.11584691 -0.28944576 -0.12975337 -0.088261485 0.029877847 -0.2801639
-0.08284706 0.029907262 -0.15854748 0.20016032 -0.19027103 -0.015503675 0.034838755 0.17252016
0.16468045 -0.08665598 -0.09167265 -0.17109032 -0.09427937 -0.13394295 -0.25803027 0.009222744

rnn.weight_hh_l1 f4 [256, 64]
00000000: d2dc 013d b297 fdbd b2a5 1dbd 1e7c 53bd
00000010: 8018 083e 3c46 76bd 3efc 113d b928 723d
00000020: 340e a5bd 509d 58bd d65a a6bd 4f25 4d3b
00000030: 2642 9e3d 40ca 123e 5529 0bbd 3a9a 0b3e
00000040: a63b 873d 57b8 c6bd 3747 dabd f31e 81bd
00000050: 3d95 9039 2849 adbd 8cac 1b3e 186c d2bc
00000060: f206 353d 10f3 aa3d 8c8e 0f3e c62f 3b3d
00000070: 98dd a6bd 4bdc ecbd 345b 393b 8664 1b3b
00000080: b488 813d 5b9d a43d 0c66 17bd 51a7 7e3d
00000090: 0112 423b 32b7 a8bd 56a1 a03d 0365 7dbd
000000a0: 25e6 81bd 2f74 afbd c530 873d 86be 82bd
000000b0: 43f3 6b3c 2c98 133d 059d a3bd 2e92 79bc
000000c0: 8748 84bd c046 6c3c a5ba b1bd 3ab1 423d
000000d0: 0c3a 9ebd b704 6ebd d0b3 b53c 857d 14be
000000e0: 5ecb 98bd c8f5 78bc bee2 893d 95ba 713d
000000f0: 162f ccbb 6d0e 9e3d e440 023e 6068 bc3c
00000100: 9994 81bd cb69 acbd 2ef1 56bd 944d 003c
00000110: ae34 803d 10a8 55bd aad6 f6bd b16f 503d
00000120: a8ed 063e dd3c e7bd 00ba 493d bdb3 37bd
00000130: 6337 bdbd 6563 9b3d fe66 6fbb f7d3 0e3e
00000140: 9382 1d3e 8123 a53d 8a8a b53d c102 743b
00000150: 11e3 303c a039 7f3d a67a b3bc 0297 383c
00000160: adb3 af3c a81d 813d 9dcd 2c3d fedb 0abc
00000170: e471 8abd b801 83bd b105 37bd 803c 163d
00000180: 435d d73d c3fe 93bd 386a 5f3d f734 0ebd
00000190: 5a14 9bbd ca07 0ebd 14e7 923d f240 92bc
000001a0: 467e 083e fae5 09bd 0c1c 31bd 8df2 bd3d
000001b0: 65ee 30bd dd02 773d d2d4 56bd a890 8bbb
000001c0: f864 78bd 3c13 84bd 137b 53bd b0a8 383d
000001d0: 3e29 e3bd 2b22 923d 2d9e 9abd 9411 52bc
000001e0: f517 063e 191d cfbd e3c0 90bc 15b1 49bd
000001f0: 8b24 6cba 9293 c33c e859 ec3d 248d a7bd
00000200: 623f 9fbd b2be 9a3d 6ae7 c33d 81bd 93bd
00000210: 4bb0 72bd 74c5 9c3d c5b6 673d 9505 8e3d
00000220: f36e f8bc 5d86 01bd 15b3 bb3d 0964 01bd
00000230: 5e86 b23d b6d7 adbd 840b a03c 36e3 38bb
00000240: 6b6c 7dbd dd49 cdbd f005 06be 4cb6 4d3d
00000250: 58c6 183e 4b48 d93c 171a 91bb 2345 d73d
00000260: 02ab 17be ab90 043d 1649 953d ef1e 9dbd
00000270: 18bc 733d 9936 f0bd 89c5 80bd ddf1 6abc
00000280: 6ce3 8a3d 1a49 c5bc e8a8 8e3d a123 d23d
00000290: 11e0 0abd 5e1b b1bd 806d 7fbd 9165 a63d
000002a0: 597b 263d 1371 febc bf1b 763c c67a b83d
000002b0: 0425 23bd 0b4c 85bd 63c7 76bd 87c3 1abe
000002c0: ab01 84bd aaa2 903d 861a ff3d 7870 9ebc
000002d0: baaf 0bbe ec6b 003d c967 78bd 7a61 c8bd
000002e0: 69d7 393c 6138 583c 3e56 8bbd fe80 113d
000002f0: 72a3 d13d f9e1 5d3d 52bd 1d3e d94a 93bd
00000300: cc7c a63c d96c a03d 7d56 393c 660c 1dbd
00000310: 4319 8cbd b71d 44bd ca5d e13c 4eb8 a0bd
00000320: 2b85 0c3e 4279 853c a61b 59bc 2261 36be
00000330: 759f 663c 2f73 b03d bffe 353d 43fe a7bc
00000340: a304 85bd 3b41 b23c fe28 b0bd 4d9f b1bd
00000350: 1f01 bf3d 490d 753d 54c8 113e 9bb5 b03d
00000360: facf abbd f616 a4bc 7236 1d3e 8ae7 3cbc
00000370: ffcd abbd f115 bfbc f9c8 cc3b dedc 9a3c
00000380: 60c0 6a3d 1575 cdbc 860e 62bc e121 053e
00000390: 7643 6e3d 9101 cfbc 2b03 1abd 3b0d 023d
000003a0: 338f 183e 03e8 12be 6ffc 8b3d 062d e93d
000003b0: 5ab9 773d aec5 80bd 418b a6bc 4f85 98bd
000003c0: c663 c63d 086a 2cbd be28 c93d 699d 1cbe
000003d0: 3a36 0cbe bcc4 3cbc ce7b b7bd 31a4 10be
000003e0: 2d7d 5c3d bc14 e2bd 7070 94bd 5613 d43d
000003f0: bc59 0fbc 8514 dbbd c898 153e beab dd3d
0.03170473 -0.12382449 -0.038488097 -0.05163204 0.13290596 -0.060125574 0.035640948 0.059120867
-0.0805935 -0.0528844 -0.08122794 0.0031302755 0.077274606 0.14334965 -0.033974964 0.13633052
0.06603174 -0.09703129 -0.106581144 -0.06304731 0.00027577011 -0.08461219 0.1520254 -0.025686309
0.044196077 0.08347142 0.14019221 0.045699857 -0.081477344 -0.11565455 0.002828312 0.002371104
0.06324902 0.08037826 -0.036962554 0.062171284 0.0029612782 -0.08238067 0.078432724 -0.06186391
-0.06342725 -0.08567082 0.06601099 -0.06383996 0.01440126 0.036033794 -0.079889335 -0.015232606
-0.06459146 0.014421165 -0.08678178 0.047532298 -0.07725915 -0.058109965 0.022180468 -0.14501007
-0.07460664 -0.015195318 0.06732701 0.05901583 -0.006231199 0.07717595 0.12720066 0.022998989
-0.06327171 -0.08418616 -0.0524761 0.007830996 0.06260048 -0.05216223 -0.12052663 0.050887767
0.13176596 -0.112909056 0.04924965 -0.044849146 -0.0923908 0.075873174 -0.0036529894 0.13948046
0.15381841 0.080634125 0.08864315 0.0037233087 0.010796324 0.062310815 -0.02190907 0.011266472
0.02144798 0.063044846 0.042188276 -0.008475302 -0.06760004 -0.06396812 -0.044683162 0.03667879
0.10515835 -0.07226326 0.054544657 -0.03471848 -0.07572241 -0.034675397 0.07172981 -0.017853234
0.1332942 -0.03366659 -0.04323964 0.092747785 -0.0431961 0.060305465 -0.052449055 -0.0042591877
-0.060643166 -0.06448981 -0.051631045 0.045082748 -0.11091851 0.07135423 -0.07549701 -0.012821574
0.13095076 -0.10112972 -0.0176701 -0.049241144 -0.0009008131 0.023874078 0.11540586 -0.08181217
-0.07775761 0.075559035 0.09565623 -0.072138794 -0.059250157 0.07654849 0.056570787 0.069346584
-0.030326342 -0.03162228 0.091650166 -0.03158954 0.08717035 -0.08488409 0.019536741 -0.00282116
-0.061870974 -0.10023854 -0.13088202 0.05022268 0.14919412 0.02652373 -0.004428159 0.10511234
-0.14811328 0.03236453 0.07289331 -0.07671916 0.059505552 -0.11729164 -0.06287677 -0.014339891
0.067816585 -0.02408271 0.0696581 0.10260702 -0.033905093 -0.08647798 -0.062360287 0.08124841
0.040644977 -0.031059777 0.015021264 0.09007792 -0.039830223 -0.06508645 -0.060248744 -0.1511365
-0.06445631 0.07062276 0.12456231 -0.019340739 -0.13641253 0.031352922 -0.060645852 -0.09784217
0.011342862 0.0131970355 -0.06803559 0.035523407 0.10236253 0.054170582 0.15404251 -0.071920104
0.02032318 0.07833261 0.011312124 -0.038341902 -0.06840756 -0.0478799 0.027510542 -0.07847653
0.13722675 0.016293172 -0.013251221 -0.1781049 0.014076103 0.086157195 0.044432398 -0.020506984
-0.06495025 0.02175962 -0.08601569 -0.08672962 0.09326386 0.059827123 0.14236575 0.086283885
-0.08389278 -0.02003048 0.153528 -0.011529813 -0.083889 -0.023325892 0.0062495437 0.018904146
0.05731237 -0.025080243 -0.013797408 0.13001205 0.058169805 -0.025269302 -0.037600677 0.0317509
0.14898376 -0.14346318 0.06835257 0.11385541 0.0604795 -0.062877044 -0.020330073 -0.074473016
0.09686999 -0.042093307 0.09822224 -0.15294422 -0.13692561 -0.0115215145 -0.08959161 -0.14125134
0.053830314 -0.11039111 -0.07248008 0.103552505 -0.008749422 -0.10697273 0.14609063 0.10823773

rnn.bias_ih_l1 f4 [256]
00000000: ffd2 233e bb41 a03c c965 153e aa34 da3c
00000010: 7994 a73c eb12 9bbb 0b66 d93d fb7e 293e
00000020: 83d7 a33d 5920 d73d 8b49 0c3e d913 3f3d
00000030: 9e7b 673d ce38 ae3d 9e4c b8bc 9128 ee3d
00000040: 0cee 15bd 7f25 b73c 4d94 993d bc34 113e
00000050: 5141 0bbd 1d59 783d d4fb 053e db8d 7bbd
00000060: 360d 853d 5230 1c3e c7d4 093e 593f b73d
00000070: 9091 b73d c9c9 1b3e ff86 053e b432 4a3e
00000080: 1ebb bb3d 9082 343d b0f3 52b9 5f77 553d
00000090: a037 7fbc 2917 b33d ba19 cf3d 8312 423e
000000a0: 98cb 173d 5e2b ed3d 7ba2 8d3d 2fbd bd3c
000000b0: 9b4e 053d 64f1 b23d d256 37bc 0d64 e03d
000000c0: cd29 803d 9678 1a3e a0da 063e fe50 2c3d
000000d0: d00f c13b 2268 a83d f0a0 423e 823e d4bc
000000e0: 7eb4 6a3d 73d0 c43d 4e86 38bd 9183 af3d
000000f0: 9bf4 0f3d 7b97 ccba 1bcc ed3d 9ba9 dbbc
00000100: 9808 0c3e c62e 72bd de85 1f3e 04b3 afbd
00000110: f853 213d 0385 153e 5e93 b5bc 623e a8bd
00000120: 8e26 e93d 517b 95bd 6b96 88bd 659d bebd
00000130: 682d 3fbd d267 b2bd b562 003e fb70 14bd
00000140: e820 20bd ec9e e03d c3f7 cb3d e623 90bc
00000150: 46fd 243e e724 c6bc 3e88 9e3d 66a6 94bd
00000160: 4bb9 ea3d cc5f 8cbd 6332 62bd d363 d2bc
00000170: d9b9 c8bd 3828 f23d 9bda 013d dca9 093e
00000180: 726f 203e e035 673c f45c 49bd ab82 cd3d
00000190: a00d 003e b844 37bd 259b 7d3c 45df 34be
000001a0: f7a2 de3d 4f08 3d3d 6ffb eebc a6c5 a9bd
000001b0: 5a1d b3bd 9ece 893d f0ba b83d 4a59 663d
000001c0: 0b40 08bd 223e 783c 75f5 4e3b e2b6 a0bd
000001d0: dcdf 013e 979e a73d 7854 93bd 3d5f d03d
000001e0: f770 a2bd 4da8 fa3a 583b 38bd b907 4dbd
000001f0: 487c 65bd 2de6 82bd e81c 913d 4b45 383d
00000200: a64d f9bd 36a7 2c3c bb44 b63d 6fa8 0ebe
00000210: bd69 153e 764d 37bd aa42 84bd 105f c1bd
00000220: bed5 a8bd 30f0 1dbe 5a8f 23bd b829 8abd
00000230: e633 f13c 6c5b 1d3e c6d4 0d3e f152 17bd
00000240: f070 933d 0b36 9e3b 20d4 2fbe 3ca9 813c
00000250: f910 d53d fd7c aabd 1950 8cbd 28cc 5cbd
00000260: e45a 8fbd feb3 ab39 12e9 103d b178 82bc
00000270: 6f54 533d 570e a8bc 9251 a8bd 656f 893d
00000280: 16da 893d d027 11be 5728 d33d ca08 c3bc
00000290: bcc3 f9bd 0597 a1bd dd0b a93d 1c40 36bd
000002a0: 1e07 ea3d d6bc 28bd 16ea fc3d 2f45 5d3d
000002b0: 66b9 c8bc 4ec4 123e 8238 833d 245b e4bd
000002c0: de48 b53d a98d 66bd 2b52 ef3b 8f72 eabd
000002d0: 2a77 1d3d 88fb a5bb ad17 86bd 3a74 a33c
000002e0: f4e9 923c b468 3abd 3e5c d9bb 6ea1 8c3d
000002f0: 804f a03d 7bef 2c3d 6a95 903b b8bd 0a3e
00000300: 5a1e 84bd 9ebd c63c 244a 23bd e81c 983d
00000310: b14f 253e 66e3 e83c 273b b7bc e205 833d
00000320: 6d57 6cbd cb36 043e 196f 6cbd f0aa 913d
00000330: 7acc 013e 79ab cf3d 9dcd f53d f63d 2b3e
00000340: 1e3c e43d df5b 643d 460b 6abd 18f2 fc3d
00000350: ac74 c2bc 3283 e03c c3b0 9abc 76e2 cab7
00000360: e12e 0b3d 8508 9fbb 727a 263e 96b6 373e
00000370: 4184 a6bc 29de 8d3c c9d4 dd3d ac34 073c
00000380: af61 b23d 7ced 1a3e e490 0d3e 34a6 463e
00000390: a8bb 9dbd 5d77 453e 9627 8ebd 07df 6d3d
000003a0: 7ccc d3bc 633e 013c 3f28 ad3c ae77 0f3e
000003b0: ce37 053c 343f e93d 9294 323e 5422 373d
000003c0: 9d04 423d bf78 003e bd07 a4bd 157b 0b3d
000003d0: ba20 1f3e d0a5 19ba c924 be3d a101 e93d
000003e0: 7a9a a5ba a9af eb3d 5f90 233e b4c7 23bd
000003f0: 57da 213e 291f 8c3d d9c5 25bc 679f 963d
0.15998457 0.019562593 0.14589609 0.02663644 0.02045654 -0.00473248 0.10615166 0.16552345
0.0800009 0.10504217 0.1369993 0.046649788 0.056514375 0.085069284 -0.022497471 0.11628831
-0.036603972 0.022356747 0.07498989 0.14180273 -0.033997837 0.06063186 0.13084346 -0.06141458
0.064966604 0.15252808 0.13460074 0.089476295 0.08963311 0.15213694 0.13039778 0.19745904
0.09166549 0.044069827 -0.00020117941 0.052115794 -0.015577227 0.08744652 0.10112329 0.18952374
0.037059397 0.11580537 0.06915756 0.023161499 0.032545667 0.08737448 -0.011190133 0.10956583
0.06257973 0.15085062 0.13169336 0.042069428 0.0058917776 0.08222987 0.19006705 -0.025908712
0.057301037 0.09610071 -0.045049958 0.08570016 0.035145383 -0.001560911 0.11611196 -0.026814273
0.13675153 -0.059126638 0.1557841 -0.085790664 0.03938672 0.14601521 -0.022164997 -0.082150236
0.11384307 -0.07298911 -0.06669315 -0.093073644 -0.046674162 -0.087112084 0.12537654 -0.03624056
-0.03909388 0.10967812 0.09959366 -0.017595243 0.16112241 -0.024187518 0.0774083 -0.072583005
0.11461123 -0.06854209 -0.055223834 -0.025682366 -0.098010726 0.11824077 0.03170262 0.13443702
0.15667513 0.014111966 -0.049160913 0.100346886 0.12505198 -0.04474327 0.015478884 -0.17663296
0.10870927 0.0461505 -0.029172627 -0.082896516 -0.08745833 0.06728862 0.090200305 0.056237496
-0.0332642 0.015151532 0.003157941 -0.07847382 0.12683052 0.081845455 -0.071938455 0.10174415
-0.079317026 0.0019123644 -0.04497847 -0.050056193 -0.056026727 -0.06391559 0.070855916 0.044987958
-0.121730134 0.010537913 0.08899828 -0.1393144 0.14591117 -0.044751607 -0.06458028 -0.0944196
-0.08243893 -0.15423656 -0.039931633 -0.067462385 0.029443692 0.15366906 0.13850698 -0.036944333
0.071992755 0.00482822 -0.17170763 0.015827768 0.10403628 -0.08324621 -0.06851215 -0.053905636
-0.06999758 0.00032749766 0.035378523 -0.01592669 0.051594194 -0.02051465 -0.08218683 0.067107
0.0673105 -0.14175344 0.103104286 -0.023807902 -0.121955365 -0.07890133 0.08254216 -0.044494733
0.11427139 -0.041195713 0.12349336 0.054021057 -0.024502467 0.14332697 0.064072624 -0.11150196
0.08851789 -0.05628744 0.0073034964 -0.114476316 0.03844372 -0.0050653853 -0.065474845 0.019952882
0.017933823 -0.04551001 -0.0066333106 0.06866728 0.078276634 0.042220574 0.004412343 0.13548934
-0.064511016 0.024260338 -0.039865628 0.074273884 0.16143681 0.028428745 -0.022367073 0.063976064
-0.057700563 0.12911527 -0.05772314 0.07112682 0.12675658 0.10140128 0.12002108 0.16722855
0.11144279 0.055751678 -0.057139657 0.12350863 -0.023737274 0.027406309 -0.018883115 -2.418573e-05
0.033980254 -0.0048533105 0.16257647 0.17940745 -0.020326735 0.017317848 0.10831601 0.008252304
0.08710038 0.15129656 0.13824803 0.19399339 -0.07701808 0.19283815 -0.06941144 0.058074024
-0.025854342 0.007888409 0.021137355 0.14010498 0.008130981 0.11389008 0.17439488 0.044710472
0.04736768 0.12546061 -0.080092885 0.034052927 0.15539828 -0.0005861195 0.0928436 0.11377264
-0.0012634539 0.11508114 0.15973042 -0.039985374 0.15805946 0.06841881 -0.010117971 0.07354622

rnn.bias_hh_l1 f4 [256]
00000000: 03f7 903d 551f 733c 1ce1 f03d de64 3bbc
00000010: 8366 bc3d b6a7 d8bc 1594 3f3e eb81 003e
00000020: 511d 2a3e eca0 2f3e c788 5b3d f45e 0e3e
00000030: 3f83 4e3e 6e17 283e 34d0 873d d821 f4bc
00000040: fd97 393e aae1 54bd 7982 2b3e 6045 a73d
00000050: a8be 403e e573 cebb 4a17 0d3e 73cf dc3a
00000060: ca3a ac3d 9fb4 fb3d 7a7c 183a 894c 923d
00000070: d814 3e3e ac0f 74bd 1fb0 a93d 76e4 473d
00000080: 8b5d ea3c 1147 d5bc d784 8a3d 2430 023e
00000090: 5d9a 3d3e 85d3 3f3d d1fb 923d 8a70 f63d
000000a0: 9177 5f3d 7dd2 a03b 8171 193e bff3 d2bc
000000b0: 1958 ac3c 250c c73b 1021 cb3d 010f 1c3e
000000c0: 5ffa 46bd 6231 a8bc 7cad 01bd 5200 da3d
000000d0: c7d6 a63c 2fad 3e3d 6a42 593e 71ef 37ba
000000e0: d284 9c3c 5a7d d03d f1fc b73d 00aa 3cbd
000000f0: 6f04 343e e6b6 1c3e 9d3f a73d da96 063e
00000100: 849a b0bd fd53 163e 3a6f 63bd 355c 7b3d
00000110: b4ed f13d a115 e2bc 4265 09be 7716 84bd
00000120: e3d6 a0bc 0e16 c83d 9f83 903d aa81 873d
00000130: 86d6 633d a5ea ee3d 7667 b53a 53fd 0e3e
00000140: 474c 193d 9d2a 853d fea2 103d 29c8 af3d
00000150: 404f 0fbd d516 903d b409 3ebd 55ee 313d
00000160: 2504 a63d 7388 8dbd 6270 8dbd 8075 a8bd
00000170: 7dea 883d 0542 8b3d 0736 cabd 98a0 813c
00000180: b858 f0bb 784d a03d 8e0c fabc 2484 aebd
00000190: 449c 14bc 7dad 0fbe e54a 5b3d 0400 b9bd
000001a0: 28cd 643b 9ebf 573d e980 743d 8c75 d4bd
000001b0: 17e0 ee3d 4743 b4bc 1dd8 39bb fc77 7e3d
000001c0: 3ddb cc3d 10b5 863d 6a8d 043e 1e8a bb3d
000001d0: 9ca9 e73d 14ae 51bc b23b 5cbd 9985 dabc
000001e0: 583d a3bc f872 f23d 0193 ddbb 6874 153e
000001f0: 5b47 0a3e 52cf 75bd ba09 e0bc 24f5 973a
00000200: f1ad 4abd bc60 9dbd f42f 8e3d da68 0d3d
00000210: eeae 17bd f44b 443d aa82 0abc e0d1 06be
00000220: f6e9 b23d 901f 8abc e904 cd3d 2dd2 08bd
00000230: dd49 c13d 59c2 dd3c 302a 853d e112 fa3b
00000240: 61ff 043e 6f8b d8bd a4c9 c2bd a3c2 0fbe
00000250: 2120 f6bc 362c 8a3d e07d 563d 56d7 ea3d
00000260: 6bd0 08be bce3 b8bc 2eb6 cebc cb13 25bd
00000270: 541d 16be fee7 933d 42c8 5f3d 17ad 1bbd
00000280: 5427 993d 7498 e9bb bef5 02bd bdef 173d
00000290: 03d7 1fbe 3936 fe3c 2d32 09be 958b 41bd
000002a0: 611d 4d3c aed5 8a3c e4d1 dd3d a875 403d
000002b0: 775d c33d 22c3 88ba ad1c 3dbd 24b7 5d3d
000002c0: 1cb7 1d3e ab23 47bc da23 a63d 7289 303d
000002d0: f4db 01be 190d d7bc 0e07 0b3e c5d7 88bd
000002e0: 4563 083e 4079 173c 10b2 36bd fcb7 523d
000002f0: 1fb2 b03d eec8 853d 4411 863c a233 2fbd
00000300: 3e90 023d 4df2 aa3d 1e18 fc3d dcb4 dd3d
00000310: d4c3 0b3e a6cf 3e3e d8f1 87bc f67b 233e
00000320: ade1 2d3e 11a1 623d d7b4 043e ec15 3a3d
00000330: 0470 063e 1410 82bb 908a 1f3e 3249 8d3d
00000340: e857 fb3d 9cb1 d13c 2a99 ab3c 0058 3e3e
00000350: 5790 913d 045e 0c3e e11e 163e c9b8 f3bc
00000360: 9b54 893d 1034 d13d cd7a 2e3e 3e18 383e
00000370: f058 3e3e 2017 f73d a870 943b 0ad8 c43c
00000380: 8ecb cabc 6b33 9dbd 798c d93b 8a52 3b3c
00000390: f935 5c3d 806c 9fbc b2c2 d93d 901b 2d3e
000003a0: 721b 763c 0055 a03d de5e 343e f4e3 44bc
000003b0: 1f25 a1bd 1e95 a5bd c07e 143e 86c3 45bb
000003c0: e474 053d b42f 44bc fe83 573d cd69 e53d
000003d0: 3784 d43d 2b88 2b3c 2f2c 273d fb46 383e
000003e0: 3421 42bd b465 093d c4d0 5b3b 18c9 a3bc
000003f0: faba da3c 027a 2d3c 9a74 b2bc 0df5 c63d
0.07078364 0.014839013 0.11761686 -0.011437623 0.0919924 -0.026447158 0.18708833 0.1254956
0.16612746 0.1715123 0.053597238 0.13903409 0.20167254 0.16415188 0.066315085 -0.029801294
0.18124385 -0.051973023 0.1674899 0.08167529 0.1882273 -0.006300437 0.13778415 0.0016846493
0.084096506 0.1229031 0.00058168883 0.07143504 0.18562639 -0.05958526 0.082855456 0.04880186
0.028609058 -0.026034864 0.067636184 0.12713677 0.18515916 0.04683258 0.071769364 0.12033184
0.054557387 0.0049079047 0.14984705 -0.025750993 0.021038102 0.006074446 0.099184155 0.15240099
-0.048578616 -0.02053136 -0.03165959 0.10644592 0.020366086 0.04655188 0.21216741 -0.00070165755
0.019106302 0.10180159 0.089837916 -0.046060562 0.17579816 0.15304145 0.0816643 0.13143483
-0.086232215 0.14680476 -0.055525996 0.061367232 0.118129164 -0.027598204 -0.13417533 -0.06449597
-0.019633716 0.097698316 0.07056355 0.06616528 0.055624507 0.11665849 0.0013840038 0.13963823
0.03742626 0.065022685 0.03531169 0.085830994 -0.034987688 0.07035605 -0.046395972 0.04344018
0.08106259 -0.06910791 -0.06906201 -0.08225536 0.0668535 0.067997016 -0.09873586 0.015823647
-0.007334795 0.07827276 -0.030523565 -0.085212976 -0.00907046 -0.14031024 0.053538222 -0.09033206
0.0034912322 0.052672975 0.05969325 -0.10373983 0.116638355 -0.022004737 -0.0028357573 0.062126145
0.10002754 0.06577504 0.1294457 0.09157203 0.11311647 -0.012797851 -0.053767867 -0.026675032
-0.019926712 0.11838335 -0.006761909 0.14595187 0.13503782 -0.06001217 -0.027348388 0.0011593443
-0.04948229 -0.07684466 0.0694274 0.034523822 -0.03703206 0.047923997 -0.008454004 -0.13165998
0.08736031 -0.016860753 0.10010702 -0.033403564 0.094379164 0.027070211 0.06502187 0.007631645
0.12988044 -0.1057347 -0.09511116 -0.14039092 -0.030044617 0.06746714 0.052366138 0.11466853
-0.13360755 -0.02256953 -0.025233354 -0.04030208 -0.14659625 0.072219834 0.05463434 -0.03800687
0.07478204 -0.0071287695 -0.03197264 0.037093867 -0.15609364 0.031031715 -0.13398047 -0.047252256
0.0125192115 0.016947594 0.10831049 0.046987206 0.095393114 -0.0010434131 -0.046169925 0.054129735
0.15401882 -0.0121545 0.08112307 0.043099828 -0.12681562 -0.026251363 0.1357691 -0.0668178
0.13319118 0.009245217 -0.044603407 0.051444992 0.08627724 0.06532465 0.016365655 -0.04277385
0.03187584 0.083469965 0.123092875 0.10825512 0.13648921 0.18633899 -0.016594812 0.15965256
0.1698062 0.055329386 0.1295961 0.045431063 0.13128668 -0.003969202 0.15580201 0.068987265
0.12272626 0.025597386 0.020947058 0.18588257 0.07107609 0.13707739 0.14660217 -0.029751198
0.0670559 0.10215008 0.17039032 0.17977998 0.18588614 0.120649576 0.0045300312 0.024028797
-0.024755266 -0.07675823 0.00663906 0.011433253 0.05376241 -0.019460917 0.10632838 0.16905046
0.015021192 0.078287125 0.17614314 -0.012017239 -0.078684084 -0.080850825 0.14501476 -0.0030176356
0.03258218 -0.011974264 0.052616112 0.112018205 0.103767805 0.010469477 0.04081362 0.17995827
-0.047394946 0.033544257 0.0033541182 -0.01999335 0.026700485 0.010588171 -0.021784116 0.097147085
