16 - Recurrent Neural Network/model/lstm/weights_best.pth (torch, 204551 bytes, 9 tensors)

rnn.weight_ih_l0 f4 [256, 1]
0	0x3d9a6e32	0.07540549
1	0x3e84c816	0.25933903
2	0x3dbbbcca	0.09166868
3	0x3dba6809	0.091018744
4	0x3cbb593a	0.022869695
5	0x3da8d45c	0.08243629
6	0x3ddea1ca	0.108707026
7	0x3d262220	0.040559888
8	0x3e674d93	0.22588186
9	0x3e4064dc	0.18788475
10	0x3e10dd61	0.1414695
11	0x3d8e6e8e	0.069546804
12	0x3d708d9f	0.05872881
13	0x3e0f7058	0.140077
14	0x3e5b3ff6	0.21411118
15	0xbc52f147	-0.012874908
16	0x3da913e6	0.082557485
17	0x3d3efe93	0.0466295
18	0x3e8f4e6d	0.27989522
19	0x3dfb4f0f	0.122709386
20	0x3daa2542	0.083078876
21	0x3db4a10f	0.08819782
22	0x3da32b5a	0.07967253
23	0x3d92726f	0.07150733
24	0x3da20e64	0.07912901
25	0x3e4b0373	0.19825535
26	0x3e1381cd	0.14404984
27	0x3e3c34c3	0.18379502
28	0x3d2aceb6	0.04170104
29	0x3e0d1e40	0.1378107
30	0x3e87a764	0.26494896
31	0x3da85d00	0.08220863
32	0x3e05b809	0.13058485
33	0x3e01547e	0.12629887
34	0x3dcedf66	0.101012036
35	0x3e1cea5f	0.1532378
36	0x3d68145a	0.056660034
37	0x3d7c9fda	0.061675884
38	0x3c965f10	0.018355876
39	0x3d9385f0	0.07203281
40	0x3e33a4f5	0.17543395
41	0x3deaa446	0.11457114
42	0x3cb7c796	0.022434037
43	0x3e0a591e	0.13510558
44	0x3e347fd6	0.1762689
45	0x3daf5b4d	0.08562336
46	0x3d3fc77b	0.0468211
47	0x3e17b595	0.14815362
48	0x3ddd56fe	0.10807608
49	0x3e0d69b1	0.1380985
50	0x3d5a625a	0.05331645
51	0x3df13c54	0.11779085
52	0x3dd73fe8	0.10510236
53	0x3e2aba34	0.16672593
54	0x3e2c1470	0.16804671
55	0x3e1853bd	0.14875694
56	0x3d9d96e0	0.07694793
57	0xbc81547b	-0.015787354
58	0x3ce30773	0.027713513
59	0x3e138669	0.14406742
60	0x3d80564a	0.06266458
61	0x3e86de76	0.263416
62	0x3e14391a	0.14474908
63	0x3d8f68c7	0.070024066
64	0x3dc9033b	0.09815069
65	0xbe085151	-0.1331227
66	0x3c008446	0.007844036
67	0xbcc1bd8f	-0.023649959
68	0x3defc3c0	0.11707258
69	0x3d6d6db3	0.057965945
70	0x3b9c91d7	0.0047781277
71	0x3dd7b7e1	0.10533119
72	0x3e2f01a8	0.17090476
73	0x3c65ca3f	0.01402527
74	0xbbfa1225	-0.0076315575
75	0x3b307bd0	0.0026929267
76	0x3db83e01	0.08996201
77	0xbd5630b5	-0.052292544
78	0xbc8f5917	-0.017498536
79	0x3dce1dfa	0.10064311
80	0xbb5f5f58	-0.003408393
81	0xbce6f985	-0.028195152
82	0xbd50bfde	-0.05096423
83	0xbd1f9d85	-0.03896858
84	0x3d2416e2	0.040060885
85	0xbccb4310	-0.024812251
86	0x3e13eeaa	0.14446512
87	0x3da752df	0.08170103
88	0x3e1a4edc	0.15069145
89	0xbdb39892	-0.08769335
90	0xbd5ffda8	-0.054685265
91	0xbe54e9f5	-0.20792373
92	0x3d869aa1	0.06572462
93	0x3dd2a024	0.10284451
94	0x3db9603d	0.09051559
95	0x3dbe3a98	0.092885196
96	0x3dd4c011	0.10388196
97	0x3da3e102	0.08001901
98	0xbca7322b	-0.020409664
99	0xbd5c72f8	-0.05382058
100	0x3cad7e01	0.021178247
101	0x3e196dbf	0.14983271
102	0x3e172e8f	0.14763854
103	0xbd479abb	-0.048731547
104	0xbe0ab045	-0.13543804
105	0x3d46eea1	0.048567418
106	0x3dd12770	0.102126
107	0x3e285470	0.1643846
108	0x3e1073f9	0.1410674
109	0x3d6c222d	0.05764978
110	0x3e16aff4	0.14715558
111	0x3dc97b1c	0.098379344
112	0x3e3073cb	0.17231672
113	0x3bd14285	0.0063861036
114	0xbbd32a88	-0.006444279
115	0x3e0f61fd	0.14002223
116	0xbd83e466	-0.06440048
117	0x3e00d67b	0.12581818
118	0x3e0127a9	0.12612785
119	0xbd088158	-0.033326477
120	0x3e08650b	0.13319795
121	0x3d92ea69	0.071736164
122	0xbd2ba07e	-0.041901104
123	0x3ce685d8	0.028139994
124	0xbd51c5cb	-0.05121402
125	0xbd509f4c	-0.050933167
126	0xba3e1dda	-0.0007252373
127	0x3d6c91fb	0.057756405
128	0x3e49789c	0.19674915
129	0xbd277bdb	-0.040889602
130	0xbe2d953b	-0.16951458
131	0x3df5f741	0.120100506
132	0x3df3a9b3	0.11897602
133	0x3d9fb05a	0.07797308
134	0xbd60f3c2	-0.054919966
135	0xbdfda86c	-0.123856395
136	0x3e435678	0.19075954
137	0xbe63211d	-0.221806
138	0xbe04347a	-0.12910643
139	0x3e7fa843	0.2496653
140	0x3dad039b	0.08447953
141	0x3d8d8a76	0.06911175
142	0xbe2b6308	-0.16736996
143	0xbdf86513	-0.121286534
144	0x3dbea217	0.0930826
145	0x3e371cf8	0.17882144
146	0x3e85d119	0.2613609
147	0xbe405001	-0.18780519
148	0x3dbe2d38	0.092859685
149	0xbd59cdf2	-0.05317492
150	0x3e14cc1b	0.14530985
151	0xbd9406bc	-0.07227847
152	0x3e075a9c	0.13218158
153	0xbe794b04	-0.24345022
154	0x3d7d7103	0.061875354
155	0xbe5fadcf	-0.21843646
156	0x3e59e4fa	0.21278754
157	0x3d6730f8	0.056443185
158	0xbe7f3b48	-0.24924958
159	0xbe364faa	-0.17803827
160	0xbe536e0b	-0.20647447
161	0xbd9128b5	-0.070878424
162	0x3daab60c	0.08335504
163	0xbe5bcbe6	-0.214645
164	0x3da3290e	0.07966815
165	0xbdb4f7b0	-0.08836305
166	0xbdecfce1	-0.1157167
167	0x3e24b933	0.16086273
168	0x3e0d2118	0.13782156
169	0xbc39ffcb	-0.01135249
170	0xbdff460f	-0.124645345
171	0xbde56da6	-0.112025544
172	0xbde512ea	-0.11185248
173	0xbe4ac5f9	-0.19802083
174	0x3e06a37b	0.131483
175	0xbdcbe674	-0.09956065
176	0xbd8f8970	-0.07008636
177	0xbe19d946	-0.1502429
178	0xbda2c5b2	-0.07947864
179	0x3e112788	0.14175236
180	0xbdb83c76	-0.08995907
181	0x3d6eeb7b	0.05833004
182	0xbe04d424	-0.1297155
183	0x3dd6ec9b	0.10494348
184	0x3d8d102c	0.0688785
185	0xbdf5ae67	-0.11996155
186	0xbdfb1620	-0.122600794
187	0xbd7401c1	-0.059571985
188	0xbe0b9035	-0.1362923
189	0xbe154919	-0.14578666
190	0xbe0a34c3	-0.1349669
191	0xbdb0a79c	-0.08625719
192	0x3e478cef	0.19487356
193	0x3dcd2656	0.100170776
194	0x3e0aabca	0.13542095
195	0x3dd082a8	0.10181171
196	0x3e1682a2	0.1469827
197	0x3e0bfb63	0.13670115
198	0x3dffe6bc	0.12495181
199	0x3dcccf34	0.10000458
200	0x3d8822ca	0.066472605
201	0x3d4ab653	0.049490284
202	0x3e23c5f8	0.15993488
203	0x3ddc17b8	0.107467115
204	0x3d1d408c	0.038391635
205	0x3e2ec26b	0.17066352
206	0x3dc68b25	0.096945085
207	0x3d85b4f0	0.06528652
208	0x3e03d12d	0.12872763
209	0x3da89385	0.08231262
210	0x3d659c49	0.05605725
211	0x3dc2863a	0.09498258
212	0x3e37364e	0.1789181
213	0x3cf59dfa	0.029982556
214	0x3dc8db03	0.09807398
215	0x3dd30327	0.10303336
216	0x3d909f37	0.07061618
217	0x3e98d72f	0.29851672
218	0x3e35fcf6	0.17772278
219	0x3e74c573	0.23903446
220	0x3d6a55ce	0.057210736
221	0x3d8cb06e	0.06869589
222	0x3da2622d	0.07928882
223	0x3de1a02b	0.11016878
224	0x3d9d1dd1	0.07671703
225	0x3e51d83c	0.20492643
226	0x3daa628f	0.0831958
227	0x3eaa8886	0.33307284
228	0x3de17bd9	0.1100995
229	0x3e186a23	0.14884238
230	0x3e1521b6	0.14563641
231	0x3e6f5edb	0.23376028
232	0x3e067be9	0.13133205
233	0x3da17ac9	0.078847475
234	0x3e24ef51	0.16106917
235	0x3ddd131b	0.1079466
236	0x3e1117f5	0.14169295
237	0x3e14d7dc	0.14535469
238	0x3e0323c3	0.12806611
239	0x3e013a70	0.12619948
240	0x3e010cba	0.12602511
241	0x3de13000	0.109954834
242	0x3ddc6da9	0.107631035
243	0x3dbc4f1a	0.09194775
244	0x3e017471	0.12642075
245	0x3de41447	0.1113668
246	0x3e424185	0.18970306
247	0x3e5d85c9	0.21633066
248	0x3de8705a	0.11349554
249	0x3e250f51	0.16119124
250	0x3e2746d9	0.1633562
251	0x3d8281c9	0.06372411
252	0x3d9f948e	0.077920064
253	0x3d951417	0.072792225
254	0x3de5fa1e	0.11229347
255	0x3e13e6e9	0.14443554

rnn.weight_hh_l0 f4 [256, 64]
0	0xbd007fc4	-0.031371847
1	0x3e1532f7	0.14570223
2	0xbd17645d	-0.03696095
3	0x3e0fb7b8	0.14034927
4	0xbdac7538	-0.08420795
5	0xbd8f229d	-0.06989024
6	0x3db4d0ee	0.08828913
7	0x3da83307	0.08212858
8	0xbcc3b46e	-0.023889747
9	0x3dc03286	0.093846366
10	0x3daa77f4	0.083236605
11	0x3df14f2b	0.11782678
12	0x3c680fe3	0.014163944
13	0x3d834037	0.064087324
14	0xba6aa51f	-0.00089509966
15	0xbd829d5f	-0.063776724
16	0x3e04c334	0.12965089
17	0x3c286d48	0.010279961
18	0xbdadb339	-0.0848145
19	0x3c970875	0.01843665
20	0x3d24bb27	0.040217545
21	0x3d962e77	0.07333081
22	0xbd56f4a2	-0.052479394
23	0x3da8409b	0.082154475
24	0xbc6d660f	-0.014489665
25	0x3d0ba115	0.034089167
26	0xbc606179	-0.013695114
27	0x3dfbd73c	0.12296912
28	0xbdd590f9	-0.10428042
29	0xbb445ab2	-0.0029961285
30	0x3d9db3f1	0.07700337
31	0x3d7401fe	0.059572212
32	0x3d9d51db	0.07681628
33	0xbcb3d29d	-0.021951014
34	0xbd9865db	-0.074413024
35	0x3dc1d3f3	0.09464254
36	0xbd2e6f9f	-0.04258692
37	0xbc9ae463	-0.018907731
38	0x3c3a180e	0.011358274
39	0x3dd48f90	0.10378945
40	0x3db1923d	0.08670471
41	0xbde9ecab	-0.11422094
42	0x3dc45bdd	0.09587834
43	0x3cda8221	0.026673378
44	0xbdeb8009	-0.1149903
45	0x3db2e75d	0.08735535
46	0x3db89f3a	0.09014745
47	0xbd694ed6	-0.05695995
48	0xbd844b64	-0.06459692
49	0xbd857f25	-0.065183915
50	0x3dbb2f8e	0.0913993
51	0xbd824d1b	-0.06362363
52	0xbbb9acbe	-0.0056663444
53	0xbd793b9d	-0.060847867
54	0xbc567576	-0.013089528
55	0xbd971d97	-0.07378691
56	0x3db038a6	0.08604555
57	0x3b209071	0.0024500156
58	0x3cad3eb1	0.021148058
59	0x3d6d4717	0.057929125
60	0xbdaeb740	-0.08531046
61	0x3db8d084	0.09024146
62	0x3e35be30	0.17748332
63	0xbd75b070	-0.059982717
64	0x3da8dd72	0.08245362
65	0xbc876eaf	-0.01653227
66	0xbd466a05	-0.04844095
67	0x3d96370d	0.07334719
68	0x3e44270c	0.1915552
69	0x3de18a32	0.11012687
70	0xbd05b994	-0.032647684
71	0xbe4c4344	-0.19947535
72	0x3e3668b7	0.17813383
73	0xbd03101a	-0.031997778
74	0xbc12acba	-0.008952314
75	0x3e20f27d	0.15717502
76	0x3e0b42e5	0.13599737
77	0x3d7f4f1d	0.062331308
78	0xbd01ea44	-0.031717554
79	0x3cfcc34e	0.030854847
80	0x3e26f5c4	0.1630469
81	0x3d9a2936	0.075273916
82	0x3e3404b7	0.17579924
83	0xbe49602e	-0.19665596
84	0x3c3f5824	0.011678729
85	0xbe6104d3	-0.21974497
86	0x3d615d9b	0.05502091
87	0xbc428bb5	-0.011874129
88	0x3d9ae9ca	0.07564123
89	0xbc00e861	-0.007867903
90	0x3cc6fa2d	0.024289215
91	0x3c97ddba	0.018538345
92	0x3de992d5	0.11404959
93	0x3e06ac90	0.13151765
94	0xbe04f7e7	-0.12985192
95	0xbdb8540e	-0.09000407
96	0xbe8a3c3f	-0.2699909
97	0xbe5c6864	-0.21524197
98	0x3e52180f	0.2051699
99	0xbe0ba922	-0.13638738
100	0x3dbf518a	0.09341724
101	0xbe39e435	-0.1815346
102	0xbd06849b	-0.032841306
103	0x3e1e6aa4	0.15470368
104	0x3e66bf70	0.22533965
105	0xbe25e002	-0.16198733
106	0xbe499ab9	-0.19687928
107	0x3cca7fc9	0.024719136
108	0xbc6017d8	-0.01367756
109	0xbdd07baa	-0.10179837
110	0x3ddcaaf6	0.10774796
111	0xbdc0e33c	-0.094183415
112	0xbe162f3f	-0.1466646
113	0xbe297f07	-0.16552363
114	0xbdae0fc8	-0.08499104
115	0xbc9be241	-0.019028785
116	0xbdbcbff9	-0.092163034
117	0x3dff2aef	0.12459361
118	0xbcdbc9c5	-0.02682961
119	0x3e75d556	0.24007162
120	0x3db45b46	0.088064715
121	0xbcda5b73	-0.026654935
122	0xbd48e9ae	-0.04905098
123	0xbe1fa0d7	-0.155887
124	0xbdd32338	-0.10309452
125	0x3d0b578c	0.034019038
126	0xbc990f91	-0.01868418
127	0xbd645c95	-0.055752356
128	0x3c278457	0.010224423
129	0xbd0c7d02	-0.034298904
130	0x3d81e044	0.063416034
131	0x3e12b066	0.14325103
132	0x3e004a01	0.1252823
133	0x3e15f099	0.14642562
134	0x3d9c04a2	0.07618071
135	0xbd16914b	-0.036759656
136	0xbce69b8d	-0.028150344
137	0x3c751626	0.014958894
138	0xbcaa26e8	-0.020770505
139	0xbc9964c1	-0.018724801
140	0x3e2311f4	0.15924817
141	0x3c844f3b	0.016151061
142	0xbca34a37	-0.01993285
143	0x3da8e735	0.08247224
144	0x3e16bdd0	0.14720845
145	0x3e22040b	0.15821855
146	0xbd2deeb4	-0.042463973
147	0xbda0d211	-0.07852567
148	0x3c9a8d96	0.018866342
149	0xbdd3111c	-0.10305998
150	0xbc1d14fb	-0.009587522
151	0x3d86124b	0.06546458
152	0x3db77e0a	0.08959587
153	0x3c469b4c	0.012121987
154	0xbcf60192	-0.030030046
155	0xbd92ae96	-0.07162206
156	0x3ddb7fb5	0.107177176
157	0x3d896b23	0.06709888
158	0x3c4314e8	0.01190684
159	0xbdcca54d	-0.09992466
160	0xbc99428a	-0.018708486
161	0xbd9cc00c	-0.076538175
162	0x3da75a8e	0.08171569
163	0xbdf95ddb	-0.12176105
164	0xbbe441f6	-0.006965871
165	0xbd04efa3	-0.032455098
166	0xbe054bcb	-0.13017194
167	0x3d366fec	0.04454033
168	0xbd833ade	-0.064077124
169	0xbc5e15e9	-0.0135550285
170	0xbd79a212	-0.060945578
171	0xbde26c5b	-0.110558234
172	0x3d49ad0a	0.04923729
173	0x3d03ec82	0.032207973
174	0xbd91ea51	-0.071247704
175	0xbd94e125	-0.072695054
176	0xbe092843	-0.13394265
177	0xbd189c16	-0.03725823
178	0x3d809e01	0.06280137
179	0xbdea055e	-0.11426805
180	0x3d354140	0.04425168
181	0x3df25b02	0.118337646
182	0xbdacc43d	-0.08435867
183	0xbd7be3c2	-0.061496504
184	0x3e16ce26	0.14727077
185	0xbd86100e	-0.06546031
186	0xbde31833	-0.110886
187	0xbd6ff8af	-0.058586773
188	0x3ddd29a0	0.10798955
189	0x3d09c26c	0.03363268
190	0x3e356de2	0.17717698
191	0xbd5dbb6c	-0.054133818
192	0x3e0f8fe6	0.14019737
193	0xbd604a71	-0.054758493
194	0xbe023cad	-0.12718458
195	0xbca2a848	-0.019855633
196	0x3c9e5cf9	0.019331442
197	0xbd289ac7	-0.041163232
198	0xbc7cb8e2	-0.015424939
199	0xbc4b7b41	-0.012419523
200	0x3cdcb8ab	0.026943525
201	0xbdbefe67	-0.09325867
202	0xbd9eba65	-0.07750396
203	0x3dbae11b	0.09124967
204	0x3dda2961	0.10652424
205	0x3dfdad11	0.123865254
206	0xbcd91d23	-0.026503151
207	0xbb85b4e2	-0.004080401
208	0x3dfa63b0	0.12226045
209	0x3d981476	0.074257776
210	0xbd1f9d61	-0.038968448
211	0x3d51c4ab	0.051212948
212	0xbda4b456	-0.08042209
213	0x3e0e6f94	0.13909751
214	0x3c31e144	0.01085693
215	0x3d9bdfd0	0.07611048
216	0x3b5eaba3	0.0033976815
217	0x3d8b117e	0.06790446
218	0x3d15a039	0.036529753
219	0x3db1a33a	0.08673711
220	0x3db9364e	0.09043561
221	0x3d64ff56	0.05590757
222	0x3da816bc	0.08207461
223	0x3d6d0e8d	0.057875205
224	0x3ce9ae38	0.028525457
225	0xbdee31b1	-0.11630572
226	0xbcf2e974	-0.029652335
227	0xbd549b67	-0.051906016
228	0x3d14e063	0.036346804
229	0x3dadab97	0.08479994
230	0x3d6feb00	0.058573723
231	0x3d8b8b0c	0.068136305
232	0xbd0e510b	-0.034745257
233	0xbbb60b7f	-0.0055555697
234	0xbd5c9c14	-0.053859785
235	0x3dbc6136	0.09198229
236	0xbbc11f99	-0.0058936593
237	0x3d4b3a8c	0.04961638
238	0x3d1ced21	0.03831208
239	0x3bf4cc4d	0.0074706436
240	0xbdde4dec	-0.10854706
241	0x3d4de81c	0.050270185
242	0x3d0876ee	0.033316545
243	0x3de6df60	0.11273074
244	0xbc72df7d	-0.014823792
245	0xbd5bb4f4	-0.053639367
246	0x3b3e55f3	0.002904293
247	0x3dc80fff	0.09768676
248	0x3ce13576	0.027491312
249	0xbe1958a2	-0.14975217
250	0xbdda3433	-0.106544875
251	0xbca8107b	-0.020515671
252	0x3d848db6	0.06472342
253	0xbd908e40	-0.07058382
254	0xbd97f92a	-0.07420571
255	0x3da095a0	0.07841039

rnn.bias_ih_l0 f4 [256]
0	0x3dfbf087	0.12301736
1	0x3e101294	0.14069587
2	0x3dda059c	0.10645601
3	0x3e21fb81	0.15818597
4	0x3dda8e07	0.10671621
5	0x3d927016	0.07150285
6	0x3d9ba732	0.07600249
7	0x3dbaa09f	0.09112667
8	0x3e15b83e	0.14621064
9	0x3d99df18	0.07513255
10	0x3d75520a	0.05989269
11	0x3db576ba	0.08860536
12	0x3d2b3900	0.041802406
13	0x3c83d632	0.016093347
14	0x3e376238	0.17908561
15	0x3ce92153	0.028458273
16	0x3e2261b1	0.15857579
17	0x3e118238	0.14209831
18	0x3e87a4ed	0.26493016
19	0x3d232af1	0.039835874
20	0xbd76a6df	-0.060217734
21	0x3dddc7a7	0.10829096
22	0x3dfbe6ba	0.12299867
23	0x3e0c9ad7	0.13730942
24	0xbdaedd61	-0.085383184
25	0x3ec574bc	0.38565624
26	0x3e210fdb	0.15728705
27	0x3e820810	0.25396776
28	0x3e981e76	0.2971074
29	0x3d92b250	0.07162917
30	0x3de32eea	0.110929325
31	0x3e50851d	0.20363279
32	0x3e298533	0.16554718
33	0x3d8e266b	0.069409214
34	0xbcd43df8	-0.025908455
35	0x3e89532a	0.26821262
36	0x3d83c1f4	0.06433478
37	0x3e5c877b	0.21536057
38	0x3dde8fd2	0.10867275
39	0x3e5f2118	0.21789968
40	0x3dcd76ad	0.10032401
41	0x3da10895	0.07862965
42	0x3d059b8e	0.03261905
43	0x3d8a9195	0.06766049
44	0x3d9b93eb	0.075965725
45	0x3de36e9f	0.11105084
46	0x3d1c8623	0.03821386
47	0xbd5b7b9d	-0.053584684
48	0x3e07fd0c	0.13280123
49	0x3da50df4	0.08059302
50	0x3b19eb3d	0.002348616
51	0xbc9ecf16	-0.019385856
52	0x3e065b6b	0.1312081
53	0xbdd9dd6c	-0.10637936
54	0x3cf21bfd	0.029554361
55	0x3e277ef6	0.16357026
56	0x3e095637	0.13411795
57	0x3cdb9aa6	0.02680714
58	0x3de8ccfc	0.11367223
59	0x3e1ab14d	0.15106697
60	0xbd001d70	-0.031278074
61	0x3e166324	0.14686257
62	0xbd27ad3c	-0.040936694
63	0x3e5449fe	0.20731351
64	0xbd09b4ea	-0.0336198
65	0x3c94ffb2	0.018188331
66	0x3da755a6	0.08170633
67	0x3d670db9	0.05640957
68	0x3e0afa90	0.13572145
69	0x3dd43053	0.103607796
70	0x3da80ec1	0.08205939
71	0xbe1af38f	-0.15131973
72	0x3c95d53b	0.018290153
73	0x3d21430d	0.039370585
74	0xbdb9cd3c	-0.090723485
75	0x3da384a2	0.07984282
76	0x3d95edd9	0.073207565
77	0xba9b44aa	-0.0011846025
78	0xba699f62	-0.00089119945
79	0x3dd868be	0.10566853
80	0x3e305b58	0.17222345
81	0x3e1817da	0.14852849
82	0xbe062b68	-0.13102496
83	0xbd82d21a	-0.0638773
84	0x3d59e4c6	0.05319669
85	0x3de49870	0.11161888
86	0xbdc1d570	-0.09464538
87	0xbc6e331c	-0.014538553
88	0xbd3d94b4	-0.046284392
89	0xbe229cf2	-0.15880182
90	0xbcebb932	-0.028774831
91	0xbe21dc25	-0.15806635
92	0xbd39aca2	-0.04533065
93	0x3ccc5d64	0.024946876
94	0x3bc80d07	0.0061050686
95	0x3d5e1afd	0.054224957
96	0x3d4255dd	0.047445167
97	0x3d97db6e	0.074149
98	0xbd95e5b5	-0.07319204
99	0x3e0ed6dc	0.1394915
100	0x3e21870f	0.15774177
101	0x3ddaf57a	0.10691352
102	0x3d7b63e3	0.061374556
103	0x3e27655b	0.16347258
104	0x3d69e90f	0.057107028
105	0x3cfceae2	0.03087372
106	0x3dc93356	0.09824245
107	0xbe0f1968	-0.13974535
108	0x3b95ced9	0.0045717773
109	0xbde95e3b	-0.11394926
110	0xbc74d7dd	-0.014944044
111	0xbda2dc21	-0.079521425
112	0x3df1ca3d	0.11806152
113	0x3cd27036	0.025688272
114	0xbc3e85a4	-0.011628542
115	0xbdbe5a00	-0.0929451
116	0x3dfdf267	0.1239975
117	0xbcbdb633	-0.023158168
118	0x3e1931f7	0.14960466
119	0x3c254dfb	0.010089393
120	0x3b831220	0.0039999634
121	0x3d06577c	0.032798275
122	0x3dbc8021	0.09204126
123	0xbd310d8f	-0.04322582
124	0xbde95df0	-0.1139487
125	0xbe0c35a7	-0.13692342
126	0xbdb4f2be	-0.08835362
127	0x3d4c7e6b	0.04992525
128	0x3e1fae4d	0.15593834
129	0x3e69bbce	0.22825548
130	0x3d8d2830	0.06892431
131	0xbd440810	-0.04785925
132	0x3da7eb87	0.0819922
133	0x3e0eabb6	0.1393269
134	0x3e13d8cf	0.14438175
135	0x3c8993b4	0.016794063
136	0x3d9b4c87	0.07582956
137	0x3d5857ae	0.052817993
138	0x3ed59b7e	0.41720194
139	0xbc3bee11	-0.011470334
140	0xbda7ebaf	-0.0819925
141	0x3dfcbbc7	0.12340503
142	0x3d51dcee	0.051236086
143	0x3de363fe	0.11103056
144	0x3df11938	0.11772388
145	0xbd305fce	-0.043060116
146	0xbd160137	-0.036622252
147	0x3c5f1b72	0.013617383
148	0x3db0914a	0.08621462
149	0xbd383b16	-0.044978224
150	0xbe348737	-0.17629705
151	0x3e83336c	0.2562517
152	0xbdde71cd	-0.108615495
153	0xbe1772bc	-0.14789861
154	0xbe6ab0b4	-0.2291897
155	0x3e7ac2de	0.24488398
156	0x3d0799f6	0.033105813
157	0x3c541f1d	0.012946871
158	0xbd89a2d6	-0.067205116
159	0xbe1f8b82	-0.15580562
160	0xbe33368c	-0.17501277
161	0xbbeb9fef	-0.0071906964
162	0xbcc3176f	-0.023814885
163	0xbe4797a4	-0.1949144
164	0x3dc1ecf1	0.09469021
165	0x3dfdef35	0.12399141
166	0xbded257e	-0.11579417
167	0x3e062f22	0.13103917
168	0x3de32f79	0.11093039
169	0x3debf7c6	0.115218684
170	0x3d185f8a	0.03720049
171	0x3ed2ddca	0.41184837
172	0x3d9d8b1b	0.07692548
173	0xbddfd67e	-0.10929583
174	0x3d81dc6c	0.0634087
175	0x3e43e8bd	0.19131751
176	0x3e88dc8e	0.2673077
177	0xbdaf3a98	-0.08556098
178	0x3e642f27	0.22283612
179	0xbe85432a	-0.26027805
180	0x3d26d324	0.040728703
181	0x3d7c9340	0.061663866
182	0xbd1c837e	-0.03821134
183	0x3caca863	0.021076387
184	0x3dab5d2a	0.08367379
185	0xbdc01a1d	-0.09379981
186	0x3ccf5682	0.025309805
187	0x3e2f201b	0.17102091
188	0x3e1dbbcd	0.15403672
189	0xbdb3442a	-0.08753236
190	0x3e4821a8	0.19544089
191	0x3d6c0269	0.057619486
192	0x3cccf7c1	0.025020482
193	0x3e9dcac4	0.3081876
194	0x3d99bdcf	0.07506906
195	0x3dd46a31	0.10371817
196	0x3e171b93	0.14756612
197	0xbd58e156	-0.052949272
198	0x3c683c64	0.0141745545
199	0x3e4ab67c	0.19796175
200	0xba15690e	-0.00056995533
201	0x3c8619d0	0.01636973
202	0x3e19ebfa	0.15031424
203	0x3db8067f	0.08985614
204	0x3e4c7da6	0.19969806
205	0x3c9a060d	0.018801713
206	0x3d5d8f2d	0.05409162
207	0x3e044c77	0.12919794
208	0x3e1ad07c	0.15118593
209	0x3d0e5d9f	0.034757253
210	0x3df42e58	0.11922902
211	0x3cc35483	0.02384401
212	0xbca3e00d	-0.020004297
213	0x3e13bebc	0.14428228
214	0x3d1e0aab	0.038584393
215	0x3be54863	0.0069971546
216	0x3e3ecf23	0.18633704
217	0x3e12bce1	0.14329864
218	0x3e2b0fa6	0.16705188
219	0x3e77118c	0.24127787
220	0x3e291baa	0.16514459
221	0x3e07a18b	0.13245218
222	0x3e402391	0.18763568
223	0x3e35b7d0	0.177459
224	0x3e8b88d8	0.2725284
225	0x3cd399d4	0.025830187
226	0x3d8c5ea3	0.06853988
227	0x3e3a8328	0.18214095
228	0x3c26e299	0.010185861
229	0x3c10af62	0.008830877
230	0x3d74a60d	0.05972867
231	0x3d9052d3	0.070470475
232	0x3e828af6	0.25496644
233	0x3e15735d	0.14594789
234	0x3cf2c56e	0.029635157
235	0x3de1e9cd	0.11030922
236	0x3de1a730	0.110182166
237	0x3e1f8ab7	0.1558026
238	0x3df4687d	0.11933992
239	0x3de235be	0.11045407
240	0x3ca4e225	0.020127365
241	0x3e66046c	0.22462624
242	0xbcfd4b1b	-0.030919602
243	0x3e853996	0.26020497
244	0x3d455b2d	0.048182655
245	0x3da53e95	0.08068577
246	0x3d97434e	0.07385884
247	0x3b9a180b	0.004702573
248	0x3c785fac	0.015159529
249	0x3b9c3cfb	0.0047680116
250	0x3dff92e3	0.12479188
251	0x3ddeda56	0.10881488
252	0x3dfc0f97	0.12307661
253	0x3de1dd0c	0.110284895
254	0x3dfb558f	0.122721784
255	0x3ddfc087	0.109253936

rnn.bias_hh_l0 f4 [256]
0	0x3e3baad0	0.18326879
1	0x3e34b963	0.17648844
2	0x3e43b28f	0.19111083
3	0x3e0d7806	0.13815317
4	0x3d2be630	0.04196757
5	0x3e04eb2a	0.12980333
6	0xbd2b1f20	-0.04177773
7	0x3e434ed9	0.19073047
8	0x3dce1d55	0.100641884
9	0x3db6d048	0.08926445
10	0x3cd85339	0.026406871
11	0x3e824bba	0.254484
12	0x3d9945c2	0.07484008
13	0x3dcddcb7	0.10051864
14	0x3cf5e012	0.030014072
15	0xbbc12f30	-0.0058955178
16	0xbc475066	-0.012165165
17	0x3e14ebca	0.14543071
18	0x3dad563d	0.08463714
19	0xbc3fbb0a	-0.011702308
20	0x3d7cfde2	0.06176556
21	0xbd682812	-0.05667884
22	0x3d674813	0.05646522
23	0x3e647f92	0.22314289
24	0xbe0ecc25	-0.13945062
25	0x3e886ecb	0.26647028
26	0x3db9bb4d	0.09068928
27	0x3e77e69d	0.24209066
28	0x3e77b27a	0.24189177
29	0xbc9831cd	-0.018578434
30	0x3e5b26c8	0.21401513
31	0x3e19619e	0.14978644
32	0x3eb52b6d	0.35384694
33	0x3e070598	0.13185728
34	0x3ca3e0d1	0.020004662
35	0x3e9541cd	0.29151765
36	0x3e5962d3	0.21229105
37	0x3e4ab6dc	0.19796318
38	0x3dd3aa8d	0.10335264
39	0x3e5f0f62	0.21783212
40	0x3e877958	0.26459765
41	0x3e0c92c3	0.1372786
42	0x3e4ad398	0.19807279
43	0x3e659361	0.22419502
44	0xbce1fd1b	-0.02758651
45	0x3e4a6224	0.19764
46	0xbbe7bd2e	-0.0070721125
47	0x3d57410d	0.05255227
48	0x3d6b0ffd	0.057388294
49	0x3e515c5c	0.20445389
50	0x3e36d697	0.17855297
51	0xbe4c0ad4	-0.19926006
52	0x3db7cac1	0.08974219
53	0x3da492ac	0.08035788
54	0x3db9b7ec	0.090682834
55	0x3e73e212	0.23816708
56	0x3cdb94df	0.026804386
57	0x3e3a9f49	0.18224825
58	0x3e5709c8	0.20999825
59	0x3d8cbe81	0.06872273
60	0x3d826d24	0.06368473
61	0x3e1e7d29	0.15477432
62	0xbe6a2317	-0.22864948
63	0x3d774e67	0.060377505
64	0x3cf2dbfa	0.029645909
65	0xbdfe1a73	-0.124073885
66	0x3dd36b8e	0.10323249
67	0x3d102619	0.035192583
68	0x3b1018f2	0.0021987525
69	0xbccdc504	-0.025118358
70	0xbcfd8af5	-0.030950049
71	0xbdc5a6ef	-0.09650981
72	0x3dec38c5	0.115342654
73	0xbdb80327	-0.08984976
74	0xbe96d1e3	-0.29457006
75	0x3d2ce436	0.042209826
76	0x3d45b62e	0.048269443
77	0xbd00d5ee	-0.03145402
78	0xbc2f5ae6	-0.010702824
79	0xbd833e41	-0.06408358
80	0x3c8d52be	0.017251369
81	0xbd4166e8	-0.04721728
82	0x3a9bac28	0.0011876868
83	0x3d74e60b	0.0597897
84	0xbb425b3b	-0.0029656428
85	0x3deb10bc	0.11477801
86	0xbe3d9068	-0.18512118
87	0xbb53ebb7	-0.0032336542
88	0xbd21c668	-0.039495856
89	0xbcd52414	-0.02601818
90	0x3df8ed92	0.12154688
91	0xbe61efd0	-0.22064137
92	0x3de70a9b	0.1128132
93	0x3df1cd9c	0.11806795
94	0xbdb96dd5	-0.09054152
95	0x3ca0e7e7	0.01964183
96	0x3da82bfc	0.08211514
97	0xbcf81212	-0.030282054
98	0xb9457085	-0.00018829301
99	0x3d6fea5d	0.058573116
100	0x3ddd2459	0.107979484
101	0xbd9b2715	-0.07575814
102	0xbd865330	-0.065588355
103	0x3db9cf56	0.09072749
104	0x3d7bce7c	0.061476216
105	0xbd87268d	-0.0659915
106	0x3be286cb	0.006913041
107	0x3d6a78a9	0.057243977
108	0xbca4c12e	-0.020111647
109	0xbe04c49c	-0.12965626
110	0xbbf3e8c2	-0.0074435184
111	0xbaaadea5	-0.0013036324
112	0x3dc0ac32	0.09407844
113	0xbdc48be2	-0.09596993
114	0xbc18ce8a	-0.0093265865
115	0xbe2d620a	-0.1693193
116	0x3d81d200	0.063388824
117	0xbd97c128	-0.074098885
118	0x3d188cad	0.037243534
119	0x3c73fac2	0.014891328
120	0xbd9e2045	-0.07720999
121	0xbcef48df	-0.029209552
122	0x3d269538	0.04066965
123	0xbaf6f707	-0.001884193
124	0xbd9b69b6	-0.07588522
125	0xbd8312ec	-0.064000934
126	0xbc02af78	-0.007976405
127	0xbcb52940	-0.022114396
128	0xbc4fe283	-0.012688282
129	0x3e83ef96	0.25768727
130	0xbd5e6f92	-0.05430562
131	0xbb9498b6	-0.004534806
132	0xbd968610	-0.07349789
133	0x3d4d5032	0.05012531
134	0x3c179c53	0.009253579
135	0x3e2a1448	0.16609299
136	0x3d20385f	0.03911626
137	0xbdf584f4	-0.119882494
138	0x3ed3f3ce	0.41396946
139	0x3d968bca	0.073508814
140	0x3da703b3	0.081550024
141	0xbc92bb14	-0.017911471
142	0xbc8c3eb7	-0.017119749
143	0x3dc9088b	0.098160826
144	0x3e0bc1b7	0.13648115
145	0x3d9a530d	0.07535372
146	0xba055d2f	-0.0005087433
147	0xbd54b8ca	-0.05193404
148	0x3e020fc3	0.12701325
149	0x3cf253bf	0.029580949
150	0xbdf77b9e	-0.12084125
151	0x3e4aaffd	0.19793697
152	0xbdfb89d6	-0.122821495
153	0xbd21cbfa	-0.039501168
154	0xbe78c33f	-0.2429323
155	0x3e6aaa2d	0.2291648
156	0x3d938bf8	0.07204431
157	0xbe22ac95	-0.15886147
158	0xbdc5b29d	-0.096532084
159	0xbd805bfb	-0.06267544
160	0xbe582dd5	-0.21111234
161	0xbdd80b15	-0.10548989
162	0x3ddebde3	0.10876062
163	0xbb59582c	-0.0033164127
164	0xbd387d6e	-0.045041494
165	0x3d2ea7aa	0.042640366
166	0xbdf935d2	-0.121684685
167	0x3e275822	0.16342214
168	0xbda0adb6	-0.07845633
169	0x3e3959f9	0.18100728
170	0x3d82375b	0.063582145
171	0x3ec0d16b	0.37659773
172	0x3d8ccd37	0.06875079
173	0xbca3f5b2	-0.020014618
174	0x3c954332	0.018220518
175	0x3e69d804	0.2283631
176	0x3e11f846	0.14254865
177	0x3d00d2d7	0.031451073
178	0x3e416fea	0.18890348
179	0xbe2f34d2	-0.17109993
180	0xbd147b00	-0.036250114
181	0x3e0d395e	0.13791415
182	0xbddf88bf	-0.10914754
183	0x3e27e1fb	0.16394798
184	0x3d5d552e	0.05403631
185	0x3db3a656	0.087719604
186	0x3d745100	0.05964756
187	0x3decbfa8	0.11559993
188	0x3e2a7bf5	0.16648848
189	0x3e1caac1	0.15299512
190	0x3e8ada30	0.2711959
191	0xbdba6c80	-0.09102726
192	0xbd443a3d	-0.047907103
193	0x3e757ba9	0.23972954
194	0x3e862638	0.26201034
195	0x3d34f786	0.04418137
196	0x3e60810f	0.21924232
197	0x3dca49c4	0.09877351
198	0x3dbd56a5	0.09245042
199	0x3e157537	0.14595495
200	0x3da2527e	0.079258904
201	0x3e248f8a	0.16070381
202	0x3d80735c	0.06272003
203	0x3daa5d4c	0.08318576
204	0x3d749341	0.059710745
205	0xbdc2bc0f	-0.095085256
206	0x3b8b641f	0.0042538787
207	0x3e39836b	0.18116538
208	0x3e27f5e1	0.16402389
209	0x3e8411b5	0.2579476
210	0x3d90d923	0.070726655
211	0x3da3990d	0.079881765
212	0x3d8acc41	0.067772396
213	0x3e02ea91	0.12784792
214	0xbc1fcc4b	-0.009753297
215	0x3de48521	0.11158205
216	0x3d0e56b6	0.034750663
217	0x3e0482b7	0.12940489
218	0x3d8151ca	0.06314428
219	0x3ed92107	0.4240801
220	0x3e74a212	0.2388995
221	0x3d009b3b	0.03139804
222	0x3cf6a421	0.03010756
223	0x3e0bcf86	0.13653383
224	0x3e2e8cea	0.17045942
225	0xbdb7ae03	-0.08968737
226	0xbd19cdc1	-0.037549738
227	0x3e1d63d9	0.1537012
228	0x3d0abbe2	0.033870585
229	0x3d10b4af	0.035328563
230	0x3d512c80	0.05106783
231	0x3c234fe2	0.009967776
232	0x3d868423	0.06568172
233	0x3dfd64b0	0.1237272
234	0x3d5ce2e3	0.053927314
235	0x3e70cad9	0.2351488
236	0x3e4d94aa	0.20076242
237	0x3d4908f7	0.049080815
238	0x3d09058e	0.033452563
239	0x3d812590	0.063059926
240	0x3c66b413	0.014081019
241	0x3e679f96	0.22619471
242	0x3dee58a1	0.11637998
243	0x3e35ede4	0.1776653
244	0x3d4eca62	0.050485976
245	0xbd37e410	-0.04489523
246	0x3e153649	0.1457149
247	0x3e5aef53	0.21380357
248	0x3e1209e0	0.1426158
249	0x3d77a81c	0.060463056
250	0x3e1a5e61	0.15075065
251	0x3e2a7a6b	0.16648261
252	0xbd6aa648	-0.057287484
253	0x3e7741de	0.2414622
254	0x3dee1cbf	0.11626577
255	0x3c829c42	0.01594365

rnn.weight_ih_l1 f4 [256, 64]
0	0x3e0eac95	0.13933022
1	0xbdf4b379	-0.11948294
2	0xbe27eed5	-0.16399701
3	0x3decd8a3	0.11564758
4	0x3dfec9de	0.12440847
5	0x3e20feab	0.15722148
6	0xbdb0e0b9	-0.086366124
7	0xbd9f18d3	-0.07768407
8	0x3da35593	0.07975306
9	0x3c3b738c	0.011441123
10	0xbe32b8c6	-0.17453298
11	0xbcc366e7	-0.023852779
12	0x3dcde386	0.10053162
13	0xbb42b4b6	-0.0029709763
14	0xbdcc8d66	-0.09987907
15	0xbc466cdd	-0.012110916
16	0x3cc572ee	0.024102654
17	0x3e483d8e	0.19554731
18	0x3c4b735b	0.01241764
19	0xbe00c79f	-0.1257615
20	0x3df2c64f	0.118542306
21	0x3d4a2798	0.049354166
22	0x3e2dde8a	0.16979423
23	0xbd3c9ded	-0.046049047
24	0x3d75e602	0.060033806
25	0xbe3420dd	-0.17590661
26	0x3d16d8a5	0.036827702
27	0xbe97dbd3	-0.296599
28	0x3e38286f	0.17984174
29	0xbca709ee	-0.020390477
30	0xbdfad5d7	-0.12247818
31	0xbe2ea0bc	-0.17053503
32	0xbe0cb9e3	-0.13742785
33	0xbddfb8b9	-0.10923905
34	0x3df73694	0.12070957
35	0xbd852cd0	-0.06502688
36	0x3d00e35b	0.031466823
37	0x3ce79023	0.028266972
38	0xbd7a084f	-0.06104308
39	0x3e4c8e3e	0.19976136
40	0x3e01e439	0.12684716
41	0x3cfa1593	0.030527866
42	0xbe2fe1d3	-0.17175989
43	0xbe2f30bc	-0.17108434
44	0xbdb834d5	-0.08994452
45	0xbdd58851	-0.10426391
46	0x3e357b54	0.17722827
47	0xbde12120	-0.10992646
48	0x3b20c19c	0.0024529463
49	0xbe32c996	-0.17459711
50	0xbd1a67a2	-0.03769649
51	0x3e12d55a	0.143392
52	0xbddbd234	-0.107334524
53	0x3d15fc13	0.03661735
54	0xbd05adfe	-0.032636635
55	0x3e63d979	0.22250928
56	0x3da7adb3	0.08187427
57	0xbcec6f32	-0.028861616
58	0xbe1fd236	-0.15607533
59	0xbda44d15	-0.08022515
60	0xbe1933bf	-0.14961146
61	0xbd3d05be	-0.046148054
62	0xbdcd8d33	-0.10036697
63	0xbe269c73	-0.16270618
64	0xbcebe628	-0.02879627
65	0xbe471c52	-0.19444397
66	0xbe024d53	-0.1272481
67	0x3d24db8c	0.04024844
68	0xbc9e1c3d	-0.019300574
69	0xbcf46749	-0.029834406
70	0xbc0f2b3b	-0.008738334
71	0xbdcc7642	-0.099834934
72	0x3dc1b8a6	0.09459047
73	0xbbc2c8e2	-0.0059443573
74	0xbebfb695	-0.37443987
75	0x3e123647	0.14278518
76	0xbcdd50ff	-0.027016161
77	0xbb16a0ea	-0.0022984096
78	0xbe2dd17e	-0.16974446
79	0xbd78d706	-0.060751937
80	0x3cc7164f	0.02430263
81	0x3df60e6f	0.12014472
82	0x3e0f843e	0.1401529
83	0xbc0c8cb0	-0.008578464
84	0x3e00afe1	0.12567092
85	0x3c8e7616	0.017390292
86	0x3d4854a6	0.048908852
87	0xbd30bd0e	-0.043149047
88	0x3e364f05	0.17803581
89	0xbe33d642	-0.17562202
90	0xbc93a91b	-0.018024972
91	0xbe16362a	-0.146691
92	0x3e20687d	0.15664859
93	0xbc9475fc	-0.018122666
94	0xbdce565d	-0.10075066
95	0xbe010e9e	-0.12603232
96	0xbdd04790	-0.101698995
97	0xbc38f51f	-0.01128891
98	0x3e2e29ac	0.17008084
99	0xbd82bc0a	-0.06383522
100	0x3e30f7d4	0.17282039
101	0xbd258773	-0.040412378
102	0x3c6f390b	0.014601002
103	0x3e418f95	0.18902428
104	0x3e3f4756	0.18679556
105	0xbe40e2d7	-0.18836533
106	0xbe375e4c	-0.17907065
107	0xbe052049	-0.13000597
108	0x3cfa03ce	0.030519392
109	0x3d01b7b8	0.03166935
110	0xbd20543a	-0.039142825
111	0xbe32912c	-0.17438191
112	0xbdaa7565	-0.083231725
113	0x3d47847a	0.048710324
114	0xbd27d014	-0.040969923
115	0x3e589853	0.21151857
116	0xbd8abbbc	-0.06774089
117	0x3dbc4f3c	0.091948
118	0xbdbe41d1	-0.09289897
119	0x3ce1d692	0.027568135
120	0x3e3190a3	0.17340331
121	0x3d1d25dd	0.038366187
122	0x3d0008a5	0.031258244
123	0x3cf78bb6	0.030217987
124	0xbdd79e17	-0.105282
125	0xbe4e5205	-0.20148475
126	0xbe2f04c7	-0.17091666
127	0xbe2909e0	-0.16507673
128	0xbd542e78	-0.05180213
129	0xbe3b4563	-0.18288188
130	0xbe310f9e	-0.17291114
131	0x3e17a34a	0.14808384
132	0x3e2d7576	0.16939339
133	0x3e1cbd46	0.15306577
134	0xbda3e878	-0.08003324
135	0xbdd04baa	-0.10170682
136	0x3cae4cf1	0.021276923
137	0xbdea9ada	-0.11455317
138	0xbe9e6766	-0.30938262
139	0x3d4f40f6	0.05059906
140	0xbc6c5275	-0.014423956
141	0x3e1df6a8	0.15426123
142	0x3d11d996	0.035607897
143	0x3ba52d1a	0.005040777
144	0x3e15a5f7	0.14614092
145	0x3e22efa9	0.15911736
146	0x3dc5660f	0.09638607
147	0xbe43b5ed	-0.19112368
148	0x3dada698	0.08479041
149	0xbd80d3b6	-0.06290381
150	0x3d14f6c6	0.036368154
151	0xbd72c168	-0.059266478
152	0x3e347898	0.17624128
153	0xbd89627d	-0.06708238
154	0x3e41c418	0.1892246
155	0xbe6cf4cb	-0.23140256
156	0x3c98de25	0.018660614
157	0x3c79e986	0.01525343
158	0xbd3b97ba	-0.045798995
159	0xbe0a82f2	-0.13526514
160	0xbd3e0413	-0.046390604
161	0xbd762b05	-0.06009962
162	0x3dbbf912	0.09178366
163	0xbda657f2	-0.08122243
164	0x3dc39cf5	0.095514216
165	0xbdb0bdd5	-0.086299576
166	0xbe00fcbd	-0.12596412
167	0x3d546bc6	0.051860593
168	0x3b83d60b	0.0040233186
169	0xbc028319	-0.007965826
170	0xbceed06c	-0.029152118
171	0xbe68a08a	-0.22717491
172	0xbd17574d	-0.03694849
173	0x3cb97d26	0.022642683
174	0x3df0128b	0.11722287
175	0xbe6c5882	-0.23080638
176	0xbe08d1f9	-0.13361348
177	0x3d00749b	0.031361204
178	0xbda15630	-0.07877767
179	0x3d66d870	0.056358755
180	0xbd91f122	-0.071260706
181	0x3dc986dc	0.098401755
182	0xbd576e33	-0.05259533
183	0x3da94428	0.08264953
184	0x3de2c024	0.11071804
185	0xbd815399	-0.06314773
186	0xbe1f0045	-0.15527447
187	0xbe4756fd	-0.19466777
188	0xbd189528	-0.03725162
189	0xbe131cb4	-0.14366418
190	0xbd80cffd	-0.062896706
191	0x3c215348	0.009846516
192	0x3dee70ee	0.116426334
193	0xbe5f9492	-0.21834019
194	0xbde6e4b7	-0.11274093
195	0x3e5735ee	0.21016666
196	0x3df82f94	0.1211845
197	0x3e0f3ff2	0.13989237
198	0xbac05786	-0.0014674522
199	0xbd988b53	-0.07448449
200	0x3ba99b2c	0.0051759686
201	0x3c37b9fe	0.011213778
202	0xbe7e18db	-0.24814169
203	0x3e394e97	0.18096386
204	0x3e04de06	0.1297532
205	0x3c05edac	0.008174341
206	0xbe07b34c	-0.1325199
207	0x3d050c91	0.032482687
208	0xbc720e59	-0.014773929
209	0x3daf83d6	0.085700676
210	0x3e1717a8	0.14755118
211	0x3d0235da	0.031789638
212	0x3cf243e2	0.029573385
213	0x3d03f430	0.032215297
214	0x3cc319e2	0.023816053
215	0xbe22cbe5	-0.15898092
216	0x3b3daab6	0.0028940863
217	0xbdf3bb51	-0.11900962
218	0x3e020a8f	0.1269934
219	0xbe1abbca	-0.15110698
220	0x3dc1fe7d	0.09472368
221	0xbca0e756	-0.01964156
222	0x3cd3fed3	0.025878346
223	0xbdd03a70	-0.10167396
224	0xbce82531	-0.028338047
225	0xbe07cc08	-0.13261425
226	0x3e1c2395	0.15247948
227	0xbd5db693	-0.054129194
228	0x3d39b042	0.04533411
229	0x3ce42c7c	0.027853243
230	0xbd9ff262	-0.07809903
231	0x3d52449e	0.05133497
232	0x3e24f686	0.16109666
233	0xbe5e1b9a	-0.21690217
234	0xbde9a405	-0.11408237
235	0xbe9999cf	-0.3000016
236	0xbe028289	-0.12745108
237	0xbdad3c6f	-0.084587924
238	0x3ce467bc	0.027881496
239	0xbe90438b	-0.2817653
240	0xbdb50feb	-0.08840927
241	0x3d0587e8	0.032600313
242	0xbe244bb7	-0.16044508
243	0x3e46d74a	0.19418064
244	0xbe4205f9	-0.18947591
245	0xbc80129b	-0.015633872
246	0x3d166607	0.036718395
247	0x3e2cefbc	0.16888326
248	0x3e286249	0.16443743
249	0xbdac36d8	-0.08408898
250	0xbdb6fc17	-0.08934801
251	0xbe328e43	-0.17437081
252	0xbdaf9cab	-0.08574804
253	0xbe017179	-0.12640943
254	0xbe80aee4	-0.2513343
255	0x3c172fb2	0.00922768

rnn.weight_hh_l1 f4 [256, 64]
0	0x3cfd11f5	0.030892352
1	0xbdfe65bb	-0.12421747
2	0xbd1b1fcc	-0.03787212
3	0xbd59244d	-0.053013135
4	0x3e08c5a9	0.13356651
5	0xbd739977	-0.059472527
6	0x3d19b0b3	0.03752203
7	0x3d6ecd8a	0.058301486
8	0xbda15ce8	-0.078790486
9	0xbd5a45a2	-0.053289063
10	0xbd9f56ff	-0.07780265
11	0x3c004f89	0.007831463
12	0x3db14163	0.0865505
13	0x3e130e6c	0.1436097
14	0xbd0853b1	-0.03328294
15	0x3e0bd1c6	0.13654241
16	0x3d8826de	0.06648038
17	0xbdc72e0c	-0.097255796
18	0xbddcd4f2	-0.107828036
19	0xbd821ad5	-0.06352774
20	0x3a819677	0.0009886761
21	0xbdaceb24	-0.08443287
22	0x3e1c14c7	0.15242301
23	0xbcce0d46	-0.025152814
24	0x3d31c348	0.043399125
25	0x3daaa822	0.0833285
26	0x3e0e8586	0.13918123
27	0x3d2c8b8d	0.042125273
28	0xbdab46e1	-0.083631285
29	0xbdee8a66	-0.11647491
30	0x3b4ead22	0.00315363
31	0x3b2c9502	0.0026333933
32	0x3d82a962	0.063799635
33	0x3da0165f	0.07816767
34	0xbd120e21	-0.035658006
35	0x3d8078a8	0.06273013
36	0x3af85d37	0.0018948679
37	0xbda2acf8	-0.079431474
38	0x3d9f56e4	0.07780245
39	0xbd7e0698	-0.062018007
40	0xbd80991d	-0.06279204
41	0xbdb3dd31	-0.08782423
42	0x3d89af60	0.06722903
43	0xbd826b33	-0.06368103
44	0x3c719224	0.014744315
45	0x3d19b03d	0.03752159
46	0xbda281a8	-0.07934886
47	0xbc7f0f6d	-0.015567643
48	0xbd829db7	-0.06377738
49	0x3bf70ccb	0.007539367
50	0xbdafa126	-0.085756585
51	0x3d40365a	0.046926834
52	0xbda2e31a	-0.079534724
53	0xbd66e469	-0.056370173
54	0x3cd11e75	0.025527218
55	0xbe14a6d7	-0.1451677
56	0xbd977099	-0.07394523
57	0xbc83182a	-0.016002733
58	0x3d8c3bf4	0.06847373
59	0x3d73890c	0.05945687
60	0xbbb8af43	-0.005636127
61	0x3d9b2907	0.07576185
62	0x3dfcb635	0.12339441
63	0x3cbf7f8e	0.023376253
64	0xbd820008	-0.06347662
65	0xbdac732b	-0.08420404
66	0xbd558121	-0.0521251
67	0x3bf2f4a5	0.007414418
68	0x3d80a352	0.06281151
69	0xbd5435ea	-0.05180923
70	0xbdf24e2b	-0.118313156
71	0x3d4f130c	0.050555274
72	0x3e072033	0.13195877
73	0xbde75cd7	-0.11297005
74	0x3d4de46a	0.05026666
75	0xbd21e4e6	-0.039524935
76	0xbdb2e3c2	-0.087348476
77	0x3d9b63ae	0.07587372
78	0xbb6135db	-0.0034364376
79	0x3e0eb834	0.13937455
80	0x3e1d678e	0.15371534
81	0x3da495a5	0.08036355
82	0x3db4adb8	0.08822197
83	0x3b6456b8	0.0034841727
84	0x3c3463ce	0.011010123
85	0x3d8033d0	0.062598825
86	0xbcb1feda	-0.021727968
87	0x3c3ac3c8	0.011399217
88	0x3cacc9f5	0.021092394
89	0x3d8137f2	0.06309499
90	0x3d2c1693	0.042013716
91	0xbc2df62a	-0.010617772
92	0xbd8b5c08	-0.06804663
93	0xbd83093c	-0.06398246
94	0xbd367be4	-0.044551745
95	0x3d16870e	0.036749892
96	0x3dd78adf	0.105245344
97	0xbd9485c8	-0.07252079
98	0x3d600ed6	0.05470165
99	0xbd0d1114	-0.034440115
100	0xbd9b463e	-0.07581757
101	0xbd0b0944	-0.033944383
102	0x3d92484e	0.07142697
103	0xbc9dd43b	-0.019266238
104	0x3e088098	0.13330305
105	0xbd0b884c	-0.03406553
106	0xbd2f9054	-0.04286225
107	0x3dbd4b97	0.09242933
108	0xbd304a74	-0.043039754
109	0x3d7819fd	0.06057166
110	0xbd55ba37	-0.05217954
111	0xbb90cff1	-0.00441932
112	0xbd77143b	-0.060322028
113	0xbd88c188	-0.06677538
114	0xbd523cd0	-0.051327527
115	0x3d375257	0.04475626
116	0xbde41299	-0.1113636
117	0x3d9269ba	0.07149072
118	0xbd993908	-0.07481581
119	0xbc549c4c	-0.012976717
120	0x3e0611eb	0.13092773
121	0xbdcf594e	-0.101244554
122	0xbc8ef20b	-0.0174494
123	0xbd488ae1	-0.04896057
124	0xba34b681	-0.000689365
125	0x3cc19672	0.023631308
126	0x3de7ea5a	0.11323996
127	0xbda6c764	-0.081434995
128	0xbda451ce	-0.080234155
129	0x3d962d34	0.073328406
130	0x3dc61898	0.0967266
131	0xbd9d1b77	-0.07671254
132	0xbd69951a	-0.05702696
133	0x3d9d4fbb	0.07681223
134	0x3d79d115	0.06099041
135	0x3d89e8e0	0.067338705
136	0xbcdd25d8	-0.026995584
137	0xbd06297b	-0.032754403
138	0x3dcf83f5	0.10132591
139	0xbca1c4b3	-0.019747114
140	0x3dda1383	0.10648253
141	0xbdaaad72	-0.08333863
142	0x3cab9528	0.020945147
143	0xbac0f155	-0.001472036
144	0xbd751dee	-0.059842996
145	0xbdce9742	-0.10087444
146	0xbe0ab7a7	-0.1354662
147	0x3d475654	0.048666313
148	0x3e1a80ff	0.1508827
149	0x3cd9e7ac	0.026599728
150	0xbb0298d5	-0.001992752
151	0x3dd928f5	0.10603515
152	0xbe1940ff	-0.149662
153	0x3d01ac61	0.031658534
154	0x3d8c2431	0.068428405
155	0xbda80095	-0.08203236
156	0x3d5c5dd5	0.053800423
157	0xbdf033ea	-0.11728652
158	0xbd7a7946	-0.06115081
159	0xbc5b39c7	-0.013380474
160	0x3d8cf969	0.06883509
161	0xbcfc291f	-0.030781327
162	0x3d974b64	0.073874265
163	0x3dd4d756	0.103926346
164	0xbd19248f	-0.03738838
165	0xbda95cdb	-0.08269664
166	0xbd831d57	-0.064020805
167	0x3dab6ea6	0.08370714
168	0x3d2a3177	0.04155108
169	0xbd1d26eb	-0.038367193
170	0x3c9224e8	0.017839864
171	0x3db96e31	0.090542205
172	0xbd1dd387	-0.038531806
173	0xbd74ba8d	-0.05974822
174	0xbd732086	-0.05935719
175	0xbe1b786b	-0.15182655
176	0xbd7fffc0	-0.06249976
177	0x3d6e58a5	0.058190007
178	0x3e02a26e	0.12757275
179	0xbcaab85b	-0.02083986
180	0xbe103cb2	-0.14085653
181	0x3d0c8bc9	0.034312997
182	0xbd513a73	-0.051081132
183	0xbdc9f2d9	-0.09860773
184	0x3c5185d7	0.012788258
185	0x3c3768b5	0.011194398
186	0xbd855813	-0.065109394
187	0x3d16a1ba	0.03677533
188	0x3dd4cf09	0.10391051
189	0x3d4e6386	0.05038788
190	0x3e1424b8	0.14467132
191	0xbd91c061	-0.071167715
192	0x3ca531aa	0.020165283
193	0x3da0a2a5	0.07843522
194	0x3c43f837	0.0119610345
195	0xbd1a4a60	-0.037668586
196	0xbd8a6a8c	-0.067586035
197	0xbd41ced9	-0.047316406
198	0x3d018d2e	0.03162878
199	0xbda14c46	-0.07875876
200	0x3e0c9145	0.13727291
201	0x3c7ecdaa	0.015551964
202	0xbc744766	-0.014909601
203	0xbe2f1d57	-0.17101036
204	0x3cb40505	0.02197505
205	0x3db06861	0.08613659
206	0x3d375277	0.04475638
207	0xbca6de3a	-0.020369638
208	0xbd84dba8	-0.064872086
209	0x3cb11c86	0.021620046
210	0xbdaf31b3	-0.08554401
211	0xbdb2548d	-0.08707533
212	0x3dbf5133	0.093416594
213	0x3d78fa71	0.060785715
214	0x3e112e52	0.14177826
215	0x3db0e858	0.08638066
216	0xbdacb8ed	-0.08433709
217	0xbca0210c	-0.019547008
218	0x3e1c19e0	0.15244246
219	0xbc4b8485	-0.012421732
220	0xbdad40a4	-0.08459595
221	0xbcbc2bb9	-0.022970067
222	0x3bacaa1e	0.005269303
223	0x3c994522	0.018709723
224	0x3d6cf288	0.057848483
225	0xbccb09ce	-0.024784949
226	0xbc6540a6	-0.013992464
227	0x3e0551a6	0.13019428
228	0x3d6e84bd	0.058232058
229	0xbcde43fb	-0.027132025
230	0xbd19259c	-0.037389383
231	0x3cc09304	0.023507603
232	0x3e18d660	0.14925528
233	0xbe10bd14	-0.14134628
234	0x3d8cbffc	0.068725556
235	0x3de5fa0d	0.11229334
236	0x3d76e433	0.06027622
237	0xbd80eaca	-0.062947825
238	0xbca32d54	-0.019919075
239	0xbd97e759	-0.07417173
240	0x3dc6c96c	0.09706387
241	0xbd38c2b2	-0.04510755
242	0x3dc87803	0.097885154
243	0xbe1cfdf2	-0.15331247
244	0xbe0d32c4	-0.13788897
245	0xbc3c8603	-0.01150656
246	0xbdc1dbb5	-0.09465734
247	0xbe10c6ce	-0.14138338
248	0x3d5d679c	0.054053888
249	0xbde3045d	-0.110848166
250	0xbd9439cc	-0.072375864
251	0x3dd46d50	0.10372412
252	0xbc0ac057	-0.008468709
253	0xbdd9d69d	-0.10636637
254	0x3e1b65f7	0.15175615
255	0x3dde6979	0.10859961

rnn.bias_ih_l1 f4 [256]
0	0x3e22f442	0.1591349
1	0x3c9b7b28	0.018979624
2	0x3e14bfcc	0.1452629
3	0x3cb3842f	0.021913616
4	0x3caafd7b	0.020872822
5	0xbba113c9	-0.0049156887
6	0x3dddf9de	0.10838674
7	0x3e2985d2	0.16554955
8	0x3da26a93	0.07930484
9	0x3dd72bdd	0.10506413
10	0x3e05dce2	0.13072541
11	0x3d442bcc	0.04789333
12	0x3d86b9ae	0.06578384
13	0x3daeb0dd	0.08529828
14	0xbcb4911f	-0.022041855
15	0x3debac12	0.11507429
16	0xbd188b61	-0.037242297
17	0x3cb48a92	0.022038732
18	0x3d97a400	0.074043274
19	0x3e11e241	0.14246465
20	0xbd08ec5f	-0.033428546
21	0x3d5e8c76	0.054333173
22	0x3e0452c2	0.12922195
23	0xbd79c628	-0.060979992
24	0x3d851a95	0.06499211
25	0x3e1bb835	0.15206988
26	0x3e11bb8c	0.142317
27	0x3db83bc2	0.08995773
28	0x3db7c81d	0.089737155
29	0x3e1a8c25	0.15092523
30	0x3dfbe46a	0.12299426
31	0x3e485f1c	0.19567531
32	0x3dbc8926	0.092058465
33	0x3d2e3751	0.042533223
34	0xbaaad4fa	-0.0013033443
35	0x3d545f8a	0.051848926
36	0xbc85d78d	-0.016338134
37	0x3db5a8ad	0.08870063
38	0x3dcd8e62	0.10036923
39	0x3e357bd6	0.17723021
40	0x3d183c03	0.037166607
41	0x3de879b8	0.11351341
42	0x3d8dc21d	0.0692179
43	0x3c3997d1	0.0113277
44	0x3d002ea0	0.031294465
45	0x3db06a0b	0.08613976
46	0xbc439cf5	-0.011939277
47	0x3dd82243	0.1055341
48	0x3d82e9bd	0.06392238
49	0x3e190d50	0.14946485
50	0x3e045aad	0.12925215
51	0x3d529b20	0.05141747
52	0x3bcacb53	0.006188789
53	0x3da90468	0.082527936
54	0x3e39a19a	0.18128052
55	0xbcd30a58	-0.025761768
56	0x3d69ae21	0.057050828
57	0x3dcb00b8	0.099122465
58	0xbd36db04	-0.044642463
59	0x3daf696f	0.08565032
60	0x3d0eb266	0.034838103
61	0xbb196c55	-0.0023410518
62	0x3de4cb46	0.11171584
63	0xbcd7dd84	-0.026350744
64	0x3e0c649d	0.13710256
65	0xbd70f354	-0.058825806
66	0x3e1f613a	0.15564433
67	0xbdb0b76f	-0.08628737
68	0x3d21c959	0.03949866
69	0x3e157611	0.1459582
70	0xbcd43e46	-0.0259086
71	0xbda60c87	-0.08107858
72	0x3de77abd	0.11302707
73	0xbd94418a	-0.07239063
74	0xbd878d1c	-0.06618711
75	0xbdc0ad62	-0.0940807
76	0xbd3679f5	-0.0445499
77	0xbdb2fbad	-0.087394096
78	0x3e000cc1	0.12504865
79	0xbd142921	-0.036172036
80	0xbd1df17f	-0.038560387
81	0x3de10358	0.10986966
82	0x3dcd9fdc	0.100402564
83	0xbc8a435f	-0.016877828
84	0x3e24e63a	0.1610345
85	0xbcbc616b	-0.022995671
86	0x3d9f135c	0.077673644
87	0xbd92e57e	-0.071726784
88	0x3deb4031	0.11486853
89	0xbd8eac49	-0.069664545
90	0xbd4e3f3d	-0.050353277
91	0xbcd5a56a	-0.026079852
92	0xbdc97e9a	-0.098386005
93	0x3ded8bee	0.11598955
94	0x3d0222e9	0.031771574
95	0x3e0a559e	0.13509223
96	0x3e211386	0.15730104
97	0x3c6b2515	0.014352103
98	0xbd4788bf	-0.048714396
99	0x3dcae123	0.09906223
100	0x3e009d2a	0.12559953
101	0xbd40b9cb	-0.047052186
102	0x3c85b390	0.016320974
103	0xbe3a2307	-0.18177424
104	0x3dde8eeb	0.10867103
105	0x3d3c19cd	0.045923043
106	0xbce81601	-0.028330805
107	0xbdb18b69	-0.086691685
108	0xbdb23573	-0.08701601
109	0x3d8b1d62	0.06792714
110	0x3db7baa0	0.08971143
111	0x3d6ab255	0.057298977
112	0xbd0ac6ca	-0.033880986
113	0x3c7a0dcb	0.015262078
114	0x3b78c669	0.0037960059
115	0xbd9ea745	-0.07746748
116	0x3e01fa0b	0.1269304
117	0x3da60120	0.08105683
118	0xbd92a6e2	-0.071607366
119	0x3dd24b52	0.102682725
120	0xbda0a8c9	-0.07844693
121	0x3b5045e0	0.003177993
122	0xbd3b9857	-0.04579958
123	0xbd4d786c	-0.05016367
124	0xbd61c436	-0.055118762
125	0xbd81fea3	-0.06347396
126	0x3d8da823	0.06916835
127	0x3d3ba5a5	0.045812268
128	0xbdf77f9f	-0.12084889
129	0x3c3b7e3d	0.011443672
130	0x3db60156	0.088869736
131	0xbe09c215	-0.13452943
132	0x3e15c223	0.14624839
133	0xbd387b1f	-0.045039292
134	0xbd82f802	-0.0639496
135	0xbdc20f36	-0.094755575
136	0xbdaec520	-0.08533692
137	0xbe1e04ff	-0.15431593
138	0xbd4f727b	-0.050646286
139	0xbd8904a1	-0.06690336
140	0x3d00b2a0	0.03142035
141	0x3e1dc1b8	0.15405929
142	0x3e0e106d	0.13873453
143	0xbd1874f9	-0.03722093
144	0x3d91e5db	0.071239196
145	0x3bdbf137	0.0067121047
146	0xbe2f458f	-0.17116378
147	0x3c754e9a	0.014972353
148	0x3dd5c6d0	0.10438311
149	0xbd9cb985	-0.076525725
150	0xbd8d84df	-0.06910109
151	0xbd5b1aed	-0.053492475
152	0xbd8f4379	-0.06995291
153	0xbc1ae26c	-0.009453397
154	0x3c3100c7	0.010803408
155	0xbc6d08be	-0.014467416
156	0x3d51445f	0.051090594
157	0xbc874b7e	-0.01651549
158	0xbda2250b	-0.07917222
159	0x3d7d3a49	0.061823163
160	0x3d8babab	0.068198524
161	0xbe0f7375	-0.14008887
162	0x3dd1eeb8	0.1025061
163	0xbcc27557	-0.023737593
164	0xbdf853c9	-0.12125356
165	0xbdac9c6d	-0.08428273
166	0x3dabf75e	0.08396791
167	0xbd5b0ffd	-0.053482044
168	0x3de9b359	0.11411161
169	0xbd1a5604	-0.037679687
170	0x3df9bf28	0.12194663
171	0x3d5b2ae3	0.053507697
172	0xbcce753c	-0.025202386
173	0x3e120d76	0.14262947
174	0x3d81f6f0	0.06345928
175	0xbdd303e0	-0.103034735
176	0x3db5a84f	0.08869993
177	0xbd5f0f87	-0.054458167
178	0x3b9ebd8a	0.004844372
179	0xbded08cf	-0.11573946
180	0x3d1bed40	0.038068056
181	0xbbd251f8	-0.006418463
182	0xbd9c48ef	-0.076310985
183	0x3ca23285	0.01979948
184	0x3c9521d0	0.0182046
185	0xbd438348	-0.04773262
186	0xbbe98f7d	-0.007127701
187	0x3d8c118b	0.068392836
188	0x3da05a33	0.07829704
189	0x3d2f08d2	0.04273302
190	0x3c0edc5a	0.008719528
191	0x3e0abbd2	0.1354821
192	0xbd862a2a	-0.06551011
193	0x3cb8dcbc	0.022566192
194	0xbd23dcec	-0.04000561
195	0x3d93e726	0.072218224
196	0x3e25b6eb	0.16183059
197	0x3ce2b76d	0.027675355
198	0xbc94f7ac	-0.018184505
199	0x3d80eb9a	0.062949374
200	0xbd6bf1ac	-0.057603523
201	0x3e044a6a	0.12919012
202	0xbd899206	-0.06717305
203	0x3d9460d8	0.07245034
204	0x3e0d0ee4	0.13775212
205	0x3dceb85a	0.10093756
206	0x3df581be	0.11987637
207	0x3e295dec	0.16539735
208	0x3ddf8067	0.10913163
209	0x3d643014	0.055709913
210	0xbd76411e	-0.060120694
211	0x3dfc8e5e	0.12331842
212	0xbcc9477f	-0.024570225
213	0x3cdc5da3	0.026900118
214	0xbcb03024	-0.02150733
215	0x3a2030e8	0.0006110803
216	0x3d0ab39d	0.0338627
217	0xbb927928	-0.0044700094
218	0x3e272bb0	0.16325259
219	0x3e383243	0.17987923
220	0xbc9d5dcd	-0.019209767
221	0x3c8c6a2b	0.017140469
222	0x3dd6d0f1	0.10489071
223	0x3b990160	0.0046693534
224	0x3db2f32d	0.08737788
225	0x3e1896f3	0.14901333
226	0x3e0a3f16	0.13500628
227	0x3e473123	0.19452338
228	0xbda4c4c1	-0.0804534
229	0x3e490d31	0.19633938
230	0xbd91eaf4	-0.07124892
231	0x3d37caaf	0.04487103
232	0xbcd09377	-0.025460942
233	0x3b68d854	0.0035529332
234	0x3cbaa4d7	0.02278368
235	0x3e0cc94c	0.13748664
236	0x3bb3ddb6	0.0054890765
237	0x3de29242	0.11063053
238	0x3e32373e	0.17403886
239	0x3d2855ab	0.041097324
240	0x3d4a92cf	0.049456414
241	0x3e0276df	0.12740658
242	0xbdaa4776	-0.08314411
243	0x3d1e73c4	0.03868462
244	0x3e1f63a2	0.1556535
245	0x3a89c99f	0.0010512358
246	0x3d9677ea	0.073470905
247	0x3de9513f	0.113924496
248	0xba8d1ec7	-0.0010766619
249	0x3deec701	0.11659051
250	0x3e248665	0.16066892
251	0xbd22318a	-0.039598025
252	0x3e1f5510	0.15559793
253	0x3d88a8aa	0.06672795
254	0xbc48acb6	-0.012248209
255	0x3d95d091	0.073151715
