16 - Recurrent Neural Network/model/lstm/weights_50.pth (torch, 204551 bytes, 9 tensors)

rnn.weight_ih_l0 f4 [256, 1]
000000 8c 25 b2 3d 89 b9 5b 3e 9a 8c bf 3d 1c aa c3 3d
       0.08698568 0.21457495 0.093529895 0.0955393
000010 52 d6 6a 3b ab cc a8 3d 06 d8 e3 3d 15 a3 35 3d
       0.0035833311 0.08242162 0.111251876 0.04434498
000020 1d 5a 64 3e 10 66 2c 3e e2 b4 e9 3d 78 f6 87 3d
       0.223 0.16835809 0.11411454 0.06638807
000030 5d 18 79 3d 8b 13 2b 3e 07 35 3d 3e 9e 9a af bc
       0.06081425 0.16706674 0.1847726 -0.021436032
000040 f6 b8 9d 3d 17 88 fa 3c df 86 83 3e 93 28 f8 3d
       0.07701294 0.03058247 0.25688836 0.12117114
000050 82 a6 b6 3d 09 f4 f8 3c 66 28 4f 3d a8 07 08 bc
       0.089184776 0.030389803 0.050575636 -0.008302607
000060 15 f8 54 3e d5 b7 d8 3d 27 8e f8 3d 97 35 f2 3d
       0.20797761 0.10581938 0.121364884 0.11826628
000070 ec e1 ea 3c bd dc 21 3e 0c a8 67 3e e3 bd a2 3d
       0.028672181 0.15806861 0.22622699 0.07946374
000080 be af 8f 3d 8b e4 0e 3e 3d 7f da 3d 54 1c ae 3d
       0.07015942 0.1395437 0.106688 0.08501497
000090 64 47 4f 3d 10 7c 34 3d 1a 50 24 3c 80 c7 9e 3d
       0.050605193 0.044063628 0.010028863 0.07752895
0000a0 8e a7 0f 3e a4 fe e1 3d 60 8d 6d 3c cd 4a 88 3d
       0.14028761 0.11034897 0.014499038 0.06654892
0000b0 91 fb 62 3e 90 5e 96 3d 28 63 1e 3d aa ff f6 3d
       0.22166277 0.07342255 0.03866878 0.12060483
0000c0 79 a9 10 3d c6 cb 0b 3e f2 1a 80 3c 44 73 23 3e
       0.03531787 0.13651952 0.015637849 0.15961939
0000d0 95 07 e5 3d f7 2c 61 3e b2 f0 26 3e 20 07 0f 3e
       0.11183087 0.21989809 0.16302755 0.13967562
0000e0 6d b1 85 3d 5b 44 40 bc 19 e5 63 3c 6a 84 00 3e
       0.06527982 -0.011735047 0.013909602 0.12550512
0000f0 12 30 4a 3d ca fd 2d 3e bb 95 da 3d cb f6 82 3d
       0.04936225 0.16991344 0.1067309 0.06394728
000100 f7 32 d6 3d 06 9e b7 bb ed 57 7b 3c 5f a1 f8 bc
       0.104589395 -0.0056035547 0.015340787 -0.030350385
000110 af 0a e6 3d db 5e 67 3d 55 d6 0e 3c 6b c7 cf 3d
       0.112325065 0.056486946 0.008718093 0.10145458
000120 47 6f 06 3e 2c 17 0d 3c e5 f8 52 bd ff a5 b3 3b
       0.13128386 0.008611482 -0.051506896 0.0054824348
000130 5b 6f be 3d 33 41 41 bd e8 08 be 3c 72 45 f6 3d
       0.09298583 -0.04718132 0.023197606 0.120249644
000140 94 8c 54 bc 3f 09 d3 bc 41 62 56 bd e8 52 06 bd
       -0.01297297 -0.025761245 -0.052339796 -0.03279391
000150 89 83 29 3d 36 bb 13 bd 6a 1a 00 3e 12 cf 8d 3d
       0.041385207 -0.03606721 0.12510076 0.06924261
000160 d1 9d cf 3d de ad a3 bd f7 34 96 bd b8 8d 24 bd
       0.10137523 -0.07992147 -0.07334321 -0.040174216
000170 b2 2c 89 3d d4 7c d0 3d d7 f1 d3 3d 8e a9 ae 3d
       0.06697978 0.10180059 0.10348862 0.08528434
000180 40 68 5e 3d bb 81 9d 3d 77 82 bb bc 7f a8 03 bd
       0.05429864 0.0769076 -0.022889359 -0.032143112
000190 78 e7 c5 3c 4f 52 17 3e 68 34 18 3e af 70 6c bd
       0.024158224 0.14777492 0.14863741 -0.05772465
0001a0 8e e3 82 bd 7b a8 e4 3c 02 86 d8 3d a9 93 f7 3d
       -0.06391059 0.027912369 0.10572435 0.12088711
0001b0 d6 f3 10 3e 0b d1 95 3d 0d 3b 11 3e 3b 1b 15 3d
       0.14155516 0.073152624 0.14182682 0.036402922
0001c0 6d c4 19 3e fb e1 20 3c 46 f6 a1 bc 9a 77 cc 3d
       0.15016337 0.009819503 -0.019770753 0.0998375
0001d0 ed f7 84 bd 5a 9a 07 3e 78 86 05 3e cd bd 14 bd
       -0.064926006 0.13242474 0.13039577 -0.03631382
0001e0 64 61 10 3e 71 8f 98 3d 36 e4 54 bd 6a e4 a2 3d
       0.14099652 0.07449234 -0.05197545 0.07953723
0001f0 2d 14 a8 bd 61 c7 0a 3e 98 f5 93 bd fa 6b 5f 3d
       -0.08206973 0.1355262 -0.07224578 0.054546334
000200 b2 f3 31 3e 07 1a 28 be 5c 4c 2d be d4 11 21 3e
       0.17378119 -0.16416179 -0.1692366 0.15729457
000210 d0 8e 1e 3e 95 35 bb 3d 7d 06 d6 bd 94 13 02 be
       0.15484166 0.09141079 -0.10450456 -0.12702781
000220 6b 5f 20 3e 4f c8 48 be fc 07 56 be d9 72 55 3e
       0.15661399 -0.19607662 -0.20901483 0.20844592
000230 c2 37 10 3e 97 7c b9 3d 70 df 41 be 80 a4 23 be
       0.1408377 0.09056967 -0.18932891 -0.1598072
000240 73 af dd 3d e3 86 14 3e b9 79 1d 3e 75 d8 35 be
       0.1082448 0.1450458 0.15378465 -0.17758353
000250 ef ab f6 3d 8a 84 31 bc cb fd 2f 3e 90 32 1a be
       0.120445125 -0.010834822 0.17186658 -0.1505835
000260 03 63 24 3e df e5 20 be d8 29 19 3e ce cd 4c be
       0.16053395 -0.15712689 0.14957368 -0.20000383
000270 99 02 1c 3e a6 b6 00 3e 22 ca 25 be 08 07 17 be
       0.15235366 0.12569675 -0.16190389 -0.14748776
000280 0d 71 10 be 43 80 b2 bd 3e 56 cd 3d 1e c0 18 be
       -0.14105625 -0.0871587 0.10026215 -0.14917037
000290 c7 ad c2 3d 3b fc 0a be 85 e8 02 be 02 15 20 3e
       0.09505802 -0.13572781 -0.12784012 0.15633014
0002a0 a9 b6 0f 3e 67 e5 14 be ef 50 0e be 56 f5 30 be
       0.14034523 -0.14540635 -0.13898061 -0.17281088
0002b0 53 69 05 be 2c dc 36 be 69 51 24 3e 30 03 21 be
       -0.13028459 -0.17857426 0.1604668 -0.15723872
0002c0 06 80 0c be 9d ec 17 be bf 8a 3c be d1 b8 30 3e
       -0.13720712 -0.14836355 -0.18412302 0.17258002
0002d0 f4 08 fd bd 73 7f 8e 3d 8f 37 00 be 00 b7 c4 3d
       -0.12355223 0.06957903 -0.12521194 0.09605217
0002e0 a4 88 ab 3d bd 83 0a be f4 7d 33 be c1 ff 06 be
       0.083756715 -0.13526817 -0.17528516 -0.131835
0002f0 2b 60 f5 bd e8 49 35 be cc 09 11 be 08 ec c7 bd
       -0.11981233 -0.17703974 -0.14163893 -0.09761816
000300 a6 e5 4a 3e bb 20 80 3d 05 55 fa 3d 12 b8 e8 3d
       0.19814166 0.06256243 0.122232474 0.113632336
000310 67 97 0e 3e 0d 54 0b 3e de aa 00 3e 4a 17 bb 3d
       0.13924943 0.13606282 0.1256518 0.091353014
000320 c9 78 87 3d ec 5e 8b 3d c5 83 47 3e 09 94 e3 3d
       0.06614835 0.06805214 0.1948386 0.1111222
000330 92 0d ea 3c 33 4a 36 3e cf 91 bb 3d 5f f1 91 3d
       0.028570924 0.17801742 0.0915867 0.07126116
000340 de ed f0 3d e6 c8 89 3d 2b c5 3b 3d 98 c2 d3 3d
       0.117641196 0.067277715 0.04584233 0.1033985
000350 cc 9b 46 3e 12 ff 80 ba 1b 21 c2 3d 7b 32 53 3d
       0.1939537 -0.0009841642 0.094789706 0.051561814
000360 37 98 40 3d 24 79 78 3e 4b f1 20 3e 34 e2 22 3e
       0.047020163 0.24264961 0.15717046 0.15906602
000370 f6 41 79 3d 73 3a 42 3d 08 fb a7 3d ee ff db 3d
       0.06085392 0.047419023 0.08202177 0.10742174
000380 01 b2 36 3d 32 f4 48 3e 4c fc 9b 3d 91 f3 4b 3e
       0.04460335 0.19624403 0.07616481 0.19917132
000390 1e 11 dc 3d 29 bf 1a 3e 9e 39 20 3e ed d1 67 3e
       0.10745452 0.15111984 0.15646979 0.22638674
0003a0 c5 52 d7 3d a2 16 5e 3d 73 f6 24 3e 4a d7 b8 3d
       0.10513834 0.054220803 0.16109638 0.09025438
0003b0 c9 f2 0e 3e 2f 09 0f 3e a0 f0 0b 3e 48 94 d1 3d
       0.13959803 0.13968347 0.1366601 0.102333605
0003c0 8f 1b 8a 3d e4 cd cf 3d 83 a6 be 3d 5a eb 8a 3d
       0.06743538 0.101466924 0.09309103 0.06783171
0003d0 59 6a 12 3e 96 a8 fb 3d d9 61 40 3e e8 12 45 3e
       0.14298381 0.122880146 0.18787326 0.19245493
0003e0 92 d8 fe 3d c5 d0 43 3e 82 a4 1d 3e c7 8c f8 3c
       0.12443651 0.19122608 0.15394786 0.030340565
0003f0 24 68 42 3d b6 62 2a 3d 8a cf 46 3d 5d b7 04 3e
       0.047462597 0.041598044 0.04853777 0.12960573

rnn.weight_hh_l0 f4 [256, 64]
000000 94 dc e5 bc 23 3e b8 3d 20 47 10 bd 61 2c 19 3e
       -0.028059281 0.08996227 -0.03522408 0.14958335
000010 75 3c 99 bd 5f c4 8f bd 9c 44 a6 3d 6e f1 0d 3d
       -0.074822344 -0.07019877 0.08118555 0.034654073
000020 e9 11 9b bc 49 a2 b2 3d e3 71 12 3d d8 c5 fe 3d
       -0.018929439 0.0872236 0.035753142 0.124400795
000030 3f 7b 0c 3c 3e 23 88 3d 8f 3e 87 bc a8 d6 b1 bd
       0.008574306 0.06647347 -0.016509322 -0.086835206
000040 85 92 03 3e 08 92 d0 3b de 05 67 bd 97 70 90 3c
       0.12848862 0.0063650645 -0.05640208 0.017631812
000050 86 f5 2d 3d 75 06 cc 3d ab 73 9b bc 03 11 90 3d
       0.042470478 0.09962169 -0.018976053 0.07034495
000060 f2 7c 09 3c e1 74 3e bc 14 b9 8b bb b2 b7 2b 3d
       0.008391606 -0.011624546 -0.0042640064 0.041923232
000070 5c 86 c6 bd 42 08 89 3b 4f 79 84 3d 8c 7d 61 3d
       -0.09693596 0.0041818926 0.0646845 0.05505137
000080 48 48 55 3d dc 46 e0 bc fc a3 a9 bd c4 76 88 3d
       0.052070886 -0.027377538 -0.08283231 0.06663278
000090 2c 21 40 bd c2 d9 e9 bc ef 63 4c 3c 1c 59 e3 3d
       -0.046906635 -0.028546218 0.012474998 0.11100981
0000a0 5a 0b e8 3d b6 55 05 be 13 e9 c6 3d 69 57 39 bd
       0.1133029 -0.13020977 0.09712424 -0.045249376
0000b0 8d 74 fa bd 29 f5 8f 3d a9 49 db 3d fc 2f bb bd
       -0.122292615 0.070291825 0.10707409 -0.09140012
0000c0 e2 96 94 bd 3f b0 81 bd 74 7c 8e 3d ac 21 3a 3c
       -0.07255341 -0.063324444 0.06957331 0.011360567
0000d0 88 a0 b6 bb 5d 29 69 bd 42 a2 45 bc a7 b7 96 bd
       -0.005573336 -0.056924213 -0.012062611 -0.07359248
0000e0 8e 1f b1 3d 52 20 46 3b 7e 64 b6 3b 17 1b b4 3c
       0.08648597 0.0030231667 0.005566179 0.021985574
0000f0 77 7e 17 be 23 d1 60 3d 3c 31 bd 3d 13 07 50 bd
       -0.14794336 0.05488695 0.09237906 -0.050787997
000100 a6 6d 1a 3d 36 fe 4d bd 71 b3 6b 3d 7e bd 90 bc
       0.037702225 -0.050291263 0.057544176 -0.017668482
000110 dd 38 ed 3d b1 d9 3f 3d 06 ca 07 3d 73 06 dc bd
       0.115831114 0.046838466 0.03315165 -0.107434176
000120 f4 85 aa 3d 92 2c a5 3d f2 ba 5d 3d 14 44 9e 3d
       0.08326331 0.08065142 0.054133363 0.077278286
000130 2e f6 83 3d d1 8d da bb 8e dd 27 3d 12 d9 b6 3d
       0.064434394 -0.006669738 0.040982775 0.089281216
000140 c2 ae 8b 3d d9 3a 9b bc 38 0b ea 3b a3 e8 e6 bd
       0.06820442 -0.01894896 0.0071424507 -0.11274841
000150 84 41 4f bd e4 63 a2 bd 99 8a 44 3d c5 01 c6 3d
       -0.05059959 -0.07929209 0.04798374 0.09668306
000160 ec fb a6 3d 15 d8 05 3e 63 a2 5a bd 10 74 77 3b
       0.08153519 0.1307071 -0.05337752 0.0037758388
000170 dd 88 a1 bc f2 c0 51 3d 9a 22 5f bc 2e d6 de ba
       -0.019718582 0.051209398 -0.0136190895 -0.0017001086
000180 1e 6b 09 be 44 c2 08 be 83 a0 0e 3e 3d ff ad bc
       -0.13419768 -0.13355356 0.13928418 -0.021239871
000190 f9 12 5c 3c 89 68 9b bd f1 78 0d 3d 48 27 c4 3d
       0.013432258 -0.07588298 0.034539167 0.09577805
0001a0 b2 45 02 3e d4 52 8b bd c3 f3 ed bd c0 03 ab 3c
       0.12721899 -0.068029076 -0.116187595 0.020875812
0001b0 5b fa 47 3d eb 79 f8 3c 93 ad ee 3c 23 7f a8 bd
       0.048822742 0.030331573 0.029135501 -0.082273744
0001c0 57 1d 63 bd 7c 30 b5 bd d5 98 9d 3d d5 ee 33 bd
       -0.055447903 -0.08847138 0.07695166 -0.04392894
0001d0 55 82 b2 bc 31 b8 f7 3c c6 1b 29 3d 81 ef 07 3e
       -0.021790663 0.030239196 0.041286252 0.13274957
0001e0 29 f2 14 3c 02 1e 6f 3d 1e f2 94 3d 27 74 b8 bd
       0.009090939 0.058378227 0.07272743 -0.09006529
0001f0 4b aa 89 bd c2 65 23 3d f9 fb d9 ba c5 88 04 3d
       -0.06721934 0.039891966 -0.001663088 0.032356996
000200 83 0f 52 3c 15 42 6e bd fd 30 86 3d 6d 9e 1a 3e
       0.012821081 -0.05816849 0.065523125 0.15099497
000210 86 30 0c 3e ba bc 17 3e 30 ae 91 3d 13 3e 83 bd
       0.13690385 0.14818087 0.07113302 -0.06408324
000220 69 35 b4 bc b8 f8 03 3c f4 aa 96 bd ea f4 85 bc
       -0.021998124 0.008054905 -0.073568255 -0.016352136
000230 76 56 1f 3e b4 6b 97 3c 57 3d 04 bd 60 6d 86 3d
       0.15560326 0.018483974 -0.03228506 0.065638304
000240 1e 13 15 3e 43 14 1f 3e 25 73 91 bc 58 d6 a5 bd
       0.14558074 0.15535073 -0.0177551 -0.080975235
000250 f2 f0 ad 3c 3d 3a 9b bd b9 5a 61 3c 1b e9 63 3d
       0.021233056 -0.075794674 0.01375454 0.05564223
000260 dc df e9 3d fa fc cf bc e6 18 d2 bc 8e 3c d0 bd
       0.11419651 -0.025389183 -0.025646638 -0.101678
000270 af 50 ea 3d ab 70 95 3d f8 22 68 b9 63 47 da bd
       0.114411704 0.0729688 -0.00022138271 -0.10658147
000280 f7 af 04 bd a1 93 a4 bd 23 4f 9e 3d bc e9 f8 bd
       -0.032394376 -0.080359705 0.07729938 -0.12153956
000290 76 0b 1d bc fa c9 25 bd d1 e5 05 be 88 f6 49 3d
       -0.009585252 -0.040475823 -0.13075949 0.049307376
0002a0 34 9c 3d bd 82 f2 93 bc 75 9c 82 bd ea 44 1f be
       -0.046291545 -0.018059973 -0.06377498 -0.15553632
0002b0 c7 c0 31 3d e0 54 8d 3c 61 70 6f bd 1f 94 e1 bd
       0.043396737 0.017252386 -0.058456782 -0.1101458
0002c0 4a 16 0a be 54 e8 12 bd 89 4f 3d 3d 1d 0d 2a bd
       -0.13485065 -0.035866097 0.04621843 -0.041516412
0002d0 94 09 34 3d 67 8f f8 3d 89 7a ac bd 78 b8 7b bd
       0.043954447 0.12136727 -0.08421809 -0.06145522
0002e0 77 86 17 3e f1 b0 85 bd f3 20 fe bd 46 04 99 bd
       0.14797388 -0.065278895 -0.12408628 -0.07471518
0002f0 f6 eb d6 3c d0 b6 ad 3c 20 49 7e 3d 16 48 4b bd
       0.026235562 0.021205336 0.062081456 -0.049629293
000300 d3 68 11 3e 16 fe cb bd 1c 89 05 be c2 30 06 bc
       0.14200144 -0.099605724 -0.13040584 -0.008190336
000310 b3 0e 08 3d 5b 56 2c bd 9b ff fc bc 88 8b 79 bd
       0.033217143 -0.042074542 -0.030883601 -0.060924083
000320 34 0e 32 3d 58 28 c8 bd 4b 3c af bd a5 65 c9 3d
       0.043470576 -0.0977332 -0.08556422 0.0983384
000330 c9 81 d1 3d 9a 35 06 3e 0a bd 3f bd 2b b4 c5 bc
       0.10229833 0.13106385 -0.04681114 -0.024133762
000340 e6 23 f6 3d ea 49 9e 3d 69 a7 2e 3a 2d f9 43 3d
       0.12018566 0.07728942 0.00066625193 0.047845054
000350 45 13 a3 bd b3 30 07 3e c8 f4 06 3d 40 df 93 3d
       -0.0796266 0.13202171 0.032948285 0.07220316
000360 46 27 c3 ba 61 8d c3 3c a5 31 4b 3d 62 41 32 3d
       -0.0014889024 0.023871126 0.04960789 0.043519385
000370 16 1a d4 3d 9d a0 87 3d 65 fe 94 3d 41 07 64 3d
       0.10356538 0.066224314 0.072750844 0.05567098
000380 d5 60 49 bc b1 26 fe bd 5e ff 0e bd 42 55 c5 bd
       -0.012291153 -0.124097236 -0.034911506 -0.09635402
000390 47 92 34 3d 8d 16 a1 3d 3d 3f 7c 3d c3 51 95 3d
       0.044084813 0.07865629 0.061583746 0.072909854
0003a0 bf 6a 43 bc 5d df 0e bc 35 7d 78 bd 9e 09 95 3d
       -0.011927306 -0.008720246 -0.06066628 0.07277225
0003b0 e9 39 91 bc 60 af e8 3c 85 20 83 3d 0b 1c f9 bc
       -0.017727809 0.028403938 0.06402687 -0.03040888
0003c0 7c 0e ee bd 0b 36 4c 3d 43 56 a8 3c 27 c0 25 3e
       -0.116238564 0.049856227 0.020548945 0.16186582
0003d0 0a 05 8a bc 29 b4 4f bd 2e df 5d 3b 09 5e db 3d
       -0.016848106 -0.050708923 0.003385495 0.10711295
0003e0 af 2c f1 3c 19 46 21 be b2 2e f4 bd d3 58 a0 bd
       0.029440252 -0.15749396 -0.11922969 -0.07829442
0003f0 2a f6 dd 3c 71 c1 f6 bd 78 bd f3 bd 68 58 ae 3d
       0.02709492 -0.12048615 -0.11901373 0.08512956

rnn.bias_ih_l0 f4 [256]
000000 b9 61 eb 3d 4e 2a bd 3d 94 bf da 3d 35 de 30 3e
       0.114932485 0.092365846 0.10681072 0.17272265
000010 12 6c d6 3d b9 8a b7 3d 26 e4 f9 3d 88 81 e3 3d
       0.104698315 0.08962006 0.12201719 0.111086905
000020 a6 2d 10 3e 4c 8f 48 3d af 68 80 3e ad 68 84 3d
       0.14079913 0.048964784 0.25079867 0.06465278
000030 2e a4 7c 3d c5 54 af 3d c9 ad ff 3d a3 c3 10 3d
       0.06168001 0.085610904 0.12484319 0.035342824
000040 4f 4d 2c 3e 59 42 e2 3d 1a 71 62 3e c7 0f 0b 3d
       0.16826366 0.11047811 0.22113457 0.033950593
000050 6a 0b 2f bd 90 7e 83 3d 56 77 2f 3e 2d 9c f2 3d
       -0.042735495 0.06420624 0.17135367 0.118461944
000060 b9 30 4d 3e 3d 36 74 3e b8 4d 22 3e 87 d6 0c 3e
       0.20038117 0.23848815 0.1584996 0.1375371
000070 c1 af 81 3e 5c a0 23 3e a8 bd 48 3d 75 55 3d 3e
       0.25329402 0.15979141 0.049008995 0.1848963
000080 b9 fc 88 3d 12 c0 e3 3d d0 5e 03 bc 20 a0 22 3e
       0.06688828 0.11120619 -0.0080182105 0.15881395
000090 67 be 9e 3d 92 b7 62 3e eb 4e e3 3d e3 e7 60 3e
       0.0775116 0.22140339 0.11099037 0.21963458
0000a0 55 2a 49 3d 4a 3d e9 3d 55 1f 1a 3d 92 b2 88 3d
       0.049112637 0.11388643 0.037627537 0.066746846
0000b0 e2 01 08 3e 00 7c bd 3d b1 7b 59 3d 2c 88 95 3d
       0.13281968 0.09252167 0.053096477 0.07301363
0000c0 9f b4 f1 3d dc 13 a5 3d d4 c0 37 3b 0c 51 6a 3e
       0.11802029 0.080604285 0.0028038519 0.2288248
0000d0 7d 50 21 3e 02 3c cf bb 37 39 ad 3c ea 97 1f 3e
       0.1575336 -0.006324292 0.021145446 0.15585294
0000e0 2f c9 1c 3e 4a 36 12 3d d1 5a 00 3e 41 6f 07 3e
       0.1531112 0.035696305 0.12534644 0.13226034
0000f0 f6 24 b3 3d 5d b3 95 3c 61 73 67 3e 80 e5 5e 3e
       0.08747284 0.018274004 0.22602607 0.21767235
000100 32 a7 30 bd 3a 43 f7 3d f7 7d ac 3d 92 07 a7 3d
       -0.0431282 0.12073369 0.084224634 0.08155741
000110 36 4a 10 3e 76 0f dd 3d 04 46 c9 3d 26 df ab bd
       0.14090809 0.107939646 0.098278075 -0.083921716
000120 a6 ad 42 3d 86 c6 50 3d e5 81 a2 3d 48 60 9d 3d
       0.047528885 0.050970577 0.07934932 0.0768438
000130 aa b7 88 3d 9f 88 62 3c 2b 3a f6 3d ab 24 0f 3e
       0.06675656 0.013826518 0.120228134 0.13978831
000140 75 00 22 3e 0d 39 18 3e 36 90 d8 bc 40 09 52 bd
       0.15820487 0.14865513 -0.026435953 -0.051278353
000150 ed 7a 5c 3d 51 73 bd 3d 10 6c 23 3c 97 9d d8 bb
       0.05382817 0.092505105 0.009974495 -0.006610583
000160 5e da 0b 3b bb 0e c4 bd 0e 3b 43 bc ac 7e 75 bb
       0.0021339874 -0.09573122 -0.011915935 -0.0037459536
000170 cc c1 03 bd 27 fe 70 3d a6 26 96 3d 6c 7e 89 3d
       -0.03216724 0.05883613 0.0733159 0.06713566
000180 a0 2a 5a 3d 4b e0 b1 3d 47 36 a7 bd b5 b7 f8 3d
       0.053263307 0.086853586 -0.081646495 0.12144414
000190 ce 42 28 3e 92 69 07 3e 23 4c 60 3d 76 dc 27 3e
       0.16431734 0.13223866 0.05476011 0.16392693
0001a0 d9 d6 11 3e ea 09 18 3d 1f 19 eb 3d e9 cb 71 bd
       0.14242114 0.03711883 0.11479401 -0.059032355
0001b0 4f c9 32 3d 49 40 9a bd e3 69 d2 3b b4 77 12 bd
       0.043649014 -0.07531793 0.006421314 -0.03575869
0001c0 f1 20 d5 3d 6f 67 2e 3d db c0 17 bc 23 93 05 bb
       0.10406674 0.04257911 -0.009262289 -0.002038189
0001d0 c3 65 f7 3d dd 98 a0 bc 49 a3 12 3e 04 eb fe 3c
       0.120799564 -0.01960414 0.14320101 0.031117924
0001e0 31 e6 30 b9 d0 69 f0 3c 92 e3 cf 3d a6 06 24 3d
       -0.00016870421 0.02934733 0.101508275 0.040045403
0001f0 0b d4 dc 3a ef 73 ea 3c 4c 45 23 bc 08 f7 4d 3d
       0.0016847862 0.028619735 -0.009965252 0.050284415
000200 fe 30 20 3e 4a 8e 94 bc 67 28 9e 3c 2d 33 bc 3c
       0.15643689 -0.018134255 0.019306375 0.022973621
000210 be 11 f9 3d 45 12 29 3e 07 4c 57 3d 7d 5d b7 bd
       0.12161587 0.16510876 0.05256274 -0.08953378
000220 ae 1a e4 3d 74 0a 07 3d 4d 9c 00 3e a2 36 32 3c
       0.11137901 0.032968953 0.12559624 0.010877283
000230 36 4b ae bc f6 16 30 3e ae 25 9b bd e8 6a df 3b
       -0.021276098 0.17196259 -0.07575546 0.006818164
000240 ec 41 1a 3e c6 74 5d bd e0 1b db 3c 0e 58 13 bc
       0.1506421 -0.054066442 0.02674669 -0.008993162
000250 67 8c f7 3d 41 e3 16 bd 7d 43 57 3d 70 f8 5a 3c
       0.120873265 -0.03683782 0.052554596 0.013364896
000260 6a 82 f8 3c 38 af fd bd 18 a4 e3 bc 21 ea 65 3d
       0.030335624 -0.12386936 -0.027788207 0.056131486
000270 26 29 9c 3c de 54 34 3e e7 fa b8 bd dc 5c 1d be
       0.01906259 0.176105 -0.09032231 -0.15367454
000280 6e 2c 23 be a6 67 30 bd d5 20 90 3a f0 e7 34 be
       -0.15934917 -0.043067597 0.0010996113 -0.17666602
000290 6b a8 04 3e bd e8 e7 3b 8d 77 06 be 50 9b 09 3e
       0.12954871 0.007077305 -0.13131543 0.13438153
0002a0 d6 9e 2b 3e 2e b4 35 be 82 13 98 3c d5 b8 a4 3d
       0.1675981 -0.17744514 0.01856399 0.080430664
0002b0 0e b2 5e 3c 20 37 25 be a8 d6 24 3e 51 0f 13 bd
       0.013592256 -0.1613431 0.1609751 -0.03590328
0002c0 ac 3b 89 bc c1 5f d4 bd 13 d0 37 3d 64 6a cb bb
       -0.016752087 -0.10369826 0.04487617 -0.006207751
0002d0 07 33 85 bc c9 29 c0 3d 19 f9 26 bd 1f af 95 3c
       -0.016259683 0.0938297 -0.0407649 0.01827198
0002e0 8a 9a 02 3e 24 4e 08 be 96 7e 02 be 87 ce 1f 3d
       0.12754264 -0.13311058 -0.12743601 0.03901532
0002f0 63 d9 0d bd 42 db 24 be 47 24 f7 bb b5 6f 06 3d
       -0.034631144 -0.16099265 -0.0075421664 0.032821376
000300 fe b0 60 3d 89 ee 81 3e 39 80 81 3d fe b7 00 3e
       0.054856293 0.253773 0.06323285 0.12570187
000310 69 7a 12 3e 83 2f d4 bc 22 f7 80 3d 49 f7 66 3e
       0.14304508 -0.025901562 0.06297137 0.2255527
000320 61 34 90 bb a4 dc 86 3c 65 a0 96 3e 11 c0 be 3d
       -0.0044007753 0.016462632 0.29419246 0.093139775
000330 d5 02 53 3e 38 3c b0 3d 03 e8 09 3d a2 46 0c 3e
       0.20606549 0.08605236 0.03366853 0.1369882
000340 e2 87 22 3e 81 3e 42 3c d7 8d c0 3d ad 85 e5 3c
       0.15872148 0.011855722 0.09402054 0.028017843
000350 5c 36 e0 3c b0 8f c5 3d c0 01 81 3d 6b 09 05 3c
       0.02736967 0.09646547 0.06299162 0.008119921
000360 91 7e 60 3e a0 10 3a 3e 57 6a 33 3e e6 15 d7 3d
       0.21923281 0.18170404 0.17521034 0.10502224
000370 02 db 09 3e f4 83 12 3e e9 04 2c 3e 91 37 2b 3e
       0.13462451 0.14308149 0.16798748 0.16720416
000380 6a 98 4d 3e 40 f5 99 3d 8c 41 9e 3d a4 33 cf 3d
       0.20077673 0.07517481 0.07727346 0.101172715
000390 ca b6 26 3d 69 f8 eb 3c 2e fc aa 3d a5 30 09 3e
       0.040701665 0.028804975 0.08348881 0.13397463
0003a0 e1 2c 60 3e 50 a8 13 3e f6 a8 63 3d 2b 51 e1 3d
       0.2189212 0.14419675 0.055581056 0.1100181
0003b0 90 2b 00 3e aa a7 07 3e d1 0e 1b 3e 2c ca 0d 3e
       0.12516618 0.13247553 0.15142371 0.13846654
0003c0 91 2c 6a 3a 65 ec 6a 3e f4 0c d2 bc 1a 09 8e 3e
       0.00089330325 0.2294174 -0.025640942 0.2774132
0003d0 ed a9 af 3d af 1e 0c 3e 47 5d 8a 3d af 18 42 3c
       0.08577333 0.1368358 0.067560725 0.011846705
0003e0 97 94 67 3d 02 f3 36 3d 11 50 28 3e 6a 40 99 3d
       0.05653819 0.044665344 0.16436793 0.07482989
0003f0 67 f8 28 3e ea 8a a5 3c 0f b1 37 3e f9 1c f4 3d
       0.16501008 0.020207841 0.17938636 0.119195886

rnn.bias_hh_l0 f4 [256]
000000 51 ee 33 3e 8d 8e 03 3e d2 d2 44 3e 98 2c 1c 3e
       0.17571379 0.12847348 0.19221047 0.15251386
000010 12 4d 21 3d 26 ff 17 3e 17 bc 51 3b f7 a4 58 3e
       0.03938014 0.14843425 0.003200298 0.21156679
000020 05 36 c2 3d 17 7a 81 3d fb 39 5e 3e 49 8f 6d 3e
       0.0948296 0.06322115 0.21701805 0.2319919
000030 d2 93 c2 3d b1 e0 2e 3e c3 39 d1 bc 79 08 34 3a
       0.09500851 0.170779 -0.025540238 0.00068677176
000040 25 6c 82 bb a3 24 e9 3d a2 c9 20 3d 01 cb 93 bc
       -0.003980177 0.11383941 0.039254792 -0.018041136
000050 84 7f a4 3d 33 56 d1 bd 16 79 d5 3d e4 f8 51 3e
       0.08032134 -0.10221519 0.10423486 0.205051
000060 85 56 15 3e ee 2e f2 3d b5 03 bb 3d 9e 91 00 3e
       0.14583786 0.118253574 0.091315664 0.12555549
000070 91 55 4a 3e c5 e1 8c 3d 98 ac 1c 3e 7b b5 05 3e
       0.19759203 0.068789996 0.15300214 0.1305751
000080 45 81 83 3e 6b 62 32 3e 61 df 1c 3d 40 b3 3a 3e
       0.25684562 0.17420356 0.03829897 0.18232441
000090 71 36 68 3e a6 be 50 3e 2b 51 d8 3d 04 d6 60 3e
       0.22677018 0.20385227 0.105623566 0.2195664
0000a0 18 fd 5b 3e 4a 34 31 3e 52 72 51 3e 09 0d 66 3e
       0.21483266 0.17305103 0.20453766 0.2246591
0000b0 dd 4b e8 3c 74 30 38 3e 15 e0 f2 3b 28 68 38 3e
       0.028356487 0.17987233 0.0074119666 0.18008482
0000c0 30 cd 2b 3d ef 7c 52 3e 4e e4 38 3e ad 04 42 3d
       0.04194373 0.20555471 0.18055841 0.04736774
0000d0 03 f6 ec 3d f2 6c 3a 3e 38 99 a9 3d f2 a6 6c 3e
       0.115703605 0.18205622 0.08281177 0.2311056
0000e0 12 b8 37 3d 1a 20 45 3e 45 dc 63 3e 75 7c 49 3d
       0.044853278 0.19250527 0.22251995 0.049190957
0000f0 7c ab 3b 3e 62 15 d7 3c 87 2a 16 3d 35 38 8e 3d
       0.18327135 0.026255313 0.03666165 0.069443144
000100 fe 86 a9 3c c0 9e ba bc 32 f7 d8 3d ab 63 76 3d
       0.020694252 -0.022780776 0.10594024 0.060153645
000110 e4 7c cb 3b 7b 91 b3 bc b0 d3 80 bc 08 8a ea bc
       0.0062099565 -0.021919956 -0.01572594 -0.028630272
000120 03 ed 14 3e 91 95 a2 bd 9a 52 01 be 3f 40 1f 3d
       0.14543538 -0.07938684 -0.12629166 0.03887963
000130 e2 63 2a 3d 04 e2 88 bc ca f4 e1 3d bc d9 00 bd
       0.041599162 -0.016709335 0.11033018 -0.031457648
000140 9b f8 f4 3a 9e f0 47 bd 82 03 db 3d 1c 7b 96 3d
       0.0018689813 -0.048813455 0.106940284 0.073477
000150 fa 5d 39 bb 19 fa c3 3d 32 7f a6 bd 56 15 9d 3b
       -0.0028284774 0.09569187 -0.08129729 0.004793803
000160 77 2a 13 3c 84 8d 1c 3d 06 15 0f 3e 5f f4 88 bd
       0.008982292 0.038220897 0.13972864 -0.06687235
000170 d4 6c 02 3e 84 71 1c 3e 89 17 c6 bc 93 16 04 3d
       0.12736827 0.15277678 -0.024181144 0.03224809
000180 5a b6 b4 3d 7c 85 97 bc 86 13 03 bc 2a 14 23 3d
       0.08823843 -0.018496267 -0.00800026 0.03981415
000190 9b b5 e9 3d 7f 28 55 bd d6 28 96 bd f0 6d b9 3d
       0.114115916 -0.052040573 -0.073320076 0.09054172
0001a0 49 5a 16 3e 9c 36 78 bd 2c a3 b9 3c 18 0b 0f 3e
       0.14682879 -0.060598955 0.022660814 0.13969076
0001b0 26 96 99 3c 6c b3 ba bd 0b 2d 65 3c 74 bb 30 3d
       0.018748354 -0.09116253 0.01398779 0.04314752
0001c0 39 94 a3 3d 9d 25 a4 bd b6 69 e3 bb 2f f7 a1 bd
       0.079872556 -0.08014987 -0.006940092 -0.07908475
0001d0 9d 5b 74 3d e1 64 91 bd e9 8a f4 3c 06 4d 13 3d
       0.05965768 -0.07099319 0.029851394 0.035962127
0001e0 a7 20 a8 bd 47 03 08 bd f5 81 4b 3d f8 6c a7 3d
       -0.08209353 -0.03320625 0.049684484 0.08175081
0001f0 7d 2e 24 3d d1 45 d1 3d 0d a7 91 3d 75 69 b7 bc
       0.040083397 0.102183945 0.071119405 -0.022389153
000200 b8 06 60 bc 15 58 3d 3c 70 0e d7 bd 2d 8f 88 3d
       -0.013673477 0.011556645 -0.105008006 0.066679336
000210 71 5a 10 bd b6 d9 99 3d a2 87 ab bd 21 2e 7a 3d
       -0.0352425 0.07512228 -0.08375479 0.06107915
000220 06 41 98 3d 39 a4 10 be 14 8b fa 3d 64 d8 c5 3d
       0.07434277 -0.14125146 0.12233558 0.09660414
000230 94 27 13 3e 5e dd f0 3c 98 2f 14 be be 00 ca bb
       0.14370567 0.029402431 -0.1447128 -0.0061646393
000240 3b a2 2d 3e d2 ea 85 3d 7a 63 81 3d 37 d9 99 bd
       0.16956417 0.06538929 0.06317802 -0.075121336
000250 87 eb 25 3e ce 31 1d 3d 6f 34 de 3d 63 37 3a bd
       0.16203128 0.038377576 0.10849845 -0.045462977
000260 4f 1c 83 3c be dc 6d bc 21 9b 2a bd 78 f6 24 3d
       0.01600471 -0.014517961 -0.04165185 0.040274113
000270 ca f9 6e 3d 35 7f 36 3b ff 91 f5 bd a4 a1 74 bd
       0.058343686 0.0027846817 -0.11990737 -0.059724465
000280 0f 77 48 be 3f a5 11 be f5 13 0a 3e d0 22 88 3c
       -0.19576667 -0.14223193 0.13484176 0.016618162
000290 10 fd 3a bc 23 94 99 bd 44 8d 0c be 03 0f 2b 3e
       -0.011412874 -0.07498958 -0.13725764 0.16704945
0002a0 a0 24 c0 bc 91 7c e3 bd 35 0c 39 3d 1e c9 37 3d
       -0.023454964 -0.111077435 0.045177657 0.044869535
0002b0 2b 2a af 3b 1f f9 91 bd 29 51 ec 3d e4 75 c0 3a
       0.005345603 -0.07127594 0.115389176 0.0014683572
0002c0 06 08 12 be 03 01 6b 3c 2f 67 2e 3c ac 87 ab 3d
       -0.14260873 0.014343503 0.010644718 0.08375487
0002d0 fd 56 c0 bd 69 d9 2e 3e e4 0a e6 bd 4a 4c 26 3e
       -0.09391592 0.17075123 -0.11232546 0.1624004
0002e0 9f f9 c7 3d 4d d3 4c 3d e3 0b be bd 33 64 8a bc
       0.09764408 0.0500062 -0.09279611 -0.016893482
0002f0 66 cb b4 bc 21 39 a7 3d 0e 11 8d 3d ab e3 ef bd
       -0.022069644 0.08165193 0.068880185 -0.11713346
000300 18 4c 99 bc 48 25 3d 3e a3 ee 80 3e bb 6e 86 3d
       -0.018713042 0.18471253 0.25182065 0.06564089
000310 4e 85 5c 3e 49 35 02 3e b2 57 11 3e ff 3d 31 3e
       0.21535227 0.12715639 0.1419361 0.17308806
000320 5c ea 9b 3d ef f4 25 3e 7a c4 52 3e 17 f8 b0 3d
       0.0761306 0.16206716 0.20582762 0.086410694
000330 43 ce 84 3d dc 3a ec bc 36 0d 88 bc 75 f5 41 3e
       0.06484654 -0.02883666 -0.016607862 0.1894129
000340 f3 ca 2f 3e 5c b3 72 3e d4 b1 38 3d cd 27 ad 3d
       0.17167263 0.23701233 0.045091465 0.08454857
000350 d3 66 ed 3d 24 9b a3 3d c3 1e 69 3c 53 b4 e8 3d
       0.11591878 0.07988575 0.014228526 0.11362519
000360 c1 ce 87 3d 5d b6 2b 3e ff 27 90 3d a8 30 94 3e
       0.06631232 0.16768785 0.07038879 0.28943372
000370 b5 0b 56 3e c0 80 28 3d 55 a4 14 3c c1 f0 00 3e
       0.20902903 0.04113841 0.009072383 0.1259184
000380 5d 50 c8 3d 72 68 29 bd fb b4 f3 bc 91 71 94 3d
       0.09780953 -0.041359372 -0.029749384 0.072482236
000390 48 4a 84 3d 98 79 63 3d 62 17 99 3d 58 61 95 3d
       0.064594805 0.055535883 0.07475163 0.072939575
0003a0 01 25 e5 3c ca 67 f9 3d bc 04 a4 3d 8a 9e 71 3e
       0.027971746 0.12177999 0.080087155 0.23595634
0003b0 cd bd 5d 3e 21 48 cb 3c b2 ab 84 3d 8a a9 b9 3d
       0.21654435 0.024814667 0.06478061 0.0906554
0003c0 3a 99 aa bb 34 8b 6c 3e b6 cf fb 3d 83 ce 46 3e
       -0.0052062543 0.23099977 0.12295477 0.19414715
0003d0 1f 6c b4 3d ac 4a 26 3c 9d 69 0f 3e 79 22 64 3e
       0.08809685 0.010149639 0.14005132 0.22278775
0003e0 11 8f 3d 3e c3 8a ce 3d 00 21 43 3e 8e 32 08 3e
       0.18511607 0.100850604 0.19055557 0.13300535
0003f0 65 c8 8a bc 4b 33 1c 3e af 05 31 3e f3 53 cd 3c
       -0.016941259 0.15253942 0.17287324 0.025064444

rnn.weight_ih_l1 f4 [256, 64]
000000 ee 52 13 3e 1c 99 c1 bd 3e c0 32 be 34 b9 f5 3d
       0.14387104 -0.094530314 -0.17456147 0.11998215
000010 d2 ba 04 3e b9 69 22 3e e1 9c a5 bd 8b ea a7 bd
       0.12961891 0.15860642 -0.08086563 -0.081990324
000020 25 5e af 3d da e5 9b 3b f7 29 fa bd b7 03 7e bc
       0.085628785 0.004757625 -0.122150354 -0.015503815
000030 97 90 d6 3d 2a 5d 84 bb 59 0a d8 bd 64 f3 6d bc
       0.10476797 -0.0040394263 -0.10548849 -0.014523361
000040 f0 4d e9 3c 3c 50 57 3e 2c 5c eb 3c 39 88 04 be
       0.028479546 0.210267 0.028730474 -0.1294259
000050 f4 76 f6 3d 5e 7b 41 3d 7b 13 30 3e e7 85 10 bd
       0.12034407 0.047236793 0.17194931 -0.03528395
000060 e6 ab 71 3d be 62 66 be a4 8c c6 3c fa 65 a9 be
       0.059001826 -0.22498605 0.024236985 -0.33085614
000070 53 4f 48 3e 76 e6 c0 bc a4 22 05 be 85 83 33 be
       0.1956151 -0.023547392 -0.13001496 -0.1753064
000080 7d 1f 2e be 18 57 df bd 96 f2 f5 3d 8f 60 e7 bd
       -0.170042 -0.10905284 0.1200916 -0.11297714
000090 6f ff ff 3c 88 a2 eb 3c 8b ff 83 bd f7 9b 54 3e
       0.03124973 0.028764024 -0.06445225 0.20762621
0000a0 09 b0 0a 3e 3c 1e 08 3d 5f 21 33 be 07 2e 0a be
       0.13543715 0.03323196 -0.17493199 -0.1349412
0000b0 a5 8a b9 bd ca cb e3 bd c7 f8 39 3e 0e f8 cb bd
       -0.090596475 -0.11122854 0.18161307 -0.09959422
0000c0 52 d5 4b 3c a2 d5 39 be 41 e7 0e bd 5d 33 0f 3e
       0.012440996 -0.181479 -0.03488851 0.13984437
0000d0 9e fb dd bd 48 e7 13 3d 5a 7a 10 bd 96 00 6c 3e
       -0.10839008 0.03610924 -0.035272934 0.23047099
0000e0 2c 49 a9 3d 0e c8 0a bd 15 f0 25 be 27 00 95 bd
       0.082659096 -0.033882193 -0.16204865 -0.0727542
0000f0 05 ca 17 be 7f 4f 65 bd 07 00 9f bd 5c 8e 27 be
       -0.14823158 -0.055984017 -0.07763677 -0.163629
000100 b1 0e f3 bc 4c ac 26 be 19 b0 02 be 95 fa 1c 3d
       -0.029670091 -0.16276664 -0.12762488 0.03832491
000110 28 e4 99 bc 42 3a 06 bd 76 ee a1 ba cb 13 c1 bd
       -0.018785551 -0.032770403 -0.0012354392 -0.09427603
000120 fc 12 c3 3d e1 b2 e0 bb b2 59 91 be 92 95 14 3e
       0.09525105 -0.0068572615 -0.28388745 0.14510182
000130 79 30 ea bc 94 93 c8 bb a1 9d 2d be fa 33 78 bd
       -0.028587567 -0.0061211083 -0.16954662 -0.060596444
000140 9e 9d bb 3c b4 7e fb 3d 9e 1e 13 3e 4d 02 f7 bb
       0.022902306 0.12280026 0.14367148 -0.007538116
000150 af 70 ff 3d 8b ec ad 3c 06 d7 24 3d d0 62 07 bd
       0.124726646 0.021230957 0.040244125 -0.03305322
000160 e3 e5 32 3e f9 1b 46 be 21 6f 05 bd 69 68 06 be
       0.17470507 -0.19346608 -0.032576684 -0.13125767
000170 26 01 25 3e 99 2a c1 bc 1f 02 d2 bd b4 e6 01 be
       0.1611372 -0.023579882 -0.10254311 -0.12685663
000180 99 1e e7 bd b6 b8 d1 bb ab 81 2b 3e df e0 a8 bd
       -0.11285133 -0.006400193 0.16748683 -0.08246016
000190 bd 36 2e 3e 16 a8 19 bd ce 34 71 3c b6 68 43 3e
       0.17013068 -0.037513815 0.014722062 0.19082913
0001a0 d7 31 3f 3e 50 74 3d be 7a 04 37 be e2 0f b3 bd
       0.18671356 -0.18501401 -0.17872801 -0.08743264
0001b0 d1 c5 0b 3d 15 81 05 3d d1 e9 27 bd aa f2 1a be
       0.0341242 0.032593805 -0.04099447 -0.15131631
0001c0 f9 83 98 bd 4e 43 49 3d 39 bf 12 bd 9f 9b 3c 3e
       -0.07447047 0.049136452 -0.035826895 0.1841874
0001d0 96 4d 85 bd 39 59 b4 3d 0e 94 bd bd be 40 da 3c
       -0.06508939 0.0880608 -0.09256755 0.0266422
0001e0 b0 c8 2f 3e d9 3a 1f 3d 28 fd 08 3d 97 5a 2b 3d
       0.171664 0.03887448 0.033444554 0.04183444
0001f0 e5 dc 97 bd 7e 08 4c be 2e b0 c1 bd bd e6 26 be
       -0.07415179 -0.19925115 -0.09457432 -0.16298957
000200 78 92 3f bd 50 98 25 be 1d e7 41 be 2f a7 20 3e
       -0.046770543 -0.16171384 -0.18935819 0.15688775
000210 26 d0 35 3e ee db 1f 3e 43 50 9f bd 3f fa f5 bd
       0.17755184 0.1561124 -0.077789806 -0.12010621
000220 35 df ea 3c 53 67 00 be 8e 8c 8b be 92 91 83 3d
       0.028670887 -0.12539415 -0.27255672 0.0642425
000230 e8 eb 06 bc 13 9c 20 3e 75 3b d2 3c 28 55 b8 ba
       -0.008234955 0.15684538 0.025663117 -0.0014063464
000240 b4 87 1f 3e d0 e1 39 3e e6 a0 f3 3d b5 72 4a be
       0.1557911 0.18152547 0.11895923 -0.1977032
000250 01 22 b4 3d 73 bf 98 bd df f2 39 3d fe 64 4e bd
       0.08795548 -0.07458391 0.045397636 -0.050389282
000260 d8 62 37 3e 95 b2 0c be 7a 11 38 3e f5 27 98 be
       0.179088 -0.13739999 0.17975417 -0.29717985
000270 02 3e 22 3d d1 ae 6b 3c 24 30 5e bd 4f 95 10 be
       0.039609917 0.014384941 -0.05424513 -0.14119457
000280 e3 f7 b4 bd 6e 5d 7e bd 8d 80 be 3d 19 b3 16 be
       -0.08836343 -0.06210082 0.09301863 -0.14716758
000290 41 1d cc 3d f0 03 b7 bd 06 9c 06 be 4f f7 7e 3d
       0.09966517 -0.08936298 -0.13145456 0.06224757
0002a0 7a c9 ae 3c 16 cf 17 bc 72 31 0a bd 4f 3f 52 be
       0.021336306 -0.009265682 -0.03373856 -0.20531963
0002b0 05 bc 22 bd 46 b0 70 3c f8 c2 fe 3d 0f c8 6a be
       -0.03973009 0.014690464 0.12439531 -0.22927879
0002c0 65 48 03 be b8 8d b9 3c df ed a8 bd 75 90 8d 3d
       -0.12820585 0.022650585 -0.08248495 0.069123186
0002d0 74 f1 98 bd 85 32 d1 3d 2b 9e 69 bd 6f 20 c1 3d
       -0.074679285 0.10214714 -0.057035606 0.09430014
0002e0 6b 8a eb 3d b3 bc 92 bd bc 86 29 be e3 43 47 be
       0.115010105 -0.07164898 -0.16555303 -0.1945949
0002f0 2a 3b 4f bd 53 52 27 be ce f3 86 bd 06 1d f6 3b
       -0.050593533 -0.16339998 -0.06589471 0.007510784
000300 10 cb 04 3e 52 d5 3e be 95 4f 0b be 64 f6 65 3e
       0.12968087 -0.18636063 -0.13604577 0.22457272
000310 a7 9b 0c 3e a5 3e 16 3e a9 bb f3 3a 50 ac bf bd
       0.13731252 0.14672334 0.0018595356 -0.09359038
000320 79 5e ae 3c 85 fc ec bb fd b3 4d be 9e 11 52 3e
       0.021285282 -0.007232251 -0.20088191 0.20514533
000330 25 ea 11 3e 0d ee 4b 3c 5e c6 19 be 05 66 ba 3c
       0.14249475 0.012446892 -0.15017077 0.022753725
000340 dd 5f 4a ba f1 d1 eb 3d 74 84 3f 3e d4 ca ae 3c
       -0.0007719973 0.115146525 0.1870287 0.02133695
000350 48 7b 15 3d b2 39 bf ba 88 1b 0d 3d 99 29 17 be
       0.036494523 -0.0014589338 0.034450084 -0.14761962
000360 2a e1 4a 3c ff 49 5c be 9b 54 e4 3d 7d ef 58 be
       0.012382785 -0.21512602 0.1114895 -0.21185108
000370 5f 8a 02 3e 0e 27 a9 bc b4 b0 f0 3b 77 65 eb bd
       0.12748097 -0.020648506 0.0073452834 -0.11493962
000380 50 09 b1 bd 31 71 0e be a9 19 21 3e c2 20 06 be
       -0.08644354 -0.13910367 0.15732445 -0.13098434
000390 85 2d 5a 3d 1d b6 c0 3c 2e ac b6 bd 86 14 8f 3d
       0.053266067 0.023524338 -0.089195594 0.069863364
0003a0 bd 27 3d 3e 36 7d 5d be b8 18 fe bd fd 2c 88 be
       0.1847219 -0.21629795 -0.124070585 -0.26596823
0003b0 28 56 0a be 95 8f d3 bd 8c 34 20 3d b5 5e 8c be
       -0.13509429 -0.103301205 0.039112613 -0.27416006
0003c0 12 7d 99 bd 15 70 90 3c 77 94 27 be 6c c9 52 3e
       -0.074945584 0.01763157 -0.16365229 0.20584649
0003d0 1e 52 4a be f1 fe 0f bc 78 98 dc 3c 47 e9 3f 3e
       -0.19757888 -0.00878881 0.026928172 0.18741332
0003e0 ce cd 30 3e 5d d8 c8 bd 73 e8 d3 bd d5 42 2c be
       0.17266008 -0.09806893 -0.103470705 -0.1682237
0003f0 25 af d6 bd 47 69 1b be 8f 17 76 be 98 9e 43 3b
       -0.10482625 -0.15176879 -0.24032424 0.0029849168

rnn.weight_hh_l1 f4 [256, 64]
000000 e8 10 ea 3c 4a 8d 03 be 35 4e 19 bd f3 ee 84 bd
       0.028572515 -0.12846866 -0.0374281 -0.064908884
000010 92 75 0b 3e de 6d 70 bd 9c b1 2e 3d 7c fa 6a 3d
       0.13619068 -0.058698528 0.04264985 0.057367787
000020 07 94 94 bd 6e 19 5e bd 43 3a 4d bd c9 d1 c3 3c
       -0.072547965 -0.05422347 -0.05010439 0.023903744
000030 71 c4 e1 3d fd 86 15 3e 45 58 05 bd 4f 70 0e 3e
       0.11023796 0.14602275 -0.032554884 0.1391003
000040 24 7e 8d 3d 45 d4 cb bd c2 ce ea bd 08 93 85 bd
       0.06908825 -0.099525966 -0.11465217 -0.065221846
000050 0b a7 20 3b 0d b3 b6 bd 7e ef 21 3e da 6d c6 bc
       0.0024513628 -0.0892087 0.15814015 -0.024222303
000060 fe 44 2e 3d 07 5e af 3d bf 71 17 3e 83 05 0d 3d
       0.042546265 0.08562856 0.14789484 0.034429085
000070 4a 4e b7 bd 22 35 fd bd 38 45 03 3c c4 8c b3 3b
       -0.08950479 -0.1236365 0.0080121085 0.005479427
000080 1a 6c 86 3d 77 f2 90 3d 4b 4a fb bc 41 16 84 3d
       0.065635875 0.070774965 -0.030675074 0.06449557
000090 55 87 06 bb 3d 7d 82 bd 71 30 9b 3d 62 2a 00 bd
       -0.0020527442 -0.063715436 0.07577599 -0.03129042
0000a0 c5 c6 7f bd 4a 6e da bd 1d 42 91 3d a6 e1 73 bd
       -0.06244542 -0.10665567 0.07092688 -0.059541367
0000b0 6d 16 89 3c dc e4 34 3d d9 7a a1 bd 60 1b a3 bc
       0.016734326 0.04416357 -0.078847595 -0.019910514
0000c0 c6 3f 81 bd 03 5e ae bb 54 fc a7 bd 74 8c 3c 3d
       -0.06310992 -0.0053212657 -0.08202425 0.046032384
0000d0 4d ab aa bd d1 e4 50 bd fc b2 76 3d c8 41 17 be
       -0.08333454 -0.050999466 0.060229287 -0.14771187
0000e0 fb 81 96 bd 72 a2 90 bc b5 70 97 3d f9 14 7b 3d
       -0.073490106 -0.017655585 0.07394544 0.061299298
0000f0 38 14 81 bb 9e 5e 8f 3d 95 07 cd 3d a3 fc ca 3c
       -0.003939178 0.07000469 0.10011212 0.02477867
000100 3f bb 8a bd 3c 01 b6 bd 7c 75 4e bd 76 21 02 bb
       -0.067739956 -0.08886954 -0.05040501 -0.001985637
000110 9f 90 87 3d 15 cb 4c bd a4 08 d2 bd 81 3f 45 3d
       0.06619381 -0.04999836 -0.10255554 0.048156265
000120 92 e1 10 3e c8 d5 ec bd be ea ad 3d 2c 81 4a 3b
       0.14148548 -0.11564213 0.08492039 0.0030899746
000130 cf 8e 46 bd 6d b3 a1 3d 4c ad 98 ba 68 a6 12 3e
       -0.048476037 0.07895551 -0.0011648326 0.14321291
000140 cc fc 21 3e 64 94 a0 3d 69 4d a8 3d 74 7b 94 3a
       0.1581909 0.07840803 0.0821789 0.0011328296
000150 d4 de 64 3c b5 df 71 3d b0 a1 8d bc a8 42 61 3c
       0.013969142 0.059051234 -0.017289013 0.013748802
000160 ca af 94 3c 52 a1 86 3d 4f dc 43 3d 1b 16 63 bd
       0.018150229 0.06573738 0.047817525 -0.055441003
000170 91 c7 9d bd 24 ed 92 bd 0c e8 24 bd 7f c7 25 3d
       -0.0770408 -0.07174137 -0.04026036 0.040473457
000180 0c e6 de 3d 69 df a8 bd 1a 01 78 3d 8b 52 04 bd
       0.10883722 -0.08245737 0.060547926 -0.03230528
000190 2e 76 a6 bd 20 9c 45 3c 0b 44 8c 3d f8 9e 9a 3b
       -0.0812801 0.012061149 0.06848916 0.0047186576
0001a0 f6 d9 0b 3e 6b 82 5d bd 71 3e 1e bd 58 43 c9 3d
       0.13657364 -0.054079454 -0.038633768 0.09827298
0001b0 8a 4d 26 bd 3b bc 89 3d 8b 96 4e bd 02 a2 13 bc
       -0.04060129 0.06725355 -0.050436538 -0.009010794
0001c0 38 6e 6e bd 1e e3 c7 bd b3 9a 3f bd a5 36 2f 3d
       -0.05821058 -0.09760116 -0.046778392 0.042776722
0001d0 f7 94 f1 bd 57 51 a2 3d 09 cc a8 bc 26 7f 7b bc
       -0.11795991 0.079256706 -0.020605104 -0.015350139
0001e0 9f 94 09 3e 52 56 d6 bd f0 c2 39 bc 33 da 3f bd
       0.134356 -0.10465683 -0.011337981 -0.04683895
0001f0 a9 3e 0f 3b 00 51 82 3c a5 80 32 3d 1b 7c a3 bd
       0.0021857417 0.015907764 0.043579716 -0.079826556
000200 ad d5 a9 bd c7 04 90 3d 28 80 c8 3d 66 81 c0 bd
       -0.082927085 0.07032161 0.09790069 -0.09399681
000210 e3 0b 66 bd 88 37 a6 3d db a5 8b 3d ef ec 88 3d
       -0.05616368 0.081160605 0.06818744 0.066858165
000220 09 4a 85 bc d7 13 07 bd 1b 03 12 3e c1 9e 36 ba
       -0.016270654 -0.032977905 0.14258997 -0.0006966405
000230 74 b8 05 3e 00 d8 a9 bd 76 b8 b5 3c e7 e9 0d ba
       0.13058645 -0.08293152 0.022182684 -0.00054135773
000240 ea ae 6f bd 26 f8 d3 bd ce b4 12 be ad 72 44 3d
       -0.05851642 -0.10350065 -0.14326784 0.047960926
000250 3a 29 1d 3e 97 e2 8f 3c 0c 35 65 3b aa 6d de 3d
       0.15347758 0.017564101 0.0034974245 0.108607605
000260 0a 57 1b be e0 68 11 3d 92 5d b2 3d 7e fa bc bd
       -0.15169922 0.035500407 0.08709253 -0.09227465
000270 f8 37 4b 3d 34 1e 07 be ac 78 5a bd b5 63 1d bc
       0.049613923 -0.13195115 -0.053337738 -0.009606292
000280 c0 6b 92 3d 87 56 21 bd e1 9c a4 3d a5 94 d9 3d
       0.07149458 -0.03938916 0.08037735 0.10624055
000290 a5 dd 2b bd 17 3c 73 bd 64 48 8a bd ef 26 14 3e
       -0.041959424 -0.059383478 -0.06752089 0.14467977
0002a0 f0 df 31 3d 9a a1 83 bd 4a d8 b2 3c c1 ef cc 3d
       0.043426454 -0.064273074 0.02183165 0.10006667
0002b0 08 af 16 bd 4e cb 5a bd e4 68 6e bd ec 67 23 be
       -0.036788017 -0.053416543 -0.0582055 -0.15957612
0002c0 dd c2 7e bd e0 d1 35 3d 63 cd 08 3e 45 2e b7 bc
       -0.062197555 0.044389606 0.13359599 -0.02236093
0002d0 76 9f 16 be 79 a7 38 3d 09 ca 9c bb 65 38 cf bd
       -0.14709267 0.04508159 -0.0047848267 -0.10118178
0002e0 cf 13 5d 3c 9b c8 18 3c ce 48 6c bd 89 b5 1e 3d
       0.013493492 0.009325172 -0.05768662 0.038747344
0002f0 41 b8 d9 3d 86 a3 30 3d ee 0b fb 3d 70 6d 8e bd
       0.10630847 0.043124698 0.12258135 -0.06954467
000300 14 a5 82 3c 40 74 98 3d 8e 9b 60 3c 8c 56 47 bd
       0.015947856 0.07444048 0.013708962 -0.048666522
000310 87 99 86 bd 09 1a 3b bd 2a 83 8e 3d 99 06 a8 bd
       -0.06572252 -0.045679126 0.06958611 -0.082043834
000320 8b 18 16 3e 6c 77 6d 3c 1c fa 64 3c 58 bc 8f bd
       0.146578 0.014493804 0.013975646 -0.070183456
000330 b7 ad 6a 3d dd 02 b8 3d 78 34 42 3d af a8 91 bc
       0.057294574 0.08984921 0.04741332 -0.01778063
000340 ec 4e 7d bd e5 24 9b 3c 23 19 c0 bd 62 b6 b8 bd
       -0.061842844 0.018938491 -0.093797944 -0.09019162
000350 9c 19 c7 3d 14 27 63 3d ed fd 17 3e 49 78 b7 3d
       0.097216815 0.05545719 0.14842959 0.089584894
000360 55 42 b4 bd a7 3e 90 bc a4 9b 24 3e 41 82 8d bd
       -0.08801714 -0.017608 0.16074997 -0.069096096
000370 07 7d bd bd 11 16 00 bd db 0d 44 3c 39 92 bb 3c
       -0.09252363 -0.031271044 0.011966194 0.022896873
000380 c9 e9 77 3d e2 19 0e bd 96 91 07 bc 90 cc 08 3e
       0.06052569 -0.034692653 -0.0082744565 0.13359284
000390 a8 77 5a 3d 9a 26 d2 3c 5a 18 2c bd 3b b2 76 3d
       0.05333677 0.025653172 -0.04201541 0.060228568
0003a0 99 36 1c 3e 58 f5 26 be 67 9a 96 3d 04 20 f7 3d
       0.15255202 -0.16304529 0.07353669 0.12066653
0003b0 a3 5b 83 3d e7 6f 69 bd f4 80 93 bc 05 b0 a3 bd
       0.06413963 -0.056991484 -0.018005826 -0.079925574
0003c0 78 44 ce 3d a0 a9 8e bd bf 60 d5 3d a5 0b 21 be
       0.10071653 -0.06965947 0.104188435 -0.15727098
0003d0 61 07 13 be 12 c8 6f bb 67 b9 2e bd c7 5a 14 be
       -0.14358284 -0.0036587757 -0.042657282 -0.14487754
0003e0 f5 8e 68 3d f1 57 e9 bd e9 32 87 bd af f1 db 3d
       0.05677696 -0.113937266 -0.06601507 0.10739457
0003f0 5f a7 b9 bb 55 6a ed bd a4 ea 72 3d 7d 9d e4 3d
       -0.005665704 -0.11592547 0.059305802 0.11162851

rnn.bias_ih_l1 f4 [256]
000000 e3 e8 2f 3e ca ed d1 3c 01 51 25 3e c4 f4 52 3d
       0.17178683 0.025626082 0.16144182 0.051502958
000010 2b c0 fe 3c 85 fa e1 3b 6e 40 af 3d 33 9f 38 3e
       0.031097492 0.0068963193 0.08557211 0.1802948
000020 71 dd bc 3d 86 f8 e2 3d 38 06 2a 3e 45 ec 92 ba
       0.09221924 0.11082558 0.16603935 -0.001120933
000030 35 94 96 3d 3d b8 bd 3d 47 70 61 bc 78 48 00 3e
       0.07352487 0.09263656 -0.013759679 0.12527645
000040 a6 f3 c9 bc 25 b0 ee 3c 3b 66 ad 3d 15 ee 1c 3e
       -0.024652313 0.029136727 0.084667645 0.15325196
000050 2f 63 04 bd a1 8c b2 3d eb 52 11 3e 3d 58 46 bd
       -0.03232115 0.08718229 0.14191787 -0.048423994
000060 07 e3 94 3d b1 6a 38 3e 82 6b 4b 3e ca d2 b3 3d
       0.072698645 0.1800945 0.1986523 0.08780439
000070 2e c2 d0 3d 21 84 2d 3e fe 0c 24 3e 9e 2f 56 3e
       0.10193287 0.16944934 0.16020581 0.20916602
000080 1f 61 d4 3d 15 d0 5c 3d 6a 66 12 3c 62 53 83 3d
       0.10370087 0.05390938 0.00893555 0.064123884
000090 ec 4c eb bb 9a 19 c8 3d 1c 39 e8 3d 8c 4d 82 3e
       -0.0071808007 0.09770508 0.11339018 0.2544979
0000a0 87 dd 3a 3d 68 ad 03 3e 71 ab a0 3d ec 18 56 3d
       0.04562142 0.12859118 0.078452 0.05226986
0000b0 ce be 2c 3d d9 90 c6 3d c6 da a3 bb b2 1d 0a 3e
       0.042174153 0.09695596 -0.005000445 0.1348789
0000c0 5d c9 98 3d 75 e2 26 3e 1c 26 1a 3e 43 49 73 3d
       0.07460282 0.16297324 0.150536 0.05939604
0000d0 9a c3 86 3c ce aa bf 3d a7 11 59 3e dd a2 5e bc
       0.016450692 0.0935875 0.2119814 -0.013588634
0000e0 9e 03 8b 3d 56 1f e3 3d 44 0c 08 bd 73 ee c3 3d
       0.06787799 0.11089961 -0.033214822 0.09566965
0000f0 22 2f 3a 3d 73 89 c0 3b e6 30 f6 3d 19 d1 47 bc
       0.045455106 0.00587576 0.120210454 -0.012195849
000100 af ef 0d 3e 3b fb 64 bd a1 b2 22 3e 1e 30 97 bd
       0.13860963 -0.055903655 0.15888454 -0.073822245
000110 c4 04 2c 3d bb a6 15 3e c4 ed 67 bb 72 9e a6 bd
       0.041996732 0.14614384 -0.0035389522 -0.0813569
000120 6a 09 f4 3d 47 ab 94 bd df 67 1c bd 4d 59 72 bd
       0.11915858 -0.07259231 -0.038184997 -0.059167195
000130 e2 30 bd bb 93 c3 ad bd f9 8e 03 3e aa 92 0f bd
       -0.0057736496 -0.084845684 0.12847508 -0.03505198
000140 dd fd 14 bd ab 6e e5 3d 83 3c d2 3d a1 1c a8 bc
       -0.036374915 0.11202749 0.10265448 -0.020521464
000150 cf 67 26 3e b7 64 fb 3b 0e 18 a4 3d 69 58 94 bd
       0.16250537 0.0076719183 0.080124006 -0.072434254
000160 5a 72 ee 3d 61 a4 8d bd 86 e2 b1 bc 48 07 67 bc
       0.116429046 -0.069161184 -0.02171446 -0.014100857
000170 4e 78 bb bd f0 35 01 3e 2b 08 8b 3d 79 10 0c 3e
       -0.09153806 0.12618232 0.06788667 0.13678159
000180 8f be 1e 3e 38 dd 8f 3c 05 f4 40 bd f2 f7 d1 3d
       0.1550238 0.01756154 -0.047107715 0.1025237
000190 45 7d 02 3e 29 7f a4 bc c1 a9 8a 3c fb c5 af bd
       0.12743099 -0.020080166 0.016926648 -0.08582684
0001a0 cf d1 e2 3d 84 8c 6f 3d c0 5d d5 bc 46 82 4e bd
       0.11075174 0.058483616 -0.02604568 -0.050417207
0001b0 5f e9 b2 bd e6 3d 8d 3d ed 8b be 3d 7b df 74 3d
       -0.08735918 0.06896572 0.093040325 0.05978344
0001c0 55 8b fb bc 1b 0c ff 3c b8 63 de 3b b7 80 83 bd
       -0.030706087 0.031133702 0.0067867897 -0.06421035
0001d0 ee 72 03 3e f7 34 b9 3d be b2 0f bd 0c b3 cc 3d
       0.12836811 0.09043305 -0.03508257 0.09995088
0001e0 b1 ba a2 bd 48 ad d8 bb b7 c8 20 bd f4 94 3d bd
       -0.07945765 -0.0066124536 -0.039253917 -0.04628463
0001f0 d8 c0 63 bd 18 ac 77 bd bd 88 b0 3d aa d7 39 3d
       -0.055603832 -0.060466856 0.08619831 0.04537169
000200 df 9c 04 be 35 9f f2 3a 14 6d cd 3d fb f8 23 be
       -0.12950467 0.0018510582 0.100305706 -0.16012947
000210 d6 03 1c 3e bc d8 15 bd 77 47 76 bd 7a e3 d4 bd
       0.15235838 -0.036583647 -0.060126748 -0.1039495
000220 b0 20 8b bd 49 42 23 be 54 ff 4e bc fc 4e 91 bd
       -0.06793344 -0.15943255 -0.012634117 -0.07095143
000230 38 08 2f 3d ac 51 25 3e 17 84 14 3e b4 83 01 bd
       0.042732447 0.16144437 0.14503513 -0.031619743
000240 33 57 a8 3d 50 cc d3 bb 55 77 3a be 45 e2 25 3c
       0.08219757 -0.006463565 -0.18209584 0.010124748
000250 5b f0 e0 3d 17 ec f1 bd 81 c4 7c bd 1a ac 41 bd
       0.10983344 -0.11812609 -0.06171084 -0.04728327
000260 a2 87 9f bd e6 b8 08 3d 5d 5e e4 3d d6 58 b5 bc
       -0.07789542 0.033379458 0.11150811 -0.022137087
000270 e1 5f 25 3d 3e b0 3a bd 30 21 3a bd e1 c6 b2 3d
       0.04037464 -0.045578234 -0.045441806 0.087293394
000280 04 3c a0 3d b8 05 1b be db 78 e2 3d 1b c9 84 bc
       0.07823947 -0.151389 0.110582076 -0.016209176
000290 e3 ea 05 be 6a e1 72 bd 43 f8 8d 3d d1 1f bc 3c
       -0.13077883 -0.059297003 0.06932118 0.02296439
0002a0 30 bf fe 3d 63 18 6f bd 0d 63 0f 3e 6e 8b c5 3d
       0.1243881 -0.058372866 0.14002629 0.09645735
0002b0 2d 26 87 bc 27 56 1b 3e 26 aa 92 3d 7f f7 0b be
       -0.016497696 0.15169583 0.071613595 -0.13668631
0002c0 68 ef c4 3d a8 59 89 bd e5 62 ca 3c ea b3 07 be
       0.096159756 -0.06706554 0.02470536 -0.13252226
0002d0 68 bc 09 3d 87 f3 32 3c 02 84 40 bd 06 02 23 3c
       0.033626944 0.010922319 -0.047000892 0.009949213
0002e0 36 b1 be 3c d6 a6 5c bd 94 64 b7 3b d3 9c 9d 3d
       0.02327786 -0.053870045 0.0055967066 0.076959275
0002f0 45 0b ad 3d 03 fb 04 3d c7 b1 6e bb bb 4f 1e 3e
       0.08449415 0.032465946 -0.0036421882 0.15460102
000300 68 93 2b bd ea 19 60 3d f6 cf 0c bd 7d 0b e3 3d
       -0.041888624 0.054712214 -0.034378015 0.110861756
000310 5b 7c 2f 3e 93 a0 10 3d 0e 0c 4f bd 37 71 9d 3d
       0.17137282 0.035309386 -0.050548606 0.0768761
000320 72 8b 31 bd 95 0d 0a 3e 6f 42 7a 3c 9f 62 7b 3c
       -0.043345876 0.13481744 0.015274628 0.015343337
000330 2a d8 f6 3d c6 8a e6 3d fd 9c 06 3e c0 99 37 3e
       0.12052949 0.11256938 0.13145824 0.17929745
000340 da 43 14 3e 93 49 7c 3d 9f 04 02 bc 5a 15 0b 3e
       0.14479008 0.061593603 -0.007935672 0.13582364
000350 01 c6 29 bc 13 57 13 3d 38 26 8a 3c 1c cc 2e 3c
       -0.010362149 0.035971712 0.016863927 0.010668781
000360 7b 0b 21 3d cb 3e 4b 3c 85 10 2c 3e 81 d1 38 3e
       0.03931759 0.012405108 0.16803177 0.1804867
000370 ef 13 32 bb d1 42 05 3d a1 f2 08 3e 67 77 43 3d
       -0.0027172526 0.032534424 0.13373806 0.047721293
000380 84 18 c0 3d 71 5d 36 3e a7 d7 32 3e ab 00 52 3e
       0.09379676 0.17809083 0.17465077 0.20508067
000390 81 fb fd bc 47 e0 40 3e 49 a8 15 bd 5d c5 b1 3d
       -0.031003715 0.18835555 -0.036537442 0.08680222
0003a0 1e ba ad bc a8 1a 51 3d 50 25 13 3d 11 d2 24 3e
       -0.021206912 0.051050812 0.035924256 0.16095759
0003b0 f2 51 13 3d 8b 1f 26 3e 34 43 3d 3e 76 d6 c4 3d
       0.03596682 0.1622297 0.18482667 0.09611218
0003c0 52 ff 66 3d 80 cf 0c 3e 6a fa 07 bd 93 a5 3c 3d
       0.056395836 0.1375103 -0.033197798 0.04605634
0003d0 cd 98 26 3e 47 4f 12 3c 13 79 53 3e d1 5f 06 3e
       0.16269226 0.008930034 0.20651655 0.13122489
0003e0 fa 40 0e 3c 05 c3 09 3e d0 bb 30 3e b6 2c fa bc
       0.008682484 0.134533 0.17259145 -0.030538898
0003f0 29 12 32 3e 9f 45 ab 3d c2 11 a9 3c a2 5b aa 3d
       0.1738974 0.083628885 0.02063835 0.08318259
