16 - Recurrent Neural Network/model/lstm/weights_100.pth (torch, 204551 bytes, 9 tensors)

rnn.weight_ih_l0 f4 [256, 1]
0	0x3dd3e13d	0.10345695
1	0x3e8168ca	0.2527526
2	0x3df584cf	0.11988222
3	0x3ddefc94	0.10888019
4	0x3cd5a9b6	0.026081901
5	0x3dbbac87	0.09163766
6	0x3df108eb	0.11769279
7	0x3d912583	0.07087233
8	0x3e74ae1a	0.2389454
9	0x3e495f00	0.19665146
10	0x3dd60f1e	0.10452102
11	0x3dbf30a9	0.09335453
12	0x3da3df70	0.08001602
13	0x3e293836	0.16525349
14	0x3e5af594	0.21382743
15	0xbb2d4ac1	-0.0026442262
16	0x3dc2813f	0.09497308
17	0x3d876d62	0.0661266
18	0x3e936c3b	0.2879351
19	0x3e0b00b7	0.13574491
20	0x3dc1e700	0.09467888
21	0x3d86d982	0.06584455
22	0x3d86255f	0.06550097
23	0x3c8beaef	0.017079799
24	0x3e0c39a6	0.13693866
25	0x3e39957e	0.18123433
26	0x3e036023	0.12829642
27	0x3e361a27	0.17783414
28	0x3d84b712	0.064802304
29	0x3e174560	0.14772558
30	0x3e858a57	0.26082107
31	0x3dc5557f	0.09635448
32	0x3e014dcc	0.12627333
33	0x3e166e02	0.14690402
34	0x3def58d1	0.11686862
35	0x3e1574cc	0.14595336
36	0x3d904a93	0.07045474
37	0x3d6d313e	0.05790829
38	0x3ccfcde1	0.025366725
39	0x3dbf6351	0.09345115
40	0x3e2fc24a	0.17163959
41	0x3df13ff4	0.11779776
42	0x3d081cf9	0.033230755
43	0x3dd1db3f	0.10246896
44	0x3e69b290	0.22822022
45	0x3dbf0bef	0.09328448
46	0x3d52c9c0	0.051461935
47	0x3df8754e	0.12131749
48	0x3d5b20bf	0.053498026
49	0x3e20b1d8	0.15692842
50	0x3d1b287f	0.037880417
51	0x3e171231	0.14753033
52	0x3df462fb	0.119329415
53	0x3e63413b	0.22192852
54	0x3e3c5844	0.18393046
55	0x3e244171	0.16040589
56	0x3dac92c1	0.084264286
57	0x3b4da85f	0.0031380875
58	0x3cfafd65	0.030638406
59	0x3e176660	0.14785147
60	0x3d8aff9c	0.06787035
61	0x3e6a6975	0.22891791
62	0x3dd884bf	0.10572194
63	0x3da54354	0.080694824
64	0x3dd06d00	0.1017704
65	0xbddc7ee1	-0.10766388
66	0x3c03ced4	0.008044917
67	0xbd2a674c	-0.041602418
68	0x3de0441f	0.10950493
69	0x3d60e219	0.054903124
70	0x3bba83f6	0.0056920005
71	0x3dc24715	0.09486214
72	0x3deeaac0	0.11653662
73	0x3bdb11cb	0.0066854707
74	0xbc8440c2	-0.01614416
75	0x3b50ccc7	0.0031860338
76	0x3db834f0	0.08994472
77	0xbd5163e6	-0.05112066
78	0xbcfbe9f3	-0.030751204
79	0x3ddd71bc	0.10812709
80	0xbc33500d	-0.010944379
81	0xbcfc6031	-0.030807586
82	0xbdae427c	-0.08508775
83	0xbd1253d9	-0.035724495
84	0x3d217501	0.039418224
85	0xbd2ccbf0	-0.042186677
86	0x3dfb36f7	0.12266343
87	0x3d8eba82	0.06969167
88	0x3e068e41	0.13140203
89	0xbd9ec2eb	-0.077520214
90	0xbd971fe4	-0.073791295
91	0xbe28067e	-0.16408727
92	0x3d8835b3	0.06650867
93	0x3dcb1168	0.09915429
94	0x3dbbe8b1	0.09175242
95	0x3dabb86f	0.08384787
96	0x3d887960	0.066637754
97	0x3d93deff	0.072202675
98	0xbcc5ae5e	-0.024130996
99	0xbcb946d0	-0.022616774
100	0x3cad4576	0.021151286
101	0x3e11aaf8	0.14225376
102	0x3e16cb9d	0.1472611
103	0xbd658ded	-0.056043554
104	0xbdf675a9	-0.12034161
105	0x3cbb9ef7	0.022902949
106	0x3dd32463	0.103096746
107	0x3dffcb93	0.124900006
108	0x3e08299c	0.13297123
109	0x3d4eb775	0.050467927
110	0x3e011c5b	0.12608473
111	0x3d5fc9c7	0.05463579
112	0x3e144181	0.14478113
113	0x3ad1473e	0.0015966666
114	0xbc9f6238	-0.019456014
115	0x3dfad856	0.12248294
116	0xbd890b25	-0.06691579
117	0x3df7f595	0.12107388
118	0x3e00450f	0.12526344
119	0xbd24768f	-0.04015213
120	0x3e0b2dd5	0.13591702
121	0x3d95c12c	0.07312235
122	0xbd4ddc01	-0.05025864
123	0x3c845278	0.016152605
124	0xbd6897b7	-0.05678531
125	0x3c6c075d	0.014406052
126	0xbd051925	-0.032494683
127	0x3d5a8dad	0.05335777
128	0x3e484d22	0.19560674
129	0xbdf072c0	-0.11740637
130	0xbe417a90	-0.1889441
131	0x3e2558f0	0.16147208
132	0x3e17d694	0.14827949
133	0x3dbf9e45	0.093563594
134	0xbdc7fc0e	-0.097648725
135	0xbe045f97	-0.1292709
136	0x3e23a9ab	0.15982692
137	0xbe5de127	-0.2166792
138	0xbe2fbd7a	-0.17162123
139	0x3e81aada	0.25325662
140	0x3e14af5f	0.14520024
141	0x3db5a26b	0.088688694
142	0xbe19c601	-0.15016939
143	0xbe07f65b	-0.13277571
144	0x3dec10f8	0.11526674
145	0x3e347a45	0.17624767
146	0x3e320ab6	0.17386898
147	0xbe3c85f6	-0.18410477
148	0x3def12e5	0.11673526
149	0xbd11265d	-0.035436977
150	0x3e209efa	0.15685645
151	0xbdc7217b	-0.09723183
152	0x3e0c1559	0.13680018
153	0xbe669291	-0.22516848
154	0x3df01de3	0.117244504
155	0xbe54a1fc	-0.20764917
156	0x3e4557a8	0.1927172
157	0x3dcefd66	0.10106926
158	0xbe3cadff	-0.18425749
159	0xbe21962b	-0.15779941
160	0xbe437e3a	-0.1909112
161	0xbdb2b902	-0.08726694
162	0x3dd680db	0.10473796
163	0xbe556d1c	-0.20842403
164	0x3dd3a17e	0.103335366
165	0xbe03e36d	-0.12879725
166	0xbe04beca	-0.12963405
167	0x3e24a4c4	0.16078478
168	0x3e0104e0	0.12599516
169	0xbdef66db	-0.1168954
170	0xbe14b09e	-0.14520499
171	0xbe156e31	-0.14592816
172	0xbe011462	-0.12605432
173	0xbe3755c2	-0.17903808
174	0x3e12f884	0.14352614
175	0xbe0265c3	-0.12734132
176	0xbdb75db4	-0.08953419
177	0xbe25c6a7	-0.16189061
178	0xbe218e81	-0.15777017
179	0x3e214a61	0.1575103
180	0xbdfd14ad	-0.12357459
181	0x3d996dde	0.07491659
182	0xbe0c5f02	-0.13708118
183	0x3ddea507	0.1087132
184	0x3db828e3	0.089921735
185	0xbe113646	-0.1418086
186	0xbe1bbbca	-0.15208355
187	0xbde439fd	-0.11143873
188	0xbe1184e1	-0.14210846
189	0xbe1a5e35	-0.15075
190	0xbe1d413d	-0.15356918
191	0xbdd9813a	-0.10620351
192	0x3e4a4509	0.19752897
193	0x3dc5d4c6	0.09659724
194	0x3e1a5afd	0.15073772
195	0x3dfb5923	0.12272861
196	0x3e253b29	0.16135849
197	0x3e0ea869	0.13931431
198	0x3e047474	0.12935048
199	0x3dec41aa	0.11535962
200	0x3d9dfa6e	0.07713781
201	0x3d9fa6d6	0.07795493
202	0x3e4ffc58	0.20311105
203	0x3df9bf83	0.12194731
204	0x3d464b6c	0.04841177
205	0x3e3451da	0.17609349
206	0x3ddb42de	0.10706113
207	0x3d9b88c0	0.07594442
208	0x3e0b324a	0.13593403
209	0x3dd0ed21	0.10201479
210	0x3d9eb3af	0.07749116
211	0x3de5b2ee	0.11215769
212	0x3e42c8a1	0.19021846
213	0x3c8c51f3	0.01712892
214	0x3df26e61	0.11837459
215	0x3d88278e	0.066481695
216	0x3d7af3b9	0.06126759
217	0x3e9c708e	0.30554622
218	0x3e29bf3a	0.16576853
219	0x3e6764e0	0.22597075
220	0x3da80b14	0.08205238
221	0x3d6ab0b8	0.05729744
222	0x3dcf8217	0.101322345
223	0x3df4b4bf	0.11948537
224	0x3dc71956	0.09721629
225	0x3e506be4	0.20353657
226	0x3db50ba8	0.08840114
227	0x3e9226cc	0.28545225
228	0x3dfcafc9	0.12338216
229	0x3e25ca9d	0.16190572
230	0x3e255698	0.16146314
231	0x3e6c8cd5	0.23100598
232	0x3e061535	0.13094027
233	0x3d8ffc60	0.070305586
234	0x3e320f8e	0.17388746
235	0x3e094f27	0.134091
236	0x3e19bf83	0.15014462
237	0x3e1d1e1f	0.15343522
238	0x3e0fb0e4	0.14032322
239	0x3e007b2c	0.12546986
240	0x3dac68f4	0.08418456
241	0x3e002c38	0.12516868
242	0x3dd9e4e8	0.106393635
243	0x3dd9e6e7	0.10639744
244	0x3e13f5d3	0.14449243
245	0x3e07250f	0.1319773
246	0x3e4bbf4b	0.19897191
247	0x3e5b1675	0.21395285
248	0x3e0cde41	0.13756658
249	0x3e3f9385	0.18708618
250	0x3e2bba46	0.16770276
251	0x3d664550	0.056218445
252	0x3dd296ee	0.10282694
253	0x3dad7c6c	0.08470997
254	0x3df889a6	0.12135629
255	0x3e18a863	0.14907984

rnn.weight_hh_l0 f4 [256, 64]
0	0xbd078711	-0.033087794
1	0x3df8bed7	0.12145775
2	0xbcc53952	-0.024075184
3	0x3e0eb165	0.13934858
4	0xbda65900	-0.08122444
5	0xbd9a66d3	-0.075391434
6	0x3dba0ca7	0.090844445
7	0x3d895c42	0.0670705
8	0xbcc8cd55	-0.024511972
9	0x3dc65100	0.09683418
10	0x3d991192	0.074740544
11	0x3dea212c	0.11432108
12	0x3b2c09a9	0.0026250875
13	0x3d760ea0	0.06007254
14	0xbbbd31f4	-0.005773777
15	0xbd954ff5	-0.07290641
16	0x3df280e7	0.118409924
17	0xbc092704	-0.008371118
18	0xbd9faf6f	-0.07797133
19	0x3cba6660	0.022753894
20	0x3d1b09ea	0.03785125
21	0x3dc24d6c	0.09487423
22	0xbd24c16d	-0.040223528
23	0x3d9fff7c	0.07812402
24	0xbbaf66f6	-0.00535285
25	0x3cd30624	0.025759764
26	0xbc5d2494	-0.01349749
27	0x3dcfb736	0.101423666
28	0xbdde418e	-0.10852347
29	0xbb401ba6	-0.0029313355
30	0x3d97a4a0	0.074044466
31	0x3d739643	0.059469473
32	0x3da38aa5	0.07985429
33	0xbc9a665f	-0.018847642
34	0xbdb11e93	-0.0864841
35	0x3de8b8e8	0.11363393
36	0xbd7275ff	-0.05919456
37	0xbcaf474f	-0.021396307
38	0x3c8b194f	0.016979842
39	0x3dd2b2a4	0.10287979
40	0x3dc21f1e	0.094785914
41	0xbdf90f10	-0.12161076
42	0x3dd54e84	0.10415366
43	0x3be1299f	0.0068714167
44	0xbdec9455	-0.115517296
45	0x3dad20e7	0.08453541
46	0x3dc37be3	0.09545114
47	0xbd8cf643	-0.06882908
48	0xbd81c7aa	-0.06336911
49	0xbd68e8a0	-0.056862473
50	0x3dabd103	0.08389475
51	0xbd0ee31a	-0.03488455
52	0x3a16c09d	0.00057507475
53	0xbd9579e3	-0.07298639
54	0xbbff4f5b	-0.0077914423
55	0xbdb1c5fe	-0.08680342
56	0x3d9b34d1	0.07578433
57	0x3c254ed0	0.010089591
58	0x3c8e5db4	0.017378666
59	0x3d384fe7	0.044998076
60	0xbde65764	-0.11247137
61	0x3da3307e	0.079682335
62	0x3e15e29c	0.14637226
63	0xbd37d325	-0.044879097
64	0x3d9f6994	0.07783809
65	0xbd047187	-0.03233483
66	0xbcccd4cb	-0.025003811
67	0x3d5b00f1	0.053467695
68	0x3e373a3b	0.17893307
69	0x3dca1062	0.09866406
70	0xbd024cd7	-0.03181156
71	0xbe433d21	-0.19066288
72	0x3e17d0fa	0.14825812
73	0x3bb2be44	0.0054548103
74	0x3d195f12	0.03744418
75	0x3e1c49f1	0.15262581
76	0x3e0449c0	0.12918758
77	0x3d4b286f	0.049599107
78	0xbcbc0db9	-0.022955762
79	0x3d143eb7	0.036192622
80	0x3e12b818	0.14328039
81	0x3d77b68f	0.060476836
82	0x3dc923f8	0.098213136
83	0xbe2e4e79	-0.17022122
84	0xbb13981b	-0.0022521082
85	0xbdf7ea86	-0.12105279
86	0x3d7e56c2	0.062094457
87	0x3d0b080a	0.033943214
88	0x3dbe6e2f	0.092983596
89	0x3b1d2b18	0.0023981985
90	0x3c89e16f	0.016831128
91	0x3c1bf339	0.009518438
92	0x3d829f12	0.063779965
93	0x3de31f5c	0.11089966
94	0xbdb2cebc	-0.08730838
95	0xbd64f2a9	-0.05589548
96	0xbe6ba30c	-0.23011416
97	0xbe49ca93	-0.19706182
98	0x3e482637	0.19545828
99	0xbdc92304	-0.09821132
100	0x3dad6628	0.084667504
101	0xbe09cb1b	-0.13456385
102	0xbc87f185	-0.016594658
103	0x3e197e6a	0.1498963
104	0x3e54fb09	0.20798887
105	0xbe0adce7	-0.1356083
106	0xbe3595e9	-0.17732967
107	0x3cce6097	0.025192542
108	0x3a2c21c9	0.00065663137
109	0xbd4fcee6	-0.050734423
110	0x3dc1f003	0.09469607
111	0xbdc499ac	-0.09599623
112	0xbdf11e5f	-0.11773371
113	0xbe1c74f8	-0.15278995
114	0xbadc5571	-0.0016810131
115	0xbcf902a8	-0.030396774
116	0xbda32c9e	-0.079674944
117	0x3dd60fb2	0.104522124
118	0xbc4fa954	-0.012674648
119	0x3e59614c	0.21228522
120	0x3d99e797	0.075148754
121	0xbbf5e8a0	-0.0075045377
122	0xbb82741c	-0.0039811265
123	0xbe2867f6	-0.16445908
124	0xbdb0e67a	-0.0863771
125	0x3c186b2e	0.009302897
126	0xbc2d03ae	-0.010559959
127	0xbd01019a	-0.031495668
128	0x3c0fe6a0	0.008783013
129	0xbd223ab6	-0.039606772
130	0x3d933f93	0.0718986
131	0x3e143823	0.1447454
132	0x3e079558	0.13240564
133	0x3e13ffb9	0.14453019
134	0x3d992acf	0.07478868
135	0xbd49470a	-0.049140014
136	0xbcd8de7a	-0.026473273
137	0x3c661b9a	0.014044667
138	0xbd2ac47a	-0.04169128
139	0xbcb87498	-0.022516534
140	0x3e1b7324	0.15180641
141	0x3c74e576	0.014947286
142	0xbcc52181	-0.024063827
143	0x3d959192	0.07303156
144	0x3e0fe5e0	0.14052534
145	0x3e190f3b	0.14947216
146	0xbd018dad	-0.031629253
147	0xbd9ebfd1	-0.0775143
148	0x3c92e0f9	0.017929541
149	0xbdb77935	-0.08958665
150	0xba423c3c	-0.00074094883
151	0x3d78634e	0.06064158
152	0x3dd6c4ad	0.10486732
153	0x3c8d60e4	0.017258115
154	0xbcfdf13b	-0.030998817
155	0xbd61b62c	-0.055105373
156	0x3ddc3226	0.107517526
157	0x3d8b2480	0.06794071
158	0x3bdfd14b	0.0068303696
159	0xbdd190c6	-0.102326915
160	0xbc9d02f2	-0.019166443
161	0xbd9aa6ff	-0.07551383
162	0x3d9a30b7	0.07528823
163	0xbdcb3cf3	-0.099237345
164	0xbc5844bf	-0.013199984
165	0xbd12130d	-0.0356627
166	0xbe026a7a	-0.1273593
167	0x3d314abd	0.043284167
168	0xbd6ab838	-0.05730459
169	0xbc49f7ea	-0.012327174
170	0xbd76ece4	-0.06028451
171	0xbe0665de	-0.13124797
172	0x3d434a74	0.047678426
173	0x3cd7f68d	0.026362682
174	0xbd861b67	-0.06548195
175	0xbdbc0757	-0.091810875
176	0xbe03a8de	-0.12857386
177	0xbd04d84b	-0.032432836
178	0x3d5ba835	0.05362721
179	0xbd9ab644	-0.07554296
180	0x3d415898	0.04720363
181	0x3dece5a9	0.11567242
182	0xbda55183	-0.08072188
183	0xbd887b0e	-0.06664096
184	0x3e130477	0.14357172
185	0xbd7a697c	-0.061135754
186	0xbdec53d2	-0.11539425
187	0xbd80c35d	-0.062872626
188	0x3d87e3ca	0.06635244
189	0x3d14e877	0.03635451
190	0x3df97bcc	0.121818155
191	0xbd427cb3	-0.047482204
192	0x3e0af26c	0.13569039
193	0xbdb5c29b	-0.08875009
194	0xbdda13af	-0.106482856
195	0xbcc8492b	-0.024448952
196	0x3cae7bae	0.02129921
197	0xbd4f950c	-0.05067925
198	0xbc8a2ec2	-0.016867999
199	0xbc6ec27c	-0.014572736
200	0x3cf8ffad	0.030395353
201	0xbdad0d20	-0.08449769
202	0xbdccf595	-0.100077786
203	0x3da4148c	0.080117315
204	0x3db39ae7	0.0876978
205	0x3df4052f	0.11915051
206	0xbcec8b8a	-0.028875131
207	0xbc364c24	-0.011126552
208	0x3dd57cdd	0.104242064
209	0x3d54d0c6	0.051956914
210	0xbd274549	-0.04083756
211	0x3d6c33a1	0.057666425
212	0xbdb4697c	-0.08809182
213	0x3e2ed8f5	0.1707495
214	0x3cdbbde4	0.026823945
215	0x3db312b5	0.087438025
216	0x3a787bcc	0.00094788964
217	0x3dbf0d19	0.0932867
218	0x3cf997a2	0.030467812
219	0x3d6066da	0.054785587
220	0x3da102cf	0.07861864
221	0x3d55f61a	0.052236654
222	0x3db3d5e3	0.0878103
223	0x3d8337c5	0.064071216
224	0x3cd3847e	0.025820013
225	0xbde57044	-0.112030536
226	0xbd3c9213	-0.046037745
227	0xbc96fb69	-0.018430429
228	0x3cce0bfb	0.025152197
229	0x3db761b1	0.0895418
230	0x3d8eb7f1	0.06968678
231	0x3d80eceb	0.062951885
232	0xbd0c8dbb	-0.034314852
233	0x3bbec01a	0.00582124
234	0xbd421c19	-0.047390077
235	0x3d89e666	0.06733398
236	0xbc02edfc	-0.00799131
237	0x3d5292d3	0.051409554
238	0x3d3a36ba	0.045462348
239	0xbcd634b6	-0.026148181
240	0xbdd0225e	-0.10162805
241	0x3d7bcfee	0.061477594
242	0x3d21d17a	0.039506413
243	0x3e210984	0.15726286
244	0xbbb073ef	-0.005384914
245	0xbd8da689	-0.0691653
246	0x3c476b07	0.012171513
247	0x3db106a1	0.086438425
248	0x3c6fbb72	0.014632093
249	0xbe0f7823	-0.14010672
250	0xbdcb3180	-0.09921551
251	0xbd35dc34	-0.044399455
252	0x3cd1a911	0.025593312
253	0xbdccf962	-0.100085035
254	0xbdf9422e	-0.12170826
255	0x3dc68746	0.0969377

rnn.bias_ih_l0 f4 [256]
0	0x3e0cfe79	0.13768949
1	0x3e084c98	0.13310468
2	0x3e0a1644	0.13485056
3	0x3e380a0d	0.17972584
4	0x3df30205	0.118656196
5	0x3dba4556	0.09095256
6	0x3de45b4d	0.11150227
7	0x3e0c4987	0.13699923
8	0x3e0e979e	0.13925025
9	0x3d9f7952	0.07786812
10	0x3e3419a6	0.17587909
11	0x3dcf5711	0.101240285
12	0x3d98519b	0.0743744
13	0x3d810d16	0.06301324
14	0x3e25912f	0.16168664
15	0x3d409796	0.047019564
16	0x3e385444	0.18000895
17	0x3e1cc5f6	0.15309891
18	0x3e6eca84	0.23319441
19	0x3d3ee0cf	0.046601113
20	0xbd2f5bfb	-0.04281233
21	0x3dc10c10	0.09426129
22	0x3e283868	0.16427767
23	0x3df39ad0	0.118947625
24	0x3da0f6ce	0.07859574
25	0x3eb24a18	0.34822154
26	0x3e1df162	0.15424111
27	0x3e6d66e1	0.23183776
28	0x3e9a865f	0.30180642
29	0x3df58640	0.11988497
30	0x3da5d79f	0.08097767
31	0x3e502e08	0.2033006
32	0x3e0fc4b2	0.14039877
33	0x3dd354c3	0.103189014
34	0xbb86bb30	-0.00411167
35	0x3e7ea6cb	0.24868314
36	0x3dbdbaac	0.092641205
37	0x3e6aa720	0.22915316
38	0x3df871d0	0.12131083
39	0x3e6d707c	0.2318744
40	0x3dc36df4	0.09542456
41	0x3dd19b4c	0.10234699
42	0x3d5834a7	0.05278459
43	0x3dbb5ef4	0.0914897
44	0x3e0359c0	0.12827206
45	0x3deb0be3	0.114768766
46	0x3d6c8db8	0.05775234
47	0x3d27d270	0.040972173
48	0x3de6d062	0.112702146
49	0x3dc90411	0.09815229
50	0x3c780cc2	0.01513976
51	0x3e357d5e	0.17723605
52	0x3e218822	0.15774587
53	0xbd154354	-0.036441162
54	0x3d2a4a39	0.04157469
55	0x3e321c7e	0.17393681
56	0x3e279bd9	0.16368045
57	0x3d4c334a	0.0498536
58	0x3e08e96d	0.13370295
59	0x3e20fd31	0.15721585
60	0x3d9146e9	0.07093603
61	0x3dc62bbd	0.09676311
62	0x3deb8c96	0.11501424
63	0x3e6c0334	0.23048097
64	0xbd32a369	-0.04361287
65	0x3cbd411b	0.023102334
66	0x3d97d5ff	0.074138634
67	0x3d573dac	0.05254905
68	0x3e0482db	0.12940542
69	0x3dd3a1f9	0.10333628
70	0x3da830d7	0.082124405
71	0xbe07d1e8	-0.13263667
72	0x3cc558d2	0.024090204
73	0x3d244388	0.040103465
74	0xbd603118	-0.05473432
75	0x3d9874bc	0.0744414
76	0x3d7f05e5	0.06226148
77	0x3ab9dda2	0.0014180432
78	0x3d21db2d	0.039515663
79	0x3dea8be5	0.11452464
80	0x3e1f9107	0.15582667
81	0x3e0f01dd	0.13965555
82	0xbdd7c305	-0.10535244
83	0xbd704273	-0.05865712
84	0x3d4d9ba4	0.05019726
85	0x3dc49561	0.09598804
86	0xbd9b670a	-0.075880125
87	0xbc54b730	-0.012983128
88	0xbcec4454	-0.028841175
89	0xbde245fd	-0.110485055
90	0xbcfd691a	-0.030933905
91	0xbe109e2d	-0.1412284
92	0xbd18739e	-0.037219636
93	0x3d0d0f48	0.0344384
94	0x3cee6bcc	0.029104136
95	0x3d7f21f6	0.062288247
96	0x3d3b738b	0.045764487
97	0x3d963bcd	0.07335625
98	0xbdac1cac	-0.08403906
99	0x3e1b9e91	0.15197207
100	0x3e225b1f	0.15855072
101	0x3dec1514	0.11527458
102	0x3d59e3f6	0.053195916
103	0x3e21d01f	0.15802048
104	0x3d8c9f45	0.06866316
105	0x3c5a5fdc	0.013328519
106	0x3dd9b368	0.10629922
107	0xbe176b2b	-0.14786975
108	0x3bbc9603	0.0057551875
109	0xbdeb5b19	-0.11491985
110	0xbcd94906	-0.026524078
111	0xbdd117ca	-0.102096155
112	0x3db7940c	0.089637846
113	0x3ce00ea5	0.027350733
114	0xbca6c97e	-0.02035975
115	0xbde18021	-0.11010767
116	0x3ded7e13	0.115963124
117	0xbd201a58	-0.039087623
118	0x3e0c11d1	0.13678671
119	0x3c7e317f	0.0155147305
120	0xbbd8d156	-0.0066167517
121	0x3ce77f74	0.028259017
122	0x3dbbf855	0.09178225
123	0xbd2b4532	-0.041814037
124	0xbddc897a	-0.10768409
125	0xbdc04bf8	-0.0938949
126	0xbdd3fd72	-0.10351075
127	0x3d3ba6af	0.04581326
128	0x3e24efa2	0.16107038
129	0x3dd72d85	0.10506729
130	0x3cfaf2e7	0.030633403
131	0xbb018b6e	-0.0019766944
132	0x3db14e27	0.086574845
133	0x3e21c40f	0.15797447
134	0x3da796fa	0.08183093
135	0xbd244583	-0.040105354
136	0x3dab2b0f	0.08357822
137	0x3d6a4066	0.05719032
138	0x3ebabb64	0.36471093
139	0x3cf1453e	0.029451963
140	0xbd174288	-0.036928684
141	0x3e1f9031	0.15582348
142	0x3cba19c8	0.022717372
143	0x3dbc3876	0.091904566
144	0x3e13654f	0.14394115
145	0xbd0a87a8	-0.033820778
146	0xbc69955a	-0.0142568
147	0x3c1d8e53	0.009616452
148	0x3dd30e01	0.103054054
149	0xbd576fda	-0.052596904
150	0xbdf68db1	-0.12038744
151	0x3e100ebd	0.14068122
152	0xbdcf175f	-0.101118796
153	0xbe45dbdc	-0.19322151
154	0xbdddd691	-0.10831941
155	0x3e332b04	0.17496878
156	0x3d5f8108	0.054566413
157	0x3ddb178d	0.10697851
158	0xbd96330c	-0.07333955
159	0xbe18d58b	-0.1492521
160	0xbe3a8245	-0.18213756
161	0xbcfa97cb	-0.030589959
162	0xbb8b3c19	-0.0042491076
163	0xbe7804f1	-0.24220635
164	0x3e024547	0.1272174
165	0x3d29bf16	0.041442
166	0xbdfa5603	-0.12223437
167	0x3de95312	0.113927975
168	0x3e023a17	0.12717472
169	0xbdb9635f	-0.09052157
170	0x3cdb597c	0.026776068
171	0x3e8bf2d4	0.273337
172	0x3d3f2ca8	0.046673447
173	0xbdf63333	-0.12021484
174	0x3dba43e6	0.09094982
175	0x3e07b884	0.13253981
176	0x3dcd535b	0.100256644
177	0xbdcdeb81	-0.100546844
178	0x3e0ae52d	0.13563986
179	0xbe5d93ff	-0.21638487
180	0xbb468c8a	-0.003029617
181	0x3db7470f	0.089491
182	0xbd330d1a	-0.043713666
183	0x3ce29aba	0.02766167
184	0x3dff6469	0.124703236
185	0xbe01a065	-0.12658842
186	0xbcf01d8f	-0.02931097
187	0x3dd53bce	0.104117975
188	0x3def3765	0.116804875
189	0xbdaa48ee	-0.083146915
190	0x3e2c40be	0.16821572
191	0x3cfcf214	0.03087715
192	0x3d034715	0.03205021
193	0x3e9832c7	0.2972624
194	0x3dabe97e	0.083941445
195	0x3dfb60be	0.122743115
196	0x3e127662	0.14302972
197	0xbd2a3305	-0.041552562
198	0x3d0bd19d	0.03413545
199	0x3e7532a3	0.23945098
200	0xbac70937	-0.0015185241
201	0x3cec6498	0.02885656
202	0x3e95f3c3	0.29287538
203	0x3dc86e25	0.097866334
204	0x3e5be7a5	0.21475084
205	0x3d2b02d7	0.041750755
206	0x3d4face1	0.05070198
207	0x3e108660	0.1411376
208	0x3e293bb2	0.16526678
209	0x3d1efd85	0.038815994
210	0x3df6823c	0.12036559
211	0x3cfaecb5	0.030630449
212	0xba926e5f	-0.0011171809
213	0x3dfe63c5	0.12421373
214	0x3dafbe00	0.085811615
215	0xbb7fcd5c	-0.0039032316
216	0x3e5db8f6	0.21652588
217	0x3e26d4b8	0.16292083
218	0x3e26b7be	0.1628103
219	0x3e52bf76	0.20580849
220	0x3e29df4d	0.16589089
221	0x3e0bee70	0.13665175
222	0x3e413025	0.18866022
223	0x3e357e70	0.17724013
224	0x3e832019	0.25610426
225	0x3cf6fdbf	0.030150292
226	0x3da6a50c	0.08136949
227	0x3e2a9c75	0.16661246
228	0x3d1368d8	0.03598866
229	0x3cb70d86	0.022345316
230	0x3d92331f	0.07138657
231	0x3d995558	0.07486981
232	0x3e82ee3a	0.25572377
233	0x3e13f36d	0.14448328
234	0x3d2ac403	0.041690838
235	0x3e25b4f2	0.16182306
236	0x3de53362	0.11191441
237	0x3e14c2d3	0.14527445
238	0x3e107858	0.14108407
239	0x3e1dc643	0.15407662
240	0xbc50df66	-0.012748575
241	0x3e78f8d3	0.24313669
242	0xbcd6c7d7	-0.026218338
243	0x3ea0910b	0.3136066
244	0x3d8be76d	0.0683125
245	0x3debaa92	0.11507143
246	0x3d987637	0.07444423
247	0x3c1dbe6f	0.009627922
248	0x3d2dfb17	0.042475786
249	0x3c996fe1	0.018730106
250	0x3e1db9d8	0.15402925
251	0x3dd341f8	0.10315317
252	0x3e5c98f0	0.21542716
253	0x3da76c6c	0.08174977
254	0x3e71a2b5	0.23597224
255	0x3e0100d0	0.12597966

rnn.bias_hh_l0 f4 [256]
0	0x3e4b0436	0.19825825
1	0x3e2d24ea	0.16908613
2	0x3e613b01	0.21995164
3	0x3e236ada	0.1595873
4	0x3d5b687a	0.053566433
5	0x3e192658	0.14956033
6	0xbbe20f71	-0.0068988134
7	0x3e72d1aa	0.23712793
8	0x3dbf5e1d	0.093441226
9	0x3dbc91a0	0.09207463
10	0x3e11a14a	0.14221683
11	0x3e893680	0.26799393
12	0x3ddc5627	0.1075862
13	0x3e176ec4	0.14788347
14	0x3c41cfad	0.011829299
15	0x3c4c8caf	0.012484713
16	0x3c0918d4	0.008367736
17	0x3e203408	0.15644848
18	0x3d54ca75	0.05195089
19	0xbbaaae08	-0.0052087344
20	0x3da37577	0.07981389
21	0xbd92976e	-0.07157789
22	0x3dc77641	0.09739352
23	0x3e5228b6	0.20523342
24	0x3cc69a28	0.02424343
25	0x3e69e3a0	0.22840738
26	0x3db2c65a	0.08729239
27	0x3e612cf7	0.21989809
28	0x3e7c35d5	0.2462991
29	0x3cef38a6	0.029201817
30	0x3e3d0992	0.18460682
31	0x3e18bfe0	0.14916945
32	0x3ea8cd48	0.32969117
33	0x3e29f2ff	0.16596602
34	0x3d2c35bd	0.042043436
35	0x3e8b5227	0.27211115
36	0x3e772ba3	0.2413774
37	0x3e58be6d	0.21166392
38	0x3ded7ddb	0.11596271
39	0x3e6d5eac	0.23180646
40	0x3e8568bf	0.26056477
41	0x3e252d27	0.16130506
42	0x3e605e8a	0.21911064
43	0x3e7ed269	0.24884953
44	0x3cc60890	0.024174005
45	0x3e4ea84e	0.2018139
46	0x3c4856a6	0.01222769
47	0x3e17366d	0.14766856
48	0x3d171bc9	0.036891732
49	0x3e64029b	0.22266619
50	0x3e44e321	0.19227268
51	0xbb6b0557	-0.0035861337
52	0x3dedb199	0.1160614
53	0x3e1ae93f	0.15128039
54	0x3dd2fef1	0.103025325
55	0x3e7ee68a	0.24892631
56	0x3d648fea	0.05580131
57	0x3e530f98	0.20611417
58	0x3e6c11cc	0.23053664
59	0x3d987288	0.0744372
60	0x3e2a6496	0.16639933
61	0x3dd6759b	0.1047165
62	0xbd96e9bb	-0.07368799
63	0x3da9837f	0.08277034
64	0x3ca3ba56	0.019986313
65	0xbdf5935a	-0.11990996
66	0x3dc42767	0.09577828
67	0x3cffc17a	0.031220187
68	0xbb9dfd3d	-0.004821448
69	0xbcd58e59	-0.026068853
70	0xbd00f20f	-0.031480845
71	0xbd9eccab	-0.07753881
72	0x3df925ce	0.12165414
73	0xbdb7e7f8	-0.089797914
74	0xbe84f19b	-0.2596558
75	0x3d15f463	0.03661002
76	0x3d185696	0.03719195
77	0xbceda86e	-0.029010978
78	0x3cf2e965	0.029652307
79	0xbd65e046	-0.056122087
80	0x381dd80d	3.763293e-05
81	0xbd69f8bb	-0.057121973
82	0x3ce1bf80	0.027557135
83	0x3d8679a6	0.06566171
84	0xbbcd2ae9	-0.006261219
85	0x3dcb1648	0.09916359
86	0xbe2ad622	-0.16683248
87	0xbad4283a	-0.0016186305
88	0xbcb45ca3	-0.022016829
89	0x3cbc672f	0.02299842
90	0x3df62102	0.120180145
91	0xbe51087b	-0.20413391
92	0x3df95c21	0.12175775
93	0x3e031fa9	0.12805046
94	0xbd8b5ed4	-0.068051964
95	0x3ce1777b	0.027522793
96	0x3da51aa8	0.08061725
97	0xbd018940	-0.031625032
98	0xbc2e7f3f	-0.010650455
99	0x3d90a534	0.0706276
100	0x3dde4281	0.10852528
101	0xbd8c0047	-0.068359904
102	0xbd987200	-0.07443619
103	0x3daddbea	0.08489211
104	0x3d959e11	0.073055394
105	0xbdac2105	-0.084047355
106	0x3c6d60a5	0.014488374
107	0x3d4d72b3	0.050158214
108	0xbc9c204b	-0.019058367
109	0xbe05d897	-0.13070904
110	0xbc9b847a	-0.018984068
111	0xbcc03bc7	-0.023466004
112	0x3d8633b7	0.065528326
113	0xbdc27492	-0.0949489
114	0xbc93d47e	-0.01804566
115	0xbe3f5eb5	-0.18688472
116	0x3d616c63	0.055035006
117	0xbdb8ed95	-0.0902969
118	0x3cc33e91	0.023833545
119	0x3ca6a43f	0.02034199
120	0xbdb4beff	-0.08825492
121	0xbd0b92e2	-0.034075625
122	0x3d246990	0.040139735
123	0xb985745b	-0.00025454428
124	0xbd8e2c07	-0.06941991
125	0xbca8a86e	-0.020588126
126	0xbcba09ca	-0.022709746
127	0xbcd9f507	-0.026606096
128	0xbc0a5ca4	-0.008444939
129	0x3e09e2d4	0.13465434
130	0xbdbef7d0	-0.0932461
131	0x3d2a4bbd	0.041576136
132	0xbd8ed11a	-0.06973477
133	0x3d8be24a	0.068302706
134	0xbd5d3931	-0.05400962
135	0x3de13d85	0.10998062
136	0x3d3f2aaa	0.046671547
137	0xbdee6de9	-0.116420574
138	0x3eb9117f	0.3614616
139	0x3deb459e	0.11487888
140	0x3e028903	0.12747578
141	0x3c617a64	0.01376209
142	0xbd3c6925	-0.04599871
143	0x3da1b989	0.07896716
144	0x3e26b452	0.16279724
145	0x3dae864f	0.08521711
146	0x3cb49c10	0.022047073
147	0xbd66865b	-0.056280475
148	0x3e138697	0.1440681
149	0x3cb72279	0.022355305
150	0xbd84619c	-0.0646393
151	0x3da80e97	0.08205908
152	0xbdec56a6	-0.115399644
153	0xbdac8cac	-0.084252685
154	0xbdfa21b0	-0.12213457
155	0x3e22fca6	0.1591669
156	0x3dbfeb12	0.09371008
157	0xbd86a055	-0.0657355
158	0xbdd293e3	-0.102821134
159	0xbd63dd55	-0.055631
160	0xbe5fab7f	-0.21842764
161	0xbe048357	-0.12940727
162	0x3e041f2a	0.12902513
163	0xbd4b27b3	-0.049598407
164	0xbc591982	-0.01325071
165	0xbd253930	-0.04033774
166	0xbe033b4b	-0.12815587
167	0x3e15ff46	0.1464816
168	0xbd81745b	-0.06321021
169	0xbcc7c5b8	-0.024386272
170	0x3d5a4d90	0.053296626
171	0x3e739c2f	0.23790048
172	0x3d1d83ad	0.038455654
173	0xbcf98d39	-0.030462848
174	0x3d3a76d7	0.04552349
175	0x3e2ddaf9	0.16978063
176	0xbcce1bd0	-0.025159746
177	0x3c8bef75	0.017081955
178	0x3dcfee07	0.10152822
179	0xbe01c757	-0.12673698
180	0xbda4b02c	-0.080414146
181	0x3e2a2173	0.16614322
182	0xbdeb9190	-0.11502373
183	0x3e2f6586	0.17128572
184	0x3dc25ff1	0.094909556
185	0x3d64ea97	0.055887785
186	0x3baaa619	0.0052077887
187	0x3d46441d	0.0484048
188	0x3e046d19	0.12932242
189	0x3e2274c7	0.1586486
190	0x3e7a3c41	0.24437048
191	0xbdf2cc10	-0.11855328
192	0xbd29020b	-0.041261714
193	0x3e69ed26	0.22844371
194	0x3e8b3283	0.27186975
195	0x3d80cdc2	0.06289245
196	0x3e5c3f08	0.2150842
197	0x3de34436	0.110969946
198	0x3de71038	0.1128239
199	0x3e3fa981	0.18717004
200	0x3da13dcf	0.07873117
201	0x3e32205c	0.17395157
202	0x3e51bc35	0.20481952
203	0x3dbab282	0.09116079
204	0x3d979ae2	0.074025884
205	0xbd94f6de	-0.07273649
206	0x3a1dab6b	0.0006014618
207	0x3e460523	0.19337897
208	0x3e3672e5	0.17817266
209	0x3e86c035	0.26318517
210	0x3d92a6ff	0.07160758
211	0x3db219f1	0.08696354
212	0x3db26d1c	0.08712217
213	0x3ddc8e09	0.107692786
214	0x3d18731f	0.037219163
215	0x3dcf5335	0.10123292
216	0x3d835c2a	0.06414063
217	0x3e18875a	0.14895383
218	0x3d6f05f9	0.058355305
219	0x3ec7765b	0.38957486
220	0x3e75cbc3	0.2400351
221	0x3d0fa086	0.035065196
222	0x3cf83a7f	0.03030133
223	0x3e0b5d81	0.13609888
224	0x3e1d2e52	0.15349701
225	0xbdb01448	-0.08597618
226	0xbccf160d	-0.02527907
227	0x3e0d55bf	0.13802241
228	0x3d74eef8	0.05979821
229	0x3d48a20d	0.04898267
230	0x3d805e4f	0.06267988
231	0x3c662ab9	0.014048272
232	0x3d86068c	0.065442175
233	0x3dfa2755	0.12214533
234	0x3d876546	0.06611113
235	0x3e931bbc	0.28732097
236	0x3e4fd824	0.20297295
237	0x3d1b9bbc	0.037990317
238	0x3d603b61	0.05474413
239	0x3dd9f96f	0.10643279
240	0xbc9a3aa5	-0.018826792
241	0x3e7a9631	0.24471356
242	0x3df99088	0.1218577
243	0x3e6c2ad9	0.2306322
244	0x3d90a564	0.07062796
245	0xbc370874	-0.011171449
246	0x3e163373	0.14668064
247	0x3e611b56	0.21983084
248	0x3e2eb2cc	0.17060393
249	0x3d99061c	0.074718684
250	0x3e3872af	0.18012498
251	0x3e24fdf9	0.16112508
252	0x3d0bb981	0.034112457
253	0x3e5abeca	0.21361843
254	0x3e6afd51	0.22948195
255	0x3d03cc91	0.03217751

rnn.weight_ih_l1 f4 [256, 64]
0	0x3e1662bb	0.146861
1	0xbded3157	-0.115816765
2	0xbe3b070f	-0.18264411
3	0x3e00c7e9	0.1257626
4	0x3e07cb00	0.13261032
5	0x3e260845	0.16214092
6	0xbdb52b24	-0.08846119
7	0xbdc5e8e5	-0.09663562
8	0x3db7f70a	0.08982666
9	0x39b4be35	0.0003447399
10	0xbe2f3dc3	-0.17113404
11	0xbc268432	-0.010163354
12	0x3ddf500b	0.10903939
13	0x3aa7ae23	0.0012792986
14	0xbde39a6f	-0.1111344
15	0xbc95413f	-0.018219588
16	0x3d0c30fb	0.0342264
17	0x3e5f794e	0.21823618
18	0x3d20a647	0.039221074
19	0xbe083449	-0.13301195
20	0x3dfd0404	0.123542815
21	0x3d37a6b7	0.044836726
22	0x3e3a9296	0.1821998
23	0xbd2aedec	-0.041730806
24	0x3d8716a0	0.06596112
25	0xbe798e4e	-0.24370691
26	0x3d096683	0.03354503
27	0xbebc313a	-0.36756307
28	0x3e4e07df	0.2012019
29	0xbc9a13c6	-0.018808257
30	0xbe08d0f9	-0.13360967
31	0xbe35eff4	-0.17767316
32	0xbe34861a	-0.1762928
33	0xbdec8ed8	-0.11550683
34	0x3e007623	0.12545066
35	0xbe043b88	-0.12913334
36	0x3d22b813	0.039726328
37	0x3cc5f884	0.024166353
38	0xbd888656	-0.066662475
39	0x3e58813e	0.21143052
40	0x3e13d286	0.14435777
41	0x3ce552ca	0.027993578
42	0xbe381f18	-0.17980611
43	0xbe2c2e93	-0.16814642
44	0xbdc35916	-0.09538476
45	0xbdeeba39	-0.11656613
46	0x3e3d9ead	0.18517561
47	0xbde9c66b	-0.11414798
48	0x3bcba91f	0.006215229
49	0xbe3e06a7	-0.18557225
50	0xbd2ab6b9	-0.041678164
51	0x3e28d68c	0.16488093
52	0xbde82892	-0.11335863
53	0x3d389d6c	0.045072004
54	0xbd1f2f76	-0.03886362
55	0x3e72fe6a	0.23729864
56	0x3db61875	0.088913836
57	0xbd1d450e	-0.038395934
58	0xbe2b074d	-0.16702004
59	0xbdaceeb0	-0.084439635
60	0xbe2efd9e	-0.17088935
61	0xbd893126	-0.066988274
62	0xbe019e60	-0.12658072
63	0xbe2dc26f	-0.16968702
64	0xbccfd847	-0.025371684
65	0xbe412c7d	-0.18864627
66	0xbe0ad31b	-0.13557093
67	0x3d3652e0	0.04451263
68	0xbc815129	-0.01578577
69	0xbceaf038	-0.028678998
70	0xbbfd6a42	-0.007733614
71	0xbdda79c6	-0.10667758
72	0x3dccb4bd	0.099954106
73	0xbc4140e6	-0.011795258
74	0xbeb61667	-0.35563967
75	0x3e1a419d	0.15064092
76	0xbcc84042	-0.024444703
77	0xba940798	-0.0011293767
78	0xbe3497c1	-0.17636015
79	0xbd822a8d	-0.06355772
80	0x3ce81c19	0.02833371
81	0x3e04528d	0.12922116
82	0x3e1ea7d6	0.15493712
83	0xbc3e8e16	-0.011630556
84	0x3e0329bb	0.12808888
85	0x3cb35dfa	0.021895397
86	0x3d596ddf	0.053083297
87	0xbd1b278b	-0.037879508
88	0x3e3a5f85	0.182005
89	0xbe6bfee5	-0.23046453
90	0xbcbfae4c	-0.02339854
91	0xbe4685e3	-0.19387011
92	0x3e2ac1fe	0.16675565
93	0xbc9a592e	-0.018841352
94	0xbddab5e1	-0.10679222
95	0xbe04dd95	-0.12975152
96	0xbdf5eb33	-0.12007751
97	0xbc5582d5	-0.013031681
98	0x3e2fb2ac	0.17158002
99	0xbdd5d856	-0.104416534
100	0x3e33a9c5	0.1754523
101	0xbd2a5332	-0.041583247
102	0x3c489f51	0.012245015
103	0x3e48a329	0.1959349
104	0x3e49cfd4	0.19708186
105	0xbe41d93f	-0.18930529
106	0xbe3ac423	-0.18238883
107	0xbdf3cb33	-0.119039916
108	0x3ceaa4b2	0.028642986
109	0x3cd70555	0.02624766
110	0xbd15c51b	-0.036564928
111	0xbe30a68b	-0.17251031
112	0xbda2c5d0	-0.07947886
113	0x3d36632d	0.044528175
114	0xbd282da1	-0.04105914
115	0x3e61f88b	0.22067468
116	0xbd8f75ee	-0.07004915
117	0x3dc1316f	0.09433257
118	0xbdc52b08	-0.09627348
119	0x3d08a040	0.03335595
120	0x3e340bb6	0.17582592
121	0x3d0e5a48	0.034754068
122	0x3ce49938	0.027905092
123	0x3d008cca	0.031384267
124	0xbdedfa33	-0.11619987
125	0xbe58a680	-0.21157265
126	0xbe347f53	-0.17626695
127	0xbe2b6904	-0.16739279
128	0xbd34de16	-0.04415711
129	0xbe3cdb1c	-0.18442959
130	0xbe46d310	-0.19416451
131	0x3e2495c1	0.16072752
132	0x3e37151c	0.17879146
133	0x3e2223ec	0.15834016
134	0xbdab83ea	-0.0837477
135	0xbe080b2b	-0.1328551
136	0x3d008c5f	0.03138387
137	0xbe0283b9	-0.1274556
138	0xbea56c5b	-0.3230923
139	0x3d88c7dd	0.06678746
140	0xbbc769d2	-0.006085613
141	0x3e242cd8	0.16032732
142	0x3ca59fbf	0.020217774
143	0xbb9d5354	-0.0048011933
144	0x3e22382b	0.15841739
145	0x3e3d0b9b	0.18461458
146	0x3e0141aa	0.12622705
147	0xbe4c6472	-0.19960192
148	0x3db8c733	0.09022369
149	0xbd927a95	-0.07152287
150	0x3d62a6ff	0.05533504
151	0xbd652dd8	-0.055951923
152	0x3e3d8bda	0.1851038
153	0xbe18e237	-0.14930044
154	0x3e40376b	0.1877114
155	0xbeac4d7e	-0.33652872
156	0x3d2b4db5	0.041822154
157	0x3c933673	0.0179703
158	0xbd688abb	-0.05677293
159	0xbe11f149	-0.14252199
160	0xbdb26132	-0.08709945
161	0xbd89df20	-0.06732011
162	0x3dc603df	0.09668707
163	0xbe1cf3f5	-0.15327437
164	0x3dd6a532	0.10480727
165	0xbdbdbf7e	-0.0926504
166	0xbe07452b	-0.13209979
167	0x3d855ec2	0.06512214
168	0x3cf3a9e7	0.029744102
169	0xbc5348f7	-0.012895814
170	0xbd191d47	-0.037381437
171	0xbe753f1b	-0.23949854
172	0xbd33d4d5	-0.043904144
173	0x3c2e5305	0.010639911
174	0x3e01f279	0.12690152
175	0xbe78684e	-0.24258539
176	0xbe0833fa	-0.13301077
177	0x3ca3236c	0.019914351
178	0xbdb47a98	-0.088124454
179	0x3dc1e258	0.09467
180	0xbda03aa0	-0.07823682
181	0x3ddd8ee5	0.108182706
182	0xbd734a17	-0.05939683
183	0x3dcaaf7b	0.098967515
184	0x3df3510b	0.11880692
185	0xbd97a23b	-0.0740399
186	0xbe2d427d	-0.16919895
187	0xbe53126a	-0.20612493
188	0xbd9379eb	-0.072009884
189	0xbe31ec4d	-0.17375298
190	0xbde751bd	-0.11294887
191	0x3b4bfee1	0.0031127261
192	0x3e086cb2	0.13322714
193	0xbe51f4ac	-0.20503491
194	0xbe119473	-0.14216785
195	0x3e6ad61e	0.22933242
196	0x3e0f267c	0.13979524
197	0x3e19fbb2	0.1503742
198	0xbba563f4	-0.0050473157
199	0xbdd5f726	-0.104475304
200	0x3cd1c4a6	0.025606465
201	0xbc36e88d	-0.011163843
202	0xbe7c4aab	-0.24637859
203	0x3e55f190	0.2089293
204	0x3e154441	0.14576818
205	0x3c8f6a25	0.017506668
206	0xbe1fe805	-0.15615852
207	0x3c9e4e93	0.019324576
208	0x3b6f7cd9	0.003654292
209	0x3df6a4c0	0.12043142
210	0x3e47e37f	0.19520377
211	0x3c8d9aac	0.017285667
212	0x3d250d9e	0.04029619
213	0xb983af64	-0.00025116943
214	0x3d3c43b8	0.04596302
215	0xbe1c6c7f	-0.15275763
216	0x3ca2754f	0.019831328
217	0xbe6b5b04	-0.22983938
218	0x3df58a8b	0.119893156
219	0xbe78a17b	-0.2428035
220	0x3e06a768	0.13149798
221	0xbc817352	-0.01580206
222	0x3b5f9aca	0.003411936
223	0xbdf1204f	-0.117737405
224	0xbdb6e963	-0.08931234
225	0xbe1469ae	-0.14493439
226	0x3e25aef2	0.16180018
227	0xbe0fbe6e	-0.14037487
228	0x3d71d80f	0.05904394
229	0x3c994623	0.018710202
230	0xbdbaf6d8	-0.09129113
231	0x3d9777b5	0.07395879
232	0x3e44daaa	0.19224039
233	0xbe615c80	-0.22007942
234	0xbe038be2	-0.1284633
235	0xbe96379a	-0.29339296
236	0xbe0fd318	-0.1404537
237	0xbddd64ac	-0.10810217
238	0x3d3025ed	0.04300492
239	0xbe949422	-0.29019266
240	0xbda572d0	-0.08078539
241	0x3c5cd1ed	0.013477785
242	0xbe2cbeca	-0.16869655
243	0x3e69fef5	0.22851165
244	0xbe4ed3cc	-0.20197982
245	0xbb226ec4	-0.002478526
246	0x3cb9d2cb	0.022683522
247	0x3e451be7	0.19248925
248	0x3e355403	0.17707829
249	0xbdcff8f3	-0.10154905
250	0xbddcc055	-0.10778872
251	0xbe362e64	-0.17791134
252	0xbe0e4c60	-0.13896322
253	0xbe261288	-0.16218007
254	0xbe9ddace	-0.30830997
255	0xbb19a754	-0.0023445683

rnn.weight_hh_l1 f4 [256, 64]
0	0x3d02ed85	0.031964798
1	0xbdfe9ee9	-0.124326535
2	0xbd219c57	-0.039455738
3	0xbd5781e0	-0.052614093
4	0x3e07aae5	0.13248785
5	0xbd7abcf8	-0.06121537
6	0x3d1369c0	0.035989523
7	0x3d75bb1f	0.059992906
8	0xbda918c5	-0.082566775
9	0xbd56bfce	-0.052429013
10	0xbda296e8	-0.07938939
11	0x3bb6c8cd	0.0055781365
12	0x3d9c4a0b	0.0763131
13	0x3e1300e8	0.14355814
14	0xbd0e4e55	-0.034742672
15	0x3e0b9dd6	0.13634428
16	0x3d879a2e	0.06621204
17	0xbdc6663f	-0.09687471
18	0xbddb5040	-0.10708666
19	0xbd807532	-0.06272353
20	0xb94e67a2	-0.00019684297
21	0xbdafa5ba	-0.08576532
22	0x3e1c6831	0.15274121
23	0xbcd6e5ee	-0.026232686
24	0x3d389e77	0.045073
25	0x3daafc35	0.08348886
26	0x3e114688	0.14187062
27	0x3d4a3197	0.0493637
28	0xbda287a3	-0.07936027
29	0xbdeaee96	-0.11471288
30	0x3b8a7c46	0.0042262403
31	0x3b27a24a	0.002557891
32	0x3d800c4f	0.06252348
33	0x3da6aafd	0.08138082
34	0xbd176ab5	-0.036966998
35	0x3d7c5b5a	0.061610557
36	0x3b3f2d0c	0.0029171137
37	0xbdabed7e	-0.083949074
38	0x3da11a1d	0.07866309
39	0xbd5ab858	-0.05339846
40	0xbd8398c5	-0.06425623
41	0xbdb1ae35	-0.086758055
42	0x3d84a4fb	0.0647678
43	0xbd80677b	-0.06269737
44	0x3c6bf00e	0.014400495
45	0x3d141ed6	0.03616222
46	0xbda56cdf	-0.08077406
47	0xbc7d8e35	-0.015475799
48	0xbd85cd48	-0.06533295
49	0x3ca66483	0.0203116
50	0xbdb20685	-0.0869265
51	0x3d446a56	0.047952972
52	0xbd991867	-0.074753575
53	0xbd74b84b	-0.059746068
54	0x3cd96c15	0.026540795
55	0xbe149927	-0.14511548
56	0xbd9a5758	-0.07536191
57	0xbc6ac3d6	-0.0143289175
58	0x3d88813b	0.06665274
59	0x3d70e429	0.05881134
60	0xbbde2a6a	-0.0067799585
61	0x3da08a35	0.07838861
62	0x3e01aa62	0.12662652
63	0x3cb7f48e	0.02245548
64	0xbd829bf6	-0.063774034
65	0xbdadb962	-0.084826246
66	0xbd5870d1	-0.052841965
67	0x3bdedaf7	0.006801005
68	0x3d808190	0.06274712
69	0xbd572d36	-0.05253335
70	0xbdf6270c	-0.12019166
71	0x3d5133a0	0.051074624
72	0x3e077bf4	0.13230878
73	0xbde7b900	-0.11314583
74	0x3d59645e	0.053074233
75	0xbd2f6df1	-0.042829458
76	0xbdbacaa6	-0.09120683
77	0x3d9c1ed4	0.076230675
78	0xbb749e19	-0.003732568
79	0x3e0f5fc4	0.14001375
80	0x3e1e5983	0.15463834
81	0x3da5ac9c	0.08089563
82	0x3db4b569	0.08823664
83	0x3b77b93d	0.003779962
84	0x3c3263af	0.010888024
85	0x3d7d78f9	0.061882947
86	0xbcb0906c	-0.02155324
87	0x3c393d14	0.011306066
88	0x3cb0e2bb	0.021592489
89	0x3d8164cd	0.06318054
90	0x3d2f9b4f	0.042872723
91	0xbc0dd27d	-0.008656141
92	0xbd8aefdf	-0.06784033
93	0xbd83fee9	-0.06445105
94	0xbd338c58	-0.043835014
95	0x3d181776	0.03713175
96	0x3dd7d7cb	0.10539206
97	0xbd95e138	-0.07318348
98	0x3d626a2b	0.05527703
99	0xbd0f0cfd	-0.034924496
100	0xbd9c97ed	-0.07646165
101	0xbd048aab	-0.032358807
102	0x3d92cfa4	0.071685106
103	0xbc4b4c47	-0.012408323
104	0x3e08d901	0.1336403
105	0xbd11d34d	-0.035601903
106	0xbd31af89	-0.043380294
107	0x3dc0ed06	0.09420209
108	0xbd30902c	-0.043106243
109	0x3d79e446	0.061008714
110	0xbd57f01b	-0.052719217
111	0xbb99293a	-0.004674104
112	0xbd792653	-0.060827564
113	0xbd851edc	-0.065000266
114	0xbd5225b2	-0.05130548
115	0x3d3904b4	0.0451705
116	0xbde37741	-0.1110673
117	0x3d92f42d	0.07175479
118	0xbd8b84b8	-0.068124235
119	0xbc52f38a	-0.012875447
120	0x3e068b13	0.1313899
121	0xbdcf9e7a	-0.10137649
122	0xbc8eee80	-0.01744771
123	0xbd4a4477	-0.0493817
124	0xba658686	-0.00087557023
125	0x3cc19f6b	0.023635587
126	0x3dde95e1	0.10868431
127	0xbda86a62	-0.08223416
128	0xbd9df47d	-0.07712648
129	0x3d9b71e2	0.07590081
130	0x3dc07ef8	0.09399217
131	0xbd9853ec	-0.07437882
132	0xbd7b50db	-0.061356407
133	0x3d9c317e	0.076266274
134	0x3d6eb6f4	0.058279946
135	0x3d91e175	0.07123081
136	0xbd08ffa2	-0.033446915
137	0xbcf79f4f	-0.030227331
138	0x3dc5456c	0.09632382
139	0xbcd7e978	-0.026356444
140	0x3dae0c6e	0.084984645
141	0xbdaf9a7c	-0.085743874
142	0x3c96261f	0.018328724
143	0xbb8a3358	-0.0042175464
144	0xbd7fd8b3	-0.06246252
145	0xbdcb9d7b	-0.099421464
146	0xbe06757b	-0.13130753
147	0x3d52ddbe	0.051481
148	0x3e1845e8	0.14870417
149	0x3cb95b42	0.022626523
150	0xbb8cbd78	-0.0042950474
151	0x3dd69e7d	0.10479448
152	0xbe166e10	-0.14690423
153	0x3d04d569	0.032430086
154	0x3da026cb	0.07819899
155	0xbd944094	-0.0723888
156	0x3d86bdaf	0.06579148
157	0xbdefea68	-0.11714631
158	0xbd708de6	-0.058729075
159	0xbc67f1a2	-0.014156731
160	0x3d880240	0.06641054
161	0xbcaf54c7	-0.02140273
162	0x3d8ed4c3	0.06974175
163	0x3dcf9e33	0.10137596
164	0xbd0b26bd	-0.03397249
165	0xbdafe0fb	-0.085878335
166	0xbd7f40cb	-0.06231765
167	0x3ddf58ac	0.10905585
168	0x3d23824f	0.039919194
169	0xbd062019	-0.032745454
170	0x3c416682	0.011804225
171	0x3dc2008a	0.09472759
172	0xbd24b6e1	-0.04021347
173	0xbd86c73d	-0.065809704
174	0xbd7c98c1	-0.061669115
175	0xbe1bbbd5	-0.15208371
176	0xbd87006c	-0.06591877
177	0x3da69bc4	0.08135179
178	0x3dff8356	0.12476222
179	0xbc9b343c	-0.018945806
180	0xbe077299	-0.1322731
181	0x3cf363f0	0.02971074
182	0xbd5041d5	-0.050844032
183	0xbdc79989	-0.097460814
184	0x3c238161	0.009979577
185	0x3c71efb7	0.014766625
186	0xbd8de43a	-0.069282964
187	0x3d0f1398	0.034930795
188	0x3dcf58c8	0.101243556
189	0x3d69e618	0.0571042
190	0x3e1e3c82	0.1545277
191	0xbd9570de	-0.07296918
192	0x3c9e7b90	0.019346029
193	0x3d9e7aee	0.07738291
194	0x3c3a60a8	0.011375584
195	0xbd2a6264	-0.04159774
196	0xbd8bd811	-0.06828321
197	0xbd431ab5	-0.04763289
198	0x3d20a657	0.039221134
199	0xbda1eb5e	-0.07906221
200	0x3e0ea5f7	0.13930498
201	0x3c85e377	0.016343815
202	0xbbb7947d	-0.005602418
203	0xbe1b8ec3	-0.15191178
204	0x3ca8b1e0	0.02059263
205	0x3db29692	0.08720125
206	0x3d382c11	0.0449639
207	0xbca4ee89	-0.020133274
208	0xbd83a5e3	-0.06428125
209	0x3cae8c5c	0.021307163
210	0xbdb4e440	-0.08832598
211	0xbdb3086f	-0.08741843
212	0x3dc10146	0.09424071
213	0x3d6e3b62	0.0581621
214	0x3e13b863	0.14425807
215	0x3db27a79	0.08714766
216	0xbdad42c2	-0.08459999
217	0xbca1ad2d	-0.019735897
218	0x3e1fcecf	0.15606235
219	0xbcba3bcf	-0.022733597
220	0xbdae6fe1	-0.08517433
221	0xbcd11016	-0.025520366
222	0x3c1230d5	0.008922775
223	0x3ca3cb66	0.019994449
224	0x3d6c6755	0.057715733
225	0xbce143ae	-0.027498093
226	0xbc49ce08	-0.012317188
227	0x3e05f693	0.13082342
228	0x3d693b2d	0.0569412
229	0xbc3fb5ec	-0.011701088
230	0xbd1f258c	-0.038854167
231	0x3d3d225e	0.046175353
232	0x3e197679	0.149866
233	0xbe1927bc	-0.14956564
234	0x3d8de756	0.069288895
235	0x3defbbb5	0.11705724
236	0x3d7c02fa	0.061526276
237	0xbd7bcbfc	-0.06147383
238	0xbca46e13	-0.020072019
239	0xbd9bac7e	-0.0760126
240	0x3dc838bb	0.097764455
241	0xbd3de294	-0.04635866
242	0x3dccb01e	0.09994529
243	0xbe1de3ab	-0.1541888
244	0xbe0d8213	-0.1381915
245	0xbc1d08b0	-0.009584591
246	0xbd97660a	-0.07392509
247	0xbe118db8	-0.14214218
248	0x3d5e94ac	0.054341003
249	0xbde3a8fa	-0.11116214
250	0xbd911628	-0.07084304
251	0x3dd61b07	0.10454374
252	0xbc07fc62	-0.008299919
253	0xbddfa689	-0.10920436
254	0x3df7bb0a	0.12096222
255	0x3ddf1d14	0.10894218

rnn.bias_ih_l1 f4 [256]
0	0x3e2ecde2	0.17070726
1	0x3cdcba17	0.026944203
2	0x3e224df2	0.15850046
3	0x3d4a6fb7	0.049422946
4	0x3cf75ff6	0.030197125
5	0x3b7ca176	0.0038548387
6	0x3dd66eb1	0.104703315
7	0x3e363f8e	0.17797682
8	0x3dbe0bd1	0.092795976
9	0x3de42430	0.11139715
10	0x3e290400	0.16505432
11	0x3d2804c7	0.04102018
12	0x3d846f04	0.06466487
13	0x3dbbff4d	0.09179554
14	0xbc69bf6d	-0.014266831
15	0x3e007769	0.12545551
16	0xbcd4748a	-0.025934476
17	0x3cf431dd	0.029808933
18	0x3db20f94	0.086943775
19	0x3e1a52b6	0.15070614
20	0xbcf248ce	-0.029575732
21	0x3da62a2c	0.081135124
22	0x3e1108a1	0.14163448
23	0xbd54d9fd	-0.051965702
24	0x3d942f59	0.07235593
25	0x3e2f0e4e	0.170953
26	0x3e152a19	0.1456684
27	0x3dccba0e	0.099964246
28	0x3dd4d830	0.10392797
29	0x3e2a37f1	0.16622902
30	0x3e1db3cd	0.1540062
31	0x3e562959	0.2091421
32	0x3dd0e144	0.10199216
33	0x3d6729a4	0.056436196
34	0x3c380db5	0.011233737
35	0x3d81ff30	0.06347501
36	0xbbabcd37	-0.0052429694
37	0x3dd666d6	0.10468833
38	0x3de65d9c	0.11248323
39	0x3e4698a2	0.19394162
40	0x3d384d80	0.044995785
41	0x3e042f6b	0.12908714
42	0x3da3a063	0.07989576
43	0x3d45411c	0.048157796
44	0x3d2c07ae	0.04199951
45	0x3dcc1132	0.09964217
46	0xbb7460ec	-0.0037289215
47	0x3e051bd4	0.12998897
48	0x3d93793d	0.07200859
49	0x3e2fcafc	0.17167276
50	0x3e182617	0.1485828
51	0x3d419b62	0.047267325
52	0x3c86580d	0.016399408
53	0x3dbfec7e	0.09371279
54	0x3e5dcf47	0.21661101
55	0xbc850a2e	-0.016240206
56	0x3d88e5d2	0.0668446
57	0x3dd740c0	0.10510397
58	0xbd05e903	-0.03269292
59	0x3dc0a8a1	0.094071634
60	0x3d39a762	0.045325644
61	0x3c0bf096	0.008541247
62	0x3e054e6f	0.13018201
63	0xbc7decfb	-0.015498395
64	0x3e0ae71b	0.13564722
65	0xbd76d126	-0.060258053
66	0x3e1e371a	0.15450707
67	0xbdb1fb2e	-0.08690487
68	0x3d19fb90	0.037593424
69	0x3e12fe47	0.14354812
70	0xbc8b2c07	-0.016988767
71	0xbdaee4de	-0.08539747
72	0x3deb94fb	0.11503025
73	0xbd9932ff	-0.0748043
74	0xbd7f3fc6	-0.06231668
75	0xbdabf077	-0.083954744
76	0xbd4f14d1	-0.05055696
77	0xbdb4570b	-0.08805665
78	0x3e001460	0.12507772
79	0xbd17dc04	-0.037075058
80	0xbd2570de	-0.04039084
81	0x3dde21c3	0.10846283
82	0x3dc8851e	0.09791015
83	0xbcbde08e	-0.023178365
84	0x3e248f68	0.1607033
85	0xbc61c74e	-0.013780428
86	0x3d9c77d6	0.076400444
87	0xbd9b6812	-0.07588209
88	0x3de84f2a	0.11343224
89	0xbd9a2f25	-0.07528523
90	0xbd7343d3	-0.059390854
91	0xbcba09ba	-0.022709716
92	0xbdcbb5a7	-0.09946757
93	0x3df13cc3	0.117791675
94	0x3d152e92	0.036421366
95	0x3e07716e	0.13226864
96	0x3e1a92ff	0.15095137
97	0x3c600307	0.013672597
98	0xbd4bf83c	-0.04979728
99	0x3dcbe064	0.099549085
100	0x3dfc7555	0.12327067
101	0xbd0d94fb	-0.034565907
102	0x3c5da6bb	0.013528521
103	0xbe1e4f01	-0.15459825
104	0x3ddd3e68	0.10802919
105	0x3d3aad31	0.045575324
106	0xbd01738b	-0.03160433
107	0xbd9dd241	-0.077061184
108	0xbdb5fee4	-0.08886507
109	0x3d882a82	0.06648733
110	0x3db89f09	0.090147085
111	0x3d61aeaf	0.055098232
112	0xbd0b1a20	-0.03396046
113	0x3c717eea	0.014739731
114	0x3acc9b3d	0.001561023
115	0xbd9f9df6	-0.077938005
116	0x3dff0dd3	0.12453809
117	0x3da9f9d7	0.08299606
118	0xbd91ce0f	-0.07119381
119	0x3dc5fd28	0.09667426
120	0xbda69168	-0.08133203
121	0xbbd95ba7	-0.0066332403
122	0xbd35b1e9	-0.04435912
123	0xbd4ed7db	-0.050498825
124	0xbd70d07f	-0.058792587
125	0xbd8694a8	-0.06571323
126	0x3d9ca6da	0.07649012
127	0x3d278c74	0.04090543
128	0xbe032114	-0.12805587
129	0x3b7619f8	0.00375521
130	0x3dc6603e	0.096863255
131	0xbe1f7d7b	-0.15575211
132	0x3e1a1625	0.1504751
133	0xbd20cc7d	-0.039257515
134	0xbd6ced58	-0.057843536
135	0xbdcf7bfa	-0.101310685
136	0xbd9120d6	-0.07086341
137	0xbe21941a	-0.15779153
138	0xbc87a5f3	-0.016558623
139	0xbd82ee5e	-0.06393121
140	0x3d1770b6	0.036972724
141	0x3e2188fe	0.15774915
142	0x3e1268a4	0.1429773
143	0xbd04cf1d	-0.03242408
144	0x3da35bd1	0.07976497
145	0xbb6ce5e5	-0.003614777
146	0xbe383e35	-0.1799248
147	0x3c46ef29	0.012141981
148	0x3ddc66b6	0.10761778
149	0xbddda866	-0.10823135
150	0xbd8049ad	-0.062640525
151	0xbd49977c	-0.049216732
152	0xbd9b6fd6	-0.075896904
153	0x3cdbd520	0.026835024
154	0x3dd06e41	0.10177279
155	0xbcbf9824	-0.023387976
156	0x3d2d7e9b	0.04235707
157	0xbd1ee575	-0.038793046
158	0xbd901738	-0.070356786
159	0x3daa3ec9	0.083127566
160	0x3d98c7d4	0.07459989
161	0xbe193a92	-0.14963749
162	0x3ddfb4e7	0.10923176
163	0xbc94078d	-0.018070007
164	0xbe048f3a	-0.12945262
165	0xbd716477	-0.0589337
166	0x3d947b12	0.07250036
167	0x3bca2ed4	0.006170133
168	0x3df88bfb	0.12136074
169	0xbd601b94	-0.0547138
170	0x3e0b6e44	0.13616282
171	0x3d8f5b91	0.06999887
172	0xbc977028	-0.018486097
173	0x3e19dde0	0.15026045
174	0x3d8ee2b5	0.06976835
175	0xbe063910	-0.13107705
176	0x3dbefabe	0.09325169
177	0xbd89697e	-0.06709574
178	0x3ca36d09	0.019949453
179	0xbdfe4f11	-0.124174245
180	0x3d0b7c59	0.034054134
181	0x3bec7184	0.0072156806
182	0xbd43fed6	-0.047850452
183	0x3c59f8eb	0.013303976
184	0x3cb5baf3	0.02218387
185	0xbd4974e0	-0.049183726
186	0x3b251de8	0.0025194827
187	0x3d98ae4a	0.07455118
188	0x3daaefb6	0.083465025
189	0x3d0c8167	0.034303095
190	0xbbb67eca	-0.0055693137
191	0x3e17b295	0.14814217
192	0xbd6b1af5	-0.057398755
193	0x3d0e25dd	0.034704078
194	0xbd07ee32	-0.033186145
195	0x3dafddc9	0.08587224
196	0x3e29f9a7	0.16599141
197	0x3d17cf06	0.037062667
198	0xbcc82b32	-0.02443466
199	0x3d8ff139	0.070284314
200	0xbd4a387d	-0.049370278
201	0x3e0a26ee	0.13491413
202	0xbcbbf0d5	-0.022941986
203	0x3d84df1e	0.06487869
204	0x3e079d97	0.1324371
205	0x3ddbb618	0.10728091
206	0x3e01391a	0.12619439
207	0x3e3116ec	0.172939
208	0x3e02045e	0.12696978
209	0x3d73766b	0.059439104
210	0xbd2152c9	-0.03938559
211	0x3e050c72	0.12993029
212	0xbc8ce814	-0.017200507
213	0x3d1a7b3c	0.03771518
214	0xbbea913e	-0.0071584275
215	0x3bd124dd	0.0063825683
216	0x3d19550a	0.037434615
217	0x3b9b4f4f	0.004739679
218	0x3e301a7b	0.17197601
219	0x3e3ecc4d	0.18632622
220	0xbc3b1615	-0.011418839
221	0x3cffc930	0.031223863
222	0x3e0295de	0.12752482
223	0x3cca4ec1	0.024695756
224	0x3dc1ef4b	0.0946947
225	0x3e25db93	0.16197042
226	0x3e1b9995	0.15195306
227	0x3e4ef21c	0.20209545
228	0xbd74d0fd	-0.05976962
229	0x3e4ce9f4	0.20011121
230	0xbd68ccd7	-0.056835975
231	0x3dc2afb9	0.09506173
232	0xbca09cee	-0.01960608
233	0x3d005bb0	0.03133744
234	0x3cea3d4f	0.028593687
235	0x3e1d2957	0.15347801
236	0x3c9c90e1	0.019112052
237	0x3e05f9f3	0.1308363
238	0x3e39423f	0.18091677
239	0x3d874735	0.066053785
240	0x3d5661a8	0.052339226
241	0x3e0a4d85	0.13506134
242	0xbd7b10a5	-0.06129517
243	0x3d393b0a	0.04522232
244	0x3e278210	0.16358209
245	0x3c1258bb	0.008932288
246	0x3e1d3748	0.1535312
247	0x3df8e763	0.121535085
248	0x3b5d4cb1	0.0033767635
249	0x3e02af36	0.1276215
250	0x3e2b529f	0.16730736
251	0xbd0ae600	-0.03391075
252	0x3e294f87	0.16534244
253	0x3d9a7579	0.075419374
254	0x3b8bacc3	0.004262538
255	0x3daaee94	0.083462864
