16 - Recurrent Neural Network/model/rnn/weights_best.pth (torch, 53191 bytes, 9 tensors)

rnn.weight_ih_l0 f4 [64, 1]
000000 26 19 23 be 87 f0 4b 3d af 52 a3 3d bd a3 64 bd
       -0.15927562 0.04978993 0.07974755 -0.055820215
000010 02 e8 ef 3d bb 1e a3 3d ab 29 e1 3d 7f 38 92 3c
       0.11714174 0.07964846 0.10994276 0.017849205
000020 57 e8 45 3d cd f8 7d bd 93 2b 4c bd a7 51 a3 3d
       0.04831728 -0.062004853 -0.049846243 0.07974558
000030 83 26 d5 bd eb 08 85 3d ab 9d 7b bd 41 0a 94 3d
       -0.10407736 0.064958416 -0.06142966 0.07228518
000040 4e c7 9b bd 27 11 b7 bc cb 59 d2 3d e6 0c 63 3d
       -0.07606374 -0.022347046 0.10271033 0.055432223
000050 ae f7 d5 3d 44 a2 a0 bd fc 09 09 3d 91 78 b9 3d
       0.10447632 -0.0784345 0.033456787 0.09056199
000060 ba 38 4c bd 98 68 c2 3d d9 9e a5 3d 3c 57 51 be
       -0.049858786 0.09492606 0.080869384 -0.20443434
000070 65 49 2d bd ac 5d 63 bd ce ee ac 3d d8 4f 1f bd
       -0.042306323 -0.055509254 0.08443986 -0.038894504
000080 55 1d a7 bd bb 18 4d 3d e3 bb 6b bd 31 00 4a 3d
       -0.081598915 0.050072413 -0.05755223 0.04931659
000090 fa eb 19 bd 1d 06 5a 3d 89 29 8d bd 89 4e 00 be
       -0.03757856 0.053228486 -0.06892688 -0.12529959
0000a0 ba d8 8a 3d 6b 7b 8c 3c 06 a2 34 3d 9a 73 72 3d
       0.067796186 0.017148694 0.04409983 0.059192277
0000b0 95 63 a7 bd b3 76 a8 3d 79 f8 d8 bd 73 af 7a bd
       -0.08173291 0.08225765 -0.105942674 -0.061202478
0000c0 93 f5 ad bd 71 14 77 3d 47 78 3a 3d 07 38 f3 bc
       -0.08494105 0.06032223 0.04552486 -0.029689802
0000d0 f9 fa 69 bd 1b 6c 4f 3d af 91 15 bd 2f 50 08 3d
       -0.05712411 0.050640207 -0.036515888 0.033279594
0000e0 28 dc ef 3d 73 52 97 3d 93 01 4c bd 39 b8 3f 3d
       0.11711913 0.07388773 -0.04980619 0.046806548
0000f0 71 ea 30 bd 51 c8 be bd 80 a9 0e 3d 43 a8 84 3d
       -0.04319233 -0.09315551 0.034829617 0.06477406

rnn.weight_hh_l0 f4 [64, 64]
000000 b5 48 0a bd 8e 7b ac 3d 19 3f 3a bd a2 29 8e bd
       -0.033760745 0.08422004 -0.04547033 -0.069415346
000010 96 8c 62 3e d7 24 8e 3d d7 6d 08 3e 9f 8d 4f bd
       0.22123942 0.069406204 0.1332315 -0.05067217
000020 66 64 6d be 41 1a 3e 3d 83 f2 4f 3d 4c bd 64 be
       -0.2318283 0.046411756 0.050768387 -0.22337836
000030 ab 6b 2b be 7b df d8 3d 95 6e e4 bd 8e 35 b7 3d
       -0.16740291 0.105895005 -0.11153904 0.089457616
000040 e7 78 20 be c6 9f 4d be ca 6f 14 3e b0 57 b1 3d
       -0.1567112 -0.2008048 0.14495769 0.08659303
000050 50 2f 76 3d 7b a2 1e be 41 6b ab bc ed f3 ad 3d
       0.060103714 -0.15491669 -0.020925166 0.08493791
000060 c7 0a 55 3d aa c8 1a 3e 87 c7 e0 3d a5 2e 21 be
       0.05201223 0.1511561 0.10975557 -0.1574045
000070 ac 82 55 3b 2f 35 8b 3d 7d de f4 bd 9e d4 18 bd
       0.0032579107 0.06797253 -0.11956499 -0.037312143
000080 b1 13 cc bd 55 bb 87 bc bd 08 b5 bd 25 e5 72 bd
       -0.09964693 -0.016568819 -0.08839557 -0.05930056
000090 65 65 66 be 5a 3b 19 3d 66 f7 5a 3e 76 e9 1a bc
       -0.22499616 0.037410118 0.21383438 -0.0094550755
0000a0 55 0a 26 bd 82 91 69 3d 30 a7 cd bd 98 6e 25 be
       -0.040537197 0.057023533 -0.10041654 -0.1615547
0000b0 14 3c 2b bd 07 97 08 3e 46 f3 7f bd 10 b5 97 bd
       -0.04180534 0.13338862 -0.062487863 -0.07407582
0000c0 21 42 42 bd 62 c0 16 bd 98 2b a5 3d 22 f6 09 be
       -0.047426347 -0.036804564 0.080649555 -0.13472798
0000d0 25 fa 06 3e 75 0a e0 bc 8d ba 70 3b cb e0 10 bd
       0.1318136 -0.027348736 0.0036732287 -0.03537063
0000e0 c9 e9 0b 3e 47 bd 02 be 15 cd dc 3c ba 47 53 3d
       0.136634 -0.12767516 0.02695326 0.051582076
0000f0 14 37 bb 3c dd e4 84 3d 85 27 27 3e 01 84 75 3d
       0.022853412 0.06488965 0.16323669 0.05994034
000100 26 a5 84 3d 39 e9 4b 3d ed 38 0f 3e 4c d1 f7 bd
       0.06476812 0.049782965 0.13986559 -0.12100467
000110 87 20 b9 bd 87 7f e6 bc d8 b1 92 3d e1 6a 20 3d
       -0.09039407 -0.028136982 0.07162827 0.039164428
000120 1f 26 0b 3e 66 ad aa bd d4 a9 5f 3d 73 79 3f 3d
       0.13588761 -0.083338544 0.05460532 0.046746682
000130 3f 38 bd bd eb f0 8c bd 67 06 86 3d b3 f3 44 3c
       -0.09239244 -0.06881889 0.0654419 0.012020993
000140 c7 e1 19 3d 3c 0e f9 3d bf 2c 25 3c 75 91 d5 bd
       0.037568834 0.12160918 0.010081469 -0.10428134
000150 4a 6e 08 bd 17 a9 9a 3d fd 65 18 bb 0a 05 c1 3c
       -0.033308305 0.075517826 -0.002325415 0.023561973
000160 5b ed d5 3d cb 73 0b bd b7 22 bb bc 70 88 f2 3d
       0.104456626 -0.034045976 -0.022843702 0.1184243
000170 b0 7c cc bd 62 ab 55 bd 6b ec 91 bd 89 87 eb 3c
       -0.0998472 -0.052165397 -0.07125171 0.028751152
000180 8a 5d 15 3c c8 7b d1 3c 4d 4e 96 bd b9 57 58 bd
       0.00911654 0.025571719 -0.073391534 -0.052818034
000190 aa 22 49 3e d4 2d 29 bc 4a 5f 0b be 32 49 67 3c
       0.1964213 -0.010325868 -0.13610569 0.014116572
0001a0 6b 9a 30 3b 36 f1 7c bd cd ac 9c 3d b6 19 2d 3e
       0.002694751 -0.061753474 0.07650147 0.16904339
0001b0 e7 6f 74 bd 68 ba 3c bd 39 91 b4 bd 3f 26 a5 3d
       -0.05967703 -0.04607621 -0.088167615 0.080639355
0001c0 ee 20 10 3d da a2 ed 3d 5a bd f5 bd 0c 55 87 3d
       0.035187654 0.11603327 -0.119990066 0.06608018
0001d0 70 72 c0 bd 67 e2 45 bd e5 fc a2 3d e5 da 6d 3d
       -0.09396827 -0.048311617 0.07958392 0.058070082
0001e0 ba 99 04 bd 7a 6e 25 bd b7 d9 e7 bc 41 e2 4b 3d
       -0.032373168 -0.04038856 -0.028302057 0.04977632
0001f0 10 6b e2 3c 80 e0 76 bd 84 84 9b bd 4c 1d ec bd
       0.027638942 -0.060272694 -0.07593635 -0.115290254
000200 31 7a 44 bd 67 7c 4b bd 18 f5 3f 3e c5 9a 81 bd
       -0.047968093 -0.049679186 0.1874584 -0.06328348
000210 c4 8d 72 bc e4 cd 8b be 89 18 81 3c 9b 98 8a bd
       -0.014804307 -0.2730552 0.01575877 -0.067673884
000220 1f 78 31 3d cc 4d c5 3d 57 fa 95 bd 10 53 f9 bb
       0.043327447 0.09633979 -0.07323139 -0.007608779
000230 1e a9 82 3d 4d 1a ba bd bd 62 11 3e 61 50 4b 3d
       0.06379913 -0.09087048 0.14197822 0.049637202
000240 aa 53 1c 3e 2e 73 0e be 95 f4 57 bd 04 03 fb 3d
       0.1526629 -0.13911125 -0.052723486 0.122564346
000250 8f 15 f0 3d d9 64 f9 bd ae 96 1a bd 1d 7e c4 bd
       0.11722862 -0.12177438 -0.037741356 -0.09594367
000260 21 ac 8c 3d 2e d7 fc bd fb c7 de bb 2d ab 33 3e
       0.068687685 -0.1234573 -0.006798742 0.17545767
000270 2e 09 7a bc 7e 28 e4 3c 4c 3c 91 3b 8e 9a 91 bd
       -0.015260978 0.02785134 0.004432237 -0.07109557
000280 ad 6c a9 3d 5e 39 e6 bd 41 cc 0c 3e a5 07 04 3d
       0.082726814 -0.11241411 0.13749792 0.032233853
000290 4a a6 9e 3d 96 f9 57 bd c1 1a 44 be 8a ef cb 3d
       0.07746561 -0.052728258 -0.19150831 0.09957798
0002a0 53 0b 66 bc ec 8d 70 3c 0e aa 50 bd f5 40 47 3d
       -0.014040786 0.014682274 -0.050943427 0.048645932
0002b0 3d 21 b1 bd 2a fe 8d bd 8e 95 0a be aa 71 86 bd
       -0.08648918 -0.069332436 -0.13533613 -0.065646484
0002c0 e0 99 11 3e 0b f0 05 3e 11 ef 81 3d 80 18 c5 bd
       0.14218855 0.1307985 0.063444264 -0.09623814
0002d0 23 6f bc bd 3a f7 89 bd cf 24 22 3d 04 d6 00 bd
       -0.09200885 -0.06736608 0.039585885 -0.0314541
0002e0 42 6b 2d 3c 66 ad 8d bd a9 7b 94 bd 3b 08 84 bd
       0.010584654 -0.06917839 -0.07250149 -0.06446882
0002f0 08 cc 03 3e 89 8a 24 be 74 d0 80 3a 7c f7 1e bc
       0.128708 -0.16068472 0.0009827749 -0.00970256
000300 d5 bf e0 bd 5c 90 96 3d cc 30 20 bd 94 f8 f4 3d
       -0.10974089 0.07351753 -0.039109036 0.11961475
000310 2c 1b 01 be 73 62 19 bb ea 40 95 3d 57 48 06 bd
       -0.12608021 -0.0023404628 0.07287772 -0.032783832
000320 8f 7d 56 bd bf 51 09 be 76 c1 08 3d 7c 2d cc 3d
       -0.052365836 -0.1341009 0.033387624 0.09969613
000330 d7 0b 09 3e f3 e6 bb bd 1d 72 15 bd 5f db c0 bd
       0.13383423 -0.091749094 -0.03648578 -0.09416842
000340 d6 47 0d 3c 46 78 e5 38 f1 82 0a 3d 28 9f b5 3d
       0.008623084 0.000109419736 0.03381628 0.08868247
000350 2b f5 db 3c ea 43 ae 3d 4d b3 be 3d 91 3b fa 3d
       0.026850304 0.08509047 0.09311543 0.12218393
000360 4c 60 65 3d 2c b2 97 3d 32 3d a6 3d 78 f5 b2 3d
       0.05600004 0.074070305 0.08117141 0.08738226
000370 2b 84 ef bc 34 bc a0 bd 94 2a cd bc cd d4 47 bd
       -0.029237827 -0.07848397 -0.025044717 -0.048786927
000380 07 4e a0 3d ae a1 00 3e 5d fb 76 3d 3e 27 86 bd
       0.078273825 0.12561676 0.060298312 -0.065504536
000390 eb 44 36 be 6a ee 34 3d 2d 7c 19 3d 6a 85 67 bd
       -0.17799728 0.044172682 0.03747194 -0.056523718
0003a0 71 cf 1d bd df 9d dc 3d 9c db b7 3d 75 d1 09 bd
       -0.03852791 0.10772299 0.08977434 -0.03364702
0003b0 49 96 f4 3d e7 05 8a bd 54 d9 e7 3b c5 9e 7e 3d
       0.11942727 -0.06739407 0.007075468 0.062163133
0003c0 d1 5a d2 bd e7 4f 59 bd 2f 07 6e bd aa 46 e9 bd
       -0.10271228 -0.053054716 -0.05811232 -0.11390431
0003d0 33 3c 0f be b5 2a 24 3c 35 72 d5 bd 23 5d b8 3d
       -0.13987808 0.010019948 -0.10422174 0.090021394
0003e0 0e c6 ad bd f0 1f 09 3e 63 a0 d5 bc bf 73 e2 bd
       -0.084850416 0.1339109 -0.026077455 -0.11057233
0003f0 ed bd a3 bd 6f e3 6b 3c 9d d4 af bd 09 89 b7 bc
       -0.0799521 0.014397486 -0.08585475 -0.02240421

rnn.bias_ih_l0 f4 [64]
000000 f9 19 18 3e 98 ef 96 3d 60 c2 b9 be 07 96 40 3d
       0.14853658 0.07369918 -0.3628111 0.047018077
000010 58 62 f0 3d 26 72 8a 3d ff dd fc 3a b3 f3 a1 3d
       0.117375076 0.06760053 0.0019292234 0.0790781
000020 4c 79 b1 bd a6 54 96 3e 0b e7 8a 3d f2 d7 8a be
       -0.08665714 0.29361457 0.06782349 -0.27117878
000030 14 ed fb bd 53 10 76 bd ac 74 04 be 28 de 36 be
       -0.123010784 -0.06007416 -0.12935132 -0.17858183
000040 9f ea 2e be 44 77 56 bd 77 df 20 3e ac fc c0 bd
       -0.17081688 -0.052359834 0.15710245 -0.09423193
000050 b9 19 2d bd 45 c4 0c 3e bd 08 6b 3d a6 86 18 3d
       -0.04226086 0.13746746 0.05738138 0.037237786
000060 df d6 9c bd 58 d2 28 3e 19 27 d3 3d cc a4 dc bd
       -0.07658171 0.1648649 0.10310192 -0.1077362
000070 b5 e1 13 bd 8c 2c 5a 3e 85 5c 5f be 94 82 31 3d
       -0.036103923 0.21306056 -0.21812637 0.04333742
000080 68 6c 83 bd cb a9 1d be 10 3a 5a bd 50 f8 4f be
       -0.06417161 -0.15396802 -0.05327803 -0.20309567
000090 84 c3 96 3d 72 8d c3 3c 80 99 9e 3e 47 67 ca 3d
       0.073615104 0.023871157 0.30976486 0.0988298
0000a0 38 1f 12 3d f8 e3 8d 3d 14 e0 70 be 1c 12 59 be
       0.035674304 0.06928247 -0.23522979 -0.21198314
0000b0 4e 8d 08 3e 71 69 84 3d 68 c3 4d 3e 01 c6 56 3e
       0.13335153 0.06465424 0.20094073 0.2097397
0000c0 17 a6 78 3d 4f 81 7e be 5c 1d 1e be 64 5b ee bd
       0.06070527 -0.24854015 -0.15440887 -0.11638525
0000d0 0b 5d 6c 3e 3f 2e 05 be ca 78 38 3d cc 28 53 3c
       0.23082368 -0.13005923 0.04503707 0.012888145
0000e0 28 75 04 3d 75 ce 91 be f5 ba a2 3d 64 0c c5 3d
       0.03233829 -0.28477827 0.079458155 0.09621504
0000f0 48 4f 3b 3d 24 b6 7f 3e 9b 44 f5 3d 00 56 17 bd
       0.045729905 0.24971825 0.11975976 -0.03694725

rnn.bias_hh_l0 f4 [64]
000000 b9 0d d6 3c db 30 b7 3d 01 c8 7b be 41 93 58 3e
       0.02612959 0.08944865 -0.24588014 0.21149923
000010 08 1b 73 3d 59 bf 8e 3d 96 5b 81 3c 1c b8 00 3b
       0.05935195 0.069700904 0.015790742 0.0019640988
000020 99 8e fe bd e7 91 7f 3e a7 44 22 3d 85 b5 b1 be
       -0.12429542 0.24958001 0.039616253 -0.347088
000030 a4 fa 27 bd 5c 5e d8 3d 2f 47 05 be 0c 55 a4 bd
       -0.041010514 0.105648726 -0.13015436 -0.08024034
000040 d8 5c 89 bd 57 48 c0 bd 37 71 47 3d 47 4c ef bd
       -0.06707162 -0.09388798 0.048691954 -0.116844706
000050 c4 22 40 be 2c 41 37 3e 40 7f 49 bd 3b 28 e0 bd
       -0.18763262 0.17895955 -0.04919362 -0.10945173
000060 99 6c 1d be 91 a3 cf 3d e2 78 27 bd ea ca 36 be
       -0.15373458 0.1013862 -0.040886767 -0.17850843
000070 1a 42 c3 bc 5e 00 fe 3d 2e 2a 4c bd 06 c3 a6 bd
       -0.02383523 0.12402414 -0.049844913 -0.081426665
000080 d2 5b c2 3d 87 b6 13 bd b6 eb cf bd 05 04 53 be
       0.094901696 -0.036062744 -0.1015238 -0.20607002
000090 81 6a 10 3e 38 03 9b 3c e3 cf a2 3e af 28 23 3d
       0.14103128 0.018922433 0.3179923 0.03983372
0000a0 00 08 10 bd c7 d3 01 bd a1 9b 6f be e6 eb 97 be
       -0.03516388 -0.031696107 -0.23399211 -0.29672164
0000b0 99 0c 9b 3d 37 39 b3 bd 12 18 cb 3c 9e ea b1 3d
       0.07570762 -0.08751147 0.024791751 0.08687328
0000c0 4a e8 4a bd 37 1d 85 be 38 e2 2f 3d c8 0c 0d be
       -0.049537934 -0.25998852 0.04294035 -0.13774407
0000d0 70 77 5e 3e ab 42 a3 be 1c 54 88 3d a7 e0 75 3d
       0.2172525 -0.318868 0.066566676 0.0600287
0000e0 60 bb 02 3e 13 7a 92 be 3d b0 02 3e d7 a5 6d 3c
       0.1276679 -0.2860876 0.12762542 0.014504871
0000f0 df e3 24 3d ff 46 cc 3d 07 97 cf bd 4f 27 1a be
       0.040256377 0.09974479 -0.10136228 -0.15054058

rnn.weight_ih_l1 f4 [64, 64]
000000 f3 4c 99 3d 81 72 ef 3c c2 3c 2d be 92 1f 05 3e
       0.0748538 0.029229404 -0.16917709 0.13000324
000010 33 c5 ec bd 03 c7 09 be c2 18 1c be 5a 53 72 3d
       -0.1156105 -0.13454823 -0.1524382 0.05916152
000020 b9 4f 5a 3d da 2e 90 3b bd 95 62 bc 5a da 4a bd
       0.053298686 0.0044001164 -0.013829646 -0.049524643
000030 19 78 97 3d ca a8 3c 3d 7a 7e a3 3d 57 5f fe bd
       0.07395954 0.046059407 0.07983108 -0.124205284
000040 28 db 5d bd 45 fb e5 bc 5f a7 9e ba ec b3 bd bd
       -0.05416408 -0.028073916 -0.0012104324 -0.09262833
000050 b8 74 8b 3a ab a5 47 3d 66 49 10 bd 5c ea 51 3d
       0.0010639643 0.048741978 -0.03522625 0.051248893
000060 17 b1 ab bd d2 a3 a6 bc cd 15 e2 bb fd 7b 4e bc
       -0.083833866 -0.020341787 -0.0068995715 -0.012602803
000070 fb d7 d2 3d a2 08 3c bb 36 58 20 be 84 bc 59 3d
       0.10295101 -0.002869167 -0.1565865 0.053158298
000080 2c da 48 bd 54 fc c8 bd 44 3a 84 3d 53 a7 87 bd
       -0.04903619 -0.09813753 0.06456426 -0.066237114
000090 45 56 b6 bd a5 ab 8c bd 6f 54 eb 3d bc ad f2 3d
       -0.08903173 -0.06868676 0.11490714 0.118495435
0000a0 0e 38 8b 3d 98 47 3d bd 41 7d 2a bd 0b 6d ad bc
       0.06797801 -0.046210855 -0.041623358 -0.02117016
0000b0 a5 6d 4b 3c 77 13 b2 bd b6 b6 66 bd 0e 3e b9 3c
       0.012416278 -0.08695119 -0.05632659 0.022612598
0000c0 40 08 49 bd 3f e6 90 bd fe 5f 97 bd b2 c6 c9 3c
       -0.049080133 -0.07075166 -0.07391356 0.024630878
0000d0 2c 62 5b bd d9 14 54 bc 18 c9 7a 3d d1 e4 a2 3c
       -0.05356042 -0.012944424 0.061226934 0.019884499
0000e0 4d b6 17 3c fc 4f 17 be 05 e1 21 bd d4 15 8d 3b
       0.0092597725 -0.14776605 -0.039521236 0.0043055806
0000f0 fc 07 3a bd ab 19 89 3d 7f b9 85 3d 37 21 35 bd
       -0.04541777 0.06694349 0.06529521 -0.04422113
000100 34 7d c2 bd ee 2e 0c 3e d6 2e 39 bd 91 bb 24 3d
       -0.09496537 0.13689777 -0.04521068 0.04021794
000110 42 f4 8e bd 2e dd c2 3d d4 96 d5 bd b1 ae 03 bd
       -0.06980182 0.09514843 -0.10429159 -0.03214902
000120 f9 93 56 3e 11 6e 10 be 3a c2 13 be 08 68 2a 3e
       0.20954885 -0.14104487 -0.1442956 0.16641247
000130 15 f2 01 3d 8e 89 bc 3d ec 72 32 3d 10 e7 cd 3d
       0.031725008 0.09205924 0.04356663 0.10053837
000140 b5 72 90 3d ed a7 b6 3a c3 e0 26 bd e2 c0 48 3d
       0.07053129 0.0013935544 -0.040741693 0.049012072
000150 f1 9e 0a 3e 24 87 3a bd 15 6a 93 3d 7d d7 94 bd
       0.13537194 -0.045539036 0.07197968 -0.07267664
000160 b2 2c ca 3c 88 d5 9f 3d 9a 42 61 bc 28 f5 58 3d
       0.024679516 0.078044 -0.013748789 0.052968174
000170 a7 1c e9 3c f6 00 3c be 84 f3 57 3d 75 bf e8 bd
       0.028456045 -0.18359742 0.05272247 -0.113646425
000180 7e 38 5f 3d 97 d6 c8 3d b1 59 ae 3d 79 46 11 3e
       0.054497235 0.09806555 0.08513201 0.1418704
000190 15 e2 02 be af 2c 01 be 00 a1 b3 bd 7f d1 e3 3d
       -0.12781556 -0.12614702 -0.08770943 0.111239426
0001a0 2f 7d cd bc 38 8c c3 3d b5 1d 89 bd 82 50 a6 3e
       -0.025084106 0.09548229 -0.06695119 0.32483298
0001b0 7f cc d1 bb e9 4a a1 bd 3e 5f d5 3c d8 45 46 be
       -0.0064025517 -0.07875616 0.026046392 -0.19362581
0001c0 3b 0b 50 3d 0f 34 1a bd f1 32 a0 3c b0 6b eb bb
       0.05079196 -0.037647303 0.01955554 -0.007184468
0001d0 f9 d0 56 bd 67 c3 f1 3d 11 dd de 3c fe 73 10 3e
       -0.052445386 0.11804848 0.027205022 0.14106748
0001e0 a5 30 93 bd 97 53 ea 3d e4 f9 f2 bd e9 20 88 bd
       -0.071870126 0.11441725 -0.11864069 -0.06646902
0001f0 93 c8 1d be 5b 63 bb bd 0a 84 ee 3d 38 93 1e 3c
       -0.15408544 -0.0914981 0.11646278 0.009678654
000200 46 19 c3 bc 55 66 0c 3e 2c 2a 3b bd 3d 70 5e bd
       -0.023815762 0.13710912 -0.045694515 -0.054306258
000210 cd 09 ae 3d 1b dd 05 3e 4e c6 8c bd f9 24 a7 bc
       0.08497963 0.13072626 -0.06873761 -0.020403372
000220 e6 48 00 3d fb 17 e7 bd cc 3f 85 3d 42 34 bb 3d
       0.03131952 -0.11283871 0.06506309 0.09140827
000230 ee c7 e5 bd 86 f4 ae 3d 4e c7 e7 bd 2f 36 9d bd
       -0.11219774 0.08542733 -0.11317311 -0.0767635
000240 bc 55 9c bd 68 ba aa bd ca 73 9e 3d cd eb f7 3c
       -0.0763354 -0.083363354 0.07736929 0.030263806
000250 88 ba a1 bd 12 71 0c bd ae 56 1d bd 5d a4 14 3e
       -0.07896906 -0.03428752 -0.038412742 0.14515825
000260 25 dc 2a bd 3c 0e 76 3d 11 79 87 bd 28 71 ec 3c
       -0.041713852 0.06007217 -0.066148885 0.02886255
000270 65 05 99 bc b4 29 e9 bd 1d 1b fd 3d a7 7a aa 3d
       -0.01867933 -0.11384907 0.12358687 0.08324175
000280 e4 b3 3c 3d 04 ec 1a bd fb e0 08 be ef 22 00 3e
       0.046069995 -0.03782274 -0.13367073 0.12513326
000290 7a ac 94 3d 13 7e 80 3d 59 24 42 3d e4 a1 62 bd
       0.0725946 0.06274047 0.047397945 -0.055330172
0002a0 5a 37 00 3d 16 9b df 3d 2e 84 e6 3d ea 34 c9 3c
       0.031302787 0.10918252 0.1125568 0.024561364
0002b0 4f 76 bf 3d 4e db 14 3d 46 cd ea bd d8 0a a0 3d
       0.093487374 0.036341958 -0.11464934 0.07814568
0002c0 40 e6 64 bc d4 f6 f6 3d e2 7b 3c 3b 7c 28 12 be
       -0.0139709115 0.120587975 0.0028760363 -0.14273256
0002d0 bc 8f b8 3d 50 0a a9 3c cf 73 8f bd a6 de 2d 3e
       0.0901179 0.0206348 -0.070045106 0.16979465
0002e0 3c b8 59 bd 6b b8 ac bc 6e 88 a4 3b 00 5a 28 3e
       -0.053154215 -0.021084031 0.0050211465 0.16440582
0002f0 ea 11 5c 3d e3 e9 bd bd 5a f2 87 bd ce 1b b1 3d
       0.05372802 -0.09273126 -0.06638022 0.086478814
000300 ec 5a 9d bd 7f 56 98 3d 5a 53 4c 3d a3 d4 70 bd
       -0.076833576 0.07438373 0.049884178 -0.058796536
000310 62 06 35 3d 41 8c 79 bd b2 c0 29 3d 4e 8d cc bd
       0.04419554 -0.060924772 0.041443534 -0.09987889
000320 6d 01 49 3d f7 69 d2 bd fa d3 f8 3c 3c d2 05 3e
       0.049073625 -0.102741174 0.030374516 0.1306848
000330 62 6b c2 bc 77 3c e6 3d 59 78 80 3d 44 7e 3f 3e
       -0.023732845 0.112420015 0.062729545 0.1870051
000340 2d d1 8a 3d f9 95 30 3e 73 b0 64 3c bc 3b 06 3e
       0.06778178 0.1724471 0.013958084 0.13108724
000350 32 31 9b 3d 14 96 9a bd 73 97 51 bd 73 94 59 3d
       0.07577743 -0.075481564 -0.051169824 0.053120088
000360 f6 38 9b 3c 52 a7 85 3c b5 7a 25 bd f9 e5 8c 3c
       0.01894806 0.016315136 -0.040400226 0.017199503
000370 39 16 ac 3d 7e 47 26 be 82 d9 e3 3d 8c 4c d8 bd
       0.08402676 -0.1623821 0.11125471 -0.10561475
000380 e6 0c ba 3d 1e 16 3d 3e 9f fc d3 bd 2e 37 5e 3d
       0.090844914 0.18465468 -0.10350918 0.054251842
000390 41 d0 22 be 1a 21 39 bd bf 0f a1 bd 59 2f c8 bc
       -0.15899755 -0.045197584 -0.078643315 -0.02443664
0003a0 c4 e8 c7 3b fd 3c bc 3d b6 59 1f 3e 48 25 66 3e
       0.006100746 0.0919132 0.15561566 0.22475159
0003b0 2d d5 ea bc 33 05 10 3e 6e 67 e0 bd 2e a5 71 3b
       -0.028666103 0.14064483 -0.10957228 0.0036872136
0003c0 23 06 dd 3d 9c 6a 3c 3e 74 fd 06 3e 39 b5 01 3e
       0.10792186 0.18400043 0.13182622 0.12666787
0003d0 3a 4d 48 bc 20 86 75 bd b5 0f 88 bd 3a ad 12 3e
       -0.0122254435 -0.059942365 -0.06643621 0.14323893
0003e0 fc d6 38 bd f8 3d 05 3e a9 ce 0b be 12 07 5c bd
       -0.0451269 0.1301192 -0.13653053 -0.05371768
0003f0 25 f7 34 bd 89 9c dd bc 02 3f 87 bc 68 0c 31 3e
       -0.044181008 -0.02705218 -0.016509537 0.17289889

rnn.weight_hh_l1 f4 [64, 64]
000000 84 4a 89 bd 18 ee f9 3c e8 96 03 bd af 72 36 3c
       -0.06703666 0.03050904 -0.032126337 0.011135741
000010 ef 8b b8 3d 45 b2 b3 3b 7e de 24 3e e4 50 a8 bd
       0.09011065 0.005483898 0.16100499 -0.08218554
000020 60 a0 da bd 5f 14 e2 3c eb fe 88 bd e0 ca e5 3c
       -0.1067512 0.027597604 -0.06689247 0.02805084
000030 1c 95 ed 3d 68 87 9a bc 36 6d 48 bd 04 e7 a7 3d
       0.11600706 -0.018863395 -0.048932277 0.081983596
000040 0c 87 1a 3d 50 d9 ad bd 2a c0 cf bd 69 9a ee ba
       0.037726447 -0.08488715 -0.10144074 -0.0018203977
000050 84 96 c3 bc 21 32 ab bd 01 95 be 3d 96 92 81 3d
       -0.023875482 -0.08359171 0.09305764 0.06326787
000060 b3 a9 17 be aa b2 a4 bc a6 39 0c bd 8c 44 88 3c
       -0.14810829 -0.020104725 -0.034234665 0.016634248
000070 61 67 f0 bb 36 7b a8 3d 0f 87 04 3e e8 bc 66 bd
       -0.0073365425 0.082266256 0.12942146 -0.0563325
000080 15 2a 93 bd 82 50 43 bd 3a 4b c7 bd cc 23 27 3d
       -0.07185761 -0.0476842 -0.09731145 0.040805623
000090 db 51 51 bc 9e 8e 27 bd 35 2c c0 bd b6 d0 77 3b
       -0.0127758635 -0.040907495 -0.09383432 0.003781361
0000a0 8f a1 11 bc a9 d4 16 3e c0 0d 04 be 78 61 26 3d
       -0.008888616 0.14729561 -0.1289587 0.040620297
0000b0 37 d2 f0 bd af 21 13 3d 58 41 be bd 68 9f 00 be
       -0.11758845 0.035920795 -0.09289807 -0.12560809
0000c0 10 75 90 bc 4e 1d f2 bd 15 98 c7 bd 87 13 c1 3d
       -0.017633945 -0.11821996 -0.09745804 0.09427553
0000d0 a2 37 cc bc ad ed f4 3d 08 76 00 3e ce 79 37 bd
       -0.024928872 0.119593956 0.12545025 -0.044793896
0000e0 e7 e3 d2 3d 4c 77 4b bc 1a 47 22 3d ec 20 37 3d
       0.10297375 -0.012418579 0.03961859 0.04470913
0000f0 33 bf f6 3d 33 c7 bf 3d 9f 1e 44 bd 5a 69 94 3c
       0.12048187 0.09364166 -0.047880765 0.018116642
000100 77 a6 a5 bc 56 df 0e 3e c9 ba 82 3d ca df 4a bb
       -0.020220978 0.13952383 0.06383283 -0.0030956143
000110 3b cd e7 3d 77 d8 e4 3d 6f 04 65 bd 2c 54 cc 3d
       0.113184415 0.111741 -0.05591243 0.09976992
000120 ff dd 96 3c 5d 06 0b 3d f7 08 01 3d cf 73 62 3e
       0.018416403 0.033941615 0.03150269 0.2211449
000130 98 3e 9f 3d 48 8a f7 3d 3e 89 1f 3e 4d 19 95 bd
       0.07775611 0.12086922 0.15579697 -0.07280216
000140 31 48 e4 3d 5b 49 43 3d cc 72 17 be f9 7d 0e 3d
       0.11146582 0.04767738 -0.14789885 0.034788106
000150 d3 36 81 3d b6 4f be 3d 34 a3 43 3c 98 98 33 3d
       0.06309285 0.092925474 0.011940766 0.043846697
000160 3e 8a cf 3d 62 5f 21 bd 74 65 d1 bd 55 62 87 bd
       0.101337895 -0.039397605 -0.10224429 -0.06610552
000170 0a 4d b9 bd 62 01 86 bd 69 39 df 3d d2 f4 bb 3b
       -0.09047897 -0.065432325 0.10899622 0.005735972
000180 ec 71 b2 3d a5 75 e4 3b 8d cc e4 bd cc a5 31 3d
       0.08713135 0.006972032 -0.111718275 0.043371007
000190 be 4f b0 bd 8d 32 0d bc 89 b8 e6 bc fd 85 27 3d
       -0.086089596 -0.008618009 -0.028164165 0.040899266
0001a0 0d 5d 9a 3d 36 a3 1c 3d ed d2 13 3e 3a 1e 21 bd
       0.07537279 0.038241588 0.1443593 -0.039335467
0001b0 ed 50 07 3c 3e 0e 85 3d 1b 21 ce 3d e8 8c d3 3c
       0.00825904 0.06496857 0.10064908 0.025824025
0001c0 ee 0d 0c 3e 5c de a2 3c c9 41 ab bd 31 ff 75 3d
       0.13677189 0.01988142 -0.08362157 0.060057823
0001d0 65 ef 6f 3d 34 2e ba bd b0 cb bb bd ed d5 3d 3d
       0.058577914 -0.09090844 -0.0916971 0.046346594
0001e0 97 85 34 3a bd f2 66 3c b7 14 5e 3d 0c 30 37 3d
       0.00068863615 0.014095959 0.054218974 0.044723555
0001f0 75 74 93 3d 2a 5e 71 3d 26 4b bd bd d1 c2 03 3d
       0.07199947 0.058927692 -0.09242849 0.032168213
000200 16 93 dc bd c9 81 d9 3c bf 6a a4 3d 50 9f 46 3d
       -0.10770242 0.026551144 0.08028173 0.048491776
000210 dc 98 a8 3c 82 24 72 3d 5f 27 b9 bd 46 b5 f0 ba
       0.020580702 0.059116848 -0.090407126 -0.001836457
000220 6f 7e 25 3d 3b 8b 60 bd 1f f7 5c 3d f3 e4 0a 3e
       0.04040378 -0.05482028 0.05394661 0.135639
000230 e7 ea 03 bd da 89 ce 3c 45 c2 1e bd f9 ce 76 bd
       -0.032206442 0.025212217 -0.03875949 -0.06025598
000240 65 81 3b 3d c9 1e e3 bd 88 dc 45 bd 89 57 07 be
       0.045777697 -0.11089856 -0.048306018 -0.13216986
000250 01 44 9b 3b 71 2b 3a 3c 8d b3 f1 bd ca 4b 01 bd
       0.0047383313 0.011362896 -0.11801825 -0.03156642
000260 f6 03 85 3c 09 eb 81 bd 9e 47 6c 3d 4e 89 1f 3e
       0.01623724 -0.063436575 0.057685487 0.15579721
000270 94 5c 4e bd 56 93 09 be 41 62 be bd 6c 40 66 3d
       -0.050381258 -0.1343511 -0.09296084 0.05621378
000280 3b c1 6c bc f5 00 8e bd e7 d8 55 3d 05 ba 19 be
       -0.014450367 -0.06933776 0.052208807 -0.15012367
000290 09 03 9f 3d cf de 7f 3c 1f e0 8b 3d ce 68 c5 bc
       0.07764251 0.015617087 0.06829857 -0.024097826
0002a0 ee 2f 3c bd c0 7b 8f 3c 78 c4 34 3d 2d 09 10 3e
       -0.045944147 0.017515063 0.04413268 0.14066
0002b0 51 9d b2 bd 46 fd df 3d 5f 9b 9c 3d 8d 7c 94 3d
       -0.08721412 0.1093698 0.07646822 0.07250319
0002c0 3f 8a 45 3b 76 3b df bd e8 70 b8 bd 22 da 3d 3d
       0.0030142216 -0.10900013 -0.0900591 0.046350606
0002d0 86 99 e0 bd fe 35 0e be 8e 0c 05 3d 48 56 0b 3d
       -0.10966782 -0.13887784 0.032482676 0.03401783
0002e0 84 46 ba 3d e2 38 f1 bd 85 ac e2 3d 6e ed 02 3d
       0.09095481 -0.11778428 0.11068062 0.03196471
0002f0 7b c3 28 bc 88 5f c0 3d b0 6c fb 3c ce 9b 7f bd
       -0.010300512 0.09393221 0.030691475 -0.062404446
000300 26 6e 45 3d 3f 0e d5 3c 1e dc c6 bc 23 02 96 bd
       0.04820075 0.02600777 -0.024274882 -0.07324626
000310 0d 15 9f 3d 35 07 1c 3d ef a3 fd bd ef c8 f1 3d
       0.07767687 0.03809281 -0.123847835 0.11805903
000320 5a d0 9d bc b5 c0 cd bc 3b e4 01 bd 5f 22 2c 3e
       -0.019264389 -0.025116304 -0.0317118 0.16809987
000330 22 ca 86 bd f8 9d 92 3d f6 b9 f5 bc 3b be 06 be
       -0.065815225 0.071590364 -0.0299959 -0.13158505
000340 9c 3c c1 3d e2 64 9c 3d 59 28 c4 bd 82 3b d1 bb
       0.094353884 0.07636429 -0.09578008 -0.0063852677
000350 c6 f2 02 3d f2 2b 96 bd 0b 2f 92 3d f5 f8 b4 3c
       0.031969808 -0.07332601 0.07137879 0.022091368
000360 58 ef 02 3e b8 cb 45 3c 95 7f 6b bd 45 86 a3 3d
       0.12786615 0.012072496 -0.05749472 0.07984594
000370 3e 77 7b 3d 5e eb 04 bd 79 a5 04 bd 63 fe e9 3d
       0.061393015 -0.032451026 -0.03238437 0.114254735
000380 67 83 3f 3e 0f de 67 3d 43 16 0a 3e ad 46 35 bd
       0.1870247 0.056608256 0.13485055 -0.044256855
000390 ba e2 10 3d fc 77 b4 3d 2c 30 e3 3d 0a 68 46 3d
       0.035372473 0.08811948 0.110931724 0.048439063
0003a0 89 1d e7 3d e2 47 cf bc 7e 5b 75 bd 99 b3 81 bc
       0.1128493 -0.025302831 -0.059901707 -0.01583271
0003b0 05 48 88 3c e7 19 a4 bd 71 9c 5a bd cd 02 a2 bd
       0.016635904 -0.08012753 -0.05337185 -0.079106905
0003c0 9e fc 25 3e 82 eb 23 bb 39 15 33 bd 71 82 da 3c
       0.16209647 -0.00250122 -0.04372141 0.026673527
0003d0 6c 6a 7b bc 12 4a 6c bd 8f 92 0d 3d 51 31 d5 3d
       -0.015345197 -0.057687826 0.034563597 0.10409797
0003e0 de 75 ac bc 4a b9 88 3d f6 b8 78 bd d6 b7 78 bd
       -0.021052297 0.06675966 -0.060723267 -0.060722195
0003f0 e1 be d6 3c 6f 75 4c 3d 8a 10 2f 3d d2 21 f5 3d
       0.026214065 0.04991668 0.042740382 0.11969341

rnn.bias_ih_l1 f4 [64]
000000 12 25 17 bd a9 55 bd bd fc 63 d4 3d ee 82 46 bd
       -0.036900587 -0.09244854 0.10370633 -0.048464708
000010 40 e0 f0 3d 6f eb 65 bd 3c 03 b7 bd 3d 64 ea 3d
       0.11761522 -0.05613273 -0.08936164 0.114449
000020 98 45 8f 3d 52 7a a2 3b 8e 1a 9e 3d 82 a4 a3 3c
       0.06995696 0.0049584294 0.07719909 0.019975904
000030 06 fe 6d be 43 05 d2 bd 31 d9 a6 bd 42 d1 ab 3d
       -0.23241434 -0.1025491 -0.08146895 0.08389522
000040 56 8a b9 bd 01 a4 4a bd ea 3c 4e bd 5c 3b 8f 3d
       -0.090595886 -0.049472813 -0.05035106 0.06993744
000050 c7 a5 f5 bd b3 8d 1d be dc 37 68 bd 95 79 09 3c
       -0.1199451 -0.15386085 -0.056693897 0.008390804
000060 4e 3c bf 3d c9 0d 8b bd 50 d6 08 3e d6 47 24 3d
       0.09337674 -0.06789739 0.13363004 0.04010757
000070 ab 8a 44 3d f4 ef ca bd a9 2c cd 3c 42 59 b7 3d
       0.047983807 -0.09909049 0.02504571 0.089525715
000080 ff 4a 5b bb d9 6e 7b bd 7f 58 0e 3d fa 59 81 3d
       -0.003346145 -0.06138501 0.034752365 0.0631599
000090 6c d6 cb bc ba 28 78 3d c0 27 ec 3d 5e 49 e7 3d
       -0.024882518 0.060585715 0.11531019 0.112932906
0000a0 8b 3d 3c bc 2d 62 92 3c ff e5 6d bd d9 12 78 bd
       -0.011489282 0.01786908 -0.05808067 -0.06056485
0000b0 e1 35 ec 3d a6 4c ea 3d 48 58 a0 bd 0b 81 cb 3d
       0.11533714 0.11440401 -0.07829338 0.09936722
0000c0 d7 8f e4 3d 27 8e ab bd a4 df 81 bc 99 41 d9 bd
       0.11160248 -0.08376723 -0.01585371 -0.10608215
0000d0 e5 98 87 3d bf 0d c4 bc 6f d9 67 bb 7d 73 91 bd
       0.06620959 -0.023932336 -0.0035377403 -0.07102106
0000e0 b4 5e af bd e9 1d 37 bc f2 8a af 3d d7 c9 7d bd
       -0.08562985 -0.011176565 0.085714236 -0.061960068
0000f0 9b 8e 02 bd c3 13 af 3d 09 11 f5 3d 90 85 54 3d
       -0.03187428 0.08548691 0.1196614 0.051885188

rnn.bias_hh_l1 f4 [64]
000000 35 cd a4 bc 2f 18 15 bd c7 94 16 3e 8c 18 f0 bd
       -0.020117382 -0.036400016 0.14705192 -0.11723432
000010 29 94 da bd aa 17 8c 3d 9a d8 65 3d cd e6 2e 3d
       -0.106727906 0.06840451 0.05611477 0.042700578
000020 fa b0 1c bc 12 91 48 3d 75 2b e5 3d f9 11 0a bc
       -0.009563679 0.048966475 0.111899294 -0.008427137
000030 44 ab ea bd cf 86 18 3c 98 52 cd 3d 44 21 19 be
       -0.114584476 0.009309485 0.10025519 -0.14954096
000040 2c 34 f6 bd 84 73 5f 3d 1f 8f 14 3d 60 44 75 bd
       -0.1202167 0.054553524 0.036269303 -0.05987966
000050 04 c8 09 be 08 da b9 bd 71 55 ce 3d 86 9d 32 3d
       -0.13455206 -0.09074789 0.100748904 0.043607257
000060 3a f7 a9 3b 37 02 8e bc a9 53 03 3e 82 69 a1 3d
       0.0051869424 -0.01733504 0.12824883 0.07881452
000070 15 8d e3 bd 36 b0 8a bd 19 21 98 3d 76 74 a2 3d
       -0.11110894 -0.06771891 0.07428188 0.079323694
000080 14 4b e6 bd 88 c6 79 bd 10 63 02 3e 4d 4b 28 be
       -0.11244789 -0.06098035 0.12733102 -0.16434975
000090 d8 a2 38 3d be 1e 5a bd 07 9c 03 3c a7 85 ca bd
       0.045077175 -0.053251974 0.008032805 -0.098887734
0000a0 03 b7 13 3c 76 b2 24 bc 6c 44 86 3d 37 12 23 bb
       0.009015801 -0.010052314 0.06556019 -0.0024882683
0000b0 fa 25 b7 bd 47 16 31 3d b5 67 b9 bd 86 15 a7 3d
       -0.0894279 0.043234136 -0.09052984 0.08158402
0000c0 e9 53 aa bd b1 78 60 bc e7 37 78 3d 1a 80 e3 bd
       -0.08316786 -0.01370065 0.060600188 -0.11108418
0000d0 05 b8 d5 bd bf 11 29 bd 77 68 8c 3d ba 82 2e bd
       -0.104354896 -0.04127669 0.068558626 -0.04260514
0000e0 21 74 4b bc 7d 96 d8 bd 3f 57 26 bd aa 18 13 3e
       -0.012417824 -0.10575578 -0.040610548 0.14364877
0000f0 a3 a6 a6 3d 90 55 49 bd 62 b2 20 3d 89 f8 f4 3d
       0.08137252 -0.049153864 0.03923262 0.11961467

fc.weight f4 [1, 64]
000000 39 f7 a0 be 62 a0 91 3e 52 b1 90 3e ac b9 86 3e
       -0.31438616 0.28442675 0.28260285 0.2631353
000010 dd 24 4a 3e 0f 8f 49 be 48 e3 41 3e b7 f2 38 3e
       0.19740625 -0.19683479 0.18934357 0.18061338
000020 1f 0d 85 3e 3e 7a 80 3e 4a e2 54 3e e7 b1 5d 3e
       0.25986573 0.25093263 0.20789447 0.21649896
000030 7e 0d 6b 3e 56 3f 6c 3e 74 d6 89 3e 50 26 94 be
       0.22954366 0.23071036 0.26921427 -0.2893548
000040 a7 0e 7a be de a8 8a be 15 79 51 be 72 c1 22 be
       -0.24419652 -0.2708196 -0.20456345 -0.15894106
000050 f3 99 80 be d5 38 86 be fe 76 70 be 6e 9b 90 3e
       -0.25117454 -0.26215234 -0.23482892 0.28243583
000060 5f f5 69 3e b6 34 6b be 00 01 5a be 1e 3b 81 3e
       0.22847508 -0.22969326 -0.21289444 0.25240415
000070 05 16 76 be 2d 58 84 be 34 ff 85 be 62 18 71 be
       -0.24031837 -0.25848523 -0.26171267 -0.23544458
000080 63 ee 76 be e0 a7 7b be 9e 88 42 be 00 8b 6c be
       -0.24114375 -0.24575758 -0.18997428 -0.230999
000090 9c d2 80 3e 15 af 86 be 1c a8 75 3e aa 47 99 3e
       0.25160682 -0.26305452 0.2398991 0.29937488
0000a0 38 55 94 be 25 de 8e be 0c d4 67 3e 0d 1f 8a 3e
       -0.28971267 -0.27903858 0.22639483 0.26976815
0000b0 e0 10 93 3e f4 09 7c 3e 09 19 52 3e 98 74 7a 3e
       0.28723812 0.24613172 0.20517363 0.2445854
0000c0 80 38 55 be a3 ca 8a be be 39 6d 3e 10 bd 99 be
       -0.20822334 -0.27107725 0.23166558 -0.30027056
0000d0 dc fe 65 be 06 90 47 be 03 f8 8c 3e 0a 85 83 3e
       -0.22460502 -0.19488534 0.27532968 0.25687438
0000e0 4c e4 40 3e 28 b7 7b be 26 d1 8c be a3 3e 8d 3e
       0.18837088 -0.24581587 -0.27503318 0.2758685
0000f0 b7 57 96 be 76 b8 5d be 75 92 67 3e 13 df 8b 3e
       -0.29363796 -0.21652398 0.22614463 0.2731863
