16 - Recurrent Neural Network/model/rnn/weights_100.pth (torch, 53191 bytes, 9 tensors)

rnn.weight_ih_l0 f4 [64, 1]
00000000: 8cbf eabd 68f7 513d 4941 cc3d eab3 8bbd
00000010: 1d20 803d 8624 603d f8ff 013e fd91 943c
00000020: b06c 683d 82ff 8ebd 459e 85bd 505b e93d
00000030: 272e bfbd be6a a03d 4a02 90bd 1284 b13d
00000040: 66f8 aabd e38a 9cbc 0ea8 da3d e47a 4d3d
00000050: 652f cf3d dda2 b5bd 9ec5 1f3d 64e2 f23d
00000060: 032b 90bd d839 ac3d e786 e33d 6632 39be
00000070: 5e4a 46bd 159a 72bd e71c bf3d 350d 86bd
00000080: bd12 debd 415a 593d c273 7ebd 6949 903d
00000090: 93a1 48bd cbb5 833d 308b abbd 4c9c b5bd
000000a0: 518b 883d f4e3 903c d844 5a3d effb 673d
000000b0: 475e acbd 29b5 bb3d 5c52 ddbd fa2b 9fbd
000000c0: a561 c3bd f336 933d b3db 2b3d 9be8 1fbd
000000d0: cf5b 91bd 2fbe 6e3d edaa 9bbd 7775 3c3d
000000e0: 98e0 e53d 30ec c73d 1986 82bd 5c19 393d
000000f0: f2c9 0abd cbc7 e5bd d6e9 813d c8fe 8d3d
-0.11462316 0.051261336 0.0997339 -0.06821425 0.06256125 0.05472233 0.126953 0.018136019
0.056744277 -0.06982328 -0.06524328 0.113943696 -0.09334975 0.078328595 -0.070316866 0.086677685
-0.083481595 -0.019109195 0.10676585 0.050166026 0.10116462 -0.08868954 0.03900682 0.11859587
-0.07039454 0.0840947 0.11109715 -0.18085632 -0.048410766 -0.059228975 0.093316846 -0.06545488
-0.10843418 0.05306459 -0.062122114 0.07045252 -0.048982214 0.06431159 -0.08376157 -0.08867702
0.066671975 0.017686822 0.05328831 0.056636747 -0.084164195 0.09165413 -0.108067244 -0.0777206
-0.095401086 0.07188215 0.04195757 -0.03904019 -0.07097589 0.058286842 -0.07600961 0.04601046
0.112244785 0.09761846 -0.06373233 0.0451902 -0.033883996 -0.11219748 0.06343429 0.06933361

rnn.weight_hh_l0 f4 [64, 64]
00000000: 8183 01bc 6ca2 c13d 63d1 51bd 607b 69bd
00000010: 4980 403e 3c5e 023e b5ea df3d 05b3 e73c
00000020: fcda 50be aa12 34bc bcd4 6f3d ca7b 30be
00000030: 57d9 04be 67dd 8e3d 822a bfbd 5803 af3d
00000040: ec25 06be dee2 04be 4249 f03d 7f8f d03c
00000050: c41e 193c 0cf9 a5bd f15a 61bd 05d5 bd3d
00000060: 7e14 b13d 8681 dc3d 455c a63d b76c 05be
00000070: 7f4e 153d d69b c33d 0ea1 03be cd99 3bbc
00000080: d5b2 a3bd caf1 a4bc ccd3 80bd 3d41 5cbd
00000090: 04c5 30be e2d4 1a3c 715b 433e 1c45 01bc
000000a0: 7261 323c c56d 8ebc 47ed b7bd 6b3a 40be
000000b0: e338 7abc 3054 ad3d 40d2 63bc ec37 73bd
000000c0: cc2e d5bc a590 61bd 7baf 043d e0c4 a8bd
000000d0: 3c03 b83d d990 903b ac07 b93c ad4a 5dbd
000000e0: 63b1 dd3d 983c 87bd 5ae9 a33d 0005 a93c
000000f0: d0a6 7e3b f71c b33d aa43 003e 77ea 073d
00000100: c905 4d3d e17d 0a3d a14d 113e 63b6 debd
00000110: bd24 aebd 4293 f6bc a1e8 8f3d c4af d93c
00000120: 3231 fa3d c2ff 98bd 4ed5 5d3d 4bc3 133d
00000130: 49e9 b5bd a976 97bd ae5a 8d3d 96d6 843c
00000140: 7a02 1f3d f588 f13d c392 093c 535c d3bd
00000150: d031 11bd 7d8a 6f3d ebaf 37bc d9e5 b23c
00000160: e5d6 da3d 8398 a6bc 76cb c7bc bf5c fe3d
00000170: a65c a9bd 0390 82bd 1df6 92bd 7321 f13c
00000180: 8a6a 4f3c 5c94 3e3c e635 81bd 0a14 57bd
00000190: fbe5 383e 9b61 1fbc 94e9 05be b1a4 033c
000001a0: b4f9 03bc 9b21 67bd bf87 b03d 0210 423e
000001b0: 4dd2 4fbd 944e 5abd 48ac bdbd ff1a 993d
000001c0: 6dc3 183d fb6b ef3d f78a 0cbe 9bbd 993d
000001d0: 32af b4bd dc65 61bd 7425 9e3d eacf 983d
000001e0: c91e 11bd 9067 32bd cafe d8bc 47cf 483d
000001f0: 22f2 db3c f6a9 5dbd c9ba a1bd 4d34 e5bd
00000200: 47e2 a5bd 3187 13bd 1d57 5e3e 00f8 72bd
00000210: 508b 89bc 9a67 6dbe c6c5 263c 4c86 5fbd
00000220: 7f5c 983d e41e 163d 9b60 67bd debb 3a3d
00000230: d712 9c3d 7135 ccbd cd7a 183e 8a48 813d
00000240: e1ee 243e b1f6 0bbe e0c0 78bd c96f f13d
00000250: fe33 e73d e2ae e0bd 5f1c 2cbd 4df6 c6bd
00000260: 723e a03d 1293 02be ba80 6dbc d280 3d3e
00000270: 95f8 8dbc 9b9b cd3c c417 e0bb 2b15 85bd
00000280: 4032 b53d 721c b1bd 5abf 133e 47bf 1e3d
00000290: 79ca 903d cd20 77bd ece3 43be bc19 6f3d
000002a0: 2ede 4a3d bc6b 073c d848 51bd eef9 063d
000002b0: 8a16 afbd d9de 82bd 722d 05be 9329 93bd
000002c0: ff91 183e 2a7b 163e 6357 823d bd90 b5bd
000002d0: 4db3 11be de24 f4bc 2a1a 343d 2cf0 22bd
000002e0: c051 593b 3127 34bb f1a7 8fbd 7d54 97bd
000002f0: 60f8 043e 4855 1dbe ce0b f5bb d1b6 b0bc
00000300: 20b2 edbd 57ef b63d 9155 4ebd 3201 c33d
00000310: 797d 76bd e3ef dc3c 8177 8c3d 99d3 823c
00000320: 3cb7 89bd 12a6 d2bd 0718 223c b740 8a3d
00000330: 2bf4 d83d 7bdc b3bd 8857 03bd c554 9bbd
00000340: fae6 353c bcd5 ef39 a2b5 ce3c 6541 893d
00000350: f984 823d 7ce2 3dba d3a1 a93d 4a1b be3d
00000360: b789 833d 2186 cc3d 6129 9e3d 9a65 993d
00000370: 7015 20bd f5fb 74bd 6939 b7bc d5d1 23bd
00000380: 64c8 b23d bd35 013e 2ede 803d 8c13 81bd
00000390: bff9 1abe 093b 043d 0f34 243d 6943 bfbd
000003a0: 0830 5e3c e4e2 a23d 1d42 103d 3896 c1bd
000003b0: 7dbb b73d 0511 56bd 08a7 bcbc 5995 7d3d
000003c0: e501 cbbd e1cf 89bd 8751 4ebd 60cf f0bd
000003d0: a554 f7bd d913 5fbb 04e4 9fbd b73e 8b3d
000003e0: fa73 b2bd 2d8e f23d 0690 9fbc 200c f8bd
000003f0: f712 82bc 2032 ddbc d91f c2bd 79e8 0dbd
-0.007904888 0.09454808 -0.051225077 -0.057002425 0.18798937 0.1273126 0.10933439 0.028283605
-0.20396036 -0.010990778 0.05855249 -0.17234722 -0.12973534 0.06975823 -0.093342796 0.0854556
-0.13100404 -0.12977168 0.11732723 0.02545905 0.009345714 -0.081041425 -0.05501837 0.09269146
0.08646487 0.10766892 0.08123068 -0.13029753 0.036451813 0.09551208 -0.12854406 -0.011450243
-0.07993094 -0.020134825 -0.06290397 -0.053773154 -0.17262655 0.009450169 0.19077851 -0.007890012
0.010887491 -0.017386327 -0.08980804 -0.18772285 -0.015272352 0.08463323 -0.013905108 -0.059379503
-0.026023291 -0.055069584 0.032393914 -0.08240676 0.08984992 0.0044117984 0.022586666 -0.054026294
0.108248495 -0.06603354 0.08003493 0.020632267 0.0038856752 0.08745759 0.12525812 0.033182587
0.050054345 0.033811454 0.1418977 -0.10874631 -0.08503101 -0.030099515 0.07026792 0.02657307
0.122164145 -0.07470657 0.0541585 0.036074918 -0.08882386 -0.073956795 0.069020614 0.016215604
0.03882072 0.117937006 0.008396807 -0.10320344 -0.035447896 0.058481682 -0.011211376 0.021838116
0.10685519 -0.020336395 -0.02438901 0.12420034 -0.082696244 -0.06375124 -0.07175849 0.029434895
0.012659678 0.011632051 -0.063091084 -0.052509345 0.1805648 -0.009727861 -0.13077384 0.008034871
-0.008055139 -0.056428533 0.086196415 0.18951419 -0.050737668 -0.053297594 -0.09261376 0.07475852
0.037295748 0.116905175 -0.13724886 0.075068675 -0.08822478 -0.05502878 0.07721987 0.074615315
-0.03542975 -0.043555796 -0.02648868 0.0490258 0.026848856 -0.054117166 -0.078969546 -0.11191616
-0.080997996 -0.0360176 0.21712919 -0.059318542 -0.016790062 -0.23184052 0.010178989 -0.054571435
0.07439517 0.036650553 -0.056488615 0.04558932 0.07620781 -0.09971131 0.14890595 0.06312664
0.1610675 -0.13668324 -0.060730815 0.117888995 0.112892136 -0.10970856 -0.042019244 -0.09714947
0.078244105 -0.12751415 -0.014496023 0.18506172 -0.017330447 0.025098613 -0.0068387706 -0.06498178
0.08847475 -0.08648004 0.14428464 0.038756635 0.070698686 -0.060334016 -0.19129914 0.05837415
0.049528293 0.008265432 -0.05109486 0.032953195 -0.08549221 -0.06390161 -0.13005617 -0.07185664
0.14899443 0.14695421 0.06364324 -0.08865497 -0.14228554 -0.029802736 0.043970264 -0.039779827
0.00331603 -0.002748918 -0.07014454 -0.07389162 0.12985373 -0.15364563 -0.007478214 -0.021571549
-0.1160624 0.08932369 -0.05037457 0.09521712 -0.060178254 0.026969856 0.06858731 0.015970038
-0.06724402 -0.10285582 0.009893424 0.067506246 0.10593446 -0.08782288 -0.0320659 -0.07584528
0.011102432 0.00045744877 0.025233094 0.06701926 0.06373019 -0.00072435266 0.08282819 0.09282549
0.064227514 0.099865206 0.07722736 0.07490082 -0.039082944 -0.059810597 -0.022366242 -0.039995033
0.08729628 0.12618156 0.062923774 -0.063025564 -0.15134333 0.032282863 0.04008871 -0.09339029
0.013561256 0.07953432 0.0352193 -0.0945248 0.089713074 -0.052262325 -0.023028865 0.061910007
-0.09912471 -0.06729103 -0.05037072 -0.11758304 -0.120766915 -0.003403893 -0.078071624 0.06799071
-0.08713527 0.11843524 -0.019477855 -0.12111688 -0.015878184 -0.02700144 -0.09478731 -0.03464553

rnn.bias_ih_l0 f4 [64]
00000000: 7165 043e 6f37 a03d 80bd afbe 68e2 a5ba
00000010: 1941 e93d c96d 8d3d 6a69 1fbc d8fb 9f3d
00000020: 7c8f 62bd dc69 713e 715e 833d 4fcf 5cbe
00000030: ab9f d0bd 6b19 68bd 39ad 08be d346 1ebe
00000040: f0b8 2cbe dd49 85bd a67b 1d3e f85d 81bd
00000050: cbe7 13bd 62b6 d43d 4c3e 8b3d 35c4 a13d
00000060: df6c 9ebd 65fa 323e aa68 bf3d a0ed a3bd
00000070: 8a2c 29bd 78ac 373e 715c 41be 40c7 583c
00000080: e0bf 6ebd 3fcd edbd 97f3 50bd 8855 12be
00000090: 8a5b 7dbb 0216 a63c c24e 8f3e 7e49 c13d
000000a0: 9ada 013d 8703 953d a9a2 16be 4af5 35be
000000b0: 6e14 043e 9033 7f3d 1f91 483e a630 2e3e
000000c0: a1d6 903d 9df2 5cbe 7507 14be b950 05be
000000d0: c658 393e d276 e9bc ced6 963c 44b4 103d
000000e0: 8409 a83b d097 27be 4977 753d 1f92 a33d
000000f0: e26a 8b3c bf92 6d3e f5a6 173e 21b0 bfbb
0.12929322 0.07823073 -0.34324265 -0.0012655975 0.113893695 0.069057055 -0.0097297225 0.07811707
-0.05531262 0.23575538 0.06414498 -0.21563457 -0.10186704 -0.056664865 -0.13347329 -0.15456705
-0.16867423 -0.06508229 0.153792 -0.06316751 -0.036109727 0.10386349 0.067989916 0.07898752
-0.07735609 0.1747833 0.09346135 -0.08004308 -0.04130224 0.17936885 -0.1888292 0.013231099
-0.058288455 -0.11611413 -0.051013555 -0.1429044 -0.0038659298 0.020274166 0.27989775 0.09437846
0.031702615 0.072760634 -0.14710487 -0.17769352 0.12898418 0.062305033 0.1958661 0.17010745
0.07072187 -0.21576925 -0.1445597 -0.13019074 0.1810027 -0.02849904 0.018412974 0.035328165
0.0051280875 -0.16366506 0.059928212 0.07986855 0.01701874 0.2320051 0.14809783 -0.0058498536

rnn.bias_hh_l0 f4 [64]
00000000: d916 ca3b 37a9 c03d fa09 67be 5a1f 283e
00000010: 1973 633d 7ac1 913d b20f 8a3b b22d 103a
00000020: fcd0 bebd c40e 443e 7b85 123d a07f 95be
00000030: 56cd 9ebc 7858 e13d e480 09be 4cef 63bd
00000040: e7b9 83bd 74d6 dabd 7246 373d 13f3 afbd
00000050: f7b5 3abe f617 153e 009c 20bd 376b 8cbd
00000060: 82ae 1ebe f72f e33d d46c 52bd 66dc 1abe
00000070: a440 edbc faed b73d 353b a0bc c8eb e5bd
00000080: 5452 d03d 04c4 223b 16dd cbbd d265 15be
00000090: 38f6 823d 8c9d 7a3c 7e8b 933e b681 0f3d
000000a0: 0401 22bd 6b05 ecbc 4a5c 15be c39e 86be
000000b0: 9d69 913d 86dd b9bd 460b 993c c08a 3e3d
000000c0: 3188 24bd 4dbd 68be 99f9 5c3d 9050 1bbe
000000d0: 4b5e 2b3e d1a8 5fbe 841f 243d 9376 a93d
000000e0: 71e2 ce3d 0ef1 28be bff5 dd3d db23 18bb
000000f0: 0aa1 3c3c 4f33 a63d da36 98bd aafc f5bd
0.0061672744 0.09407275 -0.225624 0.1641821 0.055529688 0.07116981 0.004213297 0.0005499973
-0.09317204 0.19146258 0.03577183 -0.29198933 -0.019385021 0.11003202 -0.13428074 -0.055648133
-0.064319424 -0.10685435 0.044744916 -0.085912846 -0.18233477 0.14559922 -0.039211273 -0.06856387
-0.15496257 0.11093133 -0.051373318 -0.15123138 -0.028961487 0.08980937 -0.019559482 -0.11226612
0.10171953 0.0024836073 -0.09954278 -0.14589623 0.06394619 0.015296351 0.28817362 0.03503581
-0.03955175 -0.028811177 -0.14585987 -0.26293 0.07100222 -0.09075455 0.018682133 0.04651904
-0.040168945 -0.22728463 0.053948972 -0.15167451 0.16735189 -0.21841742 0.04006912 0.08274569
0.10101784 -0.16498205 0.10837888 -0.002321473 0.011513004 0.08115255 -0.07432337 -0.120110825

rnn.weight_ih_l1 f4 [64, 64]
00000000: 1b94 933d 546d fb3c 0107 26be b8b2 003e
00000010: f72e edbd 07ff 0fbe 8399 21be 11e5 803d
00000020: 0b6f 7a3d 5400 73bb d265 b3bc 8880 29bd
00000030: 8072 983d fad3 353d 4b67 ac3d 7f39 f6bd
00000040: 802a 47bd 881a a5bc 1fa7 31bc 0c3d c4bd
00000050: a174 2b3b d91d 2f3d 57dd 14bd 7a53 3a3d
00000060: 8611 a2bd 6c1d 80bc d146 39bc f8b5 06bc
00000070: b8ec d33d 3673 efbb 48de 1dbe e891 5c3d
00000080: 598c 37bd e9a8 c0bd 810c 8c3d ec9d 7ebd
00000090: 3961 a1bd 1b75 92bd 4304 da3d c3ae f63d
000000a0: c3f0 8e3d ddc5 43bd 6f38 27bd d3e1 713c
000000b0: 17d6 ba3b 76dc b6bd 3d7e 74bd 0bcd 8b3c
000000c0: 997c 42bd c890 87bd fbd3 88bd eccf 063d
000000d0: 5e18 7dbd 0645 3bbc 0765 813d 2a55 a23c
000000e0: 7312 c53a c3bd 12be 8285 26bd 5edc 743b
000000f0: c990 2cbd de53 803d 1e28 833d 79b9 13bd
00000100: 4c7a d3bd 2d3c 1a3e e289 54bd e0b8 1e3d
00000110: afb8 52bd 040f 053e 8c71 b0bd 752e acbc
00000120: 89f5 4b3e 0685 01be 84f1 10be a82a 213e
00000130: cba9 bf3c 1cb2 df3d 40c5 c43c e2fb c83d
00000140: b6f7 253d 79bc 63bc 18e2 84bc 9a1f 893d
00000150: 66de 103e 307c 37bd 08bc 9f3d b768 82bd
00000160: f4a0 c73b d1b9 da3d 7297 1c3b 4749 ed3c
00000170: c568 693c 85b9 2abe 1c25 583d 3f12 f6bd
00000180: 1213 1c3d 9f0a be3d a700 913d 3f56 043e
00000190: 9b1f d3bd 9966 ddbd 3218 9cbd 9f38 bb3d
000001a0: 6415 e9bb a2f0 db3d 87f0 a8bd aa26 883e
000001b0: b5ff 97bc b3f7 87bd 258b 993c e884 41be
000001c0: 4e4d 163d 2c6c 47bd 5daa 073d 4417 05bd
000001d0: f0cc 11bd 7699 d73d 7d68 c73c 02a7 0e3e
000001e0: 8e66 36bd 762e ce3d 6c6d 02be ba67 62bd
000001f0: a690 19be 75e8 c8bd f06b 033e dadb 5a3c
00000200: c201 02bd 8731 0e3e 7a59 31bd 0463 58bd
00000210: e4e9 bb3d 3945 153e 8e62 97bd 1ff7 54bc
00000220: 36b3 1f3d 660c efbd 446e 8f3d a055 c33d
00000230: aa04 ecbd bf8d 9e3d 8520 d8bd 76db 96bd
00000240: 7f89 7dbd 06f9 a2bd c575 9a3d 9207 c13c
00000250: 0eb9 97bd a089 21bd 97db 44bd e8bc 163e
00000260: 67ae 10bd fbd8 6e3d 4459 91bd 4a05 103d
00000270: 6961 68bc bea3 f1bd 66b6 013e df01 b93d
00000280: 87e8 513d 08ee 0cbd b20c 06be 8a10 033e
00000290: d1e5 883d cfd9 0c3d ae7e 403d 4529 83bd
000002a0: 482b 0c3d 732e ae3d 9809 e03d 793b cb3c
000002b0: 42dc bf3d f08b 173d 2d08 f3bd 3f12 983d
000002c0: 82f4 efbb 08d4 fb3d e8a5 79bc ef69 00be
000002d0: 051f b23d cc7c c03c dd60 84bd 20d6 233e
000002e0: 90a2 70bd a98a 8ebc 661c 5a3c afd4 1a3e
000002f0: 2bec 593d a85d c7bd 77b4 9bbd 6e32 b73d
00000300: ea39 5abd 4241 963d 6cfe d43c f30e 53bd
00000310: bc43 303d b4c6 37bd 7a9c 893d 6ffa c8bd
00000320: fb9c f23b e72c 96bd 49ad 043d 837e d43d
00000330: f7a3 d8bc 5616 093e 6f36 173d 7c27 2c3e
00000340: cbb9 d83c 8069 203e d591 383d de60 103e
00000350: b4a7 833d 1110 61bd 0be4 2dbd e226 873d
00000360: e7e3 5fbb 51c5 d93c 253d 98bc bd9d 38bc
00000370: 375c 9f3d c749 08be d3c3 cc3d 945a f2bd
00000380: 5e52 8c3d 42d1 263e a577 f2bd 7798 023d
00000390: a9c1 01be e874 11bc 8505 5bbd b757 b7bc
000003a0: 2c28 2d3c 7dee c53d abe8 133e ad9b f13d
000003b0: 8dac a2bc cd33 123e 06d8 d0bd 291c 1e3d
000003c0: f231 b23d 7eb2 253e 7748 fc3d 2d22 ca3d
000003d0: 7b87 a73c ec93 9abd 9901 9ebd 26fe 0a3e
000003e0: 26aa 11bc 3198 da3d 2a52 0cbe 5712 05bd
000003f0: 1f98 0bbd 4dff 38bc 6897 d4b9 78a7 203e
0.07205983 0.03069178 -0.1621361 0.12568176 -0.115812235 -0.14062129 -0.15781216 0.06293691
0.061141055 -0.0037079053 -0.021899138 -0.041382343 0.07443714 0.04439161 0.08418139 -0.12022685
-0.048624516 -0.020154253 -0.010843067 -0.09581956 0.0026162046 0.042753074 -0.0363439 0.045489766
-0.079134986 -0.01563903 -0.011308388 -0.008222096 0.10347885 -0.0073074354 -0.15416825 0.053850085
-0.04481158 -0.09407217 0.068383224 -0.062162325 -0.07879872 -0.07151242 0.10645344 0.12045052
0.069795154 -0.04779612 -0.040825304 0.014763313 0.005701791 -0.08928768 -0.059690703 0.017065546
-0.047482107 -0.06619412 -0.06681057 0.032913134 -0.061790816 -0.011430031 0.063180976 0.019816
0.0015035406 -0.14330201 -0.040654667 0.0037362794 -0.042130265 0.062659964 0.06404136 -0.036065552
-0.10326061 0.15062018 -0.051889308 0.03875053 -0.05144566 0.1299401 -0.08615407 -0.021018246
0.19917883 -0.126484 -0.14154631 0.15738928 0.023396393 0.109226435 0.024019837 0.09813668
0.04051944 -0.013899916 -0.016221091 0.06695481 0.14147338 -0.04479617 0.07799536 -0.06367629
0.006092185 0.10679973 0.002389398 0.028965605 0.01424617 -0.16672333 0.052769765 -0.12015199
0.038104124 0.092793696 0.070802025 0.12923525 -0.10308763 -0.108105846 -0.076218024 0.09141659
-0.0071131457 0.107392564 -0.08249002 0.26591998 -0.018554548 -0.06639042 0.018743107 -0.18898356
0.036694817 -0.048687145 0.033121455 -0.03249289 -0.035595834 0.10527317 0.024341816 0.13930896
-0.044531398 0.100674555 -0.12737054 -0.055274703 -0.14996585 -0.09809963 0.12834144 0.013358081
-0.031739958 0.1388608 -0.043298222 -0.052828804 0.091754705 0.14577188 -0.07391845 -0.012998371
0.03898927 -0.11672287 0.070034534 0.09537816 -0.11524327 0.0774188 -0.105530776 -0.073660776
-0.061898705 -0.07957654 0.07541994 0.02356318 -0.07408343 -0.03943789 -0.04806098 0.147205
-0.035322573 0.058312397 -0.07097104 0.035161294 -0.014183381 -0.117988095 0.12667236 0.0903356
0.051247146 -0.03440669 -0.1309078 0.12799278 0.06684459 0.034387406 0.04699581 -0.06404356
0.034220964 0.08504953 0.1093933 0.024808632 0.09368183 0.03699869 -0.11866794 0.07425355
-0.007322849 0.12296301 -0.015237309 -0.1254041 0.08697323 0.023497008 -0.06463788 0.15999651
-0.05874878 -0.017400103 0.013312435 0.15120195 0.053203743 -0.097346604 -0.0760278 0.089451656
-0.053277887 0.07336666 0.026000224 -0.05152793 0.043033347 -0.044867232 0.06719299 -0.098133914
0.0074039674 -0.07332783 0.03239182 0.10375693 -0.026445372 0.13387427 0.036917146 0.16811937
0.02645578 0.15665245 0.04506095 0.14099452 0.06428471 -0.054946963 -0.042453807 0.06599213
-0.003416294 0.026583346 -0.018583843 -0.0112680765 0.077812605 -0.13309394 0.09998288 -0.11833683
0.06851648 0.16290763 -0.11839227 0.031883683 -0.12671532 -0.00887797 -0.05347206 -0.022380693
0.01056866 0.09664629 0.14444225 0.11797271 -0.01985767 0.14277573 -0.10197453 0.038601074
0.087009326 0.1618137 0.12318509 0.098698 0.020450344 -0.07547745 -0.077151485 0.13573512
-0.008890664 0.106735595 -0.13703218 -0.032488193 -0.03408062 -0.011291337 -0.00040548597 0.15688884

rnn.weight_hh_l1 f4 [64, 64]
00000000: 69c1 72bd 2590 ad3c 66d2 0abd f80a 47bc
00000010: 8675 a93d 0ea5 103c 40d2 1e3e aa31 b0bd
00000020: b007 dfbd 23f0 d43c 1ecd 89bd ecb3 c53c
00000030: 5cc3 ca3d 5a9d dabc 1eac 5fbd 7d40 ac3d
00000040: 8ccf 183d 5b89 9ebd 7b47 99bd 05b6 1d3a
00000050: cdaa a5bc f915 afbd a655 d23d a6a9 6c3d
00000060: 8a46 20be 8c49 0bbc d8a2 9dbc 116f 563c
00000070: 5bea c7bb b263 a93d 9291 073e 62ac 2fbd
00000080: 90ef dbbc ee20 2cbd 2e94 9cbd b98c 373d
00000090: 3525 8dbc c071 14bd 92b3 c0bd 9fbc 4ebb
000000a0: 87fc f9bb 4d4d 1f3e 9594 07be 61eb f53c
000000b0: 4348 febd 5f9f 0b3d b7b1 cabd fac7 02be
000000c0: adbd e83c f0d0 ebbd 75b3 e2bd 165c c83d
000000d0: cf69 c7bc 2896 043e 540b f93d e203 5bbd
000000e0: f84d b13d cfad b3bb 8af8 703d 525f 0e3d
000000f0: e302 093e 0cef d23d f398 48bd 7de6 803c
00000100: 48a6 52bc 56ac e43d 823e 623d 390a d13b
00000110: 4c85 cf3d c6c9 f83d aa5d 87bd 59dd b73d
00000120: 0032 443c 57d2 d53c 0ad9 c83c 5047 3b3e
00000130: f833 883d 1fd3 da3d d0a8 113e a8b0 82bd
00000140: a7e4 f93d 6b11 773d bb21 24be cf50 343d
00000150: 6104 8c3d ab93 d63d 6cc5 0c3b 6ffa fe3c
00000160: ad76 b63d d888 a5bc bf77 65bd 39d1 9cbd
00000170: 4717 abbd 43ad 61bd 2d54 f63d 7f70 cf3c
00000180: 62aa 3d3d 5e36 a83c 5689 08be 0d80 653d
00000190: 7bdc c5bd 3735 0f3c cfa4 15bd 31f4 ea3c
000001a0: 993f b33d 8e22 5c3d f8ec 083e 3949 66bd
000001b0: 1382 8cbb f467 663d dfcd ad3d f072 943c
000001c0: 9a8c c93d 8327 f93c 320b d9bd 3048 903d
000001d0: d165 8c3d 6431 e5bd ccee d2bd 8f1c 0a3d
000001e0: e93f ab3c 47c1 f03c 33e9 263d 42b9 ce3c
000001f0: 5ffb bd3d 38e3 9d3d 1c19 cebd 7f9e c03c
00000200: 67aa c4bd 80a5 173d b555 893d 3d62 683d
00000210: 8941 243c feb5 8f3d 91f6 d3bd 5ca0 3fbc
00000220: aef1 033d 5ae0 85bd e884 2e3d 7f67 113e
00000230: cc80 c1bc 2a57 1f3c 521f 47bd 8de4 2cbd
00000240: 2fe1 893d 7ab4 dabd 0170 62bd b7a7 fbbd
00000250: 9c00 6c3c 030b 733d c157 f2bd ac38 21bd
00000260: b657 a33c 496d 3bbd 0cd7 283d c057 153e
00000270: f2b6 28bd f603 dfbd 35f5 93bd 8cb5 883d
00000280: 024b 0fbd 3c01 69bd 274f 403d 586d f8bd
00000290: 4fae 883d d40f ec3c ed2d 5b3d 0951 febc
000002a0: 6b38 eebb 01e4 123d b992 083d e517 e33d
000002b0: be88 c9bd 9bb2 c93d ec22 6d3d 87a3 7d3d
000002c0: c223 6bbc 7cce ccbd 1bf0 c3bd 8c16 933d
000002d0: e05b b7bd ec0b 0ebe 396d c73c 2723 9b3c
000002e0: de4a c93d 0654 c6bd 03d8 d93d 09aa f53c
000002f0: 6010 8e3b b00a d63d 14f3 a23c 7538 95bd
00000300: f62a 473d 6f45 883c 2dc3 b0bc 9053 33bd
00000310: 65d8 a03d a9e6 153d 1e5b 00be 06d2 ef3d
00000320: 6343 8fbc 8ef7 c5bc 201c f2bc 9260 f73d
00000330: d0a0 69bd 4189 8f3d 801d 0cbd b935 0bbe
00000340: 0d15 b93d 9054 9c3d c126 24be 051f c4bb
00000350: 5898 e63c 937e a2bd f371 5a3d 5527 953c
00000360: 877f 023e 4db8 923c 687c 89bd 2374 a53d
00000370: 479c 773d 8816 12bd 6d68 0dbd 1c42 f53d
00000380: 8c2a 9e3d 1e0d 733d f0d8 9e3d 6cb7 43bd
00000390: edf2 163d 5929 cc3d 750e ea3d c939 343d
000003a0: 4f9c e13d 1503 afbc 6a32 79bd e47d 9bbc
000003b0: 25bd 7b3c da03 a3bd 1343 70bd 4b62 9fbd
000003c0: 29d1 543d e69d f0ba 3c11 5ebd f518 b33c
000003d0: 8c52 9abc c317 b8bd 545c 093d 45b8 d33d
000003e0: 1db1 a03b 5b46 8e3d 940c b8bd a08a 92bd
000003f0: 4a55 0f3d 22ad 713d 11e0 383d a4ec f63d
-0.05926648 0.021186898 -0.033892058 -0.012148611 0.08274369 0.008828415 0.15509892 -0.08603223
-0.10890138 0.025993412 -0.06728576 0.024133645 0.09900543 -0.02668636 -0.054607503 0.08410738
0.037307307 -0.07741042 -0.07484337 0.0006016198 -0.020223046 -0.08549113 0.102702424 0.057778977
-0.15651909 -0.008501422 -0.019242689 0.013088004 -0.0061009354 0.082709685 0.13239124 -0.042889006
-0.02684763 -0.04202359 -0.076454505 0.044811938 -0.017229656 -0.036241293 -0.0940925 -0.0031545532
-0.0076289806 0.15556832 -0.13240273 0.030019464 -0.124161266 0.034087535 -0.09897178 -0.12771598
0.028410757 -0.11514461 -0.11069385 0.09783189 -0.024342446 0.12947905 0.12160364 -0.0534705
0.086574495 -0.005483366 0.058830775 0.034758873 0.13380007 0.10299501 -0.04897399 0.015734905
-0.012857027 0.11165683 0.055235393 0.0063793925 0.10132846 0.1214786 -0.06609662 0.089777656
0.011974812 0.026101274 0.024517555 0.18288922 0.06650537 0.106847994 0.14224553 -0.06381351
0.12201815 0.060319345 -0.16028492 0.044022378 0.06836773 0.10477384 0.0021479977 0.031125275
0.08909354 -0.020206854 -0.056022402 -0.076570936 -0.08354049 -0.055096876 0.12027774 0.025322197
0.046305068 0.020533737 -0.1333364 0.056030322 -0.09661194 0.008740715 -0.036534127 0.028680893
0.08752365 0.05374389 0.13371646 -0.056222174 -0.004287967 0.05625148 0.084865324 0.018121213
0.09841271 0.030414348 -0.105978385 0.07045019 0.068553574 -0.11191061 -0.10299453 0.03371864
0.020904498 0.029389037 0.04074974 0.025234822 0.09276461 0.07709354 -0.10063383 0.023513077
-0.09602814 0.037023067 0.067058004 0.056734312 0.01002539 0.07017134 -0.10349763 -0.0116959475
0.032212906 -0.06536932 0.042607218 0.14199637 -0.023620985 0.009725371 -0.048613854 -0.04221015
0.067324035 -0.106789544 -0.055282596 -0.122878484 0.014404442 0.059336673 -0.11833144 -0.039360687
0.019939285 -0.04575852 0.04122071 0.14584255 -0.041190095 -0.10889427 -0.07224504 0.06675252
-0.034983642 -0.056885943 0.046950486 -0.12130231 0.06673872 0.028816141 0.053510595 -0.0310445
-0.007269909 0.035861973 0.03334305 0.11088542 -0.098405346 0.098485194 0.057894632 0.06192353
-0.014351787 -0.10000321 -0.09567281 0.07182035 -0.08953071 -0.13871735 0.024344074 0.01893766
0.09828733 -0.09683995 0.10636904 0.029988306 0.004335448 0.10451257 0.0198913 -0.07286159
0.048624955 0.016634671 -0.021577442 -0.043780863 0.07853774 0.036596928 -0.12534758 0.11709981
-0.017488187 -0.024165895 -0.029554427 0.12078966 -0.05703813 0.07008601 -0.03420782 -0.13594712
0.09037218 0.076333165 -0.16030408 -0.005985143 0.028148815 -0.07934298 0.053331327 0.018207232
0.1274396 0.017910147 -0.06713182 0.08078792 0.060451772 -0.03566602 -0.034523416 0.119755
0.07722959 0.05933868 0.07756221 -0.047782347 0.036852766 0.09968824 0.11428539 0.04400042
0.110161416 -0.021363774 -0.060839094 -0.018980928 0.01536492 -0.07959719 -0.058657717 -0.0778242
0.051957283 -0.0018357604 -0.054215655 0.021862486 -0.01883819 -0.08988907 0.033535317 0.10337881
0.004903926 0.06947013 -0.08986774 -0.07155347 0.034993447 0.059003003 0.04513556 0.12056854

rnn.bias_ih_l1 f4 [64]
00000000: 1eeb 22bd 7cb5 93bd 3181 c73d 178c cabc
00000010: bd52 013e 7ecf 62bd a0f7 85bd 6339 e73d
00000020: 85f6 823d 44b9 86bb 37e0 8e3d 2c23 dd3c
00000030: ae0b efbd 13c2 d5bd 0e2c abbd d077 b73d
00000040: 4840 b0bd 8758 4ebd db9b 38bd b8f6 a63d
00000050: 8d46 ffbd 71eb 1abe 311e 7dbd 44ac 983c
00000060: 7752 ce3d b940 94bd 6e32 723d 3a11 083d
00000070: 10d4 573d c70d c6bd 28ab f33c b707 b23d
00000080: e0dc 44ba 5849 75bd 32a6 023d 037e 923d
00000090: e734 03bd 5b73 5c3d 172d e53d 7233 fa3d
000000a0: cbbc d2bb 25d7 8d3c c9ae 79bd 6977 78bd
000000b0: dc3e ea3d 9c2c de3d b48b a3bd 212b bb3d
000000c0: af67 023e ea3d aebd dac7 b33a 20e3 c8bd
000000d0: 8767 ae3d e8b7 ebbb 53c5 bcba 27f5 90bd
000000e0: 50e4 60bd df6e c7bb 06af 853d 7266 82bd
000000f0: cae9 03bd 989a a43d 886c e93d 6f7c 3b3d
-0.039775006 -0.0721235 0.09741438 -0.024725003 0.12629218 -0.05537366 -0.06541371 0.112902425
0.06394676 -0.004111441 0.06976359 0.02699431 -0.116721496 -0.10437407 -0.08358012 0.08958399
-0.08606011 -0.050377395 -0.04507051 0.081525266 -0.12464628 -0.15128876 -0.06179637 0.01863683
0.10074323 -0.07238907 0.059130125 0.033219554 0.052692473 -0.096705966 0.0297447 0.08692878
-0.00075097196 -0.0598844 0.031896777 0.07152941 -0.032032873 0.05382095 0.11190241 0.12216844
-0.0064311973 0.017314503 -0.060957704 -0.060660753 0.11437771 0.10848352 -0.07985631 0.091390856
0.12734865 -0.08507903 0.0013716177 -0.09808946 0.0851584 -0.007193554 -0.0014402069 -0.07078009
-0.054905236 -0.006086215 0.06527524 -0.06367196 -0.03220538 0.08037299 0.11397654 0.045772966

rnn.bias_hh_l1 f4 [64]
00000000: ba8a bbbc 2bfd 80bc 0e66 103e f04d c0bd
00000010: fe81 cbbd 4d25 8f3d ffb7 a53d 19d7 263d
00000020: 9f68 83bc c279 243d ff5b d63d 9b83 ceba
00000030: 4a06 ec3a bc63 053c 872f cb3d 5fb5 14be
00000040: 5945 edbd eb3f 5e3d cb45 2c3d 88ed 48bd
00000050: bcae 0ebe efd2 b3bd 27c7 c53d 386e 5d3d
00000060: 902e 453c 0e5f b0bc ba06 5c3d 5dc5 933d
00000070: 60d2 dbbd 196d 85bd 5c58 a23d e103 9d3d
00000080: 804a e2bd 909e 73bd 2e05 003e 8c17 21be
00000090: 2908 1d3d 5a91 78bd 8ce7 823b 1328 babd
000000a0: 7f8f 683c b878 30bc b5dc 813d bdfe 12bb
000000b0: fc93 bbbd ae1f 173d f9c0 bcbd db88 963d
000000c0: 696c 8cbd f739 6fbc 714e a03d f930 d3bd
000000d0: c7f6 b0bd 69d9 c9bc 7a92 913d 64d7 2cbd
000000e0: 457e 993c f34c cfbd 4d19 7dbd 7994 123e
000000f0: e955 a73d 6385 61bd f879 073d 9544 e93d
-0.022893298 -0.01574572 0.14101431 -0.093898654 -0.099369034 0.069895364 0.08091735 0.040732477
-0.016041098 0.04015518 0.104667656 -0.0015755774 0.0018007245 0.008141454 0.099211745 -0.14522313
-0.11585493 0.054260176 0.042058747 -0.049054652 -0.13933843 -0.08780467 0.09657126 0.05406019
0.012035027 -0.0215297 0.053717352 0.072153784 -0.10733485 -0.06514949 0.079270095 0.076667555
-0.11049366 -0.05947739 0.12501976 -0.15731639 0.03833786 -0.060685493 0.0039948877 -0.09089675
0.014194368 -0.010770969 0.06340925 -0.0022429668 -0.09159085 0.036895446 -0.09216494 0.07350322
-0.06856615 -0.014601222 0.078274615 -0.10312075 -0.08640819 -0.024639802 0.07108016 -0.0421976
0.018736968 -0.10122099 -0.061791707 0.1431445 0.08170683 -0.055058848 0.033075303 0.11390034

fc.weight f4 [1, 64]
00000000: dd6b 8dbe 8ade 773e de49 7e3e 114d 613e
00000010: c914 1f3e fc2d 21be ee17 163e 74ee 153e
00000020: 231e 6a3e 5916 5f3e 3f2a 333e ffca 2e3e
00000030: 9db2 193e 3c21 453e e547 6f3e a7e1 81be
00000040: 9f17 50be a677 6dbe e9f6 1cbe 4a86 00be
00000050: 6d18 5dbe 533b 64be 73b6 46be 1618 7e3e
00000060: 529d 423e 0000 42be a67e 25be 587b 5e3e
00000070: 3f3c 55be 1448 62be 3c4d 67be 5772 46be
00000080: 7662 43be ff92 55be 2c62 16be 5fd9 42be
00000090: 8707 5e3e b5d2 65be 46c2 513e dac8 873e
000000a0: bb6d 80be 26d7 76be 4657 433e ad39 6b3e
000000b0: 3d23 813e 33d5 583e 988e 2b3e d5e5 583e
000000c0: 47be 20be a291 6dbe 9447 423e 21a3 86be
000000d0: 7858 41be a886 21be 7946 703e 89a7 603e
000000e0: 45fb 173e a961 53be a34b 6ebe 7e7b 723e
000000f0: fbc3 81be 2abb 28be 93b0 453e 7a93 753e
-0.27621356 0.24205986 0.24832866 0.22002055 0.15535273 -0.15740198 0.14657566 0.14641744
0.22863059 0.21785869 0.17496584 0.17069624 0.15009542 0.19250959 0.2336727 -0.25367472
-0.2032151 -0.23190174 -0.15328564 -0.12551227 -0.21591349 -0.22288255 -0.19405536 0.24813876
0.19005325 -0.18945312 -0.16161594 0.2172674 -0.20823763 -0.22097808 -0.22588056 -0.19379555
-0.19080529 -0.20856856 -0.14685887 -0.19028233 0.21682559 -0.2244366 0.20484266 0.26520425
-0.25083718 -0.2410551 0.19076261 0.2297122 0.25222197 0.21175079 0.16753614 0.21181424
-0.15697585 -0.23200086 0.18972617 -0.26296332 -0.18881404 -0.15774024 0.23464383 0.2193891
0.14841945 -0.20642723 -0.2327104 0.23679921 -0.25344834 -0.16477647 0.19305639 0.23982039
