16 - Recurrent Neural Network/model/rnn/weights_50.pth (torch, 53191 bytes, 9 tensors)

rnn.weight_ih_l0 f4 [64, 1]
0	0xbe00cf73	-0.12579136
1	0x3d8ff6e9	0.07029516
2	0x3e0258a5	0.12729128
3	0xbe103f6c	-0.14086694
4	0x3db20c52	0.08693756
5	0x3d97435e	0.07385896
6	0x3e1717bc	0.14755148
7	0x3cdff870	0.027340144
8	0x3d5f2e1a	0.054487325
9	0xbdeaf806	-0.11473088
10	0xbdc42e97	-0.09579199
11	0x3e120378	0.14259136
12	0xbdfb59f6	-0.12273018
13	0x3daabcaa	0.08336766
14	0xbd9aee5b	-0.07564994
15	0x3dfd5f65	0.12371711
16	0xbd9ee794	-0.07759014
17	0xbac2367a	-0.0014817261
18	0x3dadde07	0.08489614
19	0x3d923df9	0.071407266
20	0x3dbafa0a	0.091297224
21	0xbe0553a3	-0.13020186
22	0x3d59bf1f	0.053160783
23	0x3e05d5ca	0.13069835
24	0xbd80add3	-0.06283154
25	0x3d8b0afe	0.06789206
26	0x3e04e69b	0.12978594
27	0xbe1c28cc	-0.15249938
28	0xbd8df208	-0.069309294
29	0xbda12b7f	-0.07869624
30	0x3dfa0c6e	0.12209402
31	0xbdb7a046	-0.089661166
32	0xbdf3e132	-0.11908187
33	0x3d8692b4	0.0657095
34	0xbd9d2acd	-0.07674179
35	0x3d9cbfd3	0.07653775
36	0xbd4d752b	-0.05016057
37	0x3d8c65c9	0.068553515
38	0xbdf9b27b	-0.121922456
39	0xbdfdec35	-0.123985685
40	0x3dd9a49e	0.10627101
41	0x3c4e5ef8	0.0125958845
42	0x3e177127	0.14789258
43	0x3d44f798	0.048087686
44	0xbda82ca5	-0.0821164
45	0x3e06da7b	0.13169281
46	0xbdd15e17	-0.10223024
47	0xbdd456a3	-0.10368087
48	0xbdd4070d	-0.10352907
49	0x3d9ca521	0.07648683
50	0x3d38c54b	0.04511003
51	0xbd3be4af	-0.045872387
52	0xbdc4f8e5	-0.09617785
53	0x3e087879	0.13327207
54	0xbdd64841	-0.10463
55	0x3d656fc5	0.056014795
56	0x3dc4bf43	0.09606793
57	0x3e0debb1	0.1385944
58	0xbd9afb59	-0.07567472
59	0x3d4abe7f	0.049498077
60	0xbd0bc6fa	-0.034125306
61	0xbe034776	-0.12820229
62	0x3d7aaa90	0.061197817
63	0x3da7843c	0.081795186

rnn.weight_hh_l0 f4 [64, 64]
0	0x3d5d4462	0.054020293
1	0x3d8ba4db	0.06818553
2	0x3ca2cf94	0.019874372
3	0xbcafdf4c	-0.021468781
4	0x3d526732	0.051367946
5	0xbd87781d	-0.06614707
6	0x3d5918bc	0.053002104
7	0xbcd59644	-0.026072629
8	0xbe07a19d	-0.13245244
9	0xbcb069c2	-0.021534804
10	0x3da354fd	0.079751946
11	0xbe0543bb	-0.13014118
12	0xbda6dcfc	-0.08147618
13	0x3cd3b011	0.025840791
14	0xbd03cfc2	-0.032180555
15	0x3d921527	0.07132941
16	0xbccbf898	-0.024898812
17	0xbe079d0b	-0.13243501
18	0x3d885183	0.06656172
19	0xbbc0aa4b	-0.0058796755
20	0x3cc395dc	0.02387517
21	0xbd15926a	-0.036516584
22	0xbd8e698f	-0.069537275
23	0x3d2f2708	0.042761832
24	0x3e15c891	0.14627291
25	0xbb0cc90d	-0.002148214
26	0x3cff7f3d	0.031188602
27	0xbd81c465	-0.063362874
28	0x3d8edd85	0.06975845
29	0x3d91a5db	0.071117125
30	0xbe0b88c4	-0.1362639
31	0x3cff208c	0.03114345
32	0xbd0c7529	-0.03429142
33	0xbd970b5f	-0.07375216
34	0xbcac8e07	-0.021063818
35	0xbc8a6ab2	-0.01689658
36	0xbd6997b1	-0.05702943
37	0xbdacc57c	-0.08436105
38	0x3e0301c5	0.12793644
39	0x3dd97d6f	0.10619628
40	0xbdf42bbc	-0.11922404
41	0xbd3a1e7b	-0.045439225
42	0xbdefaea9	-0.11703236
43	0x3d8e2c02	0.069419876
44	0xbd48cb96	-0.04902228
45	0x3d1a35cc	0.03764896
46	0xbcec048c	-0.028810762
47	0xbdb87e5f	-0.090084784
48	0x3c0cbd75	0.008590092
49	0x3bfe53a1	0.007761434
50	0xbc8fb472	-0.017542098
51	0x3c845dd9	0.016158031
52	0x3d1a5e3d	0.03768753
53	0xbd00a0fd	-0.03140353
54	0x3d605cac	0.05477588
55	0xbe1132b5	-0.141795
56	0x3d6986e6	0.057013415
57	0xbdcdba77	-0.10045331
58	0x3dbfbb57	0.09361904
59	0xbc9f8ce0	-0.019476354
60	0xbd1a68f2	-0.03769774
61	0x3d44b1b0	0.04802102
62	0x3da931e9	0.08261473
63	0xbc31a266	-0.010841941
64	0x3d0913ba	0.03346608
65	0x3d7140ed	0.05889981
66	0x3e0bcdd4	0.13652736
67	0xbe018916	-0.1264995
68	0xbd1d16ce	-0.038351826
69	0x3d0f2d74	0.034955457
70	0x3dc0d021	0.094146974
71	0x3cd27524	0.025690623
72	0x3e00df93	0.12585287
73	0xbdb82a36	-0.08992426
74	0x3d228948	0.039681703
75	0x3d14c25c	0.036318168
76	0xbde2453e	-0.11048363
77	0xbd56714d	-0.052354146
78	0x3d19a8d6	0.03751453
79	0x3cf71e99	0.030165957
80	0xbc35a05a	-0.011085594
81	0x3dd3ddde	0.10345052
82	0x3d0d2409	0.034458194
83	0xbd7267b8	-0.059180945
84	0xbce57b6d	-0.028012956
85	0x3d052858	0.032509178
86	0x3c2e1aad	0.010626477
87	0x3d3b69c7	0.045755174
88	0x3d9de786	0.07710175
89	0x3d1d4f6a	0.038405813
90	0xbb2c9e17	-0.0026339346
91	0x3dcd6ff9	0.10031123
92	0xbddcd233	-0.1078228
93	0xbd96e0da	-0.07367106
94	0xbd8fffdb	-0.070312224
95	0x3c0816c4	0.008306209
96	0xbc1ee201	-0.009697438
97	0x3d6c1b94	0.057643488
98	0xbdb7a89d	-0.08967707
99	0xbd6e08a6	-0.058113717
100	0x3db27654	0.087139755
101	0x3d5a34bf	0.05327296
102	0xbdfa8abe	-0.12233494
103	0xbcaa9609	-0.020823495
104	0x3ccaf1b0	0.024773449
105	0xbcbbc28a	-0.022919912
106	0x3dd1d935	0.10246507
107	0x3dd43f22	0.10363604
108	0xbd4085e9	-0.047002707
109	0xbd05d1d2	-0.032670803
110	0xbdbdc2f0	-0.09265697
111	0x3d8e90a0	0.06961179
112	0x3ca4daf1	0.02012393
113	0x3de1eb50	0.110312104
114	0xbdc87762	-0.097883955
115	0x3c1dfb20	0.009642392
116	0xbdb53690	-0.088482976
117	0xbcefbb9f	-0.02926427
118	0x3d6caf2e	0.057784252
119	0x3e1cf181	0.15326501
120	0xbc103977	-0.008802763
121	0xbcb1c931	-0.02170238
122	0xbd4a6fca	-0.049423017
123	0x3d9a8568	0.075449765
124	0x3cb4c83d	0.022068137
125	0xbd34a492	-0.04410226
126	0xbd58eaac	-0.052958176
127	0xbdb8bec4	-0.09020761
128	0xbdf339f6	-0.118762895
129	0xbc658952	-0.0140097905
130	0x3dcf5686	0.10123925
131	0xbdc1a8ea	-0.09456046
132	0x3c36e8bd	0.011163888
133	0xbdfb1c6d	-0.12261281
134	0x3d791cb7	0.0608184
135	0x3c2b3421	0.01044944
136	0x3da8bd7f	0.082392685
137	0x3d82ed10	0.06392872
138	0xbda2834c	-0.07935199
139	0x3a5ed933	0.0008500993
140	0x3d2fed69	0.04295102
141	0xbd9364eb	-0.07196983
142	0x3ddeddc9	0.10882146
143	0x3d8db03e	0.06918381
144	0x3de6bf49	0.112669535
145	0xbded9e1f	-0.11602425
146	0xbd04d821	-0.03243268
147	0x3dfaf1c4	0.122531444
148	0x3d3f337b	0.046679955
149	0xbdd52098	-0.104066074
150	0xbd012c82	-0.031536587
151	0xbd588526	-0.052861355
152	0x3d2bb04c	0.041916177
153	0xbda4a2d6	-0.08038871
154	0x3ceb489a	0.028721143
155	0x3e0023e2	0.12513688
156	0xbd2a51e3	-0.041582
157	0x3d3255eb	0.04353897
158	0x3baa61aa	0.0051996307
159	0xbddaf88d	-0.106919385
160	0x3d455dd8	0.0481852
161	0xbdc25d07	-0.094904
162	0x3dea988b	0.114548765
163	0x3c519ada	0.012793267
164	0x3db65fe7	0.08905011
165	0xbd1d78fc	-0.038445458
166	0xbde29038	-0.11062664
167	0x3d5af1c3	0.05345322
168	0x3de2a25e	0.11066125
169	0x3b0a52e9	0.0021106547
170	0xbc073e37	-0.008254579
171	0xbd5466d9	-0.051855896
172	0x3c47e938	0.0122016
173	0xbcdeb85c	-0.027187519
174	0xbd57de9f	-0.052702542
175	0xbd60f7aa	-0.05492369
176	0x3e01eeb3	0.12688713
177	0x3d77cc04	0.0604973
178	0x3d349c72	0.04409451
179	0xbdfbe20a	-0.12298973
180	0xbdefeb48	-0.11714798
181	0xbc02e78b	-0.007989774
182	0x3bf579fe	0.0074913492
183	0xbc93d5f2	-0.018046353
184	0x3cc01e4a	0.023451943
185	0x3cb7b205	0.022423754
186	0xbd86025c	-0.06543419
187	0xbd52e00f	-0.05148321
188	0x3de8aadb	0.11360713
189	0xbd7561d0	-0.059907734
190	0x3c733975	0.014845242
191	0xbd5cd387	-0.053912666
192	0xbda601ed	-0.08105836
193	0x3d1e5611	0.038656298
194	0xbd99df2c	-0.0751327
195	0x3de5d27c	0.11221787
196	0xbdf0af08	-0.117521346
197	0xbd619a07	-0.055078533
198	0x3d3e9ec7	0.04653814
199	0x3c6f596f	0.014608725
200	0xbe102147	-0.14075194
201	0xbd56707f	-0.05235338
202	0x3c57bb4d	0.013167215
203	0x3d0e9c48	0.03481701
204	0x3e0cc67e	0.13747594
205	0xbdc9b87e	-0.09849642
206	0xbc1e02aa	-0.00964419
207	0xbdf35bae	-0.11882721
208	0x3d29ffae	0.0415036
209	0x3c9de11b	0.019272378
210	0xbb44b5ba	-0.0030015544
211	0xbc64cbd3	-0.013964611
212	0x3c96effb	0.018424978
213	0x3d23caca	0.039988317
214	0x3d7d688e	0.06186729
215	0x3d80eeca	0.062955454
216	0x3dc0ec48	0.09420067
217	0x3d3a105a	0.04542575
218	0x3d5aaaa7	0.053385403
219	0x3dc03ad2	0.09386219
220	0xbc7abd3a	-0.015303904
221	0xbcc334cf	-0.023828892
222	0xbcce51de	-0.025185522
223	0xbcbda2c5	-0.023148904
224	0x3dd68818	0.104751766
225	0x3d2ee415	0.042697985
226	0x3dc59130	0.09646833
227	0xbd86d3a1	-0.06583334
228	0x3d11427c	0.035463795
229	0xbc2789c8	-0.010225721
230	0x3d313406	0.043262504
231	0xbd6ae458	-0.05734667
232	0xbc8c570c	-0.017131351
233	0x3d651921	0.055932168
234	0x3cfc06ce	0.030764963
235	0xbcdfa6d3	-0.027301228
236	0x3dcfd020	0.101471186
237	0xbd9de93c	-0.077105016
238	0xbc0ce53d	-0.008599577
239	0x3de290d4	0.1106278
240	0xbdba3a92	-0.09093203
241	0xbdb04ab2	-0.08607997
242	0xbda45466	-0.0802391
243	0xbd6414ec	-0.055684015
244	0xbd9d4653	-0.07679429
245	0xbd811273	-0.06302347
246	0xbd7d6792	-0.06186635
247	0xbca717e9	-0.020397143
248	0xbde6a678	-0.1126222
249	0x3d8abf2d	0.06774745
250	0xbc1b04e7	-0.009461618
251	0xbe099456	-0.13435492
252	0x3ca7bb22	0.020474974
253	0xbd1925cd	-0.037389565
254	0xbdebd5b9	-0.11515374
255	0xbdc07d11	-0.093988545

rnn.bias_ih_l0 f4 [64]
0	0x3d4178f7	0.0472345
1	0x3e008722	0.12551549
2	0xbde36746	-0.11103682
3	0xbdeb1a00	-0.114795685
4	0x3e20ef80	0.15716362
5	0x3dcc44a4	0.0997403
6	0x3cb0c36b	0.021577558
7	0x3dbf1d15	0.09331719
8	0x3dbb0565	0.09131888
9	0x3da9b7e9	0.08287031
10	0x3c3a94ef	0.011388048
11	0x3ca3ebc7	0.020009888
12	0xbe0a48da	-0.13504353
13	0xbd39ebce	-0.045390896
14	0xbe130612	-0.14357784
15	0xbc868be9	-0.016424136
16	0xbe2d2fb9	-0.16912736
17	0xbd0337aa	-0.032035507
18	0x3dec1edd	0.11529324
19	0xbc3c5d3b	-0.011496837
20	0x3df90a9a	0.12160225
21	0x3cb610cd	0.022224808
22	0x3dce9436	0.10086863
23	0x3dc7c1bc	0.09753749
24	0xbd8c5e8a	-0.068539694
25	0x3e25ea09	0.16202559
26	0x3df21b38	0.11821598
27	0xbd6f42a0	-0.058413148
28	0xbdb07286	-0.086155936
29	0x3d5f052b	0.054448288
30	0xbd6c6d39	-0.05772135
31	0xbce96382	-0.028489832
32	0xbd9c4fcd	-0.07632408
33	0xbd80da51	-0.062916405
34	0xbd9a4d55	-0.07534281
35	0x3b583e0b	0.0032995965
36	0xbd42453b	-0.047429305
37	0x3d2a1328	0.041522175
38	0x3d9069ea	0.070514515
39	0x3d455bb5	0.04818316
40	0x3d9cb545	0.07651762
41	0x3d97924a	0.07400949
42	0x3c03f617	0.008054278
43	0xbbcbfcb6	-0.006225194
44	0x3d4840df	0.04888999
45	0x3dfd72e6	0.12375431
46	0x3dba987e	0.09111117
47	0x3b2e7090	0.0026617385
48	0x3d6116c8	0.054953367
49	0xbd6d36cd	-0.05791359
50	0xbdbb7621	-0.09153391
51	0xbe1650b9	-0.14679231
52	0x3cb8c3f9	0.022554385
53	0x3dfb1f36	0.122618124
54	0xbd013a53	-0.031549763
55	0x3d7808b0	0.06055516
56	0xbc9c5c27	-0.01908691
57	0x3b64b633	0.0034898638
58	0x3d05c441	0.032657865
59	0x3dca1dd3	0.0986897
60	0xbd905d8a	-0.07049091
61	0x3dca9560	0.09891772
62	0x3e1c778c	0.15279979
63	0x3d749d46	0.0597203

rnn.bias_hh_l0 f4 [64]
0	0xbd9c0ecb	-0.07620009
1	0x3e10ca77	0.14139734
2	0x3be155a4	0.0068766642
3	0x3d512b4d	0.051066685
4	0x3dca0aa7	0.09865313
5	0x3dd09b17	0.10185831
6	0x3d11a2a9	0.035555515
7	0x3c7edda8	0.015555777
8	0x3d5a94c4	0.05336453
9	0x3d1d8f17	0.03846654
10	0xbc8bb98d	-0.017056251
11	0xbd679299	-0.05653629
12	0xbd5671e4	-0.05235471
13	0x3df94a5b	0.12172385
14	0xbe13da3f	-0.14438723
15	0x3da974f9	0.08274264
16	0xbd841e4d	-0.06451092
17	0xbd975f42	-0.07391216
18	0x3bc3b6c4	0.005972715
19	0xbd0c7d5c	-0.03429924
20	0xbcccb61c	-0.02498918
21	0x3d833499	0.064065166
22	0xbbd84f8e	-0.0066012805
23	0xbd4e5f21	-0.05038369
24	0xbe15da60	-0.14634085
25	0x3dc8bb3d	0.09801338
26	0xbcdd08d9	-0.026981758
27	0xbe04e50e	-0.12978002
28	0xbd971c3a	-0.07378431
29	0xbd10bc1f	-0.035335656
30	0x3de551e9	0.11197264
31	0xbe1e013c	-0.15430158
32	0x3dac34b8	0.08408493
33	0x3d6549ef	0.05597871
34	0xbdfdf072	-0.12399377
35	0x399d6eec	0.00030028017
36	0x3ca85e5f	0.020552812
37	0x3d15a27a	0.036531903
38	0x3da167b2	0.078811064
39	0xbc394673	-0.0113083
40	0x3ba69d1c	0.005084647
41	0xbce3e063	-0.027816957
42	0x3c18691b	0.009302403
43	0xbdbbc03d	-0.09167526
44	0xbc1757df	-0.009237259
45	0xbcf3363b	-0.029688945
46	0xbdb12fc3	-0.08651688
47	0xbdf84ac5	-0.12123636
48	0xbd664232	-0.056215473
49	0xbd8e3fef	-0.06945788
50	0x3ddc1a76	0.107472345
51	0xbe2c5eb7	-0.16833006
52	0x3c115072	0.008869277
53	0xbd8ace50	-0.06777632
54	0xbc213523	-0.009839329
55	0x3ddd5f13	0.108091496
56	0x3d9dc8cf	0.07704317
57	0x3b0e2f0a	0.0021695518
58	0x3da65bde	0.08122991
59	0x3c857a4a	0.016293664
60	0xbd9bab5d	-0.07601044
61	0xbd56461a	-0.052312948
62	0xbd8fba11	-0.07017911
63	0xbd609262	-0.0548271

rnn.weight_ih_l1 f4 [64, 64]
0	0x3d9209c8	0.07130772
1	0x3ce93ad1	0.028470429
2	0xbe1d538d	-0.15363903
3	0x3e03c7ef	0.12869237
4	0xbdfc4a07	-0.12318807
5	0xbe1a5311	-0.1507075
6	0xbe29c8e3	-0.16580538
7	0x3d8327f4	0.06404105
8	0x3d93eb68	0.072226346
9	0xbc19a42a	-0.009377519
10	0xbca2db84	-0.019880064
11	0xbd1148a9	-0.035469685
12	0x3da0dac4	0.07854226
13	0x3d1f75f3	0.038930845
14	0x3dbdf728	0.09275657
15	0xbdf31edc	-0.1187112
16	0xbd148e69	-0.036268625
17	0xbc5bddcd	-0.013419581
18	0xbc9e31a7	-0.019310785
19	0xbdcc8117	-0.099855594
20	0x3bd05418	0.006357681
21	0x3d2b8f52	0.041884728
22	0xbd213ece	-0.039366536
23	0x3d1f40fa	0.038880326
24	0xbd9171b5	-0.07101766
25	0xbcfddc52	-0.030988846
26	0xbc91c608	-0.017794624
27	0x3a3f8b87	0.0007306863
28	0x3dde629e	0.108586535
29	0xbc70d488	-0.014699109
30	0xbe1b38bb	-0.1515836
31	0x3d74afbb	0.059737902
32	0xbd1e57ee	-0.038658075
33	0xbdc2e030	-0.095154166
34	0x3d990c4d	0.07473049
35	0xbd64c0c0	-0.055847883
36	0xbd94554d	-0.07242832
37	0xbda91635	-0.08256189
38	0x3dc8f3a4	0.09812096
39	0x3dff1837	0.124557905
40	0x3d86d0d8	0.065828025
41	0xbd5fe248	-0.054659158
42	0xbd2eaf51	-0.042647664
43	0x3dac5936	0.08415453
44	0x38faa2dd	0.000119512646
45	0xbdc11ab5	-0.09428922
46	0xbd80d65d	-0.062908866
47	0x3c2d9919	0.010595583
48	0xbd2db56b	-0.04240934
49	0xbd6e0255	-0.058107693
50	0xbd8b0e74	-0.06789866
51	0x3d433b2a	0.047663845
52	0xbd8fbc1c	-0.07018301
53	0xbc3f760f	-0.011685862
54	0x3d8b733c	0.068090886
55	0x3c219889	0.009863027
56	0xbbdf5e6a	-0.006816675
57	0xbe10da49	-0.14145769
58	0xbd23d6ad	-0.039999653
59	0xbb0dda9e	-0.0021645199
60	0xbd43298c	-0.047647044
61	0x3d6744c6	0.05646207
62	0x3d6c9cd8	0.057766765
63	0xbd123c43	-0.035702
64	0xbdc633f0	-0.09677875
65	0x3e1cc652	0.15310028
66	0xbdae48c1	-0.085099705
67	0x3d002a9f	0.031290647
68	0xbd0dd9f8	-0.0346317
69	0x3e23db66	0.16001663
70	0xbd8acde8	-0.06777555
71	0xbcd3fbaa	-0.025876839
72	0x3e1fc371	0.15601899
73	0xbde31bc3	-0.110892795
74	0xbe1bfad7	-0.15232407
75	0x3e02b423	0.12764029
76	0x3c879868	0.016552165
77	0x3e037810	0.12838769
78	0x3a3cacea	0.0007197397
79	0x3db32907	0.0874806
80	0x39732f82	0.00023191984
81	0xbcf4e171	-0.029892655
82	0x3b50483e	0.003178134
83	0x3daa28ce	0.08308564
84	0x3df47677	0.11936658
85	0xbd23e546	-0.040013574
86	0x3dbb2014	0.09136978
87	0xbd43f6a0	-0.04784262
88	0xbc8d7b35	-0.017270664
89	0x3e18ba1b	0.14914744
90	0x3c923333	0.01784668
91	0x3bf18ef1	0.0073717763
92	0xbabd4349	-0.0014439608
93	0xbe18228c	-0.14856929
94	0x3d275eba	0.040861823
95	0xbe0c9517	-0.13728748
96	0x3ca522d0	0.020158201
97	0x3dc3693d	0.09541557
98	0x3d67fca3	0.056637418
99	0x3de02a83	0.109456085
100	0xbdea3977	-0.11436742
101	0xbd87d4ce	-0.06632386
102	0xbd48fb15	-0.049067575
103	0x3db12145	0.08648924
104	0x3b5b6535	0.0033477072
105	0x3e0f5dc3	0.14000611
106	0xbd96cfd8	-0.07363862
107	0x3e0eef2d	0.13958426
108	0xb87a8267	-5.972609e-05
109	0xbd5f5daa	-0.054532684
110	0x3d0f982b	0.035057228
111	0xbe21a6d1	-0.15786292
112	0x3cad1693	0.021128928
113	0xbd927234	-0.07150689
114	0x3d5fe240	0.05465913
115	0xbd8f3d60	-0.06994128
116	0xbba50b7a	-0.0050367685
117	0x3dd6f70e	0.10496341
118	0x3c1915b9	0.009343558
119	0x3e2cb98b	0.16867654
120	0xbcc744ba	-0.024324764
121	0x3dbd8239	0.092533536
122	0xbe101dec	-0.14073914
123	0xbd023997	-0.031793203
124	0xbe0d835e	-0.13819644
125	0xbd941339	-0.07230229
126	0x3e19b31a	0.15009728
127	0x3c1b4448	0.009476729
128	0xbd0dc93f	-0.03461575
129	0x3e12cfaf	0.14337038
130	0xbd3a8934	-0.045541003
131	0xbd660ae3	-0.056162726
132	0x3dc97143	0.09836056
133	0x3e1fa810	0.15591455
134	0xbd8c6e8d	-0.068570234
135	0xbc43ce62	-0.011951061
136	0x3d23868c	0.039923236
137	0xbdeeac6c	-0.116539806
138	0x3d8bf539	0.06833882
139	0x3dc3edc1	0.09566832
140	0xbdf6411e	-0.12024139
141	0x3da6ec02	0.08150484
142	0xbde7b54f	-0.11313879
143	0xbd938756	-0.07203548
144	0xbd9695f5	-0.07352821
145	0xbda9a182	-0.08282758
146	0x3da6989f	0.08134579
147	0x3ce8cc6d	0.02841779
148	0xbd9536ad	-0.07285819
149	0xbd2daf18	-0.04240331
150	0xbd39f64e	-0.04540091
151	0x3e1c8429	0.1528479
152	0xbd2bd744	-0.04195334
153	0x3d93ee1a	0.07223149
154	0xbd877b2f	-0.06615292
155	0x3cef1c4d	0.0291883
156	0xbc9756bf	-0.018473981
157	0xbdf08a42	-0.117451206
158	0x3e030979	0.12796582
159	0x3db0f5ad	0.08640609
160	0x3d3ff0e7	0.0468606
161	0xbcf7abea	-0.030233342
162	0xbe0bb9fe	-0.13645169
163	0x3e021f5b	0.12707274
164	0x3d5f8c55	0.05457719
165	0x3d3ca6a7	0.04605737
166	0x3d4c0012	0.049804755
167	0xbd8b610f	-0.06805622
168	0x3d1caf09	0.038252864
169	0x3db7a08d	0.089661695
170	0x3de53ce2	0.11193253
171	0x3bc475d1	0.00599549
172	0x3dc123b5	0.09430639
173	0x3d292b69	0.041301165
174	0xbdf5d1e5	-0.12002925
175	0x3d963366	0.07334022
176	0xbc2dc6db	-0.010606493
177	0x3df71b58	0.12065762
178	0xbc6002f9	-0.013672584
179	0xbe11ef45	-0.1425143
180	0x3db42c54	0.087975174
181	0x3cd66a35	0.02617369
182	0xbd8bcd59	-0.06826276
183	0x3e349b0b	0.17637269
184	0xbd59cf20	-0.053176045
185	0xbc7a105f	-0.015262692
186	0x3c4af735	0.01238804
187	0x3e1f762c	0.15572423
188	0x3d579671	0.052633706
189	0xbdc8d65f	-0.09806513
190	0xbd92f4e3	-0.07175615
191	0x3dbc1e63	0.09185483
192	0xbd29e0e2	-0.04147423
193	0x3d8f8f12	0.0700971
194	0xbb8546ab	-0.004067262
195	0xbd689cb5	-0.056790072
196	0x3d5bd462	0.05366934
197	0xbcd47e00	-0.025938988
198	0x3daabdba	0.08336969
199	0xbddaa9ba	-0.10676904
200	0xbd2d41da	-0.04229913
201	0xbd5a8bc5	-0.05335595
202	0x3cce61c8	0.02519311
203	0x3d9cfa54	0.07664934
204	0xbcf405de	-0.029787954
205	0x3e19400a	0.14965835
206	0x3c931519	0.017954396
207	0x3e1e0916	0.15433154
208	0xbbbbf6f6	-0.005736227
209	0x3e107eb3	0.14110832
210	0x3d79cd7e	0.06098699
211	0x3e1ab64c	0.15108603
212	0x3d2e3bff	0.042537685
213	0xbd3c44a8	-0.045963913
214	0xbd0dd640	-0.034628153
215	0x3da21c39	0.07915539
216	0xbcb6d4ca	-0.022318263
217	0x3d7ac359	0.061221454
218	0xbbb829d5	-0.005620221
219	0xbcf3458f	-0.029696254
220	0x3d871092	0.065949574
221	0xbddb7877	-0.10716336
222	0x3dac7874	0.08421412
223	0xbe07a43b	-0.13246243
224	0x3d5bae36	0.053632937
225	0x3e26132b	0.1621825
226	0xbe044f48	-0.12920868
227	0x3c1593ae	0.009129448
228	0xbe08f5d3	-0.13375024
229	0x3cc8560a	0.02445509
230	0xbcdf8631	-0.027285667
231	0xbcdfb049	-0.027305739
232	0x3c92a2cf	0.017899899
233	0x3df48963	0.11940267
234	0x3e1a1e72	0.15050676
235	0xbd1210f1	-0.035660688
236	0x3aa2f302	0.0012432041
237	0x3e1c1519	0.15242423
238	0xbdb0b889	-0.08628947
239	0x3d975bbf	0.07390546
240	0x3d97c8f3	0.07411375
241	0x3e0ccfea	0.13751188
242	0x3e0b350b	0.13594453
243	0x3d8ab915	0.06773583
244	0x3d54a821	0.051918153
245	0xbda77e19	-0.08178348
246	0xbdb781e0	-0.089603186
247	0x3e206d01	0.15666582
248	0x3c08ee6f	0.008357628
249	0x3dbc6170	0.09198272
250	0xbe15950c	-0.14607638
251	0xbc658ad1	-0.014010147
252	0xbc40ff21	-0.0117795775
253	0x3c793feb	0.015212993
254	0x3c85e696	0.016345304
255	0x3e1a113f	0.15045641

rnn.weight_hh_l1 f4 [64, 64]
0	0xbd697620	-0.05699742
1	0x3c8def7a	0.017326105
2	0xbd183f23	-0.037169587
3	0xbc94dc54	-0.018171467
4	0x3da302ef	0.07959544
5	0x3c3aea5e	0.011408417
6	0x3e1c9e65	0.15294798
7	0xbdb4ac91	-0.08821977
8	0xbde30e04	-0.11086658
9	0x3cc261a3	0.023728197
10	0xbd8ec30c	-0.06970796
11	0x3cab5b73	0.02091763
12	0x3dc04384	0.093878776
13	0xbce9717f	-0.028496502
14	0xbd659b12	-0.05605609
15	0x3db21e43	0.08697178
16	0x3d2d4da8	0.042310387
17	0xbd96a982	-0.0735655
18	0xbd9a350e	-0.07529651
19	0x3af0a126	0.0018358573
20	0xbc94a09e	-0.018142994
21	0xbda4182a	-0.080124214
22	0x3ddfd966	0.10930137
23	0x3d66b2db	0.056322914
24	0xbe24774e	-0.16061136
25	0xbbcce413	-0.0062527745
26	0xbc6bae19	-0.01438477
27	0x3c25c114	0.010116834
28	0xbb8506b1	-0.0040596356
29	0x3daf5d84	0.085627586
30	0x3e0a85ea	0.13527647
31	0xbd221920	-0.039574742
32	0xbc5dc88b	-0.013536583
33	0xbd2150a5	-0.03938355
34	0xbd8e436f	-0.06946456
35	0x3d4e6f10	0.050398886
36	0xbca6b5de	-0.020350393
37	0xbced6bb9	-0.02898203
38	0xbdc5687e	-0.09639071
39	0xbbb5480e	-0.005532271
40	0xbb98ff5e	-0.004669114
41	0x3e2163a9	0.15760674
42	0xbe0bc04e	-0.13647577
43	0x3ce19417	0.027536435
44	0xbe025a7d	-0.12729831
45	0x3d022574	0.031774
46	0xbdcbc82b	-0.099502884
47	0xbe050b05	-0.12992485
48	0x3d375af1	0.044764463
49	0xbde80a0d	-0.11330042
50	0xbded43b4	-0.11585179
51	0x3dcfb77d	0.101424195
52	0xbcadbd39	-0.021208392
53	0x3e069b9f	0.13145302
54	0x3df53520	0.119730234
55	0xbd65b8a9	-0.05608431
56	0x3da7f9af	0.0820192
57	0xbb6e5e3f	-0.0036372093
58	0x3d89dfa4	0.06732109
59	0x3ceca403	0.0288868
60	0x3e0af1c6	0.13568792
61	0x3dd9bc06	0.10631566
62	0xbd51b004	-0.051193252
63	0x3c605ff1	0.013694749
64	0xbd01f813	-0.031730723
65	0x3dda9d30	0.106745124
66	0x3d946d2e	0.07247387
67	0x3c98bbca	0.018644232
68	0x3df82a7b	0.121174775
69	0x3ddb8a04	0.10719684
70	0xbd490342	-0.049075373
71	0x3dcffbbf	0.10155439
72	0x3cb5d94d	0.022198344
73	0x3d19153d	0.03737377
74	0x3d1758ca	0.03694991
75	0x3e0be915	0.13663132
76	0x3d9740b6	0.073853895
77	0x3dff6d44	0.12472013
78	0x3e1dd433	0.15412979
79	0xbda81f32	-0.08209075
80	0x3dc7e9af	0.097613685
81	0x3d3a97d3	0.045554947
82	0xbe05d9b0	-0.13071322
83	0x3d0aebb3	0.033916187
84	0x3d61b75c	0.055106506
85	0x3d874667	0.06605225
86	0xbc3c2551	-0.011483506
87	0x3d3227e7	0.043495085
88	0x3db7cb05	0.0897427
89	0xbd2d520b	-0.04231457
90	0xbd8da6a8	-0.06916553
91	0xbd7d7c84	-0.061886325
92	0xbdc23bff	-0.094840996
93	0xbd9e0a52	-0.07716812
94	0x3dce8fff	0.10086059
95	0x3a8b76c6	0.0010640256
96	0x3c88e22e	0.016709413
97	0x3ad73a4f	0.0016420576
98	0xbe1b53fc	-0.15168756
99	0x3cca0de8	0.024664834
100	0xbda99b16	-0.082815334
101	0xbcafa4a7	-0.021440817
102	0xbcb2c27d	-0.021821255
103	0x3d32936c	0.043597624
104	0x3d73fea1	0.059569005
105	0x3d0f91c0	0.035051107
106	0x3e1767d1	0.14785697
107	0xbcd62a62	-0.026143257
108	0x3c37cbbe	0.0112180095
109	0x3d8dc96d	0.069231845
110	0x3dce1dee	0.100643024
111	0x3cfb2499	0.0306571
112	0x3d9a01af	0.07519852
113	0x3c931fbf	0.017959474
114	0xbd9f9ab9	-0.07793183
115	0x3d3d6697	0.046240415
116	0x3d46d721	0.048545007
117	0xbdf4bdd7	-0.119502716
118	0xbdba57fe	-0.090988144
119	0x3d594e73	0.05305333
120	0x3cd09b45	0.025464663
121	0x3c13202a	0.0089798365
122	0x3cada5e0	0.02119726
123	0x3d305561	0.043050174
124	0x3d90b792	0.07066263
125	0x3d7143fd	0.05890273
126	0xbdb55f7c	-0.08856103
127	0x3d105e2b	0.035246056
128	0xbdc6cde4	-0.09707239
129	0x3d351033	0.044204902
130	0x3d8c3fa1	0.06848074
131	0x3d844272	0.06457986
132	0x3c276d59	0.010218942
133	0x3d9033bf	0.0704112
134	0xbdd48ffa	-0.10379024
135	0xbc36ace5	-0.01114962
136	0x3d04b31c	0.032397375
137	0xbd83f514	-0.06443229
138	0x3d30b998	0.043145746
139	0x3e15d5f2	0.14632395
140	0xbca35b0d	-0.019940877
141	0x3c275871	0.010213957
142	0xbd461cda	-0.04836736
143	0xbd2f0b7d	-0.042735565
144	0x3d895912	0.06706442
145	0xbdde3777	-0.10850423
146	0xbd661f05	-0.056181926
147	0xbdfc3040	-0.123138905
148	0x3c6922a3	0.014229449
149	0x3d6fcec0	0.05854678
150	0xbdff47da	-0.124648765
151	0xbd211294	-0.039324358
152	0x3cca776a	0.024715144
153	0xbd3ef959	-0.046624515
154	0x3d0bbc77	0.03411528
155	0x3e17246d	0.14759989
156	0xbd2b2630	-0.041784465
157	0xbddf34b7	-0.108987264
158	0xbd94db9f	-0.07268452
159	0x3d82e8fe	0.06392096
160	0xbd619d2b	-0.055081528
161	0xbd6d54cd	-0.0579422
162	0x3d2239e1	0.03960598
163	0xbdfd5ecb	-0.12371596
164	0x3d8d3392	0.06894602
165	0x3caeac7a	0.021322478
166	0x3d5b23a5	0.05350079
167	0xbcf981d0	-0.030457407
168	0xbbde56e2	-0.0067852596
169	0x3d14ef94	0.036361292
170	0x3d177c37	0.036983695
171	0x3de32666	0.11091308
172	0xbdc681d4	-0.096927315
173	0x3dcbadf7	0.099452905
174	0x3d68d127	0.05684009
175	0x3d7e77c5	0.06212594
176	0xbd08b7ac	-0.03337829
177	0xbdcd5699	-0.10026283
178	0xbdbd88d6	-0.09254615
179	0x3d92585d	0.0714576
180	0xbdb9cbf7	-0.09072106
181	0xbe0f9b32	-0.14024046
182	0x3cc88bcb	0.024480721
183	0x3c9d9da6	0.019240212
184	0x3dd37786	0.10325532
185	0xbdc6977c	-0.09696862
186	0x3dc42ada	0.09578486
187	0x3d16a7f9	0.036781285
188	0x3b8264cf	0.0039793025
189	0x3dd5e5ca	0.104442194
190	0x3ca5dd50	0.020247132
191	0xbd942a8b	-0.07234677
192	0x3d0e7340	0.03477788
193	0x3c3ee622	0.011651548
194	0xbbe0e166	-0.006862807
195	0xbce3b47d	-0.027796024
196	0x3dc4a3cd	0.09601555
197	0x3cc617c6	0.024181258
198	0xbde43d83	-0.11144545
199	0x3e024ea5	0.12725313
200	0xbc138d9b	-0.009005929
201	0xbc643101	-0.013927699
202	0xbc99ce29	-0.018775063
203	0x3dbee29d	0.09320567
204	0xbd43f6d9	-0.047842834
205	0x3dacddc7	0.08440738
206	0xbcc91874	-0.024547793
207	0xbe1aead3	-0.15128641
208	0x3d8bfa43	0.06834843
209	0x3d7d1fa5	0.061797757
210	0xbe0d0631	-0.13771893
211	0xbc67b5d9	-0.014142477
212	0x3c944ec1	0.018103959
213	0xbde49d1a	-0.11162777
214	0x3d125e7a	0.03573463
215	0x3ce531a2	0.027977768
216	0x3e029682	0.12752727
217	0x39153bf5	0.00014232083
218	0xbd9c0a1a	-0.07619114
219	0x3dc20bc6	0.09474902
220	0x3d50f107	0.05101111
221	0xbd592d19	-0.053021524
222	0xbd4e5051	-0.050369564
223	0x3dca9351	0.098913796
224	0x3d5f66a9	0.054541264
225	0x3d32decb	0.043669503
226	0x3d72a3fb	0.059238415
227	0xbd9d0673	-0.07667246
228	0x3d4de50e	0.05026727
229	0x3d9032e8	0.070409596
230	0x3e019ee5	0.1265827
231	0x3d67b196	0.056565844
232	0x3db40c34	0.0879139
233	0xbd12e8ae	-0.035866432
234	0xbd3daecd	-0.04630928
235	0x3b86a6b2	0.004109227
236	0x3cf21bfe	0.029554363
237	0xbd8bfd47	-0.06835418
238	0xbd45c732	-0.04828567
239	0xbd8ab723	-0.06773212
240	0x3cc91604	0.02454663
241	0xbc56806b	-0.013092141
242	0xbcf40605	-0.029788027
243	0x3b32829b	0.0027238491
244	0xbd12d05d	-0.035843242
245	0xbdb89ec2	-0.09014656
246	0x3d37dc3d	0.04488777
247	0x3df51b25	0.11968068
248	0x3c27f92a	0.010252276
249	0x3d5df545	0.054188985
250	0xbde68f7c	-0.11257836
251	0xbd545114	-0.051835135
252	0x3c96a8eb	0.018391093
253	0x3d2eaab9	0.042643283
254	0x3d6479ee	0.055780344
255	0x3e0647e2	0.13113359

rnn.bias_ih_l1 f4 [64]
0	0xbd4cd82d	-0.05001085
1	0xbd4c06df	-0.04981124
2	0x3dd67f91	0.1047355
3	0xbbb43918	-0.00549997
4	0x3e13144d	0.14363213
5	0xbd87ccb6	-0.066308424
6	0xbd87ab4c	-0.06624469
7	0x3e0bcb6d	0.1365182
8	0x3d9114b9	0.07084031
9	0x3bed9e06	0.007251504
10	0x3d9d7631	0.07688559
11	0x3d67400f	0.056457575
12	0xbd7b1d82	-0.061307438
13	0xbdb1d540	-0.08683252
14	0xbd9aa8f4	-0.075517565
15	0x3da7ef37	0.081999235
16	0xbdb75782	-0.08952238
17	0xbd62e67b	-0.055395585
18	0xbd891476	-0.06693356
19	0x3d7b5956	0.061364494
20	0xbe0eb7e9	-0.13937344
21	0xbe1f4ca8	-0.15556586
22	0xbd9a01f3	-0.07519903
23	0x3d188d0b	0.037243884
24	0x3dfe417c	0.12414834
25	0xbdb7ed40	-0.08980799
26	0x3a20c3f2	0.0006132714
27	0x3d1e8816	0.038704
28	0x3d31d493	0.043415617
29	0xbdd4f4c0	-0.10398245
30	0x3c9f847a	0.01947235
31	0x3d9a9a92	0.07549013
32	0xbd134913	-0.03595836
33	0xbd86a58f	-0.065745465
34	0xbb1473b2	-0.0022651968
35	0x3d896fe2	0.06710793
36	0xbcdd168e	-0.026988294
37	0x3d308867	0.043098833
38	0x3df50e52	0.11965622
39	0x3e0b6bfe	0.13615415
40	0xbc5e7ad3	-0.013579088
41	0x3bb9fccb	0.005675887
42	0xbd3cc23d	-0.046083678
43	0xbd3ef891	-0.04662377
44	0x3dfab2a7	0.122411065
45	0x3dee33d4	0.11630979
46	0xbd6d7424	-0.05797209
47	0x3dd1a2fc	0.10236165
48	0x3da46497	0.080269985
49	0xbdb66596	-0.08906095
50	0x3cc60d73	0.024176335
51	0xbddcde3e	-0.10784577
52	0x3d8b9de1	0.068172224
53	0xbcf07281	-0.029351475
54	0x3b208f4a	0.002449947
55	0xbd806413	-0.06269088
56	0xbbb7790e	-0.0055991476
57	0xbc78d288	-0.015186913
58	0x3d2e1585	0.04250099
59	0xbd6594ae	-0.056049995
60	0xbd23f67f	-0.04003
61	0x3d808dd5	0.06277052
62	0x3df928ee	0.1216601
63	0x3d5c131a	0.053729154

rnn.bias_hh_l1 f4 [64]
0	0xbd07860a	-0.033086814
1	0x3bdbcd93	0.006707856
2	0x3e1801e2	0.14844468
3	0xbd994964	-0.07484701
4	0xbda9275b	-0.082594596
5	0x3d72c9d4	0.05927451
6	0x3da4c49b	0.08045312
7	0x3d836a40	0.0641675
8	0xbc1928b4	-0.009348083
9	0x3d537900	0.051629066
10	0x3de51fda	0.11187716
11	0x3ce3de88	0.027816072
12	0x3d6b917e	0.0575118
13	0x3cd4b49c	0.025965028
14	0x3ddca2e1	0.10773254
15	0xbe1d1401	-0.15339662
16	0xbdf483b0	-0.1193918
17	0x3d4ac4fd	0.04950427
18	0x3ca73b89	0.02041413
19	0xbd8e6c5f	-0.06954264
20	0xbe1dcd04	-0.15410239
21	0xbdbc41f9	-0.09192271
22	0x3dab246d	0.08356557
23	0x3d950121	0.07275606
24	0x3d10408d	0.03521781
25	0xbd1f02d3	-0.038821053
26	0xbb9db6e8	-0.004813064
27	0x3d9f33f4	0.07773581
28	0xbdefa46a	-0.11701281
29	0xbd942a99	-0.07234687
30	0x3d8d8fc6	0.06912188
31	0x3d858941	0.0652032
32	0xbe157ace	-0.14597628
33	0xbd85cfb0	-0.06533754
34	0x3dba8e0c	0.091091245
35	0xbe2634e7	-0.16231118
36	0x3d326ac0	0.043558836
37	0xbd92d4a7	-0.071694665
38	0x3c3c0f60	0.011478275
39	0xbd9e9b86	-0.077445075
40	0x3be897ca	0.007098173
41	0xbcb827f3	-0.022479987
42	0x3da0f66c	0.07859501
43	0x3c43a1c5	0.011940424
44	0xbdac2ede	-0.08407377
45	0x3d3671ff	0.04454231
46	0xbd8fff85	-0.07031158
47	0x3dace935	0.08442918
48	0xbdedd8a5	-0.11613587
49	0xbc96c932	-0.018406484
50	0x3dcf67b3	0.10127201
51	0xbde732b4	-0.11288968
52	0xbdd4a1e5	-0.103824414
53	0xbd3fdcd2	-0.04684145
54	0x3d99e956	0.075152084
55	0xbd0b6a38	-0.034036845
56	0x3d8bbaef	0.06822764
57	0xbde26d58	-0.11056012
58	0xbdadd7ec	-0.084884495
59	0x3e1aea69	0.15128483
60	0x3d97e546	0.07416777
61	0xbd95816d	-0.07300077
62	0x3d261e29	0.040556107
63	0x3df9e982	0.12202741

fc.weight f4 [1, 64]
0	0xbe75eece	-0.24016878
1	0x3e4d7824	0.20065361
2	0x3e5dc7cb	0.21658246
3	0x3e3baca4	0.18327576
4	0x3deff1ba	0.117160276
5	0xbdf8188a	-0.121140555
6	0x3ddbef1a	0.107389644
7	0x3dec1d8d	0.11529074
8	0x3e4caca0	0.19987726
9	0x3e3f4325	0.18677957
10	0x3e14777c	0.14498705
11	0x3dde946a	0.108681515
12	0x3db62b60	0.08894992
13	0x3e205fe2	0.15661576
14	0x3e4dc7f6	0.2009581
15	0xbe61b704	-0.22042471
16	0xbe29a8f7	-0.16568361
17	0xbe4843f8	-0.19557178
18	0xbdb74c9a	-0.089501575
19	0xbdc269fa	-0.0949287
20	0xbe3cb6fc	-0.18429178
21	0xbe3f7cba	-0.18699923
22	0xbe231142	-0.15924552
23	0x3e5e00b9	0.21679963
24	0x3e1b502e	0.15167305
25	0xbe1be97f	-0.1522579
26	0xbdf9e412	-0.12201704
27	0x3e3d7aeb	0.1850392
28	0xbe3724c0	-0.17885113
29	0xbe3eed25	-0.18645151
30	0xbe45251c	-0.19252437
31	0xbe1f390b	-0.15549104
32	0xbe170708	-0.14748776
33	0xbe32f637	-0.17476736
34	0xbde1bc84	-0.110222846
35	0xbe1c5593	-0.15267019
36	0x3e3cef00	0.18450546
37	0xbe413776	-0.18868813
38	0x3e30acb6	0.17253384
39	0x3e6f73a2	0.23383954
40	0xbe5ba931	-0.2145126
41	0xbe529fa9	-0.20568718
42	0x3e209641	0.15682317
43	0x3e4484a0	0.19191217
44	0x3e612827	0.21987973
45	0x3e3833ea	0.17988554
46	0x3e078ee5	0.13238104
47	0x3e3a3538	0.18184364
48	0xbde7992b	-0.11308511
49	0xbe48d9c0	-0.19614315
50	0x3e1b9582	0.15193751
51	0xbe69122e	-0.22760841
52	0xbe1fdce3	-0.15611605
53	0xbdfebda0	-0.12438512
54	0x3e49d42c	0.19709843
55	0x3e3ceb2c	0.18449086
56	0x3de6ad67	0.112635426
57	0xbe2d5cb9	-0.16929902
58	0xbe4783a7	-0.19483815
59	0x3e505efb	0.20348732
60	0xbe5cca8f	-0.21561645
61	0xbdef8664	-0.11695555
62	0x3e26b39f	0.16279458
63	0x3e55b842	0.2087107
