16 - Recurrent Neural Network/model/rnn/weights_150.pth (torch, 53191 bytes, 9 tensors)

rnn.weight_ih_l0 f4 [64, 1]
00000000: 76e7 01be 09fa 4d3d 03b8 b63d e054 65bd
00000010: 4e24 b63d 8772 863d 1b03 d23d 94ab 6f3c
00000020: 80d4 553d b730 7dbd 2743 68bd 80c5 ac3d
00000030: bf14 b4bd 9d90 903d 004d 84bd 5304 9b3d
00000040: a88d 9fbd 9c18 e6bc 230e c43d 4ef7 6c3d
00000050: 3b99 cc3d 52e5 9ebd 1afb 213d b899 b93d
00000060: 0987 6dbd be77 a73d 5ae6 b83d 4b7b 38be
00000070: ab6d 34bd b661 66bd 8942 ae3d 05ee 41bd
00000080: 1276 bcbd 6128 563d 8eb5 5dbd 1a1e 733d
00000090: 0691 46bd 621c 6b3d 2da7 96bd 228a d2bd
000000a0: 7f4a 8e3d 1a1f 9e3c d02e 523d fbf8 6c3d
000000b0: 8f90 a1bd 43e2 a43d 7486 d3bd 0755 86bd
000000c0: faf6 b3bd 22ee 843d 745f 3d3d 46e6 07bd
000000d0: 0e93 77bd e2fd 3a3d c36b 5bbd 2b36 173d
000000e0: 211d e03d b7c8 973d aa40 65bd acbb 393d
000000f0: daee 22bd ecd0 c8bd 0ac9 493d 2e34 803d
-0.12685952 0.05028728 0.08921816 -0.055989146 0.08893643 0.06564813 0.102544986 0.01462831
0.05220461 -0.061814036 -0.056704666 0.08436108 -0.087930195 0.07058833 -0.06459999 0.07569184
-0.07790691 -0.028087907 0.09573009 0.057853036 0.09990164 -0.07758583 0.03954611 0.09062523
-0.057990108 0.08177136 0.09028311 -0.18015783 -0.0440499 -0.05624553 0.08508784 -0.047346134
-0.092022076 0.052284602 -0.054128222 0.05935488 -0.04847815 0.057400115 -0.07356105 -0.10280253
0.06947803 0.01930194 0.051314175 0.057854634 -0.078889005 0.080509685 -0.10328379 -0.065591864
-0.087873414 0.06490733 0.04623361 -0.03317859 -0.060442977 0.045652278 -0.053569566 0.036916893
0.10943056 0.0741133 -0.05596987 0.045344993 -0.039778568 -0.09805474 0.04926399 0.062599525

rnn.weight_hh_l0 f4 [64, 64]
00000000: 6866 96bc df3c 9a3d bf91 73bd f6ca 78bd
00000010: 3def 4d3e b2bb b63d 2dd5 f13d 09c0 e2bb
00000020: e405 72be 6b0c 1f3d f8d1 1b3d 29a5 5cbe
00000030: 5039 17be f8e9 a93d a485 cbbd 2ba7 ae3d
00000040: 9e38 11be 5971 19be 616e 043e 6106 4a3d
00000050: 0686 133d d0c5 0fbe 8940 45bd b0a3 b43d
00000060: 37ff 8f3d c95c 043e a3f7 bf3d 3633 12be
00000070: c418 ee3c 5326 a43d 079d fabd 7d86 b2bc
00000080: 9ada afbd a886 eabc 792e 89bd c6f2 38bd
00000090: 33f3 3cbe f7f4 9e3c de53 493e 3e85 9e3b
000000a0: 6a0f 73bc d52f 143c 09fe babd 56cb 2ebe
000000b0: c56f d3bc fd15 cd3d aacf 37bd 2a7f 80bd
000000c0: 4b34 09bd f7d3 50bd 6c66 373d 96e1 cfbd
000000d0: 5882 003e 4d7a c3bc 285f 9f3c 59ff 41bd
000000e0: d044 f63d 4d1f cebd 546f 893d c8e0 043d
000000f0: c677 f83c 6441 923d 8b6e 0d3e e229 1d3d
00000100: b77d 5a3d 10f1 203d eab6 123e 0c46 e2bd
00000110: 731b b5bd 05ab c8bc d168 903d 3aea 043d
00000120: d872 073e 730a a5bd 905b 6f3d deee 293d
00000130: 83a3 b2bd 3aa2 91bd d9e2 883d 4681 7e3c
00000140: 5bd4 193d 7739 e63d eacc 1d3c 4ea2 cdbd
00000150: 4d61 10bd 8fc0 903d 30e8 15bc 9a74 ae3c
00000160: 4e2f da3d d1bc b4bc aaf1 c1bc 567c f73d
00000170: ab5d b1bd 337f 6cbd 5cb5 95bd b387 e93c
00000180: 9afd 453c 758d 903c 4912 84bd 0301 5ebd
00000190: d26d 313e 65c9 23bc 0899 05be 029e 0f3c
000001a0: ad4d 04bc 5258 72bd f3fd a73d 5377 393e
000001b0: a3a9 5abd 6ad3 4dbd 0ae1 b6bd fd05 9c3d
000001c0: de3d 143d da7d ef3d a63e 04be 2c09 8d3d
000001d0: 09ca c0bd 64c8 49bd f5fa a03d 9117 933d
000001e0: 2250 0cbd eb27 28bd 552a f5bc 8517 4a3d
000001f0: 08c9 e43c a3e9 5abd 5596 a0bd 1a9c e3bd
00000200: 9ef6 83bd b087 36bd 9707 483e a3be 8abd
00000210: 4e6a fabc bd06 88be b82c 923c ba60 91bd
00000220: 3c2c 633d bb07 a13d 5a92 91bd dd82 e23b
00000230: 4241 8d3d fa3a b6bd 6fbf 0f3e 33b5 453d
00000240: 11f0 1a3e 3934 12be 319b 55bd e6df 003e
00000250: 6329 e53d be9d f6bd 1090 0ebd a042 bfbd
00000260: e9d1 8a3d 1e45 f6bd 622e a1bb ed2b 333e
00000270: 1098 c2bc 6ea1 cd3c d4ed 96ba 35a0 97bd
00000280: 3740 a53d ce49 cfbd c794 0c3e ec03 2e3d
00000290: d5f2 a13d 436f 4ebd 72ed 46be 06f1 c83d
000002a0: 046b 73bb ecb4 9a3c b9f6 32bd b3c7 603d
000002b0: 06fe b4bd cc40 83bd 930d 06be e4d4 8fbd
000002c0: ff5d 0f3e 18c2 0c3e d612 8d3d dd81 c9bd
000002d0: b42c e2bd 0cf4 4cbd 6156 173d d72b febc
000002e0: e8a6 463c 6c91 1dbd 7c24 a1bd b7a7 7fbd
000002f0: 2c89 043e df82 21be 951d 303b efb4 acbc
00000300: 1133 fabd c313 c03d 03fd 21bd acbb d33d
00000310: fe96 b7bd 339f 443c 51a7 963d 7a18 56bc
00000320: f646 57bd 461d fdbd be9d 683c 8ef3 b13d
00000330: d9f5 dc3d 5c3b b8bd bf12 13bd 26cd 9dbd
00000340: c5e8 163c be22 963b 8bc2 033d 0be7 993d
00000350: e884 3d3d 076f fc3c 20de c03d 64b0 ea3d
00000360: 8cdc 6d3d 8da5 bb3d 6cad a53d 8c44 a93d
00000370: a713 2fbd c92a 9fbd e88e 57bc 0961 39bd
00000380: e5f2 a03d d273 0b3e c4c4 593d ad05 64bd
00000390: 5bb3 1fbe 2cad 273d b586 eb3c 9a7b 9cbd
000003a0: b036 abba b08f c33d ccd1 8b3d 3e13 79bd
000003b0: b038 cc3d edd0 6abd ed08 4ebc c642 6c3d
000003c0: 2e4c d1bd 2f4d 64bd d097 67bd 98ee ebbd
000003d0: e029 0ebe 6d60 0c3c f7ca c6bd c230 a73d
000003e0: b21b abbd 6769 043e f18d bfbc 0e5b e8bd
000003f0: 19c0 80bd 4f2c 6bbc b110 b3bd 8c61 d7bc
-0.018359378 0.075311415 -0.059465166 -0.060740434 0.20110793 0.08922519 0.11808238 -0.006919865
-0.2363506 0.038830202 0.03804204 -0.21547379 -0.14767957 0.08296579 -0.09937599 0.085279785
-0.14181754 -0.14984645 0.12932731 0.04932249 0.036016487 -0.14040303 -0.04815725 0.088202834
0.070311 0.1292602 0.09373405 -0.14277348 0.029064544 0.08015122 -0.12236982 -0.021792645
-0.08586617 -0.028628662 -0.06698317 -0.0451534 -0.18452148 0.019403918 0.19660899 0.004837661
-0.014835218 0.009044607 -0.091304846 -0.17069754 -0.025810132 0.100139596 -0.04487578 -0.062742546
-0.033497136 -0.050983395 0.04477541 -0.10150449 0.12549722 -0.023862028 0.019454554 -0.04736266
0.12024844 -0.10064564 0.06710687 0.03244093 0.03033055 0.071413785 0.138117 0.03837002
0.053342547 0.039292395 0.14327589 -0.11048517 -0.08843126 -0.024495611 0.07051242 0.03244994
0.13227403 -0.08058634 0.05843693 0.041487567 -0.08722594 -0.071110204 0.06683893 0.015533751
0.037556034 0.11241429 0.009631375 -0.10040723 -0.035249043 0.07067978 -0.009149596 0.021295834
0.10653554 -0.02206269 -0.023674805 0.12084262 -0.08660444 -0.057738494 -0.07309982 0.02850709
0.012084389 0.017645577 -0.064488 -0.054200184 0.1732705 -0.009996747 -0.13046658 0.008765699
-0.00807516 -0.05916626 0.08202734 0.18111925 -0.053384434 -0.05025045 -0.089296415 0.0761833
0.036191814 0.11693926 -0.12914523 0.06886515 -0.09413535 -0.049263373 0.07860366 0.07182229
-0.034256108 -0.041053694 -0.029927412 0.049338836 0.02792789 -0.05344547 -0.078411736 -0.111137584
-0.06443523 -0.044562995 0.19534145 -0.06774642 -0.030568268 -0.2656764 0.01784359 -0.07098527
0.055462107 0.078628026 -0.071079925 0.006912573 0.068972126 -0.08897968 0.1403787 0.04826851
0.1513064 -0.14277734 -0.052149955 0.1258541 0.111895345 -0.12041806 -0.034805357 -0.093388796
0.067783184 -0.12024902 -0.0049188593 0.17497225 -0.02375415 0.02510139 -0.001151497 -0.07403604
0.08068889 -0.10121499 0.13728629 0.04248421 0.07907645 -0.050399076 -0.19426516 0.098115966
-0.0037142644 0.018885098 -0.043692324 0.054877948 -0.088375136 -0.064088434 -0.13091116 -0.070230275
0.140007 0.13745916 0.06888358 -0.098392226 -0.11043683 -0.05003743 0.03694761 -0.031026764
0.0121247545 -0.038468763 -0.07868287 -0.062415805 0.12942952 -0.1577258 0.00268731 -0.02108237
-0.122167714 0.09378769 -0.03954793 0.1033853 -0.08964346 0.012000847 0.07356132 -0.013067359
-0.052557908 -0.12359099 0.014197765 0.086890325 0.10789079 -0.08995697 -0.03590655 -0.077051446
0.00921077 0.0045817783 0.032167953 0.07514771 0.046269327 0.03081466 0.09417367 0.11459425
0.058071658 0.09162436 0.08089718 0.082650274 -0.04274335 -0.077718325 -0.01315663 -0.045258556
0.078588285 0.136184 0.053166166 -0.055669475 -0.15595762 0.040936634 0.028750757 -0.076407626
-0.0013062563 0.095488906 0.06827125 -0.060809366 0.0997175 -0.057328153 -0.01257537 0.057680868
-0.10219608 -0.05573767 -0.056541264 -0.115201175 -0.13883162 0.008567912 -0.09706681 0.08163597
-0.08354892 0.12930833 -0.023383113 -0.11345492 -0.0628664 -0.014353826 -0.08743418 -0.026291631

rnn.bias_ih_l0 f4 [64]
00000000: b492 233e ace0 843d 521f b8be bf09 393d
00000010: 6ec9 d93d 311a 883d 91be 0ebd fcf8 983d
00000020: 2920 a9bd adce 903e 5d7c 993d 5df7 85be
00000030: dc62 c2bd c68b 87bd bd84 fbbd 475b 39be
00000040: a3aa 20be 3f37 81bd e9a1 103e 43e1 bbbd
00000050: 0815 45bd e3f7 0c3e 1e20 5f3d 71b2 113d
00000060: 02cc 84bd 968e 253e 1044 a03d 8fad 9abd
00000070: 83d9 cabc 7f49 563e d5aa 66be b4c2 3b3d
00000080: 3aac 37bd a847 16be 6b50 0dbd 7a9b 3fbe
00000090: ecd9 483d bed8 fb3b f8a4 9b3e 6f24 d13d
000000a0: 0e51 f93c e002 893d 2866 5ebe fdf1 52be
000000b0: aebe 0c3e 130e 233d adc1 503e 7902 543e
000000c0: 1b96 9b3d ee40 77be 5c81 21be 2ea5 eabd
000000d0: 6b3b 613e c8e1 e9bd ea79 473d c5cd 373c
000000e0: 8da6 bf3b dba9 84be 9aa9 9d3d d807 9e3d
000000f0: 3f58 313d 2142 7f3e fea3 023e aab0 30bd
0.15973932 0.06488165 -0.35961396 0.04517531 0.10634123 0.066456206 -0.034849707 0.07469365
-0.08258087 0.2828268 0.074944235 -0.26165286 -0.09491512 -0.066184565 -0.12281177 -0.18101226
-0.15690093 -0.063093655 0.14124264 -0.09173825 -0.04811576 0.13766436 0.05447399 0.035570566
-0.06484224 0.16167673 0.07825482 -0.07552635 -0.02476192 0.20926474 -0.22526105 0.04583998
-0.044841982 -0.14675772 -0.03450052 -0.18711653 0.04903595 0.00768575 0.303993 0.10212027
0.030434158 0.066900015 -0.21718657 -0.20600124 0.13744614 0.039808344 0.20386381 0.20704068
0.0759699 -0.24145862 -0.15772003 -0.11457287 0.21995322 -0.114200175 0.04870025 0.011218493
0.005848712 -0.2591084 0.076983646 0.0771634 0.04329705 0.2492757 0.1275787 -0.04313723

rnn.bias_hh_l0 f4 [64]
00000000: 923a 173d b63d a53d b41a 78be 1841 573e
00000010: d31c 453d 1d6b 8c3d bb8d abbc 9799 2fbb
00000020: cf77 f6bd 2b5f 743e ec0b 3f3d 5cf6 acbe
00000030: 0815 4fbc d3fe cc3d 0c2b fdbd 41a2 a8bd
00000040: 054c 58bd 178d d6bd 30fd 043d 8e58 eabd
00000050: 92a1 46be 4a99 373e 6adf 56bd c294 e4bd
00000060: 1cab 11be 1fac c83d 2f9d 87bd ac0d 16be
00000070: 9303 4cbc 7d9d f53d d212 67bd c97e a2bd
00000080: 5c0a eb3d 8a1d e9bc e9cb a9bd cea9 42be
00000090: 25f5 ee3d 6b48 323b fdde 9f3e 0fd3 2f3d
000000a0: 4b78 26bd bff9 0cbd 9f20 5dbe 2e01 95be
000000b0: f209 a33d b027 e7bd 1f31 de3c 028b ab3d
000000c0: 9de6 0dbd 0282 81be 8209 253d 5644 0bbe
000000d0: dd49 533e 2677 9bbe 9ffa 8f3d feaf 6f3d
000000e0: 81de cf3d 1356 85be 1a52 003e cffb 9dbb
000000f0: 7fd9 1a3d be57 ca3d 3719 c1bd 1be2 20be
0.03692109 0.08068411 -0.24228936 0.21020925 0.048123192 0.06856368 -0.020941606 -0.0026794428
-0.120345704 0.23864429 0.04664223 -0.33781707 -0.012639292 0.10009541 -0.12361726 -0.082340725
-0.052806873 -0.104761295 0.03246802 -0.11442672 -0.19397572 0.17929569 -0.052459158 -0.11161186
-0.1422543 0.097984545 -0.06621777 -0.14653653 -0.012452024 0.11992929 -0.056414433 -0.079343386
0.11476585 -0.028456468 -0.08290846 -0.19010088 0.11667851 0.002720381 0.31224814 0.04292589
-0.040642064 -0.034417864 -0.21594475 -0.29102463 0.07960881 -0.11286867 0.027123032 0.08376123
-0.034643758 -0.252945 0.04029227 -0.13600287 0.20633645 -0.3036434 0.07030224 0.05851745
0.10149861 -0.26042232 0.1253132 -0.0048212777 0.037805077 0.09880017 -0.094286375 -0.15711252

rnn.weight_ih_l1 f4 [64, 64]
00000000: 395f 933d c166 fa3c 769c 2abe 9ae7 023e
00000010: a71a e5bd d678 05be bde7 1fbe 08aa 883d
00000020: d460 593d f476 013b 4690 a2bc 206c 3cbd
00000030: 1709 953d 5ad5 313d 0e1f a93d 06a2 f9bd
00000040: 1a65 4ebd a4ab 98bc cc05 e5bb 2556 cebd
00000050: a642 eb39 0c64 383d 36d1 1cbd 9c5a 463d
00000060: 9f32 a4bd 3da6 59bc 3131 24bc a80d 31bc
00000070: 59b8 d63d 8bea 1fbb e9b0 1ebe e079 5f3d
00000080: 1021 3bbd a4dd c9bd 9176 8a3d dad5 85bd
00000090: 74c8 90bd 5922 97bd fd2a e43d fd3b ee3d
000000a0: b5cb 943d 5eda 54bd 29de 31bd 951a a6bc
000000b0: a461 133c ea2f b7bd 3130 6ebd 3d1c b03c
000000c0: 63a7 40bd b176 91bd 2ad2 97bd d5f3 073d
000000d0: 0262 61bd ed78 68bc 8047 823d 7183 8d3c
000000e0: 08ab 913b ba7a 16be f885 13bd 93f0 ee3a
000000f0: 0863 21bd 2eca 843d 8481 803d f9a1 20bd
00000100: 7469 d3bd 0944 153e 59dd 3bbd 9720 193d
00000110: 73ce 72bd fdce e13d f683 c0bd 50bd edbc
00000120: 56c0 543e c392 0bbe e222 11be 9438 273e
00000130: a3c3 d53c e16c d13d f245 083d 7e84 cd3d
00000140: 4c3e 633d 8730 2fbc d146 dfbc f7ce 7a3d
00000150: 86d4 113e 4b00 44bd 19e9 9d3d 5858 8cbd
00000160: 6df4 7c3c ba4c c03d bd89 a3bb 3dce 253d
00000170: 1627 893c c050 34be 4b0f 583d c95a efbd
00000180: 9d80 3a3d af29 ca3d 8983 9b3d 7aab 0a3e
00000190: d054 f6bd a7ba efbd 5cb3 a7bd 4574 cd3d
000001a0: 6583 86bc 2acc d63d b530 9abd 1c58 9b3e
000001b0: 5bec 89bc 5545 8bbd 71c4 9f3c ceb2 45be
000001c0: acaf 2e3d 6b55 27bd 3573 113d d6a4 b0bc
000001d0: fe19 3dbd 5e11 e63d f095 d73c fc12 0f3e
000001e0: fb7c 68bd 7c82 dd3d edb0 03be d228 75bd
000001f0: 210e 1dbe f27b c9bd ee8d fa3d f68f 533c
00000200: 2f4d e7bc 75b7 0c3e 6f4e 2fbd 1153 5ebd
00000210: ba91 b23d aad6 093e 15f4 93bd 9d70 8fbc
00000220: 7422 1a3d 8d9d efbd 6e54 8a3d dabc c23d
00000230: f539 e7bd 7d14 a63d b1b9 dbbd 30c6 98bd
00000240: 6e59 87bd a149 a7bd eb3b 983d 2c11 e93c
00000250: b46a 9bbd 40ee 1abd f93e 32bd ce75 143e
00000260: e909 17bd 9a7c 683d 38a8 8ebd b24e 0b3d
00000270: 6665 8bbc 781f f1bd 52ac 003e 72fe b23d
00000280: 9e2c 4a3d 8d6a 0abd fb9f 06be e9ec 023e
00000290: 230a 8a3d a301 403d b477 393d bd1f 74bd
000002a0: 00ba 013d 4b81 c73d 7b1f e53d 6d4d 0b3d
000002b0: 9664 be3d 48ad 153d 65c6 efbd 67f6 983d
000002c0: 1170 27bc 3461 fd3d d1c9 95bb c784 06be
000002d0: da9f b03d c0b0 bf3c 6327 89bd 89f0 253e
000002e0: bd5f 6dbd 1f18 91bc 1da5 f63b 71d4 203e
000002f0: 53c1 593d 8cb6 c4bd aad2 92bd adeb b53d
00000300: a7cf 87bd 0b12 993d 89dd 233d 2f3a 64bd
00000310: 2c38 383d 31f7 5bbd 86f1 5f3d 5b18 c7bd
00000320: ca07 053d 54c4 b9bd 0a8f 003d 25e7 f13d
00000330: d9a0 cebc f811 fb3d 134c 513d 4bc9 373e
00000340: 2370 493d 043d 2b3e ca67 ef3c 7075 063e
00000350: 878f 9b3d 7b79 90bd c360 40bd 9ee8 6c3d
00000360: 4bbc 213c f27d 903c 7b7c f2bc 0615 8e3b
00000370: 8ff7 a73d ba83 1cbe 945f db3d 2bb9 e3bd
00000380: dad5 a33d f591 363e d975 e2bd e0db 3b3d
00000390: 84cd 1bbe 17cb eebc 076e 8cbd a588 bcbc
000003a0: d5db 2c3c b11a b23d 7d07 193e c3f6 3e3e
000003b0: f0a9 dbbc 7f8b 113e 0891 e1bd c0c1 943c
000003c0: 01d7 c63d 2aaf 333e ca51 003e ad69 f03d
000003d0: 18c6 6f3a 003d 89bd cd9c 90bd 3119 113e
000003e0: 2bfa ddbc 6f4c f73d c818 0cbe 5aea 31bd
000003f0: 73b9 2cbd df3b c4bc 179f 38bc 62d4 273e
0.07195897 0.030566575 -0.16661248 0.12783661 -0.11186724 -0.13034377 -0.15615745 0.06673056
0.053070858 0.001975474 -0.019844186 -0.046001554 0.072771244 0.04341636 0.08257876 -0.12189107
-0.050389387 -0.018636532 -0.0069892164 -0.100750245 0.0004487235 0.045017287 -0.038285457 0.048426256
-0.08017468 -0.013284263 -0.010021494 -0.010806479 0.1048438 -0.0024401273 -0.15497173 0.05455959
-0.045685828 -0.09856728 0.06760896 -0.065349296 -0.070694834 -0.07379598 0.11141012 0.116325356
0.072654165 -0.051966064 -0.04342476 -0.020276347 0.008995447 -0.08944686 -0.058151428 0.02149784
-0.047034632 -0.07102717 -0.074131325 0.03319152 -0.05502511 -0.014188987 0.06361294 0.01727459
0.0044454373 -0.14695254 -0.036016434 0.0018229656 -0.039401084 0.06483875 0.06274703 -0.03921697
-0.10322848 0.14576735 -0.04586539 0.037384596 -0.059278917 0.11025808 -0.094001696 -0.029020935
0.20776495 -0.13630204 -0.14173463 0.16330177 0.026094263 0.10225845 0.03326983 0.100350365
0.055479333 -0.010692722 -0.027255448 0.061232533 0.14241228 -0.047851842 0.077104755 -0.06852788
0.015439135 0.093896344 -0.004990785 0.040479887 0.01674227 -0.17608929 0.05274896 -0.11687238
0.04553281 0.09871232 0.07593448 0.13541976 -0.120278955 -0.11705523 -0.08188507 0.10031942
-0.016420076 0.1048816 -0.075288214 0.3034066 -0.016836336 -0.068003334 0.01950285 -0.1930649
0.042648003 -0.040852945 0.03551026 -0.021562975 -0.046167366 0.11233781 0.026316613 0.13972086
-0.056759816 0.108159035 -0.1286046 -0.059853382 -0.15337421 -0.09838094 0.12234102 0.012912741
-0.028235046 0.13741858 -0.04279941 -0.054278437 0.087192014 0.13460794 -0.07224289 -0.017509753
0.037630513 -0.11699972 0.06754385 0.09508677 -0.11290351 0.081093766 -0.10728777 -0.07459676
-0.06608854 -0.081683405 0.074333034 0.028450571 -0.075887114 -0.03782487 -0.043517087 0.14498064
-0.036874685 0.056759454 -0.06965679 0.034010597 -0.017016124 -0.1177358 0.12565735 0.08739938
0.049358957 -0.03379302 -0.13146965 0.12785687 0.06740215 0.04687656 0.045280173 -0.05960058
0.031671524 0.097414576 0.11187645 0.034009386 0.09296529 0.036542207 -0.11707763 0.074688725
-0.01021959 0.12372056 -0.0045711775 -0.13136588 0.08624239 0.02339971 -0.066969655 0.16205038
-0.05795263 -0.017711697 0.0075270073 0.1570604 0.053162884 -0.096051306 -0.07169087 0.08882842
-0.066314034 0.074741445 0.040006194 -0.05571955 0.044975445 -0.053702537 0.054673694 -0.09721442
0.03247813 -0.0907065 0.031386413 0.118116654 -0.025223183 0.12259287 0.05109794 0.17947881
0.049179208 0.16722494 0.029224295 0.13130736 0.07595735 -0.070544206 -0.04696728 0.05783903
0.009871553 0.01763818 -0.029600373 0.0043360023 0.08201515 -0.15284625 0.107115895 -0.11119302
0.07999773 0.17829116 -0.11057634 0.045863986 -0.15215117 -0.029149575 -0.068569236 -0.023014376
0.010550459 0.08696497 0.14944263 0.1864882 -0.026814431 0.1421337 -0.11013991 0.018158793
0.097089775 0.17547289 0.125312 0.11738906 0.0009146645 -0.06701088 -0.070611574 0.14169766
-0.027096828 0.120751254 -0.13681328 -0.043436386 -0.042169046 -0.02395433 -0.011268399 0.16389611

rnn.weight_hh_l1 f4 [64, 64]
00000000: ad78 6dbd 2d11 9c3c 1f07 15bd a03b 45bc
00000010: c968 a23d d5d4 3c3c a8ad 1b3e ea6c b2bd
00000020: 2220 e2bd 39ed c33c 1b53 8fbd 1f69 a83c
00000030: becd cd3d 2019 e0bc bed9 61bd d613 b23d
00000040: d0c8 313d d5c6 99bd 3617 99bd 19f1 163b
00000050: f6df 96bc 710a a0bd 386a d73d fd5f 6a3d
00000060: 6834 22be 7e65 05bc c6a2 abbc 0409 3f3c
00000070: 653c 80bb d876 b23d ae98 0a3e cb46 30bd
00000080: 773d ddbc 60f1 24bd 1bea 9bbd 044f 493d
00000090: 289a 94bc 4192 04bd d2c6 c7bd ec61 6ebb
000000a0: a1ab 1bbb f25c 203e 42ba 09be c789 e53c
000000b0: 5294 ffbd 6709 023d e9bb cdbd 69bb 04be
000000c0: 11f3 da3c 719d e5bd 1029 e0bd 61b7 ce3d
000000d0: 507b aabc b77e 053e 83ed f33d b5b9 60bd
000000e0: eb08 b23d f61c 77bb 9113 7f3d 6b25 0b3d
000000f0: 2e68 093e e4d2 d73d 423e 52bd 7050 653c
00000100: 3b4e 9dbc cc1e 013e 52e8 763d 63bb e03b
00000110: cd14 dc3d e2a6 ed3d 6066 79bd 9605 c33d
00000120: 440e 803c a46b fb3c ee1d ea3c 09ad 483e
00000130: 08ed 8e3d c8a5 eb3d 4125 193e 07cb 8dbd
00000140: 083c ed3d 3028 5f3d ce57 1fbe 77f8 1e3d
00000150: c0a6 833d 5d24 c83d 1671 ed3a 82b0 183d
00000160: d95d c63d fabd fabc a716 8dbd f6e0 90bd
00000170: aa31 b3bd ac2d 7bbd 61ff e83d 662a 713c
00000180: 0979 703d 9e3e 593c 01e7 01be c926 473d
00000190: e7c8 b9bd 8078 6d37 90bc 01bd 693b 0e3d
000001a0: 5bfd a33d 440e 3a3d 1303 0f3e ec72 3ebd
000001b0: ed78 243b deb7 7a3d d4fd c03d 318b b83c
000001c0: 7886 dd3d 7983 ca3c 3c70 c3bd cc59 833d
000001d0: 1407 803d deb4 d8bd 52dd c6bd 394b 273d
000001e0: ffbf a33c 4a48 aa3c fe97 263d 27ee 0b3d
000001f0: 0e61 a63d 3606 8b3d 50a0 c4bd d070 e93c
00000200: d1d3 cfbd 6d50 0c3d 8532 963d 27c7 643d
00000210: 268d 8a3c 1c63 843d 42a4 c3bd f4a0 e4bb
00000220: 74c6 143d 3083 77bd dfa3 463d 979a 0f3e
00000230: faeb dabc d9a3 833c d330 36bd 57e0 51bd
00000240: 6797 663d 0fef dfbd f3af 5bbd 6fa2 02be
00000250: 87f1 173c 9a23 0b3d 5dd1 f5bd 0b3d 12bd
00000260: d4e9 a03c 5278 5abd 69ad 443d e2bc 193e
00000270: 38d8 3bbd 856a fabd a4be a9bd dbb8 7f3d
00000280: 113d f6bc a87f 82bd 8c2f 433d 51b0 0abe
00000290: fedf 913d ad69 a83c 5d37 7b3d ede2 e1bc
000002a0: 4cb8 e0bc a362 dc3c 4fb9 1f3d 9017 003e
000002b0: 0b80 bebd 07ad d43d 8cac 883d 47e5 893d
000002c0: 37c2 0cbc 76a1 d6bd 7184 bdbd 730a 753d
000002d0: d529 ccbd 3734 0fbe f207 e93c 5457 da3c
000002e0: e8d1 c43d 9320 dabd 7100 d43d 6036 fa3c
000002f0: e4c0 46bb 84ee ca3d e606 d03c 9150 8bbd
00000300: 9775 513d 7014 d33c a4f4 c9bc 9b50 64bd
00000310: eaa4 9a3d 28ce 1f3d 8f16 03be d5b0 ed3d
00000320: f0ab 9fbc 2edf d4bc 4c74 02bd d931 073e
00000330: d244 7fbd 6ec8 8c3d 9e24 0bbd 923a 07be
00000340: d77e c13d c5ad a33d a896 09be 3799 a1bb
00000350: 10c2 f73c 673a 97bd 748a 753d 8ce2 903c
00000360: 5eca 063e b856 8f3c 5b03 87bd 8286 a03d
00000370: f519 7f3d f1b4 04bd 5bb4 01bd 136c f53d
00000380: 2edf 033e 30ba 783d 06d0 ca3d 09e8 30bd
00000390: 5190 0b3d ea3c cf3d 7ce7 e33d c984 2f3d
000003a0: d179 e83d 6a49 a9bc 2e2e 80bd 55d1 a3bc
000003b0: 0d23 633c 5519 a7bd 2d1f 6bbd f33e a3bd
000003c0: 4c00 c33d 5a2c c1b9 d2ca 5abd e8ac d63c
000003d0: a2ec 7fbc 5fc3 97bd 6a25 033d cdda ce3d
000003e0: 1398 1bbb f6e5 8f3d 9902 a3bd 977e 91bd
000003f0: 3567 073d 43c8 703d b1d9 2e3d b920 f33d
-0.057976414 0.019051159 -0.036383744 -0.0120381415 0.079301424 0.0115253525 0.15202963 -0.0871218
-0.11041285 0.023916828 -0.06998273 0.020557938 0.10049008 -0.02735573 -0.055139296 0.0869519
0.0434044 -0.07508627 -0.0747513 0.002303189 -0.01841734 -0.078144915 0.105183065 0.057220448
-0.15840304 -0.008141873 -0.02095164 0.011659864 -0.0039134496 0.08714074 0.13534805 -0.043036263
-0.027006848 -0.040269256 -0.076130114 0.04914762 -0.018139914 -0.03236604 -0.09754719 -0.0036374284
-0.0023753422 0.15660456 -0.13449958 0.028019799 -0.12479462 0.031747248 -0.10045607 -0.12962116
0.026727231 -0.1121167 -0.10945332 0.100935705 -0.020810753 0.13036619 0.11910536 -0.054864604
0.08693107 -0.003770647 0.06227452 0.03397123 0.13418648 0.10538271 -0.051328905 0.013996229
-0.019202342 0.12609404 0.06028015 0.0068582757 0.10746155 0.11604096 -0.060888648 0.0952255
0.015631802 0.030690975 0.028578725 0.19597258 0.06978804 0.1150623 0.14955617 -0.0692349
0.11583716 0.054481685 -0.15560839 0.038811173 0.064282894 0.09772561 0.0018115367 0.037277706
0.09685869 -0.030608166 -0.06889086 -0.07074158 -0.08749707 -0.061322853 0.11376835 0.014719581
0.058709178 0.013259558 -0.12685777 0.048620973 -0.09071522 1.4154357e-05 -0.031673968 0.034724627
0.08007308 0.04542376 0.13966016 -0.046496317 0.0025096491 0.061210506 0.09423414 0.02252731
0.108166635 0.024720894 -0.095428914 0.06413612 0.0625135 -0.10581373 -0.09710182 0.040843222
0.019989012 0.020786423 0.040672295 0.034162667 0.081239805 0.06788294 -0.0960089 0.028496176
-0.10147823 0.034256388 0.073338546 0.05585399 0.016913008 0.06464216 -0.09552814 -0.006977195
0.036322072 -0.060427845 0.048496123 0.14023815 -0.02672385 0.01606934 -0.044480156 -0.051239338
0.056296732 -0.10934269 -0.053634595 -0.12757276 0.009273893 0.0339695 -0.120028235 -0.035702746
0.019642748 -0.053337403 0.04801694 0.1501346 -0.0458605 -0.12227348 -0.08288315 0.06243215
-0.030058416 -0.06372005 0.047652766 -0.13543822 0.07122801 0.020558203 0.061332095 -0.027574027
-0.02743163 0.026902502 0.038995083 0.12508988 -0.09301766 0.10384565 0.06673536 0.06733184
-0.008591226 -0.10480015 -0.09253777 0.05982442 -0.09968916 -0.13984762 0.028446171 0.02665297
0.09610349 -0.10650744 0.10351647 0.030543506 -0.0030327374 0.099087745 0.025393914 -0.06802476
0.051137533 0.025766581 -0.024652787 -0.055740934 0.07550986 0.039014965 -0.12801574 0.11605994
-0.019491166 -0.025985327 -0.03184919 0.13202609 -0.06232149 0.068741664 -0.033970468 -0.13205937
0.09448021 0.07992128 -0.13436377 -0.0049315947 0.030243903 -0.07384186 0.059946492 0.017686151
0.13163134 0.017497405 -0.06592437 0.07838155 0.062280614 -0.03239912 -0.03166614 0.11983504
0.12878105 0.060724437 0.099029586 -0.043190036 0.034073178 0.1011904 0.111281365 0.042851243
0.1135136 -0.02066489 -0.06258808 -0.019997278 0.013863337 -0.081591286 -0.05740278 -0.07970991
0.09521541 -0.00036844873 -0.05341608 0.026205495 -0.0156203825 -0.07410311 0.032018103 0.10100327
-0.0023741766 0.070262834 -0.0795948 -0.07104223 0.03305741 0.058784734 0.042688075 0.11871476

rnn.bias_ih_l1 f4 [64]
00000000: df82 18bd f737 a9bd 2517 c93d f7b6 1fbd
00000010: 7151 f13d 8b16 44bd 88db a9bd e8e0 e43d
00000020: d1ec 843d 33d5 19bb 0d15 933d acea b23c
00000030: e5f8 36be f67d dbbd 9947 aabd 898d b53d
00000040: 628f b0bd f340 3ebd de7b 33bd 4a78 a53d
00000050: d887 f5bd 09dc 19be 1dc5 61bd 4c0a 463c
00000060: d62f bf3d 97a2 8cbd dc76 d53d 6cd9 0f3d
00000070: cf78 5a3d e5da c4bd 3318 003d df67 b83d
00000080: ba8d 193c ebc1 71bd 8d8b 383d 1d19 903d
00000090: 892f fabc b697 793d bad7 e43d 367f ea3d
000000a0: b70c c7bb 8bfe 9e3c 02d4 7fbd 6da4 82bd
000000b0: e8b4 e53d 3d41 e13d 227e a6bd f58a bc3d
000000c0: 90eb 0a3e ddc8 a9bd db1c 0bbc 0ea9 cdbd
000000d0: 40ca a83d 3313 c8bb 2df4 9bbb fd0f 96bd
000000e0: 6d48 93bd 70b6 f0bb 1db9 a23d fafc 85bd
000000f0: 46cc ffbc 2fb1 b33d f791 ea3d 7728 3e3d
-0.037234183 -0.082626276 0.098188676 -0.03899285 0.11783112 -0.04787306 -0.082938254 0.1117571
0.06490482 -0.0023473024 0.071817495 0.021840416 -0.17868383 -0.107173845 -0.083144374 0.08864886
-0.08621098 -0.04644866 -0.0438193 0.08079584 -0.11988801 -0.15025343 -0.055119622 0.012087416
0.09335296 -0.06866949 0.10423061 0.03511946 0.05333787 -0.09612063 0.03127308 0.09004187
0.009372169 -0.059022825 0.04505496 0.0703604 -0.030540245 0.0609357 0.11173959 0.11450045
-0.006074514 0.019408485 -0.062458046 -0.06379018 0.11216146 0.10998771 -0.08129527 0.092061915
0.13566422 -0.08290265 -0.008490766 -0.1004201 0.08241701 -0.0061058044 -0.0047593326 -0.07327268
-0.071915485 -0.007345967 0.07945464 -0.06542392 -0.031225335 0.087740295 0.11453622 0.04642531

rnn.bias_hh_l1 f4 [64]
00000000: b012 a7bc c02e d8bc 8d14 113e b92b ddbd
00000010: 35ae dbbd 7edd 9d3d 4b14 813d 5ee3 223d
00000020: 1bd8 73bc 873f 2b3d 1063 da3d b52b dabb
00000030: d9a2 77bd 08d4 a53b 8a24 cb3d af10 15be
00000040: 656d edbd 2545 6d3d 6181 303d fb93 4abd
00000050: bfc5 09be 9d07 b2bd 1ea4 d23d cd3d 423d
00000060: eb77 9f3b 4ef1 92bc 1368 ca3d 8076 973d
00000070: 43ae d9bd e363 84bd c338 a53d 8b71 a33d
00000080: 3cff ccbd 2f18 70bd 6b41 0d3e 1ab4 21be
00000090: d06c 223d ce40 5abd 3368 863b 03c5 c8bd
000000a0: 308f 6d3c 3d03 0dbc 824e 7c3d 6cd4 b4bb
000000b0: ac0f bfbd a704 1e3d 30a3 bfbd 1f00 983d
000000c0: a1c7 74bd b474 4ebc eab6 8b3d 63f0 d7bd
000000d0: 26b3 b5bd bf94 c0bc 3c67 8a3d ce57 37bd
000000e0: b330 ca3a cb64 d1bd 0db8 41bd ad41 103e
000000f0: 60c2 a83d 25f5 41bd d198 0a3d 5641 ea3d
-0.020394653 -0.02638948 0.14167996 -0.10799355 -0.10726587 0.07708262 0.06302699 0.039767615
-0.0148830665 0.04180863 0.10663426 -0.0066580423 -0.060458038 0.0050606765 0.09919079 -0.14557146
-0.11593131 0.05792727 0.043092135 -0.04945753 -0.1345434 -0.08692858 0.10285209 0.04742222
0.0048665903 -0.017937329 0.09883132 0.07395649 -0.10628941 -0.064643644 0.08067467 0.07980641
-0.100096196 -0.058616813 0.13794486 -0.1579136 0.039654553 -0.05328446 0.004101777 -0.09803202
0.014499471 -0.008606729 0.06159831 -0.0055184867 -0.09329161 0.038578656 -0.093572974 0.07421898
-0.059760693 -0.012601066 0.068219975 -0.10543897 -0.088720605 -0.023508428 0.06757972 -0.04476147
0.001542589 -0.10224303 -0.047294665 0.14087553 0.08240199 -0.04735293 0.033837143 0.11438243

fc.weight f4 [1, 64]
00000000: f6d2 99be 1857 893e a92f 8a3e 4a35 7c3e
00000010: ddd5 393e a89a 3abe 8786 313e b2fa 2b3e
00000020: ab51 7e3e 4d8a 743e ca3b 483e 822d 4e3e
00000030: 68a8 483e 95f3 5d3e 0224 833e e865 8dbe
00000040: 1544 6abe 9963 83be 01f5 3dbe 801a 16be
00000050: 7e23 73be b861 7dbe 5d41 60be 1d20 8a3e
00000060: b06b 5b3e b4f6 5bbe 473a 44be 2632 753e
00000070: 73f2 69be d059 7abe d488 7ebe 3259 61be
00000080: 7675 62be bb7c 6dbe 41fd 31be 6411 5dbe
00000090: f7a6 743e 0337 7fbe 9843 683e c5db 923e
000000a0: a700 8dbe 7ec7 87be e0d8 5a3e eaab 823e
000000b0: 048a 8c3e 7608 6f3e 46fb 433e da06 6e3e
000000c0: 2aa4 40be 7f57 83be ea24 5d3e 86ab 92be
000000d0: aa59 58be fdd7 38be 1f4e 853e 91f0 783e
000000e0: b6b5 303e 88e8 6cbe e3c0 84be 3b77 853e
000000f0: 51da 8ebe 281e 4abe 74f3 5a3e 6aa0 853e
-0.30043763 0.2682426 0.26989487 0.24629703 0.18147989 -0.18223059 0.17336474 0.16794851
0.24835841 0.23880883 0.19554058 0.20134547 0.19595492 0.2167495 0.2561341 -0.2761681
-0.22877534 -0.25661924 -0.18550493 -0.14658546 -0.23744008 -0.24744308 -0.21899934 0.26977625
0.21427798 -0.21480829 -0.19162856 0.23944911 -0.22846393 -0.24448323 -0.24856883 -0.22006682
-0.2211512 -0.23192112 -0.17381765 -0.21588665 0.23891817 -0.24923329 0.22682035 0.28683296
-0.2753956 -0.26519388 0.21371794 0.25521785 0.27449048 0.23343071 0.19138822 0.23244801
-0.18812624 -0.25652692 0.21596113 -0.28646487 -0.21127954 -0.18051143 0.26036164 0.24310519
0.17256817 -0.23135579 -0.2592841 0.26067528 -0.27900937 -0.19738066 0.21381932 0.2609895
