16 - Recurrent Neural Network/model/rnn/weights_200.pth (torch, 53191 bytes, 9 tensors)

rnn.weight_ih_l0 f4 [64, 1]
0	0xbe1d128c	-0.15339106
1	0x3d4e77ff	0.050407406
2	0x3da6bd7a	0.081416085
3	0xbd65e0a0	-0.056122422
4	0x3de35f00	0.11102104
5	0x3d9c7fa4	0.07641533
6	0x3ddbc5c9	0.10731084
7	0x3c886197	0.016648097
8	0x3d490e2f	0.049085792
9	0xbd7c1488	-0.061543018
10	0xbd51aaf3	-0.05118842
11	0x3da3b3fb	0.07993313
12	0xbdccd62b	-0.10001787
13	0x3d87a99c	0.06624147
14	0xbd7f44ee	-0.062321596
15	0x3d94e906	0.07271008
16	0xbd9d13cc	-0.076697916
17	0xbcc60813	-0.024173772
18	0x3dcf598c	0.101245016
19	0x3d6b08a7	0.0573813
20	0x3dd2c397	0.10291212
21	0xbd9facd2	-0.07796635
22	0x3d0cad26	0.034344815
23	0x3db9a435	0.09064523
24	0xbd515379	-0.051104996
25	0x3dbcdc55	0.092217125
26	0x3da9e3a8	0.08295375
27	0xbe4aeda7	-0.1981722
28	0xbd2eea1f	-0.042703744
29	0xbd643d00	-0.055722237
30	0x3dab652c	0.083689064
31	0xbd26236d	-0.04056113
32	0xbdabae7c	-0.0838289
33	0x3d4f9338	0.050677508
34	0xbd6775d7	-0.056508865
35	0x3d511b8c	0.05105166
36	0xbd223c51	-0.039608303
37	0x3d5c2f5c	0.053756103
38	0xbd8dc639	-0.069225736
39	0xbdf88b04	-0.1213589
40	0x3d8ce3f5	0.06879417
41	0x3c8c88a1	0.017154993
42	0x3d36ec83	0.04465915
43	0x3d71211f	0.058869477
44	0xbda43429	-0.08017761
45	0x3da5cc9f	0.08095669
46	0xbdd5cff3	-0.10440054
47	0xbd7fdc82	-0.062466152
48	0xbdae3e0f	-0.085079305
49	0x3d79b634	0.060964778
50	0x3d3b4601	0.045721058
51	0xbcf88928	-0.030338839
52	0xbd699915	-0.057030756
53	0x3d4be88d	0.049782325
54	0xbd22537d	-0.039630402
55	0x3d08cc86	0.033398174
56	0x3deba74e	0.1150652
57	0x3d98548f	0.07438003
58	0xbd510d66	-0.05103817
59	0x3d3d41d1	0.046205346
60	0xbd2ef294	-0.04271181
61	0xbdbdb560	-0.0926311
62	0x3d16f7e6	0.036857508
63	0x3d84d5e8	0.06486112

rnn.weight_hh_l0 f4 [64, 64]
0	0xbcfbaa2c	-0.030720793
1	0x3da737dc	0.08164951
2	0xbd3b36c9	-0.045706544
3	0xbd888c59	-0.06667394
4	0x3e5ee75e	0.21767947
5	0x3d966633	0.07343712
6	0x3e04eec2	0.12981704
7	0xbd28657d	-0.04111241
8	0xbe6e697d	-0.23282428
9	0x3d3d5f22	0.046233304
10	0x3d348d36	0.04407998
11	0xbe64b1cb	-0.22333448
12	0xbe27a677	-0.16372095
13	0x3dcdd58c	0.100504965
14	0xbddf1a5a	-0.10893698
15	0x3db85f4b	0.09002551
16	0xbe1d1b97	-0.15342556
17	0xbe40334b	-0.18769567
18	0x3e10d274	0.14142781
19	0x3da6f48d	0.08152113
20	0x3d6655f2	0.056234308
21	0xbe1e0069	-0.15429844
22	0xbce569dc	-0.02800458
23	0x3daf535e	0.08560823
24	0x3d6684fc	0.056279168
25	0x3e16ae44	0.14714915
26	0x3dd9a2ee	0.106267795
27	0xbe1db763	-0.15401988
28	0x3c2a5180	0.010395408
29	0x3d8e48c7	0.06947475
30	0xbdf21216	-0.11819856
31	0xbd0b0905	-0.03394415
32	0xbdc610bf	-0.09671163
33	0xbca2c214	-0.019867934
34	0xbdaad15a	-0.08340712
35	0xbd5c6d99	-0.053815458
36	0xbe5ddada	-0.21665516
37	0x3d08cae3	0.033396613
38	0x3e54158d	0.20711346
39	0xbbb123d8	-0.0054058842
40	0xbd12f1fd	-0.03587531
41	0x3d35df63	0.04440249
42	0xbdc61094	-0.09671131
43	0xbe249983	-0.16074185
44	0xbd22e619	-0.03977022
45	0x3e007832	0.12545851
46	0xbd77fd09	-0.060544048
47	0xbd956140	-0.072939396
48	0xbd35d404	-0.044391647
49	0xbd1b2c63	-0.037884127
50	0x3d934ea7	0.07192736
51	0xbe01c72d	-0.12673636
52	0x3e059f88	0.13049138
53	0xbcdaf9bb	-0.026730409
54	0x3bf4d17b	0.007471261
55	0xbd182ec9	-0.037153993
56	0x3e08327e	0.13300511
57	0xbdfb001c	-0.1225588
58	0x3d160d80	0.03663397
59	0x3d4167be	0.047218077
60	0x3cc61065	0.02417774
61	0x3d843bfb	0.06456753
62	0x3e20ac92	0.1569083
63	0x3d6b8caf	0.057507213
64	0x3d7a11ab	0.061052006
65	0x3d421e13	0.047391962
66	0x3e0fc0f0	0.14038444
67	0xbdefc18d	-0.11706839
68	0xbdb874f8	-0.09006685
69	0xbcdbd1cd	-0.02683344
70	0x3d91d953	0.071215294
71	0x3d1b3b99	0.037898634
72	0x3e0bd2ed	0.1365468
73	0xbdaa375b	-0.083113395
74	0x3d69b0fc	0.05705355
75	0x3d3a4685	0.04547741
76	0xbdb9ba4d	-0.09068737
77	0xbd8e6bdb	-0.069541655
78	0x3d86a55d	0.06574509
79	0x3c5752ce	0.013142301
80	0x3d1a65bd	0.03769468
81	0x3df1bfed	0.11804185
82	0x3c2d1e6b	0.010566334
83	0xbdd4ac63	-0.10384443
84	0xbd0a9c04	-0.033840194
85	0x3d9a569a	0.07536049
86	0xbb8ac38f	-0.004234738
87	0x3cbdf79b	0.023189357
88	0x3dd6b0d2	0.104829445
89	0xbd0074fa	-0.031361558
90	0xbcbdb769	-0.023158746
91	0x3df33ca6	0.11876802
92	0xbdc523f0	-0.09625995
93	0xbd5fdf0b	-0.05465607
94	0xbd933165	-0.07187156
95	0x3ceb8934	0.028751947
96	0x3c270e21	0.01019624
97	0x3cc9a06f	0.024612634
98	0xbd916fe4	-0.071014196
99	0xbd570df2	-0.052503534
100	0x3e4125e0	0.18862104
101	0xbc2e5290	-0.010639802
102	0xbe08bcd5	-0.13353284
103	0x3c4b1ce5	0.012397026
104	0xb8c7c9af	-9.526626e-05
105	0xbd7cf3e8	-0.061756045
106	0x3d9f2567	0.07770806
107	0x3e30659f	0.17226265
108	0xbd6963d4	-0.05697997
109	0xbd41f2b8	-0.047350615
110	0xbdb37f63	-0.087645315
111	0x3da1e740	0.079054356
112	0x3d11f4e5	0.03563394
113	0x3ded5409	0.11588294
114	0xbdfd79b6	-0.1237673
115	0x3d8707f3	0.06593313
116	0xbdc2849f	-0.09497952
117	0xbd42790a	-0.047478713
118	0x3da3074b	0.079603754
119	0x3d7f197e	0.06228017
120	0xbd06a116	-0.032868467
121	0xbd22e81a	-0.03977213
122	0xbce9e1af	-0.028549997
123	0x3d4a5ae4	0.049403086
124	0x3cdc0dc6	0.026862036
125	0xbd68c678	-0.0568299
126	0xbd9d65e6	-0.07685451
127	0xbdeb1c4b	-0.11480006
128	0xbd484be9	-0.04890052
129	0xbd4b1875	-0.04958387
130	0x3e409eec	0.18810624
131	0xbd84d1f9	-0.064853616
132	0xbca92519	-0.020647572
133	0xbe8a9d11	-0.27072957
134	0x3c87e1bc	0.01658713
135	0xbd8b2bd9	-0.06795473
136	0x3d3722e3	0.044711005
137	0x3dc3b86a	0.095566586
138	0xbd968769	-0.07350046
139	0xbbf6fcc0	-0.0075374544
140	0x3d86bb5d	0.065787055
141	0xbdb8404b	-0.08996638
142	0x3e10b634	0.14132005
143	0x3d4581a4	0.048219338
144	0x3e1ba3a4	0.15199143
145	0xbe0f6b47	-0.14005767
146	0xbd55bab7	-0.05218002
147	0x3dfec7db	0.12440463
148	0x3ded10c9	0.11575467
149	0xbdf8ca35	-0.12147943
150	0xbd173888	-0.036919147
151	0xbdc2ca2f	-0.0951122
152	0x3d8b6bad	0.06807647
153	0xbdfbed09	-0.1230107
154	0xbbc26892	-0.005932876
155	0x3e334818	0.1750797
156	0xbc89b960	-0.016812027
157	0x3ce58334	0.028016664
158	0x3b0ea9e4	0.0021768743
159	0xbd93cb5e	-0.072165236
160	0x3da7a592	0.08185877
161	0xbde4fa71	-0.111805804
162	0x3e0cb2d0	0.13740087
163	0x3d0dccbd	0.03461908
164	0x3d9fdec0	0.07806158
165	0xbd54104d	-0.051773358
166	0xbe45faa2	-0.1933389
167	0x3dd10dfa	0.10207744
168	0xbc40a131	-0.011757181
169	0x3c7e12bf	0.015507399
170	0xbd47365d	-0.04863583
171	0x3d525bcd	0.05135708
172	0xbdb13943	-0.086535
173	0xbd8bc01b	-0.068237506
174	0xbe082c0d	-0.13298054
175	0xbd879b2f	-0.06621396
176	0x3e10b6ac	0.14132184
177	0x3e06512d	0.13116904
178	0x3d84cf71	0.06484879
179	0xbdc6db9f	-0.09709858
180	0xbdc03f57	-0.09387081
181	0xbd85d14e	-0.06534062
182	0x3d1e1f31	0.038603965
183	0xbcfc320b	-0.030785581
184	0x3c38cc3b	0.011279161
185	0xbd857c77	-0.065178804
186	0xbd9843ba	-0.07434793
187	0xbd823667	-0.06358033
188	0x3e0441b6	0.12915692
189	0xbe23cb4a	-0.15995517
190	0x3ae22ca3	0.0017255734
191	0xbc692d6d	-0.014232022
192	0xbde66c75	-0.11251155
193	0x3da28f7b	0.07937523
194	0xbd1d8022	-0.038452275
195	0x3dec2f37	0.11532443
196	0xbdf25849	-0.11833245
197	0xb90fb38d	-0.0001370443
198	0x3d955b01	0.07292748
199	0xbceff00a	-0.029289264
200	0xbd5558d1	-0.052086655
201	0xbe08d521	-0.13362552
202	0x3cf34fa3	0.02970106
203	0x3dca43e6	0.09876232
204	0x3e0334b0	0.12813067
205	0xbdbbbe15	-0.09167115
206	0xbd139500	-0.03603077
207	0xbdbb4f1f	-0.091459505
208	0x3c11b722	0.00889376
209	0x3ad1310a	0.0015960049
210	0x3d075fa5	0.033050198
211	0x3dac4616	0.08411805
212	0x3cecc965	0.028904626
213	0x3d9bbcd8	0.076043785
214	0x3dbefed4	0.09325948
215	0x3df65c19	0.12029285
216	0x3d685b02	0.056727417
217	0x3d9ea396	0.07746045
218	0x3da5abab	0.08089384
219	0x3db18526	0.08667974
220	0xbd079c49	-0.03310803
221	0xbd9c6b01	-0.07637597
222	0xbcb079ce	-0.021542456
223	0xbd42ebbf	-0.047588106
224	0x3da0a2ac	0.07843527
225	0x3e042d6e	0.12907955
226	0x3d6f6514	0.058446005
227	0xbd854d2f	-0.06508862
228	0xbe2f1db5	-0.17101176
229	0x3d318944	0.043343797
230	0x3d0c8333	0.03430481
231	0xbd772e2b	-0.060346764
232	0xbcfbcae8	-0.030736402
233	0x3dd89505	0.10575298
234	0x3dad1db8	0.08452934
235	0xbd304dbb	-0.04304288
236	0x3dea2835	0.1143345
237	0xbd84d28f	-0.06485473
238	0x3b38b246	0.002818243
239	0x3d80b1ae	0.0628389
240	0xbdd19c10	-0.10234845
241	0xbd5d96da	-0.05409894
242	0xbd6a90c8	-0.05726698
243	0xbde83cfb	-0.11339756
244	0xbe0fa0d9	-0.14026202
245	0x3c22cba3	0.009936246
246	0xbdd1ffc0	-0.102538586
247	0x3db244ea	0.087045506
248	0xbdad72e4	-0.08469179
249	0x3e09652a	0.13417497
250	0xbccd25b6	-0.025042396
251	0xbde3fa5c	-0.11131737
252	0xbd9b25c9	-0.07575566
253	0x3be7e211	0.0070765098
254	0xbdb0a18d	-0.08624563
255	0xbcb17b20	-0.021665156

rnn.bias_ih_l0 f4 [64]
0	0x3e1aef3f	0.15130328
1	0x3d916a61	0.07100368
2	0xbeb98f26	-0.36242026
3	0x3d3e57f7	0.04647061
4	0x3deb0c1d	0.1147692
5	0x3d8aa1a0	0.06769109
6	0xbbe3f864	-0.0069571007
7	0x3d9f270e	0.07771121
8	0xbdb071ea	-0.086154774
9	0x3e955e3f	0.29173467
10	0x3d8ead41	0.06966639
11	0xbe89e86c	-0.26935136
12	0xbdeedfd7	-0.11663788
13	0xbd7e2d41	-0.062054876
14	0xbe029977	-0.12753855
15	0xbe38649b	-0.18007128
16	0xbe2b66dd	-0.16738458
17	0xbd5ad621	-0.053426865
18	0x3e1dd438	0.15412986
19	0xbdc23bd9	-0.09484071
20	0xbd351551	-0.044209782
21	0x3e0dc0f3	0.13843136
22	0x3d670f34	0.056410983
23	0x3d17ea28	0.037088543
24	0xbd964c34	-0.07338753
25	0x3e281db0	0.16417575
26	0x3dc67174	0.09689608
27	0xbdcb2d04	-0.099206954
28	0xbd09083e	-0.033455126
29	0x3e59e026	0.21276912
30	0xbe624681	-0.22097208
31	0x3d344b8e	0.044017367
32	0xbd7254ae	-0.059162788
33	0xbe1cc03c	-0.15307707
34	0xbd4544b4	-0.048161224
35	0xbe4d0e12	-0.20024899
36	0x3d8efbf0	0.06981647
37	0x3c99237e	0.018693682
38	0x3e9e410e	0.30909008
39	0x3dcaceaa	0.09902699
40	0x3d0eb3fc	0.034839615
41	0x3d8a721d	0.06760047
42	0xbe6d9608	-0.23201764
43	0xbe582354	-0.21107227
44	0x3e09e2b8	0.13465393
45	0x3d6b3003	0.057418834
46	0x3e4ee416	0.20204195
47	0x3e565688	0.20931447
48	0x3d834d39	0.064112134
49	0xbe7d2d6c	-0.24724358
50	0xbe1f70e6	-0.15570411
51	0xbdecdc18	-0.11565417
52	0x3e6ab44f	0.22920345
53	0xbe01f3eb	-0.12690704
54	0x3d3e7f36	0.046508037
55	0x3c3e987c	0.011633035
56	0x3cd5a48f	0.026079444
57	0xbe8f38be	-0.27972978
58	0x3da2d234	0.07950249
59	0x3db99bb1	0.09062899
60	0x3d3aa22c	0.045564815
61	0x3e804174	0.25049937
62	0x3df76a8b	0.12080868
63	0xbd2253c8	-0.03963068

rnn.bias_hh_l0 f4 [64]
0	0x3cebdd5e	0.02879208
1	0x3db1b2af	0.08676659
2	0xbe7b4743	-0.24538903
3	0x3e58286f	0.21109174
4	0x3d683acf	0.05669671
5	0x3d8eefd2	0.06979336
6	0x3be2a176	0.0069162203
7	0x3a0b5625	0.0005315266
8	0xbdfd981a	-0.12382527
9	0x3e7d9b56	0.24766287
10	0x3d29b7e5	0.04143514
11	0xbeb0ce5f	-0.3453245
12	0xbd0d96f3	-0.034567785
13	0x3dd499e4	0.10380915
14	0xbe036c1e	-0.12834212
15	0xbda73606	-0.08164601
16	0xbd822701	-0.06355096
17	0xbdc28a50	-0.09499037
18	0x3d3ae37a	0.045627095
19	0xbdf09591	-0.117472775
20	0xbe424214	-0.1897052
21	0x3e384717	0.17995869
22	0xbd4dd7f5	-0.05025478
23	0xbde0b7e7	-0.109725766
24	0xbe1a3877	-0.15060602
25	0x3dce1dd1	0.10064281
26	0xbd4164d0	-0.047215283
27	0xbe2e1ed7	-0.17003952
28	0xbcad7947	-0.021175994
29	0x3dfd3ff0	0.12365711
30	0xbd573be4	-0.05254735
31	0xbda5963c	-0.080852956
32	0x3dcce4e9	0.10004599
33	0xbd0fa747	-0.035071637
34	0xbdc58696	-0.09644811
35	0xbe501a71	-0.20322587
36	0x3e0c95be	0.13728997
37	0x3c6120d1	0.013740734
38	0x3ea27870	0.31732512
39	0x3d23c2aa	0.039980568
40	0xbd13b27c	-0.036058888
41	0xbd0911ab	-0.033464115
42	0xbe6c514d	-0.23077889
43	0xbe977e15	-0.2958838
44	0x3d9d9dbd	0.07696102
45	0xbdc24e96	-0.09487645
46	0x3cd2e2f5	0.025742987
47	0x3db0d4b7	0.08634322
48	0xbd3d565e	-0.046224944
49	0xbe84747d	-0.25870124
50	0x3d2b444d	0.041813184
51	0xbe0c51db	-0.137031
52	0x3e5ccbad	0.21562071
53	0xbea1ba94	-0.3158766
54	0x3d8b60ed	0.068055965
55	0x3d70e6a7	0.058813717
56	0x3df8cfdd	0.12149022
57	0xbe8fe48a	-0.2810405
58	0x3e02c6a5	0.1277109
59	0x3c10fc76	0.008849254
60	0x3d2431c9	0.04008654
61	0x3dcd9daa	0.10039838
62	0xbdcdd3c9	-0.100501604
63	0xbe1d001d	-0.15332074

rnn.weight_ih_l1 f4 [64, 64]
0	0x3d9587ab	0.07301267
1	0x3cf5e981	0.03001857
2	0xbe2bd164	-0.16779095
3	0x3e042c3e	0.12907502
4	0xbde8c639	-0.11365933
5	0xbe067ad4	-0.13132793
6	0xbe1d65d1	-0.15370871
7	0x3d80679a	0.062697604
8	0x3d5d8210	0.054079115
9	0x3b5653c4	0.0032703737
10	0xbc82747b	-0.015924683
11	0xbd4476f9	-0.047965024
12	0x3d95e142	0.07318355
13	0x3d37e90a	0.044899978
14	0x3da599ff	0.08086013
15	0xbdfbffc6	-0.12304644
16	0xbd57f3a0	-0.052722573
17	0xbcc66008	-0.024215713
18	0xbb4c1838	-0.0031142365
19	0xbdc37c42	-0.09545185
20	0x3a6cccb1	0.0009033187
21	0x3d420b04	0.047373787
22	0xbd168152	-0.036744423
23	0x3d4f243a	0.050571658
24	0xbda87587	-0.082255416
25	0xbc8d57cf	-0.017253784
26	0xbc02754b	-0.007962535
27	0xbc444332	-0.011978911
28	0x3dd39a2c	0.1033214
29	0xbb20fa39	-0.0024563207
30	0xbe1f602e	-0.15564033
31	0x3d5cc3d4	0.053897694
32	0xbd44420d	-0.047914553
33	0xbdc8b805	-0.09800724
34	0x3d86655b	0.06562301
35	0xbd86eaad	-0.065877296
36	0xbda74c09	-0.081687994
37	0xbd9174b9	-0.07102341
38	0x3de80e8d	0.113309
39	0x3deef2e9	0.11667425
40	0x3d8fa85a	0.070145324
41	0xbd46ee1e	-0.04856693
42	0xbd2db8c2	-0.042412527
43	0xbcb811a4	-0.02246935
44	0x3c31bc5f	0.010848134
45	0xbdb38322	-0.08765246
46	0xbd6a1f5f	-0.057158824
47	0x3cb3d971	0.02195427
48	0xbd45700b	-0.048202556
49	0xbd909096	-0.070588276
50	0xbd97758d	-0.07395468
51	0x3ce70181	0.02819896
52	0xbd5dcc61	-0.05414999
53	0xbc5938fd	-0.013258216
54	0x3d7eebfb	0.062236767
55	0x3c97ff39	0.018554317
56	0x3bfca025	0.0077095204
57	0xbe16f621	-0.14742328
58	0xbd1b4abc	-0.03791307
59	0x3b493c25	0.0030706015
60	0xbd2ea634	-0.042638972
61	0x3d8617e1	0.06547523
62	0x3d82f373	0.063940905
63	0xbd2bbdcd	-0.041929055
64	0xbdc75bd3	-0.09734311
65	0x3e0e22fb	0.13880531
66	0xbd3b89a0	-0.045785546
67	0x3d21a786	0.039466403
68	0xbd896754	-0.067091614
69	0x3dc69572	0.09696473
70	0xbdd005d5	-0.10157362
71	0xbd04c80b	-0.03241734
72	0x3e554b83	0.20829587
73	0xbe0f12fa	-0.13972083
74	0xbe12b7aa	-0.14327875
75	0x3e29509d	0.16534658
76	0x3cf535ff	0.029932974
77	0x3dc1cc47	0.09462791
78	0x3d27b910	0.040947974
79	0x3dcd4308	0.10022551
80	0x3d8909b8	0.06691307
81	0xbaf6c60c	-0.0018827333
82	0xbd18ca00	-0.037302017
83	0x3d4ab953	0.049493145
84	0x3e0cebe1	0.13761856
85	0xbd3dc223	-0.04632772
86	0x3d9647b1	0.07337893
87	0xbd923111	-0.07138265
88	0x3cb8d7f3	0.02256391
89	0x3da953cf	0.08267938
90	0xbc3e3f8e	-0.011611832
91	0x3d4c65a5	0.049901623
92	0x3ccfdda2	0.025374237
93	0xbe3a475f	-0.18191288
94	0x3d56f9ed	0.05248444
95	0xbdea94f1	-0.114541896
96	0x3d562987	0.052285697
97	0x3dc7ebee	0.09761797
98	0x3da9cc3a	0.08290906
99	0x3e0fd554	0.14046222
100	0xbe00eec5	-0.12591083
101	0xbdfda4df	-0.12384962
102	0xbdaf5bf5	-0.08562461
103	0x3ddf64f0	0.10907924
104	0xbcc43d53	-0.023955023
105	0x3dc825c9	0.09772832
106	0xbd8cb01b	-0.06869527
107	0x3ea48ca0	0.32138538
108	0xbc0e4d38	-0.008685403
109	0xbd9bb02f	-0.07601964
110	0x3cc641a4	0.024201222
111	0xbe45d839	-0.19320764
112	0x3d477b26	0.048701428
113	0xbd1e24d3	-0.038609337
114	0x3cc044d4	0.02347032
115	0xbc2cc777	-0.010545603
116	0xbd50c0c5	-0.05096509
117	0x3deea0ca	0.11651762
118	0x3cdcd12b	0.026955208
119	0x3e10e4ca	0.14149776
120	0xbd8b6be3	-0.06807687
121	0x3de66c28	0.11251098
122	0xbdf8850f	-0.12134754
123	0xbd844f9c	-0.06460497
124	0xbe1d7be2	-0.15379289
125	0xbdbe7b5b	-0.09300872
126	0x3df1674e	0.11787282
127	0x3c1842ca	0.0092932675
128	0xbcc81b74	-0.024427153
129	0x3e0c2dc3	0.13689332
130	0xbd38c087	-0.045105483
131	0xbd5eb3d4	-0.054370716
132	0x3dae3608	0.085063994
133	0x3e05903a	0.130433
134	0xbd8e6bf5	-0.06954185
135	0xbca5fa98	-0.020261094
136	0x3d0477e8	0.032340914
137	0xbde8e45e	-0.113716826
138	0x3d8661ad	0.06561599
139	0x3dbcc7be	0.09217785
140	0xbde57ebb	-0.112058125
141	0x3dad4183	0.08459761
142	0xbde4bab7	-0.111684255
143	0xbd9ca045	-0.076477565
144	0xbd976f0e	-0.07394229
145	0xbdaa5e3d	-0.08318756
146	0x3d9c93d5	0.07645384
147	0x3cf64fec	0.030067407
148	0xbda0cb8a	-0.07851322
149	0xbd0f258a	-0.03494791
150	0xbd216507	-0.039402988
151	0x3e144e49	0.14482988
152	0xbd263536	-0.04057809
153	0x3d710aa9	0.058848057
154	0xbd892814	-0.066970974
155	0x3cf70598	0.030154034
156	0xbc96a265	-0.018387983
157	0xbdeaac3e	-0.11458634
158	0x3dfdb9f6	0.12388985
159	0x3dac431d	0.08411238
160	0x3d3fc81f	0.04682171
161	0xbd182d10	-0.03715235
162	0xbe0823ce	-0.13294908
163	0x3e00b74c	0.12569922
164	0x3d933b44	0.071890384
165	0x3d73c1a1	0.05951083
166	0x3d404428	0.04694
167	0xbd654b07	-0.055979755
168	0x3cfe766d	0.03106233
169	0x3ddbb5e9	0.10728056
170	0x3de652e1	0.11246277
171	0x3cd9f13e	0.026604291
172	0x3dbf5915	0.09343163
173	0x3d14d019	0.03633127
174	0xbdeba3e8	-0.11505872
175	0x3d9eed31	0.077600844
176	0xbc58476e	-0.013200624
177	0x3df863e3	0.12128427
178	0x3ae8963b	0.0017744967
179	0xbe0f97eb	-0.14022796
180	0x3db6ff71	0.0893544
181	0x3cad96c3	0.021190053
182	0xbd8e3de1	-0.06945396
183	0x3e2b0db0	0.1670444
184	0xbd5ee158	-0.054414123
185	0xbca71c4c	-0.020399235
186	0x3bacbd11	0.005271562
187	0x3e26cbaa	0.16288629
188	0x3d5c8f0c	0.053847358
189	0xbdbf305f	-0.09335398
190	0xbd8a01a8	-0.06738597
191	0x3db1e8da	0.08686991
192	0xbd9d8454	-0.07691255
193	0x3d9ad18a	0.07559498
194	0x3d481ab8	0.048853606
195	0xbd6e3fab	-0.058166187
196	0x3d404782	0.046943195
197	0xbd6d2137	-0.057893004
198	0x3d37ca99	0.044870947
199	0xbdc96d01	-0.09835244
200	0x3d429280	0.047502995
201	0xbdcf1cc8	-0.101129115
202	0x3cf59a13	0.029980695
203	0x3e03edf9	0.12883748
204	0xbcd21ce9	-0.025648551
205	0x3deaf573	0.11472597
206	0x3d7429f1	0.05961031
207	0x3e3f6057	0.18689094
208	0x3d81b8b6	0.06334059
209	0x3e3057c8	0.17220986
210	0x3c94099f	0.018070994
211	0x3e02f062	0.12787011
212	0x3da0e231	0.078556426
213	0xbd9c73c8	-0.07639271
214	0xbd4ddfc6	-0.050262235
215	0x3d609859	0.05483279
216	0x3c8a9f0b	0.01692154
217	0x3c9c95ae	0.019114342
218	0xbd1ab081	-0.037765983
219	0x3c67552b	0.014119427
220	0x3dabcccd	0.08388672
221	0xbe263f0d	-0.1623499
222	0x3de5909c	0.11209223
223	0xbddae5f7	-0.106883936
224	0x3db48810	0.08815014
225	0x3e3d4f4a	0.18487278
226	0xbdd8a8b6	-0.10579054
227	0x3d5b8e62	0.053602584
228	0xbe23dbd4	-0.16001827
229	0xbd2a444e	-0.041569047
230	0xbd9ded61	-0.07711292
231	0xbccdab65	-0.025106141
232	0x3bfbbc7c	0.007682381
233	0x3db56786	0.08857636
234	0x3e1e011e	0.15430114
235	0x3e63a277	0.22229944
236	0xbcf4a6dc	-0.029864721
237	0x3e105e71	0.14098527
238	0xbde5c3fd	-0.112190224
239	0x3ba80e44	0.0051286537
240	0x3dd77884	0.105210334
241	0x3e3b3ea4	0.18285614
242	0x3e03f8eb	0.12887923
243	0x3e005232	0.12531355
244	0xbc335024	-0.0109444
245	0xbd79611d	-0.06088363
246	0xbd897995	-0.06712643
247	0x3e144a85	0.14481552
248	0xbd26102b	-0.040542763
249	0x3e048ed5	0.12945111
250	0xbe0bfe0d	-0.13671131
251	0xbd52071a	-0.051276304
252	0xbd3ca84b	-0.046058934
253	0xbce9b0fd	-0.028526777
254	0xbc8129bb	-0.015766969
255	0x3e30607e	0.17224309

rnn.weight_hh_l1 f4 [64, 64]
0	0xbd815824	-0.063156396
1	0x3cd57b6e	0.026059832
2	0xbd0bbd85	-0.034116287
3	0x3b569da6	0.0032747774
4	0x3daee6f0	0.085401416
5	0x3c02fdee	0.007995112
6	0x3e216c85	0.15764053
7	0xbdac87ea	-0.08424361
8	0xbdddeea0	-0.1083653
9	0x3cd3ded5	0.02586309
10	0xbd8c349e	-0.068459734
11	0x3cd1a373	0.025590634
12	0x3de308cb	0.110856615
13	0xbcb4e756	-0.022082966
14	0xbd527e85	-0.05139019
15	0x3dac8e22	0.08425547
16	0x3d263d2f	0.040585693
17	0xbda606b8	-0.0810675
18	0xbdbb59c6	-0.09147982
19	0xb82e5956	-4.1568033e-05
20	0xbcadde2c	-0.021224104
21	0xbda52292	-0.080632344
22	0x3dc83f8c	0.097777456
23	0x3d796e90	0.060896456
24	0xbe1ba227	-0.15198575
25	0xbc7fe009	-0.015617379
26	0xbceafbb5	-0.028684476
27	0x3c6e1179	0.014530533
28	0xbbbbb0e7	-0.0057278755
29	0x3dad7697	0.08469885
30	0x3e071cfa	0.13194647
31	0xbd516624	-0.0511228
32	0xbd6d53f1	-0.05794138
33	0xbd378017	-0.04479989
34	0xbdb83274	-0.08993998
35	0x3d35f9ca	0.04442767
36	0xbc75022c	-0.014954131
37	0xbd19f61a	-0.037588216
38	0xbdc40396	-0.095709965
39	0x3a7e19f4	0.00096931984
40	0xbbc02e11	-0.0058648665
41	0x3e1a6861	0.1507888
42	0xbe06657d	-0.13124652
43	0x3d13915b	0.036027294
44	0xbdf64265	-0.120243825
45	0x3d0b2877	0.033974137
46	0xbdc4689b	-0.095902644
47	0xbe026f98	-0.12737882
48	0xbb580262	-0.0032960405
49	0xbdecdd42	-0.11565639
50	0xbdd015fe	-0.10160445
51	0x3dc71248	0.09720284
52	0xbcbb972f	-0.022899238
53	0x3dfb60f6	0.12274353
54	0x3dfb7473	0.1227807
55	0xbd4601ad	-0.048341442
56	0x3dc85ccd	0.09783325
57	0xbc125520	-0.008931428
58	0x3d4241db	0.047426086
59	0x3d26a54b	0.04068498
60	0x3e0059ee	0.12534305
61	0x3dc93075	0.098236956
62	0xbd4ae636	-0.049535953
63	0x3c85531e	0.016274985
64	0xbcaf3d2d	-0.021391476
65	0x3e0b07ba	0.13577166
66	0x3d82ebb1	0.06392611
67	0xba8bd11d	-0.0010667179
68	0x3de67965	0.11253623
69	0x3de51937	0.1118645
70	0xbd66359b	-0.056203466
71	0x3dcbd498	0.099526584
72	0x3c9701b8	0.018433437
73	0x3d0b4171	0.033997957
74	0x3d015e6b	0.031584185
75	0x3e5bee14	0.21477538
76	0x3d9b97b1	0.07597292
77	0x3df7291b	0.12068387
78	0x3e1f1213	0.15534239
79	0xbd955d15	-0.072931446
80	0x3de44bca	0.11147268
81	0x3d465548	0.048421174
82	0xbe18649e	-0.14882132
83	0x3d0f0c96	0.034924112
84	0x3d80d780	0.06291103
85	0x3dbe4d10	0.09292042
86	0x3c20ce92	0.009814875
87	0x3d30993a	0.04311488
88	0x3dce1608	0.10062796
89	0xbd1dfe55	-0.038572628
90	0xbdbf33d2	-0.09336056
91	0xbd87b92e	-0.06627117
92	0xbdb95f46	-0.09051375
93	0xbd862fdf	-0.065520994
94	0x3ddf6ba3	0.10909202
95	0x3bdaeaa2	0.0066808024
96	0x3dab9d4a	0.0837961
97	0x3bf3eb17	0.0074437964
98	0xbde8c92d	-0.11366496
99	0x3d31ef68	0.043441206
100	0xbdb0a109	-0.08624465
101	0xbc04f11f	-0.008114128
102	0xbce66ae2	-0.028127138
103	0x3d251023	0.040298592
104	0x3d9a453c	0.07532737
105	0x3d1eee65	0.03880157
106	0x3e13c0a2	0.14428952
107	0xbd22adf2	-0.03971667
108	0x3c01b2a8	0.00791613
109	0x3d85056a	0.06495173
110	0x3dcd8648	0.10035378
111	0x3cd3b637	0.025843723
112	0x3e0906a9	0.13381447
113	0x3ca4e493	0.020128524
114	0xbdaec08d	-0.0853282
115	0x3d75a953	0.059975933
116	0x3d6fa54f	0.05850726
117	0xbdbfc18b	-0.09363087
118	0xbdbc9855	-0.092087425
119	0x3d3cf2e5	0.04613008
120	0x3bb90704	0.0056465883
121	0x3c6e1e35	0.014533569
122	0x3d4e7193	0.05040128
123	0x3d317c8c	0.043331668
124	0x3d95113d	0.072786786
125	0x3d7600b8	0.06005928
126	0xbdbd70a9	-0.09250004
127	0x3d03bce7	0.032162573
128	0xbddabfcd	-0.10681114
129	0x3ce630d5	0.028099457
130	0x3da1e9cd	0.07905922
131	0x3d4d1efc	0.050078377
132	0x3ca7da4b	0.020489832
133	0x3d76686c	0.06015818
134	0xbdbb2da4	-0.09139565
135	0xbb371d06	-0.0027940883
136	0x3d2298a2	0.039696343
137	0xbd64bd14	-0.05584438
138	0x3d594faf	0.053054508
139	0x3e0bc8d5	0.1365083
140	0xbcfffef3	-0.031249499
141	0x3cbf2f60	0.02333802
142	0xbd23a470	-0.03995174
143	0xbd708167	-0.058717158
144	0x3d42d2ae	0.0475642
145	0xbde293c7	-0.110633425
146	0xbd4b0a80	-0.04957056
147	0xbe068574	-0.13136846
148	0x3baf487c	0.005349217
149	0x3c773b20	0.01508978
150	0xbdf30591	-0.11866296
151	0xbd04d4f0	-0.032429636
152	0x3c8b62f9	0.017014967
153	0xbd7ab7f8	-0.061210603
154	0x3d6546fd	0.055975903
155	0x3e1e737a	0.15473738
156	0xbd4b3214	-0.049608305
157	0xbe07895d	-0.13235994
158	0xbdbabeae	-0.091184005
159	0x3d6b1338	0.057391375
160	0xbc92f185	-0.017937431
161	0xbd8c075f	-0.068373434
162	0x3d520713	0.051276278
163	0xbe171633	-0.14754562
164	0x3d9c80c3	0.07641747
165	0x3c86695d	0.016407663
166	0x3d898927	0.06715613
167	0xbccae99b	-0.024769595
168	0xbd2f45ab	-0.04279105
169	0x3c9edda8	0.019392803
170	0x3d310e1f	0.043226358
171	0x3e0cc92d	0.13748617
172	0xbdb5234f	-0.08844625
173	0x3dde083c	0.10841414
174	0x3d98c7d8	0.07459992
175	0x3d92ab77	0.071616106
176	0x39a32179	0.00031114722
177	0xbdddade5	-0.108241834
178	0xbdb9ea0d	-0.09077845
179	0x3d479ae1	0.04873169
180	0xbddd2c26	-0.10799436
181	0xbe0e787c	-0.13913149
182	0x3d01d47d	0.031696785
183	0x3d053b8a	0.032527484
184	0x3dbc5972	0.09196748
185	0xbdeca23e	-0.11554383
186	0x3ddef65f	0.10886835
187	0x3d01a8ff	0.031655308
188	0xbc0cd4d8	-0.008595668
189	0x3dc230ff	0.094820015
190	0x3cf400e1	0.029785575
191	0xbd81f63c	-0.063457936
192	0x3d4d13f2	0.05006785
193	0x3ce528c5	0.027973542
194	0xbcca8064	-0.024719425
195	0xbd8cf679	-0.068829484
196	0x3d9d7ce4	0.076898366
197	0x3d1e6757	0.03867277
198	0xbe00440e	-0.12525961
199	0x3df0338e	0.11728583
200	0xbca0f9a9	-0.019650297
201	0xbcd1e43d	-0.025621528
202	0xbd03984a	-0.032127656
203	0x3e21901c	0.1577763
204	0xbd849057	-0.06472843
205	0x3d90a5ca	0.07062872
206	0xbcfeeacf	-0.031117825
207	0xbe06615e	-0.1312308
208	0x3dc267a1	0.09492422
209	0x3d9d724a	0.076878145
210	0xbdd886f5	-0.10572616
211	0xbbbc2308	-0.0057414807
212	0x3d00990d	0.03139596
213	0xbd9552a4	-0.07291153
214	0x3d8b3656	0.06797473
215	0x3caad84f	0.020855097
216	0x3e0531a3	0.13007216
217	0x3c5d595e	0.013510076
218	0xbd82bf74	-0.06384173
219	0x3da231de	0.07919668
220	0x3d7db2e0	0.061938167
221	0xbd02d9c6	-0.031945966
222	0xbd024e5c	-0.03181301
223	0x3debc4cc	0.115121454
224	0x3e34b9d7	0.17649017
225	0x3d6bff8f	0.057616767
226	0x3e01acab	0.12663524
227	0xbd32fb5d	-0.04369675
228	0x3d0e4b8b	0.034740012
229	0x3db983ea	0.09058364
230	0x3de2738a	0.110571936
231	0x3d3fb330	0.046801746
232	0x3de8916c	0.11355862
233	0xbcc3e096	-0.023910802
234	0xbd765e35	-0.060148437
235	0xbc8c1aa5	-0.017102549
236	0x3c821582	0.015879396
237	0xbda57e93	-0.08080783
238	0xbd5f94ed	-0.054585386
239	0xbda30077	-0.07959073
240	0x3e1726a5	0.14760835
241	0xbae12d23	-0.001717959
242	0xbd37c333	-0.04486389
243	0x3cde0f0c	0.027106784
244	0xbc748d98	-0.014926337
245	0xbd74f3b0	-0.05980271
246	0x3d0a21d9	0.033723686
247	0x3dd2ff5b	0.103026114
248	0xbc8a3a43	-0.016873484
249	0x3d8aff97	0.06787031
250	0xbd83dadf	-0.06438231
251	0xbd7f124a	-0.0622733
252	0x3ce2bb34	0.027677156
253	0x3d55e33e	0.05221867
254	0x3d2d9a6c	0.042383596
255	0x3df418e5	0.11918811

rnn.bias_ih_l1 f4 [64]
0	0xbd181417	-0.037128534
1	0xbdb8663a	-0.09003873
2	0x3dd1912c	0.102327675
3	0xbd3d7511	-0.04625422
4	0x3dee216c	0.116274685
5	0xbd5aedb0	-0.053449333
6	0xbdb72bff	-0.089439385
7	0x3de8cd2a	0.11367257
8	0x3d8c8d50	0.06862891
9	0x3b455703	0.0030111677
10	0x3d9b2da0	0.07577062
11	0x3cac3a61	0.021023931
12	0xbe621ecc	-0.2208206
13	0xbdd4f3f2	-0.103980914
14	0xbda75433	-0.081703566
15	0x3dae4b80	0.08510494
16	0xbdb6f153	-0.08932748
17	0xbd46132f	-0.04835814
18	0xbd46ae13	-0.048505854
19	0x3d94f46c	0.07273182
20	0xbdf30c60	-0.11867595
21	0xbe1c9160	-0.15289831
22	0xbd64a539	-0.05582163
23	0x3c16fb9e	0.009215264
24	0x3dbe6680	0.09296894
25	0xbd8be53f	-0.068308346
26	0x3e02e459	0.1278242
27	0x3d1fd249	0.039018903
28	0x3d4b0976	0.04956957
29	0xbdc94940	-0.098284245
30	0x3cdd4624	0.027010985
31	0x3db770bf	0.089570515
32	0x399f9901	0.0003044084
33	0xbd78864c	-0.06067495
34	0x3d1cd1db	0.03828607
35	0x3d855fda	0.06512423
36	0xbcd69ed8	-0.02619879
37	0x3d748470	0.059696615
38	0x3dea0bad	0.11428008
39	0x3de723e2	0.11286141
40	0xbc23790c	-0.00997759
41	0x3c969556	0.018381756
42	0xbd72fba9	-0.059322033
43	0xbd7b5565	-0.061360735
44	0x3de9d4e1	0.114175566
45	0x3de81312	0.113317624
46	0xbda2b7b0	-0.07945192
47	0x3dc792b6	0.0974478
48	0x3defa6ed	0.117017604
49	0xbdaa996e	-0.08330046
50	0xbc659496	-0.014012476
51	0xbdd66601	-0.104686745
52	0x3d8ffe4a	0.07030924
53	0xbc9e113b	-0.019295326
54	0xbb8a2ecb	-0.004217004
55	0xbd937bf0	-0.072013736
56	0xbda4a711	-0.08039678
57	0xbc27400f	-0.010208144
58	0x3dac86ad	0.08424125
59	0xbd804809	-0.062637396
60	0xbd020cf0	-0.03175062
61	0x3db0393b	0.08604666
62	0x3df235f4	0.11826697
63	0x3d4e63a2	0.050387986

rnn.bias_hh_l1 f4 [64]
0	0xbca68d47	-0.020331038
1	0xbd0b0750	-0.03394252
2	0x3e153509	0.14571013
3	0xbdebb051	-0.11508239
4	0xbdddb723	-0.10825946
5	0x3d91ce23	0.071193956
6	0x3d6608ea	0.056160845
7	0x3d2b789e	0.041863076
8	0xbc338f4f	-0.01095946
9	0x3d40be88	0.047056705
10	0x3de24e08	0.110500395
11	0xbbf29757	-0.007403295
12	0xbdd2b831	-0.10289038
13	0x3c02a112	0.0079729725
14	0x3dcd28eb	0.1001757
15	0xbe181834	-0.14852983
16	0xbdf3a860	-0.11897349
17	0x3d64613a	0.055756785
18	0x3d1c6b4d	0.038188267
19	0xbd6a462a	-0.05719582
20	0xbe087e96	-0.13329539
21	0xbdb7c54d	-0.08973179
22	0x3dd06510	0.10175526
23	0x3d361d74	0.044461682
24	0x3b9a24a0	0.004704073
25	0xbc9105b5	-0.017702917
26	0x3dfac0f7	0.122438364
27	0x3d9f4008	0.07775885
28	0xbde094be	-0.1096587
29	0xbd88fb81	-0.066885956
30	0x3d9c3d6d	0.076289035
31	0x3da287a2	0.07936026
32	0xbddf01d6	-0.10889022
33	0xbd76dd9d	-0.06026994
34	0x3e061618	0.13094366
35	0xbe267b1f	-0.16257904
36	0x3d337d1c	0.043820485
37	0xbd5e28b0	-0.05423802
38	0x3be27884	0.0069113392
39	0xbdcb09c4	-0.09913972
40	0x3c2cc4c0	0.010544956
41	0xbc1cafcf	-0.0095634
42	0x3d83f0cd	0.064424135
43	0xbb53fd17	-0.0032346898
44	0xbdb9e26a	-0.09076388
45	0x3d2c638d	0.042087127
46	0xbdbbcc93	-0.09169879
47	0x3da31f42	0.07964946
48	0xbd9f93c6	-0.077918574
49	0xbc57d929	-0.013174334
50	0x3d800368	0.0625065
51	0xbde0a6c2	-0.109693065
52	0xbdcd9ec5	-0.100400485
53	0xbd1622f9	-0.036654446
54	0x3d8b248c	0.0679408
55	0xbd327a39	-0.04357359
56	0xbbe96319	-0.007122409
57	0xbdd6c4fb	-0.1048679
58	0xbd2cd092	-0.042191096
59	0x3e1294ec	0.14314622
60	0x3da71a07	0.08159261
61	0xbd4782bc	-0.048708662
62	0x3d1ab463	0.037769686
63	0x3df205cc	0.11817512

fc.weight f4 [1, 64]
0	0xbe9f823d	-0.3115405
1	0x3e90033e	0.28127474
2	0x3e8f63d4	0.2800585
3	0x3e850680	0.25981522
4	0x3e46c10c	0.19409579
5	0xbe46946a	-0.19392553
6	0x3e3eab9c	0.18620151
7	0x3e3660fc	0.17810434
8	0x3e83e279	0.25758722
9	0x3e7e7e3a	0.24852839
10	0x3e5258d7	0.20541702
11	0x3e5b0368	0.21388018
12	0x3e63be1b	0.22240488
13	0x3e696f4e	0.22796366
14	0x3e8883a4	0.26662934
15	0xbe92ce3b	-0.28672966
16	0xbe76dfe8	-0.24108851
17	0xbe893fa9	-0.2680638
18	0xbe4dc5a7	-0.2009493
19	0xbe20412f	-0.15649866
20	0xbe7e22a7	-0.24817906
21	0xbe84b5c6	-0.25919932
22	0xbe6d4710	-0.2317164
23	0x3e8f52c5	0.27992836
24	0x3e673877	0.22580133
25	0xbe682c36	-0.22673115
26	0xbe5581b6	-0.20850262
27	0x3e7fd69b	0.24984209
28	0xbe73aff9	-0.23797597
29	0xbe82e979	-0.2556875
30	0xbe84abec	-0.25912416
31	0xbe6df9e7	-0.23239861
32	0xbe72dc34	-0.23716813
33	0xbe78de5d	-0.24303575
34	0xbe3f73eb	-0.18696563
35	0xbe69757c	-0.22798723
36	0x3e7f1521	0.24910404
37	0xbe8550e3	-0.26038274
38	0x3e72fbec	0.23728913
39	0x3e98062f	0.29692218
40	0xbe92e0e4	-0.28687203
41	0xbe8d7cea	-0.27634364
42	0x3e654895	0.22390969
43	0x3e88aabe	0.26692766
44	0x3e91cacd	0.28475037
45	0x3e7977a8	0.24362051
46	0x3e4f5421	0.20246936
47	0x3e77fc23	0.24217276
48	0xbe511c96	-0.20421061
49	0xbe8950a3	-0.26819333
50	0x3e69fe5e	0.2285094
51	0xbe9853cd	-0.29751435
52	0xbe634292	-0.22193363
53	0xbe44ac95	-0.1920646
54	0x3e8b76fd	0.27239218
55	0x3e822516	0.2541892
56	0x3e3d99a6	0.18515643
57	0xbe78cb90	-0.24296403
58	0xbe8b468f	-0.2720227
59	0x3e8baa18	0.2727821
60	0xbe94e20d	-0.29078713
61	0xbe59d94c	-0.21274298
62	0x3e650e3c	0.22368711
63	0x3e8aa342	0.2707768
