13 - Neural Network/model/weights_best.pth (torch, 873943 bytes, 6 tensors)

fc.1.0.weight f4 [256, 784]
00000000: 85be f23c 5f14 e1bc 357e 553c 64ca 91bc
00000010: 5a88 5dbc bf0f 47bb 4cc8 dfb9 32b9 65bc
00000020: 726d fdbb c767 babc d458 08bd a328 8a3c
00000030: 28c1 0bbc 4dd4 b1bb f87a 14bd 4d2f 96bc
00000040: ba44 893c b5ba 96bc 30c8 b43b 3cb5 6ebc
00000050: a404 3b3c 808d cfbc 96e1 87bc 1a44 bdbc
00000060: 23f9 ae3c 789e c8bb 7055 013d 7e35 fc3c
00000070: 1b8d 9dbc a60a 083c 6303 a03c c725 9bbc
00000080: 6f03 3b3b c1e0 febb 46b0 573c a2b1 be3c
00000090: 22f7 3c3c 9e19 d13b c48e 29bc 1849 39bc
000000a0: f5ac aebc 6254 32bc cfa1 b63a 342d 983c
000000b0: 3be9 25bd 5e0a ad3c 16eb 2fbd 789c 4bbc
000000c0: 8c10 653b 8359 d9bc eb8a 8fbb 1a71 94bb
000000d0: 7cf4 863c 35f3 8bbc 423c 023b 3ac2 48bc
000000e0: 788f dabc a7df 01bd 30d1 be3a 227a 1abd
000000f0: b6f3 b7bc 8c73 833c 7c9f 5dbc d4fe 84bc
00000100: 43f2 0fbd c1bf 20bd ff82 cd3c e810 333b
00000110: b3a3 803c 15b8 8fbc 9914 713c 5438 70bb
00000120: 53fa 22bc d7a6 c7bb 53df 8dbc 24d1 cb3c
00000130: bef7 dbbc 4786 523c 3ff7 873c d51d 973c
00000140: 129b 8abc f3b2 19bc cc95 243c 5f64 4a3c
00000150: fba9 babc 4970 c03c 494a b03a de68 ccbc
00000160: 58de 87b9 0cc5 08bd 74b8 3cbc a10f c9bc
00000170: 6f9b 27bc 2ad8 7d3c 54b6 f53b bbdf e339
00000180: b75b 16bc 4355 e8bb 6812 2abc a860 26bc
00000190: 985e 29bd 1d65 dabb be04 06bd abc9 ca3c
000001a0: e96f 07bd a59d ca3c 948a 5a3c 1385 3dbb
000001b0: 5535 b13c 859e 043c c182 8bbc 8011 c33c
000001c0: bfb7 c03c 34c4 9bbc 35af ce3c e75d ae3c
000001d0: 489c 903c 846d 4337 954b 133b 3c52 b53b
000001e0: a41f e1bc b4ff 06bd 97f5 a23c fa51 2e3c
000001f0: 0d1c 0dbd b189 ed3b f3d4 b93b 573f f0bc
00000200: f71f cf3a 1358 bc3b a521 72bc c6c7 16bc
00000210: 4b51 053c a7e4 07bd 47c4 993c 1ff8 a2bc
00000220: 35d3 183c 80ab 86bc e9c4 e2bb 3ee2 14bd
00000230: e239 ccbc 841c 853c c744 4f3c ab53 a73c
00000240: 4f76 27bc dea3 d7bb 0318 25bd 5a94 ffbc
00000250: 0f37 513b d069 03bd f400 f0bc 9976 2abd
00000260: f14d 5bbb be5d c0bc 9bfe 2b3a aba4 623c
00000270: ffda 9d3c d081 163c b51c 22bd 3435 d13b
00000280: 2148 893c 5142 2e3c 05a4 85bc 05b9 723c
00000290: dbae 163c de06 b73c 58c0 79bc 37bb b23c
000002a0: a718 e5bc 7e79 10bd f990 cfbc 50a8 11bd
000002b0: 5c90 773b d2d4 243c 4427 dbbc 6a03 c6bc
000002c0: 93c7 7e3c bd98 b63c 7aa4 c53c 121a 67bc
000002d0: a732 4b3c 804a eebc 6b1c f6bc 2c1c 8739
000002e0: be3a 9a3c 2c1a 0abd fac4 13bc efaf 553c
000002f0: 10f1 bbbc e082 1f3c 3273 07bd 0a07 5fbc
00000300: 3554 d93b 5c7c 25bc 552d dc3c 34ec 073c
00000310: 3910 9fbc c224 fdbc 1553 953b 4df2 b03c
00000320: 0c8e e5bc 7535 723c 58c9 c6bc 283d 3e3c
00000330: 6efa b4bc 2619 16bd 9f01 c7bb df89 913c
00000340: edd4 aabc f9c0 5ebc cea7 043c a4d5 403c
00000350: b7b3 ca3c 55c2 2fbc 4ec4 13bd d4bf 5a3c
00000360: 38bf a4bc 52c6 a33c 5dd6 aaba 7536 eebc
00000370: 6a68 d0bc e514 16bc fd6f d0bc c863 3fbc
00000380: 02cf 52ba 80d7 243c d8b3 6abb 6a40 2dbc
00000390: e808 e43b a990 a1bc ae7f e8bc 2892 6cbc
000003a0: b519 a1bc 0983 d8bc 1ac4 afbc 12a1 90bc
000003b0: 7a34 833c 79e4 963b 47b0 14bd 14de c03c
000003c0: ab62 fb3b e210 b0bc 6c88 6d3c cb2e 8dbc
000003d0: 2185 7ebb dd23 363c f62d 05bd b272 24bd
000003e0: 431c 82bc 52bf 583c a7bb 11bd 890b 32bb
000003f0: 86ab 523c 4518 e13b 825d 1d3c 5a91 d53c
0.029631862 -0.027475534 0.013030578 -0.017796703 -0.013521278 -0.0030374376 -0.00042683107 -0.014021205
-0.007733994 -0.022754563 -0.033287838 0.01686508 -0.008529939 -0.0054269196 -0.036250085 -0.018333102
0.016756404 -0.018399576 0.0055170283 -0.014569577 0.011414681 -0.025336027 -0.01658706 -0.023103762
0.021359032 -0.0061224066 0.03157562 0.030787226 -0.019232323 0.00830332 0.019532865 -0.018938912
0.0028535982 -0.0077782576 0.013164585 0.023278061 0.01153353 0.0063812276 -0.010348979 -0.011308931
-0.021322707 -0.010884376 0.0013933721 0.018576242 -0.04050563 0.021123108 -0.042948805 -0.012427442
0.003495249 -0.02653194 -0.004380574 -0.0045300843 0.016474001 -0.017083744 0.0019872342 -0.0122533385
-0.02667974 -0.031707432 0.0014558192 -0.03771413 -0.022455078 0.016046308 -0.013526794 -0.016234793
-0.03514315 -0.03924537 0.025086878 0.002732331 0.015703058 -0.017543832 0.0147143835 -0.0036654668
-0.009947377 -0.006092887 -0.017318403 0.02488 -0.026851531 0.012849397 0.016597388 0.018446842
-0.016919646 -0.009381044 0.01004548 0.012353032 -0.022786131 0.023491042 0.0013449873 -0.024952348
-0.00025914866 -0.033391044 -0.011518586 -0.024543585 -0.010229929 0.015493432 0.007498542 0.00043463506
-0.00917714 -0.007090242 -0.010380365 -0.010154881 -0.041349977 -0.0066648857 -0.032719366 0.024754366
-0.03306571 0.024733374 0.013338704 -0.002891843 0.021631876 0.008094435 -0.017030122 0.023812056
0.023525117 -0.019014455 0.02523003 0.02128501 0.017652646 1.1648404e-05 0.002247547 0.0055334847
-0.027480908 -0.0329587 0.019892497 0.010639662 -0.03445058 0.00724908 0.0056711375 -0.029327078
0.0015802373 0.005747804 -0.014778529 -0.009202903 0.008137058 -0.033177044 0.01877035 -0.019893704
0.009327699 -0.0164392 -0.006920446 -0.036348574 -0.024929944 0.016248949 0.012650675 0.020425638
-0.010221078 -0.006580814 -0.040306102 -0.03119867 0.0031923687 -0.032083333 -0.02929733 -0.04161701
-0.0033463205 -0.0234822 0.00065610715 0.013833205 0.019269465 0.009186223 -0.03957816 0.006384516
0.016758027 0.010635928 -0.016313562 0.01481462 0.009196962 0.022342142 -0.015243612 0.021817787
-0.027965857 -0.035272114 -0.025337683 -0.035560906 0.0037775254 0.010060506 -0.026752122 -0.02417155
0.015550512 0.022289628 0.02412628 -0.014105337 0.012402213 -0.029088259 -0.030042848 0.00025770196
0.018826839 -0.033716366 -0.009019131 0.013042434 -0.022942096 0.009735793 -0.033068843 -0.013612518
0.0066323527 -0.01010045 0.026877085 0.008296061 -0.019416915 -0.030901317 0.0045570233 0.021599913
-0.028021835 0.014783253 -0.02426593 0.0116112605 -0.02209207 -0.036645077 -0.0060731913 0.017765937
-0.020853484 -0.013595813 0.008096648 0.011769686 0.024743898 -0.010727485 -0.036075883 0.013351399
-0.020110711 0.019992027 -0.0013033856 -0.029078702 -0.025440414 -0.009160255 -0.025444025 -0.011681505
-0.0008041711 0.010061145 -0.0035812762 -0.01057444 0.0069590695 -0.0197223 -0.028381195 -0.014439143
-0.019665578 -0.02642967 -0.021455813 -0.01765493 0.016016234 0.004604873 -0.036300924 0.023543395
0.0076716742 -0.021492425 0.014497858 -0.017234227 -0.0038836675 0.011116949 -0.032514535 -0.040148444
-0.015882617 0.013229208 -0.03557935 -0.002716752 0.012858277 0.006869348 0.0096048135 0.026070286

fc.1.0.bias f4 [256]
00000000: ca03 d9bc c37a b03d e50e 1a3e 67eb 03bd
00000010: 0821 06be 90da 2cbe 475c e8bc f713 6c3c
00000020: deeb 03be b360 b8bb eb13 a1be 4d94 643e
00000030: 4ee3 ac3e 9270 8ebc 31c1 be3d 0132 1a3e
00000040: 0174 6abc ccf3 d63e 7a0a 1cbe 5e5e 233e
00000050: 16cc c0bd 4195 1bbd aafc f93d 124e 5f3e
00000060: 226e e3be a92c 713e 031e a03e b027 803e
00000070: 8d73 ab3e f8fe ed3e 77f3 8a3e 678a 1d3e
00000080: fdc1 873e 0fbd 9b3e 7c04 953e 0625 2a3e
00000090: 3c26 b93d 8a92 c8bc b87c 8c3d 0db3 16bd
000000a0: 2da2 6a3e eb9c da3e 47d3 4ebb 58fb a43e
000000b0: d52b 383e 2bca 113c 57a3 eebc 4c6d 43be
000000c0: 60af 733e de92 da3e 44bb 7abd b91d c9be
000000d0: 457c 2cbe 42ed a5bd d9c6 7f3d 58ec bf3e
000000e0: d23a ae3b 1798 c6bd d903 813e 4da0 07bd
000000f0: 65cc 193e f2d3 8bbe 0abe 34bd 8969 803d
00000100: c3e9 0e3e 58a6 4cbd f3b0 0d3e 3c0f a7bd
00000110: bf4c a4bd b1a1 f2bc c6f6 18bc cff3 c0bc
00000120: 34e7 afbc b41d 523d 6245 0e3d 6bf8 d33d
00000130: b146 273e 3ef9 2e3d b611 513e dcaf 9d3e
00000140: 5177 633e 9646 8d3e 674f 24bd ebbf 8f3e
00000150: de95 febc 3684 843e 4ef8 f53d f296 f83e
00000160: 329f 83bc ff7f b83c 6159 c53e bbf8 31bc
00000170: 76a8 0d3e 4172 823c a673 8c3e c56c b43d
00000180: e87b 5c3d 79b5 05be b9b3 c03d b80b 9e3c
00000190: ff4e 53be 7b3f 7b3e 9e52 c6bd 491f 493e
000001a0: 5cb4 a5bc 2603 4e3e 938e 633e 18d9 593d
000001b0: cee3 e73c 8303 9b3e 5372 193d 04c5 8abe
000001c0: a97c d3bb 6fb9 aa3d 1a97 43be 077e 203e
000001d0: 9998 d93e cdc2 30bc c124 833d ab41 403e
000001e0: de21 25bd b440 d93d 164a ad3e af1e dfbe
000001f0: f0d8 50bc 1011 043e 38d9 553d 09b8 35bc
00000200: a1eb 5f3d ce88 1abe 43a1 a23e db46 dcbc
00000210: f9d0 793e 90e3 a23d 8a9e 66bd c50c 7ebd
00000220: 0c24 f13e c9b5 4b3e 6c22 083e 0ebe b9be
00000230: ffa0 913e 1db9 75be 2b43 8f3d 5c1f 913d
00000240: ba3f a73d b8f3 213e bbad 79bd a63f b8bd
00000250: ca8d 583c b878 d0bd 6758 203e 6aad 83bd
00000260: 1c05 be3d 7e53 1d3c b547 f9bc ec6c b43e
00000270: 645d f23d c906 243d 184e ad3d 1c9f 4fbd
00000280: 04fe 2fbd ea27 843e 7080 b53d 5a19 433e
00000290: 00cd d139 5f7b 17be 4bbd 013c 13ec 643e
000002a0: 45a3 cebb ffb2 91be da3e 563e c489 fbbd
000002b0: b2b9 c8bd 87cb 073d bd44 56be ec06 70bb
000002c0: 910f 383e 78b3 9e3e ade8 bb3d ea9d 1abe
000002d0: cc3a db3d e5d8 e83d 7f89 36be c17d 273e
000002e0: 2d8d 03be 3c46 1d3d c54f 8abe b1f9 c7bd
000002f0: 40c4 643e fa60 c53e 1edf 013e 6a15 f93d
00000300: 069d 3c3e 5d99 973e b70b 8d3c 9e11 923e
00000310: 7731 4b3c 73d2 3b3e 060c 6d3e 9fcd 3bbe
00000320: 2c1d b73e d2b0 6539 6d83 29be 9f12 ac3e
00000330: 214d 71bd 3578 823c 44b2 1a3f 8822 913e
00000340: c995 583d f507 83bc d28c 1f3c 5e54 213d
00000350: ae99 963e bda1 b63e 1f50 27bc 1073 abbd
00000360: addc 1dbe 7460 c5bd dce8 573e b5fe 5d3e
00000370: 654e 17be 6c02 25bd 9c41 243d 174c 963d
00000380: 313f c53c bb3f b8bd 4296 8d3e 2e5a 073e
00000390: 7b1a 8b3e abbc c13c 684d b1bc 0b58 16be
000003a0: 4778 313e 1e5a ce3e 0258 ff3d 54d6 d0be
000003b0: 8e65 d8bc b695 c5bc cbed acbc 2a90 de3e
000003c0: a6c2 f53e 7074 d6bc c90a 903e 5489 463e
000003d0: 2480 0c3e f5af cebe 35a4 1bbb 773d fcbc
000003e0: 7c97 b73e deea 043e 8063 893e 1b00 453e
000003f0: 0ecf c93b fc73 253e 2f27 2d3e d0f8 8b3e
-0.026491065 0.08617165 0.15044744 -0.03220692 -0.13098538 -0.1688025 -0.028364314 0.014409057
-0.12882945 -0.005626762 -0.3146051 0.22322197 0.3376717 -0.017387662 0.09314192 0.15058137
-0.014309884 0.41982877 -0.15238371 0.15953967 -0.09413926 -0.037984136 0.12206395 0.21807125
-0.44419962 0.23552193 0.31272897 0.2503028 0.33486596 0.46483588 0.27138874 0.15384828
0.2651519 0.30417678 0.29104984 0.16615686 0.09040496 -0.024483938 0.06859726 -0.03679185
0.22913428 0.42697844 -0.0031559037 0.3222301 0.1798547 0.008898298 -0.02913062 -0.19084662
0.23797369 0.42690176 -0.061213747 -0.3928049 -0.1684428 -0.08101894 0.062445495 0.37485003
0.0053170705 -0.096969776 0.25198248 -0.03311186 0.15019377 -0.2731014 -0.044126548 0.06270129
0.1395636 -0.049963325 0.13837032 -0.081572026 -0.08022451 -0.029618116 -0.009336179 -0.023553757
-0.02147255 0.05129786 0.034734137 0.10350116 0.1633556 0.042718165 0.20416912 0.30798233
0.22213484 0.27592915 -0.040114786 0.2807611 -0.031077322 0.2588212 0.12010251 0.48552662
-0.016067121 0.02252197 0.38544753 -0.010862525 0.13833794 0.015923621 0.27431983 0.08809809
0.053829104 -0.13057508 0.094092794 0.019292697 -0.20635603 0.24535935 -0.09683727 0.1964084
-0.020227604 0.20118389 0.22222356 0.053185552 0.028306868 0.30276117 0.037462544 -0.27103436
-0.0064540696 0.0833615 -0.1910061 0.15673076 0.42499235 -0.010788632 0.064034946 0.1877505
-0.0403155 0.10608044 0.33845586 -0.43578097 -0.012747034 0.12897134 0.05220911 -0.011091241
0.054668073 -0.1509125 0.31763658 -0.026889255 0.24396123 0.0795356 -0.05630354 -0.062023897
0.47097814 0.19893564 0.13294381 -0.36277813 0.28443143 -0.23996396 0.06995233 0.070860595
0.08166452 0.15815628 -0.060956698 -0.08996515 0.013217399 -0.10179275 0.15658723 -0.064295605
0.09278318 0.009602426 -0.0304297 0.3523935 0.11834219 0.040045533 0.08462161 -0.050688848
-0.042966858 0.25811702 0.08862388 0.1905264 0.00040016323 -0.14793156 0.007918666 0.2235568
-0.0063060843 -0.28456876 0.20922413 -0.12282136 -0.098010436 0.033153083 -0.20924659 -0.003662522
0.17974688 0.309963 0.09175239 -0.15099302 0.10704574 0.11369494 -0.17825888 0.16356565
-0.12846823 0.03839706 -0.27013984 -0.09764422 0.22340488 0.3855055 0.12682769 0.121622875
0.18419275 0.29609194 0.0172175 0.28529066 0.01240193 0.18341999 0.23149118 -0.18340157
0.35764444 0.00021905013 -0.16554041 0.33607957 -0.058911446 0.01592646 0.6042826 0.28346658
0.05287722 -0.015995005 0.009738164 0.0393871 0.29414123 0.35670272 -0.010211973 -0.08371556
-0.15416212 -0.096375376 0.21084923 0.21679194 -0.14775999 -0.040285513 0.040101632 0.07338732
0.024077984 -0.089965306 0.276537 0.13217995 0.2716864 0.023649534 -0.021643355 -0.14682023
0.17331038 0.4030313 0.12467958 -0.4078852 -0.026415613 -0.02411924 -0.021109482 0.43469363
0.48000067 -0.026178569 0.28133228 0.19388324 0.13720757 -0.4036862 -0.0023748998 -0.030791027
0.3585776 0.1298022 0.26833725 0.19238321 0.006158716 0.16157526 0.16909479 0.27338266

fc.2.0.weight f4 [64, 256]
00000000: 2af1 fe3b f479 e1bc 9eff c7bd 632b de3c
00000010: ee05 d2bb 0d56 333e 98b6 38bd 5a33 493d
00000020: 2029 2dbc 437f 1c3d 73fa 103e 0acc fa3c
00000030: 9e78 a0bd 09c6 7bbb a975 b1bd db76 f23c
00000040: fc4b 64bc 8291 e4bd 2718 ea3d d3a7 253d
00000050: b94f 61bd 3b15 75bd ddee 6ebe 2a9a bebd
00000060: b7a4 a33c 1298 a23d d8ac c5bd c9f2 b33d
00000070: c5c7 6cbe 5d81 0cbe 6a79 7f3d 1775 e2bd
00000080: 77ba 3dbd b038 9dbd 8f2b b03d d5cf 18be
00000090: 1193 593d 3655 f1b9 8963 b3bd 61c4 103d
000000a0: a43f 673d 0ba8 9bbd 7114 913c fda1 82bd
000000b0: 3c9d 3e3d fb63 733c 4887 92be 81f5 583c
000000c0: 0d19 fe3c 3433 0e3e 71eb 44bd dba5 3a3e
000000d0: 54c5 0cbd a438 b7bd d814 84be 54e9 c83c
000000e0: 4620 0c3d 0c78 b2bd 35ef f13c 017a 2e3d
000000f0: 919b 163e 897d f8bd 91c1 873e edd8 9f3d
00000100: 3b9b a03b bfa0 7ebe 0714 11bd 5d41 1bbe
00000110: 5d8f 57bd ead2 f3bc 327f 083e 259d 07be
00000120: 3227 acbc 917a 413d 8c97 e93d 777f b8bd
00000130: 1ef2 41be db32 ff3d 08a1 34be 6506 0ebc
00000140: 9f5c bbbc 42f4 e83d e60e 12bd b449 d83b
00000150: ca54 e13c 84c4 903d f755 05bd 18ca 7ebe
00000160: c22e 46bd 8b6b 103d 5e7b 403b ac32 84bc
00000170: 11f4 103e db0a 043d 20a3 40be a226 a53d
00000180: 0d65 823d 5f63 edb9 cab2 dcbd 41b8 a0bc
00000190: dc23 68be d16d 39be c0c1 9ebd d3ef adbc
000001a0: cdef c8bd 3a50 c93d edd8 cfbd 2bbe 7c3d
000001b0: 0282 7f3d 937b fd3b 3759 0abe 4b6b 84bd
000001c0: b39b 9dbb 9b85 f5bc bd46 413e 11a5 70bd
000001d0: 52d9 57bd 0c55 88bb ed4d 183e 3323 de3c
000001e0: ff1d 413c 857e 98bc 2cd4 443e eb5e 1ebe
000001f0: 4604 3dbc a8aa 11bc e50b 11be a8a4 973d
00000200: 2e46 25bd 06c6 61bd 32b8 4b3b ec86 ec3c
00000210: 1e26 de3d ec95 65bd 78be 6e3d 0460 843d
00000220: 9d90 a2bd 68c2 99be a346 cf3d ff4e 9b3d
00000230: 8e15 e63d 7ac5 9c3d 3e49 3bbe e477 973d
00000240: 2ffa 2bbd ef4d 34be e419 fdbd 8bc0 bcbb
00000250: 56b6 803c 5892 fabd 58ac 93bd 804d fa3b
00000260: c53f 5a3e 9343 5f3c d6cf 55bc bafe 83be
00000270: 271e a63a 7b16 25bd 747e 80bd 0bba 533d
00000280: 54b9 8cbc 8d21 a73c 4e0e 063d e2f2 38be
00000290: a17e 163d b1b4 eebc f1c5 adbd 9af9 8bbd
000002a0: ba3f eabc 4f47 27ba 345b 933c 20b8 f63d
000002b0: 4463 31be def7 9db8 3be4 5a3d ff0a 203d
000002c0: ae1d 4cbe 8898 afbd 1456 583d 198c fbbc
000002d0: 4294 c2bd 15fe 5d3c bbff a53d d08a e2ba
000002e0: aded abbc 5b74 073d 2871 b43d e534 5d3c
000002f0: 5e7b b03b 16da c03d c5d1 83bd 0643 a33c
00000300: 3119 813a f1d5 ad3d b0d6 c13c e8ef 1f3d
00000310: 69ad e13c 9c36 2b3e c2eb 183e 65af 293d
00000320: 0a23 393c dd0e 093d 3cce 8f3c 8169 fa3d
00000330: 4473 f3bd 3bfa e2bc 095b 61bb 680a 1b3e
00000340: e168 aa3c cb18 65bc c9fb d93c 4549 cd3d
00000350: f41c c0bd a4c4 c03d 1f00 feba 44fa 0ebe
00000360: 9c6e 05bd 03c5 d7bc e04c 64bd 0ee0 213e
00000370: 9158 af3d fd3d 813c ff60 d6bd 2b35 5fbe
00000380: 7c23 e23c d675 3ebd 0732 6abe 74ef 3bbe
00000390: dd65 083d 06f1 d5bd 3b71 dcbc 2c01 abbd
000003a0: 6f8c f5bd 465c 843c 039c dd3d c1a2 babd
000003b0: e7fc 183e c36d 95bc cd93 403d 9303 9bbd
000003c0: 70a2 fd3c 8f37 1ebd 103a 8cbd e534 833d
000003d0: 7ec9 a73d 4685 be3c 4a62 3abd 00d8 35bd
000003e0: 26cb afbc 3cc7 7a3c 3a38 b0bb 6c7a 473c
000003f0: a25b 113b 5209 fdbd 5fa0 083b 70c9 a8be
0.007780214 -0.027523972 -0.09765552 0.027120298 -0.0064093983 0.17513295 -0.04509601 0.04912124
-0.010568887 0.038207304 0.14158039 0.030614872 -0.07835506 -0.0038417599 -0.0866502 0.02959769
-0.013934132 -0.11160566 0.11430388 0.040443253 -0.05500767 -0.0598347 -0.23333307 -0.09306748
0.019976003 0.07939161 -0.09652108 0.08786542 -0.23123081 -0.13721223 0.06237165 -0.11057489
-0.046320405 -0.07676828 0.08602058 -0.14923032 0.05311877 -0.0004603059 -0.08759219 0.03534353
0.056457177 -0.07600411 0.017709943 -0.06378553 0.04653667 0.01485538 -0.28618836 0.013242126
0.031017805 0.1388672 -0.048076097 0.18227331 -0.034367874 -0.0894635 -0.25797153 0.024525322
0.034210466 -0.087143034 0.029533008 0.04259682 0.14707781 -0.12133319 0.26514867 0.07805047
0.0049013174 -0.24866007 -0.03541949 -0.15161653 -0.052626956 -0.029763658 0.13329771 -0.1324354
-0.021014784 0.04723603 0.114058584 -0.09008687 -0.18940017 0.12460872 -0.17639554 -0.008668517
-0.022871314 0.113747135 -0.03565874 0.006600583 0.02750625 0.070687324 -0.032552686 -0.2488178
-0.048384435 0.03525881 0.0029370408 -0.016137443 0.14155604 0.032236915 -0.18812227 0.08064009
0.0636693 -0.000452782 -0.10776289 -0.01961911 -0.2266993 -0.18108298 -0.07751799 -0.021232521
-0.09811363 0.09829755 -0.10148797 0.061704796 0.062379844 0.0077356785 -0.13510595 -0.06465777
-0.0048098206 -0.029970935 0.18874641 -0.05875117 -0.052697487 -0.004160529 0.14873476 0.027116394
0.011786937 -0.018615017 0.19221562 -0.15465896 -0.011536663 -0.008890785 -0.14164694 0.074044526
-0.04035013 -0.05512049 0.003108513 0.02887293 0.10847114 -0.05605118 0.058287114 0.06463626
-0.07937739 -0.30031133 0.10120895 0.07583427 0.1123458 0.07654853 -0.18289658 0.07395914
-0.04198664 -0.17607854 -0.12358454 -0.0057602576 0.015711945 -0.12234944 -0.07210606 0.0076386333
0.21313389 0.013626951 -0.01305004 -0.25780278 0.0012673781 -0.040304642 -0.06274119 0.051691096
-0.017178215 0.02040174 0.032728486 -0.18061402 0.036741856 -0.029138895 -0.0848502 -0.06834717
-0.02859484 -0.000638117 0.017987825 0.12046838 -0.17323023 -7.532512e-05 0.053440314 0.039072987
-0.19933197 -0.08574015 0.052816465 -0.030706452 -0.09500934 0.013549347 0.08105417 -0.0017283801
-0.020987356 0.03306995 0.08810645 0.013501381 0.0053858003 0.094165966 -0.06436495 0.01992942
0.0009849427 0.08488072 0.023661941 0.03904715 0.027548509 0.1672005 0.14933684 0.041427035
0.011299858 0.03346144 0.017554395 0.122271545 -0.118872195 -0.02770721 -0.0034386537 0.15140688
0.020801963 -0.013982962 0.026609318 0.10023741 -0.09380522 0.09412506 -0.0019378698 -0.13962656
-0.03257619 -0.02633906 -0.055737376 0.15808126 0.085618146 0.015776629 -0.10467719 -0.21797626
0.02760481 -0.046499096 -0.22870646 -0.18353063 0.03330027 -0.10446362 -0.026909461 -0.08349833
-0.11989676 0.01615728 0.108207725 -0.09113074 0.14940225 -0.018240815 0.047015954 -0.07569041
0.030961245 -0.038627204 -0.06847012 0.06406573 0.081927285 0.02325691 -0.045503892 -0.044395447
-0.021459173 0.01530629 -0.0053777965 0.012175184 0.0022179862 -0.12355293 0.0020847542 -0.32966185

fc.2.0.bias f4 [64]
00000000: ba8c 73bd 71e5 b83d 1255 6b3e cc50 8e3e
00000010: f41c 2f3d da55 083e 2286 d73d 48a9 be3e
00000020: 4962 b4bd 30e0 bd3d d961 453e e0c5 513e
00000030: b57d 273e cb99 453e 63b3 1d3d 2add cc3e
00000040: 7387 643e 3adc 7f3e 2453 1c3e 439b 313e
00000050: 5e3e 873e ad4b 993e f974 5f3e a32e 823d
00000060: 3673 3fbd c5d3 ee3d 9fae 493e ba4f 3f3e
00000070: 364e 8d3e 3171 243e 6203 a13e feae a93e
00000080: a5f7 893e 7f4d c63e 1daf d03c 3799 9d3d
00000090: 7b41 733e 871f 323e ad03 a63d 7826 093e
000000a0: 0be7 aa3e 8926 743e 8d51 933e 6f15 3d3e
000000b0: 1a86 7c3e d958 be3e 99d9 173e 6c50 87bd
000000c0: 1988 193e b114 9f3d 79c9 293e dd6f 963e
000000d0: d532 983d 7b71 a63d d35b 423e 166a 903c
000000e0: 5fa6 963e 08ba 163e ac4d ae3e f034 873d
000000f0: d537 4f3e 052f 663e 2afb c23e 6cf0 ce3d
-0.05946038 0.090281375 0.2298167 0.27796018 0.04275222 0.13314 0.10523631 0.37238526
-0.08807809 0.09271276 0.19275607 0.2048564 0.16356547 0.19296949 0.038501155 0.40012485
0.22317295 0.24986354 0.1526609 0.17344384 0.2641477 0.2994055 0.21821965 0.063565515
-0.046740733 0.116614856 0.19695519 0.18682757 0.27598733 0.16058804 0.31447893 0.3314132
0.2694675 0.38731 0.025474126 0.07695239 0.23755448 0.17394839 0.0810617 0.13393581
0.33379397 0.23842825 0.28773156 0.18465208 0.2466053 0.3717716 0.148291 -0.06607136
0.14993323 0.077676184 0.16580762 0.2938222 0.074315704 0.081271134 0.1898034 0.01762871
0.29423806 0.14719403 0.34043634 0.06601894 0.20236142 0.22478874 0.38082248 0.101044506

fc.3.0.weight f4 [10, 64]
00000000: ac44 073e d66c afbe 28db 71be aa55 ea3d
00000010: 606e cb3d b401 b13d 5883 df3c b89d b3be
00000020: 7f4c 1f3e 7b06 b9be e175 49be df13 0f3e
00000030: a333 123e 25b1 ddbe 7d58 153e 7a8c cebe
00000040: 4bbc 103c 2116 e6be 8c10 d63d fed3 133e
00000050: 0c97 c83d 36d8 19bf 964c 52be aea7 073e
00000060: 5f23 fa3d 6e25 243e 4dd4 13bf fa81 4c3e
00000070: d170 193e e71e 653e db5f c8be 59f9 01be
00000080: 73bf fc3c a123 85be 1c23 3ebd 84c3 303e
00000090: c9db 96be fb6f ebbe 042f 7bbe 68eb b3be
000000a0: 8780 a33d 77a6 12bf f94f 6cbe 1bfd 68be
000000b0: 42f5 5fbe dc70 d7be 596d 833b 3213 5cbe
000000c0: bfa8 2cbe 3bae 20be 5192 83be 5fd3 abbe
000000d0: 9577 f3be f0c5 88be d4bd 2dbd 46c0 33be
000000e0: 2b58 a73d 451f fe3d 23f1 913c 6d07 d8be
000000f0: 16db 91bd 04bc bb3d 550a f9bd d183 d93d
00000100: ad72 d6be 0653 603e 2ae3 efbd c18c eebd
00000110: 2c39 81be 039c f4bd d1c1 9cbe 0df8 6b3c
00000120: cb3c 803e 50b8 ca3d eae9 c5be 2c73 fc3d
00000130: 2ee4 cfbe 9425 8ebe d89e 3dbd 7873 563e
00000140: bc9d 493e 5ff4 9bbe 56a0 46be e628 453e
00000150: 51ee cfbe 97cd 6abe beb7 75bd 4e74 3a3e
00000160: a53e a4be c07e d0be 162f c1be 14b5 2f3e
00000170: c785 cabe d065 bdbe dc02 9f3d 87d6 c33c
00000180: 8070 b7be abc0 00be 3324 abbe 948e 993c
00000190: 891b 5dbd 183e 99be 3383 01be 304a ca3d
000001a0: 180a 9bbe 8a3e 94bd b953 2abe 7f4b d03d
000001b0: 3ae7 9c3c b0a8 8c3d 1485 453e e5e0 7d3e
000001c0: 4bbf d2bd a7eb 813e fe30 20bd af76 a0be
000001d0: 47a2 84be 532a eb3d 4959 223e 437d 4b3e
000001e0: ccb1 0f3e 7b46 ff3d 08e8 e6be ebea a0be
000001f0: 9a55 3dbe 8981 41be 16bf d7be 04ef 633e
00000200: 0756 51be 0267 103e 74c1 72be e2ed 76be
00000210: f0ab 9abe b85f aa3d 94da c33d e787 b2be
00000220: 1e6e 903d 091a c83d 72b1 00be 1cee aabe
00000230: a503 8bbd d982 d23d acb8 df3d 0789 53be
00000240: a603 313d 3555 92be 92b7 bfbb 5c37 883d
00000250: 0f87 96be 0a9b ca3d f41b d1be d2ee c8be
00000260: ca4d f33d 515d d0be 346e 163e 6a0b c23c
00000270: 3f5b d6be 176c ce3d f530 d33d 1ff5 1dbe
00000280: 9db0 8dbe cb28 f83d 8c25 b4bd e9db 043e
00000290: b25d 38be 3122 cf3d 6fe5 a2be 204c 363d
000002a0: e5eb 86be ab2d 2ebd 6f5d c9be 6854 5abe
000002b0: 7093 fc3d bae7 883c ee01 28be 07cf 013e
000002c0: e504 043e 6b2b 083e b3d3 ab3d 75ce d63d
000002d0: c15f 373d 1777 da3d d5b9 cf3d 9f20 b43d
000002e0: 9956 6cbe d109 7c3d 9a80 033c 2092 f03d
000002f0: 2214 7ebe ee9d 42be d277 f8bd abba cdbd
00000300: 671b 43be 7981 06bd de81 f3bb 7489 e03d
00000310: 38a1 653d e48a 893d 1cd9 25be 99e8 93bd
00000320: 2c1b 0ebe b2ed 5dbe b6c2 33be 61a1 783d
00000330: 0fba d5be ea7c b03b 877f f03d 0c8b 833d
00000340: a963 6ebd 4ce6 0f3e 3011 cfbc 81f6 a63b
00000350: a580 e23d a475 af3d 9595 463d 580a c2be
00000360: 5344 e93d 962d 18bf 13e1 ea3d dc07 cebe
00000370: 14c6 d2bd 7456 2f3e 7a65 9b3d fa3a 413e
00000380: ce82 083e 1eaf b13d 1fa3 663c 90ee 673d
00000390: 991e 73be 2927 2f3d 7ad7 c6be 0231 50bd
000003a0: cf35 143e aa89 1c3e 8ccb 5dbc 9d6f 63be
000003b0: 6be8 d33d f207 fe3d 5549 383e 580d ff3a
000003c0: f4a4 41be 186d 723d 8051 bd3d 38f4 013e
000003d0: 3055 1fbe 5a9d 8abe 7e88 53be 20ff 90be
000003e0: 755e eebe b952 0ebf ceac d6be 00af a7be
000003f0: 1472 32be 2ce5 9b3d 7847 0fbf 3bfb c03d
0.1320979 -0.34262723 -0.23618758 0.114421204 0.09933162 0.08642903 0.02728431 -0.35081267
0.15556525 -0.36137757 -0.19673873 0.13972424 0.1427751 -0.43299213 0.14584537 -0.4034155
0.008833955 -0.44938758 0.10452375 0.14436337 0.09794435 -0.60095537 -0.20537028 0.13247558
0.12213778 0.16029903 -0.5774582 0.19971457 0.14984442 0.2237507 -0.39135632 -0.12692775
0.030853009 -0.26003745 -0.0464202 0.17262083 -0.29464558 -0.45983872 -0.24529654 -0.35140538
0.07983499 -0.57285255 -0.23077382 -0.22752802 -0.21870902 -0.42078292 0.004010838 -0.21491697
-0.16861247 -0.15691464 -0.25697568 -0.335597 -0.4755217 -0.26713514 -0.042417362 -0.17553815
0.081711136 0.12408308 0.017815178 -0.42193165 -0.071218655 0.091667205 -0.12160174 0.10620845
-0.41884366 0.21906671 -0.1171325 -0.116479404 -0.2523893 -0.119438194 -0.3061662 0.014402402
0.2504638 0.09898436 -0.38655025 0.12326655 -0.40603775 -0.27763045 -0.046294063 0.20942485
0.19689077 -0.30459878 -0.19397101 0.19253883 -0.40611508 -0.22929989 -0.059989683 0.18208429
-0.32079044 -0.40721703 -0.37731236 0.1715892 -0.3955519 -0.3699174 0.07764217 0.023906006
-0.35828018 -0.12573497 -0.33426055 0.018744744 -0.053981338 -0.29930186 -0.12647705 0.098774314
-0.30281138 -0.07238491 -0.166335 0.1017065 0.019153226 0.06868112 0.19289047 0.24792822
-0.102903925 0.253751 -0.039109223 -0.31340548 -0.25905058 0.11482682 0.15854372 0.19872002
0.14032668 0.12464615 -0.450989 -0.31429228 -0.18489686 -0.1889707 -0.42137975 0.22259146
-0.20442973 0.14101794 -0.23706609 -0.24114183 -0.30209303 0.08319038 0.09563175 -0.3486931
0.07052253 0.09770591 -0.1256769 -0.33384788 -0.067878045 0.102788635 0.10923895 -0.2065774
0.04321637 -0.28580633 -0.0058507407 0.06651184 -0.29399917 0.098928526 -0.4084164 -0.39244705
0.118800715 -0.40696195 0.14690477 0.023687083 -0.4186649 0.1007921 0.10312072 -0.15425538
-0.27673808 0.12117156 -0.08796224 0.12974514 -0.18004492 0.10113943 -0.3181567 0.044506192
-0.26351848 -0.04252402 -0.39329097 -0.21321261 0.12332809 0.016712058 -0.16406986 0.12676631
0.12892492 0.13297813 0.08389988 0.10488597 0.044769052 0.10667246 0.101428665 0.087952845
-0.2307991 0.0615328 0.0080262665 0.11746621 -0.24812368 -0.19005558 -0.12132229 -0.1004537
-0.19053422 -0.03283832 -0.007431253 0.10963717 0.056061953 0.067159444 -0.16196102 -0.07222099
-0.13877553 -0.21672705 -0.17554745 0.060700778 -0.41743514 0.0053859847 0.11743074 0.064230055
-0.058200512 0.14052695 -0.02527675 0.0050953035 0.11059693 0.0856736 0.048482496 -0.37898517
0.11389985 -0.5944456 0.11468711 -0.4024037 -0.10291687 0.17122823 0.075877145 0.18870154
0.13331148 0.08675979 0.014076977 0.056623995 -0.23742141 0.042761955 -0.3883627 -0.050827987
0.14473651 0.1528689 -0.013537299 -0.22210546 0.103470646 0.12403859 0.17996724 0.0019458933
-0.18910581 0.05918607 0.092440605 0.12690818 -0.1555984 -0.27073175 -0.20657536 -0.28319645
-0.4655644 -0.55594975 -0.41928715 -0.32750702 -0.1742633 0.076120704 -0.5596843 0.094229184

fc.3.0.bias f4 [10]
00000000: 0cdd 96be 9aaa a33c b4d3 3bbe 374a 3e3e
00000010: f636 b23d aad7 7ebd 01b7 a93d 6fd9 483e
00000020: 6c60 053c 10a2 b9be
-0.2946552 0.01997881 -0.18342477 0.18582998 0.08701889 -0.062217392 0.08286858 0.19614194
0.008140665 -0.36256456
