13 - Neural Network/model/weights.pth (torch, 3023 bytes, 8 tensors)

0.weight f4 [8, 7]
0	0xbe9b1f45	-0.30297294
1	0xbb88ee04	-0.0041787643
2	0x3e358981	0.17728235
3	0x3ccabff2	0.02474973
4	0xbebed482	-0.37271506
5	0xbf214e42	-0.63010037
6	0xbde93e5a	-0.11388846
7	0x3efe4abb	0.4966639
8	0xbd866d06	-0.06563763
9	0xbdc44a7a	-0.09584518
10	0xbd583822	-0.052787907
11	0xbe628580	-0.22121239
12	0xbf83911f	-1.0278662
13	0x3ec2a7e1	0.38018706
14	0xbe41bf45	-0.1892062
15	0xbe2cae13	-0.16863279
16	0xbe14c69d	-0.1452889
17	0x3e5ed30e	0.21760198
18	0x3ea124d8	0.31473422
19	0x3db26cee	0.08712183
20	0xbe969a1a	-0.29414445
21	0xb96d42d9	-0.00022626984
22	0xbea724c4	-0.32645237
23	0xbe96e592	-0.29472023
24	0xbe9c7477	-0.30557606
25	0x3e9b09fc	0.30281055
26	0x3df12a5f	0.1177566
27	0xbe6cae1d	-0.23113294
28	0xbd4296d1	-0.04750711
29	0x3e3eba2e	0.1862571
30	0xbec42fda	-0.38317758
31	0xbcdae6c6	-0.02672137
32	0x3dbb0342	0.09131481
33	0xbde70696	-0.11280553
34	0x3e0fa5fc	0.14028162
35	0x3e73de23	0.23815207
36	0x3cf1afa7	0.029502703
37	0xbc9d8a91	-0.019231113
38	0xbc37dddb	-0.011222328
39	0x3bbe04b9	0.005798903
40	0x3fab7923	1.3396343
41	0xbc202d75	-0.009776463
42	0xbe6d159d	-0.23152776
43	0x3e17c2e3	0.14820437
44	0xbeda23a7	-0.42605326
45	0xbe989812	-0.2980352
46	0xbe992ed0	-0.29918528
47	0x3e528bb5	0.20561107
48	0x3e98d008	0.29846215
49	0xbe492b06	-0.19645318
50	0xbcce4d1c	-0.025183253
51	0x3e2a3ccd	0.16624756
52	0xbd78298c	-0.060586497
53	0xbe3fd201	-0.18732454
54	0xbe376006	-0.17907724
55	0xbdf9336b	-0.1216801

0.bias f4 [8]
0	0x3fc41c98	1.5321226
1	0x3f0b6cbd	0.54462796
2	0xbe56322f	-0.20917581
3	0x3c125506	0.008931404
4	0xc007c371	-2.1213038
5	0xc01303e1	-2.2971117
6	0xbd77d567	-0.06050625
7	0x400455a3	2.0677269

3.weight f4 [4, 8]
0	0xbf2a7a2d	-0.66592675
1	0xbe7cdfa7	-0.24694692
2	0x3e9123cf	0.28347632
3	0x3c006d96	0.007838627
4	0x3eb58c89	0.35458782
5	0x3e0c093f	0.13675402
6	0xbcc34cde	-0.023840364
7	0xbf252551	-0.64510065
8	0xbdff7475	-0.12473384
9	0xbf8278d9	-1.019313
10	0x3e10c7b0	0.14138675
11	0x3dd3249c	0.10309717
12	0x3de828af	0.11335885
13	0x3f08dba7	0.5346016
14	0xbeb60d19	-0.35556868
15	0xbdab16b4	-0.0835394
16	0x3ed38976	0.41315812
17	0x3debb1d1	0.11508525
18	0xbe8d4bb2	-0.27596813
19	0x3e23ad5f	0.15984105
20	0xbe061758	-0.13094842
21	0xbdd9135e	-0.10599397
22	0xbec31656	-0.38102978
23	0x3e5dfe9a	0.21679154
24	0x3f501151	0.8127642
25	0x3e704a2c	0.23465794
26	0x3e852fc4	0.26013005
27	0x3ea21136	0.31653756
28	0xbe8fcc3c	-0.28085506
29	0xbe6298ee	-0.2212865
30	0x3dd44572	0.10364808
31	0x3f0357b5	0.51305705

3.bias f4 [4]
0	0x3c629b78	0.013831012
1	0xbed800e8	-0.4218819
2	0x3e933448	0.28750825
3	0x3f18a9eb	0.59634274

6.weight f4 [4, 4]
0	0xbcc11356	-0.02356879
1	0x3f1fb96b	0.623923
2	0xbc1e74a2	-0.009671362
3	0xbee3259e	-0.44364637
4	0xbeecc373	-0.46242866
5	0xbe3a943c	-0.1822061
6	0x3f0dedd4	0.5544102
7	0x3f1de6e8	0.6168046
8	0xbd6362fc	-0.05551432
9	0xbd0eaa38	-0.034830302
10	0x3f3b6702	0.7320405
11	0xbe3efc17	-0.18650852
12	0xbf047f76	-0.5175699
13	0xbe815f7f	-0.2526817
14	0x3e250e4f	0.1611874
15	0x3eb51b64	0.3537246

6.bias f4 [4]
0	0xbecc8647	-0.39946195
1	0x3ed9d726	0.42546958
2	0x3cd303ad	0.025758589
3	0x3ef5b2b1	0.47987893

9.weight f4 [2, 4]
0	0xbdce33d9	-0.10068483
1	0x3e8d7946	0.27631587
2	0x3f01473a	0.5049931
3	0x3e1f9d0a	0.1558725
4	0x3f0823cd	0.5317963
5	0xbe1a0973	-0.15042667
6	0xbf58d499	-0.846994
7	0xbf0057fa	-0.5013424

9.bias f4 [2]
0	0x3ec3d1dd	0.3824605
1	0x3ea0cdce	0.31407017
