16 - Recurrent Neural Network/model/gru/weights_50.pth (torch, 255035 bytes, 13 tensors)

rnn.weight_ih_l0 f4 [192, 1]
00000000: 069e 363c 2372 873d 4d44 babd 76bc 143e
00000010: a0be 75bd 1da7 fdbd 61b1 3fbd 81a1 d73d
00000020: b840 c63d cfba 943c bbaa b73d 613b 033e
00000030: a546 72bd 0361 883d a17f 04bd 8cea d9bd
00000040: 1aee 073e 88e7 923c 623a f73d f6b1 5ebd
00000050: 15f4 03bd 80b8 51bd 1daf bdbd 682c 723d
00000060: 2b0e a03d fe6d 15bd 4544 543c e733 33bd
00000070: a460 bcba 3afa 7d3c 6ea8 ea3d 6f12 0d3d
00000080: d72f f8bd eb26 7fbc e798 66bd adbd 52bc
00000090: 2f7d 97bd 3e09 f1bd a888 cd3d d42d 5cbd
000000a0: f131 9c3d 9d20 ddbd 163f f63d 8aea 53bd
000000b0: 8cdd 8ebd 9946 4bbd d62d 683d 94ce 553d
000000c0: d275 a73c 3e66 4c3c 34da e8bd 7e9b fe3c
000000d0: 4f4c cd3d e775 963c 404a 593d 8b0f 923c
000000e0: 2a51 35bd 7666 40bd 3819 aa3d 8200 6f3d
000000f0: 8ab6 d53d 79fb a3bc e8ca d13c 2ed7 343d
00000100: b1ba 8ebc 459c e0bd eb00 e3bd ef7a 32be
00000110: 2006 0fbe d8a5 30be ceb4 563d 1929 0bbe
00000120: a621 28be 3b9b 37bd e1c9 7e3d 8e76 6c3c
00000130: 885b aabd 76d0 7d3d 9870 f7bd 8dc9 11be
00000140: f98c 2f3c 4630 34be 1370 1f3c 3574 9bbd
00000150: 5ebc 8bbd 1523 3e3d 9b22 823d ec6d a6bd
00000160: 15a9 87bd e7cd 9b3d ae0d 77bc 8945 35be
00000170: 4aa6 01be 4a90 08be 9ba1 ad3d 762e c23c
00000180: 1073 3b3c 197d 0fbe 20f5 9fbd 13ef 89bd
00000190: 0afb 06be 7577 9dbd 9d34 36bd c336 1dbd
000001a0: a83a 34bd 18f8 11be cdc9 933c dd4e 7abd
000001b0: fa7b 8d3d db2e 833c 9bde 0ebe 45d5 05bd
000001c0: 2359 03be 524a 143c 4267 92bd f1d0 a83c
000001d0: 8dc5 3abe 8cef d4bd 074d 63bd de8f e4bd
000001e0: 9032 11be 6109 01bc 6297 0abe 5af1 ebbb
000001f0: 52e9 37be c956 12be 5175 83bd 927b 69bc
00000200: b88a 94bd 8c25 73bd ee83 843d 4570 473d
00000210: 59ca fd3c 9827 2dbd 317b d7bd a998 1cbd
00000220: 6b6b 943d 0d1e c33d 3e2e fd39 ab75 e83d
00000230: c28c 47bd 773a ec3c ab7e 44bd e6fa a5bd
00000240: b064 d83d 5609 cc3d 16fa f33d e713 c43d
00000250: 3a9e 083e bb86 9bbd f700 f23d b3dd d63d
00000260: 3bf3 7cbd 8b69 babd 1951 a8bd 1b15 bbbd
00000270: 17cf e23d fa07 a4bd fbfe 8e3d 9e27 063d
00000280: 529f a53d d622 a53d a912 d33d 856d 003e
00000290: 50a9 bebd 28dc 013d 66dc 76bd 814e c73d
000002a0: 6954 bd3d 9580 edbd bb46 883d 4f59 0dbe
000002b0: e2fb 483d f2fa 5e3c 7ae0 d33d 4e7f e2bd
000002c0: 757b a8bd 1370 0ebe 7977 e33d 1215 cbbd
000002d0: a051 cabd f14a 883d 3d43 633d e870 c93d
000002e0: 1d47 a53d 29ba a3bd 2b98 3f3d 5699 413d
000002f0: 1929 de3d 3b7c fe3d 5905 e4bd da84 c53d
0.011146074 0.06613567 -0.090950586 0.14525017 -0.059996247 -0.1238539 -0.04680002 0.10528851
0.09680313 0.018155484 0.08968111 0.1281562 -0.059149403 0.066591285 -0.03234828 -0.106404394
0.13274422 0.017932668 0.120716825 -0.054368936 -0.032215197 -0.051201344 -0.09261916 0.05912438
0.07815202 -0.03648185 0.01295573 -0.04375067 -0.0014372063 0.015501553 0.11457907 0.034441408
-0.121185 -0.015573244 -0.056298163 -0.012862605 -0.07396924 -0.11769341 0.10035831 -0.053754643
0.07626713 -0.10797236 0.120237514 -0.051737346 -0.069758505 -0.049627874 0.056684338 0.05219896
0.020441923 0.012475548 -0.11369744 0.031080004 0.1002432 0.018366767 0.053049326 0.017829677
-0.044266857 -0.046972714 0.08305591 0.058350094 0.10435207 -0.020017372 0.025609449 0.044150524
-0.017423006 -0.10967306 -0.110841595 -0.17429708 -0.1396718 -0.17250764 0.052418523 -0.13589896
-0.16419086 -0.044825774 0.062204245 0.0144325625 -0.083182395 0.061966382 -0.120820224 -0.14237042
0.010714763 -0.1759654 0.00973131 -0.07590524 -0.068230376 0.046420176 0.06354257 -0.08126435
-0.06624047 0.07607632 -0.015078945 -0.17702307 -0.1266109 -0.13336292 0.084780894 0.023703795
0.011441007 -0.14012565 -0.07810426 -0.06735053 -0.13181701 -0.076888 -0.04448377 -0.038382303
-0.04400125 -0.14254797 0.018040562 -0.061110366 0.06908412 0.016013553 -0.13952105 -0.032674093
-0.12826972 0.0090509225 -0.07148601 0.020607444 -0.18239422 -0.103972524 -0.05549338 -0.11160253
-0.14179444 -0.007875771 -0.1353431 -0.007200402 -0.17960098 -0.14290918 -0.06418861 -0.014250653
-0.07253021 -0.05936198 0.06470476 0.048691053 0.030980276 -0.042274088 -0.10521544 -0.038231526
0.07247051 0.09527216 0.00048290374 0.113505684 -0.04871822 0.028836472 -0.047972362 -0.08104496
0.105660796 0.09962718 0.119129345 0.095741086 0.13341609 -0.07594057 0.1181659 0.104915045
-0.0617554 -0.09102162 -0.08218593 -0.09134885 0.110746555 -0.08009334 0.069822274 0.032752626
0.080870286 0.08063285 0.103062935 0.12541778 -0.093096375 0.031704098 -0.060268782 0.0973177
0.092446156 -0.11596791 0.06654116 -0.138036 0.04906834 0.013609635 0.1034555 -0.11059438
-0.082266726 -0.1390994 0.11106772 -0.09916128 -0.0987885 0.06654919 0.055484045 0.09835988
0.080702044 -0.079944916 0.046775978 0.047265373 0.108476825 0.12426039 -0.111338325 0.0964448

rnn.weight_hh_l0 f4 [192, 64]
00000000: 3413 b9bd dde0 b23d 23fb 0c3c 29c6 9cbd
00000010: ac25 bebd 6204 d3bd 2dc0 a33c 48fa 64bc
00000020: bf40 ee3d 8884 6d3a 92aa 423c 8bce 56bc
00000030: 4a51 04be 5ba2 cc3c b410 d63d f8cf c4bd
00000040: 7737 243d be2d dbbd d52d ff3d aa0b 94bd
00000050: 226e 08bc 0775 07bd 6b4f 053e aa8f f5bc
00000060: fac5 343d 9810 b23d 462f 9abd 8037 9dbd
00000070: b830 d8bc 74f2 cdbc 00bd 29bd 30d3 9b3d
00000080: 11a3 50bd 7194 a03d a127 9abd 4f26 0d3e
00000090: 5a22 88bd 9bca a6bd 11cc c93d 19ef b93c
000000a0: 7e9e 073e 7764 703d 1acc a3bd 02e6 00be
000000b0: 2dd3 033e d0eb 873d ef12 b23c 3e82 19bd
000000c0: 41af 433d 42f2 a3bd 68c7 b63d b90a 1ebc
000000d0: 7a10 c23d f5b9 883d c84d 8b3d 671a 2d3d
000000e0: a65e ab3d b611 983d a2ca 823d 83d6 7cbd
000000f0: a9c8 193d 4fa4 5e3c 00f5 e83c 1458 92bd
00000100: 2239 ca3d 84b5 4c3d 8250 e4bc 2c21 e53c
00000110: 7a85 1c3d 44c0 6ebd 8207 a73c 2c42 b5bd
00000120: 4f99 c63b 205f b9bd 8ce0 cebd 07f7 d4bd
00000130: 884b b03c ede6 f43c 6077 b1bd 743a 143d
00000140: eaa6 a43d 5141 fb3c 6383 d2bd 15fd 7f3d
00000150: 48d1 5dbd d3b7 eabc 233b b4bd e1e2 4dbd
00000160: 7761 f0bd eb75 48bd 27e4 b63c cffc 833d
00000170: 0f58 39bd db06 223c e710 4cbd 3e4e f4bd
00000180: d737 6bbd b0de f23d ab1b a7bd ba09 ce3d
00000190: 80ba b63d 4612 89bc c6f6 d33d b301 4dbd
000001a0: 2195 ff3c bec8 f13d 1fe7 313d 0811 7abd
000001b0: 34ba 73bd 1936 d2bb 33fe 773d 180c a1bd
000001c0: 6fe7 ec3d 7eeb 1cbb 6258 fb3c 7c9a 61bc
000001d0: 2aec b63d 6ddb 993d e33b ff3c 01a0 88bd
000001e0: 82b4 00be 2f10 83bd 0095 b63d 47b9 f53d
000001f0: 32e4 cbbd 043a c4bb c68f dbbb 6547 8b3d
00000200: 6a7f c23d 6733 703d 18a9 97bd 8737 f2bc
00000210: 34b6 983d 4f81 d7bd cf6b f73d 0b8b f9bd
00000220: 8d79 943d 8d70 c1bd ec4b 0dbd c0a0 f3bd
00000230: 7418 feba 6ff8 4d3c 903a f53d 2e40 e23c
00000240: 81a8 c13d 8007 713d 3de2 04be 7207 51bd
00000250: 7233 a53d 563c fcbc 76d3 22bb e14d 80bd
00000260: 83ba ea3c 1c9a 13bd a7c2 03bd 2dba 68bd
00000270: 59c5 c03d af09 ac3d 42c9 af3d 4976 05bd
00000280: f363 323b 386f c93d f9ea d73d fdce 68bd
00000290: 3d73 da3d 5e2e ddbd 1173 a43d 60b2 a13d
000002a0: 462c d73d 9f92 cebd a86c 0d3d acc5 13bd
000002b0: e2a7 4dbc 8b60 b5bd 8120 6fbd 5c81 983d
000002c0: 8ae1 2cbd e0d4 76bd 1ad5 433c 9eb4 cfbd
000002d0: dce8 8c3c 55e9 a53d 0659 1bbd 8664 5d3d
000002e0: b466 0a3d 5fae be3d 2a62 ce3d cb99 3c3d
000002f0: e5c5 a0bd 2f91 47bd 5626 aebd 4475 b73d
00000300: e44d 15be 8e49 56bd dd42 943c bec3 8cbd
00000310: 6eca b43d b85e 613c f6a6 083d be50 8ebd
00000320: fe6a 00bd 084a a13d e739 b5bd cdf6 ac3d
00000330: e441 b33d a050 f33d 7f20 e6bd d689 f43b
00000340: cff6 91bd 2109 89bd f415 143d 3921 d23c
00000350: 3355 703d c680 e7bc 430a c13d a79a 823c
00000360: 1154 22be bd99 01be 3635 16be 1cec 7f3d
00000370: 3c7d 023e a57b e7bd b7ab d83d 2208 b839
00000380: fe40 82bd f624 053e bac5 2bbd 5945 b83d
00000390: 268a f83c 0284 b83d ef25 66bd 142c ba3d
000003a0: b7cc 133c 16d2 d4bb ab51 96bd 81f7 573c
000003b0: 33e2 6fbd eea9 0d3d 5672 f43c 4d3d ee3b
000003c0: 3cb0 d2bc 03cd 1ebe d046 19bd d2f4 863d
000003d0: 2ee4 0a3c 272f 043d 8576 bf3d c4ab 9abd
000003e0: bd7f 91bd 3a2b 8b3d 3eda 133e cbb2 0b3e
000003f0: be1d adbc a072 393d 0ed4 24bc 5569 0cbd
-0.09036866 0.087342955 0.008604798 -0.076549836 -0.09284529 -0.1030357 0.019989097 -0.013975687
0.11633443 0.0009060581 0.011881487 -0.013110767 -0.12921634 0.02497976 0.104524046 -0.096099794
0.040091958 -0.10702084 0.12459914 -0.07228787 -0.008327039 -0.03307059 0.13018577 -0.02997573
0.044134118 0.08694571 -0.07528548 -0.076766014 -0.026390418 -0.025140025 -0.04144001 0.0760864
-0.050936762 0.07840813 -0.0752709 0.13784145 -0.06647177 -0.08144113 0.09853376 0.022697018
0.13244054 0.05868956 -0.07997914 -0.12587741 0.12873526 0.066367745 0.021737544 -0.037477724
0.047774557 -0.080051914 0.089247525 -0.009646111 0.09475799 0.066760935 0.06801945 0.042261507
0.08367662 0.07425253 0.063863054 -0.06172801 0.03754488 0.013588979 0.028437138 -0.07145706
0.098741785 0.049977794 -0.02787042 0.02796992 0.03821323 -0.058288828 0.020389322 -0.08850512
0.0060607563 -0.09051347 -0.10101423 -0.10398679 0.021520391 0.02989527 -0.08665347 0.036188558
0.08039649 0.030670794 -0.10278966 0.062497217 -0.054154664 -0.028652107 -0.08800342 -0.050265197
-0.1173734 -0.04894058 0.022325588 0.06444704 -0.045249995 0.00988933 -0.049820807 -0.11928986
-0.0574263 0.118588805 -0.08159574 0.10060449 0.08922291 -0.016732346 0.10349803 -0.05005045
0.03119904 0.11805867 0.043433305 -0.0610514 -0.05950375 -0.0064151403 0.060545158 -0.07863635
0.1156758 -0.0023944075 0.030681793 -0.013769742 0.089317635 0.07512555 0.031156486 -0.06671143
-0.12568858 -0.06399571 0.08915138 0.119982295 -0.09955634 -0.0059883613 -0.0067004887 0.06800727
0.094969586 0.05864277 -0.07405299 -0.029567493 0.074566275 -0.105227105 0.1208111 -0.121847235
0.072497465 -0.094452955 -0.034496233 -0.11895895 -0.001938595 0.012571438 0.119740605 0.027618494
0.09455968 0.058845043 -0.12976928 -0.05103249 0.08066453 -0.03079049 -0.0024845279 -0.06264854
0.028653389 -0.036035642 -0.032168057 -0.056818176 0.09412641 0.084002845 0.08583309 -0.03258351
0.002722022 0.098356664 0.10542864 -0.056838024 0.10666511 -0.107998595 0.0802976 0.078953505
0.10506491 -0.100865595 0.03452745 -0.036077186 -0.012552233 -0.08856305 -0.058380608 0.07446548
-0.04220728 -0.060261607 0.011952663 -0.10141872 0.01720088 0.08101145 -0.037926696 0.054050945
0.03378935 0.093106024 0.10077317 0.046045106 -0.078502454 -0.048722442 -0.08503406 0.089579135
-0.14580494 -0.05231624 0.01809829 -0.06873272 0.08827673 0.013755493 0.03336235 -0.06948994
-0.031352036 0.078754485 -0.088489346 0.08445511 0.08752802 0.118806124 -0.11236667 0.0074627204
-0.07127153 -0.06691194 0.03615375 0.025650607 0.058675002 -0.028259646 0.094257854 0.015942885
-0.15852381 -0.12656303 -0.14668736 0.06248103 0.12743086 -0.1130288 0.10579627 0.00035101274
-0.063600525 0.1300238 -0.041936614 0.08997602 0.030339312 0.090095535 -0.05618852 0.090904385
0.009020976 -0.0064947708 -0.07339796 0.013181568 -0.05856533 0.034585886 0.029839676 0.007270491
-0.0257188 -0.15507893 -0.037421048 0.065896645 0.008477254 0.03227153 0.09348778 -0.07552293
-0.07104442 0.06795354 0.14438722 0.13642423 -0.021132346 0.04527533 -0.010060323 -0.03428014

rnn.bias_ih_l0 f4 [192]
00000000: eff9 a43d 3e09 843d b95b 96bd a1d9 893d
00000010: 2662 663b be40 563d fc85 d53d 856b eebd
00000020: 5463 6ebd 782d abbc d674 e7bd 8b9a a73d
00000030: a0d9 15bc 6b4c 89bd 4177 11bd 4f50 8d3d
00000040: 4f43 87bd b073 c83d b38d ce3d 0253 c4bd
00000050: 3281 e83d a656 1b3c ee8a 8cbd edc6 b73b
00000060: 0ba1 83bd 097d 8a3c 843e ee3b 33ac f63d
00000070: 72db 1c3e 30ae f13c d509 a63d 92da 613d
00000080: 42c4 85ba 664d b1bd f063 3a3d 8cae 6a3d
00000090: f27c 053e de58 89bd 6a21 e53d 67d5 eb3a
000000a0: fc87 cd3d fffa 843d 8288 75bd b917 bc3d
000000b0: 9100 bcbc 4dce bd3d 0bef 063e d4de ffbc
000000c0: 5449 8e3c b649 2a3c cb8c e43d 5cf4 c0bd
000000d0: 2eb2 efbc a584 f43d a07d 0a3d b37e 7bbd
000000e0: 061d 8f3d 090c e7bd 9d39 923d 434d f1bd
000000f0: 06ad 4c3e 6b22 75bc 581d f13d bd9a 2f3d
00000100: 4ccc 05be d4cd abbd 458b a53d 5cad 013d
00000110: 4745 2bbd 0a73 023d 0b06 05bd 2148 a9bd
00000120: d364 37bc 4019 2bbe bc95 523c 58f7 d8bd
00000130: 64af 2ebe 2602 fbbd d010 2cbd 1522 a73d
00000140: dbf0 d9bd 9f6d 80bd 0ebb d7bd f8f1 39bd
00000150: df68 c93c 8d7d 76bd 1c92 babc c07f 11be
00000160: 5b5c 0fbe 72ca f9bd a1a1 9cbd ec2a efbd
00000170: d689 093d 86a6 6b3d 4216 063d e8e4 b2bd
00000180: 10e6 d7bd 35c4 d7bc 7465 a1bd 26fc 363d
00000190: f29c 213d fc0a d2bd 7837 c63d 135c 3e3d
000001a0: 566b 1dbe c2d6 10be 9fe8 0dbe f632 33be
000001b0: 32bd f8bc 8850 3f3d 8ec6 ed3c 6150 3cbe
000001c0: 3cea 3e3d 9ecf 09bd 0143 29be b620 38be
000001d0: 6ce0 ff3c 4ac9 cdbd 5bdb 83bb f7a2 2bbe
000001e0: bfc2 f8bc da68 21be 716d 82bd e2a0 133d
000001f0: 1e66 ce3c f4bb 94bd e4f5 eb3b 5dbe 683d
00000200: 3d39 fe3d fa40 a03d b3eb 4d3c 512e d1bd
00000210: d01b 123e 82e0 7abd 6381 d73d 8e38 fbbd
00000220: 2344 0fbd a651 d1bd d078 b83d b2af 193c
00000230: 7bab 8f3c 087d 903d f8f7 59bd b3a7 1fba
00000240: 82d7 8d39 e895 913c 08a6 3e3b 3465 94bc
00000250: 93ec 04bd 9317 7e3d 5b17 74bd 1618 6dbd
00000260: 0722 b83d b1b1 9fbd 5eee 61bc 2f01 fc3a
00000270: e5ca 8cbd 766a ed3d 755b b03d e1dc 03bd
00000280: 27fa 003e e9b9 cd3d fce5 303c ee42 6b3d
00000290: d45b c8bd 82a1 023e c612 c73c 4278 4bbd
000002a0: e10c 41bd 92a1 963d 2c43 be3d 980f 543d
000002b0: 289e 69bd bfd0 9dbd 166c cc3d 26b7 c63c
000002c0: 4c16 81bd 1d11 fd3d f734 f6bc 7b0b 8a3d
000002d0: c7d1 b73d b4c0 003e 6a16 9c3d d963 903d
000002e0: eafc 63bc 1db5 86bb 6c38 e23d c2fe c43d
000002f0: 9172 bcbd 44c3 8fbc 9fde d73d e46e fb3d
0.080554835 0.06447075 -0.073417135 0.067309625 0.0035153716 0.052307837 0.10425946 -0.116416015
-0.058200195 -0.020895705 -0.113015816 0.081837736 -0.009146124 -0.06704029 -0.03551412 0.06900083
-0.06604635 0.09787691 0.10085621 -0.09586145 0.11352767 0.009481108 -0.06862436 0.0056084306
-0.06427201 0.016905325 0.007270636 0.12044563 0.15318087 0.029502004 0.08107344 0.055140086
-0.0010205584 -0.08657341 0.045505464 0.057295367 0.13035944 -0.06706403 0.11188014 0.0017992676
0.100357026 0.06493186 -0.059944637 0.09184212 -0.022949489 0.092678644 0.13177125 -0.031234182
0.01736895 0.010393551 0.11159667 -0.09421608 -0.029259767 0.119393624 0.03381121 -0.061400127
0.06987958 -0.112815924 0.07139895 -0.11782315 0.19987878 -0.014961819 0.11773175 0.04287218
-0.13066214 -0.08388868 0.08083204 0.03165947 -0.041814115 0.03184799 -0.032476466 -0.082657106
-0.011193472 -0.16708851 0.012853082 -0.10594052 -0.17059094 -0.12256269 -0.04200822 0.081607975
-0.10641643 -0.062709086 -0.10533725 -0.045396775 0.02458614 -0.06017833 -0.022774749 -0.14208889
-0.14000075 -0.121968165 -0.07648016 -0.116781086 0.033578716 0.057531856 0.03273607 -0.08735067
-0.10541928 -0.026338676 -0.07880679 0.04467406 0.039456315 -0.10256001 0.096785486 0.046474528
-0.15372977 -0.14144424 -0.13858269 -0.17499909 -0.030363653 0.04670766 0.029025342 -0.18390037
0.046610102 -0.033645265 -0.16529466 -0.17981228 0.031234942 -0.100481585 -0.004023952 -0.16761385
-0.0303663 -0.15762654 -0.063685305 0.0360421 0.025195178 -0.07262412 0.0072009433 0.05682217
0.12413261 0.07824893 0.012568402 -0.10213912 0.14268422 -0.061249264 0.105227254 -0.12266646
-0.03497709 -0.10220651 0.09007418 0.009380268 0.017537823 0.07055098 -0.053214997 -0.0006090358
0.00027054182 0.017771676 0.0029090662 -0.018114664 -0.032452177 0.0620342 -0.059592586 -0.0578843
0.08990865 -0.07797564 -0.013789741 0.0019226427 -0.068746366 0.115925714 0.08611194 -0.03219307
0.12595426 0.10045225 0.01079702 0.057436876 -0.0978314 0.12756923 0.024300944 -0.049675234
-0.047131423 0.07355036 0.09290156 0.051772684 -0.057035595 -0.07705831 0.09981553 0.024257254
-0.06303081 0.1235678 -0.030054552 0.06740471 0.08975559 0.1257351 0.07621463 0.070502944
-0.01391528 -0.004110946 0.11045918 0.09618904 -0.09201539 -0.017549165 0.105405085 0.1227701

rnn.bias_hh_l0 f4 [192]
00000000: 208d fabd 4a18 3a3d 5227 7fbd 1c3f aebd
00000010: 6622 d1bd c3d9 7a3d ac21 0c3e 531e 8dbd
00000020: 0ec1 983d 1d7a bf3c c9d4 fcbd f20b 98bd
00000030: 23fd 3e3d 44cf bdbd 9416 40bd bfb7 d23d
00000040: 1280 c93c 64c6 b6bd f961 e8bd 3005 3bbe
00000050: 384c cfbd 5973 643d cfa6 aa3d 2676 a5bd
00000060: 4fca 9d3d 46d1 793d 078a da3d 604c bfbd
00000070: f0df 3abd 7fcb 16be 98b4 f7bc 97fe 61bd
00000080: a276 f5bd 4d3e f3bd 8520 bc3d 75cc 02bd
00000090: ff57 32bd 3413 9f3d b6b4 0abd 5c02 1cbd
000000a0: b2a2 b3bd dfb7 983d 8f23 69bc 3f83 32bd
000000b0: f824 10bd c46c 7cbc abc5 6bbd 78a6 223e
000000c0: e5b0 97bd 6993 63bc a81e 5e3d ac84 77bd
000000d0: 07a2 f03d 6384 a43d 2ca6 893d cdca b53d
000000e0: c197 b8bd e294 da3d 5faa fd3d 7301 953d
000000f0: 7db8 0a3e fd7a 44bd e93c 97ba 2583 debd
00000100: 04bb c03d b8f0 463d d680 89bd 2fb7 89bb
00000110: 053a d2bc 084b b73d 6535 febc 95fb c2bd
00000120: 2415 ac3d ffb9 cfbb 1ec6 293b 44ff aebd
00000130: ff6c 3bbd 57b7 a3bd 9743 6a3c 0cbd abbc
00000140: 55a6 6f3d e43a 263d b6c4 17bd 1ce2 d8bd
00000150: f814 593c dff0 d2bd f0ec 2dbb 6dc3 0bbe
00000160: 1bf5 1d3d 4aa0 183d 9f1b 173d 9db3 03bd
00000170: 1013 13be 6958 c3bc f18e 173d 58a6 01be
00000180: 3cab fdbd e0f2 cc3c 563c 693d bc80 d6bd
00000190: a084 17be b43e fbbd bd2a 983d bb79 a0bc
000001a0: 5a85 ac3c e0ae 5cbd 18f3 05be 017c 143b
000001b0: e34f 4abd c4b5 803c 1b89 18be 1fca 1cbe
000001c0: 1872 b8bd 97cd 30be 15ab cb3c 9ad4 273c
000001d0: 87ed a9bd f06e cebd b606 06be edb1 54bc
000001e0: 3c7e 8a3d b84d 9e3d 2dab ae3d 1f6d 9fbc
000001f0: 583b 143d fac3 ab3d 6d9e 363d 86be 283d
00000200: 4b6a 8cbd 7484 ca3d 9735 01be d180 993c
00000210: 07cb 80bd c3f4 b83c 03bb ed3d 2bf9 a4bd
00000220: 832a c1bb e0a8 59bc 59e0 653d 4337 cebd
00000230: c2af 103e f909 4d39 a3d7 103e d9f8 1fbd
00000240: 3897 e63d c687 86ba 83cc ee3d e30a a23d
00000250: d116 dc3d 6054 d5bd c6bd 843d 7cc8 bd3b
00000260: 7643 883c b6fd 0d3d d176 963d 8f57 143d
00000270: b0ac ccbd 73d2 13ba 813a b5bd 078b be3d
00000280: edba 393c 371d 9dbd 0acf 7e3c 19f6 6f3d
00000290: ceff e9bc 1d2a cdbd 176f bf3d 4208 f9bd
000002a0: 7154 25bd 5712 ac3d 4984 0b3e c5f3 223d
000002b0: 4098 1abe 4abb f0bd f666 0e3d 9d14 ca3d
000002c0: 8a26 f2bc 6da5 dc3d 336b f0bd 6e9c 8d3d
000002d0: bd92 da3d d4ac de3d 1c34 313d ab4a d13d
000002e0: 331d 65bd ef7d 713d 5e46 de3c 158a 843d
000002f0: ab7d e0bd 9c10 3fbd 20d7 b0bc 782b 3a3d
-0.12233949 0.04543332 -0.06229336 -0.08508131 -0.10211639 0.06124283 0.1368472 -0.068905495
0.07458697 0.023373658 -0.12345273 -0.074241534 0.04662813 -0.092680484 -0.046896532 0.10288953
0.024597201 -0.08924559 -0.11346812 -0.18263698 -0.101219594 0.055774067 0.083325975 -0.08079176
0.07704603 0.060990594 0.10670858 -0.09340739 -0.04562372 -0.14726065 -0.030237481 -0.055174436
-0.11985518 -0.11877117 0.0918589 -0.031933267 -0.04354095 0.077673346 -0.033863746 -0.038088188
-0.08771266 0.07456946 -0.014229669 -0.043582197 -0.035191506 -0.015406791 -0.057561558 0.15883815
-0.07406787 -0.013890126 0.054228455 -0.06042926 0.11749654 0.08033063 0.06721148 0.08876572
-0.0901332 0.106729284 0.12386011 0.07275667 0.13546939 -0.047968853 -0.0011538538 -0.108648576
0.094106704 0.04856941 -0.06714027 -0.0042027454 -0.025662431 0.08949858 -0.03103132 -0.09520642
0.0840247 -0.006339311 0.002590544 -0.08544782 -0.045758244 -0.07993954 0.014298341 -0.020964168
0.058508236 0.040583506 -0.037052833 -0.10590002 0.013249628 -0.10299849 -0.002653893 -0.13648768
0.03856383 0.03726224 0.036891576 -0.032153714 -0.1436274 -0.023845868 0.037001554 -0.12661111
-0.12386176 0.025018156 0.056942306 -0.10473773 -0.14796686 -0.12267819 0.07430027 -0.019589296
0.02105968 -0.05387771 -0.13081014 0.002265692 -0.049392592 0.015711673 -0.14896052 -0.15311478
-0.09006137 -0.17265926 0.024861852 0.010243559 -0.08297258 -0.100797534 -0.13088498 -0.012981874
0.067623585 0.077296674 0.08528743 -0.019461213 0.036189407 0.08386989 0.04458468 0.041197322
-0.06856211 0.09888545 -0.12618099 0.018738182 -0.062887244 0.022577649 0.11607935 -0.080553375
-0.0058949604 -0.013284892 0.056122158 -0.10069134 0.14129546 0.00019554039 0.14144759 -0.03905568
0.112593114 -0.0010263852 0.11660101 0.07912233 0.107465394 -0.10416484 0.06481509 0.005791722
0.01663373 0.034665786 0.07346881 0.036216315 -0.09993875 -0.00056389644 -0.08849049 0.09303861
0.0113360705 -0.07671588 0.015552292 0.058584306 -0.02856436 -0.10017798 0.093473606 -0.12159778
-0.040363733 0.084019355 0.13624682 0.039783258 -0.15097141 -0.117544726 0.03476616 0.09867213
-0.029559392 0.1077374 -0.11739197 0.06914602 0.10672519 0.10872808 0.043262586 0.1021932
-0.05593605 0.05895799 0.027133163 0.064716496 -0.10961469 -0.0466467 -0.021586955 0.04545161

rnn.weight_ih_l1 f4 [192, 64]
00000000: 025a 65b7 6737 13be fa27 f23d 0a31 af3d
00000010: 177d 1b3e 2fcd 29bd 50b0 40bc f8f5 15be
00000020: 43c6 98bd 1ada a8bd f861 94bb a052 11bd
00000030: cfcc 83bd cc29 bdbd c6ee cb3d 537a 373c
00000040: 2606 f3bc 5ca5 c3bd 8a3d 4e3d f8be fa3c
00000050: 5261 ca3d bf59 413c a58e f63d 66d5 053c
00000060: c0e5 01be 5ac1 67bd 4a45 4d3d 39fe fbbd
00000070: 5e2c 01bc 23df 7cbd 42d3 c43d 72b1 ab3b
00000080: f814 a2bd 78cb 1c3d bc7c 843c cf4b 6e3c
00000090: 9575 09be 3e13 af3a ec92 00bd 6404 6f3d
000000a0: fac5 003e 14b9 973c 93f9 a33d 9e75 a63d
000000b0: 458c 9ebd 9284 19bd 1524 e33d bc38 813d
000000c0: cc1d 363d 87b6 933b d7f4 a43d 1604 7f3c
000000d0: 5fc0 6d3d ca93 023e d20f 123e 4d1c a23d
000000e0: 0ebc 7e3d 0586 0cbe 3a34 9cbd 33ee 55bd
000000f0: 1438 c03d e6ad b0bd f587 95bd 9002 16bd
00000100: 36d0 c8bd 0e44 603d 34ba 9cbd 7435 a53d
00000110: 8144 9dbd 7a6a 283d 9bc9 78bd 11ef a4bd
00000120: 97c1 cd3d e7e6 3f3d 7c69 c7bc 8add a3bc
00000130: a0ce 0fbe faca e63d a93d 343d 7f95 8d3d
00000140: 8dec f53d e545 3a3d 6f99 06bc 95c2 fdbc
00000150: 454b 8abc 43ee 8a3d 83a9 c23d a6a7 08bd
00000160: 4bd3 52bd 0514 dbbc fd1c 843c 4326 0bbd
00000170: 170a 433d e451 25bd c679 fcbc 7598 f13c
00000180: 9de1 c23d 19a1 913d 2352 163e 5d73 92bd
00000190: 873a 8f3d 6e34 b63d 1edd b73c db82 a93d
000001a0: 5cc5 853c cfe8 f9bd 88d3 e63d b6f0 9fbd
000001b0: f43e 163e 6dc7 6ebd b345 363d ec06 febd
000001c0: 61c8 0dbe 74c7 e03c aa03 82bd 0139 653d
000001d0: e78d c23d e6ce 063e 448a 243c 988a 0e3e
000001e0: 122a ee3d 7f74 21bd 6ce1 113d fdaf 92bd
000001f0: a842 fc3d 6f45 82bd 54a1 15bd 11b7 58bd
00000200: 07df 6cbd 26b2 a8bd 66f3 963c 2d07 c33d
00000210: b226 6a3c 7a16 fbbd b645 66bd 8bfc 893d
00000220: 73e9 c83d 3df9 0b3d d3a6 a6bd b691 1a3e
00000230: 9602 b13d 3cdc ccbb 9191 323d 16cd 04bd
00000240: cf99 0a3d bbf7 6fbd cc08 58bd 62f4 7f3d
00000250: 3095 b13d c062 3e3c cbfc 2cbd 44fb 173c
00000260: 588d a2bc a2aa 32bd 3270 08be 35b3 2fba
00000270: 9f8a 043e 84f6 6dbd 3fcc cc3c 2716 bc3d
00000280: 19c8 143d 744b d23d 592e 52bc 191e 803d
00000290: 784f c9bd 3443 873d a840 aabd 0de1 063e
000002a0: 4cba c9bc 18ef 223b 32b3 0c3e 97df 01be
000002b0: 9d18 9d3d 75e4 863d 4360 35bd 02ae 18be
000002c0: f406 1dbe 6191 603c fb89 2bbd 8e4f 8a3d
000002d0: 4d10 90bc 0077 133e 4004 493c 35cb 5cbd
000002e0: bf96 88bd dbf5 35bd e568 833d 1691 62bd
000002f0: f003 5d3c 1f54 64bc bf71 3d3d ab0d d13c
00000300: 7c62 b0bc 273e d5bd 4a02 e13c 15fc babd
00000310: caa8 b03d 7385 853d e33e b9bd 1032 38bd
00000320: 1cff ec3d fafd 3cbb e883 a13d a555 583c
00000330: 2b66 dfbd 52d8 f7b8 a420 e1bd f82f 883d
00000340: 1f18 813d 4476 8dbd f3d2 0a3d f126 8bbd
00000350: b96f 033e e0d5 f2bd adbd 2b3d b966 e33d
00000360: 85a4 9fbd 5ced bb3c 8fc9 aabc 75c0 7bbd
00000370: 6b35 c2bd 46a3 cbba acc7 313d ef03 ebbc
00000380: 567a fcbc 1bcf 023d 2d7f 5abd 4f19 4e3d
00000390: a936 4dbd 8915 5c3d 7722 a13d 8c7c cb3d
000003a0: d6f4 24bd 48e8 6b3c bfd0 a9bd b4fb a9bd
000003b0: ab60 c4bd e7b5 01be 32eb 4abb 5cd0 abbb
000003c0: 7eec a73d 5c28 cc3d fdc8 c7bc b9aa 9ebd
000003d0: 309f dbbc a87b c7bd 0ecb 30bb 1cd3 e0bc
000003e0: d13f c9bb ec85 daba fba3 bc3d 9f84 b0bd
000003f0: 1b25 bbbd 44f5 5e3d a51f 0bbe 96fd 003e
-1.367042e-05 -0.14376603 0.11824031 0.08554275 0.15184437 -0.041455444 -0.011760786 -0.14644611
-0.074596904 -0.082447246 -0.0045282803 -0.035479188 -0.064355485 -0.09236488 0.09957652 0.011198598
-0.029666018 -0.09553024 0.050351657 0.03060864 0.098818436 0.011801182 0.12038926 0.008168554
-0.12685299 -0.05658088 0.050114907 -0.123043485 -0.007884113 -0.061736237 0.09610607 0.005239659
-0.07914156 0.03827998 0.01617276 0.014544441 -0.1342376 0.0013357175 -0.031390116 0.058353797
0.12575522 0.01852087 0.08006587 0.081279024 -0.07741598 -0.037479945 0.110908665 0.06309649
0.04446201 0.004507843 0.08054512 0.015564939 0.058044787 0.1275169 0.14263847 0.07915554
0.06219106 -0.13723 -0.07627149 -0.052229118 0.09385696 -0.086269185 -0.07301322 -0.036623538
-0.09805338 0.054752402 -0.07652703 0.08066836 -0.07679082 0.04111717 -0.06073914 -0.08053411
0.1004669 0.046851065 -0.024342291 -0.020003099 -0.14043665 0.112691835 0.044004116 0.0691328
0.12008009 0.045476813 -0.008215292 -0.030976573 -0.016881594 0.06783726 0.09504988 -0.033363007
-0.051471036 -0.026742944 0.016127104 -0.033972036 0.047617044 -0.0403613 -0.030819785 0.029491642
0.095156886 0.07110805 0.1467977 -0.0715091 0.06993585 0.08896719 0.022444304 0.08276912
0.01632946 -0.12202608 0.11270815 -0.07809584 0.14672452 -0.058295656 0.044500064 -0.12403664
-0.1384597 0.027438857 -0.06348355 0.055962566 0.09499722 0.13164863 0.010042731 0.13920057
0.11629118 -0.03941774 0.03561537 -0.07162473 0.12317401 -0.063609 -0.036530808 -0.05290896
-0.057829883 -0.08237104 0.018426608 0.09522853 0.014291452 -0.122601464 -0.056218825 0.06737622
0.09810152 0.03417324 -0.08137288 0.15094647 0.08643071 -0.00625184 0.043595854 -0.032422148
0.03383809 -0.058585864 -0.052742764 0.06248892 0.086710334 0.0116202235 -0.04223327 0.009276215
-0.019842789 -0.04361976 -0.13324049 -0.0006702424 0.12943505 -0.058096424 0.024999736 0.09183913
0.03632364 0.10268298 -0.012828433 0.06255741 -0.098296106 0.06604615 -0.083131135 0.13171788
-0.024624966 0.002486175 0.13740233 -0.12682949 0.0767071 0.065865435 -0.044281255 -0.14910129
-0.15334684 0.013706536 -0.041879635 0.06753455 -0.017585898 0.14400864 0.01226908 -0.05390473
-0.066693775 -0.04442392 0.064164914 -0.055314146 0.013489708 -0.013936072 0.046251055 0.025519213
-0.021531336 -0.10412245 0.027466912 -0.09130112 0.08625944 0.06519594 -0.09045198 -0.04496962
0.11572096 -0.0028837905 0.07886487 0.013204013 -0.10908159 -0.000118181706 -0.10992554 0.06649774
0.06303429 -0.06907323 0.033892583 -0.06794537 0.12835588 -0.118572 0.041928936 0.11103577
-0.077950515 0.02294033 -0.020848064 -0.06146284 -0.09482845 -0.001553633 0.043403313 -0.0286884
-0.030820053 0.031935792 -0.05334394 0.050317105 -0.050100956 0.053731475 0.07867902 0.09935865
-0.040272556 0.014398642 -0.08291768 -0.08299962 -0.095887505 -0.12667046 -0.0030962941 -0.005243344
0.08199404 0.099686354 -0.02438783 -0.077474065 -0.026809305 -0.097403824 -0.0026976499 -0.027444415
-0.0061416407 -0.0016671992 0.09210964 -0.086190455 -0.09137937 0.054433122 -0.1358629 0.12596735

rnn.weight_hh_l1 f4 [192, 64]
00000000: 7502 d93d f5eb b83d aa12 95bd 5c35 783d
00000010: 68e2 75bd 052d e73d 5ea1 f33d 0145 0a3e
00000020: 1569 c63d 4936 b0bd 8d88 89bd c93d 173c
00000030: 3f16 2b3d 4a32 163d fa0c 943d 412b 273d
00000040: 69f3 e53d 3db2 693d c9b7 28bd dd73 833d
00000050: 2760 2dbd eb71 623c 3450 053c f018 773d
00000060: 66a9 fb3d ecef 54bd c15e d1ba b5b2 3abd
00000070: 9152 c13d e86e f1bd 1ffb c63c d5cb 5c3c
00000080: cc53 0bbe 1a09 a23c 92ef b53d 7cf2 f8bd
00000090: 8cf1 a5bb 9acb ebbb 5f82 ec3d 1bb2 ec3d
000000a0: 34dc 9c3d 6ac2 01be 9774 bebd 9f47 213a
000000b0: f991 9d3d 3454 aebd 326a 953d de9e f83c
000000c0: 5cfd 9a3d 49b3 4cbd 67bd c4bd 4a8b 8abd
000000d0: 2f0d 5c3d 1d67 9c3d 0127 6abd 3768 98bd
000000e0: 800a d13b 01d0 ce3d beee a83d 983b a1bc
000000f0: 2878 d93d 149b 8dbd f5eb fe3d 8ccf 00bb
00000100: e6d2 01bd b426 c4bd 5ffd 82bd c68d 6f3d
00000110: 24cd 21bc 904f 8a3d f562 7dbd 5877 bebd
00000120: 92ef a53d 759b b63d e692 94bd 0fc3 1cbd
00000130: 719b 043e efdf 05be ef4c 75bd 9d40 06be
00000140: 4ded d7bd 120c 613c 72b7 2bbb 35df 9cbd
00000150: 0f53 3d3d 2c4c 16bd f002 833d 50a1 033c
00000160: cac4 bcbb bf37 07be 6db0 b1bc 55b2 b4bd
00000170: 4fd1 49bd b2b1 adbc 70bd 7e3d 676c 8dbd
00000180: b84e 84ba 2db2 75bb ec86 98bd 213f 123d
00000190: f5ed 08bd fef7 833d c6cc f23c a50b d1bc
000001a0: 9b7a e03d 3d50 9bbd 3878 303d f5e0 9fbb
000001b0: b26c 01bd a0fb dfbb 7257 8ebd 6fb9 dbbc
000001c0: 4fb1 b2bc 493b b33d 5f86 393d aaff 0a3e
000001d0: 1041 ec3c bd58 c63d f72c 0abc 36ed 44bd
000001e0: c760 9bbd 6281 a5bd 95fd 80bd 7b94 d6bd
000001f0: e8cc b33d af9c 793d 2a15 86bc 7ddc 1d3e
00000200: ecc0 dc3d 7efa 923d f40b f13b 9bbe 0bbc
00000210: 6bf6 463d cb01 aebd 75de 613d 0dff 013e
00000220: 6467 39bd a492 983d 0f4c e7bd bb6e 8cbd
00000230: 3355 9d3c 9c21 663d 7f5f edbc bbfb e13b
00000240: 4a7c e43c 012f 6c3d 2bcd b7bc c304 023d
00000250: b3d7 d33d 1f79 adbd 5b4d 11be 59a7 653c
00000260: cb36 1c3e ae25 293d 2c51 0bbd 6d4f 8f3d
00000270: 9cbb 06be 6503 033e 1fe3 0abe 07bc 0f3d
00000280: a3e4 d93b b7b4 a93b 090e 2a3d 3052 18be
00000290: c1da 003d c32c 983c e1c7 bbbd eb6b 0d3e
000002a0: 55af 76bd 01cb 5f3d 0d75 ab3c a5b5 a7bd
000002b0: a8c9 6c3d a247 5c3d bbee b63b 1236 04be
000002c0: 7f79 1dbe 9e37 47bd caea 1abe 7a57 823d
000002d0: 3752 56bd 0ab0 d4bc e07e fabc ba1f a93d
000002e0: 40c4 6d3d c152 d7bd abf6 debd 59fd cb3d
000002f0: e517 22bd 99fd db3d 66bf 083e 9d70 b63c
00000300: a31b cc3c ef45 c0bd 7a91 12be 106a 66bc
00000310: 8b2b d53d cc8d 073e 8f5f 76bd 90c9 143e
00000320: 8e98 a5bd 297f b43d d7ea 15bd 7274 b33d
00000330: 10ae cf3d 8b2f ae3d 872f b1bc a98a 8bbd
00000340: 7c36 4d3d 13ad 813d 5a62 00bd d4b2 d8bd
00000350: 5006 703c 0eed c4bd f5b8 16bd 3d21 833d
00000360: aa0e 2f3d e772 a9bd 4de9 82bb d53f 1abd
00000370: 2062 12be ca4e b53d a008 a2bd fc37 91bd
00000380: 62ef 803b 3ef9 46bc 44ea 703d caf3 0dbe
00000390: e15e b43c 8672 e53d f3c8 953d 997a aa3c
000003a0: df35 90bd e5e4 ebbd 577c 8f3d 33e3 183d
000003b0: b106 da3d d7c7 be3d 68e5 6abd 6292 0cbe
000003c0: 9af5 9dbd 7f12 0fbe b5d6 10be d209 2cbd
000003d0: 63ed d13d 041a dfbd 9bbc 86bd 0973 51bc
000003e0: 11f1 073c 0752 3abd eaa0 cbbd 683a a93d
000003f0: 5c01 9abd 09ba b93d a749 88bc de38 ccbc
0.10596172 0.0902938 -0.072789505 0.060597762 -0.06003037 0.11287884 0.11896013 0.13502885
0.096880116 -0.08604104 -0.06715498 0.009231039 0.041769262 0.036669053 0.072290376 0.040812735
0.112280674 0.057054747 -0.041190896 0.064185835 -0.042328026 0.0138211055 0.008136798 0.060326517
0.122881696 -0.05198662 -0.0015973673 -0.045580585 0.094395764 -0.11788732 0.024289666 0.013476332
-0.13606185 0.01977973 0.08883585 -0.12155625 -0.005064195 -0.007195902 0.11548304 0.115574084
0.07659188 -0.1267182 -0.092995815 0.0006152335 0.07693858 -0.08512154 0.07295646 0.030349191
0.07567856 -0.049975667 -0.09606438 -0.067648485 0.05372351 0.07636855 -0.057166103 -0.074417524
0.0063794255 0.10098267 0.082486615 -0.019681737 0.10618621 -0.069143444 0.12447349 -0.0019654958
-0.03169527 -0.095776945 -0.06395983 0.058484815 -0.0098755695 0.067534566 -0.06186195 -0.09300107
0.08102335 0.0891637 -0.07254581 -0.03827196 0.12949921 -0.13073705 -0.059887823 -0.13110586
-0.105433084 0.013735788 -0.0026201871 -0.07659761 0.04622179 -0.036693737 0.06397045 0.008034065
-0.005760764 -0.13204859 -0.021690572 -0.08823077 -0.049271878 -0.021202896 0.06219238 -0.06905442
-0.0010094261 -0.0037490234 -0.07447609 0.035704736 -0.03343006 0.06443785 0.02963866 -0.025518248
0.10960885 -0.075836636 0.0430834 -0.004879112 -0.0315978 -0.006835416 -0.069502726 -0.02682182
-0.021813063 0.08751542 0.045294162 0.1357409 0.028839618 0.09684894 -0.008433572 -0.048077784
-0.07586818 -0.080813184 -0.06298367 -0.10477539 0.08779317 0.06094044 -0.016367514 0.15416141
0.107789844 0.07176684 0.0073561613 -0.008529331 0.048574846 -0.08496436 0.055143792 0.1269495
-0.045264617 0.074498445 -0.11293804 -0.06857058 0.019205665 0.056184396 -0.0289762 0.0068964637
0.027891297 0.057662014 -0.022436699 0.031742822 0.10343876 -0.08470368 -0.14189665 0.01401695
0.15255277 0.0412957 -0.03401296 0.06997571 -0.13157505 0.12794264 -0.13563202 0.035091426
0.00664957 0.0051790136 0.04151729 -0.14875102 0.03145862 0.018576032 -0.09168983 0.13810699
-0.060225803 0.05463696 0.020929838 -0.08188943 0.057809502 0.053779252 0.005582658 -0.12911251
-0.15378378 -0.048637025 -0.15128627 0.06364341 -0.0523245 -0.025962848 -0.030578077 0.082580045
0.058048487 -0.10513831 -0.10886892 0.099604316 -0.03957357 0.10741729 0.13354263 0.022270495
0.024915522 -0.09388339 -0.14313307 -0.014063373 0.10408696 0.13237685 -0.060149726 0.14530015
-0.08085738 0.088133164 -0.036600914 0.087624446 0.10140622 0.08505162 -0.021629108 -0.06813557
0.05010079 0.063318394 -0.031343795 -0.10580984 0.0146499425 -0.09615527 -0.036797483 0.06402824
0.042738594 -0.08273869 -0.003995097 -0.03765853 -0.14295244 0.088529184 -0.07911801 -0.07090756
0.0039347867 -0.012144385 0.058817163 -0.1386253 0.022017898 0.11203484 0.07313719 0.020810412
-0.07041525 -0.115182675 0.07006138 0.03732605 0.106458075 0.0931546 -0.057347685 -0.13727716
-0.077128604 -0.139719 -0.14144404 -0.042001553 0.10250356 -0.10893634 -0.065789424 -0.012783774
0.008297221 -0.045488384 -0.09942801 0.08263093 -0.075197905 0.090686865 -0.016636683 -0.02492946

rnn.bias_ih_l1 f4 [192]
00000000: 2e51 0d3e 200b d83c 50e7 633d b590 19bb
00000010: 99f4 b7bc 3fac 96bd 9c73 e33d 6b7e 963d
00000020: 27a2 47bd a136 f73d 696f 073d 29e2 493d
00000030: e64c 64bd 6305 a33c e59e 9bbc 91fb 0d3d
00000040: 9f70 c7bc f4ee bb3c b69d 973d 4494 9fbd
00000050: 646b 133d b4ce b03d c318 5dbd 497a c43d
00000060: db06 35bd f801 07bd c8f3 253c 43f3 b13d
00000070: b19b 403d b936 3f3d 5bb9 8d3d f839 b03d
00000080: b777 89bc 4610 c2bd 219a 2e3d 37bd 343d
00000090: 67c7 f13c bcaf debc 5b13 29bb bbe9 f33d
000000a0: a8a0 9bbd e4e2 823d 4d67 bebd 22fe c93d
000000b0: 35e1 143d e6e4 8d3d fd50 1dbc f030 023d
000000c0: 019b 993c 930d c4bc d2bc e03d 78f2 8d3d
000000d0: 868d 5abd 0b9f 95bd 195e 383d e204 a4bd
000000e0: 0e85 a03d c54b 6e3d 20c1 85bd eed6 3dbd
000000f0: 7f25 cbbd e607 52bd 6d62 fc3d 15c1 f3bc
00000100: 7413 b3bd ad42 10be e99d 00be 9e41 25be
00000110: 25eb 4e3d 61fb 2c3d 46b2 abbd 7c3c d3bd
00000120: 75e7 2abe ede5 1bbe 3879 a3bd c6b6 81bd
00000130: 5fd4 363d 2f08 b6bd eb07 e6bd 4d7e 8abd
00000140: f444 823d 176d 793d cc84 003d 2988 7b3d
00000150: 3268 fabd f062 c2bd 7318 03be 2881 2cbe
00000160: 9edd 623d 33ee cfbd 64d4 e13c 215c b3bd
00000170: 5464 97bc 8a7f 5f3b 9b00 25be 8f7d a6bc
00000180: 4ec5 93bb 999b 8cbd 1b73 53bc d4ce 1fbe
00000190: 0878 dfbd 7eb4 18bd a1c7 d43a 99ca 1ebe
000001a0: 71c8 1f3d 3e39 053d 1db0 f0bb f2fb 9b3c
000001b0: bac1 24bd 8fc5 df3d d62f 78bd baca 793d
000001c0: 6b0d e53c 83e0 f33b 3b40 5d3c fa1c f2bd
000001d0: 5674 9cbd ea6f 10be 0ce2 06bd 1469 c4bb
000001e0: cffd 08be 9cb1 1cbe 6a16 9a3d 1d41 09bc
000001f0: 3f12 debd 3bfa 20bd 58a7 d2bd 6e07 0cbd
00000200: a375 fb3d 11eb 013e 0cff 5c3d 24f7 c1bb
00000210: 4ef6 8fbd f96e 9a3d 865a ec3d 007f c0bd
00000220: 9566 0ebe 816b debd ec0a 06be 004f 80bb
00000230: f74e 5abd 847e 1dbe 3824 203a 63f0 88bd
00000240: 1c01 8bbd 8c63 f53d 956c e43c fffc 813c
00000250: 6016 2a3b e9d9 af3d 240f a43c 3277 63bd
00000260: db3d 0a3e ac9b c5bc 8b6c 913d 6c4b b2bd
00000270: 2ac0 bfbd e1cb ab3d ea96 083b 51b6 67bc
00000280: 56bf 573d d0c2 dbbd 85b4 55bd 1680 e3bd
00000290: 2ba8 e73b 9b9e 80bc 6052 a0bc 97f2 2cbd
000002a0: 06bb 193e 1443 ddbd 80ce dfbd 6cfb cd3d
000002b0: 3b1f 78bd 4be3 b43c f24c 1fbd c359 a23d
000002c0: 7814 c7bd b195 9abd 3835 2bbd 0ef5 a03d
000002d0: e23e 563d e56f b9bd a813 1abe 4468 86bd
000002e0: 4afe 3dbd c77c b1bc 4efb 42bd 66a9 743d
000002f0: 283c 163e 997d 84bd 87e3 113e c355 e23d
0.13800499 0.026372492 0.05564052 -0.00234322 -0.0224555 -0.07357072 0.11106035 0.07348331
-0.048738625 0.120709665 0.033065233 0.04928795 -0.0557374 0.01990003 -0.018996665 0.03466374
-0.024345694 0.02294109 0.07403128 -0.07791951 0.035991088 0.086331755 -0.053978693 0.095936365
-0.04419599 -0.032960862 0.010128923 0.086889766 0.04702348 0.046683047 0.069201194 0.08604807
-0.016780717 -0.0947576 0.042627458 0.04412576 0.029514028 -0.027183406 -0.002579889 0.11909815
-0.07599002 0.06390932 -0.09297047 0.09862925 0.036347587 0.069284245 -0.009601829 0.03178495
0.01875067 -0.023932254 0.109735146 0.06931013 -0.053357624 -0.07305726 0.045011614 -0.08008744
0.07837878 0.05817773 -0.06530976 -0.04634755 -0.09919261 -0.051277064 0.12323461 -0.029755155
-0.08743945 -0.14087935 -0.12560238 -0.16138312 0.05051722 0.04223192 -0.08383612 -0.10314271
-0.16689856 -0.15224428 -0.07982105 -0.063336894 0.044636127 -0.0888828 -0.11231979 -0.06762371
0.06360808 0.06089505 0.031376645 0.06140915 -0.12226905 -0.09491527 -0.12802295 -0.16846144
0.055387132 -0.10152855 0.027567096 -0.087578066 -0.018480457 0.0034103119 -0.16113512 -0.020323543
-0.0045096045 -0.068656154 -0.012905861 -0.15606242 -0.10911566 -0.037281506 0.001623381 -0.15506972
0.039009515 0.032525294 -0.007345213 0.019041035 -0.040223815 0.10926353 -0.060592495 0.06098435
0.0279605 0.0074425354 0.013504083 -0.11821933 -0.07639377 -0.14105192 -0.03293042 -0.0059939716
-0.1337807 -0.15302128 0.075238064 -0.008377341 -0.10843324 -0.03930114 -0.102858245 -0.034186773
0.12278297 0.12687327 0.05395417 -0.005919354 -0.07029401 0.075406976 0.115407035 -0.09399223
-0.1390632 -0.108603485 -0.13090104 -0.0039156675 -0.053297963 -0.15380293 0.00061089126 -0.06686475
-0.06787321 0.11981878 0.027883807 0.015867708 0.0025953278 0.08586485 0.02002675 -0.055533595
0.13500158 -0.024122082 0.07100781 -0.08705792 -0.09362824 0.08388496 0.0020841905 -0.014142589
0.052672707 -0.10730517 -0.05217411 -0.11108415 0.0070696077 -0.015700629 -0.01957053 -0.04222354
0.1501275 -0.1080381 -0.109280586 0.100577205 -0.06057666 0.022081038 -0.03889174 0.07927277
-0.09720701 -0.075480826 -0.0417988 0.078592405 0.052306063 -0.09054545 -0.15046561 -0.06562856
-0.046385087 -0.021665944 -0.047602944 0.059731863 0.14671385 -0.06469268 0.14246951 0.11051514

rnn.bias_hh_l1 f4 [192]
00000000: cfa0 083e 3376 313d 84e5 cfbc a2fa bfbd
00000010: 2ecc 69bb 4203 1dbd a174 a43b eb86 af3d
00000020: 1fb4 bebd 61b0 edbd 9804 8bbd f73a 873c
00000030: 50fa 14bd b62b c9bd 43b2 073e 4050 773c
00000040: 75b6 b93d 87ec 8f3d debe bd3d bd96 9f3d
00000050: 6dd7 dabd f51a 08bd 6b7f c1bd b222 7cbd
00000060: dbe0 b9bd 681a a83d 1614 f73c b8ca a43b
00000070: 8e44 5bbd fdbb debc 65a2 8b3b 4e1e 0b3d
00000080: 55c2 bebb 11c8 49bd 5dec 573d f92d c53c
00000090: 63ce ecbc 10e3 ad3d d84f dd3d 6060 d93d
000000a0: 8fa2 0dbe 973f b33d 7cfb 113e 434e 223c
000000b0: 9313 573d 9e2e bebc f734 04be d83e a9bd
000000c0: e0e0 b33d 0cb3 e63d baac b13c 2db4 013e
000000d0: 68ed e93d 70ad 8b3d 4c37 7d3c 65a3 96bd
000000e0: 2e09 c4bd 2309 a5bd 2197 8bbd 34c7 7d3d
000000f0: c4a2 dd3a 1289 ed3d 5385 973d 338c 41bc
00000100: ab2b 963d aa13 abbd 6c1f b0bd dc18 623d
00000110: 00b4 2dbe 762b 47bd 4051 8dbd 5907 03be
00000120: ad12 9f3c dd3a 00be 2f2c 533c 27ff 06bd
00000130: d799 c13c d9ca bbbd 57af ebbd dd1b bcbc
00000140: 3102 083d 3d14 9c3d 442b dabb 66b3 813c
00000150: 4eca 17be b2aa 1c3d 9593 2cbe c1fe cb3c
00000160: ea40 8bbd cd04 6b3d 32c3 d23d 0c54 98bd
00000170: 2656 bdbd 74d6 bc3d a796 bfbd 36f3 1dbe
00000180: e582 523d d476 fab9 4721 8e3d dcbd 0abe
00000190: 336c 04be 8d3f 553d 90dc e5bd 1d7f d7bc
000001a0: 63c2 383c 3489 edbc 539a eebd 5c3a 82bd
000001b0: 25ca d2bd 4506 7c3c 32b5 0ebe 5b7b 23bd
000001c0: e66c a5bd 641f f5bd af83 463c ad3e bbbd
000001d0: 6196 dfbd 19dc 02be c5f7 99bd aaad 28be
000001e0: 4cd9 64bd 298e c1bd 5711 1b3c 2f3c 22bc
000001f0: 6c7c 043c 871c a4bd cc10 24be 6781 ebbb
00000200: 1090 713c 1224 ac3c b93e c33a 8fb1 1cbd
00000210: 007b 1d3e 3fb2 323d 4e80 aabc f07e 1f3d
00000220: 8d3a c93b cc2e 14bd 0020 96bc 47cf 293c
00000230: 6f43 a63c 076a a33b 4956 d23d 3ed1 af3d
00000240: ba62 fe3c 9822 afbd 8ef6 12be 70db 8d3d
00000250: faf4 c5bd e8a2 d43d b8c9 953c 4c4c c13d
00000260: 8eb5 a33d 392c 67bb 01a9 9a3d 86f0 51bc
00000270: 8b2e 64bd 606c 4c3d 182b 9fbc bd5d 3f3d
00000280: cca6 dd3b 5065 9c3d 374e 923d 354c a7bd
00000290: 9224 81bd f5e6 77bd cb3a f73d d2c2 e33d
000002a0: cd53 89bd 11c1 e9bc 0b25 8f3d 129b cabb
000002b0: 6897 e2bd 04ed c6bd 2460 c43d fa5b 703d
000002c0: e48a dcbd fd43 9f3d 1797 14be 47f7 43bd
000002d0: 2f76 bf3d 38b9 ee3c 6916 02bd 8091 fabd
000002e0: c594 d53d 4a9f be3d 3fdb c13c 3cd6 9b3c
000002f0: e1f9 1c3e 93ab b23d baf7 78bd 5a46 ab3d
0.13342594 0.043325614 -0.025377996 -0.09373976 -0.003567468 -0.038333185 0.005018786 0.085706554
-0.09311699 -0.11605907 -0.067879856 0.016507609 -0.03637153 -0.0982279 0.13251595 0.015094817
0.09068004 0.07027536 0.09264921 0.07792423 -0.106856205 -0.033228833 -0.09448131 -0.061556526
-0.09076091 0.082081616 0.030160945 0.005029049 -0.053532176 -0.02718925 0.0042613023 0.033964448
-0.005821506 -0.049263064 0.052715648 0.024069773 -0.028907007 0.08490574 0.108062446 0.10614085
-0.13831542 0.08752363 0.1425609 0.009906354 0.0525089 -0.023215588 -0.1291083 -0.082639396
0.08783126 0.11264619 0.021688808 0.12666388 0.11422235 0.0682019 0.015455078 -0.07355384
-0.095720634 -0.08058383 -0.06815935 0.061957553 0.001690947 0.1159841 0.073984765 -0.011813211
0.07332548 -0.0835336 -0.08599743 0.05519949 -0.16963196 -0.048625432 -0.06900263 -0.12795772
0.019418085 -0.12522455 0.012888952 -0.032958176 0.023632927 -0.091695495 -0.11508053 -0.022962505
0.033205215 0.07621048 -0.0066579897 0.015832614 -0.14823267 0.038248725 -0.16853173 0.02490175
-0.06799491 0.057377625 0.10291137 -0.07437906 -0.09244947 0.09220591 -0.093549065 -0.15424809
0.051394362 -0.0004777225 0.06939941 -0.13548988 -0.129319 0.05206256 -0.112237096 -0.02630573
0.011276814 -0.028996088 -0.11650529 -0.063587874 -0.10292462 0.015382354 -0.13936308 -0.039912563
-0.08077411 -0.11968878 0.012116357 -0.09142814 -0.109173544 -0.12779273 -0.075179614 -0.16472498
-0.055871293 -0.09450943 0.009464583 -0.009902044 0.008086305 -0.08013254 -0.16022032 -0.007187057
0.01474382 0.021013293 0.0014896012 -0.03825527 0.15378952 0.04362702 -0.020813134 0.038939416
0.006141013 -0.03617744 -0.018325806 0.01036436 0.020295827 0.0049870047 0.10270364 0.08584832
0.031052936 -0.0855152 -0.14351866 0.0692662 -0.09665866 0.103826344 0.018284664 0.094383806
0.07993613 -0.0035274161 0.07551766 -0.012813693 -0.05570845 0.049908042 -0.019429728 0.046720255
0.0067642685 0.07636511 0.071438245 -0.08168832 -0.06305803 -0.060522992 0.12071761 0.111211434
-0.06705437 -0.028534444 0.06989487 -0.0061830366 -0.11064035 -0.09713176 0.0958865 0.058681466
-0.10768679 0.077766396 -0.14510761 -0.047843244 0.093487136 0.029141054 -0.031759653 -0.12234783
0.10428766 0.09307726 0.023664115 0.019023053 0.15329696 0.087241314 -0.060783125 0.08363028

rnn.weight_ih_l2 f4 [192, 64]
00000000: 1b7a 87bd bd6c 8ebd 22ce 743d 5ed6 813d
00000010: 4703 09bd 4512 e93d e852 d13d 00b1 24bb
00000020: 42e3 883d 1f01 fabd 58fa 78bd 637c 0abd
00000030: c15c f13d e626 b53d 02f0 2dbb 0aad 8fbd
00000040: 3993 e6bb cb25 05bd b151 91bd 134f 2b3d
00000050: ad20 49bd 8e3b 123e 4ae2 2cbd 2cdb 153e
00000060: d9e9 e33d 518b 52bd a0e8 12bc 4870 c83d
00000070: fb35 b33d 199a f73c 0bcd af3c 3fd3 68bd
00000080: d1d5 423c 4fa0 b2bd 5d9a f5bd e00b ca3d
00000090: 1b7c 94bd e224 e53d db15 5cbd f66f b63d
000000a0: 3327 173c 0841 0cbe 3888 e3bc 88a9 35bd
000000b0: e419 7bbd d5cd d23d fed5 c03d 5794 7abc
000000c0: bd38 8f3c c440 ecbd 6090 5abd ab61 b03d
000000d0: abf8 093e bf58 d33d e273 563d f4e2 d03d
000000e0: 6490 5fbd de35 2abd a604 803a 11b0 b8bc
000000f0: d558 733d cfa2 e03d 0d1d 8ebd 8f34 6fbc
00000100: dbfa a23d f973 a13d ecd0 98bd 0ea3 cdbc
00000110: 16c6 aa3d 59a9 e7bc 76be 8cbc 00ce 80bd
00000120: 13ef 93bc 23bf a13d f317 0d3b 9933 23be
00000130: 50e7 dbba c0ce 71bd d74d cebd 8e2f d4bd
00000140: 7ca0 e03d 7509 ddbc 3033 2f3d 57a3 083d
00000150: 9a60 b3bd 7b36 fb3c 532b c33d 5833 0a3e
00000160: 4c1f 2cbd 07db b0bd 516b 793c 149d 0bbd
00000170: 6ace 9f3d 7f05 d63c df67 3f3d 8766 9e3d
00000180: b262 bfbd da02 04bd 69aa aebd e42b 68bd
00000190: 8178 d9bd c83d d33d 709d 963b 3a12 40bd
000001a0: f9b7 003e 6b76 8f3d f48f 7bbd bde2 453d
000001b0: 55e8 05be 2780 db3d 06e1 6a3d ffdf 8b3c
000001c0: 1d2c b53d 9d1a cc3d 9ee1 f03c 44c2 7d3d
000001d0: 3301 b1bd 725c cfbd e452 d93d 8ae7 9b3d
000001e0: 6853 003d 4cf4 313d 54d8 61bd b098 bcbb
000001f0: 636e 9ebd 88b2 88bd aced b5bb d0a4 023e
00000200: 4592 e33d 398c 76bd afe7 f0bc 13ec debd
00000210: 0891 da3d 7321 dd3c 407e ab3d ef7d 223d
00000220: aea5 dabd 6420 d2bd 69c5 3ebc 4dab 56bc
00000230: 3e7b 933c 0a10 193d a11e a93d bf85 aabd
00000240: d400 1cbc 96c0 ccbd bad8 383c baed 86bc
00000250: 620b 483d 5b21 e93c 358c 3a3d fb18 e83d
00000260: 8d3b 313d 44af cfbd 97d1 273c 8af9 80bd
00000270: e4e9 d23d cda7 2ebe 5b83 c43c dee1 343c
00000280: afda 7b3d 915e db3c e33a 1cba 9d06 5d3b
00000290: 4dc9 9a3d 536f ca3d 0047 8d3d a5d2 57bd
000002a0: f718 dbbd 9533 cb3c 8284 c4bd b921 b5bd
000002b0: 9024 c23d 0b90 d13d 6861 2e3d 2d90 6abd
000002c0: 79ef 9dbd eebf 8dbd edbb ef3d fb67 ef3d
000002d0: 12e4 18bd 7597 95bd 7c54 fabc 785b ae3d
000002e0: 00a4 e63c eb5f f43d 574d 553d 9638 c53c
000002f0: e82b e1bd b7a5 97bd 231f f93d ece7 66bd
00000300: 0c30 153d db4c 92bd 79c0 cebd f399 5cbd
00000310: f32a 9cbd 5740 153e 003f ed3d 0baf ccbc
00000320: 7f99 15be 116e bb3c 898d 603a 49e1 8abb
00000330: 4df4 20bd dfc0 c4bd 4289 883d da41 a2bd
00000340: d396 8f3d 8f4d 2cbd afc6 8bbd 8769 b3bd
00000350: f334 793d 9191 1b3e ec1f 5f3d 0651 56bc
00000360: 28d8 b0bd b64f 91bd c6a7 30bd 027f 05bd
00000370: e754 02be 1a3a c2bd 018e 853d 9c44 c8bc
00000380: 3087 ad3d 910e 83bd 0f55 bcbc e51e 84bd
00000390: d3ba 21be 9617 fa3c 91f2 4cbd 3bf0 95bd
000003a0: 18ae da3d 85ae cb3d e1cc 673c 9c65 1ebc
000003b0: ee9a 05bd 626a ad3d e6bd dc3c bfa5 06be
000003c0: af8a d6bc 08e8 d6bd 2978 9ebd f047 0fbd
000003d0: 47cf 4bbd 6a52 5abd 2de7 7dbd 22fe 5fbd
000003e0: 152e 4cbd 0371 a83d e1c3 51bc ec3b d03d
000003f0: 58f1 9abd fbfb abbd 4bc5 063e 94ca 233d
-0.06615087 -0.06954334 0.059766896 0.063397154 -0.03345039 0.11380438 0.10220891 -0.0025129914
0.06683971 -0.12207245 -0.06078562 -0.03381003 0.117852695 0.0884531 -0.002654076 -0.070154265
-0.0070365933 -0.032506745 -0.070956595 0.041823458 -0.049103428 0.14280531 -0.042207994 0.14634389
0.11128587 -0.051402394 -0.008966595 0.09787041 0.0875053 0.030224847 0.021460077 -0.056842085
0.011891798 -0.08721983 -0.11992333 0.09865546 -0.07250234 0.111886755 -0.05373178 0.089080736
0.009225654 -0.13696682 -0.027774915 -0.04435113 -0.061303988 0.102931656 0.09415816 -0.015294156
0.01748311 -0.115357906 -0.053360343 0.08612379 0.13473766 0.10319661 0.05235661 0.10199538
-0.05458106 -0.041555278 0.000976701 -0.022544893 0.05941089 0.10968553 -0.06939135 -0.014599933
0.07958003 0.07883448 -0.07461724 -0.025102165 0.08338563 -0.028278993 -0.017180663 -0.062892914
-0.018058335 0.078977846 0.0021529167 -0.15937652 -0.001677731 -0.059035063 -0.100734405 -0.10360633
0.1096811 -0.026982049 0.042773426 0.033358898 -0.0875866 0.030665627 0.09529748 0.13496149
-0.042022035 -0.08635526 0.01522334 -0.03408535 0.07803042 0.026125668 0.04672992 0.07734399
-0.093449965 -0.032229282 -0.08528597 -0.056682482 -0.106186874 0.10314518 0.0045964047 -0.046892382
0.1257018 0.07005008 -0.06141658 0.048311938 -0.13076909 0.107178025 0.057343505 0.017074583
0.088463046 0.099660136 0.029404458 0.061952844 -0.08642807 -0.101250544 0.10611513 0.07612522
0.031329542 0.04344587 -0.055137947 -0.0057555065 -0.07735898 -0.06674677 -0.0055520143 0.12758183
0.11111883 -0.06019232 -0.02940735 -0.10884871 0.10672194 0.026993489 0.0837369 0.03967088
-0.10676132 -0.10260084 -0.011643746 -0.013102365 0.018003102 0.03736881 0.08257795 -0.08326291
-0.009521682 -0.0999767 0.01128214 -0.016470779 0.04883898 0.028458288 0.045543868 0.1133289
0.043269683 -0.10140851 0.010242841 -0.06297596 0.10298517 -0.17056198 0.023988416 0.011040179
0.06148785 0.026778491 -0.00059597025 0.0033725866 0.07557926 0.09884515 0.06898308 -0.05269112
-0.10698121 0.02480487 -0.09595586 -0.08844323 0.0947963 0.10232552 0.042573363 -0.057266403
-0.077116914 -0.06921373 0.11705766 0.116897546 -0.03732688 -0.07304279 -0.030557863 0.0851354
0.028154373 0.119323574 0.05207571 0.024074834 -0.109947026 -0.074046545 0.12164142 -0.05637352
0.036422774 -0.07143565 -0.10095305 -0.053857755 -0.076253794 0.14575325 0.11584282 -0.02498581
-0.14609335 0.022879632 0.0008566012 -0.004238282 -0.039295483 -0.096071 0.06666805 -0.079227164
0.07011189 -0.042066153 -0.06825005 -0.08760362 0.060841512 0.15192248 0.054473802 -0.013080841
-0.086349785 -0.07095282 -0.04312875 -0.032591827 -0.127277 -0.09483738 0.06521226 -0.024446778
0.084730506 -0.06399263 -0.022989778 -0.06451205 -0.15793924 0.030528825 -0.050036017 -0.07321211
0.10677737 0.09945396 0.014147968 -0.00966778 -0.032618456 0.084675565 0.02694602 -0.13149165
-0.026189176 -0.10493475 -0.077377625 -0.034980714 -0.049758222 -0.053301252 -0.061988045 -0.05468572
-0.049848635 0.0822468 -0.012803049 0.10167679 -0.07565564 -0.08397671 0.13161199 0.039988115
