16 - Recurrent Neural Network/model/gru/weights_150.pth (torch, 255035 bytes, 13 tensors)

rnn.weight_ih_l0 f4 [192, 1]
0	0x3dcfe2c1	0.10150672
1	0x3e248ad5	0.16068585
2	0xbde6aedc	-0.112638205
3	0x3e4853eb	0.19563262
4	0xbd4a88cf	-0.049446877
5	0xbdd54d0d	-0.10415087
6	0x3d76dd25	0.060269494
7	0x3dc37bef	0.09545123
8	0x3e0c803e	0.13720796
9	0xbcca9b41	-0.024732234
10	0x3da0d32c	0.07852778
11	0x3e4a04e2	0.19728425
12	0x3c7b3400	0.015332222
13	0x3d94b41f	0.07260918
14	0xbd8bc3ae	-0.06824432
15	0xbdd9f739	-0.10642857
16	0x3e191488	0.14949238
17	0xbce5d2ca	-0.028054614
18	0x3e08b072	0.13348559
19	0x3d3cfeec	0.04614155
20	0xbd6af3fd	-0.05736159
21	0xbdc2c51f	-0.09510254
22	0xbe0e69eb	-0.13907592
23	0xbb3e34b7	-0.002902312
24	0x3db22748	0.086988986
25	0xbdae1e7e	-0.0850191
26	0xbd150c65	-0.036388773
27	0xbd593ef5	-0.053038556
28	0xbc17f717	-0.009275219
29	0xbcce8ffd	-0.025215143
30	0x3e1445eb	0.14479797
31	0x3d2e8fdf	0.042617675
32	0xbdd99603	-0.106243156
33	0xbd2a5c4b	-0.041591924
34	0xbd2c110b	-0.04200844
35	0xbd830ed6	-0.06399314
36	0xbdd4d5db	-0.10392352
37	0xbe03551d	-0.12825437
38	0x3dfe58b7	0.12419265
39	0xbd88b9c0	-0.06676054
40	0x3d7d406d	0.06182902
41	0xbdb49276	-0.08816998
42	0x3e161c98	0.14659345
43	0xbd3db1e8	-0.046312243
44	0xbdd4bc3b	-0.103874646
45	0x3d2ffb06	0.042964004
46	0x3d376223	0.044771325
47	0x3e1a5262	0.15070489
48	0xbd3e6faf	-0.04649323
49	0xbb9f0c00	-0.0048537254
50	0xbdc61b09	-0.09673125
51	0x3b56de66	0.0032786368
52	0x3e2fdd36	0.17174229
53	0x3bf6538d	0.0075172842
54	0x3d9881ea	0.07446654
55	0xbcc9acce	-0.024618533
56	0xbd0f0221	-0.03491414
57	0xbd8c06aa	-0.068372086
58	0x3db9562c	0.09049639
59	0x3d374206	0.0447407
60	0x3e628880	0.22122383
61	0xbd1c7de2	-0.03820599
62	0x3dbd19c4	0.0923343
63	0x3bbc7ccf	0.005752183
64	0xbdf1c2e7	-0.11804753
65	0xbe0bfb2e	-0.13670036
66	0xbda41001	-0.08010865
67	0xbe7b2e61	-0.24529411
68	0xbe280147	-0.16406737
69	0xbea71b02	-0.32637793
70	0x3d1c42c1	0.0381496
71	0xbe11b5fa	-0.14229575
72	0xbe019eda	-0.12658253
73	0xbd866ffd	-0.06564329
74	0x3dc9e72b	0.09858545
75	0xbc118173	-0.008880961
76	0xbe471fc7	-0.19445716
77	0x3d7e8766	0.062140845
78	0xbda6ee69	-0.08150942
79	0xbdb28efe	-0.0871868
80	0x3a372738	0.000698674
81	0xbddc04cb	-0.10743102
82	0xbb51d26b	-0.0032016288
83	0xbde9da7d	-0.114186265
84	0xbd2f390f	-0.042779025
85	0x3cf83055	0.030296484
86	0x3d816646	0.06318335
87	0xbd7d33cf	-0.061816987
88	0xbdb1e6a8	-0.08686572
89	0x3d8f441e	0.06995414
90	0xbd0dd615	-0.034627993
91	0xbe0a511f	-0.13507508
92	0xbdc1563e	-0.094402775
93	0xbdebb5cb	-0.11509284
94	0x3db96e7d	0.09054277
95	0xbac2a0b6	-0.0014848921
96	0x3ca8d272	0.02060816
97	0xbdaf46d1	-0.08558429
98	0xbd420c22	-0.047374852
99	0xbd820c64	-0.063500196
100	0xbda51838	-0.0806126
101	0xbd4e0a64	-0.050302878
102	0xbd8ca6fd	-0.06867788
103	0xbd343bce	-0.044002347
104	0xbd1bbeee	-0.03802388
105	0xbdae6d99	-0.08516998
106	0x3c4e495a	0.012590731
107	0xbd16dc90	-0.03683144
108	0x3d14af92	0.03630025
109	0xbe958f23	-0.29210767
110	0xbdee9daa	-0.11651166
111	0xbdbae190	-0.09125054
112	0xbdb7211d	-0.08941863
113	0xb9c32cc3	-0.00037226648
114	0xbd8ef240	-0.06979799
115	0xbc864db3	-0.016394472
116	0xbde6b7d2	-0.1126553
117	0xbd70507e	-0.058670513
118	0xbd8ceeb6	-0.06881468
119	0xbd9275a1	-0.07151342
120	0xbdb9f761	-0.09080387
121	0xbd18ab3a	-0.03727267
122	0xbe72ab2c	-0.2369811
123	0xbce8a10a	-0.028397102
124	0xbdc062fa	-0.09393878
125	0xbdfe5d55	-0.124201454
126	0xbdfeee90	-0.12447846
127	0xbc0d5e8f	-0.008628502
128	0x3b333cfc	0.0027349582
129	0xbd189d84	-0.037259594
130	0x3d5554c8	0.052082807
131	0x3c56b1ca	0.013103912
132	0x3d2f0682	0.042730816
133	0xbd7ada59	-0.06124339
134	0xbcda0786	-0.026614916
135	0xbd14f385	-0.03636505
136	0x3d806fb3	0.06271305
137	0x3d657db9	0.0560281
138	0x3bff32fd	0.0077880607
139	0x3d9e0ccb	0.07717284
140	0xbc7eb7a7	-0.015546716
141	0x3d117709	0.03551391
142	0xbd1a634d	-0.037692357
143	0xbd700fe7	-0.058608916
144	0x3d891c83	0.06694891
145	0x3d78764b	0.060659688
146	0x3d8a43ec	0.06751236
147	0x3c876f5c	0.016532592
148	0x3e269a11	0.16269709
149	0xbd820224	-0.063480645
150	0x3da73dcf	0.08166086
151	0x3d41cb0c	0.04731278
152	0xbd4cb4c7	-0.04997709
153	0xbd66e178	-0.056367368
154	0xbd669d28	-0.05630222
155	0xbd59d6ba	-0.053183295
156	0x3d93f8b8	0.07225174
157	0xbd72f907	-0.059319522
158	0x3daaedd5	0.08346144
159	0x3ce17f87	0.02752663
160	0x3d96e86d	0.073685504
161	0x3d5fbc10	0.05462271
162	0x3df2c6b4	0.11854306
163	0x3d5880c5	0.05285718
164	0xbd730690	-0.05933243
165	0x3d4f0013	0.05053718
166	0xbd574a45	-0.052561063
167	0x3d93e4c5	0.07221369
168	0x3d8215cb	0.06351813
169	0xbd93b425	-0.07212094
170	0x3da795af	0.08182847
171	0xbdc399e4	-0.09550837
172	0x3d30671f	0.043067094
173	0xbd619d87	-0.05508187
174	0x3e0d228f	0.13782714
175	0xbcd39f9b	-0.025832942
176	0xbd5ac02f	-0.053405937
177	0xbd96f753	-0.07371392
178	0x3d8eb5db	0.0696828
179	0xbd828494	-0.063729435
180	0xbd505c92	-0.050869532
181	0x3d71be11	0.059019152
182	0x3d172ffa	0.03691099
183	0x3da03c16	0.078239605
184	0x3d4f51e1	0.050615195
185	0xbd4db2db	-0.050219398
186	0x3de68fcd	0.112578966
187	0x3cf431b6	0.02980886
188	0x3da2ff47	0.079588465
189	0x3d4a48e7	0.04938593
190	0xbce1671c	-0.027514987
191	0x3d9c747a	0.07639404

rnn.weight_hh_l0 f4 [192, 64]
0	0xbd1021b2	-0.035188384
1	0x3e0dfe04	0.1386643
2	0x3dab27f4	0.0835723
3	0xbe41ecbf	-0.18937968
4	0x3d946092	0.07244982
5	0xbe824ae7	-0.2544777
6	0x3d1f8b16	0.038951002
7	0xbe0cf30b	-0.13764589
8	0x3e3e41cc	0.18579787
9	0x3da937dd	0.08262608
10	0x3da5e837	0.08100932
11	0x3df778c0	0.12083578
12	0xbdceef6b	-0.10104259
13	0x3db2aee4	0.08724764
14	0x3dfd739c	0.12375566
15	0xbde52b74	-0.11189929
16	0x3e04af92	0.129576
17	0xbd0ccd94	-0.034375742
18	0x3e72b7d2	0.23702934
19	0xbdc2a5f6	-0.09504311
20	0x3d8f44f4	0.06995574
21	0xbdde0690	-0.108410954
22	0x3e53c3c8	0.20680153
23	0x3d5f3ba9	0.054500256
24	0xbd9adc4c	-0.075615495
25	0xbb4afc67	-0.0030973197
26	0xbde0050e	-0.10938464
27	0xbe12f0c0	-0.14349651
28	0x3d803156	0.0625941
29	0xbdc66ff9	-0.09689326
30	0x3d705778	0.058677167
31	0x3e3bf9a3	0.18356948
32	0x3ca011e8	0.019539788
33	0x3e2dbc55	0.16966374
34	0x3998afae	0.0002912259
35	0x3e53a1ea	0.20667234
36	0xbe0ea2f3	-0.13929348
37	0x3cb983dd	0.022645885
38	0xb9f0b9f0	-0.000459149
39	0x3de9696c	0.11397061
40	0x3e3a4e3c	0.18193907
41	0x3d3e9198	0.046525568
42	0x3c7785f7	0.015107623
43	0xbe0f06c5	-0.13967426
44	0x3e3cc7d7	0.18435608
45	0xbd906a7b	-0.070515595
46	0x3dc4a229	0.09601242
47	0x3c83f660	0.016108692
48	0xbd612514	-0.054967
49	0xbe100850	-0.14065671
50	0x3e1a6246	0.15076551
51	0xbdf8bf6e	-0.12145887
52	0xba82c3dd	-0.0009976585
53	0x3e2228e7	0.15835916
54	0x3e2c1fde	0.16809031
55	0x3e03073d	0.1279573
56	0x3e353432	0.17695692
57	0x3c516a1c	0.012781646
58	0x3e55f835	0.20895465
59	0x3cd8826e	0.026429381
60	0x3d0c28b2	0.034218498
61	0x3da56985	0.08076767
62	0x3dbb0715	0.0913221
63	0x3ca230ca	0.019798655
64	0x3dfcdf30	0.12347257
65	0x3d8b7ef5	0.068113245
66	0x3dacfc68	0.0844658
67	0xbc359662	-0.011083217
68	0x3e38a993	0.18033437
69	0xbe440116	-0.19141039
70	0x3cb46ef6	0.022025567
71	0xbe495f94	-0.19665366
72	0x3e05b89a	0.13058701
73	0x3bfed218	0.00777651
74	0xbd6f135a	-0.058368064
75	0x3c52aaa4	0.012858067
76	0x3d7a9be5	0.06118383
77	0x3da81bef	0.08208453
78	0xbe091938	-0.13388526
79	0xbd010242	-0.031496294
80	0x3e2dc9ed	0.1697156
81	0x3e05a0d1	0.13049628
82	0x3ba49519	0.0050226566
83	0x3d932e19	0.07186527
84	0x3d07b631	0.033132736
85	0xbdcca4c6	-0.099923655
86	0xbbd94404	-0.0066304225
87	0x3d08c822	0.033393987
88	0xbe5b58f1	-0.21420647
89	0xbe0acbe3	-0.13554339
90	0xbd4fa0b4	-0.050690368
91	0xbd68514e	-0.056718163
92	0x3d5c7286	0.053820156
93	0xbdefce9b	-0.11709329
94	0x3d0298fd	0.031884182
95	0xbd16c0d6	-0.036804996
96	0x3ca1e5ee	0.01976296
97	0x3e5ff7d7	0.21871887
98	0x3b298575	0.00258669
99	0x3e4312ca	0.19050136
100	0xbc3dba9e	-0.011580138
101	0x3dc3186d	0.09526143
102	0x3bc5efa7	0.0060405317
103	0x3d897621	0.067119844
104	0x3df3b5aa	0.11899884
105	0x3d1325d6	0.035924755
106	0x3df96aa0	0.1217854
107	0xbe110c52	-0.14164856
108	0xbac07a55	-0.0014684895
109	0xbe1c40a0	-0.15259027
110	0x3e291f5e	0.16515872
111	0xbd3a206e	-0.045441084
112	0x3c2f899f	0.010713964
113	0xbda3094e	-0.07960759
114	0x3e2946d7	0.1653093
115	0xbe13d742	-0.14437583
116	0xbb0e43e2	-0.0021707942
117	0x3e23273d	0.15932937
118	0x3de877f2	0.11351003
119	0x3ca3613f	0.019943831
120	0xbd0a9d34	-0.033841327
121	0xbe39f351	-0.18159224
122	0x3e64481e	0.22293136
123	0x3e43677c	0.19082445
124	0xbd8c13f5	-0.06839744
125	0x3dd38786	0.103285834
126	0x3d0e182c	0.03469102
127	0x3e175aa6	0.14780673
128	0x3d84ad45	0.06478361
129	0x3cb66b5d	0.022267992
130	0xbd63e865	-0.05564155
131	0x3d4aa596	0.04947432
132	0x3dd0b700	0.101911545
133	0xbdf0245d	-0.11725686
134	0x3de9eaa2	0.11421706
135	0xbe26fdb3	-0.16307716
136	0x3dc4ad7b	0.09603401
137	0xbdc4c8c9	-0.09608609
138	0x3c882893	0.01662091
139	0xbe4f8c8a	-0.20268455
140	0x3d35cd92	0.0443855
141	0x3d466c23	0.04844297
142	0x3d1aa8a8	0.0377585
143	0xbca381f1	-0.019959422
144	0x3de4544e	0.11148892
145	0x3d8ce6df	0.06879973
146	0xbe269f4b	-0.16271703
147	0x3a16f278	0.00057581766
148	0x3dc9a723	0.09846332
149	0x3c49df55	0.012321313
150	0xbd9077e6	-0.07054119
151	0xbd53db1f	-0.051722642
152	0x3df726fe	0.12067984
153	0x3d4c5265	0.049883265
154	0xbd552be6	-0.052043818
155	0xbdc352b6	-0.0953726
156	0x3da0bf49	0.07848985
157	0x3d9f1710	0.07768071
158	0x3dcf56ff	0.10124015
159	0xbdb325a1	-0.087474115
160	0x3c485d5e	0.012229292
161	0x3dfc5dd9	0.123225875
162	0x3dea1ecd	0.11431656
163	0xbac1d752	-0.0014788902
164	0x3daf5abc	0.08562228
165	0xbd2a84f7	-0.04163071
166	0x3e02bdf7	0.12767778
167	0x3d1fa462	0.038975127
168	0x3dd9713e	0.10617302
169	0xbdffd9c7	-0.124927096
170	0x3d639ba5	0.055568356
171	0xbdd048a3	-0.10170104
172	0xbd6a5a47	-0.057215
173	0xbe03ee46	-0.12883863
174	0xbcca0f40	-0.024665475
175	0x3db41f85	0.087950744
176	0xbd7f5ee4	-0.062346354
177	0xbd84e7ea	-0.064895466
178	0x3d43c79a	0.047797777
179	0xbdac0614	-0.08399597
180	0x3b2893cb	0.0025722857
181	0x3ddf233a	0.10895391
182	0xbd8e7c12	-0.06957258
183	0x3d9a776e	0.07542311
184	0x3cf9de22	0.030501429
185	0x3d6857ad	0.05672424
186	0x3e1dd73c	0.15414137
187	0x3d6cc114	0.05780132
188	0xbdca76f9	-0.098859735
189	0x3b9045c8	0.00440285
190	0xbd7440aa	-0.05963198
191	0x3dd09693	0.1018497
192	0xbe1edcc1	-0.15513898
193	0xbd6d01f1	-0.05786318
194	0x3e0446fb	0.12917702
195	0xbd3ebaae	-0.04656475
196	0x3e34ea24	0.17667443
197	0xbdbb362c	-0.09141192
198	0x3cebf414	0.028802909
199	0xbe07d1a1	-0.13263561
200	0x3dab6732	0.08369292
201	0x3e0c0ae1	0.13676025
202	0xbdc2ea31	-0.09517325
203	0x3e1e88d7	0.15481888
204	0x3dd87801	0.10569764
205	0x3e07099b	0.13187258
206	0xbe3b1ede	-0.18273494
207	0xbda110a0	-0.07864499
208	0xbc275150	-0.0102122575
209	0xbb346906	-0.002752842
210	0x3dd9aceb	0.106286846
211	0x3d5736fe	0.05254268
212	0x3dc9fd3b	0.09862753
213	0xbd8271f7	-0.06369393
214	0x3e0ac462	0.13551477
215	0x3d87d38c	0.06632146
216	0xbe5efd81	-0.21776392
217	0xbe3318a0	-0.17489862
218	0xbe353e36	-0.17699513
219	0x3baeae8e	0.005330867
220	0x3e35c1a6	0.17749652
221	0xbe576fe9	-0.21038784
222	0x3e0dcddc	0.1384806
223	0x3d5473c4	0.051868215
224	0xbc11bd34	-0.008895207
225	0x3e3eec5c	0.18644851
226	0x3c5607c3	0.013063374
227	0x3e2175e4	0.15767628
228	0xbd43bf9b	-0.04779015
229	0x3e235898	0.15951765
230	0xbdc18514	-0.09449211
231	0x3e190d3b	0.14946453
232	0x3d511805	0.051048297
233	0xbd957f07	-0.07299619
234	0xbd0dc0f0	-0.034607828
235	0xbd298ed4	-0.041395977
236	0xbd0cd2b9	-0.03438065
237	0xbd1b6ad5	-0.03794368
238	0x3d8c01b4	0.06836262
239	0x3c93d820	0.018047392
240	0xbd95310e	-0.07284747
241	0xbe517c90	-0.20457673
242	0x3d86f27e	0.065892205
243	0xbbfb68c6	-0.007672402
244	0xbd2dc59c	-0.042424783
245	0x3da4a234	0.0803875
246	0x3e18adc9	0.14910044
247	0xbd003d87	-0.031308677
248	0xbcb480c4	-0.022034056
249	0x3c3e53a4	0.011616621
250	0x3e557396	0.20844874
251	0x3e34da67	0.17661439
252	0x3c44aaec	0.012003642
253	0x3dd54e42	0.10415317
254	0x3c3d4aa3	0.011553439
255	0x3c285bf0	0.010275826

rnn.bias_ih_l0 f4 [192]
0	0x3e2bbb00	0.16770554
1	0x3e2b442d	0.16725226
2	0x3ce1e0a5	0.02757294
3	0x3df7b86d	0.12095723
4	0x3cac5d8a	0.021040697
5	0x3e039fa8	0.12853873
6	0x3e82e407	0.25564596
7	0xbe2488f8	-0.16067874
8	0xbc397cb0	-0.011321232
9	0xbd106d29	-0.035260353
10	0xbdc380e1	-0.09546066
11	0x3e05b024	0.13055474
12	0x3d978511	0.07398427
13	0xbd971d22	-0.073786035
14	0x3cd6d910	0.02622655
15	0x3e20bfdd	0.1569819
16	0xbda3bebc	-0.07995364
17	0x3dd30328	0.103033364
18	0x3dab7463	0.083718084
19	0xbb5342c2	-0.0032235836
20	0x3db9efec	0.090789646
21	0xbc5f3697	-0.013623855
22	0xbdaae9a2	-0.08345343
23	0xbdbc8f07	-0.09206968
24	0xbde5dc23	-0.11223628
25	0x3d4c5c69	0.049892817
26	0x3c8615fc	0.016367905
27	0x3e2b4801	0.16726686
28	0x3e1d1733	0.15340881
29	0x3d9e13b9	0.077186055
30	0x3d86e7ab	0.06587156
31	0x3d08ae69	0.033369455
32	0x3d3a117f	0.04542684
33	0xbda0ed3a	-0.078577474
34	0x3d868f3a	0.06570287
35	0x3dad2c08	0.08455664
36	0x3e08e325	0.13367899
37	0xbd50a3e7	-0.05093756
38	0x3e253358	0.16132867
39	0x3d0bfa2c	0.03417413
40	0x3e005352	0.12531784
41	0x3e508640	0.20363712
42	0x3c4aca53	0.012377339
43	0x3e2af4b1	0.16694905
44	0x3c886bfa	0.01665305
45	0x3e6f11e5	0.2334667
46	0x3dcfa9c4	0.10139802
47	0x3d777811	0.06041724
48	0xbcacd332	-0.0210968
49	0x3d5552b3	0.05208082
50	0x3e89b3f0	0.26895094
51	0xbd1f3669	-0.03887025
52	0xbd6014d0	-0.05470735
53	0x3dc04096	0.09387319
54	0xbc1db3a0	-0.0096253455
55	0xbdd0cbcb	-0.101951204
56	0x3d3f34c1	0.04668117
57	0xbd478d9c	-0.048719034
58	0x3d936db1	0.07198656
59	0xbdec3dfd	-0.11535261
60	0x3ea31dc5	0.3185865
61	0x3d9189d9	0.071063705
62	0x3e14824e	0.14502832
63	0x3c141cd0	0.009040073
64	0xbe4dd3d6	-0.2010034
65	0x3d6f8d9e	0.058484666
66	0x3dfa02dd	0.122075774
67	0xb8cd72fb	-9.7965785e-05
68	0xbdb5276f	-0.08845412
69	0xbe4783b0	-0.19483829
70	0xbd6ca2c4	-0.057772413
71	0xbd8459fa	-0.06462474
72	0xbc90d467	-0.017679406
73	0xbe1ae5ad	-0.15126677
74	0x3cb2a6af	0.021807997
75	0xbdc3a922	-0.09553744
76	0xbe08ee8b	-0.13372247
77	0xbdd079cd	-0.10179482
78	0x3cc90171	0.02453682
79	0x3e2c052b	0.16798846
80	0xbdbc0faf	-0.09182679
81	0xbcb7d5c7	-0.022440804
82	0xbda78884	-0.08180335
83	0xbd0d83a8	-0.034549385
84	0x3a195312	0.0005848865
85	0xbd735c2f	-0.059414085
86	0xbc4e16ca	-0.0125786755
87	0xbdbae3b5	-0.09125463
88	0xbdacd35c	-0.08438751
89	0xbdfc0a71	-0.12306679
90	0xbd611d6e	-0.054959707
91	0xbdd508ae	-0.10402046
92	0x3dbc9e05	0.09209827
93	0x3da11d4d	0.07866917
94	0x3ca766be	0.020434733
95	0xbd6319be	-0.05544447
96	0xbdd36444	-0.103218585
97	0xbb916732	-0.0044373507
98	0xbdd75088	-0.10513407
99	0x3d6512c6	0.055926107
100	0x3d919f0c	0.07110414
101	0xbe32af2c	-0.17449635
102	0x3dfcc527	0.12342291
103	0x3db2895b	0.08717605
104	0xbdd5c5a9	-0.10438091
105	0xbd79286a	-0.060829557
106	0xbe1b1d50	-0.151479
107	0xbe19aeac	-0.15008038
108	0xbd2d1e2f	-0.042265113
109	0xbdb3d6fb	-0.08781239
110	0xbd23fecb	-0.04003791
111	0xbe4506ba	-0.19240847
112	0x3ddb63c5	0.10712389
113	0xbb719572	-0.0036862758
114	0xbe1421e4	-0.14466053
115	0xbe2cef88	-0.16888249
116	0x3e11b22f	0.14228128
117	0xbdbd9db8	-0.09258598
118	0x3d471016	0.048599325
119	0xbe18acc8	-0.14909661
120	0x3cecb16b	0.028893193
121	0xbe1b14af	-0.15144609
122	0xbe448b08	-0.19193661
123	0x3d536957	0.05161413
124	0x3e59f04a	0.21283069
125	0xbb6edbab	-0.003644685
126	0x3ccf8bcb	0.025335213
127	0x3d9c3ecf	0.07629167
128	0x3e5440f9	0.2072791
129	0x3e2901fc	0.16504663
130	0xbd4faef0	-0.050703943
131	0xbddebd52	-0.10875954
132	0x3e28d09e	0.16485831
133	0xbdb52164	-0.088442594
134	0x3e7f2054	0.24914676
135	0xbde6d1c9	-0.11270482
136	0xbdbf376c	-0.09336743
137	0xbe4cdaea	-0.20005384
138	0x3dec3ba4	0.11534813
139	0xbd999dae	-0.07500778
140	0x3db78d39	0.08962483
141	0x3d969326	0.07352285
142	0xbb80e103	-0.0039330735
143	0x3dbd5b15	0.09245888
144	0xbd8795fc	-0.06620404
145	0xbd4187fd	-0.04724883
146	0xbda61f17	-0.08111399
147	0xbde4d0a0	-0.111726046
148	0x3ba36ae5	0.004987108
149	0x3da9d4ed	0.082925655
150	0xbe12edaa	-0.14348474
151	0xbde70c40	-0.112816334
152	0x3e2053c6	0.15656957
153	0x3d9b2fa7	0.07577448
154	0x3dd910fb	0.10598942
155	0x3da80458	0.082039535
156	0xbdfb3b14	-0.12267128
157	0x3e5b0f17	0.21392475
158	0x3df04c31	0.11733282
159	0xbd776a87	-0.060404327
160	0x3e05c33d	0.13062759
161	0x3daf2951	0.08552802
162	0x3d1abcf4	0.037777856
163	0xbb50faae	-0.0031887698
164	0xbd229aac	-0.039698288
165	0x3e182bb7	0.14860426
166	0x3d978438	0.073982656
167	0xbe01c49b	-0.12672655
168	0xbe020b4b	-0.1269962
169	0x3e17d741	0.14828207
170	0x3e0c839d	0.13722081
171	0x3ddde922	0.10835482
172	0xbdc4cc3d	-0.09609268
173	0xbdf24213	-0.11829009
174	0x3de06399	0.10956497
175	0x3e0c0fac	0.13677853
176	0x3cd5c0f0	0.026092976
177	0x3e4790ad	0.19488783
178	0xbdeb38ac	-0.11485419
179	0x3e1ed766	0.15511855
180	0x3e1b20b7	0.15149198
181	0x3dff6dc8	0.12472111
182	0x3cc456c0	0.023967147
183	0x3d3ac931	0.045602027
184	0xbd45ccd1	-0.04829103
185	0x3d5fd89d	0.054649938
186	0x3e113c76	0.1418322
187	0x3da9cc62	0.08290936
188	0xbe3c272c	-0.18374318
189	0xbe2c4601	-0.1682358
190	0x3e6ed00a	0.23321548
191	0x3dd1070e	0.10206424

rnn.bias_hh_l0 f4 [192]
0	0xbd0a5451	-0.033771817
1	0x3e17e7d7	0.14834534
2	0x3d1e2efd	0.03861903
3	0xbcf8c88b	-0.030369064
4	0xbdabbb4b	-0.08385333
5	0x3e0cb590	0.13741136
6	0x3e937584	0.28800595
7	0xbde872a0	-0.11349988
8	0x3df6dcd0	0.120538354
9	0x3c0e8974	0.008699764
10	0xbdd8ba9d	-0.10582469
11	0xbcc82b37	-0.024434669
12	0x3e04795a	0.12936917
13	0xbdcb4237	-0.09924739
14	0x3c74823e	0.01492363
15	0x3e433562	0.19063333
16	0x3c24c492	0.010056632
17	0xbda989b9	-0.08278222
18	0xbe043535	-0.12910922
19	0xbdb713ac	-0.08939299
20	0xbdfacb33	-0.122457884
21	0x3d047d00	0.03234577
22	0x3d8a1bae	0.06743561
23	0xbe362284	-0.17786604
24	0x3ce626ce	0.028094675
25	0x3dbfd61d	0.09367011
26	0x3debbf67	0.115111165
27	0xbd38b2d7	-0.04509243
28	0xbd34413f	-0.044007536
29	0xbdc9677d	-0.09834192
30	0xbd36ef4d	-0.04466181
31	0xbd9c0156	-0.07617442
32	0xbd94a3be	-0.07257794
33	0xbde26826	-0.11055021
34	0x3de4d411	0.11173261
35	0xbb84ac1e	-0.0040488383
36	0xbd1fc570	-0.03900665
37	0x3dbe0803	0.09278872
38	0x3c8801fd	0.01660251
39	0xbbb215ea	-0.0054347413
40	0xbd7ba7bf	-0.061439272
41	0x3e5a5301	0.21320726
42	0x3d6ca34b	0.057772916
43	0x3d050010	0.032470763
44	0x3b9357c2	0.0044965455
45	0x3e0129e0	0.1261363
46	0xbdb161df	-0.086612456
47	0x3e7f2460	0.2491622
48	0xbde5293f	-0.11189508
49	0x3ce51a7d	0.027966732
50	0x3e591223	0.21198325
51	0xbbae4e2c	-0.0053193774
52	0x3dba6aab	0.091023766
53	0x3d619eea	0.055083193
54	0x3cc0da53	0.023541605
55	0x3d4130f6	0.047165833
56	0xbde5d073	-0.11221399
57	0x3e2d5b1a	0.16929284
58	0x3dfe1e5a	0.12408133
59	0x3d9756cf	0.07389604
60	0x3e825ed6	0.2546298
61	0x3d1cd349	0.038287435
62	0x3cdcf642	0.026972894
63	0xbe10d0f4	-0.1414221
64	0x3cb5d3d4	0.022195734
65	0x3e4293ee	0.19001743
66	0xbccbad41	-0.024862887
67	0xbd12445e	-0.03570973
68	0xbd944e89	-0.07241542
69	0xbe0ce47e	-0.13759038
70	0xbd66c1f5	-0.056337316
71	0xbd9ddf6c	-0.0770863
72	0x3d9d6ff5	0.0768737
73	0x3c08f53b	0.008359249
74	0x3c3e5605	0.011617188
75	0xbd99fc27	-0.07518797
76	0xbc1fee1f	-0.009761362
77	0xbd73963f	-0.059469458
78	0x3da4c2fc	0.08045003
79	0x3d8770a6	0.06613283
80	0x3d935845	0.071945705
81	0x3da41b70	0.08013046
82	0xbc654f49	-0.013995954
83	0xbdc1cd5d	-0.09462998
84	0xbc2edb72	-0.010672437
85	0xbdd0c362	-0.10193516
86	0x3bf2897a	0.0074016424
87	0xbdaf7f7d	-0.08569238
88	0x3dbe522a	0.09293015
89	0x3d0f91fb	0.035051327
90	0x3d6c030e	0.0576201
91	0xbca3b607	-0.019984258
92	0xbdabc421	-0.08387018
93	0xbb0c4018	-0.0021400508
94	0x3cca19b9	0.024670469
95	0xbdc16509	-0.09443099
96	0xbdf8e5c3	-0.121531986
97	0x3d3eb692	0.04656083
98	0x3cf307c4	0.029666789
99	0xbdbd5249	-0.0924421
100	0xbdeb8a50	-0.115009904
101	0xbe47243b	-0.19447415
102	0x3dcf0ac4	0.10109475
103	0x3cb0bb52	0.021573696
104	0x3d8db242	0.069187656
105	0x3cd60469	0.02612515
106	0xbe1335fc	-0.14376062
107	0x3cd48d69	0.025946336
108	0xbd7a8414	-0.061161116
109	0xbdf2e04e	-0.11859189
110	0xbe5dfba2	-0.21678022
111	0xbe25b8bb	-0.1618375
112	0xbcea3b9d	-0.028592879
113	0xbe112157	-0.14172874
114	0x3d34e97b	0.044167977
115	0x3ca29320	0.019845545
116	0x3cec83ce	0.028871443
117	0xbdbe4226	-0.092899606
118	0xbd9e7713	-0.07737555
119	0x3b920101	0.004455686
120	0x3e013a36	0.12619862
121	0x3da799d4	0.08183637
122	0xbd343df6	-0.044004403
123	0xbb6579b7	-0.0035015175
124	0x3e651e37	0.22374807
125	0x3e1b65ff	0.15175627
126	0x3d7fd3db	0.0624579
127	0x3d78f027	0.060775902
128	0x3d37f4cd	0.044911195
129	0x3e3dba7e	0.18528172
130	0xbe55b31c	-0.20869106
131	0xbbc238ca	-0.00592718
132	0xbcf16808	-0.029468551
133	0xbb4203d1	-0.0029604326
134	0x3e9662fd	0.29372397
135	0xbd9e59d9	-0.07731981
136	0xbd8de7ea	-0.06929
137	0xbe0297c3	-0.12753205
138	0x3d9ca667	0.07648926
139	0xbe3e27fd	-0.18569942
140	0x3e8a9431	0.27066186
141	0xbc07df66	-0.008293008
142	0x3e534c4c	0.20634574
143	0x3da50d3e	0.08059166
144	0x3d36de01	0.044645313
145	0xbd832547	-0.064035945
146	0x3d0fb3c2	0.03508354
147	0xbd1dc853	-0.038521122
148	0x3e082c3f	0.13298129
149	0xbdaaefc8	-0.08346516
150	0xbce92efe	-0.02846479
151	0xbce5894d	-0.028019572
152	0x3d9779b5	0.07396261
153	0x3e6e5bae	0.2327716
154	0x3e4932a7	0.19648229
155	0x3e0a6bb4	0.13517648
156	0xbe25919a	-0.16168824
157	0x3d9a74d4	0.075418144
158	0xbd7042d7	-0.058657493
159	0x3d7a2902	0.061074264
160	0x3caa54b7	0.020792348
161	0xbdb7775b	-0.08958312
162	0x3d55eeda	0.05222974
163	0xbbc05825	-0.0058698826
164	0x3d1d306b	0.038376253
165	0xbd7411df	-0.059587356
166	0x3e0ae57f	0.13564108
167	0xbe681a1b	-0.22666208
168	0xbdedfafd	-0.11620138
169	0x3e47e56c	0.19521111
170	0x3e32124d	0.17389794
171	0x3e01dfa3	0.12682967
172	0xbe5ed429	-0.2176062
173	0xbe3fc3e9	-0.18727078
174	0x3cfb3efe	0.030669685
175	0x3e7053b6	0.23469433
176	0x3d63fac7	0.05565908
177	0x3e2e8829	0.17044128
178	0xbe7976ac	-0.24361676
179	0x3e211a44	0.15732676
180	0x3e2c49ec	0.16825074
181	0x3ddab007	0.10678106
182	0xbc06f492	-0.008237021
183	0x3d9978e5	0.07493762
184	0xbdd0eba1	-0.10201193
185	0x3de6a4ce	0.11261903
186	0x3d881705	0.066450156
187	0x3d5aa199	0.053376768
188	0xbe57faac	-0.21091717
189	0xbe550533	-0.20802765
190	0x3deb7e7f	0.114987366
191	0x3cce7c32	0.025205705

rnn.weight_ih_l1 f4 [192, 64]
0	0xb8c93672	-9.594568e-05
1	0xbe2106cd	-0.1572525
2	0x3e110904	0.14163595
3	0x3dd1eb1c	0.10249922
4	0x3e080ba7	0.13285695
5	0xbd40ce7e	-0.047071926
6	0xbc0b5ed2	-0.008506494
7	0xbe0ec2a4	-0.13941437
8	0xbd5a0444	-0.053226724
9	0xbd7891a2	-0.06068576
10	0xbd3affa1	-0.045653943
11	0xbb0bf72e	-0.0021357047
12	0xbdbc0e6a	-0.09182437
13	0xbdbf1c3b	-0.093315564
14	0x3d673273	0.056444596
15	0xbcea96d1	-0.028636368
16	0xbc7745bf	-0.015092312
17	0xbdb07374	-0.08615771
18	0x3d98d906	0.07463269
19	0x3cadd8a0	0.021221459
20	0x3dd69a9c	0.10478708
21	0xbc542e84	-0.012950543
22	0x3e12b64c	0.14327353
23	0x3c869aeb	0.016431293
24	0xbe266358	-0.16248834
25	0xbdb63e09	-0.08898551
26	0x3d13acbe	0.03605341
27	0xbe11609d	-0.14197011
28	0x3a0270ef	0.0004975935
29	0xbddd7002	-0.108123794
30	0x3db451bb	0.08804651
31	0x3ccb24d8	0.024797842
32	0xbd8e1bac	-0.06938872
33	0x3d4cf1e9	0.05003539
34	0x3d061448	0.032734185
35	0x3ca9e6f7	0.020740015
36	0xbe102ca1	-0.14079525
37	0x3d01cf4e	0.03169184
38	0xbd7d8895	-0.061897833
39	0x3d96dd6e	0.07366453
40	0x3e14f10e	0.1454508
41	0xbbf22bd5	-0.007390479
42	0x3d984c2d	0.074364044
43	0x3d846eec	0.06466469
44	0xbd4d679f	-0.05014765
45	0x3d167975	0.036736924
46	0x3e045234	0.12921983
47	0x3d5b9f3f	0.053618666
48	0x3d0d6890	0.034523547
49	0xbc420d6f	-0.011844023
50	0x3dd19895	0.10234181
51	0xbc7813f3	-0.015141475
52	0x3d51a2d3	0.051180672
53	0x3dfd08c0	0.123551846
54	0x3e2098dd	0.15683313
55	0x3daa19ef	0.08305728
56	0x3d91c800	0.07118225
57	0xbe211bdc	-0.15733284
58	0xbdbe920b	-0.09305199
59	0xbd59b94b	-0.053155225
60	0x3de58d8a	0.11208637
61	0xbd916016	-0.07098405
62	0xbdaf88f9	-0.08571047
63	0xbd0b0c2e	-0.033947162
64	0xbdd3352a	-0.103128746
65	0x3d27064d	0.040777493
66	0xbe2c5088	-0.16827595
67	0x3e0df233	0.13861923
68	0xbe135e63	-0.14391474
69	0x3df2a871	0.11848534
70	0xbd5c2a79	-0.053751443
71	0xbd48f084	-0.0490575
72	0x3d40b10d	0.04704385
73	0x3b8bda3e	0.00426796
74	0x3b1b9ed6	0.0023745797
75	0xbd973839	-0.073837705
76	0xbe396ff7	-0.18109117
77	0x3de96cc1	0.11397696
78	0x3d710a48	0.058847696
79	0x3e1ac9c5	0.15116031
80	0x3daa6ccc	0.083215326
81	0x3c7442a6	0.014908468
82	0xbd4dc4c9	-0.050236497
83	0xbce92c63	-0.028463548
84	0xbc81c167	-0.015839292
85	0x3dd8139f	0.105506174
86	0x3d658be3	0.05604161
87	0xbd6ce448	-0.057834893
88	0x3ca30114	0.019897975
89	0x3c544eb9	0.012958222
90	0x3d2a8e94	0.04163988
91	0xbc9cb709	-0.019130247
92	0x3c728a4b	0.014803479
93	0xbbad39f9	-0.005286452
94	0xbd7a484c	-0.061104104
95	0xbd3a3daa	-0.045468964
96	0x3d896095	0.06707875
97	0x3d5d5995	0.05404051
98	0x3e09c0f4	0.13452512
99	0xbdc0b8fa	-0.094102815
100	0x3dfe7903	0.12425425
101	0x3d369b07	0.04458144
102	0x3d6aaa4a	0.057291307
103	0x3c3c4467	0.011490918
104	0xbc9857d2	-0.018596563
105	0xbd773006	-0.060348533
106	0x3dce51c2	0.10074188
107	0xbd32ddbd	-0.043668497
108	0x3e076cdf	0.13225125
109	0x3c2996e5	0.0103509175
110	0x3d4221b1	0.047395412
111	0xbe011b98	-0.12608182
112	0xbe00b709	-0.12569822
113	0x3d6b1f0c	0.057402655
114	0xbe059385	-0.13044555
115	0x3dc95c8d	0.09832106
116	0x3de791c0	0.113070965
117	0x3de89044	0.113556415
118	0xbd5cbd7d	-0.053891648
119	0x3e036f2f	0.12835382
120	0x3db00496	0.08594625
121	0xbcbee334	-0.023301698
122	0xbbc2c767	-0.005944181
123	0xbdccddee	-0.10003267
124	0x3d9d37ab	0.076766334
125	0xbda4dc14	-0.08049789
126	0xbd2f4b78	-0.042796582
127	0xbd8e0e6c	-0.069363445
128	0xbda624af	-0.081124656
129	0xbdf6774d	-0.120344736
130	0x3e05a5cc	0.13051528
131	0x3e0df05f	0.13861226
132	0xbcf02dca	-0.029318709
133	0xbe052aba	-0.1300458
134	0xbd7d8cf9	-0.06190202
135	0x3db9e4fc	0.090768784
136	0x3e279ba3	0.16367964
137	0x3d9bd832	0.07609595
138	0xbdf3dcfa	-0.11907382
139	0x3e18fa6c	0.14939278
140	0x3d2a6f10	0.041609824
141	0xbc9b96ec	-0.018992864
142	0xbd621fc0	-0.05520606
143	0xbe1cc2b7	-0.15308653
144	0x3ca93dde	0.020659383
145	0xbcaba3a9	-0.020952063
146	0xbd7dcdc7	-0.061963823
147	0x3d9196c9	0.07108838
148	0x3da1a804	0.078933746
149	0x3c16615f	0.0091784885
150	0xbd18be7c	-0.037291035
151	0x3c97eef0	0.018546551
152	0xbbbd185d	-0.0057707266
153	0xbd38b703	-0.04509641
154	0xbe28316b	-0.16425101
155	0xbd1ce1c0	-0.03830123
156	0x3e22175c	0.15829223
157	0xbe1a2e9e	-0.15056846
158	0xbc2da622	-0.010598691
159	0x3d602f35	0.05473252
160	0x3d7d42c2	0.061831243
161	0x3df29e7c	0.11846635
162	0xbb88f59f	-0.004179671
163	0x3dee3a66	0.11632232
164	0xbe286dee	-0.16448185
165	0x3dbd1d43	0.09234097
166	0xbda119d8	-0.078662574
167	0x3e44ceb5	0.19219477
168	0x3c36c514	0.0111553855
169	0xbdd1f05d	-0.10250924
170	0x3dd694e9	0.10477621
171	0xbe59fcd7	-0.21287857
172	0x3da5a137	0.0808739
173	0x3e241f58	0.16027582
174	0xbd21a94f	-0.039468106
175	0xbe35dc54	-0.1775983
176	0xbe2bbaf9	-0.16770543
177	0xbc4d7579	-0.012540215
178	0x3d956fdc	0.07296726
179	0x3cdbef3a	0.02684747
180	0xbc9e2883	-0.019306427
181	0x3e0664b4	0.13124353
182	0xbc27d973	-0.010244715
183	0xbd5dbb53	-0.054133724
184	0xbd850bec	-0.064964145
185	0xbdaba1dc	-0.083804816
186	0x3c33c5fc	0.010972496
187	0xbd8fbf8f	-0.07018959
188	0x3da65da0	0.08123326
189	0x3d22ca2f	0.0397436
190	0x3c60c4ae	0.013718767
191	0x3c91780d	0.01775744
192	0xbc2ab5ed	-0.010419351
193	0xbdbe22c7	-0.09283977
194	0x3d7558be	0.059899084
195	0xbde027ff	-0.10945129
196	0x3da8906e	0.08230673
197	0x3c6e02b0	0.014527008
198	0xbda6d4ae	-0.08146034
199	0xbd491d83	-0.04910041
200	0x3e13318d	0.14374371
201	0x3d1739f0	0.036920488
202	0x3d5c709c	0.05381833
203	0x3d1ee041	0.038788084
204	0xbe0022a3	-0.12513213
205	0xba0cc53f	-0.0005369968
206	0xbe135fa2	-0.1439195
207	0x3b56cf16	0.0032777241
208	0x3d97a62d	0.074047424
209	0xbd567a98	-0.05236301
210	0x3d310a0c	0.043222472
211	0xbdae9e8a	-0.08526333
212	0x3e0fe525	0.14052255
213	0xbe1543d0	-0.1457665
214	0x3d9472bf	0.072484486
215	0x3e06586d	0.1311967
216	0xbdde0219	-0.10840244
217	0x3abdfeae	0.0014495456
218	0xbd188446	-0.03723552
219	0xbdab5d9e	-0.083674654
220	0xbd889b5a	-0.06670256
221	0xbd6617cc	-0.05617504
222	0x3d2ee328	0.0426971
223	0xbc83de31	-0.01609716
224	0x3ac2ce70	0.0014862549
225	0x3d5ee3b6	0.05441638
226	0xbcfc579a	-0.03080349
227	0x3d92185c	0.071335524
228	0xbd91d3d1	-0.07120479
229	0x3de0bf73	0.10974016
230	0x3d5c2378	0.053744763
231	0x3e108088	0.14111531
232	0xbc53a8ab	-0.012918632
233	0xbc9b77ca	-0.018978018
234	0xbdae4793	-0.085097454
235	0xbddd5445	-0.10807089
236	0xbd986b1b	-0.07442304
237	0xbd92143b	-0.07132765
238	0x3c70960a	0.01468421
239	0xbc159fbd	-0.009132323
240	0x3d8343cd	0.06409416
241	0x3d957dbd	0.07299373
242	0x3b85a600	0.0040786266
243	0xbdf88385	-0.1213446
244	0xbd391f09	-0.045195613
245	0xbdba50e7	-0.09097462
246	0x3c2a6ba4	0.01040164
247	0xbc546ea8	-0.012965836
248	0x3c630d39	0.013858133
249	0xbccd60b8	-0.025070533
250	0x3daf0f14	0.08547798
251	0xbd9f3292	-0.077733174
252	0xbd71c8f0	-0.05902952
253	0x3d8ecb76	0.06972401
254	0xbe14c94d	-0.14529915
255	0x3e0f741b	0.14009134

rnn.weight_hh_l1 f4 [192, 64]
0	0x3dd9feb0	0.10644281
1	0x3d952657	0.07282703
2	0xbd8ed254	-0.06973711
3	0x3d64431c	0.055728063
4	0xbd8fd410	-0.070228696
5	0x3dd8407d	0.10559175
6	0x3e2bab3e	0.16764542
7	0x3e0cbffb	0.1374511
8	0x3dd7fbe6	0.10546093
9	0xbd43a0bc	-0.04776071
10	0xbd672c81	-0.056438927
11	0xbd9d699c	-0.07686159
12	0x3d40ae13	0.04704101
13	0x3d562a05	0.052286167
14	0x3d9ba5b1	0.075999625
15	0x3d0f69d7	0.035013046
16	0x3dfb03e2	0.122566
17	0x3bcb5f3e	0.006206422
18	0xbd24fc63	-0.040279757
19	0x3d85f00c	0.06539926
20	0xbd07ee0d	-0.033186007
21	0x3c8f6062	0.017502014
22	0xbcc2ac0a	-0.023763675
23	0x3d0bcf87	0.03413346
24	0x3df6aec3	0.12045052
25	0xbd217478	-0.039417714
26	0xbe6f7895	-0.23385842
27	0xbd1a2f2a	-0.037642635
28	0x3dd05853	0.101730965
29	0xbddfd019	-0.10928363
30	0x3d0f6318	0.035006613
31	0x3be363db	0.006939394
32	0xbdfac216	-0.1224405
33	0x3c9c36ad	0.01906904
34	0x3ddf8008	0.10913092
35	0xbdee6a0e	-0.11641322
36	0xbbc00489	-0.0058599156
37	0xbd2aa242	-0.041658647
38	0x3dfc6a93	0.12325015
39	0x3ddc72db	0.107640944
40	0x3d940357	0.072271995
41	0xbdd4df94	-0.10394207
42	0xbd97d54d	-0.07413731
43	0x3c60471f	0.013688832
44	0x3de3c016	0.11120622
45	0xbe365e99	-0.17809524
46	0x3dac5987	0.084155135
47	0x3cad1f80	0.021133184
48	0x3da6419c	0.08117983
49	0xbd5b32b1	-0.05351514
50	0xbdc6cfa2	-0.097075716
51	0xbd560372	-0.05224938
52	0x3d579bff	0.052639004
53	0x3d9a622e	0.075382575
54	0xbd6b83cf	-0.05749875
55	0xbd7a640e	-0.061130576
56	0x3d464e7c	0.048414692
57	0x3dd2bc86	0.10289864
58	0x3da9182e	0.08256565
59	0xbcf26719	-0.029590176
60	0x3dc00d5d	0.09377549
61	0xbd52f42e	-0.0515024
62	0x3df91bcb	0.12163504
63	0xbac9884a	-0.00153757
64	0xbdc59ac6	-0.09648661
65	0xbd80e1b9	-0.06293053
66	0x3b9e8bce	0.0048384434
67	0x3e124d76	0.14287362
68	0xbd196104	-0.037446037
69	0x3cce04f0	0.025148839
70	0xbe49f0da	-0.19720784
71	0xbe0ed45c	-0.13948196
72	0x3e1bbcf1	0.15208794
73	0x3e23a333	0.15980224
74	0xbd509ad6	-0.050928913
75	0x3e9a1acf	0.30098578
76	0x3d8ef966	0.06981163
77	0xbdaf462a	-0.085583046
78	0xbdaec816	-0.08534257
79	0xbd856a37	-0.065143995
80	0x3d7707f1	0.060310308
81	0xbc324bfa	-0.010882372
82	0x3d7f75e5	0.062368292
83	0xbcfc190c	-0.030773662
84	0x3cba6944	0.022755273
85	0xbdc944c0	-0.09827566
86	0x3e12ec5a	0.14347973
87	0x3d8783c0	0.06616926
88	0xbd77fd86	-0.060544513
89	0xbdcffba2	-0.10155417
90	0x3e3c62e1	0.18397094
91	0xbe0d683c	-0.13809294
92	0xbc058370	-0.008149013
93	0xbd80cbf9	-0.06288905
94	0x3dd2e898	0.1029827
95	0xbdf65bf8	-0.120292604
96	0x3ded9af3	0.1160182
97	0x3da3f0ac	0.08004889
98	0x3cb3cee9	0.021949248
99	0x3d9a8ca7	0.075463586
100	0xbce2680f	-0.02763751
101	0x3ce8a448	0.028398648
102	0xba1b7d46	-0.0005931448
103	0xbdb009a1	-0.085955866
104	0x3d95f9a9	0.073230095
105	0x3c4cc634	0.012498427
106	0x3df7ec60	0.12105632
107	0x3d1496c7	0.036276605
108	0x3dd7cd3e	0.10537194
109	0x3dfcae28	0.12337905
110	0xbcb67190	-0.022270948
111	0x3bebd270	0.007196717
112	0x3ccd9933	0.025097465
113	0x3e17ab5e	0.14811465
114	0x3de18bc6	0.11012988
115	0xbd8213ec	-0.06351456
116	0x3c12f6e5	0.008969997
117	0x3e3a2aa6	0.18180332
118	0x3d570c93	0.052502226
119	0x3a76d1af	0.00094154006
120	0xbe4098fc	-0.18808359
121	0xbd53d186	-0.05171349
122	0xbd491944	-0.04909636
123	0xbe022bdd	-0.12712045
124	0x3d62344d	0.05522566
125	0xbd123985	-0.035699386
126	0xbd9de3a4	-0.07709435
127	0x3cde6d24	0.027151652
128	0x3d4751e8	0.048662096
129	0x3d2cd9fd	0.042200077
130	0x3d7a87c2	0.061164625
131	0x3daa15cd	0.083049394
132	0x3c7ffa00	0.0156235695
133	0xbe12cb58	-0.14335382
134	0xbc9a4ead	-0.018836344
135	0x3d50ec4e	0.051006608
136	0x3c2c9c84	0.010535363
137	0x3e1291b2	0.14313391
138	0xbd893a48	-0.067005694
139	0xbda42170	-0.0801419
140	0xbd139507	-0.036030795
141	0x3de147a3	0.10999992
142	0xbdb9ef03	-0.09078791
143	0x3d82f296	0.06393926
144	0x3d444554	0.04791768
145	0x3ca1dfe2	0.019760076
146	0x3cbb7561	0.022883119
147	0x3da97775	0.08274738
148	0x3da9ed90	0.082972646
149	0xbe0ab6c4	-0.13546282
150	0xbdbbb5b2	-0.09165515
151	0xbccde160	-0.025131881
152	0x3dbe2799	0.092848964
153	0x3dce8458	0.10083836
154	0xbcf44b71	-0.02982113
155	0x3cfc8574	0.030825354
156	0xbdad2f5c	-0.08456299
157	0x3e3e970e	0.1861231
158	0xbd9aa213	-0.075504445
159	0xbccb3d31	-0.024809452
160	0x3d9dbce4	0.07702044
161	0x3d91760e	0.07102595
162	0x3dfcb909	0.1233998
163	0xbdbcf74c	-0.09226856
164	0x3d870a7c	0.065937966
165	0x3bf24bb3	0.007394278
166	0xbde9d114	-0.114168316
167	0x3d8c2f79	0.06844992
168	0xbdccdb96	-0.1000282
169	0x3dfafb21	0.1225493
170	0x3dba2c3d	0.09090469
171	0xbd0046c7	-0.0313175
172	0x3e073b7c	0.13206285
173	0x3e043dcf	0.12914203
174	0xbc506472	-0.0127192605
175	0xbdd6cc53	-0.104881905
176	0xbdcf0e5d	-0.101101615
177	0x3be39fd9	0.0069465456
178	0xbdcb2dd0	-0.099208474
179	0x3cc2794b	0.023739478
180	0xbdcaecd5	-0.099084534
181	0x3d885f6e	0.06658827
182	0x3c942a8c	0.018086694
183	0x3e063c46	0.1310893
184	0x3dd05a6f	0.10173499
185	0xbd90d6f6	-0.070722505
186	0xbd93dfb4	-0.07220402
187	0x3ce1e309	0.02757408
188	0xbdba8767	-0.09107857
189	0x3ce35d47	0.027754439
190	0x3da33847	0.079697184
191	0xbda60222	-0.081058756
192	0x3ca375c8	0.019953623
193	0xbd8c13e9	-0.06839735
194	0xbe2b700f	-0.16741966
195	0xbb53471b	-0.0032238427
196	0x3e05b7a4	0.13058335
197	0x3e11574d	0.14193459
198	0xbddbeda0	-0.10738683
199	0x3e0f1bf3	0.13975506
200	0xbda5172d	-0.08061061
201	0x3de36eed	0.11105142
202	0xbcc3277f	-0.023822544
203	0x3c5054cb	0.012715529
204	0x3db99c93	0.09063067
205	0x3dd5def3	0.10442915
206	0xbd574e39	-0.052564833
207	0xbd5dee42	-0.0541823
208	0x3da1e218	0.07904452
209	0x3de5f2c4	0.112279445
210	0xbcdcffee	-0.026977506
211	0xbdc1dda3	-0.09466102
212	0x3d39a281	0.04532099
213	0xbdc1635c	-0.094427794
214	0xbd2e9028	-0.042617947
215	0x3dbe16bc	0.0928168
216	0x3cf0ce9c	0.029395394
217	0xbd8e2f1c	-0.06942579
218	0xbcc0edd7	-0.02355091
219	0xbc8c5bd8	-0.017133638
220	0xbe155d6c	-0.14586419
221	0x3d666134	0.056245044
222	0xbd715e89	-0.058928046
223	0xbd9cdc01	-0.0765915
224	0x3bd9d16a	0.0066472786
225	0xbad291bc	-0.0016065161
226	0x3d979fc7	0.07403522
227	0xbdffb380	-0.12485409
228	0xbd4e2c52	-0.050335236
229	0x3e1927a8	0.14956534
230	0x3dfde735	0.12397615
231	0xbaa409fa	-0.001251518
232	0xbd944b9f	-0.07240986
233	0xbdbac911	-0.091203816
234	0x3dad0274	0.084477335
235	0x3ceb3206	0.028710376
236	0x3d6a301d	0.05717479
237	0x3db0a225	0.086246766
238	0x3c82eef7	0.015983088
239	0xbe5aff3d	-0.21386428
240	0xbd83bf98	-0.06433028
241	0xbe0474d7	-0.12935196
242	0xbe074fa9	-0.13213982
243	0xbcb870f6	-0.022514801
244	0x3de8a069	0.11358721
245	0xbda9deba	-0.08294435
246	0xbd84f3a3	-0.064917825
247	0xbd2da300	-0.042391777
248	0xbbe980df	-0.0071259583
249	0xbdb7bbc0	-0.08971357
250	0xbdf8af8d	-0.12142859
251	0x3df28f9b	0.11843797
252	0xbdb3b022	-0.08773829
253	0x3de53c0b	0.11193093
254	0xbd0e8499	-0.034794424
255	0xbdb8f9e3	-0.09032037

rnn.bias_ih_l1 f4 [192]
0	0x3de64567	0.11243706
1	0x3c911d55	0.017714182
2	0x3c87850c	0.016542934
3	0xbcb62c01	-0.02223778
4	0xbd0aa5a1	-0.033849362
5	0xbe017bce	-0.12644884
6	0x3dcb4e12	0.09927
7	0x3d70a5f3	0.05875201
8	0xbd154ca1	-0.036450032
9	0x3e00cac1	0.12577344
10	0x3d0675bd	0.032827128
11	0x3d1d55fe	0.038412087
12	0xbdc17899	-0.0944683
13	0x3cbbb2bd	0.022912377
14	0xbd5d6ed0	-0.054060757
15	0xbb88442b	-0.004158517
16	0x3e4206cd	0.18947907
17	0x3d68c47f	0.05682802
18	0x3d128d01	0.035779003
19	0xbdf300f5	-0.11865417
20	0x3d94232c	0.07233271
21	0x3d93b7b7	0.07212775
22	0xbd9ea93f	-0.07747125
23	0x3e311fd0	0.17297292
24	0xbd85353e	-0.06504296
25	0xbd91ed74	-0.07125369
26	0xbbaab520	-0.00520958
27	0x3c93316e	0.017967906
28	0x3d0fe074	0.035126165
29	0x3e09c4e5	0.13454016
30	0x3ccfc1d5	0.025360981
31	0x3d4304ee	0.047612123
32	0xbdb9a9b2	-0.0906557
33	0xbe0fe1ea	-0.14051023
34	0x3d0e1ea7	0.0346972
35	0x3cdb34e7	0.026758624
36	0x3c803fc2	0.015655402
37	0x3bc60be7	0.0060438993
38	0xbb10c966	-0.00220927
39	0x3dde7f13	0.10864081
40	0xbdc312e6	-0.09525089
41	0x3d6ceb9a	0.057841875
42	0xbe19d94e	-0.15024301
43	0x3d997060	0.07492137
44	0x3ca5601d	0.020187432
45	0x3debac46	0.11507468
46	0x3db65602	0.089031234
47	0x3d79b8fa	0.060967423
48	0x3bffa185	0.007801237
49	0xbd5a45a9	-0.05328909
50	0x3dd47f89	0.10375888
51	0xbc3532e1	-0.011059494
52	0xbd8ac77b	-0.06776329
53	0xbe07c70a	-0.13259521
54	0x3c8d4f8c	0.017249845
55	0xbdeea1fa	-0.11651988
56	0x3de9ac9c	0.11409876
57	0x3d838e99	0.06423683
58	0xbdd9e41d	-0.10639212
59	0xbd3d7b3a	-0.046260096
60	0xbd82829e	-0.063725695
61	0xbdaed0f4	-0.085359484
62	0x3da1fd02	0.079095855
63	0xbd57e5ba	-0.05270932
64	0xbcb0bb61	-0.021573724
65	0xbdd922a2	-0.10602309
66	0xbdaa293f	-0.08308648
67	0xbe1a706b	-0.15081947
68	0x3da2d493	0.079507016
69	0x3dca799d	0.09886477
70	0xbd94f587	-0.07273393
71	0xbd88432d	-0.06653438
72	0xbe1e8392	-0.15479878
73	0xbe6850b0	-0.2268703
74	0xbdd806a1	-0.10548139
75	0x3d5595ab	0.052144688
76	0x3da4a2d1	0.08038867
77	0xbe0d1464	-0.1377731
78	0xbd8bb2aa	-0.06821187
79	0xbcca0bf4	-0.024663903
80	0xbd80f92e	-0.06297527
81	0x3d9275d9	0.07151384
82	0x3da5d390	0.08096993
83	0x3deba90e	0.11506854
84	0xbd844852	-0.064591065
85	0xbdbe18c1	-0.09282065
86	0xbdd03925	-0.101671495
87	0xbdfd8902	-0.12379648
88	0x3db3aa5f	0.0877273
89	0xbd91f9e6	-0.071277425
90	0x3b594e7b	0.003315835
91	0xbd2e1652	-0.042501755
92	0xbd3e4075	-0.04644819
93	0xbe740e66	-0.23833618
94	0xbde7ad5c	-0.113123626
95	0x3ac69260	0.0015149824
96	0x3c597682	0.013272883
97	0xbd2b3632	-0.04179973
98	0x3c924df4	0.017859437
99	0xbe131b7a	-0.1436595
100	0xbdde95d1	-0.10868419
101	0x3cc871e9	0.02446838
102	0x3d2c70d0	0.042099774
103	0xbdf138f2	-0.117784396
104	0x3c75a731	0.014993475
105	0x3d193012	0.03739936
106	0x3d726fa8	0.059188515
107	0x3e1e7fd4	0.1547845
108	0xbd488c47	-0.048961904
109	0x3d4261a5	0.047456402
110	0xbda80d17	-0.08205622
111	0x3e220cab	0.15825145
112	0x3c86c2fb	0.016450396
113	0x3da02df0	0.07821262
114	0x3d515d05	0.0511141
115	0x3ca834a8	0.020532921
116	0xbdc57e01	-0.09643174
117	0xbdc48a59	-0.095967
118	0xbcdcc3d7	-0.026948852
119	0x3d1f8f26	0.038954876
120	0xbd99505b	-0.0748603
121	0xbde3811c	-0.1110861
122	0x3e034a60	0.1282134
123	0xbdb36e1d	-0.08761237
124	0xbe1d8f9d	-0.15386815
125	0xbdbcaa52	-0.092121735
126	0xbd9b4a78	-0.07582563
127	0xb8aa7cf4	-8.129506e-05
128	0x3df32e51	0.118740685
129	0x3df82b6b	0.12117656
130	0x3d506784	0.05087997
131	0xbbe1f514	-0.0068956707
132	0xbd665f0a	-0.05624298
133	0x3d818082	0.06323339
134	0x3de40bb7	0.11135047
135	0xbdc18623	-0.09449413
136	0xbe1c79f4	-0.15280896
137	0xbe232fb5	-0.15936168
138	0xbe36fadc	-0.17869133
139	0x3cf9d6b2	0.030497883
140	0xbd4ff010	-0.05076605
141	0xbe33856d	-0.17531367
142	0xbceb1a72	-0.028699134
143	0xbd99aaaa	-0.07503255
144	0xbd08972e	-0.0333473
145	0x3dfc7a99	0.12328071
146	0x3cdcbc35	0.026945213
147	0xb98020d2	-0.00024438516
148	0xbc07a8b4	-0.008279968
149	0x3dd00565	0.10157279
150	0x3cd8885d	0.02643221
151	0xbd9f9784	-0.07792571
152	0x3e1335a5	0.14375933
153	0xbd21016d	-0.039308
154	0x3de84abc	0.113423795
155	0xbdb72317	-0.0894224
156	0xbdf4277b	-0.11921593
157	0x3d310dea	0.04322616
158	0xbcb60a6d	-0.022221768
159	0x3ba783d7	0.005112152
160	0x3dd4a101	0.103822716
161	0xbde1033b	-0.10986944
162	0xbd95a54a	-0.07306917
163	0xbdfbe284	-0.12299064
164	0x3bcbfc23	0.0062251254
165	0xbbeeeca3	-0.007291393
166	0xbce5c7e8	-0.028049424
167	0xbcba295e	-0.022724804
168	0x3e278d5a	0.16362515
169	0xbe019c8e	-0.12657377
170	0xbde09ad6	-0.109670326
171	0x3e14b61b	0.14522593
172	0xbd4c731c	-0.049914464
173	0x3cf8351f	0.030298768
174	0xbd086e28	-0.03330818
175	0x3db1b5fd	0.0867729
176	0xbddded44	-0.108362705
177	0xbd1b00e8	-0.03784266
178	0xbd81ff5c	-0.06347534
179	0x3dbc4d0f	0.09194385
180	0x3d9d6482	0.07685186
181	0xbdb7d09e	-0.089753374
182	0xbe204af8	-0.15653598
183	0xbd75d258	-0.060015053
184	0xbd2a4549	-0.04156998
185	0xbc342e3e	-0.010997353
186	0xbd364e59	-0.044508312
187	0x3dac8830	0.08424413
188	0x3e34017a	0.17578688
189	0xbd79250b	-0.060826343
190	0x3e2128e0	0.15738249
191	0x3da734b3	0.081643485

rnn.bias_hh_l1 f4 [192]
0	0x3ddcf560	0.10788989
1	0x3d0d831e	0.03454887
2	0xbd82e317	-0.0639097
3	0xbde76a7a	-0.11299606
4	0xbc7749e5	-0.015093301
5	0xbdbb4ded	-0.091457225
6	0xbbc59f04	-0.006030919
7	0x3d912eef	0.0708903
8	0xbda4e6d7	-0.08051842
9	0xbddfee83	-0.109341644
10	0xbd8a0fb8	-0.06741279
11	0x3bc00b43	0.0058607175
12	0xbd9a1638	-0.07523769
13	0xbdc14fcb	-0.094390474
14	0x3dc569fc	0.096393555
15	0xbcc1414b	-0.023590704
16	0x3e9b7ed3	0.30370197
17	0x3dd4a5b1	0.10383166
18	0x3d5e46f3	0.05426688
19	0x3d13de33	0.036100578
20	0xbd8e5eb8	-0.0695166
21	0xbd3edd26	-0.046597622
22	0xbdf107ef	-0.11769091
23	0x3c87d36c	0.016580306
24	0xbde3e820	-0.11128259
25	0x3d301149	0.042985234
26	0x3c708ed8	0.014682494
27	0xbd81ae77	-0.06332105
28	0xbd848f9e	-0.06472705
29	0x3d7a9bcf	0.061183747
30	0xbd2041da	-0.0391253
31	0xbb869981	-0.0041076546
32	0xbda36028	-0.07977325
33	0xbdc33e35	-0.095333494
34	0x3d37270e	0.04471498
35	0x3be03926	0.00684275
36	0xbd2d7f17	-0.04235753
37	0x3df05540	0.1173501
38	0x3ddc7cf6	0.10766022
39	0x3dc42566	0.09577446
40	0xbe20e99d	-0.15714116
41	0x3da67c22	0.08129145
42	0x3dab4d1e	0.08364318
43	0xbc57f89d	-0.013181833
44	0x3d146c0d	0.036235858
45	0x3cbe3a0f	0.023221044
46	0xbcf2d090	-0.029640466
47	0xbd57af9e	-0.052657716
48	0x3d9c771d	0.076399066
49	0x3da89f6d	0.08233533
50	0x3c85c143	0.016327506
51	0x3d3bfb1b	0.04589377
52	0x3dca06f3	0.09864607
53	0x3bfb92d5	0.007677416
54	0xbc46401f	-0.012100249
55	0xbde15857	-0.110031776
56	0xbd70c825	-0.058784623
57	0xbd96a449	-0.07355554
58	0xbddfafaf	-0.10922181
59	0x3d7b09bc	0.06128858
60	0x3d154fed	0.036453176
61	0x3da55783	0.08073332
62	0x3cf751ca	0.030190367
63	0xbd0eeb93	-0.03489263
64	0x3e0d61de	0.13806865
65	0xbd49061e	-0.0490781
66	0xbd333b75	-0.043757875
67	0x3d8395a6	0.064250275
68	0xbe0e715d	-0.13910432
69	0x3c0d975c	0.008642044
70	0xbd6d9592	-0.05800397
71	0xbdbaba92	-0.09117617
72	0x3cf7884e	0.030216362
73	0xbe4cd716	-0.20003924
74	0xbc5bdb6a	-0.013419012
75	0x3da892be	0.08231114
76	0x3d73d7c3	0.05953194
77	0xbe0ff097	-0.14056621
78	0xbd914ffb	-0.07095333
79	0x3ca1434b	0.019685408
80	0xbdbecda2	-0.09316565
81	0x3db19b75	0.08672229
82	0x3d30f397	0.043201055
83	0x3d8ef8c0	0.06981039
84	0xbdb915af	-0.09037339
85	0x3d216fa1	0.0394131
86	0xbe114d84	-0.14189726
87	0x3d8bb4d0	0.068215966
88	0xbd0e8303	-0.03479291
89	0x3db130b6	0.08651869
90	0x3da004a9	0.07813389
91	0xbcf0cd85	-0.029394874
92	0xbdf58e6d	-0.11990056
93	0xbe19c3c6	-0.15016088
94	0xbd3c748b	-0.04600958
95	0xbe06a120	-0.13147402
96	0x3d8cdfdb	0.068786345
97	0x3cd4316a	0.025902469
98	0x3dcbf5ce	0.09958993
99	0xbdfc5ffb	-0.12322994
100	0xbe03d618	-0.12874639
101	0x3de7cf3d	0.113188244
102	0xbd915651	-0.07096542
103	0x3c252700	0.010080099
104	0xbc4d8b9d	-0.012545493
105	0xbcc21666	-0.023692321
106	0xbd498f71	-0.049209062
107	0x3d94f4fd	0.0727329
108	0xbde3c9e7	-0.11122494
109	0xbd3b7830	-0.045768917
110	0xbe241fa9	-0.16027702
111	0x3d6dcfa3	0.058059346
112	0xbdbb7148	-0.09152466
113	0xbd44bbb5	-0.048030574
114	0x3d4bb80c	0.049736068
115	0x3d4112b8	0.047136992
116	0xbe041407	-0.12898265
117	0xbda9933d	-0.082800366
118	0xbd8d1cff	-0.06890296
119	0xbdf307e1	-0.11866737
120	0x3b242a5c	0.0025049662
121	0xbd5904a7	-0.052982952
122	0x3d80d170	0.06289947
123	0xbdb687e5	-0.089126386
124	0xbd1c5049	-0.038162503
125	0xbe07da1a	-0.13266793
126	0xbe07f956	-0.13278708
127	0x3cdaf894	0.02672986
128	0x3bf9f348	0.0076278783
129	0x3cc3ee6e	0.023917403
130	0x3b403036	0.002932561
131	0xbd0a7192	-0.033799715
132	0x3e2409bf	0.16019343
133	0x3cff38ce	0.031155016
134	0xbcebde13	-0.028792417
135	0x3d1287e4	0.035774127
136	0xbc8ca594	-0.017168798
137	0xbda7e566	-0.08198051
138	0xbd9484ec	-0.07251915
139	0x3d496435	0.04916783
140	0x3c9e7f18	0.019347712
141	0xbcde9edd	-0.027175361
142	0x3d876c7f	0.06612491
143	0x3da42fd2	0.080169335
144	0x3cfdee40	0.030997396
145	0xbdadff4b	-0.08495959
146	0xbe13233e	-0.14368913
147	0x3d6db961	0.05803812
148	0xbdcbf75c	-0.099592894
149	0x3dec4b6f	0.11537825
150	0x3d0121b4	0.031526282
151	0x3da3a441	0.07990313
152	0x3da7d115	0.08194176
153	0xbc3e6efa	-0.011623139
154	0x3df4d544	0.1195474
155	0xbc55dd66	-0.013053274
156	0xbdb003e6	-0.085944936
157	0x3d029dea	0.03188888
158	0xbd009dcc	-0.031400487
159	0x3d798167	0.060914423
160	0x3d81a574	0.06330386
161	0x3da12272	0.07867898
162	0x3d77fb1f	0.060542222
163	0xbdba785c	-0.09104988
164	0xbd86a5ce	-0.065745935
165	0xbd065fc9	-0.03280619
166	0x3df4090d	0.11915789
167	0x3e009bd4	0.12559444
168	0xbd2bb53a	-0.041920878
169	0xbd4abd04	-0.049496666
170	0x3d96df78	0.07366842
171	0x3d6d012a	0.05786244
172	0xbdd0c1ec	-0.10193238
173	0xbdbc9dc7	-0.09209781
174	0x3dea6422	0.1144488
175	0x3d60a3c7	0.05484369
176	0xbdf08e06	-0.11745839
177	0x3dee3263	0.11630704
178	0xbe2774df	-0.16353177
179	0xbd1ff195	-0.03904875
180	0x3deda19f	0.116030924
181	0x3d16bb6b	0.03679983
182	0xbd0da994	-0.03458555
183	0xbde86046	-0.11346488
184	0x3dcc1cb0	0.09966409
185	0x3dbf056b	0.09327205
186	0x3cc740de	0.024322923
187	0x3d448a18	0.04798326
188	0x3e4420b0	0.19153094
189	0x3db80cfb	0.08986851
190	0xbd477847	-0.04869869
191	0x3d4a2300	0.049349785
