16 - Recurrent Neural Network/model/gru/weights_100.pth (torch, 255035 bytes, 13 tensors)

rnn.weight_ih_l0 f4 [192, 1]
0.09536691 0.14246096 -0.10343919 0.19762734 -0.059747312 -0.14124797 0.048695758 0.07266752
0.12558685 -0.017505411 0.0766141 0.19137341 0.0033924552 0.027319657 -0.06279844 -0.10190983
0.13841866 -0.020104371 0.13121708 0.0281527 -0.048999608 -0.078388125 -0.12684263 0.001802089
0.08541882 -0.07803971 -0.031920526 -0.061859146 -0.005698667 -0.016472502 0.119120605 0.039796807
-0.10278543 -0.033668477 -0.047508758 -0.038134843 -0.09709406 -0.119823664 0.12131013 -0.06557914
0.0635009 -0.083157614 0.12534972 -0.04113796 -0.101542674 0.024019068 0.03798618 0.13506646
-0.03397268 0.0055402666 -0.0934396 0.01021981 0.10080763 0.0003492954 0.071121596 -0.011173839
-0.041676026 -0.060012434 0.08154769 0.04403892 0.21731526 -0.033019967 0.09001041 0.018874183
-0.08774647 -0.13334583 -0.11612568 -0.2477238 -0.1921207 -0.27339062 0.035720404 -0.15695514
-0.16396412 -0.06217311 0.09329617 0.015093673 -0.17623088 0.056162927 -0.11360553 -0.123371355
0.006692117 -0.15687218 0.01321293 -0.10135456 -0.06813313 0.03753778 0.05904709 -0.07439006
-0.05978699 0.07575939 -0.032517537 -0.17624599 -0.11238237 -0.14464706 0.08056657 0.019249612
0.0038965251 -0.13357972 -0.089101404 -0.074236035 -0.12412559 -0.1125438 -0.041514046 -0.045090333
-0.048543993 -0.13123722 0.008723918 -0.06398924 0.052960955 -0.23600128 -0.14292818 -0.06960188
-0.11747521 -0.0023864796 -0.08433559 0.0006563101 -0.1566555 -0.09706738 -0.051135365 -0.10351532
-0.12454051 -0.03052066 -0.21080106 -0.020246234 -0.14022863 -0.13687864 -0.10351571 -0.009637876
0.0014953959 -0.039468598 0.050258 0.025353339 0.044752438 -0.059558824 -0.02380048 -0.041591387
0.06701959 0.05744763 0.0012538721 0.080106 -0.011480991 0.019711796 -0.04097135 -0.05957955
0.070375234 0.06712628 0.07591086 0.018550824 0.12942973 -0.059146192 0.07619686 0.054145757
-0.044724055 -0.052749194 -0.057042517 -0.05276005 0.07558196 -0.060721442 0.0653218 0.025792787
0.067886226 0.0625543 0.094383225 0.06659308 -0.060360566 0.045752604 -0.048446164 0.0692705
0.06603399 -0.07721366 0.07062166 -0.09871779 0.04098079 -0.031940427 0.09597093 -0.014620744
-0.053565346 -0.077091664 0.07196027 -0.065768525 -0.05937667 0.057198353 0.035820145 0.07517866
0.057968643 -0.046806358 0.09404268 0.038761318 0.084600754 0.050776947 -0.0072953356 0.074068226
00000000: ba4f c33d 49e1 113e edd7 d3bd d25e 4a3e
00000010: 99b9 74bd 4fa3 10be 3475 473d b5d2 943d
00000020: d799 003e 8267 8fbc dae7 9c3d 64f7 433e
00000030: f453 5e3b 79cd df3c 789c 80bd 1ab6 d0bd
00000040: 9fbd 0d3e ecb1 a4bc c55d 063e 7ea0 e63c
00000050: d0b3 48bd f489 a0bd 09e3 01be 1334 ec3a
00000060: 10f0 ae3d 49d3 9fbd 19bf 02bd 0460 7dbd
00000070: e2bb babb 57f1 86bc 81f5 f33d fa01 233d
00000080: 2b81 d2bd f5e7 09bd 8b98 42bd 4833 1cbd
00000090: 40d9 c6bd 1c66 f5bd 7271 f83d 5b4e 86bd
000000a0: c30c 823d 8a4e aabd ad5b 003e 4780 28bd
000000b0: 9bf5 cfbd a3c3 c43c 6697 1b3d dd4e 0a3e
000000c0: f026 0bbd 208b b53b 435d bfbd fd70 273c
000000d0: 3b74 ce3d a321 b739 33a8 913d 7a12 37bc
000000e0: 7bb4 2abd 99cf 75bd 7a02 a73d 2862 343d
000000f0: e487 5e3e f23f 07bd 6157 b83d 089e 9a3c
00000100: 6cb4 b3bd cf8b 08be 4dd3 edbd 4fab 7dbe
00000110: 4abb 44be dbf9 8bbe 8f4f 123d d9b8 20be
00000120: 36e6 27be 3ba9 7ebd 1012 bf3d 744b 773c
00000130: de75 34be 190b 663d 04aa e8bd 1faa fcbd
00000140: 8c49 db3b 1aa3 20be 0c7b 583c fb92 cfbd
00000150: 6289 8bbd 37c1 193d 5ddb 713d d159 98bd
00000160: 34e3 74bd bd27 9b3d 1c31 05bd d479 34be
00000170: ba28 e6bd 5c1e 14be 1600 a53d 5db1 9d3c
00000180: d85c 7f3b 1fc9 08be cc7a b6bd 1009 98bd
00000190: 8f35 febd 5d7d e6bd a20a 2abd a4b0 38bd
000001a0: 11d6 46bd 0d63 06be c4ee 0e3c ca0c 83bd
000001b0: 96ed 583d 52aa 71be c45b 12be 6e8b 8ebd
000001c0: d896 f0bd 7c66 1cbb 23b8 acbd 3a0c 2c3a
000001d0: 4d6a 20be 43cb c6bd 5173 51bd d7ff d3bd
000001e0: 180f ffbd 7706 fabc 3cdc 57be 6edb a5bc
000001f0: 1898 0fbe ea29 0cbe 0b00 d4bd 2fe8 1dbc
00000200: 2901 c43a d3a9 21bd 55db 4d3d ceb1 cf3c
00000210: 554e 373d f4f3 73bd 39f9 c2bc bb5b 2abd
00000220: 9141 893d 354e 6b3d f758 a43a 9d0e a43d
00000230: c41a 3cbc a27a a13c 93d1 27bd b009 74bd
00000240: e420 903d 8179 893d 2777 9b3d e6f7 973c
00000250: 3a89 043e 4743 72bd 190d 9c3d f1c7 5d3d
00000260: 9230 37bd 8a0f 58bd 6aa5 69bd ec1a 58bd
00000270: b7ca 9a3d 0cb7 78bd 70c7 853d 654b d33c
00000280: ef07 8b3d 781c 803d fe4b c13d f461 883d
00000290: a43c 77bd 1567 3b3d 7c6f 46bd b1dd 8d3d
000002a0: d43c 873d 3222 9ebd 17a2 903d 8d2c cabd
000002b0: 79db 273d f7d3 02bd 688c c43d d88b 6fbc
000002c0: 5667 5bbd 3ce2 9dbd e85f 933d a6b1 86bd
000002d0: f334 73bd d248 6a3d 25b8 123d 45f7 993d
000002e0: 8770 6d3d 06b8 3fbd 7399 c03d 30c4 1e3d
000002f0: 2943 ad3d 7dfb 4f3d b60d efbb 15b1 973d

rnn.weight_hh_l0 f4 [192, 64]
-0.037568726 0.13182323 0.10777434 -0.17707233 0.06400548 -0.25764063 0.033490293 -0.1322907
0.19336544 0.08889749 0.07119324 0.11685555 -0.103818364 0.08477742 0.10357538 -0.12604238
0.13212368 -0.02315509 0.2431497 -0.0900472 0.07729641 -0.1068039 0.21544936 0.05502381
-0.06347176 -0.013843427 -0.11914364 -0.15715072 0.06526227 -0.108618066 0.05592314 0.1762554
0.026628345 0.17132759 0.0021985988 0.2153658 -0.15712467 0.023819784 0.012451287 0.121537946
0.18859364 0.032478623 0.009021499 -0.1584222 0.17828523 -0.066610724 0.10272879 0.014056266
-0.05229238 -0.14630443 0.17645247 -0.12783651 0.003230101 0.15808238 0.16314816 0.12937689
0.17284626 0.009366581 0.2050048 0.021664822 0.03821472 0.08599938 0.08753519 0.018341253
0.12660706 0.06999196 0.07879616 -0.016998978 0.17505375 -0.18550213 0.021206543 -0.19343168
0.11537539 0.0036411092 -0.059916932 0.0058512115 0.06349554 0.07917645 -0.12625648 -0.025469014
0.16484429 0.12506837 -0.0015626181 0.06824153 0.030469302 -0.0963404 -0.008990555 0.031154232
-0.21154617 -0.13289678 -0.047075856 -0.046735954 0.05059168 -0.106569625 0.029656015 -0.040019747
0.015867716 0.21509421 -0.0028332486 0.18505171 -0.0070951115 0.08960545 0.011689847 0.06397449
0.113723986 0.042394254 0.11906217 -0.13627353 -0.0074484204 -0.15225308 0.15762532 -0.04362949
0.016413096 -0.07588676 0.15313138 -0.13442147 0.0013356374 0.15695634 0.1114539 0.016931478
-0.03786218 -0.16888487 0.21888934 0.18862076 -0.07206632 0.09413264 0.03546179 0.14547075
0.05734042 0.0048280787 -0.08138941 0.058884554 0.10007275 -0.11616704 0.09656574 -0.15803848
0.07391392 -0.12093095 0.006355617 -0.17936514 0.031230396 0.029957736 0.080836736 0.041557815
0.090912156 0.068508804 -0.15011841 0.01391435 0.095945 0.008654319 -0.06092593 -0.06330044
0.09692579 0.0210473 -0.028352214 -0.082620114 0.07866193 0.09464057 0.08832159 -0.08995304
-0.0006794195 0.115437 0.112606116 -0.028783698 0.09185309 -0.051628053 0.105018176 0.049679033
0.09717941 -0.11324413 0.048701562 -0.0890089 -0.046835914 -0.13014765 -0.02487218 0.07517791
-0.05278247 -0.048231706 0.01553895 -0.061808236 0.018614564 0.10386966 -0.05990015 0.07085138
0.021164335 0.08438172 0.15917473 0.045790344 -0.09439535 -0.027526723 -0.07289056 0.090017736
-0.1271794 -0.037188243 0.08531779 -0.0799585 0.18356371 -0.08918889 0.049113546 -0.1418746
0.033248406 0.12974912 -0.06479097 0.13544248 0.12792122 0.14973763 -0.14598154 -0.03969618
-0.025773916 -0.01364262 0.08437116 0.02561483 0.11078693 -0.070960745 0.13543887 0.069629356
-0.21354546 -0.16122536 -0.16364144 0.019807667 0.1787774 -0.18386954 0.1569394 0.051756036
-0.010717676 0.18788077 0.014981397 0.13788831 -0.028267968 0.16619286 -0.09407739 0.1369764
0.040379763 -0.037932754 -0.022225633 -0.018120458 -0.03182538 -0.052536447 0.07465034 0.037480973
-0.07576545 -0.20043981 0.01795611 0.010839896 -0.04886932 0.08881448 0.14824879 -0.023748843
-0.017167266 0.029169904 0.22030503 0.18672433 -0.011470638 0.08512207 0.025795233 0.019213885
00000000: aae1 19bd abfc 063e cbb8 dc3d 7352 35be
00000010: 4e15 833d 79e9 83be 1e2d 093d 3777 07be
00000020: 9701 463e e30f b63d c3cd 913d f651 ef3d
00000030: b99e d4bd c99f ad3d 541f d43d 4111 01be
00000040: 6e4b 073e beaf bdbc 3cfc 783e ab6a b8bd
00000050: 954d 9e3d 01bc dabd c29e 5c3e a660 613d
00000060: 7bfd 81bd 8bcf 62bc 9501 f4bd 1eec 20be
00000070: 3aa8 853d 2673 debd aa0f 653d 4c7c 343e
00000080: b023 da3c 8070 2f3e 5e16 103b da88 5c3e
00000090: 4ae5 20be b521 c33c 7c00 4c3c e3e8 f83d
000000a0: b11e 413e 4e08 053d e9ce 133c 6e39 22be
000000b0: 6790 363e 346b 88bd 7963 d23d 414c 663c
000000c0: 8930 56bd d4d0 15be f5af 343e 93e7 02be
000000d0: 1ab0 533b 59e0 213e 5010 273e 607b 043e
000000e0: 9cfe 303e 4a76 193c c7ec 513e 6d7a b13c
000000f0: 0a87 1c3d 7120 b03d a645 b33d 6540 963c
00000100: 48a5 013e f257 8f3d e25f a13d 7141 8bbc
00000110: 4a41 333e 45f4 3dbe 58b9 ad3c f412 46be
00000120: ef49 ec3d ad9f 6e3b 756b 75bd 85bb bf3b
00000130: f309 823d 4327 a23d 6149 01be 65a4 d0bc
00000140: f1cc 283e ec11 003e c3d0 ccba 37c2 8b3d
00000150: c29a f93c 1e4e c5bd 1f4d 13bc 2937 ff3c
00000160: 8f9f 58be 1816 08be 9dd2 40bd 336e 3fbd
00000170: 3939 4f3d 2d41 dabd 2cf1 f23c bfeb 23bd
00000180: 03fd 813c a841 5c3e 06ae 39bb 327e 3d3e
00000190: 1c7e e8bb 1083 b73d c686 3f3c 0f05 833d
000001a0: 1fe8 e83d 99a5 2d3d ded6 f33d 4a8b 0bbe
000001b0: e111 f4bb 3be8 1bbe 8868 213e d6b4 32bd
000001c0: c274 863c 856a 9bbd 79ce 1c3e c8a5 09be
000001d0: 8e10 af3a 2ab9 203e f141 e43d e2b3 8a3c
000001e0: 6015 1bbd 28f0 2cbe 8724 603e cd25 413e
000001f0: 8297 93bd 9dc8 c03d 6240 113d 49f6 143e
00000200: cadd 6a3d dc34 9e3b 7eaf a6bd ee30 713d
00000210: f1f2 cc3d fce8 edbd 42c4 c53d d7d4 21be
00000220: 2e60 973d a5aa f7bd c842 d03b 7fab 37be
00000230: e3d6 ff3c ed69 f53c bb8d a53d 8738 2a3d
00000240: 2730 ba3d 584e 8c3d a4b8 19be 04f9 633c
00000250: d07e c43d d8ca 0d3c 788d 79bd a9a3 81bd
00000260: 0781 c63d 636b ac3c e742 e8bc bc34 a9bd
00000270: 8219 a13d ead2 c13d f3e1 b43d 4d39 b8bd
00000280: 121b 32ba 3c6a ec3d 099e e63d cacb ebbc
00000290: 791d bc3d f077 53bd c513 d73d 3e7c 4b3d
000002a0: 0006 c73d 8aec e7bd 4a7b 473d 4c4a b6bd
000002b0: 04d7 3fbd 6d45 05be bec0 cbbc e0f6 993d
000002c0: 6e32 58bd 9c8e 45bd 1597 7e3c a22a 7dbd
000002d0: 927d 983c 9eb9 d43d dc59 75bd 871a 913d
000002e0: d460 ad3c 53d0 ac3d b3fe 223e a88e 3b3d
000002f0: 5952 c1bd b97f e1bc a547 95bd 385b b83d
00000300: 513b 02be b352 18bd 18bb ae3d 48c1 a3bd
00000310: 20f8 3b3e aaa8 b6bd 492b 493d 9347 11be
00000320: 7b2f 083d f4dc 043e 21b1 84bd 6fb1 0a3e
00000330: c8fd 023e d254 193e 2f7c 15be 7698 22bd
00000340: d223 d3bc 4c85 5fbc c9ca ac3d 31d6 d13c
00000350: 42e4 e23d de53 91bd 7db0 0a3e d699 8e3d
00000360: a9ab 5abe 4318 25be 9f91 27be b043 a23c
00000370: 6c11 373e 4c48 3cbe b9b4 203e 23fe 533d
00000380: 3199 2fbc d163 403e 8974 753c 9832 0d3e
00000390: 3a92 e7bc 762e 2a3e a6ab c0bd 8b43 0c3e
000003a0: 4065 253d 605f 1bbd 8812 b6bc 5b71 94bc
000003b0: 545b 02bd 7530 57bd 47e2 983d a685 193d
000003c0: eb2a 9bbd 1840 4dbe b118 933c d299 313c
000003d0: 322b 48bd 5ee4 b53d 88ce 173e ef8c c2bc
000003e0: 5ea2 8cbc b9f5 ee3c a497 613e aa34 3f3e
000003f0: 58ef 3bbc 7b54 ae3d 8650 d33c 7066 9d3c

rnn.bias_ih_l0 f4 [192]
0.16546397 0.16822691 0.024659945 0.128711 0.010721916 0.06514597 0.24125867 -0.1813956
-0.023665793 -0.03359098 -0.10948241 0.1399784 0.06802329 -0.09431628 0.017128369 0.15387614
-0.09358153 0.10180981 0.07796897 -0.013562069 0.05402965 -0.0110069625 -0.08420739 -0.09528983
-0.10142142 0.039535962 0.017029816 0.14978822 0.1580041 0.079127274 0.08291487 0.03610542
0.041866366 -0.07716157 0.059102017 0.059182167 0.1314803 -0.061142717 0.15892176 0.036587086
0.12466832 0.19776687 -0.033211693 0.16737972 0.012091722 0.22602962 0.08418558 0.053675007
-0.015575198 0.058468323 0.26399678 -0.034272436 -0.0762168 0.08253667 -0.005020148 -0.1079765
0.04381586 -0.049980305 0.06814401 -0.14122728 0.3217914 0.07369453 0.14051248 0.013422038
-0.18947181 -0.0387244 0.08175409 -0.03938498 -0.06352064 -0.05254865 -0.051662836 -0.06358191
-0.01975498 -0.16015956 0.028582187 -0.086739756 -0.17410819 -0.109137274 -0.020221472 0.12163236
-0.09269651 -0.040137406 -0.0810488 -0.04597205 0.021493565 -0.052608278 -0.0047959886 -0.11555739
-0.0827592 -0.09161192 -0.06743972 -0.10604763 0.068683565 0.045826282 0.037644677 -0.048891813
-0.10342762 -0.01637589 -0.09330322 0.04654818 0.054425616 -0.14832595 0.12605627 0.067890406
-0.13240781 -0.120417766 -0.13456519 -0.17159422 -0.030441035 -0.11569528 0.018023327 -0.19123474
0.085698366 -0.021492973 -0.1686217 -0.17274013 0.08360042 -0.08504736 0.045707073 -0.14886913
0.0033987698 -0.16057439 -0.08727106 0.044754803 0.10525867 -0.038754515 0.009616328 0.07757021
0.2101817 0.16129325 -0.05061136 -0.11480667 0.15114592 -0.049190257 0.24043772 -0.10266373
-0.0976337 -0.19951834 0.10092965 -0.074917704 0.099141926 0.041487444 -0.011257016 0.090800874
-0.07097977 -0.051640615 -0.08175896 -0.11747543 -0.021757586 0.09009567 -0.15034133 -0.116081625
0.15559995 0.07024891 0.104458004 0.084126 -0.1250839 0.21673213 0.08903239 -0.061531458
0.11291038 0.07087222 0.0012444691 -0.014598505 -0.03402414 0.12647277 0.07180002 -0.12997784
-0.12819603 0.1477706 0.09920594 0.12250003 -0.09142556 -0.11273367 0.06889661 0.14637041
0.033509914 0.20099984 -0.117434405 0.15554754 0.15052447 0.11173202 0.024162274 0.028454978
-0.050824434 0.065645196 0.10810828 0.0715639 -0.18021439 -0.16674137 0.23849095 0.09262023
00000000: 636f 293e ad43 2c3e a703 ca3c d1cc 033e
00000010: faaa 2f3c 406b 853d 830c 773e c5bf 39be
00000020: c4de c1bc b296 09bd 5038 e0bd 7f56 0f3e
00000030: cb4f 8b3d e528 c1bd cb50 8c3c b591 1d3e
00000040: aca7 bfbd a981 d03d 32ae 9f3d 7133 5ebc
00000050: 324e 5d3d 8c56 34bc ed74 acbd 5027 c3bd
00000060: 09b6 cfbd 76f0 213d 1d82 8b3c 1562 193e
00000070: d4cb 213e 7b0d a23d 45cf a93d 47e3 133d
00000080: 117c 2b3d e306 9ebd f514 723d 0069 723d
00000090: c6a2 063e c970 7abd 63bc 223e 57dc 153d
000000a0: 1b52 ff3d 6683 4a3e fc08 08bd 9765 2b3e
000000b0: 5c1c 463c 4f74 673e 7d69 ac3d 53da 5b3d
000000c0: 1e2f 7fbc 7b7c 6f3d 962a 873e 4161 0cbd
000000d0: 8e17 9cbd fc08 a93d 0e80 a4bb c922 ddbd
000000e0: 4278 333d 26b8 4cbd 168f 8b3d e29d 10be
000000f0: d8c1 a43e 28ed 963d 81e2 0f3e 1ce8 5b3c
00000100: e604 42be 7a9d 1ebd b06e a73d 2552 21bd
00000110: 1c17 82bd 413d 57bd 699c 53bd 3c37 82bd
00000120: 32d5 a1bc de00 24be 3125 ea3c 9da4 b1bd
00000130: 6b49 32be 5d83 dfbd 80a7 a5bc 631a f93d
00000140: abd7 bdbd 1f67 24bd eafc a5bd 304d 3cbd
00000150: 4613 b03c c77b 57bd ab27 9dbb 5aa9 ecbd
00000160: a87d a9bd 089f bbbd d61d 8abd 802f d9bd
00000170: f8a9 8c3d 57b4 3b3d 4e31 1a3d c842 48bd
00000180: dcd1 d3bd bb26 86bc c215 bfbd 4ea9 3e3d
00000190: 65ed 5e3d c2e2 17be e514 013e 200a 8b3d
000001a0: ea95 07be 979d f6bd 75cb 09be 65b6 2fbe
000001b0: 7a5f f9bc a6f1 ecbd a8a5 933c 0ad3 43be
000001c0: a082 af3d 0812 b0bc 2bab 2cbe cae2 30be
000001d0: b236 ab3d 4f2d aebd 5737 3b3d 2671 18be
000001e0: e5bd 5e3b 9d6d 24be 2bbb b2bd d050 373d
000001f0: dc91 d73d 0ebd 1ebd ce8d 1d3c 21dd 9e3d
00000200: df39 573e 0f2a 253e dc4d 4fbd c21f ebbd
00000210: ffc5 1a3e b97b 49bd 4e35 763e 5d41 d2bd
00000220: 2df4 c7bd 894e 4cbe 34b4 ce3d 746e 99bd
00000230: ec0a cb3d bdee 293d 596f 38bc cff5 b93d
00000240: d75d 91bd 1c85 53bd 3e71 a7bd f596 f0bd
00000250: f73c b2bc 1484 b83d 14f3 19be 34bc edbd
00000260: 9855 1f3e a9de 8f3d 14ee d53d 414a ac3d
00000270: fe15 00be 07ef 5d3e 9d56 b63d 6908 7cbd
00000280: 8f3d e73d 7425 913d 741d a33a 912e 6fbc
00000290: e65c 0bbd 1482 013e e40b 933d e918 05be
000002a0: d245 03be 2d51 173e 7c2c cb3d 4ce1 fa3d
000002b0: 533d bbbd e9e0 e6bd aa19 8d3d 20e2 153e
000002c0: b141 093d e7d2 4d3e 7381 f0bd db47 1f3e
000002d0: 1623 1a3e c2d3 e43d f6ef c53c 6a1a e93c
000002e0: 482d 50bd fd70 863d e067 dd3d 1890 923d
000002f0: 1f8a 38be 40be 2abe f936 743e adaf bd3d

rnn.bias_hh_l0 f4 [192]
-0.036720797 0.14925602 0.035744805 -0.023146972 -0.09454032 0.074049674 0.27373227 -0.13405113
0.10865677 0.010523479 -0.1198828 -0.015555201 0.123602554 -0.119867 0.005785765 0.1876461
-0.0032551829 -0.08465802 -0.1356057 -0.10003402 -0.1599664 0.035124045 0.06721141 -0.18138777
0.03940235 0.08346694 0.11611988 -0.063316405 -0.04010507 -0.09701685 -0.028006611 -0.07382299
-0.07655273 -0.10924657 0.105293505 -0.02973429 -0.04181167 0.08308823 0.0136877 -0.003160806
-0.06274345 0.20737065 0.012343239 0.0324294 -0.000107469445 0.11832241 -0.104484946 0.24308242
-0.10669215 0.03426958 0.20682932 -0.0006037614 0.07002593 0.043610465 0.028263243 0.041664023
-0.11563703 0.1687965 0.120421655 0.048685785 0.25760758 0.040803045 0.022042856 -0.13756856
0.034510836 0.09327024 -0.065700494 -0.075121775 -0.04742551 0.004900275 -0.050222736 -0.07608726
0.07513003 2.6936574e-05 0.018355576 -0.06631879 -0.049712084 -0.066663235 0.035888083 0.01941915
0.07165111 0.06279382 -0.013003244 -0.10626361 0.010196715 -0.09527871 0.015254473 -0.10997565
0.09518105 0.067061275 0.045535352 -0.02171631 -0.1079027 -0.035266772 0.041895233 -0.088015094
-0.121805504 0.034801327 0.041970983 -0.102340974 -0.13234174 -0.16837391 0.103649676 0.0020577593
0.041770108 -0.033157706 -0.1268196 0.005050494 -0.049403377 -0.14658277 -0.15933955 -0.16055712
-0.05049486 -0.16002 0.020869683 0.01665086 -0.030207533 -0.08536215 -0.08071017 0.005222008
0.10104582 0.07352699 0.061180428 -0.010554353 0.116214484 0.11719206 0.046869267 0.06199994
0.04482805 0.17911467 -0.21036749 -0.0035295482 -0.056298867 0.061662965 0.28459078 -0.0725398
-0.066916466 -0.122024946 0.063118584 -0.18285829 0.27715757 -0.026873156 0.19894081 0.08171697
0.045478877 -0.0711248 0.038994025 -0.03894961 0.10991986 -0.074605435 -0.036702506 -0.029804392
0.07325738 0.22129479 0.1950406 0.13334711 -0.16465761 0.07817457 -0.08584216 0.06051969
-5.6456687e-05 -0.10748231 0.0118548935 -0.016677536 0.0482681 -0.107882045 0.1339039 -0.22855192
-0.11673232 0.19615446 0.14081782 0.14127347 -0.20576334 -0.17967361 -0.0055832053 0.23985976
0.06401405 0.17571619 -0.2497323 0.1548059 0.15985389 0.09033909 -0.0075909477 0.05738541
-0.10740216 0.1289128 0.036453396 0.04529673 -0.20548919 -0.20437545 0.12079288 0.015440919
00000000: 8c68 16bd 92d6 183e 2569 123d b89e bdbc
00000010: 5b9e c1bd 5ba7 973d a326 8c3e b344 09be
00000020: 7187 de3d ac6a 2c3c 1d85 f5bd 3edb 7ebc
00000030: 5623 fd3d d47c f5bd 8496 bd3b 4d26 403e
00000040: e854 55bb 2f61 adbd 38dc 0abe a3de ccbd
00000050: 3bce 23be 3bde 0f3d 23a6 893d b7bd 39be
00000060: 5c64 213d b7f0 aa3d 42d0 ed3d 08ac 81bd
00000070: 3745 24bd c5b0 c6bd 1f6e e5bc 8230 97bd
00000080: adc7 9cbd aabc dfbd 1fa4 d73d 5395 f3bc
00000090: b742 2bbd 292a aa3d 6042 603c 8625 4fbb
000000a0: a37f 80bd f958 543e 4c3b 4a3c b1d4 043d
000000b0: 3861 e1b8 0553 f23d 34fc d5bd 99ea 783e
000000c0: 6a81 dabd 425e 0c3d 11cb 533e be45 1eba
000000d0: c169 8f3d e3a0 323d 5188 e73c e5a7 2a3d
000000e0: 1bd3 ecbd fdd8 2c3e a19f f63d bf6a 473d
000000f0: 24e5 833e 1821 273d 3893 b43c c6de 0cbe
00000100: 3c5b 0d3d 7804 bf3d fb8d 86bd 72d9 99bd
00000110: 4041 42bd 7c92 a03b 5bb6 4dbd a3d3 9bbd
00000120: c6dd 993d daf5 e137 6f5e 963c 25d2 87bd
00000130: e69e 4bbd bc86 88bd 62ff 123d e914 9f3c
00000140: d1bd 923d 0c9a 803d 8f0b 55bc bca0 d9bd
00000150: 1f10 273c 7c21 c3bd e6ed 793c ea3a e1bd
00000160: 48ee c23d 6c57 893d 4783 3a3d 67e6 b1bc
00000170: 17fc dcbd e473 10bd 569a 2b3d 4241 b4bd
00000180: 2a75 f9bd d68b 0e3d c4e9 2b3d 2598 d1bd
00000190: 9884 07be 366a 2cbe 4846 d43d 79db 063b
000001a0: 2217 2b3d 60d0 07bd ffdc 01be 9d7e a53b
000001b0: 325b 4abd cb19 16be e829 23be 1669 24be
000001c0: b3d3 4ebd 48dc 23be e6f6 aa3c 6267 883c
000001d0: ca75 f7bc 5ad2 aebd 604b a5bd 611d ab3b
000001e0: 1cf1 ce3d 5295 963d 5498 7a3d 2aec 2cbc
000001f0: dc01 ee3d 6402 f03d fdf9 3f3d a6f3 7d3d
00000200: 9e9d 373d d669 373e 936a 57be fe4f 67bb
00000210: a499 66bd 4e92 7c3d e2b5 913e bf8f 94bd
00000220: 800b 89bd 37e8 f9bd 5144 813d 343f 3bbe
00000230: 99e7 8d3e 1825 dcbc 24b7 4b3e 3a5b a73d
00000240: 0f48 3a3d e1a9 91bd 33b8 1f3d a089 1fbd
00000250: aa1d e13d bcca 98bd 5e55 16bd 5728 f4bc
00000260: f707 963d 1a9b 623e b9b8 473e 258c 083e
00000270: 019c 28be fd19 a03d 04ce afbd 7fe3 773d
00000280: e8cb 6cb8 af1f dcbd 073b 423c 549f 88bc
00000290: c5b4 453d 43f1 dcbd 1b1e 093e 8409 6abe
000002a0: 5b11 efbd b7dc 483e 8c32 103e fea9 103e
000002b0: a0b3 52be 5cfc 37be 52f3 b6bb cc9d 753e
000002c0: cc19 833d f2ee 333e d3b9 7fbe 7085 1e3e
000002d0: bdb0 233e b303 b93d 7cbd f8bb f70c 6b3d
000002e0: aaf5 dbbd b801 043e 2850 153d 1089 393d
000002f0: c26b 52be cc47 51be 4262 f73d e9fb 7c3c

rnn.weight_ih_l1 f4 [192, 64]
-0.007880019 -0.16872856 0.13942853 0.110412605 0.1254754 -0.037357148 -0.009601383 -0.13301562
-0.052707322 -0.06530032 -0.03152327 -0.022462923 -0.0987733 -0.097634286 0.061351657 -0.033817265
-0.027532604 -0.085802235 0.054563202 0.028041627 0.095606506 -0.004322003 0.13579883 0.010762723
-0.14296731 -0.07190284 0.036547624 -0.1356023 -0.0011388414 -0.10471348 0.08494685 0.016118035
-0.07076527 0.041820895 0.024102032 0.017208584 -0.14149107 0.0206742 -0.046889722 0.07456011
0.13931759 -0.005931994 0.067973316 0.067296006 -0.056378655 0.043746095 0.11823193 0.047498632
0.038911283 -0.008385663 0.10323256 -0.008561472 0.055289496 0.11732117 0.14488846 0.07487563
0.06646244 -0.15578339 -0.102496065 -0.05597904 0.117919564 -0.07191493 -0.091986805 -0.039835796
-0.10269139 0.034454506 -0.11255824 0.12773366 -0.15064313 0.122290865 -0.063592225 -0.03754083
0.070817485 0.011533055 -0.024996426 -0.047107976 -0.18384956 0.09865124 0.04755284 0.11927682
0.09894428 0.024901284 -0.026470205 -0.03004648 -0.026130868 0.102606885 0.06309994 -0.055818785
-0.0061426177 -0.0007823586 0.026965516 -0.020528682 0.023737613 -0.012164609 -0.075887084 -0.025887778
0.075921305 0.05431276 0.13125591 -0.08565933 0.09146216 0.03627566 0.03576332 0.062000655
0.0057465783 -0.10027996 0.09836713 -0.07459917 0.1341741 0.014314174 0.03969832 -0.12719312
-0.12685855 0.056017652 -0.093415484 0.08454195 0.124110386 0.1121646 -0.036609042 0.12469595
0.08731297 -0.025174819 -0.011609902 -0.10565302 0.10746226 -0.076763555 -0.042407904 -0.07081549
-0.07053734 -0.100894585 0.04923299 0.13756129 -0.021048365 -0.1187804 -0.04798541 0.088919014
0.11738505 0.04876807 -0.102510706 0.14908597 0.05716919 -0.015010389 -0.004597282 -0.09880215
0.023483085 -0.051578835 -0.060678635 0.062152307 0.07728172 0.005917254 -0.039274603 0.00978114
-0.0116966795 -0.04434881 -0.13496092 -0.0125640705 0.13388431 -0.10332599 0.0037695223 0.07535259
0.048194572 0.10264861 -0.0046753422 0.06664579 -0.1071999 0.08247003 -0.08357406 0.14035803
-0.01900089 -0.033916667 0.11753169 -0.1402607 0.09432994 0.14636555 -0.042190623 -0.16441487
-0.15798357 0.0026871283 -0.0057340767 0.046298 -0.011814698 0.12893377 -0.0029483712 -0.061444636
-0.070087574 -0.06309007 0.020337801 -0.06339793 0.037601903 0.0067691538 0.026194721 0.01785086
-0.01532259 -0.1031662 0.057408094 -0.09416455 0.081769295 0.023559902 -0.08161206 -0.04666518
0.142814 0.02677054 0.060500227 0.03212478 -0.12769862 -0.004321754 -0.13832393 0.0039931154
0.068556026 -0.054446567 0.040483244 -0.0811406 0.13386685 -0.14220122 0.06335843 0.12529783
-0.09907373 0.0080686975 -0.03275837 -0.0757418 -0.073728494 -0.048535455 0.041984864 -0.013480475
-0.010674667 0.0467651 -0.035768237 0.059119087 -0.06520807 0.10186911 0.06237997 0.124446064
-0.023787929 -0.017953085 -0.087523505 -0.09673427 -0.07344802 -0.06853947 0.007490076 -0.011655475
0.068739705 0.07798919 0.0057858606 -0.11364784 -0.03989606 -0.09787523 0.0051470567 -0.020242447
0.009817776 -0.022279495 0.08130108 -0.07928805 -0.065442815 0.06972054 -0.14740871 0.13298322
00000000: 321b 01bc 2ec7 2cbe 5ac6 0e3e 0120 e23d
00000010: a07c 003e cf03 19bd 1e4f 1dbc 3f35 08be
00000020: a2e3 57bd 2dbc 85bd 8b1e 01bd 2a04 b8bc
00000030: a849 cabd 7cf4 c7bd e04b 7b3d f983 0abd
00000040: 0e8c e1bc 15b9 afbd aa7d 5f3d 8eb7 e53c
00000050: 58cd c33d 979f 8dbb d90e 0b3e 2256 303c
00000060: 0666 12be cc41 93bd f6b2 153d 54db 0abe
00000070: 2d45 95ba 0574 d6bd 9df8 ad3d f809 843c
00000080: 62ed 90bd 634c 2b3d a071 c53c 04f9 8c3c
00000090: 09e3 10be f15c a93c 700f 40bd f9b2 983d
000000a0: 45a9 0e3e 2c61 c2bb 9835 8b3d 7dd2 893d
000000b0: 4eed 66bd 1b2f 333d 9523 f23d ed8d 423d
000000c0: 7061 1f3d 0564 09bc 986b d33d 6b45 0cbc
000000d0: 3d77 623d 1546 f03d a45d 143e 6558 993d
000000e0: 761d 883d ae85 1fbe 75e9 d1bd 474a 65bd
000000f0: d07f f13d 2348 93bd 9463 bcbd dc2a 23bd
00000100: dd4f d2bd 2b20 0d3d ef84 e6bd 9dcc 023e
00000110: 3142 1abe a273 fa3d a43c 82bd 6ac4 19bd
00000120: c208 913d 24f5 3c3c 4ec5 ccbc 4bf4 40bd
00000130: 0f43 3cbe a909 ca3d c4c6 423d 6847 f43d
00000140: 4ca3 ca3d c7fd cb3c 0bd8 d8bc 0924 f6bc
00000150: 6710 d6bc 8f23 d23d 8b3a 813d 3da2 64bd
00000160: 0348 c9bb 3217 4dba c9e6 dc3c c42b a8bc
00000170: 6275 c23c 114e 47bc b06a 9bbd 9b12 d4bc
00000180: a17c 9b3d 0e77 5e3d f367 063e 296e afbd
00000190: 8350 bb3d c995 143d 8f7c 123d 66f4 7d3d
000001a0: cb4d bc3b 945f cdbd b574 c93d 73c7 98bd
000001b0: ef64 093e ff85 6a3c b59a 223d ea3e 02be
000001c0: 35e7 01be c472 653d 9e50 bfbd 5424 ad3d
000001d0: 962d fe3d 8eb6 e53d 5df3 15bd 9760 ff3d
000001e0: 24d1 b23d 6c3b cebc 7537 3ebc 9c60 d8bd
000001f0: 2c15 dc3d 3636 9dbd e9b3 2dbd b607 91bd
00000200: e275 90bd d2a1 cebd 88a8 493d dedc 0c3e
00000210: 9f6d acbc 2343 f3bd 598c 44bd 2c1b b63d
00000220: 9367 f03d 07c1 473d 22f1 d1bd fea9 183e
00000230: 3e2a 6a3d 22ee 75bc cca4 96bb c858 cabd
00000240: 995f c03c 5444 53bd 298a 78bd 6b93 7e3d
00000250: e145 9e3d 86e5 c13b 68de 20bd 1341 203c
00000260: 6ea3 3fbc 19a7 35bd 3233 0abe 88d9 4dbc
00000270: f818 093e 949c d3bd 170a 773b 7552 9a3d
00000280: ac67 453d 6f39 d23d 9d33 99bb 977d 883d
00000290: 9f8b dbbd 0ce6 a83d e028 abbd 04ba 0f3e
000002a0: c1a7 9bbc 34ec 0abd 74b4 f03d 80a0 0fbe
000002b0: 0e30 c13d dae0 153e 13d0 2cbd 5f5c 28be
000002c0: 72c6 21be 881a 303b ece4 bbbb f9a2 3d3d
000002d0: 6f92 41bc 3707 043e 7639 41bb 5fad 7bbd
000002e0: 138a 8fbd 5e35 81bd 769b a63c c6d6 81bd
000002f0: 7404 1a3d c7cf dd3b 5096 d63c f73b 923c
00000300: 9a0b 7bbc cd48 d3bd c024 6b3d 58d9 c0bd
00000310: a976 a73d b200 c13c 3924 a7bd fd23 3fbd
00000320: d53d 123e e44d db3c 16cf 773d 4695 033d
00000330: 6dc3 02be 809d 8dbb caa4 0dbe aed8 823b
00000340: 1a67 8c3d 5d03 5fbd c2d1 253d 0b2d a6bd
00000350: 6414 093e 329d 11be 11c2 813d 134e 003e
00000360: 2be7 cabd 9232 043c a42d 06bd 841e 9bbd
00000370: f7fe 96bd 1dcd 46bd 52f8 2b3d 36dd 5cbc
00000380: cce4 2ebc c38c 3f3d b781 12bd db26 723d
00000390: cf8b 85bd c0a0 d03d 2482 7f3d 94dd fe3d
000003a0: e7de c2bc 5912 93bc 863f b3bd 9e1c c6bd
000003b0: ea6b 96bd 6c5e 8cbd 506f f53b 9bf6 3ebc
000003c0: 67c7 8c3d ccb8 9f3d 5197 bd3b 33c0 e8bd
000003d0: 0d6a 23bd cf72 c8bd a4a8 a83b 7dd3 a5bc
000003e0: bdda 203c 7d83 b6bc 2e81 a63d c661 a2bd
000003f0: e206 86bd a4c9 8e3d 4ff2 16be c12c 083e

rnn.weight_hh_l1 f4 [192, 64]
0.10671537 0.07503331 -0.06707846 0.05265258 -0.0699782 0.11407446 0.14037016 0.13895516
0.11116695 -0.041173935 -0.05121819 -0.016994942 0.042792343 0.05979787 0.07475358 0.041454583
0.11711332 0.016924152 -0.03383637 0.06976136 -0.04842576 0.012609655 -0.00029920606 0.038900852
0.11736837 -0.039069586 -0.15845989 -0.044533238 0.10853822 -0.10900575 0.03660348 0.0042586923
-0.13041408 0.02188207 0.10719864 -0.11325664 0.0046525546 -0.015595404 0.114552855 0.105103195
0.06464219 -0.1030898 -0.080207236 0.017639153 0.10289151 -0.17357588 0.07051158 0.004714806
0.08516142 -0.043976787 -0.09326569 -0.062072713 0.04501297 0.07691 -0.050516263 -0.058454216
0.017146382 0.10990774 0.08650249 -0.028776743 0.08901628 -0.058629874 0.11779843 -0.00388917
-0.08845441 -0.111990236 0.014694057 0.10930086 -0.041084938 0.014575996 -0.1765376 -0.14012037
0.14443065 0.1599882 -0.051455647 0.20671497 0.067571595 -0.08850547 -0.09706384 -0.07037704
0.06840825 -0.072716504 0.062585354 -0.034104455 0.011131269 -0.079585046 0.11953574 -0.018520424
-0.05215367 -0.0957239 0.16463597 -0.13456456 -0.007936522 -0.0015651791 0.10563058 -0.120964445
0.12861022 0.07421116 0.020487439 0.070741855 -0.0052808747 0.020678403 0.004279861 -0.0853269
0.07231322 0.012455348 0.11404436 0.04136308 0.08435215 0.07600879 -0.07829958 0.024152583
0.018199665 0.14698248 0.099875525 -0.0095885135 0.009920426 0.1796159 0.03523009 -0.008167774
-0.062165216 -0.04439829 -0.044691313 -0.11715659 0.057094626 -0.027010605 -0.07071949 0.03614283
0.07786167 0.047992155 0.04946787 0.041895267 0.019127844 -0.10202316 0.015424236 0.0871166
0.0005170914 0.1301209 -0.08221209 -0.012915651 -0.011844179 0.09731086 -0.07157464 0.04213042
0.042211074 0.024145113 0.01199912 0.06499707 0.08406902 -0.11843073 -0.106024064 -0.014792589
0.11623772 0.08283523 -0.052473128 0.040568482 -0.09641856 0.15223952 -0.09467332 -0.006096114
0.06408642 0.049311265 0.104444504 -0.11359393 0.065702744 -0.00063930545 -0.11122589 0.09224821
-0.09123367 0.10541623 0.064283244 -0.03317629 0.11729789 0.07422089 -0.006894736 -0.13154367
-0.11966372 -0.0005324001 -0.11835515 0.025966601 -0.08317031 0.026136812 0.002800918 0.12409935
0.08527588 -0.076044135 -0.084098436 0.05391466 -0.076693386 0.052960034 0.09913232 -0.032640114
0.027562963 -0.086009 -0.15122782 -0.022651806 0.10429094 0.14647087 -0.057300217 0.1449669
-0.07222634 0.11391883 -0.022328777 0.06795076 0.09916682 0.107754946 -0.027332762 -0.061047364
0.07813544 0.07998091 -0.031048601 -0.09759761 0.030748256 -0.09985857 -0.046936784 0.08273725
0.035157673 -0.06875356 -0.081409425 -0.027646242 -0.136188 0.04182963 -0.062379982 -0.08089404
-0.004194491 -0.001816584 0.07750955 -0.12812358 -0.009162677 0.12407865 0.093651906 0.0053247344
-0.07902059 -0.09090377 0.08151376 0.03706255 0.09691827 0.0733336 -0.0049175927 -0.19175948
-0.06432032 -0.1381078 -0.13559687 -0.034719914 0.10506639 -0.100324325 -0.058946308 -0.019741187
-0.007570746 -0.06309148 -0.10681903 0.100868486 -0.09166288 0.0991298 -0.027684778 -0.039697655
00000000: 978d da3d 10ab 993d 6e60 89bd 3baa 573d
00000010: bb50 8fbd df9f e93d 32bd 0f3e 434a 0e3e
00000020: 7fab e33d 00a6 28bd 2aca 51bd fa38 8bbc
00000030: 0647 2f3d 9dee 743d 6818 993d 48cc 293d
00000040: 1cd9 ef3d 85a4 8a3c 0198 0abd 0bdf 8e3d
00000050: 175a 46bd ba98 4e3c c2de 9cb9 8056 1f3d
00000060: d45e f03d 6e07 20bd 4f43 22be 7c68 36bd
00000070: 4949 de3d 683e dfbd 88ed 153d 808c 8b3b
00000080: 458b 05be 0742 b33c f68a db3d 19f3 e7bd
00000090: 7574 983b de83 7fbc b09a ea3d 5840 d73d
000000a0: 2063 843d bf20 d3bd b143 a4bd fc7f 903c
000000b0: c9b8 d23d e0bd 31be 6068 903d a97e 9a3b
000000c0: 1c69 ae3d 0121 34bd 1502 bfbd f53f 7ebd
000000d0: 855f 383d fd82 9d3d 24ea 4ebd b06d 6fbd
000000e0: 9276 8c3c 4f17 e13d 3828 b13d 34bd ebbc
000000f0: 2b4e b63d e125 70bd 4e40 f13d 72e1 7ebb
00000100: 9627 b5bd 235b e5bd 58bf 703c 21d9 df3d
00000110: ae48 28bd 29d0 6e3c 46c6 34be b77b 0fbe
00000120: a1e5 133e f2d3 233e 28c3 52bd 17ad 533e
00000130: fa62 8a3d 5b42 b5bd 68c9 c6bd d621 90bd
00000140: a019 8c3d 64ec 94bd c02c 803d 1db1 0bbd
00000150: ed5f 363c 7cfd a2bd 27cf f43d 25b8 97bc
00000160: 169f 55bd e40a c4bd 5596 283e 4bcb 09be
00000170: 3008 02bc b226 cdba d854 d83d 35bc f7bd
00000180: 66b2 033e 05fc 973d 46d5 a73c 1be1 903d
00000190: 300b adbb c165 a93c 143e 8c3b dfbf aebd
000001a0: f418 943d 8411 4c3c 1790 e93d 556c 293d
000001b0: d2c0 ac3d 7faa 9b3d 885b a0bd a3db c53c
000001c0: 7717 953c 9382 163e 8a8b cc3d 2419 1dbc
000001d0: 4889 223c 3bed 373e 6d4d 103d 21d2 05bc
000001e0: f4a0 7ebd fbda 35bd 3d0e 37bd cbef efbd
000001f0: 0edc 693d 5845 ddbc 61d5 90bd 810a 143d
00000200: f075 9f3d 6c93 443d d29e 4a3d 5f9a 2b3d
00000210: ffb1 9c3c 85f1 d0bd efb5 7c3c 306a b23d
00000220: 6b8d 073a 6a3e 053e d05e a8bd 2b9c 53bc
00000230: 160e 42bc eb4a c73d ba95 92bd f390 2c3d
00000240: 85e5 2c3d f9cb c53c f597 443c 2f1d 853d
00000250: 612c ac3d d08b f2bd 2523 d9bd 9d5c 72bc
00000260: 0b0e ee3d 84a5 a93d 10ee 56bd 232b 263d
00000270: 1877 c5bd ade4 1b3e 16e4 c1bd e9c1 c7bb
00000280: be3f 833d 9cfa 493d 00e7 d53d efa3 e8bd
00000290: 298f 863d 1097 27ba 66ca e3bd a1ec bc3d
000002a0: b8d8 babd 77e4 d73d efa6 833d dde3 07bd
000002b0: e039 f03d 1f01 983d 3ded e1bb 62b3 06be
000002c0: 4112 f5bd c490 0bba 2f64 f2bd e9b7 d43c
000002d0: 3255 aabd de1c d63c 9b8f 373b cd27 fe3d
000002e0: 1fa5 ae3d 07bd 9bbd cd3b acbd 9ed5 5c3d
000002f0: 6c11 9dbd 9fec 583d e305 cb3d a4b1 05bd
00000300: b9cb e13c 7d25 b0bd 77db 1abe 4890 b9bc
00000310: 7d96 d53d 76fc 153e a2b3 6abd 3472 143e
00000320: 67eb 93bd 474e e93d d7ea b6bc c529 8b3d
00000330: f917 cb3d a0ae dc3d f5e8 dfbc cd0c 7abd
00000340: 7905 a03d 08cd a33d a359 febc 41e1 c7bd
00000350: c4e3 fb3c a682 ccbd c940 40bd 2672 a93d
00000360: 7e01 103d abce 8cbd fcb9 a6bd 5f7a e2bc
00000370: de74 0bbe 8c55 2b3d 2782 7fbd c6ab a5bd
00000380: f171 89bb 721a eeba 54bd 9e3d d432 03be
00000390: 0e1f 16bc f21c fe3d 92cc bf3d 1c7b ae3b
000003a0: 8cd5 a1bd c12b babd b0f0 a63d e7ce 173d
000003b0: 167d c63d ed2f 963d c223 a1bb 995c 44be
000003c0: 5fba 83bd 226c 0dbe e8d9 0abe 7836 0ebd
000003d0: 0c2d d73d d776 cdbd af71 71bd 45b8 a1bc
000003e0: 0514 f8bb 1b36 81bd f0c3 dabd 2394 ce3d
000003f0: bfb9 bbbd 9104 cb3d 30cb e2bc 029a 22bd

rnn.bias_ih_l1 f4 [192]
0.10745572 0.018122133 0.02488026 -0.024896791 -0.035645097 -0.12816171 0.08116225 0.058090985
-0.04656272 0.112963185 0.049649935 0.029678395 -0.09147046 0.024676602 -0.060112342 -0.0029151216
0.1685173 0.045722123 0.026225658 -0.113884054 0.068033926 0.063490056 -0.08290842 0.14885195
-0.06652271 -0.06670788 0.0008319206 0.02259801 0.027914284 0.09624784 0.02766319 0.056079574
-0.08151528 -0.13910364 0.032350663 0.025674371 0.009938848 -0.0024575286 -0.014172427 0.10687683
-0.082849994 0.055595055 -0.15640303 0.047499955 -0.015883544 0.10602045 0.055795677 0.04138256
0.012071874 -0.055433445 0.10360182 -0.016223958 -0.064938754 -0.12956953 0.007054053 -0.11408312
0.108747326 0.06018869 -0.1054385 -0.05896844 -0.07665675 -0.08584517 0.08412178 -0.07606192
-0.02930633 -0.13276498 -0.10838657 -0.15606998 0.06869259 0.07595129 -0.06787384 -0.07699436
-0.1542658 -0.18894048 -0.09490758 0.018420473 0.08091196 -0.113167726 -0.09154384 -0.019351775
-0.043385617 0.050371587 0.057889715 0.10310912 -0.097021386 -0.07956746 -0.112630546 -0.15501799
0.08122212 -0.07293022 0.035109468 -0.064889 -0.02667372 -0.13319704 -0.11776039 0.00037220595
-0.02657365 -0.041616075 0.004234327 -0.14013669 -0.11207565 0.004733472 0.02949534 -0.12368195
0.033420302 0.031176247 0.050234478 0.04677 -0.050003354 0.08549839 -0.07814781 0.112376004
0.031942204 0.05939815 0.053768422 0.005208104 -0.08086734 -0.100052394 -0.018360212 0.024786444
-0.11870564 -0.1312901 0.10993493 -0.042133704 -0.12180988 -0.07406402 -0.07521139 0.020559624
0.1174572 0.12164088 0.049578853 -0.004826656 -0.061177026 0.061205976 0.111122765 -0.095622465
-0.14378896 -0.13540004 -0.16591723 0.029203435 -0.055559717 -0.16693282 -0.02763403 -0.068494976
-0.0498014 0.11240177 0.027154857 0.0046998067 -0.008089842 0.09536541 0.024474673 -0.07794371
0.14001383 -0.030766485 0.11151504 -0.09349761 -0.10245423 0.08512809 -0.014356213 -0.004781788
0.09055725 -0.106766574 -0.06130198 -0.11820418 0.011910107 -0.020018814 -0.031256054 -0.0314997
0.15716095 -0.11768248 -0.10685348 0.14274839 -0.038243968 0.03244484 -0.04329679 0.087993376
-0.10399544 -0.04365563 -0.05608881 0.08419969 0.059026998 -0.08504598 -0.15251336 -0.058929153
-0.03673756 -0.0107150385 -0.046779852 0.06323943 0.16714278 -0.06895339 0.15422326 0.085519396
00000000: bf11 dc3d de74 943c b0d1 cb3c 5bf4 cbbc
00000010: 9800 12bd d33c 03be 6538 a63d d0f0 6d3d
00000020: 8db8 3ebd 3e59 e73d bb5d 4b3d 1b20 f33c
00000030: dd54 bbbd 9626 ca3c 5c38 76bd a00b 3fbb
00000040: cd8f 2c3e 1f47 3b3d 31d7 d63c 0b3c e9bd
00000050: 5f55 8b3d 1307 823d e4cb a9bd a56c 183e
00000060: 0f3d 88bd 249e 88bd 3f15 5a3a 761f b93c
00000070: 7fac e43c 961d c53d ea9d e23c b2b3 653d
00000080: 7cf1 a6bd 2f71 0ebe 2182 043d 0f53 d23c
00000090: 8dd6 223c 7d0e 21bb 7833 68bc 3de2 da3d
000000a0: 42ad a9bd a4b7 633d 1e28 20be 508f 423d
000000b0: 351e 82bc 4021 d93d 028a 643d c280 293d
000000c0: 1cc9 453c 2e0e 63bd 312d d43d 1be8 84bc
000000d0: 9cfe 84bd e0ad 04be af25 e73b 69a4 e9bd
000000e0: ebb6 de3d 6a88 763d 24f0 d7bd e488 71bd
000000f0: 37fe 9cbd 98cf afbd 0a48 ac3d 5ac6 9bbd
00000100: d413 f0bc 8bf3 07be c7f9 ddbd cfd0 1fbe
00000110: b3ae 8c3d 5a8c 9b3d 7101 8bbd 38af 9dbd
00000120: dbf7 1dbe 9d79 41be e85e c2bd 88e6 963c
00000130: 2bb5 a53d 7bc4 e7bd 567b bbbd 9d87 9ebc
00000140: 1eb5 31bd 7052 4e3d c41d 6d3d e02a d33d
00000150: 26b3 c6bd 44f4 a2bd d8aa e6bd 09bd 1ebe
00000160: c857 a63d 705c 95bd f2ce 0f3d 86e4 84bd
00000170: d882 dabc ce64 08be 5c2c f1bd a324 c339
00000180: fcb0 d9bc 9e75 2abd 1cc0 8a3b fe7f 0fbe
00000190: eb87 e5bd 3e1b 9b3b 36a0 f13c f64c fdbd
000001a0: bae3 083d 5465 ff3c abc2 4d3d e691 3f3d
000001b0: 51d0 4cbd c819 af3d f60b a0bd 6425 e63d
000001c0: d4d5 023d 794b 733d 473c 5c3d bea8 aa3b
000001d0: c79d a5bd 45e8 ccbd 2868 96bc f10c cb3c
000001e0: f11b f3bd e970 06be 9125 e13d 6494 2cbd
000001f0: 7577 f9bd e0ae 97bd 6e08 9abd a86c a83c
00000200: 678d f03d db1e f93d 3213 4b3d ed28 9ebb
00000210: c394 7abd 1eb3 7a3d 5594 e33d b6d5 c3bd
00000220: 6a3d 13be 4fa6 0abe 35e6 29be 0b3c ef3c
00000230: 9692 63bd 70f0 2abe c360 e2bc 1847 8cbd
00000240: 8efc 4bbd e632 e63d dd73 de3c d600 9a3b
00000250: 428b 04bc f14e c33d 1c7f c83c f4a0 9fbd
00000260: c95f 0f3e ff09 fcbc ff61 e43d ad7b bfbd
00000270: 86d3 d1bd a357 ae3d 5236 6bbc 8cb0 9cbb
00000280: 1476 b93d 6fa8 dabd c917 7bbd 0815 f2bd
00000290: 9c22 433c 7ffe a3bc 5906 00bd d405 01bd
000002a0: cdee 203e 8303 f1bd ffd5 dabd a22c 123e
000002b0: b5a5 1cbd e1e4 043d fa57 31bd df35 b43d
000002c0: 90fb d4bd 3fd0 32bd 61bd 65bd e370 ac3d
000002d0: 4bc6 713d 962c aebd 762c 1cbe b25f 71bd
000002e0: 207a 16bd 218e 2fbc 3b9c 3fbd ad83 813d
000002f0: 7a27 2b3e 6f37 8dbd b4ec 1d3e cb24 af3d

rnn.bias_hh_l1 f4 [192]
0.10289273 0.035015948 -0.055854764 -0.11597365 -0.016823167 -0.09304736 -0.0245083 0.07027165
-0.09078585 -0.12297729 -0.05094191 -0.0029872651 -0.07217234 -0.09303804 0.09087019 -0.02241554
0.28314087 0.0928908 0.04477844 0.041413993 -0.07431352 -0.055652242 -0.123269305 -0.008089833
-0.112924665 0.047932167 0.020793855 -0.058976293 -0.07228955 0.022634009 -0.037049487 0.00417821
-0.07059444 -0.093768016 0.042403568 0.0056885495 -0.048277713 0.10923955 0.09608287 0.093964785
-0.14495733 0.079126745 0.07830425 -0.040912513 0.00022120871 0.013844198 -0.06329262 -0.07264146
0.08091061 0.080667116 0.01586341 0.040929224 0.102054894 0.011195405 -0.0223991 -0.10757239
-0.064743 -0.078087375 -0.10827812 0.048957743 0.023873882 0.08083066 0.03504458 -0.058182772
0.13089608 -0.075620055 -0.06891997 0.059754822 -0.15068625 -0.014588186 -0.053092133 -0.10172268
0.03139893 -0.16201529 -0.0025219733 0.04869291 0.059982207 -0.11597059 -0.09429494 0.025153236
-0.07368205 0.06563332 0.019988166 0.057692043 -0.12289431 0.053130586 -0.15299764 0.037668698
-0.041728277 0.08542003 0.1101901 -0.051736042 -0.10038394 -0.044712137 -0.050410803 -0.13308379
0.029134713 0.026323866 0.08625173 -0.11963564 -0.13220836 0.09376494 -0.08396674 0.0046314523
0.0057846494 -0.030129924 -0.05854362 -0.03556984 -0.112484775 -0.00805424 -0.15664293 0.011832084
-0.07641191 -0.06728829 0.05238555 0.031905547 -0.11353242 -0.08683958 -0.06046162 -0.13338907
-0.041068755 -0.072982915 0.04439162 -0.043653075 -0.0056980387 -0.11475254 -0.1323727 0.047464915
0.0067979144 0.023128394 0.002502629 -0.03256906 0.1569509 0.030120369 -0.028520187 0.034882262
-0.006443168 -0.058277607 -0.056183577 0.04760994 0.014928271 -0.015224885 0.06922985 0.08647671
0.023988305 -0.092309505 -0.14184873 0.062446546 -0.10116098 0.109378226 0.026886113 0.08533354
0.07953696 -0.0032154163 0.12095669 -0.01768767 -0.06313204 0.06412094 -0.025903238 0.0499446
0.050198734 0.081507176 0.06978936 -0.08665819 -0.057682652 -0.0447696 0.11308314 0.11760535
-0.051399503 -0.038164094 0.07582238 0.040826213 -0.091260664 -0.08818134 0.10536891 0.05714358
-0.11242993 0.11045685 -0.15636966 -0.04569494 0.0983668 0.039606106 -0.030142328 -0.11277832
0.10449067 0.097141795 0.025891285 0.018731823 0.17505431 0.08188172 -0.0531825 0.057790574
00000000: 6cb9 d23d e26c 0f3d f7c7 64bd 9883 edbd
00000010: bdd0 89bc 9d8f bebd a1c5 c8bc 95ea 8f3d
00000020: efed b9bd 84db fbbd 77a8 50bd fec5 43bb
00000030: 17cf 93bd ba8a bebd 261a ba3d cba0 b7bc
00000040: d7f7 903e 883d be3d 9969 373d b8a1 293d
00000050: b031 98bd 9bf3 63bd 9e74 fcbd 388b 04bc
00000060: 0c45 e7bd 8554 443d e057 aa3c 2091 71bd
00000070: 8b0c 94bd f56a b93c 34c1 17bd 5ee9 883b
00000080: d193 90bd 7209 c0bd 5daf 2d3d 0367 ba3b
00000090: dabe 45bd fcb8 df3d 19c7 c43d 9c70 c03d
000000a0: b26f 14be 340d a23d fb5d a03d e193 27bd
000000b0: 43f4 6739 c6d2 623c 909f 81bd 0cc5 94bd
000000c0: 76b4 a53d cd34 a53d fbf3 813c 67a5 273d
000000d0: 2802 d13d ef6c 373c 517e b7bc ea4e dcbd
000000e0: fa97 84bd 46ec 9fbd ebc0 ddbd ea87 483d
000000f0: 2993 c33c 8c8a a53d e88a 0f3d 0f51 6ebd
00000100: 9f09 063e b0de 9abd ea25 8dbd 79c1 743d
00000110: 7f4d 1abe 4903 6fbc 2377 59bd fb53 d0bd
00000120: 2a9c 003d 56e7 25be b147 25bb 3772 473d
00000130: e7af 753d fd81 edbd b51d c1bd 290e ce3c
00000140: 9de6 96bd c36a 863d 39be a33c 7e4e 6c3d
00000150: 03b0 fbbd 759f 593d 6aab 1cbe 7e4a 1a3d
00000160: 45eb 2abd b2f0 ae3d 59ab e13d 2ce9 53bd
00000170: 1896 cdbd 1324 37bd 8f7b 4ebd 1e47 08be
00000180: ecab ee3c 26a5 d73c bfa4 b03d 8803 f5bd
00000190: a161 07be d507 c03d c1f6 abbd 70c3 973b
000001a0: 288d bd3b 08d3 f6bc 6fcb 6fbd aeb1 11bd
000001b0: 6b5e e6bd eef5 03bc 0167 20be 5bdb 413c
000001c0: d97d 9cbd 71ce 89bd 3b92 563d 64af 023d
000001d0: af83 e8bd f3d8 b1bd 9ba6 77bd 2597 08be
000001e0: b637 28bd 1178 95bd fdd3 353d 91cd 32bd
000001f0: 9db6 babb 6103 ebbd b68c 07be 926a 423d
00000200: 0ac1 de3b c277 bd3c 2603 243b 2267 05bd
00000210: bdb7 203e febe f63c 2ba3 e9bc b4e0 0e3d
00000220: 3621 d3bb 80b4 6ebd c020 66bd a402 433d
00000230: b595 743c cc71 79bc 61c8 8d3d b41a b13d
00000240: 1f83 c43c c40c bdbd cb40 11be f3c7 7f3d
00000250: 7d2d cfbd b101 e03d 4440 dc3c 5ac3 ae3d
00000260: 46e4 a23d bcb9 52bb 24b8 f73d bce5 90bc
00000270: 5f4b 81bd d751 833d 0733 d4bc b592 4c3d
00000280: 309d 4d3d 3ced a63d b9ed 8e3d d979 b1bd
00000290: a544 6cbd 5460 37bd 2298 e73d 13db f03d
000002a0: 4988 52bd f451 1cbd c448 9b3d 6339 273d
000002b0: dfe6 babd 6b98 b4bd a8cb d73d 630f 6a3d
000002c0: aa41 e6bd 3337 e23d 5e1f 20be 9e2a 3bbd
000002d0: 8874 c93d 033a 223d 0bed f6bc 52f8 e6bd
000002e0: 34ff d53d 47f2 c63d f619 d43c 7b73 993c
000002f0: 7041 333e 9ab1 a73d e5d5 59bd cfb5 6c3d

rnn.weight_ih_l2 f4 [192, 64]
-0.052304097 -0.05219582 0.044676457 0.04117999 -0.026720256 0.14081022 0.12574983 0.010724842
0.06435013 -0.09386879 -0.042905428 -0.0690164 0.12185813 0.109660976 0.03557058 -0.069120035
0.07204025 0.010796571 -0.085622095 0.047446195 -0.017117698 0.14253925 -0.065564044 0.18203974
0.11091963 -0.04755376 -0.1348159 0.11406967 0.092595704 -0.07497795 0.03530618 -0.058660522
-0.029605845 -0.089049734 -0.119376674 0.10519135 -0.10658094 0.12968251 -0.022712491 0.0812901
-0.0002531135 -0.11944415 -0.032196946 -0.10887002 -0.08127854 0.015051714 0.1383747 -0.06737842
0.027533608 -0.14416353 -0.05221787 0.09710909 0.14323945 0.08698154 0.0537113 0.07771785
-0.09173491 -0.068753205 -0.024899954 0.01033637 0.042892214 0.12950061 -0.07531357 -0.0019003133
0.08252124 0.08484454 -0.084282465 -0.049424063 0.08529241 -0.00992123 -0.0021310085 -0.05614238
-0.015664117 0.10019987 0.014945224 -0.18174142 -0.0031542645 -0.035962723 -0.07926945 -0.097174585
0.21977346 0.009363172 0.034880266 0.039985687 -0.06875779 0.028741539 0.08029974 0.16140565
-0.044656463 -0.079025775 -0.056712165 -0.02472595 0.0861126 -0.09627138 0.060752288 0.07357468
-0.12672877 -0.028134977 -0.08265959 -0.050166495 -0.13834512 0.11305549 0.02456751 -0.057970658
0.11627272 0.09560073 -0.057364877 -0.019514281 -0.14768296 0.0398615 0.101255536 -0.036420003
0.0999021 0.07654051 0.036888003 0.060900066 -0.081695564 -0.108596325 0.11074893 0.05948379
0.00096281595 0.025730737 -0.068321615 0.025435075 -0.09189282 -0.03967533 -0.018245723 0.12945053
0.06948854 -0.07287168 0.0036752922 -0.10031811 0.079908244 -0.0020615347 0.037982713 0.009293414
-0.069333196 -0.047985516 0.013554465 0.06025277 -0.021663029 0.073183335 0.053360704 -0.039397944
0.14848371 -0.11073657 0.05147851 0.02198346 0.032395303 -0.00266384 0.070853986 0.10923302
0.008819313 -0.0641314 0.09040419 -0.088387415 0.12923662 -0.20623466 0.066528685 -0.024426492
0.115085274 0.07183542 0.042728268 0.036255244 0.07190596 0.07020444 0.06323613 -0.09851787
-0.1340875 0.08231692 -0.044149358 -0.066731945 0.12209754 0.10179477 0.06279605 -0.052267473
-0.04216237 -0.036698673 0.16227102 0.055358622 -0.0462562 -0.026044618 0.001970488 0.108174875
0.018072724 0.13296945 0.06508251 0.031567834 -0.14174666 -0.0845913 0.075231224 -0.111567765
0.03904905 -0.070526555 -0.10095804 -0.059638545 -0.07587991 0.1495245 0.122546285 -0.025606187
-0.14840344 0.021937065 0.00090131984 -0.0059897844 -0.038042948 -0.095782585 0.06931887 -0.07838271
0.07110959 -0.031524226 -0.06737383 -0.08600758 0.060886066 0.15182763 0.05150689 -0.007881294
-0.08514979 -0.07034756 -0.07704131 -0.034392383 -0.12594223 -0.11045002 0.06817869 -0.023508219
0.081977144 -0.06263843 -0.02369563 -0.064581096 -0.16017514 0.033696108 -0.047301184 -0.07482163
0.107877046 0.0967804 0.013644328 -0.013361459 -0.036241267 0.06738211 0.034128834 -0.1440545
-0.027028354 -0.10604148 -0.07706021 -0.033191524 -0.047996562 -0.055216815 -0.0616579 -0.056067124
-0.05488076 0.08101446 -0.014512411 0.11138764 -0.075354315 -0.07470275 0.1310931 0.04485748
00000000: d23c 56bd 49cb 55bd a9fe 363d 59ac 283d
00000010: 70e4 dabc 8e30 103e 90c4 003e 3fb7 2f3c
00000020: 00ca 833d 483e c0bd 9abd 2fbd 7858 8dbd
00000030: c190 f93d ef95 e03d 75b2 113d ce8e 8dbd
00000040: d789 933d 1ae4 303c a35a afbd f156 423d
00000050: 6a3a 8cbc cff5 113e 7146 86bd a068 3a3e
00000060: d529 e33d bbc7 42bd 2e0d 0abe 5c9d e93d
00000070: d1a2 bd3d 0a8e 99bd 379d 103d 0446 70bd
00000080: f587 f2bc b55f b6bd c27b f4bd 906e d73d
00000090: 1c47 dabd 7ecb 043e 8c0f babc 6d7b a63d
000000a0: 52b4 84b9 229f f4bd f2e0 03bd 3ff7 debd
000000b0: 5d75 a6bd 779b 763c 19b2 0d3e b2fd 89bd
000000c0: 298e e13c 9b9f 13be 68e2 55bd 21e1 c63d
000000d0: 5dad 123e 6123 b23d 6100 5c3d 892a 9f3d
000000e0: 83df bbbd 7bce 8cbd fdfa cbbc e159 293c
000000f0: bfaf 2f3d cf9b 043e 003e 9abd ef13 f9ba
00000100: e500 a93d f9c2 ad3d 499c acbd e370 4abd
00000110: c9ad ae3d a88c 22bc 64a8 0bbb 8df5 65bd
00000120: 0952 80bc 9735 cd3d d0dc 743c 6c1a 3abe
00000130: c7b7 4ebb a64d 13bd 0558 a2bd 7803 c7bd
00000140: 4b0c 613e fd67 193c 9cde 0e3d 08c8 233d
00000150: e2d0 8cbd 6073 eb3c 3174 a43d 8647 253e
00000160: b2e9 36bd 44d8 a1bd 044b 68bd 138e cabc
00000170: ce5b b03d ee29 c5bd 64d7 783d 52ae 963d
00000180: 30c5 01be 537b e6bc 6e49 a9bd 627b 4dbd
00000190: 58aa 0dbe a389 e73d cd41 c93c a472 6dbd
000001a0: 6420 ee3d 51ca c33d 6ff7 6abd 6adc 9fbc
000001b0: 343a 17be d045 233d 105f cf3d 242d 15bd
000001c0: 7999 cc3d 45c1 9c3d e017 173d 5972 793d
000001d0: 0150 a7bd c067 debd 56d0 e23d 46a5 733d
000001e0: 7c65 7c3a 44c9 d23c 34ec 8bbd 385d d03c
000001f0: 4e32 bcbd 9982 22bd 0e78 95bc ae8e 043e
00000200: 0250 8e3d bf3d 95bd 2cdd 703b 9573 cdbd
00000210: efa6 a33d d01a 07bb c393 1b3d 6743 183c
00000220: 90fe 8dbd 768c 44bd 8c13 5e3c 9ccb 763d
00000230: aa76 b1bc 25e1 953d c190 5a3d bd5f 21bd
00000240: 1d0c 183e dbc9 e2bd 21db 523d a816 b43c
00000250: f0b0 043d d293 2ebb e51b 913d 90b5 df3d
00000260: e17e 103c 5357 83bd d525 b93d 7604 b5bd
00000270: 9b56 043e 2e2f 53be 3140 883d 111a c8bc
00000280: d4b1 eb3d 731e 933d d603 2f3d 6180 143d
00000290: 6f43 933d 58c7 8f3d f281 813d bdc3 c9bd
000002a0: 3c4e 09be c695 a83d f5d5 34bd c2aa 88bd
000002b0: 460e fa3d c779 d03d 379b 803d 6b16 56bd
000002c0: 73b2 2cbd 5951 16bd 602a 263e b9bf 623d
000002d0: 2477 3dbd 865b d5bc 4e23 013b ca8a dd3d
000002e0: 400d 943c 2529 083e fb49 853d 464d 013d
000002f0: 0926 11be 343e adbd d412 9a3d a47d e4bd
00000300: e6f1 1f3d 3a70 90bd 17c3 cebd 8c47 74bd
00000310: ed66 9bbd f31c 193e 8cf9 fa3d 11c4 d1bc
00000320: 12f7 17be 5cb5 b33c 8d46 6c3a f445 c4bb
00000330: ecd2 1bbd a929 c4bd 0df7 8d3d 1d87 a0bd
00000340: e8a1 913d 8c1f 01bd 4afb 89bd be24 b0bd
00000350: ab63 793d b478 1b3e e4f8 523d 8b20 01bc
00000360: 0363 aebd 6212 90bd d6c7 9dbd 07df 0cbd
00000370: 00f7 00be 9f33 e2bd 45a1 8b3d 4f94 c0bc
00000380: a2e3 a73d 9448 80bd 561d c2bc 1843 84bd
00000390: f404 24be ee04 0a3d e3be 41bd 153c 99bd
000003a0: a4ee dc3d cd34 c63d 768c 5f3c 05ea 5abc
000003b0: b971 14bd a2ff 893d adca 0b3d 0683 13be
000003c0: 916a ddbc 472c d9bd bed1 9dbd d6f3 07bd
000003d0: 0b98 44bd 072b 62bd ff8c 7cbd a4a6 65bd
000003e0: a6ca 60bd e9ea a53d 77c5 6dbc 341f e43d
000003f0: 5d53 9abd c1fd 98bd 453d 063e 7abc 373d
