16 - Recurrent Neural Network/model/gru/weights_best.pth (torch, 255035 bytes, 13 tensors)

rnn.weight_ih_l0 f4 [192, 1]
0	0x3ddb779a	0.107161716
1	0x3e2f810b	0.1713907
2	0xbdfa1013	-0.12210097
3	0x3e4dad98	0.20085752
4	0xbd22c837	-0.03974172
5	0xbdaa9b9e	-0.08330463
6	0x3d848c89	0.064721175
7	0x3ddb40ad	0.10705695
8	0x3e1c0939	0.15237893
9	0xbcdf54da	-0.02726214
10	0x3da8879f	0.08228993
11	0x3e4b8f8e	0.1987898
12	0x3c963cc5	0.018339524
13	0x3daaa63c	0.08332488
14	0xbd9cdcb5	-0.07659284
15	0xbde6277e	-0.11238001
16	0x3e283a6c	0.16428536
17	0xbcf965a1	-0.030443968
18	0x3e0ba1bc	0.13635916
19	0x3d61cac6	0.05512502
20	0xbd95ca5b	-0.07313987
21	0xbdd75c7d	-0.105156876
22	0xbe0f108d	-0.13971157
23	0x3ab3d089	0.0013718765
24	0x3dac9d23	0.08428409
25	0xbdade27e	-0.084904656
26	0xbd2e7dc4	-0.04260041
27	0xbd4e8f2d	-0.05042951
28	0xbc142c33	-0.009043741
29	0xbcf7ce90	-0.030249864
30	0x3e24dab0	0.16099048
31	0x3d279d23	0.04092134
32	0xbdd58ce2	-0.10427262
33	0xbd4a795b	-0.04943214
34	0xbd0480a6	-0.03234925
35	0xbdb02613	-0.08601012
36	0xbde0faee	-0.10985361
37	0xbe028fe5	-0.12750204
38	0x3e01f8e2	0.12692598
39	0xbd9b1035	-0.075714506
40	0x3d66af02	0.056319244
41	0xbdbe52da	-0.092931464
42	0x3e1fe6da	0.15615407
43	0xbd5b6f16	-0.053572737
44	0xbdd5c0b8	-0.10437149
45	0x3d6230ef	0.055222448
46	0x3d5f139f	0.05446207
47	0x3e241544	0.16023737
48	0xbd5b116d	-0.053483415
49	0xbc31a1f9	-0.01084184
50	0xbdd5351f	-0.10410523
51	0xba91364a	-0.0011078801
52	0x3e4b5797	0.19857632
53	0x3c5de498	0.0135432705
54	0x3d8e77f0	0.0695647
55	0xbcd2797e	-0.025692698
56	0xbce09b4f	-0.027417807
57	0xbd9f6630	-0.077831626
58	0x3dd1cce4	0.10244158
59	0x3d5d6c39	0.054058287
60	0x3e675b9a	0.22593537
61	0xbd225229	-0.039629135
62	0x3dbcebec	0.09224686
63	0x3b4e2880	0.0031457245
64	0xbe0a5a15	-0.13510926
65	0xbe272182	-0.16321376
66	0xbd89f452	-0.067360535
67	0xbe65ceba	-0.22442141
68	0xbe209fb6	-0.15685925
69	0xbeba1dfa	-0.36350995
70	0x3d062f3e	0.032759897
71	0xbe0a118d	-0.13483258
72	0xbde6d155	-0.11270396
73	0xbd981753	-0.07426324
74	0x3dc7cbc9	0.09755666
75	0xbc935cc3	-0.017988568
76	0xbe49a03a	-0.19690028
77	0x3d885407	0.06656652
78	0xbda5c5db	-0.080943786
79	0xbd9b7ed0	-0.07592547
80	0xbc49924d	-0.012302947
81	0xbdbf7fa8	-0.0935052
82	0xbc8e2bc8	-0.01735486
83	0xbdfafbef	-0.12255084
84	0xbd0d691b	-0.034524065
85	0x3cbca6d5	0.02302877
86	0x3d889379	0.06668753
87	0xbd85c35c	-0.065314025
88	0xbdc13bb7	-0.09435218
89	0x3da02296	0.07819097
90	0xbd2fd834	-0.042930797
91	0xbde7ade5	-0.113124646
92	0xbdbeb7a8	-0.093123734
93	0xbdd9a4ae	-0.10627113
94	0x3dc3d85d	0.095627524
95	0xbbe341e5	-0.0069353455
96	0x3c981c36	0.01856814
97	0xbda48cdf	-0.080346815
98	0xbd23963c	-0.039938197
99	0xbd86b832	-0.06578101
100	0xbd7c8d49	-0.061658178
101	0xbd30e68a	-0.04318861
102	0xbdaa204f	-0.083069436
103	0xbd2ab0b5	-0.041672427
104	0xbd3369a7	-0.04380193
105	0xbd91d680	-0.07120991
106	0x3a9a1a5d	0.0011757124
107	0xbd01b61a	-0.031667806
108	0x3cf23dc7	0.029570473
109	0xbea2f5c1	-0.3182812
110	0xbde3f815	-0.11131302
111	0xbdd5c560	-0.10438037
112	0xbdb2d577	-0.087321214
113	0xbc37d8a8	-0.0112210885
114	0xbd82a20e	-0.06378566
115	0xbcfb5ef2	-0.030684922
116	0xbdf9506f	-0.121735446
117	0xbd5cb318	-0.053881735
118	0xbd9c0049	-0.07617242
119	0xbd77cc52	-0.06049759
120	0xbdb416ee	-0.08793436
121	0xbd5be9cd	-0.053689767
122	0xbe857a6c	-0.26069963
123	0xbd2393bb	-0.03993581
124	0xbdcf1538	-0.10111469
125	0xbdfde63e	-0.12397431
126	0xbe09b232	-0.13446882
127	0xbc75d106	-0.015003448
128	0x3aa7eb45	0.0012811205
129	0xbd2c4a2b	-0.04206292
130	0x3d6baa46	0.057535432
131	0x3cb6ca42	0.02231324
132	0x3d2e473b	0.0425484
133	0xbd91c1da	-0.071170524
134	0xbcbdc05d	-0.023163015
135	0xbd1219e7	-0.035669234
136	0x3d843963	0.06456258
137	0x3d5ebf1e	0.054381482
138	0x3c40b1e3	0.0117611615
139	0x3d9bf822	0.07615687
140	0xbca0879b	-0.019595912
141	0x3d26a2a4	0.04068245
142	0xbd2436c9	-0.04009131
143	0xbd7f49bb	-0.062326174
144	0x3d897923	0.06712558
145	0x3d7724d9	0.060337875
146	0x3d800fbd	0.06253002
147	0x3cc9d259	0.024636434
148	0x3e3b8042	0.18310645
149	0xbd8a0861	-0.067398794
150	0x3dad4af4	0.08461562
151	0x3d4198b3	0.047264766
152	0xbd4e1ddb	-0.05032144
153	0xbd699551	-0.057027165
154	0xbd6cbe62	-0.05779875
155	0xbd7497f6	-0.059715234
156	0x3d91e963	0.07124593
157	0xbd79eea9	-0.06101862
158	0x3dc80fb4	0.0976862
159	0x3ce75bb0	0.028241962
160	0x3d9ffb77	0.07811635
161	0x3d62bfca	0.055358686
162	0x3e0903a4	0.13380295
163	0x3d6558ec	0.055993006
164	0xbd809837	-0.06279033
165	0x3d552c3a	0.05204413
166	0xbd5c7189	-0.053819213
167	0x3d9f4120	0.077760935
168	0x3d87d982	0.06633283
169	0xbd9718d0	-0.073777795
170	0x3db6880b	0.08912667
171	0xbdc9b472	-0.0984887
172	0x3d371555	0.04469808
173	0xbd94c396	-0.072638676
174	0x3e28527b	0.16437714
175	0xbd030b12	-0.03199298
176	0xbd63be2d	-0.055601288
177	0xbd9457b4	-0.072432905
178	0x3d961fec	0.07330307
179	0xbd80026e	-0.062504634
180	0xbd4121ef	-0.047151502
181	0x3d72821f	0.059206124
182	0x3d180a44	0.037119165
183	0x3d9a4d79	0.07534308
184	0x3d40fc4d	0.047115613
185	0xbd673d51	-0.05645496
186	0x3dff2342	0.12457897
187	0x3ce16fad	0.027519071
188	0x3da25345	0.07926039
189	0x3d47c0ca	0.048767842
190	0xbd0a8572	-0.03381867
191	0x3d9c8d04	0.07644084

rnn.weight_hh_l0 f4 [192, 64]
0	0xbcde2f1e	-0.027122077
1	0x3e17c0f3	0.14819698
2	0x3d513b86	0.051082157
3	0xbe52269b	-0.2052254
4	0x3db573c1	0.08859969
5	0xbe7e0cf9	-0.24809636
6	0x3d5b52c9	0.053545747
7	0xbe186fed	-0.14886446
8	0x3e22b310	0.1588862
9	0x3d754445	0.05987956
10	0x3ddade9a	0.10686989
11	0x3dc3dfcf	0.095641725
12	0xbdb91b54	-0.090384156
13	0x3dc9a4ef	0.09845912
14	0x3e220db7	0.15825544
15	0xbdb3f34f	-0.08786642
16	0x3dd37aaf	0.103261344
17	0xbd4b4f0a	-0.049635924
18	0x3e4c298f	0.19937728
19	0xbdde9be9	-0.10869581
20	0x3d817be2	0.06322457
21	0xbddbac95	-0.10726277
22	0x3e3c3ba4	0.18382126
23	0x3d5d0451	0.053959195
24	0xbda7c06e	-0.08191
25	0x3d200b5b	0.03907333
26	0xbdac9225	-0.08426312
27	0xbdde9fb3	-0.10870304
28	0x3d5082ab	0.050905865
29	0xbd8d3b89	-0.06896121
30	0x3d8c3acd	0.06847153
31	0x3e400119	0.18750419
32	0x3c8b549c	0.017008118
33	0x3e2c4097	0.16821514
34	0x3aa8b84c	0.0012872308
35	0x3e4434e1	0.19160797
36	0xbdf67f50	-0.12036002
37	0x3c8e34c6	0.017359149
38	0xbc27cf5c	-0.010242309
39	0x3dbeb396	0.09311597
40	0x3e2accb9	0.16679658
41	0x3d8c4d94	0.06850734
42	0x3ce6f8e9	0.028194861
43	0xbde1a68c	-0.110180944
44	0x3e400751	0.18752791
45	0xbda7617e	-0.08172892
46	0x3dbfea8c	0.09370908
47	0x3cd1a4f7	0.025591357
48	0xbd654508	-0.055974036
49	0xbe09e526	-0.1346632
50	0x3dff4337	0.12463992
51	0xbdb0b885	-0.08628944
52	0xbb5fd5ca	-0.0034154528
53	0x3e26be13	0.16283445
54	0x3e310f30	0.1729095
55	0x3e01c9cc	0.12674636
56	0x3e33d10d	0.17560215
57	0x3c484597	0.012223623
58	0x3e5f21b7	0.21790205
59	0x3d21e4f7	0.039525
60	0x3ca1cc5d	0.019750768
61	0x3d8dbc21	0.06920648
62	0x3dd14d23	0.10219791
63	0x3ca77a11	0.020443948
64	0x3df5c7e5	0.120010175
65	0x3d84b94d	0.06480656
66	0x3dc0dfff	0.09417724
67	0xbbbbbf15	-0.005729566
68	0x3e39e200	0.18152618
69	0xbe472ef7	-0.1945151
70	0x3cb35acd	0.021893883
71	0xbe4988d0	-0.19681096
72	0x3e1042d4	0.14087993
73	0x3c349b91	0.011023418
74	0xbd6d2f18	-0.05790624
75	0x3c552bc6	0.013010925
76	0x3d735246	0.059404634
77	0x3da95906	0.08268933
78	0xbe0f2773	-0.13979892
79	0xbd16156b	-0.03664152
80	0x3e2bdba5	0.16783006
81	0x3e09b36e	0.13447353
82	0x3b9529e2	0.004552112
83	0x3d967a2a	0.0734752
84	0x3d045e78	0.032316655
85	0xbdcc70d8	-0.09982461
86	0xbbe6f839	-0.0070486334
87	0x3d0d68a4	0.03452362
88	0xbe5c7101	-0.21527483
89	0xbe09f8b8	-0.13473785
90	0xbd5b15e5	-0.053487677
91	0xbd858c2a	-0.06520875
92	0x3d628900	0.055306435
93	0xbe00fbd9	-0.12596072
94	0x3d047183	0.032334816
95	0xbd12d044	-0.03584315
96	0x3cb0c856	0.021579903
97	0x3e6022e1	0.21888305
98	0x3b822802	0.0039720545
99	0x3e45ea3e	0.19327638
100	0xbc82efed	-0.015983546
101	0x3dc2a95b	0.09504958
102	0x3ba2dc8a	0.004970138
103	0x3d8ee995	0.06978146
104	0x3dfb85b7	0.122813635
105	0x3cedfed6	0.02905218
106	0x3df9042f	0.12159001
107	0xbe15d5a5	-0.1463228
108	0x3aee62ff	0.0018187462
109	0xbe1b0d96	-0.15141901
110	0x3e2898f9	0.16464604
111	0xbd40ac84	-0.047039524
112	0x3c0b0259	0.008484446
113	0xbdaa33fa	-0.08310695
114	0x3e3871f5	0.18012221
115	0xbe190b46	-0.14945707
116	0xbb8eb910	-0.0043555573
117	0x3e22cad0	0.1589768
118	0x3de929f3	0.11384954
119	0x3ca174fb	0.019709101
120	0xbd09d7b1	-0.033652965
121	0xbe44ebc8	-0.19230568
122	0x3e633f82	0.22192195
123	0x3e44cf29	0.1921965
124	0xbd878e00	-0.06618881
125	0x3de756e7	0.11295872
126	0x3d0bb35c	0.034106597
127	0x3e160531	0.14650418
128	0x3d879766	0.06620674
129	0x3c8f32bc	0.017480247
130	0xbd255982	-0.040368564
131	0x3d17fc9a	0.037106134
132	0x3dc95fc4	0.09832719
133	0xbdeee643	-0.11665013
134	0x3de6054d	0.1123148
135	0xbe23511e	-0.15948913
136	0x3dd47939	0.10374684
137	0xbdb22631	-0.08698691
138	0x3c026cd3	0.007960516
139	0xbe4eb696	-0.20186839
140	0x3d3a7185	0.045518417
141	0x3d2e159c	0.042501077
142	0x3c9f02f9	0.019410597
143	0xbd1e17b4	-0.038596824
144	0x3df67816	0.12034623
145	0x3d9332c4	0.07187417
146	0xbe2bce95	-0.16778024
147	0xbadb415c	-0.0016727853
148	0x3dc66153	0.09686532
149	0x3c85b62c	0.016322218
150	0xbda1a65e	-0.0789306
151	0xbd4340f9	-0.047669385
152	0x3df4e0b6	0.11956923
153	0x3d8860de	0.06659101
154	0xbd7587d0	-0.059943974
155	0xbdccd4f6	-0.100015566
156	0x3da90721	0.08253313
157	0x3d911b18	0.07085246
158	0x3dc76352	0.09735741
159	0xbdb545fe	-0.088512406
160	0x3c1f9a73	0.009741413
161	0x3e0000ef	0.12500356
162	0x3de64706	0.112440154
163	0x3c703c9d	0.014662889
164	0x3da0f525	0.078592576
165	0xbd26f794	-0.040763453
166	0x3e063685	0.13106735
167	0x3d3cb9d3	0.046075653
168	0x3de1869d	0.110120036
169	0xbe140283	-0.14454083
170	0x3d5a1232	0.05324001
171	0xbde8b941	-0.113634594
172	0xbd83ba4a	-0.06432016
173	0xbe008e5f	-0.1255431
174	0xbcdd47e1	-0.027011814
175	0x3db56cb8	0.08858627
176	0xbd84cef9	-0.064847894
177	0xbd874906	-0.06605725
178	0x3d58d8c6	0.052941106
179	0xbdb360f5	-0.087587275
180	0x3a11a7a0	0.0005556289
181	0x3dde9fe5	0.10870341
182	0xbd881139	-0.0664391
183	0x3d9b25a2	0.07575537
184	0x3d08ae66	0.033369444
185	0x3d54f9a4	0.05199589
186	0x3e199e67	0.15001832
187	0x3d67fe76	0.056639157
188	0xbd966693	-0.07343783
189	0x3c4bb565	0.012433385
190	0xbd6d5907	-0.05794623
191	0x3dd308af	0.10304391
192	0xbe25990e	-0.16171667
193	0xbd6ec17c	-0.05828999
194	0x3e259e10	0.16173577
195	0xbd19337f	-0.037402626
196	0x3e322915	0.17398484
197	0xbdc23489	-0.094826765
198	0x3cc05579	0.023478257
199	0xbe020bee	-0.12699863
200	0x3dde214a	0.10846193
201	0x3e0ce6c6	0.13759908
202	0xbe02f73a	-0.12789622
203	0x3e3725b0	0.1788547
204	0x3dd50e5a	0.10403128
205	0x3dfa4570	0.122202754
206	0xbe507766	-0.20358047
207	0xbdb57282	-0.08859731
208	0x3c6877e7	0.014188743
209	0x3b9990c5	0.0046864473
210	0x3e16b4b0	0.14717364
211	0x3d5fe7fb	0.054664593
212	0x3dc1b18a	0.09457691
213	0xbd5a3985	-0.05327751
214	0x3e11fa46	0.14255628
215	0x3d86634f	0.0656191
216	0xbe61c9f5	-0.22049697
217	0xbe43021e	-0.19043776
218	0xbe3e29b3	-0.18570594
219	0xbc3a3e83	-0.011367443
220	0x3e32f0f7	0.17474733
221	0xbe561614	-0.2090686
222	0x3e07d816	0.13266024
223	0x3d5aac75	0.053387124
224	0x3b67e909	0.0035386703
225	0x3e3cd984	0.1844235
226	0x3c8f0a80	0.017461061
227	0x3e2f4515	0.17116196
228	0xbd818915	-0.063249744
229	0x3e1fbfc2	0.15600494
230	0xbdb43cf1	-0.08800686
231	0x3e2467b1	0.1605518
232	0x3d86bb0b	0.06578644
233	0xbda1538f	-0.07877266
234	0xbd0a4ab6	-0.033762656
235	0xbd84ff95	-0.06494061
236	0xbd393da6	-0.04522481
237	0xbd203be5	-0.03911962
238	0x3d8dc4db	0.06922313
239	0x3c839382	0.016061548
240	0xbd8e7b76	-0.06957142
241	0xbe52e759	-0.20596065
242	0x3da83436	0.082130834
243	0xbc537d8a	-0.012908349
244	0xbd1df32a	-0.038561977
245	0x3da15657	0.07877796
246	0x3e1c8173	0.15283756
247	0xbd0e0012	-0.034668036
248	0xbd03012a	-0.031983532
249	0x3b895dab	0.0041920743
250	0x3e545520	0.20735598
251	0x3e32bb79	0.17454328
252	0x3c99421f	0.018708287
253	0x3dd96e7e	0.10616778
254	0x3c332185	0.010933285
255	0x3c05a872	0.008157836

rnn.bias_ih_l0 f4 [192]
0	0x3e374e71	0.17901017
1	0x3e2a84cb	0.16652219
2	0x3cd54f7d	0.02603888
3	0x3df63367	0.12021523
4	0x3d025622	0.031820424
5	0x3e4298d6	0.19003615
6	0x3e84fefe	0.25975794
7	0xbe18849b	-0.14894335
8	0x3b0741ed	0.002063866
9	0xbd00c36f	-0.03143638
10	0xbdb2d917	-0.08732813
11	0x3e03ac1b	0.12858622
12	0x3da0cf43	0.07852032
13	0xbd8fc05a	-0.0701911
14	0x3d06f28a	0.032946147
15	0x3e201148	0.15631592
16	0xbd8aa90a	-0.06770523
17	0x3dda6fe6	0.10665874
18	0x3db395a2	0.087687746
19	0x3b048292	0.0020219428
20	0x3dda76f8	0.10667223
21	0xbc943e9c	-0.01809626
22	0xbda42ee8	-0.08016759
23	0xbdad0caf	-0.08449685
24	0xbdf61eb3	-0.12017574
25	0x3d648e79	0.055799935
26	0x3c8e2700	0.017352581
27	0x3e480c6a	0.19535986
28	0x3e1f7ccd	0.15574951
29	0x3d9f7e1b	0.077877246
30	0x3d40fa96	0.047113977
31	0x3cf07640	0.029353261
32	0x3d59219e	0.053010575
33	0xbd965007	-0.07339483
34	0x3db1a9c5	0.08674959
35	0x3dbe6155	0.09295908
36	0x3e08dd49	0.13365664
37	0xbd23bc3f	-0.039974447
38	0x3e25f310	0.16206002
39	0x3cfb114c	0.030647896
40	0x3dff6938	0.12471241
41	0x3e5222d0	0.20521092
42	0x3b541e7d	0.0032366805
43	0x3e29e2d8	0.1659044
44	0x3c94094b	0.018070837
45	0x3e75c42e	0.24000618
46	0x3e013850	0.12619138
47	0x3d87aef3	0.06625166
48	0xbc90cc31	-0.017675491
49	0x3d5622e0	0.052279353
50	0x3e89592e	0.2682585
51	0xbd1cb217	-0.038255777
52	0xbd401869	-0.04689828
53	0x3dd5ea52	0.10445084
54	0xbc71dc06	-0.01476193
55	0xbdbb94f6	-0.091592714
56	0x3d6bc63e	0.057562105
57	0xbd1c3325	-0.038134713
58	0x3d9dc401	0.077034004
59	0xbdc97002	-0.09835817
60	0x3ea3e8e2	0.32013613
61	0x3d982149	0.07428224
62	0x3e175891	0.14779879
63	0x3c26f663	0.010190579
64	0xbe581c07	-0.21104442
65	0x3db4d8f0	0.0883044
66	0x3e171435	0.14753802
67	0x3c595bc9	0.013266512
68	0xbdaf1f78	-0.08550924
69	0xbe7a1fe9	-0.24426235
70	0xbd80f002	-0.06295778
71	0xbd31e622	-0.043432362
72	0xbacf6669	-0.0015823367
73	0xbe18372b	-0.14864795
74	0x3ca401d6	0.020020407
75	0xbdc5ba5c	-0.09654686
76	0xbdeb24d6	-0.11481635
77	0xbdc4a219	-0.0960123
78	0x3d5a259a	0.053258516
79	0x3e4d5833	0.20053177
80	0xbdc944d3	-0.0982758
81	0xbbf3f34b	-0.0074447743
82	0xbdaf3020	-0.08554101
83	0xbd05d7ca	-0.032676496
84	0xbc8733a4	-0.016504116
85	0xbd82f747	-0.06394821
86	0xbc930c2f	-0.017950146
87	0xbda56351	-0.08075584
88	0xbdab45ee	-0.083629474
89	0xbe00170a	-0.12508789
90	0xbd547511	-0.051869456
91	0xbda18f8e	-0.07888709
92	0x3dca27b9	0.09870858
93	0x3dd79454	0.10526338
94	0x3bf93a46	0.0076058237
95	0xbd5bd422	-0.053669102
96	0xbde3b25f	-0.11118006
97	0xbb82d943	-0.003993185
98	0xbe03e1ec	-0.12879151
99	0x3d760f44	0.060073152
100	0x3db40bc0	0.08791304
101	0xbe3f56ad	-0.18685408
102	0x3dfa90b4	0.12234631
103	0x3dbb3aab	0.091420494
104	0xbdbe34d6	-0.092874214
105	0xbca4fba4	-0.020139523
106	0xbe2b1c1a	-0.16709939
107	0xbe13c0e3	-0.14429049
108	0xbd3f7448	-0.046741754
109	0xbd983611	-0.07432187
110	0xbd9d40f2	-0.07678403
111	0xbe47c97f	-0.19510458
112	0x3ded123d	0.11575744
113	0x39e62272	0.00043894682
114	0xbdfe335c	-0.1241214
115	0xbe2ed106	-0.17071924
116	0x3e2c502c	0.16827458
117	0xbdca0e80	-0.09866047
118	0x3d4a69fe	0.04941749
119	0xbe17438a	-0.14771858
120	0x3d1a2b0c	0.03763871
121	0xbe1678b9	-0.1469449
122	0xbe7c0537	-0.24611364
123	0x3d66cfa2	0.056350358
124	0x3e7a43fe	0.2444
125	0x3c9ad902	0.018902306
126	0x3d23aaa3	0.039957654
127	0x3d954b8d	0.07289801
128	0x3e5458c0	0.2073698
129	0x3e2a8541	0.16652395
130	0xbd512ba1	-0.051067
131	0xbdd4b3e1	-0.10385872
132	0x3e2bf896	0.16794047
133	0xbdda43c1	-0.10657454
134	0x3e8275f3	0.25480613
135	0xbddeef49	-0.10885484
136	0xbdc4c97f	-0.09608745
137	0xbe52eba2	-0.205977
138	0x3df3c5a6	0.11902933
139	0xbd9a5a9e	-0.07536815
140	0x3db30806	0.08741765
141	0x3dad9fb0	0.084777236
142	0x3b239c3f	0.0024964956
143	0x3dbbd4c8	0.09171444
144	0xbd8bbe3e	-0.06823395
145	0xbd40bd5c	-0.047055587
146	0xbda9c4aa	-0.08289464
147	0xbddca6e6	-0.10774021
148	0x3c42ef11	0.011897818
149	0x3da0a458	0.07843846
150	0xbe0e6960	-0.13907385
151	0xbde767ca	-0.11299093
152	0x3e206f91	0.15667559
153	0x3d9eee95	0.0776035
154	0x3de0d80b	0.10978707
155	0x3db3896e	0.08766447
156	0xbe0013e3	-0.12507586
157	0x3e5c67b0	0.21523929
158	0x3e017122	0.12640813
159	0xbd74b684	-0.059744373
160	0x3e0a58d8	0.13510454
161	0x3db4b2f9	0.08823199
162	0x3d34f735	0.044181067
163	0xbab83c8a	-0.0014056128
164	0xbd2734ed	-0.04082196
165	0x3e1ccc5a	0.15312329
166	0x3d99e55f	0.07514452
167	0xbe00cd81	-0.12578394
168	0xbe01cf4d	-0.12676735
169	0x3e19341a	0.14961281
170	0x3e15e654	0.14638644
171	0x3dd4c4d9	0.10389108
172	0xbdc7f588	-0.09763628
173	0xbdfb99d5	-0.122852005
174	0x3deae3a9	0.11469204
175	0x3e0902dc	0.13379997
176	0x3cdb1546	0.026743542
177	0x3e49ef85	0.19720276
178	0xbde9b075	-0.1141061
179	0x3e235016	0.15948519
180	0x3e25a8d9	0.16177692
181	0x3e01c714	0.12673599
182	0x3cc2a098	0.023758218
183	0x3d44390d	0.04790597
184	0xbd56bbc7	-0.052425172
185	0x3d69c316	0.057070814
186	0x3e1da77d	0.15395923
187	0x3d9f837c	0.077887505
188	0xbe3eabf3	-0.18620281
189	0xbe31c353	-0.17359667
190	0x3e6e519f	0.23273323
191	0x3dd41d5f	0.103571646

rnn.bias_hh_l0 f4 [192]
0	0xbcb3a95c	-0.021931343
1	0x3e173589	0.14766516
2	0x3d17c795	0.03705557
3	0xbcfb90a3	-0.030708617
4	0xbd951550	-0.07279456
5	0x3e4ba891	0.19888522
6	0x3e958527	0.2920315
7	0xbdd0abaa	-0.10188992
8	0x3e08c74f	0.1335728
9	0x3c4b45fa	0.01240682
10	0xbdc8045f	-0.09766459
11	0xbcd4eb42	-0.025991086
12	0x3e08f7d2	0.13375786
13	0xbdc3c1e8	-0.09558469
14	0x3cb18c2b	0.021673283
15	0x3e426f16	0.18987688
16	0x3cb4c307	0.022065653
17	0xbda119d4	-0.078662544
18	0xbdff205c	-0.12457344
19	0xbdabdd5a	-0.08391829
20	0xbdd91ab4	-0.10600796
21	0x3ce35630	0.027751058
22	0x3d9003f4	0.07032004
23	0xbe2e258e	-0.17006513
24	0x3ca20dd2	0.01978198
25	0x3dcbb213	0.09946074
26	0x3ded39e5	0.11583308
27	0xbc86a182	-0.016434435
28	0xbd288488	-0.041142017
29	0xbdc70841	-0.09718371
30	0xbd8147da	-0.06312533
31	0xbda3a230	-0.07989919
32	0xbd847724	-0.06468037
33	0xbdd79e5e	-0.10528253
34	0x3e07d735	0.13265689
35	0x3b9661c3	0.004589291
36	0xbd1dfa1d	-0.038568605
37	0x3dd3b36e	0.10336958
38	0x3c912900	0.017719746
39	0xbc111732	-0.008855628
40	0xbd7c19ab	-0.061547916
41	0x3e5be8e4	0.2147556
42	0x3d46b405	0.048511524
43	0x3d022fbd	0.031783808
44	0x3bc2dc4e	0.0059466725
45	0x3e082704	0.13296133
46	0xbd7b299c	-0.06131898
47	0x3e824d25	0.25449482
48	0xbddda8e2	-0.108232275
49	0x3ce74144	0.028229363
50	0x3e588399	0.2114395
51	0xbb9d1801	-0.0047941213
52	0x3dc99da7	0.09844523
53	0x3d86af45	0.06576399
54	0x3c960d1a	0.018316794
55	0x3d69feb2	0.057127662
56	0xbdceaa18	-0.100910366
57	0x3e3799b5	0.17929728
58	0x3e041607	0.12899028
59	0x3db91cd4	0.09038702
60	0x3e833fdb	0.25634655
61	0x3d2a5da3	0.041593205
62	0x3cf63ab0	0.030057281
63	0xbe0f3a70	-0.13987136
64	0x3c3d69ee	0.0115609
65	0x3e60c148	0.21948731
66	0x3a81c590	0.0009900797
67	0xbcb646b4	-0.02225051
68	0xbd8e5d07	-0.06951337
69	0xbe3fa8a2	-0.18716672
70	0xbd7c0335	-0.061526496
71	0xbd64ce36	-0.05586072
72	0x3dbde38b	0.09271916
73	0x3c2ce8eb	0.010553579
74	0x3c217e01	0.009856702
75	0xbd9c299c	-0.07625124
76	0x3c106ca0	0.008814961
77	0xbd5c5cf1	-0.053799573
78	0x3ddf4770	0.109022975
79	0x3dcaa4ca	0.09894712
80	0x3d853eb9	0.06506104
81	0x3dc242ae	0.094853744
82	0xbc92c04d	-0.017913962
83	0xbdbda3b3	-0.09259739
84	0xbce32d2b	-0.027731499
85	0xbdd9d141	-0.10635615
86	0x3b019111	0.0019770304
87	0xbd9a06de	-0.07520841
88	0x3dbee83c	0.09321639
89	0x3d059260	0.032610297
90	0x3d777168	0.060410887
91	0x3ba1670a	0.0049256133
92	0xbd9d4508	-0.07679182
93	0x3cca16fd	0.024669165
94	0x3c41d3d1	0.011830286
95	0xbdbd8bef	-0.09255206
96	0xbe048d27	-0.1294447
97	0x3d3ffa11	0.04686934
98	0x3bb929fd	0.0056507573
99	0xbdb40528	-0.08790046
100	0xbdc81a0e	-0.097705945
101	0xbe53bdcc	-0.2067787
102	0x3dccf571	0.10007752
103	0x3cd4ee5e	0.025992569
104	0x3da45107	0.08023267
105	0x3d885d24	0.0665839
106	0xbe233a25	-0.15940149
107	0x3d0012e4	0.031268016
108	0xbd8652bc	-0.06558749
109	0xbdd7146e	-0.105019435
110	0xbe819092	-0.2530561
111	0xbe2890da	-0.16461506
112	0xbca08ca4	-0.019598313
113	0xbe0c87aa	-0.13723627
114	0x3d837dd3	0.064204834
115	0x3c8f6970	0.017506331
116	0x3d61f64c	0.055166528
117	0xbdcab284	-0.098973304
118	0xbd9c1a71	-0.07622231
119	0x3bb1c901	0.005425573
120	0x3e09eaf7	0.13468538
121	0x3daf8c5f	0.085716955
122	0xbdc9e1bc	-0.098575085
123	0x3ab50d36	0.0013813141
124	0x3e82b521	0.25528815
125	0x3e321031	0.17388989
126	0x3d9da881	0.07698155
127	0x3d6b34de	0.057423465
128	0x3d3da06e	0.046295576
129	0x3e3fa9d0	0.18717122
130	0xbe566d99	-0.20940246
131	0xbb8325a9	-0.004002292
132	0xbcc84f12	-0.024451766
133	0xbcb726cf	-0.022357373
134	0x3e9950f7	0.29944584
135	0xbd943977	-0.07237523
136	0xbd98d3c8	-0.07462269
137	0xbe0ce934	-0.13760835
138	0x3da5a73d	0.08088539
139	0xbe3f227c	-0.18665498
140	0x3e89eb45	0.2693731
141	0x3b279d7d	0.0025576048
142	0x3e5cf7e4	0.21578938
143	0x3da2b944	0.07945493
144	0x3d212cbe	0.03934931
145	0xbd82dae1	-0.06389404
146	0x3d000f43	0.031264555
147	0xbd1600d0	-0.03662187
148	0x3e0b34c7	0.13594352
149	0xbdb2fa95	-0.08739201
150	0xbcc60686	-0.024173032
151	0xbcfae2ec	-0.030625783
152	0x3d98f502	0.074686065
153	0x3e702f63	0.23455577
154	0x3e4f3044	0.20233256
155	0x3e182d57	0.14861046
156	0xbe276c19	-0.1634983
157	0x3da25897	0.079270534
158	0xbd3b1bb7	-0.045680728
159	0x3d79e04e	0.06100493
160	0x3cbad05a	0.022804428
161	0xbdb28b43	-0.08717968
162	0x3d71c0b4	0.059021667
163	0xbbcdee44	-0.006284507
164	0x3d190d8b	0.03736643
165	0xbd41757a	-0.047231175
166	0x3e0beb7e	0.13664052
167	0xbe694b23	-0.22782569
168	0xbdec9a4a	-0.11552866
169	0x3e496394	0.19666892
170	0x3e3b39fd	0.1828384
171	0x3dfb98f6	0.12285034
172	0xbe671d30	-0.22569728
173	0xbe4660a7	-0.19372807
174	0x3d04745a	0.032337524
175	0x3e6f7dd7	0.23387848
176	0x3d69bb4f	0.057063397
177	0x3e3251c0	0.17413998
178	0xbe779dea	-0.24181333
179	0x3e269b9a	0.16270295
180	0x3e3a1f45	0.18175991
181	0x3de35d20	0.111017466
182	0xbc0b103b	-0.008487756
183	0x3da12587	0.07868486
184	0xbdda09cc	-0.106464
185	0x3df3fbab	0.11913236
186	0x3da117cd	0.07865868
187	0x3d4ea350	0.050448716
188	0xbe5ae1b5	-0.21375163
189	0xbe5bf06b	-0.21478431
190	0x3dea059a	0.1142685
191	0x3cdf0c2b	0.027227482

rnn.weight_ih_l1 f4 [192, 64]
0	0x3b9ccf0b	0.0047854236
1	0xbe116e7b	-0.14202301
2	0x3e06f5c2	0.13179687
3	0x3dca7262	0.09885098
4	0x3e0c3f15	0.13695939
5	0xbd4656ee	-0.048422746
6	0xbbf5a430	-0.0074963793
7	0xbe12ae1d	-0.14324231
8	0xbd55428c	-0.052065417
9	0xbd69c077	-0.057068314
10	0xbd61d104	-0.055130973
11	0x3c84de63	0.016219324
12	0xbdb20bff	-0.08693694
13	0xbdb6194a	-0.08891542
14	0x3d4cfe1e	0.050047033
15	0xbcbcce75	-0.023047665
16	0x3bd6ff8d	0.0065612257
17	0xbdc31b03	-0.095266365
18	0x3dc90a5b	0.09816428
19	0x3c89182a	0.016735155
20	0x3de25627	0.110515885
21	0xbc95e449	-0.018297331
22	0x3e16602c	0.14685124
23	0x3ca24ad3	0.01981107
24	0xbe3538f5	-0.17697509
25	0xbdd8625b	-0.10565635
26	0x3d1a3437	0.037647452
27	0xbe15af2f	-0.14617608
28	0xba5079bd	-0.0007952711
29	0xbdddf4b7	-0.10837691
30	0x3dba2101	0.09088326
31	0x3d0e3183	0.034715187
32	0xbd8fb00b	-0.070159994
33	0x3d687c1f	0.056758996
34	0x3d1acd36	0.03779336
35	0x3d04052c	0.032231495
36	0xbe0341dd	-0.12818094
37	0x3d2579f2	0.0403995
38	0xbd92b7ea	-0.07163985
39	0x3d5826d5	0.052771408
40	0x3e1a8077	0.15088068
41	0xba92f742	-0.0011212605
42	0x3da246e1	0.07923675
43	0x3d8f3cfa	0.06994052
44	0xbd3a8b56	-0.045543037
45	0x3d02cbb0	0.031932533
46	0x3e0b6caa	0.13615671
47	0x3d6dd6bb	0.05806611
48	0x3d01f622	0.03172887
49	0xbc66ee4d	-0.014094901
50	0x3dc49269	0.09598238
51	0xbca59409	-0.02021219
52	0x3d435160	0.047685027
53	0x3e028b0e	0.12748358
54	0x3e2bee03	0.16790013
55	0x3db68c19	0.0891344
56	0x3d98ad5d	0.074549414
57	0xbe24abe7	-0.160812
58	0xbdb264b1	-0.087106116
59	0xbd58cf6b	-0.052932184
60	0x3dcdf780	0.100569725
61	0xbd8f72f0	-0.070043445
62	0xbda5d3f1	-0.08097065
63	0xbce92f1f	-0.028464852
64	0xbdcb1632	-0.09916343
65	0x3d602176	0.05471941
66	0xbe5ae48b	-0.21376245
67	0x3e098c8f	0.13432525
68	0xbe0c7da9	-0.1371981
69	0x3dd19512	0.10233511
70	0xbd4011e9	-0.04689208
71	0xbd8107a2	-0.06300284
72	0x3d943e19	0.07238407
73	0x3cfa6ea7	0.030570341
74	0x3c2db4ad	0.0106021585
75	0xbd9687dd	-0.073501326
76	0xbe35f793	-0.17770223
77	0x3e075dff	0.1321945
78	0x3cf89f06	0.030349266
79	0x3e207349	0.15668978
80	0x3dd125c7	0.102122836
81	0x3c618c3e	0.0137663465
82	0xbd7d4538	-0.06183359
83	0xbcfe809a	-0.031067181
84	0xbbad3d0d	-0.005286819
85	0x3dad7c55	0.0847098
86	0x3d9c9520	0.07645631
87	0xbd356a42	-0.04429079
88	0x3c80bf0e	0.015716102
89	0x3b3fcd0c	0.0029266505
90	0x3cd0e1bf	0.02549827
91	0xbd2b4e8f	-0.041822966
92	0x3cf88ae1	0.03033966
93	0xbd2e1ecc	-0.04250984
94	0xbd51970a	-0.051169433
95	0xbd1d662a	-0.03842751
96	0x3d8992e9	0.06717474
97	0x3d9dd428	0.07706481
98	0x3e11ce71	0.14238907
99	0xbd8e9849	-0.0696264
100	0x3e1e25c6	0.15444097
101	0x3d8d6611	0.06904233
102	0x3d43c2a7	0.047793057
103	0xbd338b48	-0.043834
104	0xbc4f4f8e	-0.012653245
105	0xbd0ff60f	-0.03514677
106	0x3dd354e8	0.10318929
107	0xbce68e80	-0.028144121
108	0x3e19131e	0.14948699
109	0x3bfa7cf7	0.0076442915
110	0x3d64131c	0.055682287
111	0xbdfc6b1a	-0.123251155
112	0xbe10ae0c	-0.14128894
113	0x3d1c2f96	0.03813132
114	0xbe25ed87	-0.1620389
115	0x3d99d474	0.07511225
116	0x3dafb72d	0.0857986
117	0x3dfa3792	0.122176304
118	0xbd60c0b0	-0.05487126
119	0x3e145cf5	0.14488585
120	0x3dea7d14	0.11449638
121	0xbd334941	-0.043771032
122	0xbac53a2e	-0.0015047246
123	0xbdc1b22f	-0.09457814
124	0x3d89b973	0.06724825
125	0xbd708b94	-0.058726862
126	0xbd2892db	-0.041155677
127	0xbd5bcef1	-0.05366415
128	0xbdaa93fa	-0.083290055
129	0xbe0d29b4	-0.1378544
130	0x3e583f6e	0.21117947
131	0x3e1de4d6	0.15419325
132	0xbcc8dd13	-0.024519479
133	0xbe17dc68	-0.14830172
134	0xbd7d5b9b	-0.06185494
135	0x3daba04d	0.08380184
136	0x3e4bb426	0.1989294
137	0x3dc4cfee	0.09609972
138	0xbdfe874b	-0.12428149
139	0x3e1cd4c7	0.15315543
140	0x3d2214e9	0.039570723
141	0xbc456745	-0.012048547
142	0xbdc0c1f2	-0.09411992
143	0xbe46d3dd	-0.19416757
144	0x3cbf18d2	0.023327265
145	0x3c86d79f	0.016460238
146	0xbd301acf	-0.042994317
147	0x3d8fc792	0.07020487
148	0x3dad38c7	0.08458095
149	0x3b7ac330	0.0038263313
150	0xbce3f326	-0.027825903
151	0x3cf1559b	0.029459765
152	0x387dde4f	6.052694e-05
153	0xbd49a377	-0.049228158
154	0xbe460156	-0.19336447
155	0xbd821dc3	-0.06353333
156	0x3e39e453	0.18153505
157	0xbe36f06e	-0.17865154
158	0xbc30ce64	-0.010791395
159	0x3d46650d	0.048436213
160	0x3d9d2d70	0.07674682
161	0x3e066084	0.13122755
162	0x3b8cdf0f	0.0042990516
163	0x3e164316	0.14674029
164	0xbe638ef3	-0.222225
165	0x3dda1b81	0.10649777
166	0xbd9d7a3a	-0.076893285
167	0x3e7669ad	0.2406375
168	0x3d06cf2d	0.032912422
169	0xbe2368ff	-0.15958022
170	0x3dd66a61	0.10469509
171	0xbe8d7db8	-0.27634978
172	0x3d9cc629	0.076549836
173	0x3e24e6e1	0.16103698
174	0xbd09c3c5	-0.033633966
175	0xbe377778	-0.17916667
176	0xbe38d7e1	-0.18051101
177	0xbce8415b	-0.028351476
178	0x3e16666f	0.14687513
179	0x3c19ddb9	0.009391242
180	0xbce5d6f6	-0.028056603
181	0x3e0cbbea	0.13743559
182	0xbc870ada	-0.016484667
183	0xbd351d3c	-0.044217333
184	0xbd703bc4	-0.058650747
185	0xbdd6b20c	-0.104831785
186	0x3c4d072b	0.012513916
187	0xbd85a041	-0.06524707
188	0x3de75a0e	0.112964734
189	0x3d875d3b	0.06609579
190	0x3c4cf0c0	0.012508571
191	0x3cbc923b	0.023018947
192	0xbc2ef9a5	-0.010679637
193	0xbdb678a1	-0.08909727
194	0x3d797831	0.06090564
195	0xbdd7fdee	-0.1054648
196	0x3db03e22	0.08605601
197	0x3ba73ed4	0.0051039252
198	0xbda22775	-0.07917682
199	0xbd57d013	-0.05268867
200	0x3e1d2bea	0.15348783
201	0x3d28ee39	0.04124281
202	0x3d844fe8	0.064605534
203	0x3d050987	0.03247979
204	0xbdfb56da	-0.12272425
205	0x3ba3ccca	0.004998778
206	0xbe1e490a	-0.1545755
207	0x3b30b8d4	0.0026965635
208	0x3d9df591	0.07712854
209	0xbd53ce29	-0.05171028
210	0x3d065fd1	0.03280622
211	0xbdacd37f	-0.08438777
212	0x3e140e52	0.14458588
213	0xbe174abb	-0.14774601
214	0x3dab1ad4	0.083547264
215	0x3e09aa30	0.13443828
216	0xbde0f56b	-0.1098431
217	0xbb43235f	-0.0029775721
218	0xbd16bcab	-0.03680102
219	0xbdb9e490	-0.09076798
220	0xbd822d45	-0.06356291
221	0xbd865425	-0.06559018
222	0x3d3af446	0.045643114
223	0xbc9ab790	-0.018886358
224	0x3ca7a427	0.020464016
225	0x3d792426	0.06082549
226	0xbcd5ffc1	-0.02612293
227	0x3dae2e5f	0.08504938
228	0xbd9eb878	-0.07750028
229	0x3dea405c	0.11438057
230	0x3d48ff56	0.049071632
231	0x3e155b36	0.14585575
232	0xbbd702e3	-0.0065616234
233	0xbc9e6042	-0.019333009
234	0xbda7c9ec	-0.081928104
235	0xbde9ed7c	-0.1142225
236	0xbd983577	-0.074320726
237	0xbd988e8e	-0.07449065
238	0x3ca51416	0.02015118
239	0xbbeb2454	-0.0071759615
240	0x3d76a8a7	0.060219433
241	0x3d879e63	0.06622007
242	0x3bd44c01	0.006478787
243	0xbe00e945	-0.12588985
244	0xbd465214	-0.04841812
245	0xbdafc25a	-0.085819915
246	0x3c30fd9f	0.0108026555
247	0xbc0f7d3e	-0.008757887
248	0x3c684b23	0.01417807
249	0xbd0c358d	-0.034230758
250	0x3db5621e	0.08856605
251	0xbd992013	-0.07476821
252	0xbd6fc3c0	-0.05853629
253	0x3d9bbaa7	0.076039605
254	0xbe1349a9	-0.14383568
255	0x3e156331	0.1458862

rnn.weight_hh_l1 f4 [192, 64]
0	0x3de90b50	0.11379111
1	0x3db017df	0.08598303
2	0xbda8f877	-0.08250516
3	0x3d70c405	0.05878069
4	0xbd8561b4	-0.06512776
5	0x3decbb34	0.11559144
6	0x3e68f3df	0.2274928
7	0x3e1195a5	0.14217241
8	0x3dc41c74	0.095757395
9	0xbd596bad	-0.053081203
10	0xbd7a9783	-0.06117965
11	0xbe0e4eb9	-0.13897218
12	0x3d578775	0.052619416
13	0x3d3ed6d3	0.04659159
14	0x3db4734c	0.08811054
15	0x3ce21925	0.02759988
16	0x3de5d872	0.11222924
17	0xbc235555	-0.009969075
18	0xbd914361	-0.0709293
19	0x3d76d338	0.060260028
20	0xbbadabb5	-0.00530001
21	0x3ca6bac0	0.020352721
22	0xbd7fa6a6	-0.062414788
23	0x3d0eb45c	0.034839973
24	0x3e00bb78	0.12571514
25	0xbd192d8f	-0.037396964
26	0xbeaf3265	-0.34218135
27	0xbc80b317	-0.015710397
28	0x3dc2c099	0.09509391
29	0xbe0c0532	-0.13673857
30	0x3d0b6972	0.034036107
31	0x3c003246	0.007824486
32	0xbdfd1642	-0.12357761
33	0x3c7edc9b	0.015555526
34	0x3dec68f4	0.11543456
35	0xbdf57f26	-0.11987142
36	0xbd05bf69	-0.032653246
37	0xbd509d9d	-0.05093156
38	0x3e229e62	0.15880731
39	0x3de1e23c	0.11029479
40	0x3da180ec	0.07885918
41	0xbdd18451	-0.102303155
42	0xbd95c030	-0.073120475
43	0xb9a01dbb	-0.0003053973
44	0x3df67574	0.12034121
45	0xbe3c9c3d	-0.18418975
46	0x3de160bc	0.11004779
47	0xba5b03ce	-0.0008354754
48	0x3d9fd4f0	0.078042865
49	0xbd8b5d6b	-0.068049274
50	0xbdd1f81b	-0.102524005
51	0xbd3fdc5e	-0.046841018
52	0x3d704366	0.058658026
53	0x3d858bdb	0.06520816
54	0xbd8acf1d	-0.06777785
55	0xbdb6e359	-0.08930082
56	0x3d532ecc	0.0515583
57	0x3d9c9738	0.0764603
58	0x3d76b6e0	0.060232997
59	0xbcdaa014	-0.02668766
60	0x3dca4ee9	0.09878332
61	0xbd288632	-0.041143604
62	0x3e0302c3	0.12794022
63	0x3c1fe618	0.0097594485
64	0xbda26c78	-0.07930845
65	0xbb83e956	-0.0040256185
66	0xbcba4e70	-0.02274248
67	0x3e07511b	0.13214533
68	0xbc7accea	-0.015307644
69	0x3d8c1ec9	0.06841809
70	0xbe480928	-0.19534743
71	0xbdf05801	-0.117355354
72	0x3e15701b	0.14593546
73	0x3e1f3529	0.15547623
74	0xbd626ef6	-0.0552816
75	0x3ea6b95c	0.32563293
76	0x3dbf6499	0.09345359
77	0xbdb5d270	-0.088780284
78	0xbd97653f	-0.07392358
79	0xbdaa1aac	-0.083058685
80	0x3cc04aa5	0.023473093
81	0x3da52f03	0.080656074
82	0x3d3b2891	0.045692984
83	0xbd376a02	-0.04477883
84	0x3d0d1340	0.034442186
85	0xbdbde100	-0.09271431
86	0x3e25e458	0.16200387
87	0x3dd89fb6	0.105773374
88	0xbd6ca48b	-0.057774108
89	0xbdea1037	-0.11428874
90	0x3e38b5b7	0.18038069
91	0xbdfc8792	-0.123305455
92	0xbc6d52ea	-0.0144851
93	0xbe092237	-0.13391958
94	0x3dbedeb4	0.09319821
95	0xbdd8e3f8	-0.105903566
96	0x3dda4424	0.10657528
97	0x3d8a8e6d	0.06765447
98	0x3c679fdb	0.014137234
99	0x3d840352	0.06445946
100	0xbd7e1a60	-0.062036872
101	0x3d993c84	0.074822456
102	0x3c79f0fd	0.01525521
103	0xbd9188a8	-0.07106143
104	0x3dadef13	0.084928654
105	0x3bb83a77	0.005622204
106	0x3d9f4e1d	0.07778571
107	0x3ce7eb8b	0.028310558
108	0x3dab94d6	0.083779976
109	0x3dfda300	0.123846054
110	0xbb8a8bac	-0.004228076
111	0xbd2ba6f8	-0.04190728
112	0x3c997fe9	0.01873775
113	0x3e167f73	0.14697056
114	0x3dce683e	0.10078476
115	0xbd918deb	-0.07107147
116	0x3c7ffc8c	0.015624177
117	0x3e1f35f9	0.15547933
118	0x3d7998f0	0.06093687
119	0xbc6e5b10	-0.014548078
120	0xbe9d5205	-0.30726638
121	0xbd94b422	-0.0726092
122	0xbd927632	-0.0715145
123	0xbdea668f	-0.11445343
124	0x3d72c580	0.059270382
125	0xbcabcbe1	-0.02097124
126	0xbd9422c1	-0.07233191
127	0x3d3f2187	0.046662834
128	0x3d031e0d	0.03201108
129	0x3c1f0728	0.009706296
130	0x3dc1462c	0.09437212
131	0x3dab1e04	0.083553344
132	0xbc3cd914	-0.011526365
133	0xbe51e4b8	-0.20497406
134	0xbad28b43	-0.0016063232
135	0x3d0ad48d	0.03389411
136	0x3c2d8636	0.01059108
137	0x3e126bed	0.14298983
138	0xbd837fe8	-0.064208806
139	0xbe1f5b42	-0.15562156
140	0xbd3d063d	-0.046148527
141	0x3de3836b	0.1110905
142	0xbdc48b9b	-0.0959694
143	0x3d8eb9b6	0.06969015
144	0x3d5f152c	0.05446355
145	0x3d0b44f7	0.034001317
146	0x3cf7ec67	0.030264093
147	0x3db78eae	0.08962761
148	0x3da2d4cc	0.07950744
149	0xbe0c9195	-0.1372741
150	0xbdcc4823	-0.099746965
151	0xbd139d73	-0.036038827
152	0x3db311bf	0.08743619
153	0x3ddafabb	0.10692354
154	0xbd39bd2f	-0.045346435
155	0x3ba51c70	0.0050387904
156	0xbd9f7be8	-0.07787305
157	0x3e74294a	0.23843876
158	0xbd8d53cf	-0.06900751
159	0xbcf3e477	-0.029772026
160	0x3dad6bed	0.08467851
161	0x3da02d31	0.078211196
162	0x3e0456ff	0.12923811
163	0xbdb48a41	-0.08815432
164	0x3dcb5d19	0.09929866
165	0xbb508c4d	-0.0031821907
166	0xbe1ad66d	-0.1512086
167	0x3d7d42d9	0.06183133
168	0xbdcda6c9	-0.10041577
169	0x3dfdbdbf	0.12389707
170	0x3de91038	0.113800466
171	0xbcb64d94	-0.022253789
172	0x3e1ee0d0	0.15515447
173	0x3e0d2e78	0.13787258
174	0xbd0b1c05	-0.03396227
175	0xbd1a4ccd	-0.0376709
176	0xbdcade8d	-0.099057294
177	0x3bec17ba	0.007204977
178	0xbdc0397a	-0.09385963
179	0x3d156e99	0.036482427
180	0xbdd6dcf8	-0.10491365
181	0x3d9585be	0.073009
182	0x3cd36852	0.02580658
183	0x3e24c49c	0.16090626
184	0x3e1618f0	0.1465795
185	0xbd072559	-0.032994602
186	0xbcf883ed	-0.030336345
187	0x3c62dab0	0.0138460845
188	0xbdbdd933	-0.09269943
189	0x3c1c6f02	0.009547951
190	0x3d98cf53	0.07461419
191	0xbd89c60e	-0.06727229
192	0x3c7f5d09	0.015586146
193	0xbd5da624	-0.054113522
194	0xbe318ab0	-0.17338061
195	0x3c9bc6d7	0.019015713
196	0x3e21ef4c	0.15813941
197	0x3e12401e	0.14282271
198	0xbe1d308a	-0.15350547
199	0x3e0c83ed	0.137222
200	0xbdbb96e8	-0.091596425
201	0x3dddc566	0.108286664
202	0xbcd58bd3	-0.02606765
203	0xbd10ddf9	-0.03536794
204	0x3db3a89e	0.087723956
205	0x3dcfe950	0.10151923
206	0xbd57e1f9	-0.05270574
207	0xbd565292	-0.05232484
208	0x3da109c2	0.07863189
209	0x3e126ebd	0.14300056
210	0xbceced4e	-0.02892175
211	0xbdc2cb43	-0.09511425
212	0x3d725a0a	0.0591679
213	0xbdba4b08	-0.09096342
214	0xbd5fbe34	-0.05462475
215	0x3deb858a	0.1150008
216	0x3ceb7a79	0.028744923
217	0xbd931802	-0.071823135
218	0x3cb2e794	0.02183894
219	0xbcab505f	-0.020912347
220	0xbe185f11	-0.14880015
221	0x3d550838	0.05200979
222	0xbd750f86	-0.059829257
223	0xbd964805	-0.073379554
224	0x3bbc6859	0.005749744
225	0xbb587d29	-0.0033033586
226	0x3d88366d	0.06651006
227	0xbdfdcd91	-0.12392724
228	0xbd94ea78	-0.07271284
229	0x3e5c6cb1	0.21525837
230	0x3e1488b2	0.1450527
231	0xbb0e8c78	-0.0021751206
232	0xbd959855	-0.07304446
233	0xbdc190c7	-0.09451442
234	0x3da1b6da	0.07896204
235	0x3cb69637	0.022288425
236	0x3cff611a	0.031174231
237	0x3db08a8a	0.08620174
238	0x3d1f6942	0.03891874
239	0xbe89c042	-0.26904494
240	0xbd857199	-0.06515808
241	0xbe07aec2	-0.13250259
242	0xbe06c0b2	-0.13159445
243	0xbbbb5056	-0.005716364
244	0x3de99488	0.11405283
245	0xbd9e4122	-0.07727267
246	0xbd87f856	-0.06639163
247	0xbd4fb232	-0.05070705
248	0xbcc47839	-0.023983108
249	0xbdf02d14	-0.11727348
250	0xbe070be6	-0.13188133
251	0x3dfa5c5a	0.12224646
252	0xbdad3e6f	-0.08459174
253	0x3de3e491	0.1112758
254	0xbd176621	-0.036962632
255	0xbe1042d6	-0.14087996

rnn.bias_ih_l1 f4 [192]
0	0x3dee5bd0	0.116386056
1	0x3c93fe17	0.018065495
2	0x3c8d4445	0.017244468
3	0xbca12163	-0.01966924
4	0xbd063037	-0.032760825
5	0xbde7079b	-0.112807475
6	0x3dd8188a	0.105515555
7	0x3d7a5ff7	0.061126675
8	0xbcdc077a	-0.026859034
9	0x3e0d42fd	0.13795085
10	0x3cedbb7b	0.029020062
11	0x3d7aec2a	0.06126038
12	0xbdc31b8a	-0.09526737
13	0x3cce0488	0.025148645
14	0xbd3d3980	-0.046197414
15	0xbbb5c781	-0.0055474644
16	0x3e4f5b31	0.2024963
17	0x3d3c30b2	0.045944877
18	0x3d54e776	0.05197855
19	0xbdf845aa	-0.12122662
20	0x3d959131	0.07303084
21	0x3d9a045f	0.07520365
22	0xbd8b1906	-0.06791882
23	0x3e3dd697	0.18538891
24	0xbd854eb2	-0.065091506
25	0xbd964543	-0.073374294
26	0xbbba37c6	-0.0056829182
27	0x3ccec58c	0.025240682
28	0x3d422b00	0.04740429
29	0x3e1ab9b8	0.15109909
30	0x3cc4a4b8	0.024004325
31	0x3d2c2850	0.042030632
32	0xbdc62e31	-0.09676779
33	0xbe0bf21d	-0.13666578
34	0x3d0f4d0b	0.034985583
35	0x3cf1ed7f	0.029532192
36	0x3cd50be0	0.026006639
37	0xbb411abf	-0.0029465405
38	0x3c002ca4	0.007823143
39	0x3de3e144	0.111269504
40	0xbdc10181	-0.09424115
41	0x3d72f36a	0.05931417
42	0xbe11eaf1	-0.1424978
43	0x3dba40f2	0.090944186
44	0x3d02ad10	0.031903327
45	0x3d941685	0.07230858
46	0x3dcdc627	0.1004756
47	0x3d93e79d	0.07221911
48	0x3c3294cc	0.010899734
49	0xbd3e2930	-0.046426
50	0x3dceb574	0.10093203
51	0x3b79e262	0.003812932
52	0xbd715a26	-0.058923863
53	0xbe022dad	-0.12712736
54	0x3d26a8b7	0.040688243
55	0xbddd90af	-0.10818612
56	0x3dee3548	0.11631256
57	0x3d9385b1	0.07203234
58	0xbdd62b50	-0.1045748
59	0xbc3c7100	-0.011501551
60	0xbd377072	-0.04478497
61	0xbd83943a	-0.06424756
62	0x3d9f2958	0.077715576
63	0xbd02dc73	-0.031948518
64	0xbc965cce	-0.0183548
65	0xbda2f518	-0.07956904
66	0xbd934350	-0.07190573
67	0xbe11ddb2	-0.14244726
68	0x3db267a8	0.08711177
69	0x3ddbaea4	0.107266694
70	0xbd8875ad	-0.0666307
71	0xbd66b06b	-0.05632059
72	0xbe262d81	-0.16228296
73	0xbe7dbe34	-0.24779588
74	0xbdd9488a	-0.10609539
75	0x3dbf1472	0.093300715
76	0x3da9ed15	0.08297173
77	0xbe15fc37	-0.14646994
78	0xbd47f810	-0.048820555
79	0xbcfc379d	-0.030788237
80	0xbd2b1a2b	-0.041773003
81	0x3d65e19b	0.056123357
82	0x3db60245	0.08887152
83	0x3df41b2a	0.11919244
84	0xbd25e9ec	-0.04050629
85	0xbdc2b951	-0.095080025
86	0xbdce24e4	-0.1006563
87	0xbdfd184c	-0.1235815
88	0x3db70e3f	0.08938264
89	0xbd8794e2	-0.06620194
90	0x3b9ba1f3	0.0047495305
91	0xbd072a2b	-0.0329992
92	0xbd7f267d	-0.062292565
93	0xbe95517d	-0.29163733
94	0xbdde37e6	-0.108505055
95	0x3b82334b	0.0039733998
96	0x3d115107	0.035477664
97	0xbd22702d	-0.03965776
98	0x3ce7b53c	0.028284661
99	0xbe13b6e8	-0.14425242
100	0xbde6d2c6	-0.112706706
101	0x3d0a48db	0.033760887
102	0x3d49bd3b	0.04925273
103	0xbde38f51	-0.1111132
104	0x3a80b184	0.0009818529
105	0x3d0db8f0	0.0346002
106	0x3d6c17f4	0.05764003
107	0x3e5668ab	0.20938365
108	0xbd644886	-0.055733226
109	0x3ccabb94	0.024747647
110	0xbd618660	-0.05505979
111	0x3e34f947	0.17673217
112	0x3c313966	0.0108169075
113	0x3dc8ad36	0.09798662
114	0x3d4f5bb7	0.050624575
115	0x3d352b84	0.044230953
116	0xbddfec79	-0.109337755
117	0xbdc9373a	-0.09824987
118	0xbcec6414	-0.028856315
119	0x3d4b43f6	0.04962536
120	0xbd5a2cad	-0.053265262
121	0xbddf52b4	-0.10904446
122	0x3e0d65c0	0.13808346
123	0xbdf38041	-0.11889697
124	0xbe30e323	-0.17274146
125	0xbde24c8a	-0.11049755
126	0xbd97d4d1	-0.074136384
127	0xbc6f5e8f	-0.014609947
128	0x3df17e25	0.11791638
129	0x3df56340	0.11981821
130	0x3d683c5e	0.056698196
131	0xbbd4bb75	-0.006492073
132	0xbd67f980	-0.056634426
133	0x3d820612	0.06348814
134	0x3de28124	0.11059788
135	0xbdc0b5a7	-0.094096474
136	0xbe22f35c	-0.15913147
137	0xbe2e8a8e	-0.17045042
138	0xbe3c1bb9	-0.1836995
139	0x3d08e319	0.033419702
140	0xbd4ba341	-0.049716238
141	0xbe36d418	-0.17854345
142	0xbcf25b23	-0.029584473
143	0xbda12311	-0.078680165
144	0xbcef2ab1	-0.029195162
145	0x3e0df6b4	0.13863641
146	0x3cebcfed	0.02878567
147	0xba6b4f7e	-0.0008976384
148	0xbbfdd21e	-0.007745995
149	0x3dd26af7	0.10274308
150	0x3ceaf801	0.02868271
151	0xbda3fb80	-0.08006954
152	0x3e12d67c	0.14339632
153	0xbd29e6f2	-0.041480012
154	0x3df3eb0f	0.11910068
155	0xbdb04e7c	-0.0860872
156	0xbe013283	-0.12616925
157	0x3d175c54	0.036953285
158	0xbccadc56	-0.024763267
159	0x3c010357	0.007874331
160	0x3debfee8	0.11523229
161	0xbde31c8a	-0.11089428
162	0xbd8fdfea	-0.0702513
163	0xbdfe5392	-0.124182835
164	0x3bcd66a3	0.0062683388
165	0x3b5fc43d	0.0034144067
166	0xbcc335cc	-0.023829363
167	0xbca56e72	-0.020194266
168	0x3e2c04b5	0.1679867
169	0xbe05f214	-0.13080627
170	0xbde297af	-0.110640876
171	0x3e154030	0.14575267
172	0xbd573aa3	-0.052546155
173	0x3cf88da3	0.030340975
174	0xbcfe7b71	-0.03106472
175	0x3dacbd15	0.08434502
176	0xbde29d40	-0.11065149
177	0xbd0a2caa	-0.033734
178	0xbd85e0c7	-0.065370135
179	0x3dba896a	0.09108241
180	0x3db10ec2	0.08645393
181	0xbdbcbd87	-0.09215837
182	0xbe21f45c	-0.15815872
183	0xbd806283	-0.062687896
184	0xbd37d995	-0.044885237
185	0xbc28aabb	-0.010294612
186	0xbd333abc	-0.043757185
187	0x3dbf44e6	0.09339313
188	0x3e3737e5	0.17892416
189	0xbd69b25e	-0.05705487
190	0x3e215652	0.15755585
191	0x3da22f97	0.07919233

rnn.bias_hh_l1 f4 [192]
0	0x3de51225	0.111851014
1	0x3d0ec48a	0.034855403
2	0xbd81030c	-0.06299409
3	0xbde1a941	-0.11018611
4	0xbc664563	-0.014054629
5	0xbd9f8eae	-0.07790886
6	0x3a01b583	0.0004948007
7	0x3d95fb0c	0.07323274
8	0xbd9104f2	-0.07081021
9	0xbdc5b615	-0.0965387
10	0xbd914ff1	-0.07095326
11	0x3cebe4b7	0.028795583
12	0xbd9bd40b	-0.07608803
13	0xbdbc17b3	-0.09184208
14	0x3dd4b2d3	0.103856705
15	0xbccc35aa	-0.024927933
16	0x3ea20138	0.31641555
17	0x3dbe1a3a	0.09282346
18	0x3d9036e2	0.07041718
19	0x3d07a509	0.033116374
20	0xbd8c2ae4	-0.06844118
21	0xbd30f8ab	-0.0432059
22	0xbddd3f9f	-0.108031504
23	0x3cf0f221	0.029412331
24	0xbde3c113	-0.1112081
25	0x3d262303	0.040560734
26	0x3c67ef97	0.014156244
27	0xbd64b00e	-0.05583196
28	0xbd55be0b	-0.052183192
29	0x3d9f9dd4	0.07793775
30	0xbd251ca1	-0.040310506
31	0xbc1c7e2d	-0.009551567
32	0xbdaff3da	-0.08591433
33	0xbdbb9d80	-0.091609
34	0x3d383986	0.044976734
35	0x3c1e6c01	0.009669305
36	0xbd027731	-0.03185195
37	0x3ddd507a	0.10806365
38	0x3df06fa1	0.117400415
39	0x3dc9997e	0.098437294
40	0xbe1fb5bc	-0.1559667
41	0x3da95f5f	0.08270144
42	0x3db9e393	0.090766095
43	0x3b498b4a	0.0030753189
44	0x3d443c56	0.047909103
45	0xbc9e1cd5	-0.019300858
46	0xbc9279f9	-0.017880427
47	0xbd285c75	-0.0411038
48	0x3da26fee	0.07931505
49	0x3db5f088	0.08883768
50	0x3c6100f5	0.013733138
51	0x3d78471a	0.060614683
52	0x3ddb3948	0.10704285
53	0x3c514201	0.012772084
54	0x3c3b0b21	0.011416228
55	0xbdd05016	-0.10171525
56	0xbd65d47f	-0.056110855
57	0xbd85ed01	-0.065393455
58	0xbddbf2f9	-0.10739703
59	0x3dc41e61	0.09576107
60	0x3d61cd49	0.055127416
61	0x3dcfac9c	0.101403445
62	0x3ced13e5	0.02894015
63	0xbc684fdd	-0.014179197
64	0x3e103e7d	0.14086337
65	0xbcba93e4	-0.022775598
66	0xbd05dd41	-0.032681707
67	0x3d938f2b	0.072050415
68	0xbe060f66	-0.13091812
69	0x3c8d9700	0.017283916
70	0xbd54befd	-0.051939953
71	0xbda5ad32	-0.08089675
72	0x3cb63102	0.022240166
73	0xbe625751	-0.22103621
74	0xbc69ed72	-0.014277803
75	0x3dfcb244	0.12338689
76	0x3d7ea672	0.062170453
77	0xbe18d672	-0.14925554
78	0xbd532b0b	-0.05155472
79	0x3c5c407a	0.013443107
80	0xbd933762	-0.07188298
81	0x3d92013c	0.07129142
82	0x3d51ba66	0.051203154
83	0x3d97a9fe	0.0740547
84	0xbd879e53	-0.06621995
85	0x3d16bd8d	0.036801863
86	0xbe102772	-0.14077547
87	0x3d8b19b0	0.06792009
88	0xbd06657d	-0.03281163
89	0x3dbab9a6	0.09117441
90	0x3da28bed	0.07936845
91	0xbca33e40	-0.019927144
92	0xbe0acd7b	-0.13554947
93	0xbe5095d9	-0.20369662
94	0xbd2a44d4	-0.041569546
95	0xbe03bffa	-0.12866202
96	0x3dba0c24	0.09084347
97	0x3ce443cc	0.02786436
98	0x3de0ddb0	0.109797835
99	0xbdfdb3b3	-0.123877905
100	0xbe07e660	-0.13271475
101	0x3dfa5b67	0.12224465
102	0xbd82126a	-0.063511685
103	0x3c8670dd	0.01641124
104	0xbcd8f4a9	-0.02648385
105	0xbcd7afc5	-0.02632893
106	0xbd4eb8cb	-0.0504692
107	0x3e029c8c	0.1275503
108	0xbdf1513a	-0.11783071
109	0xbd8bbbff	-0.06822967
110	0xbe084439	-0.13307275
111	0x3d9d4ca1	0.076806314
112	0xbdc66446	-0.096870944
113	0xbce4ba10	-0.027920753
114	0x3d49baa9	0.04925028
115	0x3d90ecd6	0.07076423
116	0xbe113496	-0.14180216
117	0xbdae5279	-0.08511824
118	0xbd90ca8d	-0.070698835
119	0xbddc51a6	-0.10757761
120	0x3cc3bde7	0.023894263
121	0xbd5149fb	-0.051095944
122	0x3d956355	0.07294337
123	0xbdf697ea	-0.12040694
124	0xbd6ae134	-0.057343677
125	0xbe1a8ee8	-0.15093577
126	0xbe0616e2	-0.13094667
127	0x3c46bc63	0.012129876
128	0x3bf1fc6a	0.0073848264
129	0x3cb4e577	0.022082074
130	0x3aaf18b4	0.0013358803
131	0xbd0ddd7d	-0.034635056
132	0x3e23e349	0.16004671
133	0x3cfb77f4	0.030696847
134	0xbcfcb468	-0.030847743
135	0x3d17b861	0.03704107
136	0xbca4da36	-0.020123582
137	0xbdc3b568	-0.09556085
138	0xbda30c99	-0.07961387
139	0x3d5081cd	0.050905038
140	0x3ca98654	0.020693935
141	0xbd04f194	-0.03245695
142	0x3d80a379	0.0628118
143	0x3d9c5738	0.07633823
144	0x3ce6c99e	0.02817231
145	0xbdb685f1	-0.08912266
146	0xbe115b8d	-0.1419508
147	0x3d68b00f	0.056808528
148	0xbdcab053	-0.098969124
149	0x3df0d02c	0.11758456
150	0x3d108ef9	0.0352926
151	0x3d994780	0.07484341
152	0x3da71577	0.08158391
153	0xbc6503b5	-0.013977935
154	0x3dff4de9	0.12466032
155	0xbc2b1927	-0.0104430085
156	0xbdcb3376	-0.09921925
157	0x3d22ec50	0.039776146
158	0xbd0897ae	-0.033347778
159	0x3d8735bd	0.06602047
160	0x3d96fa90	0.0737201
161	0x3d9f5fcc	0.07781944
162	0x3d8120fe	0.06305121
163	0xbdbca8b2	-0.092118636
164	0xbd845dd9	-0.064632125
165	0xbcceed80	-0.025259733
166	0x3df9a128	0.12188941
167	0x3e03839e	0.12843177
168	0xbd0f4991	-0.034982268
169	0xbd633b3c	-0.055476412
170	0x3d962165	0.07330588
171	0x3d88823c	0.06665465
172	0xbdd41559	-0.10355634
173	0xbdc23d29	-0.094843216
174	0x3de62744	0.11237958
175	0x3d599a89	0.05312589
176	0xbdf4c7f5	-0.11952201
177	0x3dfa4f5f	0.1222217
178	0xbe29e941	-0.16592886
179	0xbd26506a	-0.040604033
180	0x3e0485d5	0.12941678
181	0x3d040745	0.032233495
182	0xbd151eb4	-0.036406234
183	0xbdeb523b	-0.114902936
184	0x3dcce419	0.10004444
185	0x3dc3ddc6	0.09563784
186	0x3cc7d2c0	0.024392486
187	0x3d818fda	0.06326266
188	0x3e4fb065	0.20282133
189	0x3dc81df7	0.0977134
190	0xbd41cc8f	-0.047314223
191	0x3d26d5e8	0.04073134
