16 - Recurrent Neural Network/model/multivar/weights_50.pth (torch, 606727 bytes, 9 tensors)

rnn.weight_ih_l0 f4 [384, 5]
000000 c8 46 9f b8 d3 a8 56 3d e8 0d f0 bc 6f a8 d0 bc
       -7.594895e-05 0.052407097 -0.029303506 -0.02547094
000010 84 36 2a bd 42 6a 21 3d d1 2b 23 3d 58 8c ff bd
       -0.041555896 0.039407976 0.03983671 -0.1247794
000020 6d c1 13 3d 53 62 6a 3d 16 bc 87 3a 71 1f 3b 3c
       0.036073137 0.057222676 0.0010355737 0.01142107
000030 18 dd b2 3c 3d 82 f9 3c 66 ab a1 3d 01 6d 2a bd
       0.021833941 0.03045761 0.0789402 -0.04160786
000040 69 2c 4c be 87 f1 d7 3d 02 4e 0f 3e 1c 09 88 bd
       -0.19938816 0.105441146 0.13994601 -0.066423625
000050 53 a4 cc bc e7 7e 25 3d 7f 6e 5b 3d 23 3c 00 3d
       -0.0249807 0.040404227 0.053572174 0.03130735
000060 86 b5 b1 bd a4 ee 82 bc 0b f9 15 be 63 b6 52 3d
       -0.08677201 -0.015982933 -0.14645784 0.05144347
000070 c8 9e 6b 3d 71 75 96 bc d2 83 66 3d 9e 46 16 be
       0.057524472 -0.018366547 0.056278057 -0.14675376
000080 0b 0d fd 3d c3 55 ad bc 96 34 13 3d 31 5b fb bc
       0.123560034 -0.021159058 0.03593882 -0.030683132
000090 d3 c2 3b 3d c1 a3 5c 3d aa 38 b7 3c 50 a6 86 bd
       0.045840096 0.053867105 0.022365887 -0.0657469
0000a0 90 46 99 bd 79 5e a7 bd cc 0b 7a 3d a7 74 4a bd
       -0.07484162 -0.08172316 0.061046407 -0.049427655
0000b0 b4 02 8d 3c e8 4a 64 bd 72 6e 33 bd b5 e0 6b 3d
       0.017213203 -0.0557355 -0.0438065 0.057587344
0000c0 bd 85 4b 3d d9 47 1b 3c bf cd 66 3d 07 83 f1 bc
       0.04968809 0.009477579 0.05634856 -0.029481424
0000d0 1e 73 83 bb d0 66 bf bd a3 54 9b 3d 03 4b 85 3d
       -0.004011526 -0.09345782 0.075845025 0.06508448
0000e0 0e f6 1d 3d 9f 44 a3 bc ec f4 de bd 8d 97 a5 3d
       0.038564734 -0.019930182 -0.10886559 0.08085547
0000f0 11 fa dd 3b 79 5e d6 3a 93 fa c7 bd 70 d3 8a bd
       0.006774195 0.0016355059 -0.0976459 -0.0677861
000100 6b e7 53 3d fe a5 96 bd 7c 4c 59 be 65 11 bf 3d
       0.05173437 -0.07355879 -0.21220583 0.093294896
000110 cc cd 45 3e 67 1f f7 bc f2 cf f1 bc 84 0b cd 3b
       0.19316787 -0.030166341 -0.029518101 0.0062574763
000120 74 78 1c 3d 75 58 dc bb 53 dc 28 bd ea 5d 88 bd
       0.03820081 -0.006724412 -0.041225743 -0.06658538
000130 21 39 71 3c e1 be 5b 3d b9 ee 8f bc c4 cd ca 3d
       0.014723093 0.053648833 -0.017569887 0.09902528
000140 37 0d 57 3c 70 d9 a5 3c 4e d4 87 3d 6f c2 2c bc
       0.013125709 0.020245284 0.06632291 -0.010544403
000150 23 d9 a7 3d 9b 00 29 bd cb 28 60 bd e7 e5 0f 3d
       0.081957124 -0.041260343 -0.054726403 0.03513136
000160 3d 07 64 3d 35 5b 8d 3d 25 9d 5e 3d 2f b7 fc bc
       0.055670965 0.06902162 0.054349083 -0.030849067
000170 b0 d9 a7 bc 17 b3 bc bd 33 4b 54 bd e2 16 34 3d
       -0.020489544 -0.09213846 -0.051829528 0.043967135
000180 b8 a3 4a bc 5b 20 5c 3a 89 e4 ba bd 48 ad 2c bd
       -0.012368135 0.00083971553 -0.09125621 -0.04215744
000190 0e d5 28 3d cb f4 af bd e8 0e 79 bd dd ac b0 bd
       0.04121881 -0.085916124 -0.06080523 -0.08626721
0001a0 61 b4 57 bc ba a1 09 3d b4 9c 1b be 76 04 ae 3c
       -0.013165564 0.0336015 -0.15196496 0.021242362
0001b0 dc c9 51 3a 1f 6e c4 bd e3 d1 94 3c 5d 7b 80 3d
       0.00080027967 -0.095913164 0.018166488 0.0627353
0001c0 7b d3 a5 3c 45 98 81 3d d8 17 14 bd 62 59 7c 3d
       0.020242443 0.06327871 -0.03615555 0.06160868
0001d0 46 9b 1f bb 27 63 17 be 8a 57 cb 3c 33 48 28 bd
       -0.0024354025 -0.14783917 0.024822015 -0.04108448
0001e0 2c 94 f0 3c 75 a6 9e 3c 56 b4 4a bd 51 59 e5 bc
       0.029367529 0.019366482 -0.049488388 -0.027996691
0001f0 10 b5 de bc 7d 9c 10 bd fe 48 3b be a1 18 95 3d
       -0.027185947 -0.03530549 -0.18289563 0.07280088
000200 b1 4e 24 3e 24 88 bf bb f2 45 22 3d e7 63 26 bc
       0.16045643 -0.0058450866 0.039617486 -0.0101556545
000210 2d ef 63 bc 99 87 ee bb a4 e3 25 3d 3b 1d 66 3d
       -0.013912004 -0.007279348 0.0405003 0.05618022
000220 3f 36 0f bd b0 04 9c 3c ac 20 2d 3e eb 7b 2b bd
       -0.034963842 0.019045204 0.16906995 -0.041866224
000230 17 9d e1 3c 71 9e e5 3c b9 d6 ae bd 28 99 c5 bd
       0.027540727 0.028029652 -0.08537049 -0.09648353
000240 d3 6b d3 bc c0 3b dc bd 95 9e 48 be 24 45 09 3e
       -0.02580825 -0.10753584 -0.19591744 0.13405281
000250 41 f7 81 3e ec 38 9a bd dd 3e 86 3d 3d f1 0a bd
       0.25383952 -0.07530388 0.06554959 -0.03392147
000260 72 dd 41 3c ac 34 82 bc 13 88 d7 3d 1a e0 87 3d
       0.011832582 -0.015894257 0.10524001 0.06634541
000270 61 47 3f be 53 2b a6 3d df 21 35 bd f8 7a e6 3d
       -0.18679573 0.08113732 -0.044221755 0.11253923
000280 fb 68 bf bb fc 74 11 be 05 23 11 3e a3 8c d4 3d
       -0.005841372 -0.14204782 0.14173515 0.10378387
000290 7b 70 51 3c ab 53 bd 3d 08 e1 e7 bc a5 be 6e 3d
       0.012783165 0.09244474 -0.028305545 0.05828728
0002a0 cf e4 14 3e c6 9c 53 bd 18 e9 7d bd 9d 12 14 be
       0.14540409 -0.051663183 -0.061989874 -0.14460225
0002b0 08 b4 b4 3d f0 d8 43 3e 88 5c 72 bb 94 9e b5 3d
       0.08823401 0.19125724 -0.0036981422 0.08868137
0002c0 13 75 4f be ae 77 6f bd c2 8e 2d bd 43 e0 cd 3d
       -0.20259504 -0.058463745 -0.042372473 0.1005254
0002d0 59 4b 46 3d 99 77 3d 3a 3d 11 a2 bd f1 a2 97 bb
       0.0484117 0.0007227599 -0.07913444 -0.0046275784
0002e0 e6 13 0f bd f3 78 a1 3d 60 c5 b9 3c 0f a3 d2 bd
       -0.034931086 0.07884397 0.022677124 -0.10285007
0002f0 bf c6 76 3c 4e f8 bd 3d 5e 74 4a bd ae 1f 38 be
       0.015062033 0.09275876 -0.049427383 -0.17980835
000300 18 b1 4d 3d 59 79 40 3e 74 c4 a5 bd c8 e6 96 bd
       0.050217718 0.1879629 -0.08094111 -0.07368237
000310 04 e5 ac bd dc ee 84 3d 08 39 9e 3d ce 40 9f bd
       -0.08442119 0.06490871 0.077257216 -0.077760324
000320 89 32 14 bd 75 36 65 be 20 ac e1 3d fd 82 7d 3d
       -0.036181007 -0.22384055 0.11019158 0.0618925
000330 fb 7e f4 3b 20 63 c3 bd b6 54 51 be f9 47 65 3d
       0.0074614263 -0.09540391 -0.20442471 0.05597684
000340 57 0d 85 3e e0 65 a9 bd 79 0f 8c bd 35 e7 c2 3d
       0.2598674 -0.08271384 -0.06838889 0.095167555
000350 05 04 6f bd 93 8e a0 bd e0 fb 2e 3d fd 61 ff bc
       -0.058353443 -0.07839694 0.042720675 -0.031174654
000360 6d e9 18 bd 00 78 e8 bd e3 aa b5 bd 90 53 14 bd
       -0.037331987 -0.11351013 -0.08870485 -0.036212504
000370 93 3b c6 3d 9c 21 44 3c 31 44 c4 bd a2 a6 97 3c
       0.09679332 0.011970904 -0.09583319 0.018512074
000380 39 6a 91 3d 1c c5 8c bb 11 37 7d bd 46 5a 9c 3d
       0.071003385 -0.004295958 -0.061820094 0.07634406
000390 8d 5d e2 bb 2a 17 94 bd 42 82 9f bd 2f ac 33 be
       -0.006908125 -0.07230981 -0.077885166 -0.17546152
0003a0 33 cb f5 bc 45 78 16 3e 0c 86 54 3d eb c2 7e bd
       -0.03000412 0.14694317 0.05188565 -0.062197607
0003b0 54 0c 30 bd 99 e9 14 3d 69 9a 85 3e c6 84 c5 3d
       -0.042980507 0.03635559 0.26094368 0.09644465
0003c0 89 37 82 bd cb 2c 5f 3d 84 83 37 bc c2 74 6f 3c
       -0.06358249 0.054486077 -0.011200789 0.01461524
0003d0 f8 27 15 bd 66 be 5a bd 69 14 b5 bd 50 43 80 3b
       -0.03641507 -0.053404234 -0.088417836 0.0039142743
0003e0 a0 4d c3 3d f7 3c fc 3c 21 d0 81 bd d4 c2 bf bd
       0.0953629 0.030790789 -0.063385256 -0.093633324
0003f0 98 bd 18 3e 9a 1c 2d 3e d5 8c 67 3d 06 f8 1b 3d
       0.14916074 0.16905442 0.056530792 0.03807833

rnn.weight_hh_l0 f4 [384, 128]
000000 0e a3 09 bd 22 8d ad 3d e3 1b 8f bd c3 db 32 3c
       -0.033602767 0.084741846 -0.06987741 0.010916653
000010 c3 a4 0b bc 49 e8 9a bd 92 f1 b7 bc f0 c3 1c 3e
       -0.008523169 -0.07563836 -0.022454057 0.15309119
000020 d3 78 cc bd 28 2b 25 bd fb 4b b0 bd a1 86 f4 bd
       -0.09983983 -0.04032436 -0.08608242 -0.11939741
000030 50 85 8b bc 62 ca a2 3d c7 1e 53 3b d0 51 c1 3d
       -0.017031342 0.07948758 0.003221439 0.094394326
000040 53 ec 40 3b 69 4e 91 bc 5e 0f 06 3e 89 55 3f 3d
       0.0029437735 -0.017737584 0.130918 0.046712432
000050 b3 be 08 3d 0b 74 71 3d d3 35 f5 3d a8 1c 7b 3b
       0.03338499 0.058948558 0.11973157 0.003831664
000060 76 61 df 3d da 57 c5 bd aa ac aa bd 8c 8b 7e 3d
       0.10907261 -0.09635897 -0.08333714 0.0621448
000070 42 02 a2 bd 2c 3f 19 bd 3c d0 93 3d 86 45 48 bd
       -0.07910587 -0.03741376 0.07217452 -0.048894428
000080 51 c4 86 bd 17 68 e0 3d ef d7 55 bc 2c 14 0b 3e
       -0.06580413 0.109573536 -0.013051971 0.13581914
000090 4e ab ba 3c 22 37 19 bc 7c 19 92 3b 71 46 ad 3b
       0.022786763 -0.009351524 0.0044586044 0.0052879383
0000a0 9d 17 3a 3d 5f 07 0f bc 24 20 c6 3b 5c 25 9d bd
       0.045432676 -0.008729785 0.006046312 -0.07673141
0000b0 51 52 84 bd ce 4b 23 3d ba 50 f1 3b b2 7e f8 3a
       -0.06461013 0.039867215 0.0073643597 0.0018958657
0000c0 88 c7 9c 3a 87 01 b5 bd c8 c0 83 3d 29 e5 8c 3d
       0.001196132 -0.08838182 0.064332545 0.06879646
0000d0 27 b4 0e bb ef ba c0 3d ce 5c da 3d 84 f5 b3 bb
       -0.002177486 0.09410655 0.10662232 -0.005491914
0000e0 c9 8c 4e 3d 21 c2 93 3c a3 32 7e bb b8 0e d1 3d
       0.050427232 0.018036904 -0.0038787506 0.102078855
0000f0 e8 9e 62 bd 82 19 4b bd 67 9b 51 bd d6 f8 aa bc
       -0.055327326 -0.049584873 -0.051173594 -0.020870607
000100 28 32 68 3d 9b 73 e7 3d eb 2a d5 3c e7 78 a3 bd
       0.056688458 0.11301347 0.026021441 -0.07982045
000110 31 32 d9 3d ce 4f 0e 3d 66 22 3b 3d 82 b9 9e 3d
       0.106052764 0.034744076 0.0456871 0.077502266
000120 8d 62 75 bc 17 39 02 3d 51 60 3a 3c 9e 52 7e 3a
       -0.01497711 0.031792726 0.011375503 0.0009701642
000130 73 3c 96 bd f7 71 c6 bc 43 46 c5 bc ee be 75 3d
       -0.073357485 -0.024224265 -0.024081355 0.059996538
000140 03 67 96 3d 00 08 82 bd f8 e0 0e bd 90 b0 dd 3d
       0.07343867 -0.06349182 -0.034882516 0.10824692
000150 9b 30 bd 3c 6d 2f 05 bc ff 12 be bc 3d 8e fe bc
       0.023094466 -0.008128983 -0.023202417 -0.031073684
000160 2c 83 0f 3b 43 18 28 bd d7 95 76 3d 23 69 0b 3d
       0.0021898253 -0.041038763 0.060201492 0.034035813
000170 01 86 a0 bd 0a c9 b3 bc 83 b2 7d bd 84 d6 08 3e
       -0.07838059 -0.021946449 -0.06193782 0.13363081
000180 dd 29 49 bd 32 6a 1c 3d 01 e1 d9 bd 09 15 06 3d
       -0.04911219 0.038187213 -0.10638619 0.032734904
000190 36 a4 8d b9 15 78 1b 3d f6 aa c8 3d 55 ef 29 3e
       -0.00027015962 0.037956316 0.09798233 0.16595204
0001a0 3c 4e f5 b7 4f a2 a6 bd 3a 2a 8b 3c ef da c4 3d
       -2.9242707e-05 -0.08136427 0.016987909 0.09612071
0001b0 33 ff d8 bc ca f2 31 bd 88 77 9b 3d bb ba c5 3d
       -0.026488876 -0.043444432 0.07591158 0.09654757
0001c0 22 d8 ad 3d c9 cf db 3d c3 71 6a bc dd ec f2 3d
       0.0848849 0.10732991 -0.0143093495 0.11861584
0001d0 3e eb 4e bc e9 f6 a6 bd 7e c3 9a 3d d0 c4 80 bd
       -0.012629328 -0.08152563 0.075568184 -0.06287539
0001e0 46 41 6c 3c ce 4c 24 3d d1 87 e6 3d b7 aa ce 3c
       0.014419859 0.04011231 0.11256374 0.025227888
0001f0 f9 6b 15 3d 44 6e da 3c e4 78 f0 3c 6e 86 4a 3d
       0.036479924 0.026663907 0.02935452 0.04944461
000200 bb 53 79 3b 70 a4 77 3c 74 97 c0 3c 0f e3 91 bd
       0.0038044292 0.015114889 0.023509718 -0.07123386
000210 c1 49 11 bd b1 5e 97 3d e9 64 00 3c 01 4a c5 3d
       -0.035470728 0.07391108 0.007836559 0.09633256
000220 1f ca a7 bd bd b2 93 bd 4b 00 8f 3d 14 e6 7a bb
       -0.081928484 -0.07211826 0.06982478 -0.003828411
000230 2e 23 a9 bd 8b 03 e8 bb b7 58 0b bd ae cc ec 3c
       -0.08258663 -0.0070805005 -0.034020152 0.028906193
000240 c1 bc 2c 3d 8b 9d ab bd 5c b2 31 bd 3f 2c 82 3d
       0.042172197 -0.08379658 -0.043382987 0.063560955
000250 cc 79 8e 3d f2 2f 1d bd 2f 62 2d 3c 36 f3 03 3d
       0.06956825 -0.038375802 0.010582491 0.032214366
000260 6b bc aa 3d fb 9e b7 3c 48 99 db 3c 8f 2d 0e bd
       0.08336719 0.022414675 0.026806489 -0.034711417
000270 24 1e 30 bd ff fc ae 3c 68 ad 82 bd ec 86 62 3d
       -0.042997494 0.021360872 -0.06380731 0.055304453
000280 3d ec 18 bd d3 ea 20 3d 08 a6 24 bd 23 64 89 3d
       -0.03733467 0.039286446 -0.040197402 0.06708553
000290 72 2f 08 3c b2 86 a7 bd 0e a4 2d bc 6f e4 ab ba
       0.008312093 -0.08179988 -0.010598196 -0.0013114343
0002a0 e6 52 b2 bd 28 a4 b7 3c 9d 43 cb bc d6 96 83 3c
       -0.08707218 0.022417143 -0.024812514 0.016063135
0002b0 16 fc 5b bd da ae 8e 3d 38 a2 3e 3d 24 44 2b bd
       -0.053707205 0.06966944 0.046541423 -0.04181303
0002c0 f8 f6 a0 3c e8 7a 5e 3d 4b cc c6 bd 95 f7 01 bd
       0.019649014 0.05431643 -0.097069345 -0.031730253
0002d0 8d 47 9e bd 37 a1 8d bd c1 9d 64 3c a5 bf 51 3d
       -0.07728491 -0.06915515 0.013953627 0.051208157
0002e0 1e 04 14 3d 51 20 3e bd d5 bf 83 3b 07 25 44 3d
       0.03613674 -0.046417538 0.004020671 0.047886875
0002f0 95 ef 5a 3c 87 9b 82 3d e8 67 a3 3d 22 f2 eb bc
       0.013362785 0.06377321 0.07978803 -0.028801981
000300 88 55 1d bc 0f 6f a4 bd 58 6f ac bb 23 ee b8 bd
       -0.009602912 -0.08028995 -0.0052622966 -0.09029796
000310 3f 22 8f 3d d0 5e b4 3d d6 35 94 3d c8 8a 8c bd
       0.06988954 0.088071465 0.07236831 -0.06862408
000320 03 d8 d4 3d fe af 9b 3c 79 2a 93 3d 54 6c 10 3d
       0.103927635 0.019004818 0.071858354 0.03525956
000330 f9 f0 6e bd b0 c3 f0 3c 35 ad 31 bd 4a f2 6c bd
       -0.05833528 0.029390186 -0.043378074 -0.057848252
000340 e8 92 d8 3c 6f 11 bd bc 9a 25 3f bc 09 79 bc 3d
       0.026437238 -0.023079602 -0.01166668 0.09202773
000350 91 8a 1e bd b7 07 0e 3d 99 28 9c 3d f2 fa f3 3c
       -0.038706366 0.034675326 0.07624931 0.029782746
000360 95 1f 2a 3d ff 54 a6 bd 3b c6 96 bd 4b 65 67 3d
       0.041534025 -0.081216805 -0.07362028 0.056493085
000370 7d b4 8e 3c 73 a8 51 bd dc 3f 21 bc e9 67 0d 3e
       0.017420048 -0.051186036 -0.009841885 0.1380917
000380 59 a1 3f bc 26 92 b2 3d 79 24 a4 bd e5 a6 15 bd
       -0.011696183 0.08719282 -0.08014769 -0.036536116
000390 46 82 81 3c fc c3 9e 3d db 85 2d bc 15 02 92 3d
       0.01580919 0.07752225 -0.010590996 0.07129303
0003a0 bd 26 00 bd 81 05 74 bd 30 12 96 bd 9d 60 69 3d
       -0.031286944 -0.05957556 -0.07327688 0.056976903
0003b0 b0 f4 a9 bd 8d 9c 72 bd 26 27 8e 3d 26 22 f4 3b
       -0.082986236 -0.05923133 0.06941061 0.00745036
0003c0 2f 35 94 3d d6 51 6f bd 30 1e 7c 3d bb c8 27 3d
       0.072367065 -0.058427654 0.061552227 0.040962916
0003d0 6a a8 bb 3c a8 5a a5 bd 28 1d 3c bd 63 20 8d bd
       0.022907455 -0.08073932 -0.045926243 -0.06890943
0003e0 f6 de 8d bd 9a b7 d3 3c fd df b5 bd 60 d4 00 3d
       -0.06927292 0.025844384 -0.08880613 0.031452537
0003f0 e2 cc 8d 3c af 12 78 bd 02 43 3d 3c 83 8a c7 3d
       0.01730961 -0.060564693 0.01155162 0.09743216

rnn.bias_ih_l0 f4 [384]
000000 00 f4 46 3c 8c 49 aa 3d 0e 1f d2 bb f2 a0 2b bd
       0.012143135 0.08314809 -0.0064123934 -0.041901536
000010 ee 08 56 bd e7 a5 0d bd fe fd 1e bd 66 06 04 3e
       -0.05225461 -0.034582045 -0.038816445 0.12893066
000020 cf 31 5e bd ed e1 6b 3c 24 ec 5d 3d 83 b4 91 bd
       -0.05424672 0.014397127 0.05418028 -0.07114508
000030 b2 38 dc 3b 41 90 e7 3d b9 42 80 ba 21 a3 8b 3a
       0.006720626 0.11306811 -0.000978551 0.0010653475
000040 34 7c 72 3d 1e f9 aa 3c dd 98 63 3d f4 18 90 3d
       0.05920048 0.020870741 0.055565704 0.070360094
000050 da 88 bf bd e5 16 95 3d d8 5b 6b bd 03 48 b1 bd
       -0.09352274 0.072797574 -0.057460636 -0.08656313
000060 49 f5 02 3d 44 ca 9c 3d c6 f4 89 bd 7f 37 1f 3d
       0.031972203 0.076557666 -0.0673614 0.038871285
000070 4c bc d3 3b 36 a3 c7 bc e1 5d 8e 3d 45 f9 89 3d
       0.0064616557 -0.024369817 0.069515 0.067369975
000080 4d 3d 4b 3d 64 50 e7 3d 37 73 3f 3c 2f f9 88 3d
       0.049619008 0.1129463 0.011685184 0.06688153
000090 d6 a6 18 bd fd 3e c7 3c a3 4b 15 bd 55 fb 2b bb
       -0.037268482 0.024322027 -0.036449086 -0.0026242335
0000a0 2a dc bd 3c 8b 0c b2 3d 72 ca 10 3d f9 c6 5d 3d
       0.023176271 0.08693799 0.035349317 0.054144833
0000b0 74 9f 9e bc 4d f9 0d bd cd 60 63 ba b0 8b 2f 3d
       -0.019363143 -0.03466158 -0.0008673787 0.042857826
0000c0 e6 39 2d bc ff 6b 01 3e b7 02 b0 3c 36 06 7d 3d
       -0.010572886 0.12638853 0.02148567 0.0617735
0000d0 c9 27 9c bd 3c c5 68 bd ac f3 ab 3d 1f fd 62 3d
       -0.07624776 -0.056828722 0.08396086 0.055417176
0000e0 8e fe fc 3c 7d 9d 27 3c ec d6 df 3c 0c 83 66 bd
       0.0308831 0.010230419 0.027324162 -0.05627732
0000f0 8f 01 ca 3d 6e 90 7b bd 9b df 1a 3c c2 fb 96 bd
       0.098635785 -0.061417036 0.009452726 -0.07372238
000100 2c 67 85 3d af 0e 03 3d 7f 54 3d bd ed 87 85 3d
       0.06513819 0.031996425 -0.04622316 0.065200664
000110 8f 69 12 3d 79 7e 87 3d d9 81 91 3d 22 cc 9f ba
       0.0357452 0.066159196 0.071048446 -0.0012191574
000120 25 66 d9 bd cd 51 81 3d 43 05 66 3d 75 0d b9 3d
       -0.10615186 0.063144304 0.05615736 0.0903577
000130 b3 7e d2 3d c3 b8 20 bd 67 cd b1 3d 4e 7a 43 3d
       0.10278072 -0.039238703 0.086817555 0.04772406
000140 0f cc 75 bd a3 7a 8a 3d 10 f4 e2 bb 2f ba 59 3d
       -0.06000906 0.06761672 -0.006926067 0.053156074
000150 65 cd 81 3d 72 57 b1 3d e5 c4 30 3d da a0 b0 3c
       0.06338004 0.08659257 0.043156523 0.021561075
000160 b5 b3 6d 3d 41 97 7e bc 49 fc 07 3e 45 40 cf bc
       0.05803271 -0.015538991 0.13279833 -0.0252992
000170 ed b6 1e 3c 45 32 a0 bd 87 2f 85 bd ff 99 06 3e
       0.009687168 -0.07822088 -0.06503206 0.13144682
000180 bd 3a 0d 3d 3e ed d3 3d 7e bb d6 bc 5a 5e 5c 3c
       0.034479845 0.10347985 -0.02621245 0.01345023
000190 cd 88 38 bb 5b 2a 58 3d 6f 45 b8 3c 71 b5 7c bc
       -0.0028157711 0.05277477 0.022494046 -0.015424118
0001a0 a4 c2 7e 3d 19 d6 9e bc 48 6b 8a 3d 15 aa 57 3d
       0.062197343 -0.0193892 0.067587435 0.052652437
0001b0 12 dc 8c 39 09 b5 2e bd bd 22 03 3e 87 96 a4 bc
       0.00026866846 -0.042653117 0.1280622 -0.020091308
0001c0 62 d2 7b bc 11 ad 80 bc 23 35 56 bd 5b 49 91 bd
       -0.015369983 -0.015707524 -0.05229677 -0.070940696
0001d0 39 d1 0b 3d 9e f4 61 bd 8a a4 96 3d c1 a6 9a 3d
       0.034135077 -0.055164926 0.07355602 0.07551337
0001e0 bc cf 24 bd 0a a3 72 bd c1 1e 9c bc 4a 23 1f 3b
       -0.040237173 -0.059237517 -0.019057633 0.0024282509
0001f0 02 97 0a bd 14 38 c9 3d 5d 3a 8d bd 1a d1 aa 3d
       -0.03383542 0.09825149 -0.068958975 0.08340664
000200 eb 53 2b bd f5 c0 e0 bd c6 1b 27 3d 97 37 77 bd
       -0.041828077 -0.10974304 0.04079797 -0.06035575
000210 2a 9c a2 bd 86 94 83 bd 74 35 e8 bd 26 a9 8e 3c
       -0.07939942 -0.06424813 -0.113383204 0.01741464
000220 ca b7 19 3c 62 61 07 3d 6c 8d 69 bd 72 32 8d bd
       0.009382198 0.033051856 -0.057019636 -0.06894387
000230 3b e1 99 bd e6 56 ab bd ed 48 a7 3c 4f b8 02 3c
       -0.075136624 -0.08366184 0.020420516 0.007978513
000240 61 33 a4 bd a7 d2 62 3d aa 9e 22 3c 41 94 e1 bd
       -0.08017612 0.055376675 0.009925524 -0.11014605
000250 25 9d 3a bc 8f 04 29 bd ee 15 3f 3d c8 8d 79 bc
       -0.011390005 -0.041264113 0.046651773 -0.015231557
000260 5d e7 15 bd ad 7f 07 be 24 0c 30 bd f1 75 48 3c
       -0.0365976 -0.13232298 -0.04298033 0.012235151
000270 45 97 58 bd 06 a2 05 be b5 41 47 3b 0b 6e 4c 3d
       -0.052878637 -0.13050088 0.0030404155 0.049909633
000280 b8 59 fa bd 2f 83 b9 bd d6 f3 63 b9 56 d3 5e bd
       -0.12224144 -0.090582244 -0.00021739243 -0.054400764
000290 bd ac 5f bd a1 ff ad bd 65 b9 48 bc 21 e6 4a bd
       -0.054608095 -0.08496023 -0.012251233 -0.049535874
0002a0 00 0f 7f bd 63 7d c2 bd 65 2e 1c bd 44 8a e3 3c
       -0.062270164 -0.09496572 -0.038130183 0.027775891
0002b0 dd 03 b2 bc 5f 26 31 3d 5c 6d 71 3d 29 b9 f1 ba
       -0.021730358 0.043249484 0.058942184 -0.0018442023
0002c0 5b b2 6d bd cf f2 10 be 00 f5 04 3d 5b f3 b9 ba
       -0.05803142 -0.14155124 0.032460213 -0.0014186905
0002d0 d1 f3 5e 3d 9c 96 8e 3c 88 29 2f bd a9 7e c7 bd
       0.05443174 0.0174058 -0.042764217 -0.097409554
0002e0 28 17 fb bd c1 e0 3f bd 6c f9 e2 bd 51 72 a1 bd
       -0.12260276 -0.0468452 -0.1108273 -0.07883132
0002f0 35 7b 06 bd a5 f2 aa bd a5 3e 29 3d f9 07 a1 3c
       -0.032832343 -0.08347062 0.041319508 0.019657122
000300 e4 04 5b bd 2b fb ff bd 1b 50 2f bc 9e af 84 be
       -0.05347146 -0.12499078 -0.010700251 -0.25915235
000310 d0 cb dc bd 27 64 c7 3c 69 e8 bf bd 28 bd cc bd
       -0.10781062 0.024339749 -0.093705006 -0.09997016
000320 e8 5a 24 be 1c 9e b6 bd 34 d9 1d 3a cb 51 d8 bd
       -0.16050303 -0.08916876 0.00060214405 -0.10562476
000330 b6 b7 76 bd bc f8 bb bc 7b 06 d3 bd c3 2b 74 bc
       -0.060233794 -0.022945754 -0.103039704 -0.014903012
000340 b5 6b 8b bc ce b4 19 be c1 65 03 bb 0b 84 52 bd
       -0.017019132 -0.15010378 -0.0020049664 -0.051395457
000350 15 c2 39 3b 17 54 e8 bd f7 fb 66 bd fa 5a 5b bd
       0.0028344442 -0.11344164 -0.056392636 -0.05355356
000360 f4 66 2a be 4e c5 bc bd b7 88 a6 bd f8 f1 73 bd
       -0.16640836 -0.092173204 -0.08131545 -0.05955693
000370 df 5a 79 bc 58 2e a3 3c 6e d1 61 3d cf f0 2f be
       -0.015219419 0.01991956 0.05513137 -0.17181705
000380 af 9b 23 bd ff f4 d7 bd 71 88 c4 bd e3 33 0d be
       -0.039943393 -0.10544776 -0.09596337 -0.13789324
000390 c7 89 dc 3a c6 9b 75 bd b6 26 0d 3d 33 5b b3 bd
       0.0016825729 -0.05996301 0.034460746 -0.08757629
0003a0 96 5f d1 bb 5d 0d e4 bc f9 22 6d 3d 8e ba 04 be
       -0.0063895686 -0.027838403 0.05789468 -0.1296179
0003b0 4c 30 33 bb a6 1a 8f bd 03 de 4d bd 61 e4 a1 bd
       -0.002734202 -0.06987505 -0.050260555 -0.07904888
0003c0 b2 8d b4 bd ee c0 cf 3b b4 c1 5a bc f3 a6 79 3b
       -0.08816089 0.0063401377 -0.0133518465 0.0038093894
0003d0 f6 af aa bc 01 65 c6 bd ac b1 0f 3d 21 ea 62 3b
       -0.020835858 -0.09687234 0.03508155 0.0034624415
0003e0 92 24 eb bd 13 b8 dd 3b 6c 27 ef bd 0b f8 df bd
       -0.114815846 0.006766328 -0.11677441 -0.10935982
0003f0 08 5b e2 bc 6d bf 58 bd 1d b1 5a 3c af 85 39 ba
       -0.027631298 -0.052916933 0.013347891 -0.00070771103

rnn.bias_hh_l0 f4 [384]
000000 02 4a 17 3c 91 75 a3 bd f6 cb 80 3d cc a8 bc 3d
       0.009233953 -0.079814084 0.062889025 0.09211883
000010 80 28 02 3d 20 9c 11 bd f2 15 bc 3d 10 67 65 3d
       0.031776905 -0.035549283 0.09183873 0.05600649
000020 ea 4c 66 3d ab a5 ac bd 57 70 82 bd 8e 5d d7 bd
       0.056225695 -0.08430036 -0.063690834 -0.10515891
000030 c2 f8 b2 bd 60 16 bb 3c fc d6 a7 3c 2a 33 ff bc
       -0.08738853 0.022837818 0.020488255 -0.031152327
000040 e3 a9 70 bd 8a 34 ab 3d e8 a4 c1 bd 05 f0 51 3d
       -0.058755767 0.083596304 -0.094552815 0.05125429
000050 a8 a4 37 3d 32 80 1b 3b 76 c3 b4 3c 78 f3 82 bc
       0.044834763 0.0023727533 0.02206586 -0.015985236
000060 0d 8c 62 bd 1d 65 86 3a 4a 5a 8c bd 18 53 cf 3c
       -0.055309344 0.0010253523 -0.06853159 0.025308177
000070 5b c8 a8 bd 72 d3 6a 3d 70 f8 2b bd 5d af af 3d
       -0.0824134 0.057330556 -0.041984975 0.0857837
000080 d6 00 77 3d 34 8f bf bc ab 48 b7 3c 80 04 19 3d
       0.06030353 -0.023383714 0.022373518 0.037357807
000090 81 44 7a 3d e5 69 87 3d b9 f6 de 3d dc 6c b8 3d
       0.061100487 0.06611995 0.10886902 0.09005138
0000a0 57 32 34 bb 82 2a e4 3d 6b 07 c9 3b 3a f4 9e 3d
       -0.0027495825 0.1114092 0.0061349175 0.07761426
0000b0 6d 9e 9a 3d d4 f8 6d bd 9b 1b 7d 3d 0d 64 fb 3d
       0.075497486 -0.05809863 0.061793905 0.122749425
0000c0 4c 74 44 bd 6d 03 c5 3d c1 03 59 bc 2e 1d 2e bd
       -0.04796247 0.09619794 -0.013245524 -0.042508297
0000d0 9c 32 f1 bc c4 10 c7 3d da 86 cb 3c 94 16 87 3d
       -0.029443078 0.09719995 0.024844576 0.06596103
0000e0 34 84 e6 bc 29 a5 1f 3d 2b 09 85 bd a7 88 b9 bc
       -0.028139211 0.03897587 -0.06495889 -0.022648169
0000f0 b9 22 2e 3c c2 32 cf bd 8e fb bd bc 01 1b ba 3c
       0.010628396 -0.10117103 -0.02319124 0.022717955
000100 a6 7f ef bc 53 6d bf bd da 74 98 3d 97 74 e4 3c
       -0.029235672 -0.09347024 0.07444163 0.027887626
000110 18 84 15 3d 18 d8 b1 3d aa 62 b8 bd e8 34 02 bc
       0.036502928 0.08683795 -0.09003194 -0.007947184
000120 c2 55 b9 bd ba ea c6 3d f1 e2 94 3d f6 69 78 bd
       -0.0904956 0.09712739 0.07269848 -0.060647927
000130 ec 6c 00 3d f3 42 62 bd 9e ba 85 bc f8 d5 c5 3d
       0.031353876 -0.05523963 -0.016324338 0.09659952
000140 4f cc 1f bb 68 5f 55 bd 03 f7 87 3d b0 43 a7 bc
       -0.0024383252 -0.05209294 0.066389106 -0.020418018
000150 53 34 38 bc b3 c7 88 3d 01 19 a3 3c bb 2f 7f bc
       -0.011242944 0.066787146 0.019909384 -0.015575345
000160 7d 43 9f 3d af ec 9d 3d f9 c0 2f 3d 2a 57 8c 3d
       0.07776544 0.077111594 0.042908642 0.06852563
000170 da f8 87 3d c5 23 5b 3d e0 74 1b bd 22 8a d1 3d
       0.066392615 0.05350091 -0.037953258 0.10231425
000180 14 c7 26 3c 82 f3 a2 3d 31 ab a5 3d 4d 58 ee 3d
       0.0101793 0.07956602 0.08089293 0.11637936
000190 c4 9a bc bd c3 f7 e1 3d 1a 26 84 bd 34 2f c6 3d
       -0.09209207 0.11033585 -0.0645258 0.09676972
0001a0 6e dc de 3d bf 71 e0 bc 93 33 50 3c 68 84 83 3d
       0.108818874 -0.027397988 0.012707609 0.06421739
0001b0 f1 5e 71 bd 7f 2b bb bc d6 f1 9b 3d c6 eb c5 3d
       -0.058928434 -0.022847889 0.07614486 0.09664111
0001c0 e2 7f f5 3a 6e e1 9c 3c 0b 15 a8 3d ba c4 6d 3d
       0.0018730129 0.019150462 0.08207139 0.05804894
0001d0 00 76 2d 3d d5 9a ac bd 0a 2f 78 bc 15 b3 ee 3c
       0.04234886 -0.08427969 -0.015147934 0.029138127
0001e0 98 ba e8 3c 1e e5 c8 bd 24 d4 fc bc 6c bb 7c bd
       0.028409287 -0.09809326 -0.030862875 -0.061702177
0001f0 f7 ee 73 3d 90 c2 be 3c 98 a7 81 3c 96 00 f1 3d
       0.059554067 0.023286134 0.015826985 0.1176769
000200 2b 21 f5 3c 9a 21 f9 bd 28 e6 b9 3b 2c 6c b7 bd
       0.029923042 -0.12164612 0.0056731887 -0.08956179
000210 b5 63 8d 3c de 5d d0 bb ec b7 79 3c b3 58 3e 3d
       0.017259458 -0.006358846 0.015241604 0.04647131
000220 21 df ee 3c 64 77 6d 3d 8e 62 25 3d b1 cf 9b 3c
       0.02915913 0.057975188 0.040377192 0.019019933
000230 2d 0b 02 3c cd 0a bf bd c4 16 e1 bd 25 2c 08 3d
       0.007937235 -0.09328232 -0.1099067 0.033245225
000240 a4 12 bc bc 8c 4b a3 bd 10 3f 4f bd da 54 46 3d
       -0.022958107 -0.07973394 -0.05059725 0.048420765
000250 31 b1 34 bd 99 fd 82 3c d4 64 85 bd 5a 3a 90 3c
       -0.044114295 0.015990065 -0.06513372 0.01760595
000260 3a 9b 19 bc 5a 4d 0c 3c 62 91 f1 bd e0 9f b3 3c
       -0.009375388 0.008563364 -0.11795308 0.02192682
000270 22 da 5a 3d ce 6a 44 bd 8c 5f c1 bd e9 63 36 3d
       0.053430684 -0.04795342 -0.09442052 0.044528875
000280 76 2c 18 bd f0 64 2c bc 06 ba 15 3d ff 7d 0a bd
       -0.037151776 -0.010522112 0.03655436 -0.033811565
000290 69 34 c4 bd 40 a3 4c 3c ed 0b 1b 3d 01 03 03 be
       -0.09580309 0.012490094 0.03785317 -0.12794115
0002a0 c9 f7 74 bd 89 fd c8 bd be 19 c2 3c 47 c9 b8 3c
       -0.05980662 -0.09813983 0.023693915 0.022556914
0002b0 9f 34 03 3d 39 4e 60 3c 58 f7 fd 3b 07 d5 9e bd
       0.032032605 0.013690525 0.007750433 -0.077554755
0002c0 20 bd 8d bd 75 1e 3b bd 27 ee 5f bd a0 9f 0a bd
       -0.06920838 -0.045683343 -0.05467048 -0.033843637
0002d0 39 82 ae bd ee d5 86 bd 71 67 97 3c 28 47 2a bd
       -0.08520932 -0.065837726 0.018481942 -0.041571766
0002e0 7b ac 17 3b 22 38 f3 3c d9 03 7b ba 7b 08 01 be
       0.0023143578 0.029689852 -0.00095754635 -0.12600891
0002f0 6c ec 86 bd fb f3 2f 3d ae 73 69 bd 8c f5 f2 bb
       -0.06588063 0.042957287 -0.056995086 -0.0074145254
000300 ea 14 8e bd 12 9b e7 bd 69 03 13 bc 55 2d 1e be
       -0.06937583 -0.11308874 -0.008972981 -0.1544698
000310 9f 6d 19 bd 65 76 2d 3b a7 ca ea bc 72 8b 65 bd
       -0.03745806 0.0026468274 -0.028661085 -0.05604119
000320 1a b1 ed bd 81 14 01 3d c5 ed bb bd e4 44 26 3d
       -0.11606045 0.031513695 -0.0917621 0.040593043
000330 8b db 2d bd d6 ec 99 bd 65 85 49 bc 0d 9b 21 bd
       -0.0424457 -0.07515876 -0.01229987 -0.03945451
000340 c9 33 da bd 96 88 a2 bd 26 ea 89 bd d2 b6 57 bc
       -0.106544085 -0.07936208 -0.067341134 -0.013166146
000350 a5 ee d7 bb 18 12 42 bd 0a 36 f3 bd d1 12 d5 bc
       -0.006589728 -0.047380537 -0.118755415 -0.026009949
000360 b7 5a 09 be 5a 28 03 3d 71 96 f7 bd 86 de 33 bd
       -0.13413511 0.032020904 -0.12089241 -0.043913387
000370 a8 be f7 bd 02 50 09 bd d2 79 61 3b 1c c2 52 be
       -0.12096912 -0.033523567 0.0034404886 -0.2058186
000380 f2 3f f7 bc dc f2 f3 3c 7f 65 62 bd 64 2a 09 be
       -0.030181859 0.02977889 -0.055272575 -0.13395077
000390 dd e8 de bd 58 e4 fa 3c 6a 88 35 3d 08 a7 fd bd
       -0.10884259 0.03062646 0.044319548 -0.12385374
0003a0 1d c1 02 be 6b f9 b9 3c f5 0e 83 3c 4a 79 e8 bd
       -0.1276898 0.02270194 0.015998343 -0.11351259
0003b0 5c 1e b3 bd 0e 00 83 bb 56 8c aa bc 70 3c fb bb
       -0.08746025 -0.0039978093 -0.02081887 -0.007667117
0003c0 e6 04 4e bd a0 b7 e6 bd dc b3 b6 bd 44 40 c7 3c
       -0.05029764 -0.112654924 -0.08921024 0.024322636
0003d0 4c ba 46 bc ee c0 09 bd 84 09 ce bd fb 1e 10 3d
       -0.012129378 -0.033631258 -0.10060409 0.035185795
0003e0 72 de 38 3c 53 e3 74 bb 43 88 b0 3c 8f 5f f4 bd
       0.011283504 -0.003736694 0.02154935 -0.11932289
0003f0 38 f6 10 3d 9b fe 3f bd 0e 42 7a bd 1d 44 c6 bd
       0.035391062 -0.04687367 -0.06109815 -0.0968096

rnn.weight_ih_l1 f4 [384, 128]
000000 6d 49 c1 bd eb 68 cd bc df cd 55 bb a3 da f5 bc
       -0.09437833 -0.025074443 -0.003262393 -0.03001148
000010 a0 6c 81 3d ce 82 90 bd 0e 7c 94 3d de 05 95 bd
       0.06319547 -0.07056199 0.07250224 -0.0727651
000020 da 78 9e 3d 3e 33 3a bd 7a 32 de bc aa 7f 6b 3c
       0.07737894 -0.045459025 -0.027123678 0.014373699
000030 99 11 2f 3c d1 94 2f 3d 2a 40 e8 bb a6 46 10 3c
       0.010685348 0.04286653 -0.007087727 0.008805906
000040 35 83 85 3d b2 29 84 bd 16 8a 48 3d 4f ff 36 bd
       0.065191664 -0.06453265 0.048959814 -0.044677075
000050 f6 8b 2d 3d fb b4 29 bd 95 db d3 3c 8a 1f 2a 3d
       0.042369805 -0.041432362 0.02586154 0.041533984
000060 45 7e 4d bd 80 00 ce 3d e7 ae 4f 3d bf c6 0b 3d
       -0.050169248 0.10058689 0.05070391 0.034125086
000070 bb 5f a4 3d 93 d8 c5 3c 24 fe f1 3c 63 85 80 bd
       0.08026072 0.024151122 0.029540129 -0.062754415
000080 73 b7 9b bd 6b c5 7e 3d ae af 46 bd f1 12 a8 3c
       -0.076033495 0.06219999 -0.048507385 0.020516844
000090 5d 90 9d bc e8 ec b2 bd c1 9f 89 3d 01 4f bc 3c
       -0.019233877 -0.087365925 0.06719924 0.02298689
0000a0 2b 29 a0 bd 7f 45 7e bd 14 e3 4f 3d c9 76 85 3d
       -0.07820352 -0.062077995 0.050753668 0.06516797
0000b0 58 c8 5f bd fe 50 14 3c cd ca 66 3d 04 2b 2f bd
       -0.054634422 0.009052513 0.05634575 -0.042765632
0000c0 8b 6e d9 3c 8e e4 85 3d 7c 2b c4 bc 31 10 cb 3a
       0.026541969 0.06537734 -0.023946516 0.0015492496
0000d0 a7 c6 90 bd c3 c6 a7 bc cd 9a 49 bd ad fa 4d 3d
       -0.0706914 -0.02048052 -0.049219895 0.05028789
0000e0 68 94 8b 3d d6 a4 d6 3d 6f 8c 3f bd 7a c7 9d 3d
       0.068154156 0.10480659 -0.046764787 0.07704063
0000f0 68 b4 4a bc d2 af 36 3d ea 28 a6 bd 22 e3 5a 3d
       -0.012372114 0.04460127 -0.081132725 0.053439267
000100 87 5b 75 bb 1b 10 77 3d f8 70 aa 3d 52 70 e0 3d
       -0.0037438588 0.060318094 0.08322328 0.109589234
000110 ba f2 02 3d 42 62 55 3c 40 5d ae 3c 40 e5 7e 3c
       0.031969763 0.013023915 0.0212847 0.015557587
000120 38 9f be bd a2 95 b5 3d 7d 96 08 bd 26 ad fb bc
       -0.09307712 0.08866431 -0.03334664 -0.030722212
000130 bf 94 6d 3d e0 66 c3 bd bf f2 cc bd 35 ca 39 bd
       0.058003183 -0.09541106 -0.10007238 -0.045358855
000140 b0 45 8d 3b 02 a3 3f 3d 6d 43 5d 3d e1 86 1f 3d
       0.004311286 0.046786316 0.05401938 0.03894699
000150 e7 71 f5 bc ff f9 90 bd ba fb 5b 3d 12 7f 19 3d
       -0.02996154 -0.07078933 0.053706862 0.0374747
000160 14 74 c3 bc 32 70 47 bd 0a d3 1f 3d 7b 5a 7b bd
       -0.023859061 -0.048690982 0.039019622 -0.061365586
000170 cf 18 ea bc 9c 61 50 3d e2 12 53 3d f7 d6 3b 3d
       -0.028576283 0.050874338 0.05153168 0.045859303
000180 8b cd 35 bc 32 89 89 bd 06 92 54 3d f3 83 55 3d
       -0.011096369 -0.06715621 0.05189707 0.05212779
000190 74 9d 8b 3d 10 c0 91 bc 8b 1e 35 3d b4 f1 a8 3b
       0.06817141 -0.017791778 0.04421858 0.0051557664
0001a0 b8 50 48 bc 40 90 6e bd 75 6a 80 3d ab 81 02 3d
       -0.012226276 -0.058243036 0.06270305 0.031861942
0001b0 f5 8e 07 3d 39 fd 53 3d 61 9f e1 3c 3a 8c a6 bc
       0.03309532 0.051755164 0.027541818 -0.020330537
0001c0 7a f2 25 bd 2e 8f aa 3b 71 cf a9 3d 95 d8 f9 3c
       -0.040514447 0.0052050566 0.082915194 0.030498782
0001d0 46 10 ac bb 6b 0f 61 3d 62 cf 2d bd 41 c6 d5 3c
       -0.0052509634 0.054946344 -0.042434104 0.026095511
0001e0 a2 f0 5c 3d a2 4e 8b 3d c0 63 bb bd dc 0f 91 bd
       0.053940423 0.068021074 -0.09149885 -0.07083103
0001f0 80 73 b6 3b 13 65 2b bc 25 eb 4a bd e8 ab 87 bd
       0.005567968 -0.01046111 -0.049540658 -0.066245854
000200 c5 72 db bc 2f 94 45 bd 80 56 d4 bc a0 33 a8 bd
       -0.026788125 -0.048237022 -0.025920153 -0.08212972
000210 1f 98 f6 38 c9 f0 89 bd 3e 2c c4 3d 09 ee 94 bc
       0.00011758529 -0.06735379 0.09578751 -0.01817991
000220 14 0d 43 3b df 0f 3a 3d 56 2d af 3d b1 b1 16 bd
       0.0029762434 0.045425292 0.08553569 -0.036790553
000230 0e a4 c7 bc 60 09 52 bd e6 9a 22 bd 58 12 6f bd
       -0.02437022 -0.051278472 -0.039698504 -0.058367103
000240 3f 52 6c bd 67 86 a2 bc 6c e8 28 3d c4 61 84 bd
       -0.057695623 -0.019839479 0.04123728 -0.0646396
000250 15 c7 50 bb fd 47 cb bc 53 2f 55 3c ca 91 b9 bd
       -0.0031856943 -0.0248146 0.013011771 -0.0906101
000260 17 49 89 3d 7d 14 d8 3c e5 bd 0b 3a 6a 4b 51 bc
       0.06703394 0.026376957 0.00053307257 -0.012774328
000270 bb f1 86 3d ff a5 18 3d 30 78 f5 3c 52 41 cc 3d
       0.06589075 0.03726768 0.029964536 0.09973396
000280 b7 de 3c 3b 52 a7 a7 bc 50 bc 27 3d 26 1b a1 bb
       0.0028819272 -0.020465527 0.040951073 -0.0049165664
000290 79 ca 76 3d d6 6d 2f 3d 22 1f e8 bc 82 35 5f bc
       0.060251687 0.042829357 -0.028335158 -0.013623597
0002a0 b1 e8 56 bd 92 fb 58 3d fa b7 29 bd e8 d8 74 3d
       -0.052468006 0.05297429 -0.04143522 0.05977717
0002b0 f5 d7 84 3d a9 7f 4b bd 33 ad 9d 3d b2 bf fa 3b
       0.06486503 -0.049682293 0.07699051 0.0076522464
0002c0 9e 91 d8 3c ed 57 2d 3d c9 cd 40 bc a0 8c 3f 3d
       0.026436623 0.04232018 -0.011767813 0.04676497
0002d0 e5 7b f5 bc 30 f4 1a 3d 17 ac 4f 3d 98 68 15 3c
       -0.029966304 0.03783053 0.050701227 0.009119175
0002e0 37 17 34 3d ab 47 0d 3d 1f 11 ad bd e4 ba 97 3d
       0.043967452 0.034492176 -0.08450531 0.074086934
0002f0 1a 5f a9 b9 41 ae a1 bc 5e ca 4b 3d cd 2b 2c 3a
       -0.00032305048 -0.019736411 0.04975354 0.0006567806
000300 52 0a 01 bb 6d 85 3f bd fa c4 a6 bc 16 84 09 3d
       -0.001968999 -0.046758104 -0.020357598 0.033573233
000310 c9 78 0e bd 6e e8 84 3d fb 49 d4 3c 41 0b f4 bc
       -0.03478316 0.06489645 0.025914183 -0.029790523
000320 d0 4f a0 3c 84 65 56 3c 08 db 83 3d ba 1b e9 bc
       0.019569308 0.013085727 0.06438261 -0.028455604
000330 47 68 89 bd 1a 75 a7 bd d3 93 b6 bd a5 dc a7 3c
       -0.067093424 -0.08176632 -0.08914914 0.020490954
000340 1c 6c a2 3c ff bf 8b 3d d5 7c 02 3d a2 e6 29 bd
       0.019826941 0.0682373 0.03185733 -0.041479714
000350 ff 24 28 bd 34 bf a1 bd 23 5e 27 bd 0d ed 57 3b
       -0.041050907 -0.07897797 -0.04086126 0.003294769
000360 51 ef c5 bc bf 9c 94 3d f7 9c 20 bc 9e 05 9d bd
       -0.024161967 0.072564594 -0.009803048 -0.07667087
000370 55 ef 74 bd 77 34 ea 3c d0 c1 18 bd 72 d5 75 bc
       -0.059798557 0.02858947 -0.03729421 -0.015004503
000380 63 2d 90 3d 5a 20 51 3d ee 7c fb bc 66 0f 3c 3d
       0.07039907 0.051056243 -0.03069922 0.045913123
000390 23 f8 6c 3d 2e 9d 24 3d 6c 65 33 3d e6 53 0f bd
       0.05785383 0.04018896 0.043797895 -0.03499212
0003a0 fc 81 ab bc d1 3f d3 3c ec 7a 71 3d d3 c7 1b bd
       -0.020936005 0.025787266 0.058955118 -0.038032364
0003b0 3f 00 78 3d bd a7 7c 3c 11 ed f3 bb 5e ee 3c bd
       0.06054711 0.015420851 -0.007444032 -0.046125762
0003c0 15 cd ad bd 91 7b 78 bd 5e 2d 36 3d 7e 8f 9b 3d
       -0.08486382 -0.060664717 0.04447686 0.07595728
0003d0 d5 a8 a8 3d 27 d1 98 3d 09 00 07 3d 39 cf bb bd
       0.08235327 0.07461768 0.032959018 -0.09170384
0003e0 bf 8c bc bd 0f 77 a9 b9 de 3d c8 bd ab 2f de bc
       -0.09206533 -0.00032322897 -0.09777425 -0.02712234
0003f0 6b f6 a2 3d 64 77 58 3d 62 90 90 bc 6b 6d 8f 3d
       0.07957157 0.052848235 -0.017646972 0.07003292

rnn.weight_hh_l1 f4 [384, 128]
000000 cb d7 6f 3d 49 95 40 bd 78 3e 13 3c e4 e0 90 bd
       0.058555406 -0.04701737 0.008987062 -0.070741445
000010 4e 78 72 3d 3a 45 d7 3d 87 98 a0 bd 74 a4 73 3d
       0.059196763 0.10511251 -0.07841592 0.059483007
000020 b8 05 52 3d f0 bf 07 3d a0 4f e9 3c 46 7e 8d 3c
       0.051274985 0.03314203 0.028480351 0.017272126
000030 2d 24 81 3d b0 89 b1 bc 94 1c a7 3d e2 1b 31 3d
       0.06305728 -0.0216721 0.08159748 0.04323948
000040 a2 13 c2 3d e4 d0 28 3d 39 b2 79 3d b1 56 4e 3b
       0.09476401 0.04121484 0.060960982 0.0031484778
000050 9d 4c 91 bd 7a b1 ef bc d2 df cd bd b4 ad e2 bc
       -0.07094691 -0.029259432 -0.10052456 -0.027670719
000060 e7 74 85 3d ce a3 51 3d 62 d3 11 bd 84 54 21 3d
       0.06516438 0.051181607 -0.03560198 0.03938724
000070 d2 a9 41 3d 05 7a 8b bd b1 4d c4 bc 4e bf 8c bd
       0.047281094 -0.06810383 -0.023962827 -0.06872426
000080 af 91 d3 bc 1f e7 82 3c 25 7d 74 bc e3 5a aa 3c
       -0.025826303 0.015979348 -0.014922415 0.020795291
000090 3e c4 b6 bd 26 b4 77 bd d4 67 c3 bc 58 1b 1e 3d
       -0.08924149 -0.060474537 -0.02385322 0.038600296
0000a0 83 29 87 bd cf 44 34 bc a7 1a 0f bc bc 16 17 bd
       -0.065997146 -0.011002733 -0.008734382 -0.036886916
0000b0 9f a3 af bd 25 44 b1 bd e7 af 29 bd c6 c5 10 bd
       -0.0857613 -0.08655576 -0.04142752 -0.03534486
0000c0 f5 c5 bb 3d e8 9d 2a 3c 27 2a 38 bd ed bb 9c bd
       0.09168617 0.010413624 -0.044962075 -0.076530315
0000d0 78 33 fa 3c 0b 78 90 bc a0 14 57 3d 71 dd 81 3d
       0.03054212 -0.017635366 0.052509904 0.06341065
0000e0 18 e7 55 bd 43 33 a7 3d e1 ca ae bc 70 03 52 bd
       -0.05222234 0.08164074 -0.021336975 -0.05127281
0000f0 54 96 8b 3d b9 23 7a 3d aa 0a 2a 3c bd 88 0a 3c
       0.06815782 0.061069224 0.010378519 0.0084554525
000100 5d f1 1e bc 08 08 1b 3d 21 15 ae 3d 35 76 f3 bc
       -0.0097011 0.037849456 0.08500124 -0.029719451
000110 4e fc ee bc e8 5e bb bd 11 61 a8 bc 1c 65 4a 3d
       -0.029173043 -0.09148961 -0.020554097 0.04941283
000120 80 b6 cf bc 70 e0 ae bd 0e dc 76 bd ae 18 42 bc
       -0.025355577 -0.08538902 -0.060268454 -0.011846704
000130 a2 40 1c bd 95 56 df bb 90 d4 86 bc e0 95 68 bc
       -0.038147576 -0.0068157413 -0.01645878 -0.014195889
000140 de 54 55 bd 04 3d e2 bd 8e d4 5f 3d e4 41 29 bd
       -0.05208289 -0.11046794 0.054646067 -0.041322604
000150 ab 89 4c 3c 76 ba 85 3c 1f 28 b6 bd b3 1d 8f 3d
       0.0124839945 0.016324263 -0.08894371 0.069880866
000160 76 22 a9 3d 12 0b 51 bd b3 e4 6a bc 1b 4e 14 3d
       0.08258526 -0.051035948 -0.014336753 0.0362073
000170 f7 11 3a bb cb 50 0d 3d 46 c8 84 bd c8 da 7b bc
       -0.0028392056 0.03450088 -0.064835116 -0.015371986
000180 83 2a 3b 3d a8 b8 0b bd 07 79 a5 3c cb a2 83 3c
       0.04569484 -0.03411165 0.020199312 0.016068837
000190 2c 47 9b bb 02 b6 5d bd 43 84 21 3b b7 4e 3b 3c
       -0.004738709 -0.054128654 0.0024645485 0.011432341
0001a0 b0 24 16 bd f0 5f 06 bd 98 d4 50 bd ab 84 9b 3d
       -0.03665608 -0.032806337 -0.050983995 0.07593664
0001b0 49 dc b8 3c 25 e4 59 bd 6b 7a 19 3c d4 94 c5 3c
       0.022565978 -0.05319609 0.009367566 0.024118818
0001c0 ac 35 94 3d f2 58 4b bd 97 82 90 3d 6f 3a b1 bd
       0.072367996 -0.04964537 0.07056158 -0.086537234
0001d0 bf 8a da bd 81 da df 3c 35 22 47 3d eb 49 2e 3a
       -0.10670995 0.02732587 0.048616607 0.0006648588
0001e0 f7 6f fa 3b 53 35 98 bd 50 40 99 3d 50 91 86 bd
       0.007642742 -0.07432046 0.0748297 -0.06570685
0001f0 90 23 ac 3a 82 f8 63 3d d3 fa 48 bc 71 fc 06 3c
       0.0013133157 0.055656917 -0.012266832 0.008238898
000200 98 ca 3d 3c 04 ae 88 3d 9b 9a 28 3d 76 5a 6a bd
       0.011583947 0.06673816 0.04116307 -0.057215177
000210 0a 2b b4 3c d0 74 45 3d 17 21 13 bd 23 a3 6c 3d
       0.021993179 0.048207104 -0.03592023 0.057772767
000220 88 d1 4f 3c f9 3e a1 3c 8b ac 13 3d a2 7c 13 bd
       0.0126842335 0.019683348 0.03605322 -0.03600753
000230 4b d3 29 bd 93 78 5b 3d ad 83 c1 3d 17 4b 61 3d
       -0.04146127 0.053581785 0.09448943 0.055003252
000240 42 14 ba 3b 01 00 84 bd a8 5f 4f bc b6 6e a3 bd
       0.0056786845 -0.06445313 -0.012657084 -0.07980101
000250 d2 72 c2 bd 6e 61 56 bd 62 67 9a 3c b3 82 c1 bc
       -0.094945565 -0.05233901 0.018848125 -0.023621893
000260 9c 69 12 3d 92 14 23 3d b6 f2 33 3d f4 ca 81 bc
       0.03574525 0.03981454 0.04393264 -0.015843846
000270 f1 31 bb bd 2e f2 66 3d 3c 64 7b bc d1 4a 8d 3d
       -0.09140385 0.056383304 -0.015343722 0.06899036
000280 8e 6e b9 bd 43 5d 59 3d 0c 40 bd 3c 3f 9f c2 bd
       -0.0905429 0.053067457 0.023101829 -0.0950303
000290 09 04 24 3c 8d a5 60 3d d7 3a 7b 3d 3a 37 34 3d
       0.010010728 0.05484538 0.06133541 0.04399798
0002a0 5a 5e 8f 3d 89 97 0f 3d 31 fb b7 3d 00 3a 75 bd
       0.07000418 0.035056625 0.08983458 -0.059869766
0002b0 a5 0b 54 3d a5 7a 41 bd d9 57 f5 bc 4f 11 8d 3d
       0.051768918 -0.047236104 -0.029949116 0.06888067
0002c0 f6 57 49 3d a4 1e a5 3d e8 e0 88 bd fb 73 05 bd
       0.04915615 0.08062485 -0.066835225 -0.03258131
0002d0 b8 57 d1 bc 3d f0 9e 3d 79 22 d1 bb af 3e 17 bd
       -0.025554523 0.077606656 -0.0063822833 -0.036925014
0002e0 f0 b4 5f bd 3f c1 88 bc 4a 61 4c 3d 3c b4 c7 3a
       -0.054615915 -0.01669371 0.04989747 0.0015236209
0002f0 df 9f 34 3c 48 ab 8e bc cb ad 31 3d 4e cf 45 3d
       0.011024444 -0.017415658 0.043378633 0.048293404
000300 20 49 7d bb 37 d0 b8 3c 19 b5 8e 3d 29 2e e8 3d
       -0.0038648322 0.022560222 0.069681354 0.11336929
000310 d0 a6 9b bd cc ea 16 bd 19 fa 49 bd cc ab 85 ba
       -0.07600176 -0.036845013 -0.049310777 -0.0010198294
000320 b2 89 a8 bd 5f 9c e6 bb c7 ce f3 3c c5 a6 9d bd
       -0.08229388 -0.007037684 0.029761685 -0.076978244
000330 cb 2d 97 3c ab 63 01 bd 62 6a 45 bd 50 f1 3a bd
       0.018454453 -0.03158919 -0.048197158 -0.04564029
000340 16 3a 3f bd 65 b8 bf bc 7b 65 4b bc a2 26 2d 3d
       -0.046686254 -0.023403356 -0.012414332 0.04227317
000350 36 37 ee 3c 46 68 39 bc c0 75 87 3d b1 51 9a 3c
       0.029079061 -0.011316365 0.06614256 0.018837782
000360 dc 22 6b bc f3 da 97 bc 78 d6 24 3d 74 fe 8d 3c
       -0.014351573 -0.01853702 0.040243596 0.017333247
000370 a4 8d 7e bd 61 23 94 bc 00 7a 88 3c d8 aa ce 3c
       -0.062146798 -0.018083276 0.016659737 0.025227949
000380 a6 93 5b 3d 36 30 06 bc 00 bc 26 bd 33 c3 1d 3d
       0.053607605 -0.008190205 -0.040706635 0.038516235
000390 0e b6 03 bd 82 b3 86 bd e4 4e 76 3c 6c 10 6c bd
       -0.032156043 -0.06577207 0.015033457 -0.05763285
0003a0 f1 a0 57 bd b7 a8 48 3d 61 8e 70 bd 44 2e 9f bc
       -0.05264372 0.048989024 -0.058729533 -0.01943124
0003b0 a8 38 4d 3c c8 d2 93 bd 8b dc 06 3d de 8a 03 3b
       0.012525715 -0.07217938 0.03292517 0.0020071785
0003c0 6a 1a 97 3d 79 1d 70 bd 4e 51 12 3d 95 06 c7 bd
       0.07378085 -0.058621857 0.03572207 -0.09718052
0003d0 07 2d 14 3d 19 ba 22 3d 40 85 0b 3b 18 73 14 3d
       0.036175754 0.039728258 0.002128914 0.036242574
0003e0 1b 1c a9 3d 5e 05 c8 bc e0 68 c7 3c 30 a8 a4 3d
       0.08257314 -0.024416622 0.024342 0.08039892
0003f0 40 79 bb bd 04 c0 ef 3c 18 59 5c bd 9d 29 86 bd
       -0.09153986 0.029266365 -0.053795904 -0.06550906

rnn.bias_ih_l1 f4 [384]
000000 67 fc 45 bd 3d ec 9c 3d 49 a2 c2 3d 4d 77 3d bc
       -0.048336413 0.076622464 0.0950361 -0.011564088
000010 21 71 9a bd 47 5c a9 3c d3 63 93 bd 9b 70 70 3c
       -0.07541109 0.020673884 -0.07196774 0.014675285
000020 d1 fb 90 b8 96 15 c6 3d 9b f2 06 bd 97 1a d0 bc
       -6.9133595e-05 0.09672086 -0.03294621 -0.025403304
000030 d4 2f 55 3d ce 33 f4 bc 36 05 69 bc b1 4d 03 bd
       0.052047566 -0.029809859 -0.014222434 -0.032056514
000040 5c d2 8c bd 97 5f 40 bd 00 30 db 3d 06 34 27 3d
       -0.0687606 -0.04696616 0.10702515 0.040821098
000050 df 71 05 3d 49 46 73 bd e7 c2 cd 3d 3e 13 39 bb
       0.0325793 -0.0593932 0.1004694 -0.002824023
000060 c3 51 85 3d 86 28 18 3d 0f eb a3 bc 4e 0e 89 bd
       0.065097354 0.03714802 -0.020009546 -0.066921815
000070 88 f6 a0 bd a9 19 4a 3c ee 3f 57 bd e9 8b c6 bd
       -0.07859522 0.012335219 -0.052551202 -0.096946545
000080 8c 16 79 bd df 30 1d bd 27 27 d5 3d 5e 7d 7d bd
       -0.060812518 -0.038376685 0.10407858 -0.061887138
000090 a3 80 f5 3c 10 0d 64 3d 41 f7 5b 3b 57 d0 44 bd
       0.029968565 0.05567652 0.0033564123 -0.04805025
0000a0 09 80 03 bd a8 d7 3d bc 0e eb a1 bc 84 ea 3a bd
       -0.032104526 -0.011587061 -0.019765403 -0.045633808
0000b0 97 69 c8 3d 20 7a b4 3d ab 44 cb 3d f6 05 5a bd
       0.09785765 0.08812356 0.09925207 -0.05322834
0000c0 7b 3c 8c 3d 1a 6e 50 3d 79 9d b8 3c 99 02 c0 bd
       0.06847473 0.05088625 0.022536026 -0.093754955
0000d0 43 eb 8c bc f8 c6 02 bd 8c ac 9b 3d b5 26 ba bc
       -0.017202025 -0.031928033 0.0760127 -0.022723535
0000e0 be 31 bf 3d f6 1b 9a bd 02 e4 98 3d b5 86 90 bd
       0.093356594 -0.075248644 0.07465364 -0.07056943
0000f0 e2 dd d4 3d 20 eb 55 3d 53 be d6 3c bb ae 97 3d
       0.10393883 0.052226186 0.0262138 0.07406374
000100 12 72 d0 3d 86 f8 ab 3d 41 2a b3 3b ae 58 49 bd
       0.10178007 0.083970115 0.0054676835 -0.049156837
000110 55 91 e4 bb d6 6f 1d bd 54 b5 32 3c 7f 68 73 3b
       -0.0069753327 -0.038436733 0.01090749 0.0037141142
000120 a9 12 c7 bc 7b 5d ac bd 2c 28 ab 3c 2c b2 7f 3c
       -0.02430089 -0.084162675 0.020893179 0.015606444
000130 d9 99 b3 3c cf 0e 3c 3d 29 35 98 bd 76 29 24 3d
       0.021923946 0.04591256 -0.074320145 0.040078603
000140 99 3c 86 bd 46 27 c2 bc 95 b1 53 3d 36 04 d5 3c
       -0.06554527 -0.023700368 0.051683027 0.026002984
000150 10 35 88 bc 7b ac 0d ba 79 48 15 3d ea 48 95 bc
       -0.016626865 -0.0005404425 0.03644607 -0.018223245
000160 b5 1e ea 3c 8c f9 af 3d 2e 7d 64 3d 54 a7 b6 3d
       0.028579095 0.08592519 0.055783443 0.08918634
000170 46 c0 21 3d 49 7f bd 3d 82 e1 07 3d 47 77 2e bd
       0.039490007 0.09252793 0.033174045 -0.04259422
000180 c9 b3 66 bb 21 fe 30 3d a7 b0 46 bd c2 bc bf 3c
       -0.0035202375 0.043211106 -0.048508313 0.023405436
000190 cf d8 6f bc 09 94 91 bd bf 40 19 bc f9 58 d4 bc
       -0.014639094 -0.071083136 -0.009353816 -0.025921332
0001a0 3a 1d 9d 3d fc f8 bb bc 8e 14 37 39 ee cd b5 3d
       0.0767159 -0.022945873 0.00017459897 0.088771686
0001b0 b5 66 36 3c 9f 23 34 bb fa 8c 31 bd 8c 89 97 3b
       0.011132886 -0.0027487052 -0.043347336 0.004624551
0001c0 05 de c5 3c 77 2d 46 3a 71 a9 71 3d 63 ab ae b7
       0.024153719 0.00075598754 0.058999483 -2.0822225e-05
0001d0 0c b8 8e b9 73 34 85 bd a6 5f f2 bc cb 35 9c 3d
       -0.00027221476 -0.065041445 -0.029586624 0.07627448
0001e0 eb 07 ac 3d 23 6b 70 bb 42 d7 50 bc 9a 74 c9 bd
       0.08399948 -0.0036684952 -0.012746634 -0.09836693
0001f0 58 85 78 3c 21 2d 7c bd 92 87 32 3c fd 70 a7 3d
       0.01516851 -0.061566476 0.01089658 0.08175848
000200 37 3d 3f bd a3 91 0a bd 82 16 d9 bd 58 dd c3 bd
       -0.04668924 -0.033830296 -0.10599996 -0.09563702
000210 6d b6 dc bb 7e ab 81 bc ab a0 7f bd 21 f2 f7 3c
       -0.006735614 -0.015828844 -0.062409084 0.030266823
000220 c8 4d 1d bd 3a eb 1d 3d 5a bf 3d bd 60 e2 c2 bd
       -0.038404256 0.038554408 -0.046325065 -0.09515834
000230 40 f2 f8 3c c9 f2 7d bd d3 a7 82 3d e6 25 58 bd
       0.030388951 -0.061999116 0.06379666 -0.052770518
000240 cb de e7 3c ae c7 69 bc bb 9c 68 bd e9 8d 9f bd
       0.028304478 -0.014268799 -0.056790095 -0.07790739
000250 81 b3 61 bd 65 71 8e bd 1b e2 ec bd d0 12 40 bd
       -0.05510283 -0.06955222 -0.11566564 -0.04689294
000260 1c 3f 2f 3d dd c9 65 bd 29 84 97 bd 09 cb ec bd
       0.042784795 -0.056100715 -0.073982544 -0.115621634
000270 e0 78 16 bd 47 88 b9 bc 09 a4 77 3c dd e6 d2 bd
       -0.03673637 -0.02264799 0.015114793 -0.1029794
000280 90 07 cc bb 29 5b b9 bd 16 fe db bd 06 8c 66 bb
       -0.0062264875 -0.090505905 -0.107418224 -0.0035178675
000290 45 48 e8 bc 6a 33 cc bd 9e a6 b4 bd 75 da b0 bd
       -0.028354773 -0.09970744 -0.08820842 -0.08635417
0002a0 fd 43 a2 bd f3 42 e7 bd 8d 0d 4d bc ec a4 9b bd
       -0.07923124 -0.112920664 -0.012515438 -0.07599816
0002b0 bf f8 dc 3c 4a 74 89 bc 7e 96 51 bd ef 36 01 3d
       0.02697408 -0.016779084 -0.05116891 0.03154653
0002c0 44 aa 02 3d 56 fc 31 bd 5c 0d 4d bd 75 2f f2 bd
       0.03190066 -0.043453537 -0.05006157 -0.11825458
0002d0 f9 ac f2 bd e8 b5 bf bb 0f 0f a4 bd ff 40 cd 3b
       -0.11849398 -0.0058505423 -0.08010685 0.0062638517
0002e0 8c 45 62 bb ff db 8d bd 58 ce 92 bd 69 b1 21 bd
       -0.0034526316 -0.069267265 -0.07168263 -0.039475832
0002f0 f2 8c f8 bd 25 8e b3 bd 3f 9e a2 bd 8a f9 a4 3c
       -0.12136258 -0.08767346 -0.07940339 0.02013852
000300 ea a0 f7 bc fe c3 c4 bd d1 c8 1f bd 93 79 b4 bd
       -0.030228097 -0.09607695 -0.039009873 -0.08812251
000310 bd 14 fa 3b 4d 12 d6 bd 59 43 46 bb 4c 7a a7 bd
       0.0076318667 -0.10452709 -0.0030252545 -0.08177623
000320 68 88 74 bb d7 02 9f bc 8b b3 41 3d 1f d1 75 bc
       -0.003731275 -0.019410534 0.047290366 -0.015003472
000330 1d e5 8f bd fd ca c5 3c 5e 56 82 3c 9a c1 0c 3d
       -0.07026122 0.024144644 0.015910324 0.03436432
000340 a8 e2 99 bd 21 25 ec bd 23 9d e6 bc 7d ca e7 bd
       -0.075139344 -0.11530519 -0.0281511 -0.113179184
000350 4e 7d 1c 3d 92 10 aa bd 86 12 db bc 92 ea 5b 3d
       0.038205437 -0.08303942 -0.026742231 0.0536905
000360 7d ca a8 bd ad 73 50 bc a6 e4 05 3d 9b d8 91 bd
       -0.082417466 -0.012722892 0.03268876 -0.07121392
000370 1e ba a7 bd 1a fe 77 3d 3f 61 d1 bb dc c0 16 bd
       -0.08189796 0.060545065 -0.0063897665 -0.03680502
000380 b0 c6 5b bd c5 e3 91 bd 9f 39 77 bd e0 62 21 3d
       -0.05365628 -0.07123522 -0.060357686 0.039400935
000390 7f 71 68 bc 6b 20 12 bd 1c 0b 65 3d 8a 4c b9 bd
       -0.014187216 -0.035675447 0.055918798 -0.09047802
0003a0 59 98 d3 bd 10 4a 82 bc 68 73 72 bd d3 e3 ee bb
       -0.103317924 -0.015904456 -0.05919209 -0.0072903424
0003b0 00 b3 13 bd 9a 64 8e bd dd 4c 24 3d 86 fc b2 ba
       -0.03605938 -0.06952782 0.040112365 -0.001365558
0003c0 c5 2d 8f bd 3e a3 51 bd df f0 db bd 3e 72 e6 bc
       -0.06991152 -0.05118107 -0.10739302 -0.028130647
0003d0 00 5d 9d 3c 8a 7b 19 3d 2c 6f 9b 3c 47 0b e7 bd
       0.019209385 0.03747133 0.01897391 -0.11281448
0003e0 1c 2f f6 bd bb d7 88 3c d8 11 93 3c 68 a8 5b 3c
       -0.12020704 0.01670443 0.017952845 0.01340685
0003f0 39 5d ed bb 99 a1 d6 bc b0 4a ea bd 9f 89 04 3c
       -0.007243779 -0.026200103 -0.11440027 0.008089452
