16 - Recurrent Neural Network/model/multivar/weights_150.pth (torch, 606727 bytes, 9 tensors)

rnn.weight_ih_l0 f4 [384, 5]
000000 73 47 40 3b 7c 87 ce 3d 53 54 8a b9 83 c1 87 3c
       0.0029339462 0.10084435 -0.00026384238 0.016571766
000010 a1 0f 8d bd ff 9f 22 3d 48 5b c1 bb e9 67 0e be
       -0.068877466 0.039703365 -0.005900774 -0.13906826
000020 59 9c 35 3d 9a 79 f4 3d 25 88 32 3c b1 b9 b4 bc
       0.044338558 0.11937256 0.010896717 -0.0220612
000030 be 66 cb bc 04 49 9e 3c 99 ee 36 3e 9e ee 6e bd
       -0.024829265 0.019321926 0.17864455 -0.05833303
000040 f1 5f 2a be 6f a7 0c 3e 86 80 2e 3e b1 21 0b be
       -0.16638161 0.13735746 0.17041215 -0.13587071
000050 06 01 3c bd dc f0 93 3d c4 ea ce 3d e7 c4 c4 3d
       -0.045899414 0.07223675 0.10103372 0.09607869
000060 de a9 51 be 86 63 a7 bc b7 fe d8 bd 44 42 e1 3d
       -0.20474955 -0.020433199 -0.10595458 0.10998967
000070 1e bf 8d 3d cc 49 f0 bd 1a 20 a9 3d ae bf de bd
       0.06921218 -0.11732826 0.08258076 -0.10876404
000080 09 08 16 3e ea 99 a8 3d d8 a7 a0 3c 39 43 13 bd
       0.14651503 0.08232482 0.019611284 -0.03595278
000090 a0 45 28 3d d1 25 df 3d f0 44 c0 3b 42 c8 97 bd
       0.041082025 0.10895885 0.005867593 -0.07411243
0000a0 be 69 b6 bd 80 11 09 be 74 32 0c 3e dc 7a 42 3d
       -0.089068875 -0.13385582 0.13691121 0.04748045
0000b0 04 4f ff bd da 83 89 bd d1 42 31 bd 6d 9f 58 3d
       -0.12466243 -0.06714602 -0.04327661 0.052886415
0000c0 bc 7c 45 3d f5 45 90 3b cd b0 b5 3d 4c 05 56 ba
       0.04821466 0.004402871 0.08871613 -0.00081642414
0000d0 69 6a 72 bd 29 70 e7 bd d4 c0 75 3e 11 a8 9f 3d
       -0.059183512 -0.1130069 0.2399934 0.07795728
0000e0 32 fa 98 bb 44 88 4f 3d 04 aa 09 be 0b 24 a1 3d
       -0.0046684975 0.050667062 -0.13443762 0.07868203
0000f0 36 6b 56 3d 63 ba 81 bc 37 77 00 be 33 12 46 bd
       0.052348338 -0.015835946 -0.12545477 -0.0483572
000100 8d 7f e9 3d d4 90 8c bd 28 87 72 be 23 e2 51 3d
       0.114012815 -0.06863561 -0.2368437 0.05124105
000110 13 21 87 3e 18 a6 43 bc c6 4b 62 bd d9 b5 67 3c
       0.2639242 -0.011941455 -0.055248044 0.014142477
000120 2d f7 93 3d 25 5b 34 3d e7 94 3f be 4d 95 a0 bd
       0.072248794 0.044032235 -0.18709145 -0.07840977
000130 44 bd 93 3c 8d 29 41 3d 62 bc 85 3c 01 ec a4 3d
       0.018034585 0.047158767 0.01632518 0.08052827
000140 93 ac 85 bb 1a c0 16 3d e5 98 a0 3d 00 e0 0b 3c
       -0.0040794103 0.036804296 0.07841662 0.0085372925
000150 ba 4c b9 3c bc 68 23 bd a7 51 59 bd 4c 50 da 3c
       0.022619594 -0.039894804 -0.053056385 0.026649617
000160 51 3e aa 3d 3a 15 9b 3d 18 96 af 3d bc 8c c5 be
       0.08312667 0.07572408 0.0857355 -0.38583934
000170 54 ca 48 3e 5c ca f5 3d e4 c2 3b be bf 68 56 3d
       0.19608432 0.120014876 -0.18336064 0.052345987
000180 6c fc 85 3d e6 44 0a be cc 75 80 bd 78 4c 5a 3d
       0.06542286 -0.13502845 -0.06272468 0.053295583
000190 a9 f2 68 3d 11 9e f6 bd de 52 47 bd 33 ae b6 bc
       0.056872044 -0.120418675 -0.048663013 -0.022299862
0001a0 72 e9 13 bc 37 55 93 3d e0 f3 a9 bd fb 48 f0 3c
       -0.009027826 0.07193988 -0.082984686 0.029331675
0001b0 9d 46 bd 3d 9e a2 38 be 62 f2 03 bb 15 8f 4c 3d
       0.09241984 -0.18030784 -0.0020133485 0.04994114
0001c0 db e6 00 bb 20 43 d3 3d 35 7b 84 bd 0c 96 9e 3d
       -0.001966885 0.103155375 -0.064688124 0.07743463
0001d0 e7 c7 c6 3c 33 32 77 be df 2d 92 3c 5f 00 9f 3d
       0.024265243 -0.24140243 0.017844139 0.07763743
0001e0 44 0a 62 3d d5 91 2f 3d 5e da cc bb 66 b1 63 3c
       0.05518557 0.042863686 -0.0062516173 0.013897276
0001f0 e4 46 2a bd 97 88 03 bd a4 14 2e be 13 d4 97 bc
       -0.041571513 -0.032112684 -0.17000061 -0.018533742
000200 38 9a 8d 3e c5 65 f0 3c df 34 01 3d 89 5c 46 3c
       0.27656722 0.029345402 0.031544562 0.012107023
000210 3f 6a 97 3a 74 6c df 3c 27 f2 40 3d c2 8d 86 3d
       0.001155205 0.027273394 0.047105934 0.06570007
000220 88 57 32 bd 29 55 7c 3c 64 8b 26 3e 83 f1 e8 3b
       -0.043540508 0.015401163 0.16264111 0.0071088686
000230 cb a5 96 3c 6b 06 01 3d 9b 6c f7 bd 42 f8 70 bd
       0.018389603 0.03150026 -0.12081262 -0.058830507
000240 d1 7f d2 bc 6e fc f1 bd 31 99 cd bd df cc ba 3d
       -0.025695713 -0.11815725 -0.100389846 0.09121107
000250 3d 16 6f 3e 95 50 a6 bd c1 71 6c 3d 78 b8 04 3d
       0.23348327 -0.081208386 0.05772567 0.032402486
000260 2d 08 c8 bd 4b 67 0a bd 1e e2 52 3e 87 ea cf 3d
       -0.097671844 -0.033789914 0.2059407 0.101521544
000270 b8 d8 8a be 3e 60 f9 3b 72 e7 22 3d 54 9d 4a 3e
       -0.27118468 0.00761035 0.039771505 0.19786578
000280 0b bd 8f 3c 9c e6 02 be 53 5c bc 3d 08 d4 57 3e
       0.017546197 -0.12783283 0.09197297 0.21076977
000290 66 b5 56 3d e9 8b c8 3d b7 e7 c1 bc 9e e6 a4 3d
       0.05241909 0.09792311 -0.02367006 0.08051799
0002a0 46 4a 22 3e d9 27 2b bd 21 e2 97 bd b8 83 7f bd
       0.15848646 -0.04178605 -0.074161775 -0.062381476
0002b0 70 07 3a 3d 02 f8 53 3e 53 40 4e bd 84 45 d7 3d
       0.04541725 0.20700076 -0.050354313 0.10511306
0002c0 c9 4d 95 be 87 64 09 be 7f 2d 9f 3c 9c d0 3a 3e
       -0.29160908 -0.13417254 0.019430874 0.1824364
0002d0 f7 62 4d 3d a4 c3 95 3d 2c 67 4d be 6b 45 4a bd
       0.05014321 0.07312706 -0.20058888 -0.04938261
0002e0 8f 3c ba 3d 2d ac a3 3d 7a ad f9 3c 2f 15 46 be
       0.09093582 0.07991824 0.030478228 -0.19344018
0002f0 33 dc 40 3d 02 cc 42 3e b5 53 81 bd a8 54 de bd
       0.047085 0.19023135 -0.06314794 -0.10855991
000300 0f 95 00 3c 16 2f 53 3e ed f6 e1 bd c1 cc 8c bd
       0.007848038 0.2062343 -0.110334255 -0.06874991
000310 e9 02 9d bd d6 64 14 3e 32 79 11 3e 1b 86 24 be
       -0.07666571 0.14491591 0.14206389 -0.16066782
000320 37 bf 45 bd 5c 65 ac be 6a 6b be 3d c9 d6 0e 3e
       -0.04827806 -0.3367108 0.09297831 0.13949122
000330 ce 63 3b 3d f1 3f dd bd 29 d0 d4 bd 9c 00 0f 3d
       0.045749478 -0.108032115 -0.10391266 0.03491269
000340 c1 f9 8e 3e 77 b0 1f be ed bb 9a bd e6 05 2a 3e
       0.27924922 -0.1559466 -0.07555375 0.16603813
000350 0b 4c 12 be 66 df 7d bd 8c 0e ac 3d 79 0f 14 bd
       -0.1428682 -0.061980627 0.08401212 -0.03614757
000360 54 bb 03 bc 30 81 3d be bf 28 ec bd ac 1d 8b 3d
       -0.008040268 -0.18506312 -0.11531209 0.06792769
000370 35 b7 cb 3d 88 49 5d 3d 97 b5 87 bd e9 c7 17 3e
       0.09947053 0.054025203 -0.066264324 0.14822353
000380 39 c7 39 3d a0 8b 07 3c b2 1c 84 bd 9e ce a4 3d
       0.04535601 0.008273035 -0.06450786 0.080472216
000390 db 39 63 3c 7e 1c 53 bd 60 50 bc bd 34 e3 f7 bd
       0.013868774 -0.051540844 -0.09195018 -0.121038824
0003a0 b2 04 c0 bd 88 36 74 3e dd aa ce 3b ef 59 93 bd
       -0.093758956 0.23848927 0.0063069896 -0.07194888
0003b0 71 64 86 bb 71 70 2b bd 0e a1 9b 3e 6e 90 dd 3d
       -0.004101329 -0.04185528 0.30396312 0.108185634
0003c0 c4 ba 2a bd ba 56 6a 3d ca 06 92 3d 48 2a 39 3e
       -0.04168202 0.057211615 0.07130201 0.18082535
0003d0 27 dc 9a bd 19 26 80 bd 32 39 04 bd c5 f0 27 bd
       -0.07561522 -0.062572666 -0.03228111 -0.0410011
0003e0 02 5b c2 3d f6 bc 3b 3d c4 be 9d bd ae 6f 0f bc
       0.094900146 0.045834504 -0.07702401 -0.008754654
0003f0 51 44 b6 3d 78 b4 4a 3e 44 e0 a7 3c 7e 94 ba 3d
       0.08899749 0.19795406 0.02049268 0.09110354

rnn.weight_hh_l0 f4 [384, 128]
000000 85 9a 5c bc 6b de cb 3d a1 a8 b2 bd d4 7e b2 3c
       -0.013464575 0.09954532 -0.0872357 0.021788992
000010 8f 04 45 3c 9d be c3 bd 88 db e2 bc aa 97 2d 3e
       0.012025013 -0.09557841 -0.027692571 0.16952386
000020 df 50 f6 bd 9b 26 f1 bc 5f 71 d2 bd 83 7c 06 be
       -0.12027144 -0.029437354 -0.1027553 -0.13133435
000030 3d 53 29 3c 7f cf 94 3d a1 0b 9f bc c5 8e f4 3d
       0.010334787 0.07266139 -0.019414725 0.119412936
000040 1d e6 f5 3c 31 b8 1d bd 24 53 0a 3e 62 d1 85 3d
       0.030016953 -0.038505737 0.13508278 0.06534077
000050 99 ca 60 3c 1a 44 91 3d 66 4e 0d 3e f0 e4 b7 3c
       0.013720178 0.070930675 0.13799438 0.022448033
000060 c1 29 f3 3d db b7 ad bd 32 61 bc bd b3 5d 7a 3d
       0.11873198 -0.08482333 -0.09198226 0.061124515
000070 69 cc da bd d0 b9 2c bd 90 bc ba 3d 97 92 86 bd
       -0.106835194 -0.042169392 0.09117997 -0.065709285
000080 d8 97 a5 bd ba 1d 0d 3e 3e d0 93 bb 2b 6d 12 3e
       -0.080856025 0.13780871 -0.0045109084 0.14299457
000090 8f 04 19 3a 36 9a 19 3c c6 e8 91 bb 8d b2 0e bd
       0.0005837166 0.009375146 -0.0044527976 -0.034838248
0000a0 d2 85 4a 3d 41 cb ec b8 66 6f 79 3c 48 da c4 bd
       0.049444027 -0.00011291216 0.015224313 -0.09611946
0000b0 fc 04 a3 bd 0b 35 b7 3c 92 c4 92 bc d6 8e 85 3b
       -0.07959935 0.02236416 -0.017915998 0.0040758653
0000c0 79 61 82 3b b7 0b b4 bd 94 10 90 3d f2 2b c5 3d
       0.003978905 -0.08791297 0.07034412 0.096275225
0000d0 26 39 88 bc 51 7f d1 3d 72 3f dd 3d 48 b9 e8 3c
       -0.016628813 0.10229362 0.10803117 0.028408661
0000e0 74 4f 22 3d ce 91 b5 3b 43 1d b5 3b 6d f1 e5 3d
       0.039626554 0.005541063 0.00552717 0.11227689
0000f0 67 a6 91 bd 14 c6 0c bd 5d b4 81 bd 62 01 5b bb
       -0.07111817 -0.03436859 -0.0633323 -0.0033417572
000100 76 33 92 3d cd a2 0e 3e 7b 89 74 3c 2c de f8 bd
       0.07138722 0.13929291 0.014925356 -0.12151751
000110 70 10 00 3e 17 6a 50 3d 01 07 9b 3d e7 26 87 3d
       0.1250627 0.050882425 0.07569695 0.06599217
000120 4f 70 24 3b 58 91 62 3c 62 d6 75 3c cb 11 0a 3d
       0.0025091355 0.013828598 0.015004726 0.033708375
000130 8e 07 30 bd 63 4b 49 bc d1 ea 42 bc b6 71 2f 3d
       -0.042975955 -0.01228604 -0.011896805 0.042833053
000140 3d d9 c1 3d 26 5c f0 bc d4 aa 65 bd d4 13 e2 3d
       0.09465263 -0.029340815 -0.056071118 0.11038938
000150 b7 d4 df 3c 5d ca 6f bc bc e1 ca bb 46 d5 54 bd
       0.02732311 -0.0146356495 -0.0061914604 -0.051961206
000160 f7 a2 f4 bc ae 55 67 bd 55 74 ef 3c be 1c 42 3d
       -0.029862864 -0.056478195 0.029230276 0.047390692
000170 31 d3 db bd de 2d 8b bb 37 e6 ad bd 75 f4 26 3e
       -0.10733641 -0.004247411 -0.084911756 0.1630419
000180 77 73 96 bd 90 2b 0d 3d 5c d9 00 be 21 db 6e 3a
       -0.07346242 0.034465373 -0.12582916 0.0009111632
000190 c1 00 b0 bc 40 8a 84 3c 4a 1b eb 3d 12 eb 31 3e
       -0.021484734 0.016179204 0.11479814 0.17374828
0001a0 e6 1e 91 3c 02 81 c7 bd 8d f9 39 3c 79 c9 0f 3e
       0.017714929 -0.09741403 0.011351001 0.140417
0001b0 52 de f3 bb 56 59 01 bd 25 7a bd 3d a6 b7 df 3d
       -0.007442274 -0.031579338 0.09251813 0.109237
0001c0 45 81 ab 3d 24 f9 ef 3d 90 ae bb bc 16 3d 01 3e
       0.083742656 0.11717442 -0.022910386 0.12620959
0001d0 6a f5 9b bc d5 48 cc bd 47 b1 9e 3d 74 8b 8f bd
       -0.019037921 -0.09974829 0.07748657 -0.070090204
0001e0 6a 47 0b 3d 3a 0a 67 3d 3c 39 0a 3e 78 06 25 3d
       0.034003653 0.056406237 0.13498396 0.040289372
0001f0 9f bb 5f 3d 01 a0 ab 3c 4e d2 9c 3c 10 c6 52 3d
       0.05462229 0.02095032 0.01914325 0.05145842
000200 b3 3e b6 bb 89 06 31 3c ec 1b c1 3c 85 d4 b9 bd
       -0.0055616735 0.010804781 0.023572885 -0.09073738
000210 8b 4e 39 bd 02 8f a7 3d ae e2 34 3c d5 72 cd 3d
       -0.04524092 0.081815735 0.011040373 0.10031668
000220 ed 06 89 bd f5 df 93 bd 75 a7 90 3d 50 23 82 3b
       -0.06690774 -0.07220451 0.0706319 0.0039714947
000230 49 19 a8 bd 15 61 b5 bb d6 82 91 bc e2 9c 65 3c
       -0.08207948 -0.0055352547 -0.017762583 0.014014455
000240 f8 70 d2 3c 47 03 a5 bd d7 47 29 bd 14 6d 80 3d
       0.025688633 -0.08057266 -0.041328277 0.06270805
000250 08 a9 97 3d f3 39 30 bd bc 67 4a 3b 27 30 07 3d
       0.07405287 -0.043024015 0.0030884584 0.033004906
000260 0d 38 a7 3d e3 1c 50 3c 31 88 ed 3c 96 f9 34 bd
       0.08164988 0.0127022 0.028995605 -0.044183336
000270 0e 7b 23 bd 73 99 08 3d 04 7a 88 bd b5 22 e3 3c
       -0.039912276 0.033349466 -0.06663898 0.02772651
000280 e6 6b 66 bd 85 2c 2d 3d 8e 43 7c bd 83 e9 ca 3d
       -0.056255244 0.042278785 -0.061587863 0.0990782
000290 25 96 3d 3c 6c 04 b7 bd 9a 70 8c 3b 24 95 23 3c
       0.011571442 -0.0893639 0.004285884 0.009984288
0002a0 83 70 9d bd 69 c0 d2 bc 08 88 ef bc 55 bd c8 3c
       -0.076874755 -0.025726514 -0.02923967 0.024504343
0002b0 d4 56 6e bd 5d 84 90 3d e8 82 2b 3d 94 b5 3d bd
       -0.058188275 0.07056496 0.04187289 -0.046315745
0002c0 da da af 3c 88 c4 5e 3d 5f af d7 bd 79 22 0c bd
       0.021466661 0.054386646 -0.10531496 -0.034212563
0002d0 7d 83 90 bd 2a 5b 58 bd e7 81 06 3d f1 79 67 3d
       -0.070563294 -0.052821316 0.03283873 0.056512777
0002e0 10 2d 28 3c f9 18 2c bd 68 35 b1 38 e1 c0 ee 3c
       0.01026465 -0.042016003 8.4499654e-05 0.029144706
0002f0 cc a8 28 3c 9e 0e 75 3d 1b d4 e3 3d 6b ba 2b bd
       0.010294151 0.059828393 0.1112444 -0.04192583
000300 ad 03 3c bc 07 9c b3 bd 67 17 a9 bb 37 2f d4 bd
       -0.011475486 -0.08769994 -0.0051602605 -0.10360568
000310 8a 32 b9 3d b5 d3 b4 3d f1 87 8d 3d 3a 2a 54 bd
       0.09042843 0.088294424 0.069106944 -0.051798083
000320 10 2e cf 3d 54 b9 65 3c bb 3e 91 3d 45 c3 eb 3c
       0.101162076 0.014021236 0.07092043 0.028779635
000330 3b c0 30 bd 6f 74 f8 3c 6d 64 2d bd 39 67 a0 bd
       -0.043152075 0.030328957 -0.0423321 -0.07832188
000340 df d1 92 3c 25 57 41 bd 8e 9b 65 bc 86 cc bd 3d
       0.01792234 -0.047202248 -0.014014138 0.092675254
000350 5a 96 25 bd 14 d9 6a 3d 5e b0 84 3d dd a2 2e 3d
       -0.04042659 0.057335928 0.06478952 0.042635787
000360 23 3c 27 3d 9d 47 98 bd ff 4e 86 bd 3e 5b 66 3d
       0.040828835 -0.07435534 -0.06558036 0.05623936
000370 3c 97 ad 3c 8a f4 73 bd 2a 75 1b bc 85 8c 12 3e
       0.021190278 -0.059559382 -0.009488383 0.14311416
000380 8c 7b 25 bc 7e d0 b4 3d cb 1b 90 bd 20 11 e4 bc
       -0.010100257 0.08828829 -0.07036551 -0.027840197
000390 b2 51 76 3c 8c bf 9d 3d 3c c3 65 bc c3 29 ba 3d
       0.015034126 0.0770255 -0.014023598 0.09089997
0003a0 93 1c 36 bd ae 16 5c bd 82 36 86 bd 97 1b 63 3d
       -0.044460844 -0.053732567 -0.06553365 0.055446234
0003b0 09 35 b3 bd 08 b1 79 bd 6d e1 45 3d f4 20 9f 3b
       -0.0875035 -0.060959846 0.048310686 0.0048562232
0003c0 27 d7 93 3d d2 d9 29 bd 08 ec 87 3d 64 ea 24 3d
       0.072187714 -0.041467495 0.06636816 0.040262595
0003d0 ca bb 8d 3c 78 d6 a0 bd 61 a4 ee bc 36 9e 6e bd
       0.017301459 -0.07853407 -0.029131116 -0.05825635
0003e0 a4 65 8a bd a5 91 8b 3c 2a 9d c1 bd d3 ea f4 3c
       -0.06757668 0.017037222 -0.09453805 0.02989713
0003f0 20 52 85 3c 01 14 42 bd 64 70 2d bc 6c 00 fa 3d
       0.016274512 -0.04738236 -0.010585878 0.12207112

rnn.bias_ih_l0 f4 [384]
000000 ff 7b 37 3d 5c ef b6 3d c0 2e 97 bb 6b 01 07 bd
       0.044795986 0.08932373 -0.0046137273 -0.032960337
000010 34 de 36 bd 8b 17 de bc 34 ba 4c 3c 28 11 0b 3e
       -0.044645503 -0.027110836 0.012495566 0.13580763
000020 4d 28 f5 bc 29 15 2c 3c d7 8b 7a 3d c9 b5 73 bd
       -0.029926443 0.010503092 0.061168518 -0.059499536
000030 8f 22 c9 3c c1 fa e4 3d 2e 94 fb 39 71 66 a4 3b
       0.024552612 0.1118064 0.00047984853 0.005017095
000040 a5 47 80 3d 5b bc f6 3c 89 ee d1 3d c8 73 a6 3d
       0.06263665 0.030119112 0.10250575 0.08127552
000050 dd 55 8c bd fe d7 dc 3d 0f b3 5e bd ad 24 9b bd
       -0.068523146 0.10783385 -0.054369982 -0.07575355
000060 01 59 90 3d a9 10 a2 3d 5e 52 21 bd ab c5 58 3d
       0.07048226 0.07913334 -0.039385192 0.052922886
000070 53 78 98 3b ae 90 0a bc e1 52 9c 3d 2e b9 b0 3d
       0.0046530156 -0.008457346 0.076329954 0.0862907
000080 37 5e 9d 3d b8 9e 07 3e 52 cb 57 3c 7f 41 8a 3d
       0.07683986 0.1324414 0.013171034 0.06750774
000090 bb 3a 18 bd b4 7e 17 3d ec ff 09 bd 16 c3 d1 3c
       -0.037165385 0.036986068 -0.03369133 0.02560572
0000a0 83 98 ab 3c 2d c0 ba 3d 03 43 3d 3d 59 fb 5e 3d
       0.020946747 0.09118686 0.046206485 0.054438923
0000b0 6e 6e 80 3d f0 a9 9c bc 62 7f a9 bb 16 25 34 3d
       0.06271063 -0.019124001 -0.005172656 0.04398068
0000c0 0e b7 95 3d 9b 61 05 3e c7 55 c6 3c 89 0c ba 3d
       0.073103055 0.13025515 0.024210824 0.09084422
0000d0 d7 82 8d bd 9c f1 ae bc 3d 21 bf 3d 3f e0 73 3d
       -0.06909721 -0.021355443 0.093325116 0.05954003
0000e0 5a 02 1e 3d 5c 9d 9d 3c e6 1a 89 3d 50 56 4f bd
       0.03857646 0.019240074 0.066945836 -0.050619423
0000f0 93 ec d2 3d c9 19 8f bd 4e 52 84 3c 2b 9f 83 bd
       0.10299029 -0.0698734 0.016152527 -0.06426843
000100 e6 39 bd 3d 36 16 94 3d 92 d8 c2 bc fd 07 83 3d
       0.09239559 0.07230799 -0.02378491 0.06398008
000110 7c 87 83 bb 61 a5 d5 3d 28 7a 05 3e cd ff 91 3a
       -0.0040139537 0.10431934 0.1303488 0.0011138857
000120 72 cd 66 bd fe ea 8d 3d 0f 53 9f 3d 87 14 b0 3d
       -0.05634827 0.06929587 0.07779514 0.08597665
000130 18 54 f3 3d 01 47 48 3c 6d e4 e1 3d 1b a3 28 3d
       0.11881274 0.01222396 0.11029897 0.041171174
000140 dc 9a d8 bc ba 20 dd 3d 55 20 c7 3b 43 51 59 3d
       -0.02644103 0.10797258 0.0060768523 0.053056013
000150 11 3d 90 3d f3 aa c9 3d da fb a5 3d 82 e8 c5 3c
       0.070428975 0.09847059 0.081046775 0.02415872
000160 fb 09 b6 3d 06 01 8d 3b 06 ba 2e 3e 00 e4 61 bc
       0.088886224 0.0043031005 0.1706315 -0.01378727
000170 f9 82 2f 3d dd a2 a5 bd 98 25 7d bd 1b d6 08 3e
       0.042849515 -0.08087704 -0.06180343 0.13362925
000180 3e aa 74 3d ad 3d 3d 3e 02 6c b7 bc 31 01 d5 3c
       0.059732668 0.18480559 -0.02239037 0.026001545
000190 4a c0 a2 3c e8 63 a7 3d da 47 b2 3c ef b2 97 3c
       0.019867081 0.081733525 0.021762777 0.01851794
0001a0 f1 65 07 3d 08 f1 80 bc 50 3c 8e 3d fe c3 99 3d
       0.033056203 -0.015739933 0.069450974 0.07508086
0001b0 78 ec 52 bc 7c c3 1c bd 01 53 0a 3e 54 fb af bc
       -0.012873761 -0.038272366 0.13508226 -0.021482147
0001c0 85 2b 31 bc b4 f5 a9 3b 7c f5 6a bd d4 56 e9 bc
       -0.0108135985 0.005186761 -0.05736302 -0.028483786
0001d0 c9 64 f7 3c 06 2e 6e bd 12 9b ab 3d 85 7c 94 3d
       0.030199425 -0.05814936 0.08379187 0.07250313
0001e0 c4 35 21 bd 1e aa 2b bd 3f 8e d8 bb 59 8d 00 3d
       -0.039357916 -0.041910283 -0.006608754 0.0313848
0001f0 88 f2 ff bc 11 e7 de 3d 11 d9 8d bd c3 74 8d 3d
       -0.031243578 0.10883916 -0.06926168 0.06907036
000200 36 8a e8 bc 6b f4 b7 bd ca 4a 83 3d 9a 4a a2 3b
       -0.028386217 -0.08982166 0.06410749 0.004952741
000210 dc df 8e bd 3c 7c 4a bd 0e 7a c7 bd 35 41 07 3c
       -0.069762915 -0.049434885 -0.09740077 0.008255293
000220 d0 d8 09 3c 5c be 62 3d 68 75 07 bc c3 9d 37 bd
       0.008413509 0.055357322 -0.008267738 -0.044828188
000230 97 99 3d bd 27 cb 8d 3d 27 0f 29 3d f3 5e 67 3d
       -0.046289053 0.06923514 0.041274216 0.056487035
000240 d8 f9 75 bd a2 80 b7 3d 41 3a 4c 3d 4d b1 b7 bd
       -0.060052723 0.08960082 0.049860243 -0.08969364
000250 f8 a5 9a 3b f0 31 8f bb 50 6a b7 3d 35 45 f4 3a
       0.004719492 -0.0043699667 0.089558244 0.0018636348
000260 54 74 4a bc f5 87 ad bd c4 c6 0e bd 66 92 03 3c
       -0.012356836 -0.08473197 -0.034857526 0.00803051
000270 06 07 0d 3d 42 17 a8 bd 34 95 ff ba c4 b7 0d 3e
       0.034430526 -0.08207561 -0.0019499422 0.13839632
000280 ef ee 1d bc 6f bb d4 bd 4e 03 82 3d dd 24 c0 3c
       -0.009639486 -0.103873126 0.063482866 0.023455078
000290 8f d1 37 bc 91 8b 81 bd 3f 8e 83 3c 43 da 9b bc
       -0.011219396 -0.06325448 0.01605904 -0.019024974
0002a0 e4 48 c6 bc 7c 2d c6 bc db 70 0e bd dc 8e 13 3d
       -0.024204679 -0.02419161 -0.034775596 0.036024913
0002b0 cb 0d 18 bc 8b e2 ab 3d 2f de b6 3d ac 8b d1 3d
       -0.009280632 0.08392819 0.08929097 0.102317184
0002c0 60 9d 7c bd e0 b0 d6 bd 14 d8 87 3d ba 90 11 3d
       -0.061673522 -0.10482955 0.066330105 0.035538413
0002d0 f9 93 e7 3d ac 82 9b 3d a1 bc 3a 3d 51 8f b5 bd
       0.113075204 0.07593283 0.045590047 -0.08865226
0002e0 6d df fe bd 83 f5 a2 bd 9f 93 da bd 7a dc 5e bd
       -0.12444959 -0.07956984 -0.10672688 -0.05440948
0002f0 4d df ab 3d ec ca 55 bd 47 3e d3 3d 55 37 50 3d
       0.083922006 -0.052195475 0.10314613 0.05083402
000300 5c b6 3b bd f5 f1 e9 bd 58 cf 0f 3c cf 1c a1 be
       -0.04582821 -0.11423103 0.008777462 -0.31467292
000310 f9 46 c4 bd 46 7b a5 3d 7c 3f b8 bd 66 59 a4 bd
       -0.095838495 0.08080153 -0.08996484 -0.08024864
000320 ce b4 9b bd 33 f5 a8 bd a6 37 84 bb e0 4c ea bd
       -0.07602845 -0.08249893 -0.004034954 -0.11440444
000330 7b 4b 89 bd ea 67 b0 bc ad d9 a2 bd db bb 5e 3c
       -0.0670385 -0.021533925 -0.079516746 0.013594593
000340 e7 d1 5b bc 02 81 fa bd d3 39 2c ba d1 bf 2c bd
       -0.013416744 -0.122316375 -0.0006569896 -0.042175118
000350 23 92 15 3d a5 61 69 bd 48 97 43 bd 39 ef 06 bd
       0.03651632 -0.056977887 -0.047751695 -0.032942984
000360 27 4e 0d be 4d 86 b6 bd 40 c9 c6 bd 46 c1 2a bd
       -0.13799344 -0.089123346 -0.09706354 -0.041688226
000370 e9 c6 27 3c 4f 73 28 3d d4 6d e2 3d b4 c5 90 bd
       0.010240295 0.04112559 0.11056104 -0.07068959
000380 36 3f a1 bc 29 a3 e7 bd b7 3e a9 bd 75 45 2f be
       -0.019683462 -0.11310417 -0.08263915 -0.1711634
000390 f9 6c fc 3c 78 40 3c bd 2d 6e 41 3d 4a 7d a2 bd
       0.030813681 -0.04595992 0.047224212 -0.07934053
0003a0 33 c4 d3 3c 31 f8 7e bc 73 56 09 3e 90 0a 6b bd
       0.025850391 -0.015562103 0.13411884 -0.05738312
0003b0 d3 d4 ef 3b ec 68 8c bd d8 15 15 bd ed 4d 4d bd
       0.007319072 -0.0685595 -0.036397785 -0.050123144
0003c0 b4 d9 a9 bd 89 61 aa 3d 4a 59 74 3c 21 30 ae bb
       -0.08293477 0.083193846 0.014913866 -0.005315796
0003d0 6c 0a e2 3c 13 04 51 bd 54 fd 2b 3d a3 27 bb 3d
       0.02759286 -0.051029276 0.04198964 0.091384195
0003e0 29 8f b9 bd 71 4e 27 3c 54 66 c6 bd 16 48 d7 bd
       -0.09060509 0.010211573 -0.09687486 -0.10511796
0003f0 cd 68 6d bb a8 c7 0e bd 18 e9 a5 3c b5 cd a2 bc
       -0.0036225796 -0.034858376 0.02025275 -0.01987348

rnn.bias_hh_l0 f4 [384]
000000 cc a6 2b 3d f3 7a 94 bd 7c 7d 83 3d e4 0d cd 3d
       0.041907117 -0.07250013 0.064204186 0.10012415
000010 df eb 1e 3d 74 f5 e5 bc dc a6 11 3e 4a d4 81 3d
       0.038799163 -0.028071143 0.14223808 0.06339319
000020 b1 60 a3 3d c2 35 b3 bd a4 e1 64 bd 58 07 bf bd
       0.07977427 -0.08750488 -0.05587925 -0.093275726
000030 ff 1a 8d bd 1c eb b5 3c 01 8f b2 3c d3 fb dc bc
       -0.06889915 0.022206835 0.021796705 -0.026975548
000040 d4 36 5f bd ed 3f bd 3d e6 b9 3e bd 73 31 7f 3d
       -0.054495648 0.092407085 -0.046564005 0.062303018
000050 7e 0a 8d 3d 09 3e 1b 3d d2 87 c9 3c c7 bb b9 bb
       0.06886767 0.03790096 0.024600897 -0.0056681368
000060 24 a0 84 bc d6 3f 87 3b c5 14 26 bd 06 9b 21 3d
       -0.016189642 0.004127483 -0.04054715 0.039454482
000070 c7 37 ab bd 4a d5 94 3d eb dd 0c bd 2a 2c d6 3d
       -0.08360248 0.07267244 -0.034391325 0.104576424
000080 e5 18 b3 3d ae 76 40 bb fe d7 c2 3c 81 6d 1c 3d
       0.08744983 -0.0029367614 0.023784634 0.03819037
000090 71 e0 77 3d 6b c0 a0 3d d6 88 e2 3d 03 ea f0 3d
       0.06051678 0.07849201 0.11061256 0.11763384
0000a0 f0 38 9d bb c2 84 ec 3d ee de 8c 3c 44 38 9f 3d
       -0.0047980472 0.11548759 0.017196145 0.07774404
0000b0 bb ac 20 3e c8 a8 2d bd 37 ae 69 3d e1 8c fc 3d
       0.15690891 -0.04239729 0.05705091 0.12331558
0000c0 0e 5a 13 3d 7f 5d cd 3d 2f 64 28 bc 6b 3a 50 bc
       0.035974555 0.100275986 -0.010277792 -0.01270924
0000d0 58 4d b9 bc 79 c1 06 3e 93 cf 0d 3d 8b 61 8f 3d
       -0.022619888 0.13159741 0.034621786 0.07001027
0000e0 84 1d a4 bc 16 ba 43 3d e9 47 ca bc d7 1b 8d bc
       -0.020033605 0.047784887 -0.024692493 -0.01722519
0000f0 fd 8c 7f 3c 22 f3 df bd d9 3a 85 bc 81 04 01 3d
       0.015597579 -0.10935046 -0.016263412 0.031498436
000100 e9 e4 ac ba e5 25 56 bd 2d af c4 3d 83 97 dc 3c
       -0.0013190779 -0.052282233 0.09603725 0.026927715
000110 6e bf 55 bb 2e b3 ff 3d 5f 89 f2 bc 89 6c b6 bb
       -0.0032615322 0.12485348 -0.02960652 -0.0055671376
000120 56 1f 27 bd 8c 07 d3 3d ca f6 c0 3d f8 04 83 bd
       -0.04080137 0.10304174 0.09422071 -0.06397432
000130 f9 22 44 3d 39 34 70 bb c6 10 01 3c 8f b7 b7 3d
       0.047884915 -0.003665222 0.007877534 0.08970558
000140 6a b8 fb 3c 42 9a 32 bc cf 8b a1 3d e7 df a3 bc
       0.030727584 -0.010901036 0.078879945 -0.020004226
000150 09 ba 70 bb b3 63 a1 3d bb 69 6d 3d 5e 60 50 bc
       -0.003673198 0.07880344 0.05796216 -0.012718288
000160 66 2b de 3d 64 3c c5 3d f7 a4 a6 3d 2f 93 a2 3d
       0.10848121 0.09630659 0.08136933 0.07938229
000170 cd 13 cb 3d 8f 7d 4c 3d 6a 01 0f bd 0c 6d d6 3d
       0.09915886 0.04992443 -0.034913458 0.10470018
000180 53 d3 11 3d 99 ec 24 3e f6 f6 ab 3d e2 49 03 3e
       0.035601925 0.1610588 0.083967134 0.12821153
000190 68 df 8c bd f4 39 0e 3e 81 66 84 bd e9 0b 05 3e
       -0.06878549 0.13889295 -0.064648636 0.12992825
0001a0 48 83 a2 3d 46 17 c2 bc ca 00 75 3c 04 49 b1 3d
       0.07935196 -0.023692738 0.014953801 0.08656505
0001b0 62 c1 92 bd 7c 6a 98 bc 2e 10 ab 3d c7 66 c1 3d
       -0.07165791 -0.018605463 0.083526954 0.09443431
0001c0 32 bb ce 3b b1 06 23 3d 2c c9 9b 3d ac fd cb 3d
       0.0063089365 0.039801303 0.0760673 0.099604934
0001d0 fa 1a 1d 3d da 4c b2 bd fc a6 8c bb 14 b1 d8 3c
       0.038355805 -0.087060645 -0.004292367 0.026451625
0001e0 60 01 ec 3c 50 da a4 bd 0b 2c 96 bc a4 4a 04 bd
       0.02880925 -0.08049452 -0.018331548 -0.032297745
0001f0 1f e1 7b 3d 6e e4 0c 3d 9b a9 74 3c c7 26 d3 3d
       0.06149399 0.034397535 0.014933015 0.103101306
000200 ec 91 2f 3d 77 29 d0 bd c5 6f ef 3c 19 03 c5 bc
       0.04286377 -0.10164159 0.0292281 -0.024049329
000210 65 cd d6 3c 9b e4 03 3c eb 6c f8 3c a6 ff 17 3d
       0.026220987 0.008050109 0.030325374 0.03710904
000220 96 cd e5 3c d9 0e a4 3d a5 24 b5 3d ac 2a 2e 3d
       0.028052133 0.080106445 0.0884488 0.042521164
000230 44 4b 14 3d f3 74 74 3d 26 84 b4 bd f6 11 a7 3d
       0.03620459 0.059681844 -0.08814268 0.08157723
000240 ee fa 53 bb e0 8a 36 bd 4c c4 27 bc 99 c8 8a 3d
       -0.003234561 -0.044566035 -0.010239672 0.06776542
000250 ff 8a e3 bc b9 f9 56 3d 8d b0 af bc 56 32 0d 3d
       -0.02777624 0.052484248 -0.02144649 0.034471832
000260 78 70 70 3c 1c fa 61 3d 9d dc df bd 16 a0 90 3c
       0.014675252 0.055170164 -0.109307505 0.01765446
000270 78 5b 0f 3e 5a ca db b8 a9 32 ca bd 17 3f 08 3e
       0.13999736 -0.00010480425 -0.09872944 0.13305317
000280 01 4e 99 3d 0b a8 c7 bc 94 cb cc 3d 01 d1 33 3d
       0.07485581 -0.024372121 0.09999767 0.043900494
000290 a7 82 55 bd 31 47 09 3d 43 c9 86 3d 4c 6a c6 bd
       -0.052126553 0.03351516 0.065813564 -0.09688243
0002a0 7b 3e b2 bc f8 fe df bc 6d 0b da 3c 16 a9 fc 3c
       -0.021758309 -0.027343258 0.026616776 0.030842345
0002b0 21 a9 34 3d d8 8a 5f 3d c6 84 1d 3d 0d 4b de 3c
       0.044106606 0.05457577 0.0384567 0.027135396
0002c0 28 0a 95 bd 77 cd 1d bc d5 69 a5 bc 89 e2 5a 3b
       -0.07277328 -0.009631506 -0.020192066 0.0033399186
0002d0 0c a3 d1 bc 79 7f dc bb ac ec d9 3d cb 01 08 bd
       -0.025590442 -0.006729063 0.10640845 -0.033204835
0002e0 df c2 d4 b9 d2 ec 69 bb 41 a9 1b 3b 40 60 cf bd
       -0.0004058098 -0.0035694134 0.0023752006 -0.1012578
0002f0 0d 53 51 3d 1d 38 96 3d 6d d1 b4 3b ef 35 c4 3c
       0.051104594 0.073349215 0.0055181296 0.023951499
000300 11 67 7c bd 81 bd d1 bd 79 e9 2b 3c c3 c7 57 be
       -0.06162173 -0.10241223 0.010492676 -0.21072297
000310 81 ce d4 bc c9 ba 72 3d 18 e0 cf bc 3b 06 16 bd
       -0.025977375 0.059260163 -0.02537541 -0.036627036
000320 b9 a5 02 bd 30 f2 18 3d 3c 1b c4 bd e6 3c fc 3c
       -0.031896327 0.037340343 -0.09575507 0.030790757
000330 fa 3c 4a bd 58 49 96 bd cc 7d 2d 3c 46 b5 30 bc
       -0.049374558 -0.07338208 0.010589074 -0.010785406
000340 e1 8a d1 bd f7 45 55 bd 47 38 86 bd 84 0c 8a bb
       -0.10231567 -0.052068677 -0.06553703 -0.0042129178
000350 5f 7a de 3c e9 42 0d 3c 5e 9f e0 bd 09 3b b7 bb
       0.02715796 0.00862191 -0.10967897 -0.0055917543
000360 b0 f9 d8 bd 17 19 0c 3d df a2 0b be 15 41 d6 bc
       -0.10594499 0.034203615 -0.13636349 -0.02615408
000370 2c 17 c2 bd ed b1 43 bc 79 9c 72 3d be eb d5 bd
       -0.09477076 -0.011944276 0.059231255 -0.10445355
000380 b5 ad 23 bc 80 7c ad 3c ea fb 2c bd 1c 43 2b be
       -0.009990145 0.02117753 -0.04223243 -0.16724819
000390 25 ab a1 bd 13 36 34 3d a6 87 69 3d 84 44 ec bd
       -0.07893971 0.04399688 0.05701413 -0.11536506
0003a0 eb be c1 bd 32 d3 0d 3d a7 78 bd 3d ea 88 29 bd
       -0.09460243 0.03462524 0.09251528 -0.041390337
0003b0 3b 51 9d bd 7f fc 4d bb 5a ae ea bb e4 10 aa 3c
       -0.07681509 -0.0031431017 -0.0071618976 0.020760007
0003c0 54 b1 39 bd dc 3c 0f bd 78 75 77 bd d1 a5 76 3c
       -0.04533513 -0.03497015 -0.06041476 0.015054182
0003d0 e2 6e 14 3d a3 d7 40 3c 06 f3 bd bd 90 ab fb 3d
       0.03623856 0.011770162 -0.09274869 0.12288582
0003e0 d9 c6 0d 3d 36 ab 64 b9 1c d1 25 3d db 8a eb bd
       0.034613464 -0.00021807555 0.040482625 -0.11501094
0003f0 99 7f 71 3d cb 65 ec bc 8e d8 5b bd a0 24 ec bd
       0.058959577 -0.028857132 -0.05367332 -0.11530423

rnn.weight_ih_l1 f4 [384, 128]
000000 b5 a9 ca bd 01 b6 eb bc 01 d0 41 ba 35 cb f8 bc
       -0.0989565 -0.02877331 -0.0007393361 -0.030370334
000010 37 96 7a 3d ad 9d 8a bd d1 97 94 3d 6a 01 ad bd
       0.061178412 -0.067683555 0.07255519 -0.08447535
000020 14 3d 9f 3d 7d 7a 48 bd 8c 7e c9 bc 0d e7 85 3c
       0.077753216 -0.04894494 -0.024596475 0.016345525
000030 ad dc ca 3b 8b da 3e 3d ab 6a bb bb 44 19 ef 3b
       0.0061908574 0.046595138 -0.005719503 0.007296713
000040 73 ff 83 3d c8 3d 7c bd 77 5e 51 3d c7 62 41 bd
       0.064452074 -0.061582357 0.05111548 -0.047213342
000050 45 93 2e 3d 58 91 35 bd bb c4 c3 3c 0a b1 0e 3d
       0.042620916 -0.044328064 0.02389752 0.034836806
000060 d0 92 5d bd c1 75 cb 3d 2d 8c 5a 3d a7 43 16 3d
       -0.05409509 0.09934569 0.05335634 0.036685612
000070 ac 09 a5 3d 21 95 b0 3c c6 48 a2 3c 2a e3 74 bd
       0.080584854 0.021555485 0.019810092 -0.059786953
000080 8a 0b c5 bd af b4 53 3d 34 03 34 bd 52 10 9d 3c
       -0.096213415 0.051685985 -0.043948367 0.019172821
000090 14 89 8b bc a3 66 b8 bd e7 58 7f 3d 11 bf af 3c
       -0.017033137 -0.090039514 0.062340643 0.021453412
0000a0 f2 2f a1 bd 94 b4 54 bd 66 6f 3a 3d 39 3e 8c 3d
       -0.07870473 -0.051930025 0.045516394 0.068478055
0000b0 61 e5 41 bd c5 9d 1e 3c b7 65 59 3d 6f 90 0c bd
       -0.047337893 0.00968117 0.05307552 -0.03431743
0000c0 55 c0 a9 3c 81 50 75 3d 55 db 98 bc 60 0c 81 37
       0.020721594 0.059891228 -0.018659273 1.5383761e-05
0000d0 8a 9b 8d bd fb 07 9b bc 81 22 45 bd d2 81 31 3d
       -0.06914432 -0.018924704 -0.04812861 0.043336697
0000e0 bc 1f 8a 3d e4 43 e0 3d 57 b7 4d bd 62 91 a3 3d
       0.06744334 0.10950449 -0.050223675 0.07986714
0000f0 61 03 a9 bc 54 db 2c 3d 2e 81 b2 bd 0e 98 50 3d
       -0.020631494 0.042201355 -0.08716045 0.05092626
000100 3e 83 e0 bb 0d ae 73 3d 69 d2 b0 3d cb 8f f0 3d
       -0.006851583 0.05949216 0.086338826 0.11746176
000110 b0 79 f5 3c 82 98 4a 3c 28 de 9e 3c 2b bb 91 3c
       0.029965252 0.012365462 0.019393042 0.017789444
000120 39 0e ca bd e7 1b d1 3d e3 96 13 bd 56 37 03 bd
       -0.09865994 0.102104 -0.03603257 -0.032035194
000130 43 b1 67 3d 8e ad d9 bd c8 4e d0 bd 0d 74 31 bd
       0.056565534 -0.10628806 -0.10171276 -0.043323565
000140 54 dd f5 3a b7 6b 32 3d 1a ad 77 3d 1b 18 0b 3d
       0.0018757978 0.043559756 0.060467817 0.033958536
000150 be c3 d3 bc 1f 73 8a bd 93 c4 4e 3d 25 30 1b 3d
       -0.025850173 -0.06760239 0.050480437 0.03788771
000160 a7 46 93 bc 79 c3 3f bd a3 5c 21 3d 5b c6 80 bd
       -0.017978026 -0.046817277 0.039394986 -0.06287833
000170 49 8b b9 bc 60 03 42 3d c2 47 67 3d 65 b8 05 3d
       -0.022649424 0.0473665 0.056464918 0.032646555
000180 57 60 0d bc 92 bb 96 bd 0b 86 54 3d 20 bd 54 3d
       -0.008628926 -0.07359995 0.051885646 0.051938176
000190 17 a3 90 3d aa df a5 bc c3 0c 35 3d 76 cc cd 3c
       0.07062357 -0.020248253 0.044201624 0.025121909
0001a0 74 ac 89 bc f1 8b 60 bd d5 87 79 3d c4 45 cb 3c
       -0.016805865 -0.05482096 0.060920555 0.02481354
0001b0 22 c4 f7 3c 6a f9 43 3d 05 57 ba 3c 13 ec ad bc
       0.03024489 0.04784528 0.022746572 -0.021230733
0001c0 15 8a 30 bd e3 c8 a3 3b bf 64 ae 3d 14 55 cf 3c
       -0.043100435 0.004998313 0.085153095 0.025309123
0001d0 37 fa f5 bb 33 ea 6c 3d 6a ed 28 bd c2 5a d6 3c
       -0.0075066346 0.057840537 -0.04124204 0.026166324
0001e0 bc 89 51 3d 47 30 84 3d 0b 9d b9 bd e9 25 90 bd
       0.051156744 0.06454521 -0.09063157 -0.07038481
0001f0 21 2b f8 3a 2f be 09 bc 34 c3 4e bd d5 3d a2 bd
       0.0018933752 -0.00840716 -0.05047913 -0.0792195
000200 5e 2c 53 bd fa d1 85 bd f3 2b 43 bc 04 9c b0 bd
       -0.051555984 -0.065341905 -0.011912334 -0.086235076
000210 40 85 fc bc 1e 52 28 bd a8 4a dd 3d bf 7c e6 bc
       -0.030825257 -0.041093938 0.10805255 -0.028135655
000220 00 68 1d 3d 51 8f 1d 3d 31 01 d9 3d 61 06 c4 bc
       0.03842926 0.038466755 0.1059593 -0.023928823
000230 79 4a 28 bd 42 f4 4a bd 79 9f e8 bb b5 d6 b9 bd
       -0.041086648 -0.04954935 -0.0070990887 -0.09074155
000240 2a 4b b1 bd ec 1f 43 3b a1 0b 6d bc e1 d4 ae bd
       -0.086569145 0.0029773666 -0.014468105 -0.08536697
000250 72 35 cd 3c 88 b4 0e bd 45 dd 36 bc 93 b3 d2 bd
       0.025049899 -0.034840137 -0.011161153 -0.10288157
000260 ab c9 54 3d cd 9d 56 b9 29 56 62 3c 61 78 1d bc
       0.051950138 -0.00020467416 0.0138144875 -0.00961122
000270 62 89 ae 3d c7 01 8f 3c 74 4f 10 3c f8 46 e7 3d
       0.085222974 0.017456902 0.008808006 0.11292833
000280 57 5c 54 3d 73 30 cc bc 9d 3f 42 3d 4c 70 bf bc
       0.051845875 -0.024925446 0.047423948 -0.023368977
000290 3a 08 ac 3d 56 76 66 3c 7e 07 1e bd 12 e1 d5 3c
       0.084000066 0.014066299 -0.038581364 0.026108298
0002a0 6b 5b 12 bd 46 ea 4c 3d fe 04 85 bd 0a 0a aa 3d
       -0.035731714 0.050028108 -0.06495093 0.08302696
0002b0 87 b7 91 3d 99 50 29 bd d4 54 94 3d c9 69 82 3c
       0.07115083 -0.04133663 0.07242742 0.015919583
0002c0 de a6 9a 3c df 56 d7 3c 1a a7 28 3c 9f c7 e4 3c
       0.018878397 0.02628654 0.010293746 0.027927218
0002d0 2a ec 80 bc c5 40 27 3d 24 7c b1 3d 14 43 2d 3b
       -0.015737612 0.040833253 0.08666256 0.0026437687
0002e0 aa 6a d9 3c ec 25 7e 3d 2c 5e cd bd 84 0b 8b 3d
       0.02654012 0.062047884 -0.100277275 0.06789306
0002f0 96 b4 40 3c ea 8d 1c bd 4f 1b 35 3d 94 cb 51 bc
       0.011761805 -0.038221277 0.044215497 -0.012804884
000300 7f 42 93 bc 2a 0c 9e bd 35 d1 f7 bb 0d 02 8b 3d
       -0.017976044 -0.07717164 -0.007562781 0.067875005
000310 2f 55 60 bd 25 be 82 3d 0e 7b 6b bb 7d 70 7d bc
       -0.054768737 0.063839234 -0.00359315 -0.015468714
000320 7d 8c 1c bc e2 4e 8c 3c 08 3c 34 3d b0 f4 aa bc
       -0.009554979 0.017127458 0.044002563 -0.02086863
000330 0b d8 48 bd 12 62 ba bd 73 9c ce bd b1 0d ad bc
       -0.04903416 -0.09100737 -0.10088434 -0.021124693
000340 47 6b 18 bc 43 2a 84 3d 21 df 51 3d c8 f7 64 bd
       -0.009302921 0.06453373 0.051238183 -0.055900365
000350 ed 30 13 bd 7b 05 68 bd 32 10 97 bd 00 42 00 3d
       -0.03593533 -0.05664585 -0.07376136 0.031312943
000360 75 2d 8f 3a 6b d6 c8 3d 5e c9 8f bc ce 5f ac bd
       0.0010923581 0.09806522 -0.017552074 -0.08416711
000370 2a 19 bd bc b4 46 35 3c e2 de d0 bc 5b 7a 7c bc
       -0.023083288 0.01106422 -0.025496904 -0.015410031
000380 2d 94 c1 3d 75 04 41 3d 18 ae c8 ba 70 4c 22 3d
       0.094520904 0.04712339 -0.0015310673 0.039623678
000390 2d 0e 98 3d da ea 8b 3d 9d ea bc 3c 16 7b a2 bd
       0.07424579 0.06831904 0.023061091 -0.07933633
0003a0 35 e1 3c bd 5b 08 37 3d 4c f4 12 3d ea bf 4c bd
       -0.04611321 0.044685703 0.03587751 -0.04998771
0003b0 dd df 21 3d 70 98 6a bb 43 92 98 bc 80 00 a9 bc
       0.039520133 -0.0035796426 -0.01862443 -0.020630121
0003c0 48 58 ea bd 7a e1 81 bd fd 42 6a 3d 5b 63 72 3d
       -0.114426196 -0.06341834 0.05719279 0.059176784
0003d0 b3 9f 89 3d e2 f8 ce 3d 27 d0 68 3d c7 e6 8f bd
       0.06719913 0.101060644 0.056839135 -0.07026439
0003e0 03 6c ca bd 0f d1 ad bc 39 85 e6 bd e0 4b 08 bd
       -0.09883883 -0.021217851 -0.11255879 -0.033275485
0003f0 3a 53 83 3d 54 57 97 3d 8c 8d 1b bd 3d 54 a0 3d
       0.064123586 0.073897034 -0.037976786 0.07828567

rnn.weight_hh_l1 f4 [384, 128]
000000 23 e4 5a 3d 40 8c 42 bd 72 67 51 3c 1b bd 95 bd
       0.053440224 -0.047497034 0.012781011 -0.0731146
000010 73 f6 56 3d a1 0b d9 3d d1 af 9b bd e0 84 55 3d
       0.052481126 0.10597921 -0.07601894 0.052128673
000020 06 fa 41 3d 7c 5c 00 3d 5c 6a 0b 3d 6e 5e 92 3c
       0.04735758 0.0313382 0.03403698 0.017867293
000030 73 27 88 3d 37 0e af bc 13 bf a8 3d f7 8f 1c 3d
       0.06648149 -0.021369083 0.082395695 0.038223233
000040 e1 0f c4 3d 0b 23 42 3d 4d 13 87 3d e9 f8 cd 3b
       0.09573341 0.0473967 0.06595478 0.006285776
000050 8c 10 91 bd 3b a3 dc bc 07 e4 d6 bd 23 60 f8 bc
       -0.07083234 -0.026933303 -0.104927115 -0.030319279
000060 ed 9c 8c 3d 6a b2 51 3d 7d 8b 30 bd 4c 1c 23 3d
       0.06865869 0.05119554 -0.043101776 0.039821908
000070 f4 f2 38 3d 1e 31 93 bd d0 96 a2 bc 91 2a 75 bd
       0.045153573 -0.07187103 -0.019847304 -0.059855048
000080 f9 1f fb bc 45 95 4d 3c d6 06 a6 bc 8a 65 85 3c
       -0.030654894 0.012547796 -0.020266932 0.01628377
000090 e5 92 be bd 0e dd 81 bd 22 89 54 bc 1b d6 33 3d
       -0.09305362 -0.06340991 -0.012972148 0.04390536
0000a0 8e 87 85 bd 56 e9 8f bc 69 ac fb bb b2 93 05 bd
       -0.06519996 -0.017567318 -0.007680465 -0.032611556
0000b0 75 fd ac bd 68 72 b2 bd d6 e9 37 bd e0 d7 e5 bc
       -0.084467806 -0.087132275 -0.044900738 -0.028057039
0000c0 ed af b6 3d ce c4 cd 3b 19 78 27 bd f5 52 a5 bd
       0.08920274 0.0062795645 -0.04088602 -0.080724634
0000d0 ce 20 c9 3c b9 92 69 bc c0 89 4c 3d a7 c5 81 3d
       0.024551775 -0.014256173 0.049936056 0.06336527
0000e0 62 86 51 bd 82 22 ba 3d be ab cb bc f3 b4 3b bd
       -0.051153548 0.09088613 -0.024862166 -0.045826863
0000f0 e1 d9 8b 3d ca 5b 97 3d 62 78 8f 3b 65 ab 35 3c
       0.068286665 0.07390554 0.0043783644 0.011088227
000100 b5 e4 7a bc 86 63 01 3d 88 b3 b6 3d 5a 18 12 bd
       -0.015313317 0.031589054 0.089209616 -0.035667755
000110 5a 6c d5 bc 18 80 cd bd 10 08 9d bc ea 31 57 3d
       -0.026052643 -0.100341976 -0.019168884 0.052537836
000120 cb f2 d9 bc 8f ed b4 bd 73 ee 84 bd 11 24 11 bc
       -0.02660503 -0.08834373 -0.06490793 -0.008858697
000130 9e 10 1d bd c4 e1 e5 bb 88 3f 43 bc f2 6f 1e bc
       -0.038345926 -0.0070154388 -0.0119170025 -0.0096702445
000140 e1 95 3f bd 09 fa e8 bd 7e 7e 5e 3d 93 71 2e bd
       -0.046773795 -0.113758154 0.05431985 -0.04258878
000150 04 31 96 3c 5d bd a2 3c f2 0a 9a bd 79 ab 98 3d
       0.01833392 0.019865686 -0.07521619 0.07454581
000160 92 25 a5 3d e3 30 4c bd 5d 3a af bc 7f 62 20 3d
       0.080638066 -0.04985131 -0.021390134 0.039156433
000170 f2 17 5a 3b a5 6c 04 3d d4 7f 89 bd 87 29 8c bc
       0.0033278433 0.032330174 -0.067138344 -0.017109646
000180 16 ae fa 3c d2 d6 0b bd 9d 3f c6 3c 7a 32 a3 3c
       0.030600589 -0.034140415 0.024200255 0.01992153
000190 44 55 7b bc 49 d5 53 bd c4 ab bf ba 6c 4a 91 3c
       -0.015340153 -0.051717076 -0.0014623334 0.017735682
0001a0 bf 0c 0b bd 17 d2 41 bd d5 50 3f bd d2 dd a3 3d
       -0.033947702 -0.047319498 -0.046707947 0.08001293
0001b0 cd 6a c4 3c 05 6f 6d bd fb 7d b5 b9 05 53 b5 3c
       0.023976708 -0.057967205 -0.00034616873 0.022134313
0001c0 64 be 8a 3d 74 98 55 bd 1b 7a 81 3d ee 55 a9 bd
       0.067745954 -0.052147344 0.06322118 -0.08268343
0001d0 40 bf f4 bd 50 06 e7 3c 1c 36 4b 3d 5e c6 86 3b
       -0.119505405 0.028201252 0.04961215 0.0041130027
0001e0 ed 98 97 3b 70 c9 92 bd 89 d3 93 3d ba 69 80 bd
       0.0046263845 -0.071673274 0.072180815 -0.06270166
0001f0 eb 46 98 bb b5 ab 61 3d 76 1f 4c bc a7 f5 65 3b
       -0.004647126 0.055095393 -0.012458673 0.0035089047
000200 b1 ae b8 3b f4 e6 a4 3d f7 ce 4a 3d d8 ad 87 bd
       0.005636059 0.08051863 0.049513783 -0.06624955
000210 51 4a 1b 3d c5 56 8c 3d 30 96 89 bd 27 81 8e 3d
       0.03791267 0.068524875 -0.06718099 0.069582276
000220 87 2e 83 3b 1d 06 d5 3b c1 af 16 3d 77 2d 23 bd
       0.004003349 0.006500973 0.036788706 -0.03983828
000230 10 60 12 bd 8f 45 91 3d ae d2 e4 3d 29 80 50 3d
       -0.035736144 0.070933454 0.111729965 0.050903473
000240 a3 76 10 3c 77 47 81 bd f9 d4 a6 bb cc 8d b8 bd
       0.008817348 -0.06312459 -0.0050913063 -0.090114206
000250 36 57 e0 bd 84 99 13 bd ef 17 5b 3c da 1d 1d bd
       -0.10954134 -0.036035076 0.013372405 -0.038358547
000260 33 db 28 3d cd 9b ce 3c 45 21 07 3d 64 16 d8 bb
       0.04122467 0.025220776 0.032990713 -0.006594466
000270 dd 47 db bd f8 26 52 3d 94 fc 18 bc af c4 51 3d
       -0.10707066 0.051306695 -0.009337563 0.051212963
000280 6a 82 bb bd a3 f7 47 3d f4 bd 97 3c 26 aa c4 bd
       -0.09155734 0.04882015 0.018523194 -0.09602766
000290 33 10 34 3c 42 b0 47 3d 80 a3 6b 3d 22 cb 16 3d
       0.01099019 0.048752077 0.057528973 0.036814816
0002a0 91 80 be 3d 2c 77 11 3d df 24 c6 3d 9c 05 01 be
       0.09301866 0.03551404 0.09675001 -0.12599796
0002b0 85 a6 0f 3d b3 b9 8e bd ec 3e 9a bc 0f 33 98 3d
       0.035070915 -0.06969013 -0.018828832 0.07431614
0002c0 c2 5a c0 3d fe e6 99 3d 06 b7 77 bd 80 41 30 bd
       0.09392311 0.075147614 -0.06047728 -0.043031216
0002d0 91 c7 f6 bc 22 79 ad 3d f8 0c 70 bb 3f a3 99 bc
       -0.030124458 0.0847037 -0.0036628824 -0.0187546
0002e0 4b 8f 7c bd 0e 0a 5f bc df 30 14 3d 57 15 8b 3b
       -0.061660092 -0.013613237 0.03617942 0.0042444873
0002f0 c0 86 e1 3c 54 86 04 bd a7 60 2b 3d b4 80 14 3d
       0.027530074 -0.032354668 0.04184022 0.036255553
000300 96 30 2a bb 0b 1c 86 3c 52 e4 94 3d 14 bc dc 3d
       -0.00259689 0.016370794 0.07270111 0.107780606
000310 87 89 97 bd b7 a9 13 bd 96 e2 27 bd b6 b0 7a 3c
       -0.07399278 -0.036050525 -0.040987574 0.01530092
000320 ae 2e c9 bd 9b 70 57 bc 1a 52 1d 3d 71 2d 88 bd
       -0.098233566 -0.013149406 0.038408376 -0.06649292
000330 f4 38 c0 bb 88 5d cf bc 44 bd 28 bd 5b 89 1b bd
       -0.0058661643 -0.025313154 -0.041196123 -0.03797279
000340 4e ec 2f bd 21 b3 c7 bc 19 bc ae bc 21 06 2a 3d
       -0.042949967 -0.024377408 -0.021329926 0.04150975
000350 77 a9 27 bc 93 a9 83 bd 7e 93 84 3d 1f 28 a9 3c
       -0.010233275 -0.06428828 0.064734444 0.020649014
000360 aa 49 32 3d 9b d5 8c bb 86 2a 22 3d 39 a0 62 3c
       0.043527283 -0.0042979247 0.039591335 0.013832145
000370 df 70 6d bd 1f 0c db bc d2 a9 4b 3c 37 0e 12 3d
       -0.05796897 -0.026739178 0.012430625 0.035658088
000380 24 fe cd 3d e1 a5 de bc 66 a5 3c bd f0 7d 2a 3d
       0.10058239 -0.027178707 -0.046056174 0.04162401
000390 f0 8b 05 bd e0 d2 2d bd 7c bf 3d 3c de 5c 6a bd
       -0.032604158 -0.042437434 0.011581298 -0.05721747
0003a0 13 48 28 bd 83 83 6b 3d c7 b0 d4 bd 19 63 7c bc
       -0.04108436 0.057498466 -0.1038528 -0.015404486
0003b0 f7 9f b7 3c 73 af 79 bd f9 1c f5 3c a5 72 a7 3c
       0.022415144 -0.060958337 0.029921042 0.020440409
0003c0 23 06 db 3d 70 97 8a bd 86 b9 2e 3d 9b 98 ef bd
       0.1069453 -0.06767166 0.042657398 -0.11699029
0003d0 17 61 0d 3d d5 ef 6e 3d e6 7b 0d bb 8f b3 3c 3d
       0.03451642 0.05833419 -0.0021588742 0.046069678
0003e0 46 bc c3 3d 94 5d e2 bc b0 a8 72 3c 67 3f 3c 3d
       0.09557395 -0.027632512 0.014810726 0.045958903
0003f0 6f 70 cd bd b8 69 50 3b 87 24 32 bd 84 5e 8b bd
       -0.10031211 0.0031801295 -0.043491866 -0.06805137

rnn.bias_ih_l1 f4 [384]
000000 3d fb 18 bd d9 f6 9a 3d f1 c1 b6 3d 90 dc 53 bc
       -0.037348974 0.07566614 0.0892371 -0.012931004
000010 49 58 92 bd 88 0e 86 3c f0 51 96 bd a1 1c fc 3c
       -0.07145745 0.01636435 -0.07339847 0.03077537
000020 94 23 2d bb 63 4d ad 3d 2e de b0 bc de 6d 44 bc
       -0.0026418911 0.08462026 -0.021590319 -0.011989085
000030 8c 94 6a 3d 9f 10 14 bd a5 c4 9d bc 12 c6 c4 bc
       0.05727057 -0.036148664 -0.019258806 -0.024020229
000040 a4 66 6f bd 88 af 15 bd 0f a5 f2 3d 4c 98 24 3d
       -0.058447495 -0.036544353 0.11847889 0.040184304
000050 7a 7a 0a 3d fe 0b 80 bd df 86 d4 3d 55 9e 5e bb
       0.03380821 -0.06252287 0.10377287 -0.0033968885
000060 b3 30 96 3d c1 32 04 3d dd 24 91 bb 45 46 81 bd
       0.073335074 0.032274965 -0.0044294433 -0.06312231
000070 ea 0d a3 bd b9 62 8e 3c 79 6a 52 bd cc e1 65 bd
       -0.07961638 0.017381059 -0.05137107 -0.05612354
000080 84 d9 90 bd e8 7c 02 bd a4 56 26 3e 5a a4 86 bd
       -0.07072738 -0.0318574 0.16243988 -0.06574316
000090 f6 0f 03 3d 74 f2 6a 3d 18 79 a0 bb 94 4d 4e bd
       0.031997643 0.057360128 -0.004897248 -0.050366953
0000a0 00 6d 15 bd 03 a2 b0 bb b4 29 49 bc fc 35 46 bd
       -0.036480904 -0.005390407 -0.012278009 -0.048391327
0000b0 98 d1 cb 3d 9d 0b d4 3d 63 2a ef 3d 48 23 5f bd
       0.09952086 0.103537776 0.116780065 -0.054477006
0000c0 aa 56 79 3d 45 91 78 3d fe 5a be 3c 5c 7f c0 bd
       0.060873665 0.060685415 0.023236748 -0.09399292
0000d0 44 63 92 bc 9e f6 8c bc e4 40 88 3d ec db c4 bc
       -0.0178696 -0.01720744 0.06653002 -0.024030648
0000e0 5c df c6 3d 58 90 9b bd 02 96 9d 3d b2 9c 8f bd
       0.09710571 -0.07595891 0.07694627 -0.07012309
0000f0 b1 d7 f2 3d c9 1d b0 3d 88 0c 0b 3d a3 a7 90 3d
       0.11857546 0.08599431 0.033947498 0.07063224
000100 b7 3e d9 3d b9 3a ef 3d 20 b3 4f 3c 6a 18 61 bd
       0.10607665 0.11681122 0.012676984 -0.054954924
000110 6b ec eb 3a e8 34 ac bc 37 18 97 3c 03 bf 82 39
       0.0017999535 -0.021021321 0.018444164 0.00024937847
000120 2a 24 5a bc 2c ca 9b bd 99 b5 c1 3c bc 4c 0b 3c
       -0.013314286 -0.076069206 0.023646163 0.008502182
000130 0b c6 fd 3c a0 e4 3e 3d 84 85 a4 bd 60 0d 5d 3d
       0.030978223 0.046604753 -0.080332786 0.053967834
000140 64 b7 86 bd 5d f3 b5 bc 5a 8e 62 3d 4f f0 13 3d
       -0.06577948 -0.022210771 0.05531154 0.036117848
000150 fb 51 92 bc 9d cc d7 b9 76 ac 1f 3c fd dc 8f bc
       -0.017861357 -0.00041160444 0.009745708 -0.01756143
000160 63 98 d0 3c 02 dd b3 3d b5 57 7d 3d c7 ae c9 3d
       0.025463289 0.08782388 0.061851222 0.09847789
000170 dd 0e 26 3d 40 03 de 3d f7 08 0a 3d 50 70 d1 bc
       0.04054152 0.10840464 0.033699956 -0.02556625
000180 c3 b6 ad 3b 95 cf 21 3d cd ae 86 bd 92 89 d9 3c
       0.005301328 0.039504606 -0.06576309 0.026554856
000190 a6 a0 d5 bb 2b ba a0 bd 82 3a 81 ba 96 e0 82 bc
       -0.006519395 -0.07848009 -0.0009859356 -0.015976232
0001a0 70 a9 b1 3d c2 cc 06 bc 3e 4f 36 bb 3b 3b c0 3d
       0.08674896 -0.008227529 -0.0027818228 0.09386297
0001b0 7e ad d1 3b a2 6c fb 3a fd 18 25 bd 1f bf ab 3b
       0.0063988557 0.0019182155 -0.040307034 0.0052412893
0001c0 e9 39 c8 3c 94 a0 9f 3b 0f 9e 9e 3d 0f 85 b0 3c
       0.024441676 0.0048714373 0.07744991 0.021547822
0001d0 59 ff e0 3b e1 0d 84 bd b6 39 cb bc 5b 09 9f 3d
       0.0068663773 -0.0644796 -0.024807792 0.07765456
0001e0 3a 2c c2 3d aa 85 3c 3c 62 15 90 bb 53 3a b9 bd
       0.09481092 0.011506477 -0.0043970803 -0.090443276
0001f0 80 59 72 3c c8 97 6b bd 64 95 44 3c a7 64 ad 3d
       0.014791846 -0.057517797 0.011998508 0.084664635
000200 ba 39 19 bd 59 9b fb bc d4 b5 b1 bd 75 07 bf bd
       -0.037408568 -0.030713724 -0.08677259 -0.09327594
000210 72 cb 44 bc af 73 e4 bb 7a 0d 66 bd dc dc 6d 3d
       -0.012011396 -0.0069717984 -0.056165196 0.058071956
000220 d9 ea 8d 3b 06 5b 3a 3d 8c ee 60 bd e4 05 06 be
       0.0043309745 0.045496963 -0.054914996 -0.13088185
000230 b7 f3 64 3d 39 f6 21 bd c5 cb ba 3d c2 c2 60 bd
       0.055896487 -0.039541457 0.09120897 -0.054873236
000240 95 10 ba 3c 34 41 99 bc 7f cc 53 bd fc b0 a4 bd
       0.022712985 -0.01870785 -0.051708695 -0.080415696
000250 ca bd 64 bd a8 82 8e bd 90 e4 e5 bd 9c 5f 4a bd
       -0.05584506 -0.069585145 -0.112252355 -0.049407586
000260 7f 9e 7b 3d 49 b0 68 bd fa d4 eb bc ba b1 d1 bd
       0.06143045 -0.056808744 -0.028788079 -0.10238977
000270 7d 6e de bc 87 be 72 bc 93 17 ff 3c 9d 45 d6 bd
       -0.027152294 -0.014815933 0.03113917 -0.104624964
000280 40 d1 47 bc e9 a6 c7 bd a1 b3 ee bd 46 e8 9a 3c
       -0.012195885 -0.097486325 -0.11655355 0.018909585
000290 8d b7 2a bd f1 eb d6 bd 92 85 cf bd 17 d5 8d bd
       -0.041678954 -0.10494221 -0.101328984 -0.06925409
0002a0 73 42 59 bd 24 02 09 be 6a 5e bf bc d6 60 55 bd
       -0.053041887 -0.13379723 -0.02336045 -0.052094303
0002b0 0f 3d 00 3d 24 3e ae bc 51 d4 01 bd 88 7a ce 3c
       0.03130823 -0.021269865 -0.03169662 0.025204912
0002c0 ff c9 18 3d ed ba 28 bd 77 4c 5d bd d1 af cc bd
       0.037302013 -0.04119389 -0.054028 -0.09994472
0002d0 16 55 fc bd 58 f6 94 bb 2a 08 d1 bd cc f1 2a 3d
       -0.12320916 -0.004545968 -0.10206635 0.0417345
0002e0 58 35 b2 bb 96 c0 96 bd 76 65 43 bd ad bc 25 bd
       -0.005438488 -0.073609516 -0.047704183 -0.04046314
0002f0 57 61 ea bd aa 51 b6 bd 6e ab af bd d4 5e 1a 3d
       -0.11444347 -0.08902295 -0.085776195 0.03768809
000300 66 51 21 bd 5c 2f d1 bd e1 a8 4b bd d5 a1 ce bd
       -0.03938427 -0.10214111 -0.049721602 -0.10089461
000310 d8 ea 01 3c 2e ce ee bd 77 bb f4 bb 10 46 98 bd
       0.007929526 -0.116604194 -0.0074686366 -0.07435238
000320 b4 e9 a7 bb 8d 8b cf b9 d5 13 a4 3d b5 32 9d b9
       -0.005124295 -0.0003958609 0.08011595 -0.00029983153
000330 5e 2b 7c bd 8d f2 53 3c 0c ca ba 3c 77 61 5e 3d
       -0.061564796 0.012936247 0.022801422 0.05429217
000340 f4 f9 8a bd a4 79 f3 bd c0 f4 f3 bc 6b 44 11 be
       -0.06785956 -0.118884355 -0.029779792 -0.14186256
000350 a3 b2 4c 3d 3f a7 7c bd 80 fa 49 bd 3e 6f 88 3d
       0.04997505 -0.061682936 -0.04931116 0.06661843
000360 cb 79 8b bd 3b 60 97 3a 3d 39 03 3d 13 48 43 bd
       -0.068103395 0.0011549065 0.03203701 -0.047676157
000370 f5 1a b6 bd 29 d6 a5 3d fa 36 4b bb 7e 3d 71 bd
       -0.088918604 0.080974884 -0.003100811 -0.058896534
000380 45 ee 6a bb 2e 65 71 bd e0 8c 8f bd 81 29 28 3d
       -0.0035847586 -0.058934383 -0.07009292 0.041055206
000390 bf 3e f8 bc d3 0c e4 bc 8e ed 42 3d a2 04 cd bd
       -0.030303357 -0.027838146 0.04758983 -0.10010649
0003a0 98 ec 86 bd ae a1 4f 3d b0 a6 86 bc 19 b1 af bb
       -0.065880954 0.0506913 -0.016436905 -0.005361688
0003b0 11 49 0d bd af b9 c8 bd 2e d9 03 3d a6 d8 82 3c
       -0.03449351 -0.09801041 0.03218954 0.015972447
0003c0 4d 4f 6b bd 36 a4 59 bd 1d 4d a0 bd ba 73 84 38
       -0.057448674 -0.05313512 -0.07827208 6.315806e-05
0003d0 1e ed 96 3c 21 d2 04 3d e3 e7 9c 3c 59 d4 db bd
       0.018423613 0.032426957 0.019153541 -0.107338615
0003e0 68 54 d1 bd 50 63 0a 3d 05 32 fe 3c 2c f2 f3 3c
       -0.10221177 0.033786118 0.03102971 0.029778562
0003f0 c2 03 d4 39 8a 17 9b bc 2f c9 e4 bd c3 4c 4c 3c
       0.0004043859 -0.018932123 -0.11171185 0.012469473
