16 - Recurrent Neural Network/model/multivar/weights_100.pth (torch, 606727 bytes, 9 tensors)

rnn.weight_ih_l0 f4 [384, 5]
00000000: 556e 053a 7169 b43d 9978 fdbc 2f42 8a3b
00000010: 5267 67bd 066e 1a3d 6782 4d3c af77 0abe
00000020: 67a4 3e3d 38cb b93d f80b ac3b 29fb 82bc
00000030: 949a 1dbc b314 f23c 5ec4 0f3e 8cf9 5fbd
00000040: 6255 3fbe 8569 923d 2242 293e ebe7 76bd
00000050: 6620 15bd a2eb 593d b8e7 993d 3fd9 573d
00000060: aecc 0bbe 1c7e 77bc a283 10be 7bc4 a73d
00000070: 5d97 6d3d eecf 69bd 4ee3 8f3d 49d2 8fbd
00000080: 6f91 153e 713d b53c 07f5 873c 2007 bcbc
00000090: a8d5 3a3d 889f ad3d 3d59 113c 9c40 57bd
000000a0: f032 9fbd a74a bebd f0da f93d d805 1dbc
000000b0: 3412 2fbd 65a6 78bd 6c1f 1abd 883c 523d
000000c0: cf73 423d af4c ee3b 107c 8f3d 03fe 54bc
000000d0: 3e7f 2cbd 3eac cdbd cbb2 203e 6ef5 9c3d
000000e0: 6106 a93c cbff 253d e150 0fbe 322b a73d
000000f0: b7b7 f53c dc38 86bc 1102 e3bd 7823 95bd
00000100: 8a1c ca3d 8f57 8cbd 469e 67be 1b7b 6d3d
00000110: 80dc 6f3e 80f9 b6bb 9820 30bd 4138 a83c
00000120: 506e 813d 2f63 233c 0f3f e7bd 0a32 8cbd
00000130: 94fd 733c ec78 253d 6406 1cbc 7a40 e03d
00000140: 4dcb e33b fec1 2e3d 0f22 9d3d 88da 78bc
00000150: dd3a 473d 9283 1fbd ad48 57bd 3a44 c93c
00000160: f1c1 7b3d ef4b 9d3d 364d 963d 3243 46be
00000170: e2a6 b83d aa76 a93c a1d7 e7bd 72b2 443d
00000180: 911d 263d 8eea a6bd 850f 9ebd 1a14 653c
00000190: 7d65 133d daf6 c2bd 902f 76bd d9ac 86bd
000001a0: 0bf5 e1bc 04f6 5a3d d78a c5bd 18e2 9e3c
000001b0: aff6 103d 2bf5 09be f812 1a3c 468b 8c3d
000001c0: 3b9b 5b3b a718 aa3d 22b7 42bd a931 8b3d
000001d0: 0ba8 ff3c b654 5dbe 7c3c cd3c d57f e53c
000001e0: 8f23 1f3d 0630 443d 13ed 10bd 15b7 51bb
000001f0: 7561 0bbd 4720 08bd 77d6 2ebe 41c4 bb3b
00000200: f1b0 643e 328b e13c 4524 033d bf75 6a3c
00000210: d314 44bc 5fe1 0b3a 3aba 0c3d b64d 6d3d
00000220: 8195 bdbb b167 853b 1dd8 2e3e 4efe d0bc
00000230: a3a1 c03c 5ca0 213d b7a8 c5bd ac8a aabd
00000240: c1ba 15bd 2773 ecbd 2f18 01be 3003 9a3d
00000250: 67b1 863e fc05 89bd 1b64 6e3d 7900 8e3b
00000260: db14 91bd a8be e83a a228 163e cca8 b43d
00000270: 3927 6bbe dd2c 403d 39f9 773b 8854 293e
00000280: 1580 473c 71c6 f3bd 63d3 da3d 413e 2a3e
00000290: df32 303d 4bf3 cf3d 1935 d5bc 53b5 933d
000002a0: 0a77 0c3e bded 0dbd f0c5 8ebd f7c0 a2bd
000002b0: 79fd 1c3d d857 553e 241e c5bc 8122 d13d
000002c0: 1af9 85be 0ed2 c7bd a40e a5bc 5bf8 293e
000002d0: b60d 483d c2ab 3e3d 4f22 26be 2505 b2bc
000002e0: e55c e73c cf37 9f3d 875d 0c3d b461 1dbe
000002f0: 3ee5 b53c 6eed 133e 4a4f 6ebd 5eba eebd
00000300: b51b 213b 5f0f 4e3e d58b c5bd 14c6 8ebd
00000310: 15ee 89bd f5c0 bf3d 817a b83d 9fc1 d7bd
00000320: 6394 31bd 1a68 91be 5b12 ae3d d592 cd3d
00000330: cb30 2b3d 70b2 d5bd ee5e eebd fa20 353c
00000340: 48b8 8e3e 3558 ffbd e929 92bd db52 073e
00000350: cf21 e7bd 469f a5bd 70ce 8e3d 9372 09bd
00000360: 84c0 cebc 4439 2ebe d749 c3bd e219 b03c
00000370: 643c c73d a9fe 883d f923 a2bd 92fb a43d
00000380: b033 933d 39cf 683b c511 4cbd 16d0 b43d
00000390: 4312 b63b 3a7d a5bd df86 afbd 1a43 0ebe
000003a0: 7a17 c9bd 1d0d 453e 0e94 4f3d a15a 8bbd
000003b0: 8e2e 52bc 6308 e4bc 5fc3 933e 05bf e23d
000003c0: fc44 53bd 5783 803d 0d2d 083d 3113 cf3d
000003d0: 7182 33bd dcda 78bd c16d 15bd 0f02 05bd
000003e0: 6bcb d13d b48f 063d e4cd 92bd 4cdc d6bc
000003f0: 2b49 b73d fdc8 473e 5ce9 233d f533 6a3d
0.0005089988 0.08809174 -0.030941295 0.0042193155 -0.05649502 0.037702583 0.012543297 -0.13522218
0.046543505 0.09071964 0.00525045 -0.015988903 -0.009619374 0.029550886 0.14039752 -0.054681346
-0.18684915 0.071490325 0.16529134 -0.060279768 -0.03640785 0.053203233 0.075149 0.052697416
-0.13652298 -0.01510575 -0.14112714 0.081917726 0.05800568 -0.057083063 0.07025777 -0.070225306
0.1460626 0.022124024 0.01659633 -0.022952616 0.045613915 0.08477694 0.008871374 -0.05255185
-0.077733874 -0.092915826 0.12199962 -0.009583913 -0.04274197 -0.06070556 -0.037627622 0.05132726
0.047473725 0.007272325 0.07006085 -0.013000014 -0.042113535 -0.10042618 0.15693204 0.076639995
0.020632925 0.040527146 -0.13995697 0.08162536 0.029994829 -0.016384535 -0.110843785 -0.07282156
0.09868725 -0.06852638 -0.2261897 0.05797873 0.23423958 -0.005583942 -0.042999834 0.020534636
0.063198686 0.009972378 -0.11291324 -0.06845482 0.014892001 0.040398523 -0.009523008 0.10949798
0.0069517256 0.042665474 0.07672512 -0.015188821 0.04864012 -0.038943835 -0.052559543 0.024568666
0.061464254 0.07680499 0.073389456 -0.1936157 0.09016205 0.020686466 -0.11320425 0.04802174
0.04055554 -0.081502065 -0.07717804 0.013981843 0.03598546 -0.095197394 -0.060103953 -0.06575937
-0.027582666 0.053457275 -0.09645622 0.01939492 0.035391506 -0.1347243 0.009403937 0.06862502
0.0033509273 0.08305483 -0.04753793 0.06796581 0.031208059 -0.21614346 0.025053255 0.028015057
0.03885227 0.04789736 -0.03538234 -0.0031999995 -0.03402849 -0.033233907 -0.17074 0.0057301824
0.22333123 0.027532194 0.03201701 0.014310299 -0.0119678555 0.0005336012 0.034357287 0.05793544
-0.0057856445 0.004071199 0.17074628 -0.025511887 0.023514574 0.03945957 -0.096513204 -0.08327231
-0.036555056 -0.11545401 -0.12606882 0.07520139 0.26307222 -0.066905946 0.058200937 0.0043335524
-0.07084056 0.0017757015 0.14663938 0.08821258 -0.22964181 0.046917785 0.0037837757 0.16536152
0.012176533 -0.11903084 0.1068485 0.1662531 0.043017264 0.10153826 -0.026026295 0.07212319
0.13717285 -0.034650553 -0.06971347 -0.079469614 0.038327668 0.20834291 -0.024062224 0.10211659
-0.26166612 -0.097568616 -0.020148583 0.16598646 0.0488412 0.04655052 -0.16224025 -0.021730969
0.028242538 0.077743165 0.034268882 -0.15369302 0.022204038 0.14446041 -0.058181085 -0.116566405
0.0024583165 0.20123051 -0.096458115 -0.06971374 -0.06734864 0.093629755 0.09007741 -0.10534977
-0.043354403 -0.28399736 0.08499595 0.100377716 0.04179458 -0.10434425 -0.116392 0.0110552255
0.2787497 -0.12467996 -0.071369 0.132152 -0.11285745 -0.080870196 0.069729686 -0.033556532
-0.025238283 -0.17014033 -0.09535568 0.021496717 0.097283155 0.066891976 -0.079170175 0.08055796
0.07187593 0.0035523905 -0.049821634 0.08828752 0.005556376 -0.08080526 -0.085706465 -0.13892785
-0.09818931 0.19243284 0.050678305 -0.068043955 -0.012828482 -0.02783603 0.28859994 0.1107159
-0.05157946 0.06275051 0.03324609 0.10111082 -0.04382557 -0.060755596 -0.036481623 -0.032472666
0.10243877 0.03285189 -0.07168177 -0.026228093 0.089495026 0.19510265 0.04001747 0.057178456

rnn.weight_hh_l0 f4 [384, 128]
00000000: 7083 b5bc a9f5 bf3d 7fe1 a6bd d1f7 ac3c
00000010: 8426 033b e82f b1bd a16c 00bd 044e 283e
00000020: 8a1b ddbd fe43 01bd 6343 c4bd 79a9 04be
00000030: 6996 3f3a 9616 a93d 757f 0cbc 30d7 ea3d
00000040: f22a bb3c 2a09 efbc 9361 0d3e 3da9 6d3d
00000050: cdcc b23c 8001 953d ef55 073e cdfb 7e3c
00000060: e499 eb3d d42e cbbd fe39 b7bd 0767 913d
00000070: 1a42 c6bd a1cb 3cbd a49d ab3d 34a7 8ebd
00000080: 5ba9 afbd dfc3 ff3d bfc7 96bb f6ec 1f3e
00000090: 7112 1e3c 3022 b93a 82e5 1fbb ce6d 97bc
000000a0: eb0a 4b3d c015 c2b6 90d1 533c a371 b5bd
000000b0: b3f9 98bd 59b3 da3c adef edbb 05f0 1b3c
000000c0: 2e31 9a3b 5929 c4bd 8b4d 963d f4ae b33d
000000d0: bb99 4dbc 5728 e23d 3b30 e93d 6e18 633c
000000e0: 4e10 1b3d ba9c 473c 3d43 d63a 2819 de3d
000000f0: b3a6 98bd e7d7 25bd 36b8 85bd 0a3e 2bbb
00000100: 6000 873d 529a 043e 39ea 903c 08f9 cdbd
00000110: 435f e63d 1c12 483d 3135 863d b1b1 953d
00000120: 6b6f 77bb 8c12 b33c 7554 883c fd5b 1c3c
00000130: e75b 53bd 3755 85bc 8650 81bc 2ad7 503d
00000140: f269 aa3d 457d 57bd 974a 45bd a215 ec3d
00000150: 8f5d 113d 3e1c f4bb 6273 77bc 9a6c 33bd
00000160: 5b2a 82bc 0c0c 46bd 7d82 5c3d d984 2b3d
00000170: 9dd5 c3bd b112 38bc 1201 9dbd 6ed0 173e
00000180: b13e 7bbd c22e 163d f124 efbd 7871 6f3c
00000190: 5feb 43bc 6bb4 283c 73f9 e03d eb45 3a3e
000001a0: 42fb 343c acab bbbd eb5e 103c 48e9 053e
000001b0: 0f96 80bc 5ba6 14bd 4d46 a43d 8b39 d73d
000001c0: 3a4b aa3d dd52 f53d 039d b3bc 2f4b fb3d
000001d0: f7ab 98bc 051d bbbd 81e8 a63d 90b7 67bd
000001e0: 624a ec3c c1d3 4d3d 5ffd 023e f056 133d
000001f0: 5293 493d 3f9f f93c 62f3 943c 001c 343d
00000200: 1a8b 92ba 58ee 4b3c 5097 bf3c c130 a2bd
00000210: 7f3c 21bd 5e59 9f3d 06ed 163c 4671 cb3d
00000220: 184a 99bd 2705 93bd da20 903d 0bca ebb9
00000230: 02e8 a8bd 4fb2 1c3a e068 cfbc 4f00 b13c
00000240: 6050 113d 4925 a7bd 7676 41bd dec4 823d
00000250: 4a06 923d a764 23bd a8e8 f13b c6b4 063d
00000260: fc0f a83d e190 053c 12e3 e13c a18d 1fbd
00000270: 214b 28bd af86 cd3c 1a9d 84bd 781d 4a3d
00000280: fe0b 39bd 08b5 2a3d 4fff 3fbd 8495 a73d
00000290: 9793 1b3c b8f1 b0bd fac5 18bc 8a1a 363b
000002a0: 8fe4 a7bd 1be8 803b 3507 dcbc 7b0a a63c
000002b0: 8b8f 67bd 1462 8d3d f45e 263d d70a 22bd
000002c0: 1833 ae3c 1b85 583d f6fb c5bd b218 08bd
000002d0: 7477 9cbd f7dc 85bd 6c55 c73c 1577 633d
000002e0: f0a2 e33c b256 2ebd e09c 123b 41e8 1b3d
000002f0: 265d fc3b 109e 7c3d be39 be3d c041 12bd
00000300: 3e9e 2bbc 554e adbd d609 cdbb 2fb8 c6bd
00000310: 89d2 a23d 2653 b83d d8e9 8d3d 33fa 74bd
00000320: 7522 ce3d 4ef2 7c3c 7c8b 8d3d 584b 0c3d
00000330: 8b90 55bd a258 f43c 1e51 31bd 19e4 8abd
00000340: 888c b43c ad6d 0fbd 6f7f 55bc 01cd c03d
00000350: 1f92 0fbd 831e 393d d052 8f3d 9410 133d
00000360: 66e5 243d 56c2 9dbd 16af 8ebd 18a5 663d
00000370: 6260 a23c ef3a 64bd a4b6 12bc 306b 113e
00000380: 2086 1bbc c30b b53d 7cef 9abd fcaa bbbc
00000390: c7a4 7f3c 7465 a13d 39f4 30bc 5257 ad3d
000003a0: cd72 22bd 4581 66bd 4caf 93bd 909e 7e3d
000003b0: bc57 adbd 516a 75bd 86c8 713d a8f4 213c
000003c0: 84b6 963d 48c4 5cbd b30a 823d aa03 283d
000003d0: b510 983c 29a9 a0bd 2e28 21bd 10fc 7bbd
000003e0: 7541 8cbd f099 af3c 7556 babd 6be0 f53c
000003f0: 9f30 883c 9ccf 57bd 071b aa37 2296 ed3d
-0.0221574 0.09373028 -0.08148479 0.021114262 0.002001197 -0.086517155 -0.031353597 0.1643601
-0.10796268 -0.031558983 -0.095831655 -0.12955274 0.00073084846 0.08256261 -0.00857531 0.11466825
0.022847626 -0.029179174 0.13806753 0.058022726 0.021826172 0.07275677 0.13216375 0.015562964
0.11503962 -0.09921041 -0.08946608 0.07099729 -0.096805766 -0.046092633 0.08379677 -0.06965485
-0.08577224 0.12488531 -0.0046014483 0.15617737 0.009647951 0.0014124569 -0.0024398272 -0.018484976
0.04957096 -5.7841826e-06 0.012928382 -0.08859565 -0.07469501 0.026696848 -0.0072612376 0.009517674
0.0047055697 -0.09578199 0.07339009 0.08773604 -0.012548859 0.110428505 0.11386152 0.013860805
0.037857346 0.012183363 0.0016346943 0.10844642 -0.0745367 -0.040489104 -0.06529276 -0.0026129507
0.065918684 0.12949494 0.017689811 -0.100572646 0.112486385 0.048845395 0.06553114 0.073092826
-0.003775562 0.02185943 0.016641835 0.009543416 -0.051601317 -0.016275985 -0.015785467 0.050986446
0.08320989 -0.0526097 -0.048166838 0.11527564 0.035489615 -0.007449656 -0.015103193 -0.043804742
-0.015889337 -0.048351333 0.05383538 0.04187474 -0.09562228 -0.011234925 -0.0766622 0.14825603
-0.061339084 0.036665685 -0.11676968 0.014614455 -0.011957972 0.010296921 0.10985079 0.18190734
0.011046233 -0.09163603 0.008811693 0.13077271 -0.015696554 -0.03629146 0.08021221 0.10509022
0.083151296 0.119786955 -0.021925455 0.122701995 -0.018636687 -0.091363944 0.08149815 -0.056571543
0.028844062 0.050250772 0.12791966 0.035971582 0.04921276 0.030471442 0.01818246 0.043972015
-0.0011180372 0.012446962 0.023387581 -0.07919455 -0.039364334 0.07780717 0.009211784 0.099337146
-0.074848354 -0.07178717 0.07037516 -0.00044973227 -0.08247377 0.0005977498 -0.025318563 0.021606592
0.035477042 -0.081614085 -0.047232114 0.06385206 0.07130106 -0.03989091 0.007382471 0.032887243
0.08206174 0.008152218 0.027574096 -0.038953427 -0.041087274 0.025088636 -0.06475277 0.04934451
-0.045177452 0.04167655 -0.04687434 0.08182815 0.009495637 -0.08639854 -0.009324545 0.0027786815
-0.08197891 0.003933919 -0.026858905 0.02026867 -0.056533378 0.069034725 0.040617898 -0.03956112
0.021264598 0.052861314 -0.09667198 -0.033226676 -0.076399714 -0.06536286 0.024332725 0.055533487
0.027787656 -0.042563148 0.0022371337 0.03806329 0.007701534 0.061674178 0.09288357 -0.035707235
-0.01047474 -0.08462206 -0.006257276 -0.09703099 0.07950313 0.09000234 0.06929368 -0.05980892
0.10065166 0.015438629 0.0691137 0.03425154 -0.0521398 0.02982742 -0.04329025 -0.067817874
0.022039667 -0.035016704 -0.013030871 0.094141014 -0.03505146 0.045195114 0.06998217 0.035904482
0.040257834 -0.07703082 -0.06966989 0.05630979 0.01982135 -0.055720266 -0.008954678 0.14201045
-0.009492427 0.08840134 -0.07565209 -0.02290868 0.015603251 0.07880679 -0.010800415 0.08463921
-0.039660264 -0.056275625 -0.072111696 0.062162936 -0.08464 -0.059915844 0.059029125 0.009884991
0.07359031 -0.053898126 0.06349697 0.04101912 0.018562654 -0.07844765 -0.03934496 -0.061519682
-0.068484224 0.021435708 -0.090985216 0.030014237 0.016624747 -0.052688226 2.0278165e-05 0.11600901

rnn.bias_ih_l0 f4 [384]
00000000: abe1 f03c 824d b23d 820b 97bb 040a 22bd
00000010: 9ac7 4fbd d984 05bd d959 b7bb a99b 083e
00000020: 446e 22bd 2f7a 4c3c 8ba9 6c3d 06de 82bd
00000030: b6f0 7b3c 3f86 e93d cbdf 06bb 0195 853b
00000040: 7551 733d a96b bd3c 7ae5 bf3d 6a00 9f3d
00000050: c9e0 bcbd 465a ba3d 790e 61bd 43c9 9dbd
00000060: 3634 5c3d dc5e a23d ee06 75bd 916c 413d
00000070: 9f7e b33b 6db8 87bc 159c 9d3d 2162 a93d
00000080: 382a 903d e162 f03d 1d49 4a3c ab7a 953d
00000090: 5148 16bd 8ede eb3c 723b 0fbd b6a2 ec3b
000000a0: 9a5f ab3c 0882 b63d 935c 1d3d 3eea 5d3d
000000b0: b953 f83c d9ad dabc 33ac 77bb 5856 2e3d
000000c0: 56f3 1d3d 9dbf 033e 7108 ba3c 0a93 8c3d
000000d0: 2bd9 99bd 9abf 2ebd d5e6 b53d faba 403d
000000e0: 30ac 193d 44e4 503c b529 1c3d 7663 58bd
000000f0: 8925 d03d ecee 8abd e988 683c e21c 8abd
00000100: f3c8 a23d 8438 253d dd2b edbc 1196 9b3d
00000110: b76f 6c3c 67c4 9b3d 1b7a cf3d 7d1b 22bb
00000120: 0522 9abd 5504 8b3d 63ba 813d c8ee b83d
00000130: f7bb e03d c619 36bc 4be7 c23d 0fbb 2b3d
00000140: fc7a 39bd fd13 ba3d 0aec c2ba b4c3 4a3d
00000150: de6f 8e3d a658 bc3d cacf 833d d5f9 c93c
00000160: e6d9 813d ee24 e4bb 8820 113e 5a89 a4bc
00000170: ddee 963c dc27 9bbd 4955 81bd 5078 093e
00000180: 2862 203d ede7 243e bd2b c9bc 6092 b13c
00000190: 7e0c 003c d17d 723d 9693 983c ec8a c73b
000001a0: f043 263d a6f0 86bc 85af 8b3d 0782 7e3d
000001b0: 2109 47bc 8ed8 22bd 17db fb3d 8435 afbc
000001c0: df1d 41bc b73b f5bb 1ffe 57bd 20ef 4bbd
000001d0: 6111 013d 5429 60bd 91f7 a23d d77a 973d
000001e0: 44bb 26bd 1516 60bd bd0d 80bc a850 6c3c
000001f0: b16e 0abd 3b34 d53d 4349 8dbd 2cf6 ac3d
00000200: 7c99 05bd ac76 c5bd 9e49 5a3d ec58 91bc
00000210: ce6b 94bd f27e 5abd a977 d1bd b3ff 6a3c
00000220: 9e40 5f3c 0fcf 443d cc7e e7bc 3454 5bbd
00000230: c724 6abd d513 e33c 24fb 083d edfc 123d
00000240: 00b3 8ebd 341a 973d 00cf 0d3d 16b0 c7bd
00000250: 5fce 2fba a75b 99bc 8977 913d ca0a 49bb
00000260: 5868 bcbc c212 e3bd 1434 0fbd eb1b 183c
00000270: 3596 b8b9 7b4f c3bd 9c3e 4e3b 2d2a d03d
00000280: 2b6e 71bd 1d4c c9bd ed86 143d 7f76 9fbc
00000290: 287e efbc f936 92bd ad79 523b bfb0 00bd
000002a0: 001f 13bd 47df 77bd 323c 0dbd c7c1 093d
000002b0: ae33 14bc f3be 8a3d fe7f 953d 9e57 8a3d
000002c0: cb96 69bd 9b08 e9bd 9d15 3e3d 3aac a23c
000002d0: ca6b c63d 2e52 723d e282 4d3c d04a b5bd
000002e0: 7271 f2bd 4d36 80bd 7681 d4bd 9fcd 83bd
000002f0: 0591 3a3d d006 88bd 49a0 973d dd7f 1c3d
00000300: e764 42bd 0855 e8bd e839 b53a f71f 93be
00000310: 272a c8bd 8058 833d 6099 b0bd d827 aabd
00000320: 039e debd b147 aebd bd18 263a af7b d4bd
00000330: 927b 6ebd 67c0 7dbc 8407 b3bd 0ea9 e73b
00000340: f687 38bc 8f56 08be d122 9a3b bc3d 43bd
00000350: 55a3 ad3c 4fdc 8cbd 956c 46bd adea 28bd
00000360: 787f 13be 1e9e b4bd d092 aebd eb0b 48bd
00000370: 7173 783b 06eb 083d 2347 b73d d79e fabd
00000380: 0fe0 d7bc fe26 d8bd 9929 b2bd fd9f 1bbe
00000390: 8a08 9f3c 3ca4 61bd 9003 273d fbdf b8bd
000003a0: e682 4e3c d8c8 9ebc c114 db3d c85a 9fbd
000003b0: 6f90 913b e31b 8dbd 9b27 0dbd 282e 60bd
000003c0: 7a9f a8bd f628 543d 595c 9f3b c273 213b
000003d0: 412c d53b 8a8c 8cbd 2bd3 3b3d 1ae8 673d
000003e0: 81c3 ccbd cd8d 3b3c 6be4 d2bd baae d2bd
000003f0: 5606 44bc 22e0 0ebd 9468 933c cc54 92bc
0.029404482 0.0870619 -0.004609526 -0.039560333 -0.050727464 -0.032597397 -0.0055954275 0.1334063
-0.03965594 0.012480303 0.057778876 -0.06390004 0.015377214 0.114025585 -0.0020580168 0.0040766005
0.059403855 0.023122625 0.09369941 0.07763751 -0.09222562 0.090992495 -0.054945443 -0.07704403
0.05376073 0.07928249 -0.05982106 0.047222678 0.005477741 -0.016567433 0.07695786 0.0827067
0.070393026 0.1173761 0.012346533 0.07298788 -0.03669006 0.028792646 -0.0349688 0.007221545
0.02091961 0.0891152 0.038418364 0.05417847 0.03031336 -0.026694225 -0.0037791848 0.042562813
0.03856214 0.12866063 0.022709103 0.06863983 -0.07512125 -0.042663194 0.08881918 0.047053315
0.037517726 0.012749735 0.038125712 -0.05282923 0.10163409 -0.06783852 0.014192798 -0.0674379
0.07948484 0.0403371 -0.02895158 0.07596982 0.014430932 0.0760582 0.10130712 -0.0024735623
-0.0752602 0.06787936 0.063343786 0.09029919 0.109733514 -0.011114543 0.09516772 0.04192644
-0.045283303 0.09085844 -0.001487137 0.049503043 0.06954931 0.09196596 0.06436117 0.024655262
0.06340389 -0.00696241 0.14172566 -0.020085026 0.018424446 -0.07575962 -0.06315095 0.13424802
0.03915611 0.16104098 -0.024556989 0.021676242 0.007815478 0.05920202 0.018625062 0.006089559
0.040592134 -0.016472172 0.06820587 0.062135722 -0.012148173 -0.039757304 0.122976474 -0.021387823
-0.011786907 -0.007483925 -0.052732583 -0.049788594 0.031510714 -0.054726914 0.07957376 0.07396477
-0.040705934 -0.05470856 -0.01563155 0.014423527 -0.03379697 0.10410353 -0.06898739 0.08445391
-0.032617077 -0.096417755 0.053292863 -0.017742597 -0.072471246 -0.05334372 -0.102279015 0.01434319
0.013626246 0.04804903 -0.028258704 -0.0535471 -0.05716398 0.027719418 0.03344263 0.03588574
-0.06967735 0.07378045 0.03462124 -0.097503826 -0.0006706472 -0.018720461 0.07102878 -0.0030676597
-0.022998974 -0.11087562 -0.034961775 0.009284 -0.00035207128 -0.09536644 0.0031470424 0.101642944
-0.058942955 -0.098289706 0.036261488 -0.019465683 -0.02923496 -0.071393915 0.0032115981 -0.03141856
-0.035918236 -0.06051567 -0.034481235 0.033632066 -0.0090455245 0.06774702 0.07299803 0.06754993
-0.057028573 -0.113785945 0.04640733 0.019857515 0.09688528 0.059160404 0.012543412 -0.0885216
-0.11838044 -0.06260357 -0.10376255 -0.064357035 0.045548458 -0.066419244 0.07403619 0.038207877
-0.04745951 -0.113443434 0.0013826462 -0.28735325 -0.09773665 0.064133644 -0.08623004 -0.08308381
-0.10869982 -0.08509768 0.0006336084 -0.10375153 -0.058223315 -0.015487767 -0.08741668 0.0070697134
-0.011262884 -0.1331427 0.0047038575 -0.047666296 0.021196047 -0.06877958 -0.048443396 -0.04123943
-0.14404094 -0.08819221 -0.08524096 -0.04883949 0.0037910605 0.03342726 0.08949115 -0.122373275
-0.026351957 -0.10554312 -0.086993404 -0.1519775 0.019413251 -0.055088267 0.04077488 -0.09027096
0.012604451 -0.01938288 0.10697318 -0.07780987 0.0044422667 -0.068900846 -0.0344616 -0.054731518
-0.08233543 0.051796876 0.0048633036 0.0024635647 0.0065055196 -0.06862743 0.045855682 0.056617834
-0.09998227 0.011447382 -0.102974735 -0.10287233 -0.011964401 -0.03488172 0.017994203 -0.0178627

rnn.bias_hh_l0 f4 [384]
00000000: ff21 d93c bf46 9abd 44fe 833d 8a7e c03d
00000010: aa35 073d 5a77 09bd a82f ff3d 09c7 783d
00000020: 873d 903d bedd afbd dc72 74bd a948 c8bd
00000030: 9191 a0bd b885 c53c a861 9e3c ac9b e5bc
00000040: db23 6ebd 7b5e af3d c5f0 64bd 2105 703d
00000050: 16f9 3a3d 5b82 aa3c c616 c73c eaf8 dbbb
00000060: f70c 08bd ed88 833b a6cd 79bd 5d10 0a3d
00000070: 7829 aabd 9ace 843d b4e2 0bbd 39f6 ce3d
00000080: 6ff8 a53d 545d 97bc 0965 bc3c c173 323d
00000090: 643a 7b3d 1745 903d 7cf4 e03d d2ec cb3d
000000a0: 8912 a1bb 4773 e83d ed78 183c ebda 9e3d
000000b0: 31ad ff3d 7000 4dbd 8348 703d 5b37 fa3d
000000c0: d9d5 aa3a 1be2 c93d ccfa 42bc bd7e 10bd
000000d0: 6950 e9bc 0df9 e23d 4c05 f53c 62c4 6b3d
000000e0: 6879 aebc 8c8d 293d 7281 5cbd 4540 9ebc
000000f0: 574d 643c ac10 dcbd 5d37 96bc 03d3 ea3c
00000100: 4988 6ebc 4372 adbd cef6 ba3d 57df 1e3d
00000110: b2ce 783c 08f8 c53d ce85 72bd 825f 16bc
00000120: ca5c 74bd 075f d03d 5d7c a33d 777d 76bd
00000130: 9eed 1d3d eaab ddbc 4c79 f9bb bc9c b93d
00000140: 4c04 463c 50eb e8bc 0e94 923d e914 c3bc
00000150: f2b2 9dbb 36ed 933d 84bc 283d ec5c 4abc
00000160: 541f aa3d 67d3 ae3d 7d9b 553d de58 963d
00000170: af75 993d d154 633d e723 14bd 617c d73d
00000180: b4c9 743c fd80 0c3e bb4a a83d 4d74 fe3d
00000190: 2a31 a6bd 00b8 ee3d af72 8bbd d070 f13d
000001a0: 8047 b23d 7e51 c8bc 8e78 5d3c 2ddb 963d
000001b0: e6b0 91bd ac03 a4bc 7de6 913d f96d c23d
000001c0: dece b03b e03f df3c 533a a63d 9347 a13d
000001d0: 0698 223d c07f abbd e080 10bc 4657 e33c
000001e0: 44ec e23c 6857 bfbd 886c e0bc 3fae 4abd
000001f0: 18c1 723d 7ed9 f03c 50ff 7d3c d1e6 f23d
00000200: d043 1f3d 7cc1 ddbd fed6 953c 1ce2 3fbd
00000210: 1f60 c33c 6850 8e3b 5223 d43c 8759 313d
00000220: 0c89 083d ce44 953d 9fe5 8c3d c9b5 0b3d
00000230: 81df d13c b58a 943c 6a7c c5bd 441e 7a3d
00000240: 3d6a 4fbc b045 79bd 3273 d2bc 4ed7 773d
00000250: 1b51 08bd 7a03 1d3d 6e56 25bd 04ef f23c
00000260: 2f44 873b 19cf f13c cc9b e0bd af2b 9b3c
00000270: 163d d83d dbc1 56bc 7774 c0bd f82e c53d
00000280: 4dc1 d33c 79a1 97bc f24e 953d a6d3 893a
00000290: f7f1 8fbd 67a9 d23c 17aa 593d 715b e0bd
000002a0: d610 09bd f069 82bd 8d38 de3c e4e8 e83c
000002b0: 5a64 363d 91d7 1c3d 8a1a b43c 745d 01bc
000002c0: 4a9b 8bbd 4988 95bc f38d 25bd c90b 4cbc
000002d0: 6620 2dbd eee6 c2bc b3ae 963d b9ac 06bd
000002e0: f4da c73b a5dd 5f3c 7785 bb3b d715 e4bd
000002f0: 5db2 4e3c c1fb 733d 4b12 c4bc cb01 383c
00000300: a6a7 81bd c00a d0bd 5b6a 4b3b 526e 3bbe
00000310: c458 e2bc e225 2e3d a16b afbc 1002 21bd
00000320: e1ea 83bd 8b06 103d 7b34 bbbd 5cd7 2b3d
00000330: 93e0 25bd d946 8abd 9ff9 443b cc81 8ebc
00000340: 84c5 cdbd cc4d 80bd 066a 77bd bdce 1cbc
00000350: 3469 413c bf4c 41bb ed7b e2bd 9ef8 61bc
00000360: b221 e5bd 06af 113d 9157 ffbd e031 08bd
00000370: b30d d0bd 4170 a2bc 2892 1b3d 8301 20be
00000380: 4530 88bc 114a ef3c f93c 3ebd 0c9a 17be
00000390: 34ce b9bd 7a1d 103d 1041 4f3d b974 01be
000003a0: 6cbd ddbd 31cb fd3c e693 853d 05f9 7cbd
000003b0: 6ad0 a3bd 3946 55bb 77de a7bb 755a 863c
000003c0: 66b3 36bd f9c4 88bd bbda 90bd 6da3 bb3c
000003d0: 10bc 783c 48bf b7bb f2ff b6bd 02b2 b43d
000003e0: 6656 d23c 7998 803a b3ce 0e3d dd03 e7bd
000003f0: f23a 503d da6a ecbc ef28 66bd f7b5 e8bd
0.026505468 -0.07533025 0.06444982 0.093991354 0.033010162 -0.03356109 0.124602616 0.06073669
0.070429854 -0.08587216 -0.05967985 -0.09779484 -0.078402646 0.024111614 0.019333676 -0.028028332
-0.058139663 0.085629426 -0.05589368 0.05859864 0.045647703 0.020814111 0.024302851 -0.0067130225
-0.03321549 0.0040141256 -0.060987137 0.03370701 -0.08308691 0.064847186 -0.034151748 0.10105557
0.081040256 -0.01847712 0.022997396 0.043567423 0.061334983 0.07044428 0.10984132 0.09957279
-0.0049155396 0.113501124 0.009306175 0.07756599 0.124842055 -0.050049245 0.058662903 0.122175895
0.0013033702 0.09857579 -0.011900615 -0.035277117 -0.028480725 0.11082659 0.029909752 0.057560332
-0.021298125 0.041394755 -0.053834386 -0.019317755 0.013934455 -0.107453674 -0.018336946 0.028665071
-0.01455886 -0.08469059 0.091291055 0.038787212 0.015185999 0.09666449 -0.059209637 -0.009178044
-0.059658803 0.10174375 0.07982705 -0.060178246 0.038556688 -0.027059514 -0.0076133367 0.09063098
0.012085985 -0.028432518 0.071571454 -0.023813682 -0.0048125917 0.07222979 0.041195408 -0.012351256
0.083067566 0.085364155 0.05215024 0.07341169 0.074931495 0.05550081 -0.03616705 0.1052177
0.014940668 0.1372108 0.08217379 0.12424526 -0.08114846 0.11656189 -0.068089835 0.117890954
0.08705044 -0.024452921 0.013517512 0.07366023 -0.07113819 -0.020021282 0.0712404 0.09493632
0.0053957542 0.027252138 0.08116593 0.0787498 0.039695762 -0.08373976 -0.008819789 0.027751576
0.02770055 -0.09342843 -0.027395502 -0.04948258 0.05926618 0.029400583 0.015502766 0.11860431
0.03888303 -0.1082792 0.018290993 -0.046846494 0.023849545 0.0043430813 0.025895748 0.04329827
0.033333823 0.07288514 0.06879734 0.03410891 0.02561927 0.018132547 -0.09642871 0.06106402
-0.0126596065 -0.060857475 -0.025689695 0.060508065 -0.033280473 0.038333394 -0.04036563 0.029654987
0.004128001 0.029517697 -0.10967216 0.018941728 0.10558526 -0.013107742 -0.09397214 0.09628099
0.025849009 -0.018509613 0.07290448 0.0010515347 -0.07028573 0.025715543 0.053140726 -0.10954941
-0.03346332 -0.06367862 0.027126575 0.028431363 0.044529296 0.038291518 0.021985311 -0.007895816
-0.068167284 -0.018253462 -0.040418576 -0.012453982 -0.042267226 -0.023791756 0.0735754 -0.032879565
0.0060990993 0.013663684 0.0057226974 -0.11136978 0.012615767 0.059566263 -0.023934504 0.011230896
-0.063308045 -0.101583004 0.0031038735 -0.18303803 -0.027630217 0.042516597 -0.021413626 -0.039308608
-0.06441284 0.03516249 -0.09140869 0.04195343 -0.040497374 -0.06751794 0.0030056012 -0.017395876
-0.10047439 -0.062648386 -0.060403846 -0.009570775 0.011804868 -0.0029495207 -0.11058793 -0.013792185
-0.111880675 0.035567306 -0.12467874 -0.03325069 -0.10158863 -0.019828917 0.037981182 -0.15625577
-0.01662458 0.029210122 -0.046444867 -0.14804858 -0.09072533 0.03518436 0.050599158 -0.12642182
-0.10827145 0.030980678 0.0652235 -0.06176092 -0.07998736 -0.0032543077 -0.0051229554 0.016400555
-0.04460468 -0.066781946 -0.070729695 0.022905076 0.015181556 -0.0056075193 -0.089355364 0.08823015
0.025675964 0.0009811065 0.034865092 -0.11280034 0.050837465 -0.028859545 -0.05619138 -0.11362832

rnn.weight_ih_l1 f4 [384, 128]
00000000: b8d8 cabd 3be0 e7bc e2b4 a1ba ef9e f1bc
00000010: 12c8 7c3d 623d 8bbd b31c 953d ba5e b1bd
00000020: f662 a13d de4e 45bd 16ac cbbc 9609 833c
00000030: 7925 093c 7637 5b3d 5dad bbbb 36ea f93b
00000040: 7e4a 853d f7ad 7ebd 6351 3e3d 19c6 3fbd
00000050: 86ff 2d3d 24b9 2dbd c12a c73c f0e9 133d
00000060: 1431 5dbd b6f5 c83d a90e 5a3d c22f 163d
00000070: 060a a43d c17b 9a3c 427c aa3c 5039 7dbd
00000080: 7b1d c4bd 0b03 5a3d a3df 34bd a02c b73c
00000090: 24c9 8fbc e282 b8bd 4cd9 803d 80ef ac3c
000000a0: f8bf 9fbd 4cc8 5cbd f076 3c3d 352c 8c3d
000000b0: 144b 47bd bb79 1b3c 6e78 5e3d ff27 11bd
000000c0: ae13 ac3c 69c6 743d 3e69 9cbc 5195 9d3a
000000d0: 48a0 8fbd 54e8 90bc 4227 42bd 2d22 393d
000000e0: 9dbb 8c3d dd37 e23d 8efa 4bbd dae5 a13d
000000f0: 367b b3bc 387a 2f3d a0dc b3bd efd6 573d
00000100: c94e d2bb b994 713d 0a33 b13d 074e f53d
00000110: 613f f93c eb81 4e3c 5aa1 b13c 2a6a 963c
00000120: 31ed c3bd e724 cf3d 6833 17bd eef7 febc
00000130: a793 6f3d f557 d4bd fec1 d2bd 3d13 38bd
00000140: 2519 103b 6213 473d ccd2 713d 9d94 083d
00000150: 572d cfbc 25a7 8abd b91a 4e3d 53e5 1a3d
00000160: dc0e 9fbc 957b 3ebd 0d76 1b3d 7c28 80bd
00000170: 60ae bebc 9fbe 433d cfcd 603d 5e5f f83c
00000180: 632d 16bc 7f00 98bd 69c8 553d af50 573d
00000190: 6b22 903d fd90 a4bc 5c17 373d ef2c d53c
000001a0: a6de 5cbc 75c7 62bd 2c98 783d 3e7e fb3c
000001b0: 7245 ff3c bd76 453d 952e e33c cd4d a7bc
000001c0: ed31 33bd bd35 c13b 03db ad3d 0e3b d33c
000001d0: 4e2a eebb 7cc6 6a3d b71c 29bd 89bf e63c
000001e0: 4133 563d 0fae 843d 6ad5 b9bd 4025 92bd
000001f0: 5da8 3b3b 3cf9 0cbc f8cb 51bd 4e92 9fbd
00000200: 7b20 2abd b17a 70bd 6f70 97bc 6cbf afbd
00000210: 0bf3 87bc 3563 56bd 6a8b d73d 6656 c0bc
00000220: f1a5 bc3c 4baa 283d ef1c c83d 9a73 e7bc
00000230: 6280 0dbd 48de 48bd 348e b6bc 2e49 97bd
00000240: 6780 92bd 7065 c9bb c710 223c c8c0 9bbd
00000250: 26bc 473c 8f6e 0ebd 99cf 33ba d6bc c8bd
00000260: 0f7f 6b3d 6e28 3f3c 9467 043c c33f 87bc
00000270: 718a 9e3d 1044 cd3c d05c 8e3c d87d ef3d
00000280: ae6e 263d cc2b babc 72a0 433d 5f22 a8bc
00000290: 7c47 953d c2e4 dc3c c302 1abd e36c cc3b
000002a0: 9a75 36bd d005 653d 7e13 5fbd 729a 943d
000002b0: 93c4 8b3d 510a 32bd 4d1d 883d e7fd 813c
000002c0: 9ffc b93c 3dab 0d3d 10a1 853b 2d30 193d
000002d0: 2672 abbc 67f4 223d 1058 913d dffc c83b
000002e0: 1028 1d3d a24b 483d 46c1 bdbd b6e1 903d
000002f0: e5f0 fb3b d1d4 00bd a944 333d e4d3 1ebc
00000300: e6ef 31bc 699a 79bd f651 60bc ab96 4b3d
00000310: e56f 3ebd 87d4 803d 292a d23b 45d4 b9bc
00000320: f6be 84ba 3a59 853c 25b8 503d 8b71 a9bc
00000330: 7510 74bd 51a2 b2bd 9118 c5bd ed8c 07bb
00000340: fd70 c53a ffe9 943d 1760 313d 3109 3bbd
00000350: 158a 19bd 27f7 88bd 4603 73bd 58d2 993c
00000360: 2d60 41bc 1fee b23d 11e8 c9bc efb5 a5bd
00000370: 07d0 25bd 07b4 963c a2f9 e1bc dade 80bc
00000380: 6b0c aa3d 2658 473d 2fe7 76bc 2400 433d
00000390: df55 8b3d 827e 723d e61c 093d 8d14 84bd
000003a0: b9e1 27bd 91ed 153d 1cc5 3b3d 76b9 4bbd
000003b0: 9447 483d a3af 953b 9b8c ebbb ca69 e0bc
000003c0: bd22 c4bd ea8b 8cbd aae8 533d bc9e 883d
000003d0: 5304 973d 56b6 b83d 6be2 223d 0a4d a9bd
000003e0: 49e4 c4bd 65b4 3dbc c062 d8bd 1769 06bd
000003f0: 4b9b 913d 2567 873d e6db cfbc c8d2 a73d
-0.09904617 -0.028305164 -0.0012337232 -0.02949473 0.06171424 -0.06798817 0.072808646 -0.08660646
0.078802034 -0.048170917 -0.02486233 0.015995782 0.008370751 0.05351969 -0.0057274536 0.007626797
0.06508349 -0.062177625 0.046464335 -0.04681978 0.042480014 -0.042412892 0.024312379 0.036111772
-0.054001883 0.09812491 0.053236637 0.03666664 0.08009724 0.018857839 0.020811204 -0.061822236
-0.095759355 0.05322556 -0.04415859 0.022360146 -0.017551966 -0.09009339 0.06291446 0.021110296
-0.07800287 -0.053901955 0.046011865 0.06844369 -0.048655584 0.009489472 0.05431407 -0.035438534
0.021005478 0.05975953 -0.019093152 0.0012022649 -0.07012993 -0.017688908 -0.04740072 0.04519861
0.06871722 0.11045811 -0.049799494 0.07905169 -0.021909337 0.042841166 -0.08782315 0.05269521
-0.0064180833 0.058979724 0.08652313 0.11977773 0.03042573 0.012604217 0.021683384 0.01836117
-0.09566725 0.101144604 -0.03691426 -0.031124081 0.05849042 -0.10368339 -0.10290907 -0.044940222
0.0021987644 0.04860247 0.059038922 0.033344854 -0.025290174 -0.067701615 0.050318453 0.037816357
-0.019416265 -0.046504576 0.03795438 -0.06257722 -0.023276508 0.047789212 0.054883774 0.030318912
-0.0091660945 -0.074219696 0.05219308 0.05256718 0.07037815 -0.020088667 0.04470001 0.026022403
-0.013480818 -0.055366 0.060691997 0.030699845 0.031161044 0.04820894 0.027732173 -0.02042284
-0.043748785 0.0058962987 0.08489039 0.025784995 -0.0072682267 0.057318196 -0.04128715 0.028167503
0.052294973 0.064785115 -0.090739086 -0.07136011 0.0028634288 -0.008604344 -0.05121991 -0.07791577
-0.041534882 -0.058710758 -0.01848623 -0.08581433 -0.016595384 -0.052340705 0.10524638 -0.023478698
0.023028346 0.04117803 0.09771144 -0.028253365 -0.034546264 -0.04904011 -0.022284605 -0.07387005
-0.07153397 -0.0061461255 0.009891695 -0.076051295 0.012190854 -0.034773406 -0.00068592426 -0.098016426
0.05749422 0.011667354 0.008081336 -0.016509896 0.07741249 0.025056869 0.01737824 0.11693925
0.040632896 -0.022725962 0.047760434 -0.020524202 0.07289025 0.026964549 -0.03760029 0.0062385662
-0.044545747 0.055913746 -0.05446195 0.072560206 0.06824603 -0.04346687 0.06646214 0.01586814
0.022703467 0.034587134 0.004078038 0.03739946 -0.020928454 0.03978386 0.07096875 0.00613366
0.038368285 0.048900254 -0.092653796 0.07074301 0.007688629 -0.031452958 0.04376665 -0.009694073
-0.010860419 -0.060938273 -0.013691416 0.049704235 -0.04649343 0.062905364 0.0064137173 -0.022684226
-0.0010127712 0.016277898 0.050956864 -0.020684024 -0.059586007 -0.08722366 -0.09623826 -0.0020683364
0.001506358 0.07271194 0.04330453 -0.045663062 -0.0374852 -0.066877656 -0.059329294 0.018777058
-0.011802715 0.08736824 -0.02464679 -0.08091342 -0.040481593 0.01839639 -0.027584855 -0.015731264
0.0830315 0.04866805 -0.015069767 0.047607556 0.06803488 0.05920268 0.033474825 -0.06449232
-0.04098675 0.036603514 0.045842275 -0.049737416 0.048896387 0.0045680567 -0.0071883923 -0.027394194
-0.09576938 -0.06862624 0.051735558 0.06670901 0.07373872 0.09019153 0.03976671 -0.08266647
-0.096138544 -0.011578654 -0.1056571 -0.032815065 0.07109698 0.0661147 -0.02537341 0.081945

rnn.weight_hh_l1 f4 [384, 128]
00000000: f90f 5e3d 3ae7 39bd 23f4 3e3c 95dd 96bd
00000010: d10f 7a3d 977b da3d d5dc 9ebd 8a9b 593d
00000020: 0c3d 493d c411 013d 47cd 083d 3fb2 583c
00000030: e692 863d 989b aebc 18d3 a73d dea6 1e3d
00000040: 639e ce3d 2f05 413d 29ca 853d b7ab 8c3b
00000050: 0644 94bd b751 dabc cb00 d6bd 0aa3 02bd
00000060: 0e81 8c3d 9549 4a3d 5939 27bd 1023 263d
00000070: ce72 393d 8010 92bd 0d7b abbc 8c2c 8fbd
00000080: 4ad6 fbbc 5a74 403c 7c93 b2bc 8bed 923c
00000090: 79a9 c0bd d0a3 82bd 8c87 d0bc 991d 2c3d
000000a0: f0a7 85bd ea9e 9cbc 37a2 b9bb e2a0 0abd
000000b0: d6b3 b0bd d40f b5bd 4634 34bd c22a e6bc
000000c0: 573b ba3d 5d0b d73b 8408 27bd edfe a3bd
000000d0: 2435 b83c a26d 67bc 8104 643d 0301 833d
000000e0: 5959 5ebd 18e1 b83d 35ed c5bc ec18 3bbd
000000f0: 606d 8e3d 8765 773d 459f a63b 286f 1c3c
00000100: e596 7abc f495 033d 13b7 b93d bcc0 19bd
00000110: f3b7 cbbc c9f7 cfbd e8b1 80bc 3878 583d
00000120: f266 e2bc 8300 b4bd a9e9 83bd 599c 1dbc
00000130: 61d0 1fbd 7741 77bb 298d 48bc 61ef 32bc
00000140: e0fd 42bd 3ce8 eabd 7909 593d 43e5 44bd
00000150: b447 643c 56f9 983c 39a6 b6bd 559f 973d
00000160: 4ac4 a53d 9d27 4abd 4fe9 a5bc 69cc 193d
00000170: 1dea af3b 193a 073d 8995 8abd f042 26bc
00000180: 4553 0d3d 0c2c 0ebd 0413 8f3c 69d4 a43c
00000190: 6586 66bc a056 55bd b4bf b6ba 329b 933c
000001a0: ab0e 0ebd 6215 3abd b60d 40bd cfb5 a43d
000001b0: 52e4 c83c 0c7c 37bd 0201 ecb9 6b26 c43c
000001c0: b169 903d 6f61 57bd 3242 843d 1563 adbd
000001d0: 6ea8 f0bd 8bfd fd3c ba96 513d d853 7d3b
000001e0: 21e7 c13b d8f4 94bd f761 953d fef9 83bd
000001f0: b44c 95bb 25af 5d3d e974 31bc a318 8f3b
00000200: f0a4 033c f053 993d 2f8a 3d3d ce2b 7ebd
00000210: 2de7 073d 0e7e 7b3d 0015 69bd 8e2b 883d
00000220: f843 c73b 2efe 213c 0283 143d 2985 1dbd
00000230: d675 17bd 2d3e 833d 71ff dc3d 6f08 5b3d
00000240: 67a9 0f3c 6341 84bd ff7e 13bc 362b babd
00000250: 7ee0 d5bd 23a6 2ebd 8c03 803c 2a8d 07bd
00000260: e334 1e3d 1b5b e73c c2a0 573d 94a1 05bc
00000270: 369b cfbd 5a5f 5a3d baa3 40bc 1f54 603d
00000280: 4111 bcbd 3b27 513d f094 ab3c 3f98 c6bd
00000290: 67ef 293c a350 523d 22ad 6f3d be6e 1f3d
000002a0: 1007 ae3d 77b4 123d 1bc1 c03d 5c67 c7bd
000002b0: 39a4 293d af01 6bbd e835 bdbc 0bad 933d
000002c0: c948 953d ea64 9d3d 2607 82bd 76dd 21bd
000002d0: 1e7d e8bc cbc9 a63d 4d05 aabb 38f5 dabc
000002e0: 5d1f 6fbd 1264 82bc 9adb 2a3d afbc 263b
000002f0: abf3 d43c 28bf e6bc fb0d 303d 23c9 1c3d
00000300: f5dc 27bb 5110 953c 6bcc 913d f8d6 e13d
00000310: 309e 96bd 3399 12bd 8b63 34bd 8a9c 0f3c
00000320: c8b4 bcbd eda9 39bc 52f9 2d3d 3c9a 90bd
00000330: b3b8 633b 6963 e3bc 7053 2cbd 4e49 24bd
00000340: e667 33bd 3039 cbbc 9a4d 9abc afd0 2d3d
00000350: ad2e 963b f51f 32bd 4799 7c3d 611b aa3c
00000360: 9bde 843c 683e 1cbc d4ed 253d ac0b 363c
00000370: dff5 79bd b535 01bd e049 583c 755d 0b3d
00000380: 4a53 b33d 81ce c4bc cb17 38bd 0ebf 253d
00000390: 500c 01bd 03fc 4bbd 16c9 583c 80fc 6abd
000003a0: 6790 37bd 90f4 673d a492 b8bd c044 8fbc
000003b0: 05eb 9a3c d06c 83bd ebed 013d cbab 913c
000003c0: 0147 c33d 6e10 84bd 0b1d 2c3d 5fb4 f1bd
000003d0: 5e6b 153d c5ab 593d 31ef 023b 1ad3 2b3d
000003e0: 8513 cf3d 72c4 debc 4d05 903c b9a2 643d
000003f0: 00ee c2bd e54a 623c a2f4 37bd 4e49 88bd
0.05421445 -0.04538653 0.011654886 -0.07366482 0.06105024 0.10668104 -0.07756964 0.05312685
0.049130484 0.031511083 0.033398893 0.013226091 0.065709874 -0.021314427 0.0819456 0.038733356
0.100888036 0.047124084 0.065326996 0.004292931 -0.07239537 -0.026650293 -0.1044937 -0.031893767
0.06860553 0.04938658 -0.040826175 0.040560782 0.045275502 -0.071320534 -0.020932699 -0.069909185
-0.03074183 0.01174649 -0.021798842 0.017935535 -0.09407324 -0.06378901 -0.025455259 0.042020414
-0.06526172 -0.019118745 -0.0056650895 -0.033844836 -0.08628051 -0.088409096 -0.043995164 -0.02809656
0.090933494 0.006562634 -0.040779606 -0.080076076 0.022486277 -0.01412526 0.055668358 0.06396677
-0.054284427 0.09027308 -0.02416096 -0.045678064 0.069544554 0.06039956 0.0050849044 0.009547986
-0.015294765 0.03212543 0.09068122 -0.03753732 -0.024867987 -0.10154683 -0.015709832 0.052849025
-0.027636979 -0.0878916 -0.064410515 -0.009619796 -0.039017085 -0.003772823 -0.012240686 -0.01092133
-0.047605395 -0.114700764 0.05298755 -0.048070204 0.013933111 0.01867358 -0.08918423 0.07403437
0.0809408 -0.049354184 -0.020252852 0.037548456 0.0053684846 0.03301439 -0.06766803 -0.010147795
0.03450324 -0.034709975 0.017465122 0.020120816 -0.014070128 -0.052084565 -0.001394263 0.018018339
-0.034681957 -0.04543055 -0.046888076 0.0804249 0.024522934 -0.044796035 -0.0004501418 0.0239441
0.07051409 -0.052583154 0.06457938 -0.08466164 -0.117508754 0.031004688 0.051169135 0.003865471
0.0059174453 -0.07273263 0.07294076 -0.064441666 -0.004556263 0.05412211 -0.010831096 0.0043669506
0.00803493 0.07486713 0.04627436 -0.062053494 0.03317945 0.061399512 -0.056904793 0.066489324
0.0060811006 0.009887261 0.03625775 -0.03845707 -0.03697761 0.064083435 0.10790909 0.05347484
0.008768416 -0.06457784 -0.009002446 -0.09090273 -0.10443209 -0.04263891 0.015626691 -0.03309361
0.038624655 0.028241685 0.052643545 -0.008156199 -0.10137026 0.05331359 -0.011757785 0.054767724
-0.091829784 0.051062804 0.020945042 -0.096970074 0.010372019 0.051346432 0.05851472 0.03892397
0.08497441 0.035816636 0.09411832 -0.09736511 0.04141638 -0.057374652 -0.023096994 0.0721074
0.07289273 0.076852635 -0.0634902 -0.039517842 -0.028379973 0.08143958 -0.00518862 -0.026728258
-0.05837952 -0.015916858 0.041713335 0.0025442054 0.025995096 -0.028167322 0.042982083 0.038277756
-0.0025613878 0.018196257 0.07119068 0.1102733 -0.073543906 -0.035790633 -0.044040244 0.008765349
-0.09214169 -0.011332017 0.0424741 -0.07060668 0.003474754 -0.027757363 -0.04207176 -0.04010897
-0.043800257 -0.024807543 -0.018835831 0.042435344 0.004583201 -0.043487508 0.061669614 0.020765008
0.016219428 -0.009536363 0.040510014 0.011111181 -0.061025497 -0.03154536 0.013201207 0.034024674
0.087561205 -0.02402425 -0.044944566 0.040465407 -0.031505883 -0.049800884 0.013231536 -0.05736971
-0.044815447 0.056629717 -0.090123445 -0.017488837 0.018910894 -0.06417239 0.031721037 0.017782113
0.09535027 -0.06448446 0.042019885 -0.11801981 0.036479346 0.053142328 0.0019978995 0.04194937
0.10111145 -0.027193282 0.017580653 0.055819247 -0.09518051 0.013811802 -0.044911034 -0.06654607

rnn.bias_ih_l1 f4 [384]
00000000: ba71 1dbd 8ceb 9e3d 2503 bd3d de1d 4abc
00000010: ea45 8abd 01f6 9a3c 77f1 92bd 16ed b73c
00000020: 898b 4cba ab36 bb3d bc7c c0bc fb6b 5dbc
00000030: a859 6a3d 0ff8 00bd 12b1 89bc 4298 d4bc
00000040: ccd1 75bd a868 15bd 9563 f03d f460 263d
00000050: 15f0 0d3d 3268 79bd 92b3 d43d d68b bcba
00000060: 15e8 963d c9cd 033d 8c94 42bc 28ba 83bd
00000070: 3af8 a2bd df33 923c c93a 4bbd 2f6b a1bd
00000080: 0746 87bd 04e5 0abd cfad 123e 234a 82bd
00000090: 8edb 013d 2705 6f3d c052 e33b 81e5 46bd
000000a0: 1faf 07bd d14e 89bb 86ca 7bbc e6e5 31bd
000000b0: ed44 c93d 756c c13d acfc db3d 06cc 53bd
000000c0: 4189 8a3d 5a1d 783d ebb5 c13c 3f79 bdbd
000000d0: 1a6d 76bc 80ff c2bc 88b3 9c3d bd53 b6bc
000000e0: e99e c33d a753 99bd cfdc 9a3d 30c5 8bbd
000000f0: 17f3 df3d 7c8b 9b3d 3784 043d 1fb6 923d
00000100: 9542 de3d 5277 e03d 41a7 313c 5b16 39bd
00000110: f6cc 0abb 5ca5 c4bc 3f15 763c 703a 8539
00000120: be3e 8ebc c88a a0bd 23cc c13c c7ad 183c
00000130: b39a c13c ad8e 453d dcdf 9cbd 34d6 4c3d
00000140: 1667 85bd 2aa6 bdbc e491 5d3d 1fd0 0b3d
00000150: 225f 99bc ca97 f73a 73d7 283d 13cf 88bc
00000160: 12d1 fd3c a905 b33d 230e 813d 9eee bc3d
00000170: ce6f 1d3d e42d cd3d e5db 083d 4b5d fcbc
00000180: 16d0 c53b 65d2 1e3d 844c 38bd 8c37 e23c
00000190: ca14 f7ba d053 99bd ec25 15bb 6751 91bc
000001a0: 5f96 a93d 0571 83bc 6b32 15bb 9fa9 bf3d
000001b0: 6def 103c ac27 753c 2744 28bd 246c 8b3a
000001c0: 355d 043d 0524 293b 967f 8d3d dc98 293c
000001d0: 538a c43b f111 87bd cddc c8bc e999 a03d
000001e0: 874f b43d 778e 433a 807b 15bc 7b4b c5bd
000001f0: c87f 7f3c 1db4 6ebd 2e6a 3e3c b6c1 b13d
00000200: 30ca 2abd 2754 08bd 204b c3bd b730 c3bd
00000210: e73b 2dbc 7f21 4abc b4a5 70bd f4ec 383d
00000220: a6d7 77bc 4d36 2c3d 48b5 4bbd 3b6d ecbd
00000230: 0c9f 323d a0fc 4dbd b976 af3d 4b3d 5bbd
00000240: ed62 c93c d612 89bc 2995 61bd 5db8 99bd
00000250: 7144 65bd 5ba5 8cbd 544b e8bd 23c6 49bd
00000260: 0d1d 563d 2cee 65bd f420 54bd 102c debd
00000270: b3d0 02bd 75c0 96bc b1fc c13c ab4b d7bd
00000280: bccf 1abc 6c8c bebd 3b54 e3bd 4955 113c
00000290: 2da8 10bd 1cce cebd e1f9 c5bd 55a1 99bd
000002a0: 10e4 86bd 139c fbbd 0b4b 9cbc 0289 84bd
000002b0: baaf ec3c 7254 a2bc 726d 25bd e575 eb3c
000002c0: 921a 103d 2f12 2fbd fc8d 5abd 5c86 e0bd
000002d0: 218e f7bd 3049 69bb a5a6 babd 8695 f33c
000002e0: 50d3 c5bb d580 92bd 3486 76bd 678f 20bd
000002f0: d9bf eabd b866 b6bd fd4d a8bd 3909 143d
00000300: 8108 10bd 7ae7 cabd 9339 36bd 0c14 bfbd
00000310: 425b 0d3c 7252 e5bd 9263 8ebb 781f a4bd
00000320: c93d acbb 1e31 f8bb a5bb 8b3d 3505 0abc
00000330: 9ff2 86bd dbb9 823c f2b9 a83c 307f 443d
00000340: cd1a 91bd 9f79 f0bd 9ee5 e7bc ceff 04be
00000350: 15bf 2a3d e09c 93bd a9da 1dbd 39b0 7c3d
00000360: a403 9abd 87ca d7bb a0a2 033d 7789 62bd
00000370: dfe3 b0bd fd59 a23d b34a a9bb 2938 39bd
00000380: c8b0 ecbc 6bf4 83bd c727 83bd dc56 223d
00000390: 5955 c3bc 0ede 00bd 93f9 513d 50bc c1bd
000003a0: c110 a5bd 2b66 b23c cd82 1dbd 0b82 bfbb
000003b0: ff60 0dbd 7c4e b0bd 4d7c 173d 4173 083c
000003c0: cdf5 85bd 7a11 55bd 6ed7 bbbd 6b25 24bc
000003d0: 7855 9d3c a444 0c3d 5901 993c fbcc e1bd
000003e0: c60f e0bd 3589 063d badb cb3c 193a a73c
000003f0: acab 6ebb b7a9 b5bc 7222 ebbd 4a30 3b3c
-0.038438536 0.07759771 0.092291154 -0.012336222 -0.06751616 0.018916132 -0.07174962 0.022451919
-0.0007802775 0.091412865 -0.023496978 -0.013514514 0.05721441 -0.031486567 -0.016808067 -0.025951508
-0.06001453 -0.03647676 0.11737744 0.040619805 0.03465279 -0.060890384 0.10385813 -0.0014384936
0.07368485 0.032178674 -0.011876237 -0.06431991 -0.07957502 0.017847 -0.04961661 -0.07881772
-0.066051535 -0.033909813 0.14324115 -0.06361797 0.031703524 0.058354523 0.006937355 -0.048558716
-0.033125993 -0.004190304 -0.01536811 -0.04343214 0.098276 0.09444515 0.10741553 -0.051708244
0.0676446 0.060574867 0.023646316 -0.092516415 -0.01504066 -0.023803473 0.0765143 -0.022256726
0.09551794 -0.074866585 0.07561647 -0.0682472 0.109350376 0.07594964 0.032352652 0.07163643
0.10852543 0.109602585 0.010843099 -0.045187335 -0.0021179295 -0.02400463 0.015019714 0.00025411276
-0.017363902 -0.078389704 0.02365691 0.0093187755 0.023633337 0.04823177 -0.07659885 0.050008968
-0.06513803 -0.023150522 0.05409421 0.034134027 -0.01872212 0.0018889841 0.041221093 -0.016700303
0.030983482 0.08741314 0.063015245 0.092252 0.038436703 0.100185186 0.033412833 -0.030806204
0.0060367687 0.038774867 -0.044994846 0.027614377 -0.00188508 -0.07486689 -0.00227582 -0.017739011
0.08280634 -0.016045103 -0.0022765647 0.093585245 0.008846146 0.014963072 -0.04108062 0.0010637087
0.03231545 0.0025808823 0.06909101 0.010351386 0.005997935 -0.06595219 -0.024519349 0.07841856
0.08804231 0.00074598886 -0.009123683 -0.096335374 0.01559443 -0.05827724 0.011621995 0.086795256
-0.041696727 -0.03328338 -0.09535813 -0.09530776 -0.010573364 -0.012337088 -0.058751777 0.04514785
-0.015127098 0.042043973 -0.04973343 -0.115442716 0.04360871 -0.05028975 0.085675664 -0.05352525
0.024583304 -0.016732614 -0.05507389 -0.07505868 -0.055973474 -0.068674766 -0.11342493 -0.049261224
0.0522738 -0.05613534 -0.05178924 -0.10848248 -0.031937312 -0.018402318 0.023680063 -0.105124794
-0.009448942 -0.09304127 -0.1110005 0.008870431 -0.035316635 -0.10097906 -0.09666801 -0.07501475
-0.06586468 -0.12285628 -0.019078752 -0.06471445 0.028892387 -0.019815657 -0.04038758 0.02874274
0.03518159 -0.04274195 -0.053358063 -0.10963127 -0.12087656 -0.0035596602 -0.09113816 0.029734384
-0.0060371533 -0.07153479 -0.06018658 -0.03919926 -0.11462373 -0.08906311 -0.08218 0.036141608
-0.03516436 -0.09907432 -0.0444885 -0.093299955 0.008627715 -0.11197366 -0.004345366 -0.08013815
-0.005256389 -0.0075742146 0.068229 -0.008424093 -0.06589245 0.015957763 0.020596478 0.047972858
-0.0708519 -0.117419474 -0.028307732 -0.12988207 0.041686136 -0.07207656 -0.03853861 0.061691497
-0.07520226 -0.0065854224 0.032137513 -0.055306878 -0.08637213 0.0792732 -0.0051663755 -0.045219574
-0.02889289 -0.064431034 -0.06404071 0.039633617 -0.023844408 -0.031461768 0.051263403 -0.09459746
-0.08059836 0.021777233 -0.03845482 -0.0058443598 -0.03451633 -0.0860872 0.036983777 0.00832826
-0.065410234 -0.05201862 -0.09171949 -0.010018687 0.019205794 0.03424515 0.0186774 -0.11025425
-0.109405085 0.032845695 0.024885047 0.020413445 -0.0036418242 -0.022175653 -0.11481179 0.011425087
