16 - Recurrent Neural Network/model/multivar/weights_best.pth (torch, 606727 bytes, 9 tensors)

rnn.weight_ih_l0 f4 [384, 5]
0	0x3b203919	0.0024448095
1	0x3dcbab96	0.09944837
2	0x3abe8864	0.0014536497
3	0x3cb0ec24	0.021596976
4	0xbd9188a2	-0.07106139
5	0x3d25fc4c	0.040523812
6	0xbc1bcf42	-0.009509863
7	0xbe0d38f4	-0.13791257
8	0x3d36a998	0.04459533
9	0x3dfb7235	0.12277643
10	0x3c4a9cbc	0.01236647
11	0xbcb999ed	-0.022656405
12	0xbcc9b222	-0.024621073
13	0x3c926f50	0.017875344
14	0x3e3af279	0.18256558
15	0xbd7142c1	-0.058901552
16	0xbe2d2260	-0.16907644
17	0x3e1eb6e9	0.15499462
18	0x3e2dd2f6	0.16975006
19	0xbe179c15	-0.14805634
20	0xbd448304	-0.04797651
21	0x3da49018	0.08035296
22	0x3dd23231	0.102634795
23	0x3dd9590d	0.10612688
24	0xbe5fee47	-0.2186824
25	0xbcb0303b	-0.021507373
26	0xbdc32608	-0.09528738
27	0x3de4ace5	0.111657895
28	0x3d98c7ae	0.07459961
29	0xbe0342ed	-0.12818499
30	0x3dacfcd3	0.0844666
31	0xbdfc2ebe	-0.12313603
32	0x3e14541c	0.1448521
33	0x3dbf72b0	0.09348047
34	0x3cbf34db	0.023340633
35	0xbd26b3cc	-0.04069881
36	0x3d1c1699	0.03810749
37	0x3decba16	0.115589306
38	0x3b50d9ea	0.0031868168
39	0xbda46072	-0.08026208
40	0xbdbabf0a	-0.09118469
41	0xbe12d908	-0.14340603
42	0x3e0cf292	0.13764408
43	0x3d5e42e4	0.05426301
44	0xbe09e906	-0.13467798
45	0xbd8cd9ce	-0.068774804
46	0xbd3ab1c7	-0.045579698
47	0x3d5a666a	0.053320326
48	0x3d4b1760	0.04958284
49	0x3b8133be	0.0039429357
50	0x3dbdb661	0.09263302
51	0xba94ea8f	-0.0011361408
52	0xbd7e640d	-0.062107135
53	0xbde729b6	-0.112872526
54	0x3e80abda	0.25131112
55	0x3da0e1b1	0.07855547
56	0xbbf76529	-0.007549901
57	0x3d5164d6	0.051121555
58	0xbe072c4d	-0.13200493
59	0x3da16337	0.07880252
60	0x3d710373	0.05884118
61	0xbc766b0d	-0.015040171
62	0xbdfb6783	-0.12275603
63	0xbd2c01fe	-0.041994087
64	0x3deafd80	0.114741325
65	0xbd8ca6bb	-0.06867739
66	0xbe750a1d	-0.23929639
67	0x3d513557	0.05107626
68	0x3e899e2f	0.26878497
69	0xbc5c106e	-0.0134316515
70	0xbd6ce24f	-0.057833012
71	0x3c2420d3	0.0100175915
72	0x3d92b422	0.07163264
73	0x3d49beb9	0.049254153
74	0xbe4858a3	-0.19565062
75	0xbda5626e	-0.080754146
76	0x3c8c6679	0.017138707
77	0x3d44051d	0.04785644
78	0x3cc59bce	0.024122145
79	0x3d96598b	0.07341298
80	0xbbbf1aa7	-0.0058320346
81	0x3d088c48	0.033336908
82	0x3d9c4305	0.076299705
83	0x3c7fc45c	0.015610781
84	0x3ca08c65	0.019598195
85	0xbd2685a4	-0.040654793
86	0xbd5b9d38	-0.053616732
87	0x3cd659cf	0.026165871
88	0x3dbe4ff1	0.09292591
89	0x3d9847e0	0.07435584
90	0x3dada862	0.08479382
91	0xbed45b7e	-0.41476053
92	0x3e5ca026	0.21545467
93	0x3e0c32d6	0.13691267
94	0xbe431b51	-0.19053389
95	0x3d59c32c	0.053164646
96	0x3d8a339a	0.067481235
97	0xbe10f070	-0.1415422
98	0xbd6e44cd	-0.058171082
99	0x3d691c57	0.056911793
100	0x3d8478f8	0.064683855
101	0xbe0358d1	-0.1282685
102	0xbd2bcd60	-0.041943908
103	0xbc08ce3e	-0.008349953
104	0xbb8d1fb2	-0.004306757
105	0x3d98d278	0.07462019
106	0xbdaf5f97	-0.08563154
107	0x3ceb6b82	0.028737787
108	0x3dd8bc4d	0.105827905
109	0xbe3c5842	-0.18393043
110	0xbba4c474	-0.005028302
111	0x3d33d6d5	0.04390605
112	0xbc3942d0	-0.011307433
113	0x3de5352f	0.111917846
114	0xbd8c276a	-0.06843455
115	0x3da44259	0.08020467
116	0x3ca04899	0.019565867
117	0xbe7be4fd	-0.24599071
118	0x3ca44dd8	0.02005665
119	0x3dabaffe	0.08383177
120	0x3d75054a	0.059819497
121	0x3d2130d7	0.039353218
122	0xbb143d9c	-0.002261973
123	0x3c9ce174	0.019150473
124	0xbd2e9a6f	-0.042627748
125	0xbd017a6b	-0.031610887
126	0xbe2ed2c2	-0.17072585
127	0xbcad354e	-0.021143582
128	0x3e929b87	0.28634283
129	0x3cefef23	0.029288834
130	0x3d03464b	0.03204946
131	0x3c4c23ef	0.012459739
132	0x3b0ce161	0.002149664
133	0x3d070a11	0.032968584
134	0x3d5536f8	0.052054375
135	0x3d89d6da	0.06730433
136	0xbd5074cf	-0.050892647
137	0x3c9a9845	0.018871436
138	0x3e232532	0.15932158
139	0x3c47e6d6	0.012201032
140	0x3c903186	0.01760174
141	0x3cef1e6e	0.029189315
142	0xbe01431f	-0.12623261
143	0xbd5d58db	-0.054039817
144	0xbcabd855	-0.020977179
145	0xbdf2c9f2	-0.11854924
146	0xbdc6ef34	-0.09713593
147	0x3dc41937	0.09575122
148	0x3e65c70d	0.22439213
149	0xbda9c60f	-0.0828973
150	0x3d6f156a	0.05837003
151	0x3d0b18fe	0.03395938
152	0xbdc7287b	-0.09724518
153	0xbd1affc7	-0.037841585
154	0x3e5a2667	0.21303712
155	0x3dd4178c	0.10356054
156	0xbe8cf194	-0.2752806
157	0x3a211299	0.0006144434
158	0x3d402952	0.046914406
159	0x3e4e49e0	0.20145369
160	0x3c959655	0.01826016
161	0xbe0405ca	-0.12892833
162	0x3db7e5ef	0.08979403
163	0x3e6160dd	0.22009607
164	0x3d57d5bc	0.052694067
165	0x3dc6a2f7	0.09699052
166	0xbcc047b0	-0.023471683
167	0x3da7568b	0.08170804
168	0x3e278f73	0.16363315
169	0xbd354c83	-0.04426242
170	0xbd990088	-0.074708045
171	0xbd7a5e7a	-0.061125256
172	0x3d47cd77	0.04877993
173	0x3e53108e	0.20611784
174	0xbd5efe9e	-0.05444204
175	0x3dda8253	0.106693886
176	0xbe97c4d9	-0.2964237
177	0xbe0dd5d6	-0.13851103
178	0x3cf73ea9	0.030181246
179	0x3e3bc7dc	0.18337959
180	0x3d5320a5	0.051544804
181	0x3da6df9f	0.08148121
182	0xbe501302	-0.20319751
183	0xbd566eca	-0.05235175
184	0x3dc61a87	0.096730284
185	0x3da54dd9	0.08071489
186	0x3ccc07da	0.024906088
187	0xbe4e02f0	-0.20118308
188	0x3d68ebd5	0.056865532
189	0x3e4a0874	0.19729787
190	0xbd82e473	-0.063912295
191	0xbddfc8a2	-0.109269395
192	0x3c35c2c9	0.011093804
193	0x3e540ada	0.20707265
194	0xbde5a8ba	-0.11213823
195	0xbd8c17e3	-0.068404935
196	0xbda73d3a	-0.08165975
197	0x3e1b1147	0.1514331
198	0x3e27df41	0.16393758
199	0xbe320029	-0.17382874
200	0xbd48fae4	-0.049067393
201	0xbeb30aaa	-0.34969074
202	0x3dc61eee	0.09673868
203	0x3e1502db	0.1455187
204	0x3d43bb71	0.04778618
205	0xbdde688e	-0.10859786
206	0xbdd4107d	-0.103547074
207	0x3d2a36af	0.041556057
208	0x3e8f519e	0.27991956
209	0xbe2589eb	-0.16165893
210	0xbd9bf6b6	-0.07615416
211	0x3e304ad3	0.17216043
212	0xbe189c61	-0.14903404
213	0xbd5e5859	-0.054283474
214	0x3dae22cd	0.085027315
215	0xbd16520e	-0.036699347
216	0xbbbfc821	-0.0058527146
217	0xbe3f10cd	-0.18658753
218	0xbdef4043	-0.11682179
219	0x3d993eef	0.07482707
220	0x3dd01dd6	0.10161941
221	0x3d3aaab5	0.045572955
222	0xbd814f0f	-0.06313907
223	0x3e231e31	0.15929486
224	0x3d3ae191	0.045625273
225	0x3c18178b	0.009282957
226	0xbd8671af	-0.06564652
227	0x3da1a49e	0.07892726
228	0x3c8e4b56	0.017369907
229	0xbd3f9b7b	-0.046779137
230	0xbdbe9d21	-0.09307314
231	0xbdf23b9b	-0.11827775
232	0xbdb8b8ca	-0.09019621
233	0x3e7d9d06	0.24766931
234	0xbb8dee46	-0.004331383
235	0xbd93e0d4	-0.07220617
236	0xbb5e1e5b	-0.0033892605
237	0xbd342c94	-0.043987826
238	0x3e9d74e7	0.30753252
239	0x3ddeecf2	0.108850375
240	0xbd2566c5	-0.04038121
241	0x3d5fa919	0.054604623
242	0x3d9f0c78	0.0776605
243	0x3e49383a	0.19650355
244	0xbda9a2d1	-0.08283008
245	0xbd80712b	-0.06271585
246	0xbd07736b	-0.033069056
247	0xbd2beedd	-0.041975845
248	0x3dbd2c9c	0.09237024
249	0x3d4a28d0	0.049355328
250	0xbd9f3fe7	-0.0777586
251	0xbbd4bab2	-0.0064919824
252	0x3db8bb2f	0.090200774
253	0x3e4b6e90	0.19866395
254	0x3c8c507c	0.017128222
255	0x3dcd18b2	0.10014476

rnn.weight_hh_l0 f4 [384, 128]
0	0xbc529028	-0.012851752
1	0x3dcc824b	0.09985789
2	0xbdb3f60c	-0.08787164
3	0x3ca3d41e	0.019998606
4	0x3c574ff3	0.01314162
5	0xbdc51dac	-0.096248
6	0xbcda11f0	-0.026619881
7	0x3e2e1a56	0.17002234
8	0xbdfbda63	-0.12297513
9	0xbcf47601	-0.029841425
10	0xbdd4191f	-0.10356354
11	0xbe06f8f0	-0.131809
12	0x3c3a8eac	0.011386555
13	0x3d9344ec	0.0719088
14	0xbcad50ab	-0.02115663
15	0x3df61c9b	0.12017175
16	0x3d023002	0.031784065
17	0xbd2184e3	-0.03943337
18	0x3e09839a	0.13429108
19	0x3d874c7b	0.06606384
20	0x3c545c4b	0.0129614575
21	0x3d901d7d	0.070368744
22	0x3e0de510	0.13856912
23	0x3cbbb59a	0.022913743
24	0x3df3b9ed	0.11900697
25	0xbdab0eb1	-0.083524115
26	0xbdbc3d4a	-0.091913775
27	0x3d76dab0	0.06026715
28	0xbdde06c7	-0.108411364
29	0xbd27cb60	-0.040965438
30	0x3dbb3017	0.09140032
31	0xbd857259	-0.06515951
32	0xbda5161b	-0.08060857
33	0x3e0fdec7	0.14049827
34	0xbb77d3f5	-0.0037815545
35	0x3e108fbf	0.14117335
36	0xba626162	-0.0008635727
37	0x3c26b5b2	0.0101751555
38	0xbbb75638	-0.005594995
39	0xbd1b21a1	-0.037873868
40	0x3d462db7	0.04838344
41	0x3a2e59bc	0.00066509447
42	0x3c78658f	0.015160932
43	0xbdc588af	-0.09645211
44	0xbda2c31a	-0.07947369
45	0x3caf68d6	0.021412294
46	0xbca42b0e	-0.020040061
47	0x3b48c1cc	0.003063309
48	0x3b423cb6	0.0029638237
49	0xbdb43c9e	-0.08800624
50	0x3d90eea4	0.07076767
51	0x3dc5d4d3	0.096597336
52	0xbc8b27c2	-0.016986731
53	0x3dca6b77	0.098837785
54	0x3ddb6f44	0.107145816
55	0x3cfe1b49	0.03101887
56	0x3d1e3594	0.038625315
57	0x3ba56424	0.005047338
58	0x3bb5694c	0.005536234
59	0x3de93871	0.113877185
60	0xbd9092e5	-0.07059268
61	0xbd09c2e8	-0.033633143
62	0xbd81eb07	-0.06343656
63	0xbb838b37	-0.0040143984
64	0x3d932ff2	0.07186879
65	0x3e109959	0.14120997
66	0x3c7573c2	0.014981212
67	0xbdfdf6e0	-0.12400603
68	0x3e01c415	0.12672456
69	0x3d4f7dc9	0.050657067
70	0x3d9c5eee	0.07635294
71	0x3d816768	0.06318551
72	0x3b8ccebd	0.004297106
73	0x3c53ea63	0.0129343
74	0x3c6dd47e	0.014515994
75	0x3d1dd666	0.038534544
76	0xbd217ee9	-0.03942767
77	0xbc4c11c6	-0.012455409
78	0xbc347393	-0.011013883
79	0x3d297b68	0.041377455
80	0x3dc33519	0.09531612
81	0xbcd6f069	-0.026237683
82	0xbd68fad4	-0.056879833
83	0x3ddeffbf	0.108886234
84	0x3ce08845	0.027408728
85	0xbc8dbc87	-0.01730181
86	0xbbb2f55d	-0.0054613785
87	0xbd59fa06	-0.053216957
88	0xbd01b139	-0.031663153
89	0xbd6d97b3	-0.058006
90	0x3ce519ea	0.027966458
91	0x3d44763a	0.047964312
92	0xbdde740a	-0.108619764
93	0xbb675cc5	-0.0035303098
94	0xbdb032a1	-0.08603407
95	0x3e297717	0.16549335
96	0xbd9ba55d	-0.075999
97	0x3d090bfe	0.033458702
98	0xbe01e87f	-0.12686346
99	0xbaa34d57	-0.0012458962
100	0xbcb9c67b	-0.02267765
101	0x3c8c7e21	0.017149987
102	0x3dec0a34	0.115253836
103	0x3e3121ed	0.17298098
104	0x3ca91224	0.020638533
105	0xbdc81a10	-0.09770596
106	0x3c47bd7d	0.012191174
107	0x3e11f230	0.14252543
108	0xbbdb1c41	-0.0066867177
109	0xbd008ae8	-0.03138247
110	0x3dc00ada	0.0937707
111	0x3ddf7f68	0.10912973
112	0x3da88917	0.08229273
113	0x3dec64f5	0.115426935
114	0xbcb88e11	-0.02252868
115	0x3e010ab7	0.12601744
116	0xbca249bc	-0.01981055
117	0xbdcf885b	-0.101334296
118	0x3da08369	0.078375645
119	0xbd944223	-0.07239177
120	0x3d0dc684	0.034613147
121	0x3d69da3e	0.057092898
122	0x3e0b60f5	0.13611205
123	0x3d2c09b1	0.04200143
124	0x3d637469	0.05553094
125	0x3ca2497f	0.019810436
126	0x3c937e97	0.018004699
127	0x3d53bf56	0.051696144
128	0xbbdaefb4	-0.006681407
129	0x3c245149	0.0100291455
130	0x3cc467d1	0.023975285
131	0xbdbf7812	-0.093490735
132	0xbd3fa11e	-0.046784513
133	0x3da9fa31	0.08299673
134	0x3c3b0c3c	0.011416491
135	0x3dcd4d73	0.10024538
136	0xbd85bf81	-0.06530667
137	0xbd952452	-0.07282318
138	0x3d9120f8	0.070863664
139	0x3ba6e1d6	0.0050928397
140	0xbda89985	-0.082324065
141	0xbbdb3fb5	-0.006690944
142	0xbc86ad22	-0.016439978
143	0x3c4dd99d	0.01256409
144	0x3cc1c657	0.023654146
145	0xbda3b194	-0.07992855
146	0xbd191db8	-0.037381858
147	0x3d7dfa96	0.062006555
148	0x3d975720	0.07389665
149	0xbd35f68c	-0.04442458
150	0x3b04136a	0.0020153173
151	0x3d05959a	0.032613374
152	0x3da6378e	0.08116065
153	0x3c73b340	0.0148742795
154	0x3cf3bc70	0.02975294
155	0xbd349f55	-0.044097263
156	0xbd214434	-0.039371684
157	0x3d1254e5	0.035725493
158	0xbd89a53d	-0.0672097
159	0x3cc5535c	0.0240876
160	0xbd70f653	-0.058828663
161	0x3d2c0b24	0.042002812
162	0xbd85ba2a	-0.065296486
163	0x3dd10e95	0.102078594
164	0x3c43427c	0.011917707
165	0xbdb7df4d	-0.08978138
166	0x3c0cc126	0.008590972
167	0x3c3a9b2c	0.011389535
168	0xbd9b0454	-0.07569185
169	0xbd064081	-0.03277636
170	0xbcf41494	-0.029794969
171	0x3cd1172d	0.025523746
172	0xbd6ced4a	-0.057843484
173	0x3d921bbc	0.07134196
174	0x3d3282ff	0.04358196
175	0xbd453a0e	-0.04815107
176	0x3cab454c	0.020907067
177	0x3d5f32b1	0.054491702
178	0xbdde29a2	-0.108477846
179	0xbd0e03d6	-0.034671627
180	0xbd8cfd83	-0.06884291
181	0xbd52bf60	-0.05145204
182	0x3d080949	0.03321198
183	0x3d667d9d	0.056272138
184	0x3bc66126	0.0060540615
185	0xbd2e91a9	-0.04261938
186	0xba4b6a68	-0.0007759691
187	0x3ce25527	0.027628494
188	0x3c1f69b0	0.009729788
189	0x3d739a97	0.0594736
190	0x3deb6697	0.11494177
191	0xbd2f4126	-0.04278674
192	0xbc453cde	-0.012038438
193	0xbdb405e1	-0.08790184
194	0xbb93af94	-0.0045070145
195	0xbdd562e2	-0.10419251
196	0x3dbc2f37	0.09188693
197	0x3db388e2	0.08766343
198	0x3d8d774d	0.069075204
199	0xbd4cc718	-0.049994558
200	0x3dd03d80	0.1016798
201	0x3c692059	0.014228904
202	0x3d92e801	0.071731575
203	0x3cd56915	0.026051084
204	0xbd2aa3be	-0.041660063
205	0x3cf8285b	0.03029268
206	0xbd2c4379	-0.042056534
207	0xbda18ae9	-0.07887823
208	0x3c925885	0.017864475
209	0xbd4fbd84	-0.050717846
210	0xbc623ffa	-0.0138091985
211	0x3dbdbde1	0.09264732
212	0xbd2c72ff	-0.042101856
213	0x3d6eb5f1	0.05827898
214	0x3d82b4e1	0.06382156
215	0x3d34023d	0.043947447
216	0x3d298b1b	0.041392427
217	0xbd971757	-0.073774986
218	0xbd81e6df	-0.06342863
219	0x3d64730e	0.055773787
220	0x3cacc59c	0.021090321
221	0xbd78a035	-0.06069966
222	0xbc14ab1a	-0.009073997
223	0x3e1245d4	0.1428445
224	0xbc2d052b	-0.010560314
225	0x3db3973c	0.0876908
226	0xbd8d3363	-0.06894567
227	0xbceb95f0	-0.02875802
228	0x3c7c0413	0.015381831
229	0x3d9dd61e	0.07706855
230	0xbc75eefb	-0.015010591
231	0x3dbe2332	0.09284057
232	0xbd3865e6	-0.045019053
233	0xbd593f21	-0.05303872
234	0xbd814263	-0.063114904
235	0x3d5c78ce	0.053826146
236	0xbdb4f66e	-0.08836065
237	0xbd7c7e13	-0.06164367
238	0x3d3facf4	0.0467958
239	0x3b02afc0	0.001994118
240	0x3d914c4c	0.070946306
241	0xbd20d25d	-0.039263118
242	0x3d899f4e	0.06719838
243	0x3d21e4c6	0.039524816
244	0x3c9036b4	0.01760421
245	0xbda19572	-0.078898326
246	0xbcd69026	-0.026191782
247	0xbd6e21e9	-0.058137808
248	0xbd8adfc7	-0.067809634
249	0x3c81b64f	0.015834002
250	0xbdc3c9c9	-0.09559972
251	0x3cf2fc53	0.029661333
252	0x3c83ff68	0.016112998
253	0xbd3e0c64	-0.046398535
254	0xbc4cf2a0	-0.012509018
255	0x3dfc4ed8	0.12319726

rnn.bias_ih_l0 f4 [384]
0	0x3d42266b	0.04739992
1	0x3db8399b	0.08995362
2	0xbb88e6c7	-0.0041779014
3	0xbd02c10d	-0.03192239
4	0xbd33f0a2	-0.043930657
5	0xbcd28ffe	-0.025703426
6	0x3c7b4263	0.015335652
7	0x3e0a5c92	0.13511875
8	0xbceaa5eb	-0.028643569
9	0x3c29738f	0.010342493
10	0x3d7f553b	0.06233714
11	0xbd6e14a6	-0.05812516
12	0x3ce986b9	0.028506624
13	0x3de421f1	0.11139286
14	0x3a8837db	0.0010392623
15	0x3b9bf1ae	0.004759035
16	0x3d8332b0	0.06406152
17	0x3d04d810	0.032432616
18	0x3dd4a3b5	0.10382787
19	0x3da84a07	0.082172446
20	0xbd73bab8	-0.05950424
21	0x3de3401c	0.11096212
22	0xbd606ba9	-0.054790173
23	0xbd9ad086	-0.07559304
24	0x3d977bb7	0.073966436
25	0x3da26d84	0.07931045
26	0xbd0cba14	-0.034357145
27	0x3d5be706	0.053687118
28	0x3b9c5890	0.0047712997
29	0xbbe48e0f	-0.0069749425
30	0x3d9ca9c8	0.07649571
31	0x3db19b21	0.086721666
32	0x3d9f736c	0.07785687
33	0x3e0aebd0	0.13566518
34	0x3c5a1b2b	0.013312141
35	0x3d893ef6	0.06701462
36	0xbd13ef6e	-0.03611701
37	0x3d1ef8e3	0.038811576
38	0xbd099f85	-0.033599395
39	0x3cf7b32b	0.030236801
40	0x3cace669	0.021105962
41	0x3dbb2c0f	0.09139263
42	0x3d4497c7	0.04799631
43	0x3d62a1f3	0.055330228
44	0x3d8cc07d	0.06872652
45	0xbc8befaf	-0.017082063
46	0xbbb3568a	-0.0054729627
47	0x3d3652c5	0.04451253
48	0x3da1b672	0.07896127
49	0x3e05b4da	0.1305727
50	0x3cc8f3d0	0.024530321
51	0x3dc85ea4	0.09783676
52	0xbd8b5d5d	-0.06804917
53	0xbc8d24c2	-0.017229442
54	0x3dc0d76f	0.09416091
55	0x3d81f8fc	0.06346318
56	0x3d1ef863	0.0388111
57	0x3ca35873	0.019939637
58	0x3d99d7e3	0.0751188
59	0xbd4cb387	-0.049975898
60	0x3dd3b63c	0.10337493
61	0xbd8c7482	-0.068581596
62	0x3c860115	0.016357938
63	0xbd81dab4	-0.063405424
64	0x3dc13d0f	0.09435474
65	0x3da3f160	0.08005023
66	0xbca6c9fd	-0.020359987
67	0x3d66e05a	0.056366302
68	0xbbbdec1b	-0.005795968
69	0x3de714db	0.11283275
70	0x3e0b0630	0.13576579
71	0x3ac638e6	0.0015123158
72	0xbd59f823	-0.053215157
73	0x3d8da8d8	0.0691697
74	0x3da730db	0.08163615
75	0x3da75ea5	0.08172349
76	0x3df66c19	0.12032337
77	0x3c99332e	0.018701162
78	0x3de9bf39	0.11413426
79	0x3d29a845	0.04142024
80	0xbcb7bb24	-0.022428103
81	0x3de40faf	0.11135804
82	0x3c175bdc	0.00923821
83	0x3d5ec00b	0.054382365
84	0x3d910714	0.07081428
85	0x3dcc379f	0.099715464
86	0x3da968bd	0.0827193
87	0x3ccad1f0	0.02475831
88	0x3dc94dee	0.09829317
89	0x3bf28b84	0.0074018855
90	0x3e357d90	0.1772368
91	0xbc3b6136	-0.011436751
92	0x3d57008c	0.052490756
93	0xbda654e6	-0.08121662
94	0xbd794c4e	-0.060863785
95	0x3e08f087	0.13373004
96	0x3d87942a	0.06620057
97	0x3e401023	0.18756156
98	0xbcb30407	-0.021852506
99	0x3cd7fbfe	0.026365276
100	0x3cb27482	0.02178407
101	0x3db8f8e0	0.09031844
102	0x3cb8c90e	0.022556808
103	0x3cb0b8a3	0.021572417
104	0x3cf1b3dc	0.029504709
105	0xbc723d91	-0.014785186
106	0x3d8df7f3	0.06932058
107	0x3da07810	0.078354
108	0xbc3c2ba3	-0.011485013
109	0xbd1c5925	-0.038170952
110	0x3e0f5274	0.13996297
111	0xbcb29d64	-0.021803565
112	0xbc1b4f83	-0.009479406
113	0x3c178ad5	0.009249409
114	0xbd705ad4	-0.05868037
115	0xbca94229	-0.02066143
116	0x3cf59168	0.029976562
117	0xbd6f93f3	-0.058490705
118	0x3dad213b	0.08453604
119	0x3d941786	0.07231049
120	0xbd1ea7be	-0.03873419
121	0xbd210950	-0.03931552
122	0xbb8b36ca	-0.0042484747
123	0x3d126777	0.035743203
124	0xbcf3d954	-0.029766716
125	0x3de19b14	0.11015907
126	0xbd8dab34	-0.0691742
127	0x3d874844	0.066055804
128	0xbcdffc8b	-0.027342102
129	0xbdb602ff	-0.0888729
130	0x3d87a3b2	0.06623019
131	0x3c01f3b6	0.00793164
132	0xbd8ce170	-0.06878936
133	0xbd471c8a	-0.0486112
134	0xbdc5458f	-0.09632408
135	0x3bea2cb0	0.0071464404
136	0x3be5b58a	0.0070101665
137	0x3d671725	0.056418557
138	0xbb9236cb	-0.0044620982
139	0xbd33103f	-0.043716665
140	0xbd387cef	-0.04504102
141	0x3d99c19b	0.075076304
142	0x3d2fa67b	0.042883378
143	0x3d776584	0.060399547
144	0xbd6db42a	-0.058033146
145	0x3dbd959a	0.0925705
146	0x3d5b5ee6	0.0535573
147	0xbdb3ddde	-0.08782552
148	0x3ba30099	0.0049744365
149	0xbb19d521	-0.0023472982
150	0x3dbf311e	0.0933554
151	0x3b2a82d0	0.0026017912
152	0xbc299b1f	-0.010351925
153	0xbda32ffc	-0.07968137
154	0xbd0f90b6	-0.035050116
155	0x3bedd206	0.0072577028
156	0x3d247f3e	0.04016041
157	0xbda56778	-0.08076376
158	0xbb1d688c	-0.0024018614
159	0x3e13320c	0.1437456
160	0xbb2b3a11	-0.002612714
161	0xbdd63eb6	-0.1046118
162	0x3d88fa5b	0.066883765
163	0x3cf7618a	0.030197877
164	0xbbf767b0	-0.0075502023
165	0xbd7bc717	-0.061469164
166	0x3c91009e	0.01770049
167	0xbc8663c1	-0.016404988
168	0xbcbe59d7	-0.023236198
169	0xbca0750e	-0.019587066
170	0xbd0a1c7e	-0.03371858
171	0x3d161ec3	0.03665043
172	0xbc26c3ed	-0.010178548
173	0x3db129e9	0.08650572
174	0x3dbcd54f	0.09220373
175	0x3ddb1b9d	0.10698626
176	0xbd800500	-0.06250954
177	0xbdd60bf7	-0.10451501
178	0x3d8ce243	0.068790935
179	0x3d1c24af	0.03812092
180	0x3deb2ee7	0.11483555
181	0x3d9ca5e6	0.0764883
182	0x3d4c6f29	0.049910698
183	0xbdb56558	-0.088572204
184	0xbe01b231	-0.12665631
185	0xbda7d46e	-0.081948146
186	0xbddc16a0	-0.10746503
187	0xbd58773a	-0.05284808
188	0x3db76767	0.08955269
189	0xbd48a5b2	-0.048986144
190	0x3ddb59e4	0.10710505
191	0x3d57e232	0.05270595
192	0xbd3aa67e	-0.045568936
193	0xbdecb12a	-0.11557229
194	0x3c2c98be	0.010534463
195	0xbea3a2f1	-0.31960252
196	0xbdc2b0d3	-0.09506383
197	0x3da577b9	0.08079476
198	0xbdbbdcd3	-0.09172978
199	0xbda68447	-0.08130699
200	0xbd931f38	-0.07183689
201	0xbda7e63f	-0.08198213
202	0xbbac7ca5	-0.005263882
203	0xbdf40b01	-0.11916161
204	0xbd8e7f6a	-0.06957896
205	0xbcc7c021	-0.024383606
206	0xbda0cefc	-0.07851979
207	0x3c68eeb2	0.014217066
208	0xbc656cd0	-0.014002994
209	0xbdf88980	-0.12135601
210	0xbb36af29	-0.00278754
211	0xbd27a9a2	-0.04093326
212	0x3d214575	0.03937288
213	0xbd66e6ab	-0.056372326
214	0xbd429635	-0.04750653
215	0xbd0014a9	-0.031269703
216	0xbe0e7e66	-0.13915405
217	0xbdb78fb7	-0.08962958
218	0xbdcd7e78	-0.100338876
219	0xbd24ea3e	-0.040262453
220	0x3c33132f	0.010929867
221	0x3d2df526	0.04247012
222	0x3de9f237	0.11423152
223	0xbd8079fd	-0.062732674
224	0xbc952fe1	-0.018211307
225	0xbdea8e89	-0.11452968
226	0xbda7d8d6	-0.08195655
227	0xbe33d5f7	-0.1756209
228	0x3d034465	0.032047648
229	0xbd35fadd	-0.044428695
230	0x3d469517	0.048482027
231	0xbd9e1863	-0.07719495
232	0x3cd256dc	0.025676183
233	0xbc720825	-0.01477245
234	0x3e0cddfa	0.13756552
235	0xbd5db43f	-0.054126974
236	0x3c040003	0.008056643
237	0xbd8a3005	-0.0674744
238	0xbd176f3d	-0.03697132
239	0xbd4d50e0	-0.050125957
240	0xbdaaea4e	-0.08345471
241	0x3db399e6	0.08769588
242	0x3c89c9a2	0.016819779
243	0xbbdcba2e	-0.0067360615
244	0x3d009b1e	0.03139793
245	0xbd45582c	-0.04817979
246	0x3d26e1bd	0.040742625
247	0x3dc6437a	0.09680839
248	0xbdb6355a	-0.08896895
249	0x3c21ed5a	0.009883249
250	0xbdc484e5	-0.0959566
251	0xbdd8a322	-0.1057799
252	0xbb149fa7	-0.0022678168
253	0xbd11bb05	-0.035578746
254	0x3ca61758	0.020274803
255	0xbca7cee2	-0.020484392

rnn.bias_hh_l0 f4 [384]
0	0x3d365351	0.04451305
1	0xbd92f55a	-0.07175703
2	0x3d8448cb	0.06459197
3	0x3dcefd2c	0.101068825
4	0x3d219c24	0.039455548
5	0xbcda6c81	-0.026663067
6	0x3e14778c	0.14498729
7	0x3d8085e9	0.06275541
8	0x3da5d8ff	0.08098029
9	0xbdb365dc	-0.087596625
10	0xbd5fc243	-0.05462862
11	0xbdbc2a5a	-0.091877654
12	0xbd84dfa8	-0.064879715
13	0x3cb30b90	0.0218561
14	0x3cb704e1	0.022341194
15	0xbcdee9f5	-0.027211169
16	0xbd590aaa	-0.052988686
17	0x3dc1e602	0.09467699
18	0xbd38e218	-0.045137495
19	0x3d817612	0.06321348
20	0x3d9f508e	0.077790365
21	0x3d28419c	0.041078195
22	0x3cc5a2cd	0.024125481
23	0xbbb615f9	-0.0055568186
24	0xbc4f2c05	-0.012644772
25	0x3b8ec4a7	0.004356939
26	0xbd117ba2	-0.035518296
27	0x3d24c647	0.040228155
28	0xbdaad969	-0.08342249
29	0x3d97c0b6	0.074098036
30	0xbd0bdf10	-0.034148276
31	0x3dd70782	0.10499479
32	0x3db52a41	0.0884595
33	0x39c839e7	0.00038190113
34	0x3cc3f04e	0.023918297
35	0x3d1a7dd9	0.037717674
36	0x3d7be3f9	0.06149671
37	0x3da46e3d	0.08028839
38	0x3de2842e	0.110603675
39	0x3dfa443c	0.12220046
40	0xbb976a16	-0.0046208007
41	0x3dece793	0.11567607
42	0x3c9bb30e	0.019006278
43	0x3da10306	0.07861905
44	0x3e26c473	0.16285877
45	0xbd253a8b	-0.040339034
46	0x3d68459d	0.056707013
47	0x3dfd8688	0.123791754
48	0x3d2b7424	0.041858807
49	0x3dce0f3f	0.10061502
50	0xbc22c2bb	-0.009934123
51	0xbbb8f260	-0.0056441277
52	0xbcb0fba0	-0.02160436
53	0x3e0adf05	0.13561638
54	0x3d116728	0.035498768
55	0x3d976689	0.07392604
56	0xbca1db53	-0.019757902
57	0x3d4682a5	0.048464436
58	0xbc86cd47	-0.016455306
59	0xbc880764	-0.016605087
60	0x3c836d1f	0.016043244
61	0xbddd3f62	-0.10803105
62	0xbc835c70	-0.016035289
63	0x3d044704	0.03229429
64	0x3a38fb9f	0.00070565374
65	0xbd361405	-0.044452686
66	0x3dcb86ca	0.09937818
67	0x3c9e6ec9	0.019339936
68	0xbba548bf	-0.0050440724
69	0x3e088d93	0.13335256
70	0xbcc53df9	-0.024077402
71	0xbba93700	-0.005164027
72	0xbd1a5570	-0.037679136
73	0x3dd2b938	0.10289234
74	0x3dc8ce8f	0.09805023
75	0xbd8b83c6	-0.06812243
76	0x3d4a8717	0.049445238
77	0x3b3903ec	0.0028231097
78	0x3c411436	0.011784604
79	0x3db82877	0.08992093
80	0x3d0e2214	0.03470047
81	0xbbf38a80	-0.007432282
82	0x3da7ea88	0.0819903
83	0xbc9896f3	-0.018626666
84	0xbb54150f	-0.0032361185
85	0x3da3f79d	0.08006213
86	0x3d745470	0.05965084
87	0xbc462113	-0.012092846
88	0x3df16827	0.117874436
89	0x3dcb733a	0.09934087
90	0x3db44cc0	0.088037014
91	0x3da74147	0.081667475
92	0x3ddebde5	0.10876063
93	0x3d4ab97a	0.04949329
94	0xbd0b3bdf	-0.033992644
95	0x3dd6acb1	0.10482157
96	0x3d2c6319	0.042086694
97	0x3e27c367	0.16383134
98	0x3dace9d4	0.08443037
99	0x3e039680	0.1285038
100	0xbd88d1ca	-0.06680639
101	0x3e16f9f1	0.14743783
102	0xbd82a681	-0.06379414
103	0x3e08182c	0.13290471
104	0x3d9b2c4b	0.075768076
105	0xbcba394f	-0.022732405
106	0x3c737e62	0.014861675
107	0x3db7f8e2	0.089830175
108	0xbd8fd3b2	-0.070227996
109	0xbc97b2b1	-0.018517824
110	0x3db52225	0.08844403
111	0x3dc093d3	0.09403195
112	0x3bfa0e8e	0.0076311296
113	0x3d339142	0.0438397
114	0x3d98e574	0.0746564
115	0x3ddbd3c7	0.10733753
116	0x3d1c2b55	0.038127262
117	0xbdb2f517	-0.087381534
118	0xbb647b62	-0.003486358
119	0x3cd76156	0.02629153
120	0x3cf0b942	0.029385213
121	0xbd9f7bba	-0.07787271
122	0xbc82c4ef	-0.015963046
123	0xbce4837d	-0.02789473
124	0x3d80d4d0	0.06290591
125	0x3d128331	0.035769645
126	0x3c7520ce	0.0149614345
127	0x3dccedc8	0.10006291
128	0x3d33a464	0.043857947
129	0xbdce33b1	-0.10068453
130	0x3d008340	0.03137517
131	0xbcac7148	-0.02105011
132	0x3cde39d2	0.02712718
133	0x3c10ba64	0.0088335015
134	0x3d0041c0	0.031312704
135	0x3d135fbc	0.03597997
136	0x3cda31b4	0.026635028
137	0x3da6322f	0.081150405
138	0x3dbccc5d	0.09218667
139	0x3d327802	0.04357148
140	0x3d192b4d	0.03739481
141	0x3d863469	0.06552965
142	0xbdb108f1	-0.086442836
143	0x3daf0c0c	0.0854722
144	0xbaa4785d	-0.0012548078
145	0xbd29fe62	-0.041502364
146	0xbbd50251	-0.0065005203
147	0x3d8e6232	0.06952323
148	0xbce14493	-0.027498519
149	0x3d5f18da	0.05446706
150	0xbc8ff22f	-0.017571537
151	0x3d10205d	0.035187114
152	0x3c887d26	0.016661238
153	0x3d764336	0.06012269
154	0xbde0260f	-0.10944759
155	0x3c8a3d43	0.016874915
156	0x3e15262a	0.1456534
157	0x3a96ade0	0.0011495911
158	0xbdcafbfb	-0.09911343
159	0x3e0dba63	0.13840632
160	0x3da792fa	0.081823304
161	0xbcce29a9	-0.02516635
162	0x3dd3b540	0.10337305
163	0x3d4f604f	0.050628956
164	0xbd465d29	-0.04842869
165	0x3d105030	0.035232723
166	0x3d8a139f	0.06742024
167	0xbdc0f00f	-0.094207875
168	0xbcaa52ff	-0.020791529
169	0xbcba41e7	-0.022736503
170	0x3ce259f8	0.027630791
171	0x3d00e83c	0.031471476
172	0x3d30d465	0.043171305
173	0x3d6a2f22	0.057173856
174	0x3d299856	0.041405044
175	0x3d027c9f	0.03185713
176	0xbd96bc83	-0.073601745
177	0xbc19bd83	-0.009383562
178	0xbc90c1dd	-0.017670566
179	0x3bc2ce35	0.005944992
180	0xbcc26b8c	-0.023732923
181	0xbbc86812	-0.006115922
182	0x3de2afa1	0.11068655
183	0xbd07d6d4	-0.03316386
184	0xbb30e50d	-0.0026991994
185	0xbbc4a3e6	-0.0060009835
186	0x3acc8b77	0.0015605529
187	0xbdcc1c69	-0.09966356
188	0x3d687b67	0.05675831
189	0x3d9c9ca3	0.076470636
190	0x3c1c6467	0.009545422
191	0x3cd3b334	0.025842287
192	0xbd7b4b90	-0.06135136
193	0xbdd4810f	-0.103761785
194	0x3c48adcb	0.012248467
195	0xbe5ce718	-0.2157253
196	0xbccedc20	-0.025251448
197	0x3d72c31e	0.05926811
198	0xbcdeb478	-0.027185664
199	0xbd1a7c04	-0.037715927
200	0xbce33600	-0.02773571
201	0x3d1ab84b	0.03777341
202	0xbdc67ddb	-0.09691974
203	0x3cd46f2a	0.025931913
204	0xbd54b1e3	-0.05192746
205	0xbd9c0c58	-0.07619542
206	0x3c3ccb19	0.011523032
207	0xbc263ac7	-0.01014585
208	0xbdd29d98	-0.10283965
209	0xbd518aac	-0.05115764
210	0xbd8a7d85	-0.06762222
211	0xbb447451	-0.0029976557
212	0x3cf5eec2	0.030021075
213	0x3c166e0c	0.009181511
214	0xbde007e4	-0.10939005
215	0xbb81075f	-0.0039376463
216	0xbddb6618	-0.10712832
217	0x3d09abd4	0.033611134
218	0xbe0ef640	-0.13961124
219	0xbccaa9cf	-0.024739174
220	0xbdc0870d	-0.09400759
221	0xbc2d0e7d	-0.010562536
222	0x3d80e57d	0.062937714
223	0xbdc593a6	-0.09647302
224	0xbc0bab93	-0.008524793
225	0x3ca1099e	0.019657906
226	0xbd2a4db0	-0.041577995
227	0xbe2fd465	-0.17170866
228	0xbd9efbd7	-0.077628784
229	0x3d3a3997	0.04546508
230	0x3d6ea761	0.058265094
231	0xbde7d267	-0.11319428
232	0xbdc1edeb	-0.094692074
233	0x3d10ea5a	0.035379745
234	0x3dc496ff	0.09599113
235	0xbd1c3e5b	-0.038145404
236	0xbd9bafa9	-0.07601864
237	0xbb09e242	-0.0021039401
238	0xbbfe2527	-0.0077558937
239	0x3ca9a2f2	0.020707581
240	0xbd3bee4c	-0.045881554
241	0xbcf8ea90	-0.030385286
242	0xbd6f6fa2	-0.05845607
243	0x3c5f24ef	0.0136196455
244	0x3d23fe66	0.040037535
245	0x3c6eceb6	0.014575651
246	0xbdc04f47	-0.09390121
247	0x3e035de6	0.12828788
248	0x3d141e72	0.036161847
249	0xba0d5209	-0.00053909473
250	0x3d292eeb	0.04130451
251	0xbdece230	-0.11566579
252	0x3d76de34	0.060270503
253	0xbcf2554a	-0.029581685
254	0xbd5b8b46	-0.05359962
255	0xbded41c6	-0.11584811

rnn.weight_ih_l1 f4 [384, 128]
0	0xbdca18ff	-0.09868049
1	0xbcec236a	-0.02882548
2	0xba2cea92	-0.0006596233
3	0xbcfa2e6e	-0.030539718
4	0x3d7a10a8	0.06105104
5	0xbd8aa851	-0.06770385
6	0x3d942e55	0.072354
7	0xbdaa76a3	-0.083234094
8	0x3d9e7c3d	0.0773854
9	0xbd4925c2	-0.049108274
10	0xbcc94476	-0.024568778
11	0x3c85dc7a	0.016340483
12	0x3bb2fba4	0.005462127
13	0x3d3a5042	0.045486696
14	0xbbbe1889	-0.0058012647
15	0x3bf54309	0.007484798
16	0x3d8406eb	0.06446632
17	0xbd7baf83	-0.061446678
18	0x3d58f0fa	0.05296419
19	0xbd41c4b1	-0.04730672
20	0x3d2ef99b	0.04271851
21	0xbd37b4f6	-0.044850312
22	0x3cc32f35	0.023826221
23	0x3d0dce73	0.034620713
24	0xbd5cf24d	-0.053942014
25	0x3dcb9977	0.099413805
26	0x3d5a3591	0.05327374
27	0x3d16c28f	0.03680664
28	0x3da5667f	0.0807619
29	0x3cb83e93	0.022490775
30	0x3ca16106	0.019699585
31	0xbd742eba	-0.059614874
32	0xbdc4733e	-0.09592293
33	0x3d52c00f	0.051452693
34	0xbd33fcfd	-0.04394244
35	0x3c9791ca	0.018502135
36	0xbc8a95cd	-0.016917134
37	0xbdb81132	-0.08987655
38	0x3d7ef7e7	0.062248137
39	0x3cb11bea	0.021619756
40	0xbda1a935	-0.07893602
41	0xbd52c27f	-0.051455017
42	0x3d3aeb07	0.045634296
43	0x3d8c20ca	0.068421915
44	0xbd413fa9	-0.04717985
45	0x3c1eaabd	0.009684262
46	0x3d57b495	0.05266245
47	0xbd0b9ae7	-0.034083273
48	0x3cab3226	0.020897936
49	0x3d749469	0.059711847
50	0xbc97f7a9	-0.01855071
51	0xb97cb643	-0.0002410049
52	0xbd8d0cd7	-0.06887215
53	0xbc9e81e1	-0.01934904
54	0xbd4503c7	-0.048099305
55	0x3d2f187f	0.04274797
56	0x3d891cfc	0.066949815
57	0x3ddf263d	0.10895965
58	0xbd4d8b3a	-0.050181605
59	0x3da47439	0.0802998
60	0xbca2a8f0	-0.019855946
61	0x3d2c51f6	0.04207035
62	0xbdb232e3	-0.08701112
63	0x3d4ed773	0.050498437
64	0xbbdffc38	-0.0068354867
65	0x3d7584c6	0.059941076
66	0x3db09b03	0.08623316
67	0x3df08730	0.11744535
68	0x3cf3edd8	0.029776499
69	0x3c4cae46	0.012492722
70	0x3c963030	0.018333524
71	0x3c90d03d	0.01767742
72	0xbdcbc768	-0.09950143
73	0x3dd0eac5	0.10201029
74	0xbd10bf47	-0.035338666
75	0xbd0587b8	-0.032600135
76	0x3d658b9d	0.05604135
77	0xbddac620	-0.106823206
78	0xbdcf12f0	-0.10111034
79	0xbd2fa602	-0.042882927
80	0x3aeb2e7a	0.0017942928
81	0x3d2a0908	0.04151252
82	0x3d791a20	0.06081593
83	0x3d0e7db2	0.03478784
84	0xbcd46df3	-0.025931334
85	0xbd89e9d4	-0.06734052
86	0x3d4f7318	0.05064687
87	0x3d1b3a66	0.03789749
88	0xbc8f1134	-0.017464258
89	0xbd40d23f	-0.047075506
90	0x3d245fe4	0.04013051
91	0xbd80e502	-0.0629368
92	0xbcb9fc18	-0.022703215
93	0x3d421565	0.047383685
94	0x3d68bda5	0.056821484
95	0x3d055530	0.032551944
96	0xbc0c2153	-0.008552867
97	0xbd95d352	-0.07315697
98	0x3d5436a3	0.051809918
99	0x3d543720	0.051810384
100	0x3d90d791	0.07072366
101	0xbca95619	-0.020670937
102	0x3d34864f	0.0440734
103	0x3cc89396	0.024484437
104	0xbc908c43	-0.017645007
105	0xbd6074cf	-0.054798897
106	0x3d79973b	0.06093524
107	0x3cc189ff	0.023625372
108	0x3cf5d48e	0.03000858
109	0x3d440a4f	0.047861394
110	0x3cad0fbf	0.021125672
111	0xbcaee75e	-0.021350559
112	0xbd2f9063	-0.042862307
113	0x3b9d3d81	0.0047985916
114	0x3dae8669	0.085217305
115	0x3ccff39d	0.025384719
116	0xbbf65c3f	-0.007518321
117	0x3d6d5240	0.057939768
118	0xbd290152	-0.041261025
119	0x3cd2fbb4	0.025754787
120	0x3d507de5	0.050901312
121	0x3d847fe2	0.06469704
122	0xbdb98777	-0.09059041
123	0xbd8efdca	-0.06982
124	0x3ae3f509	0.0017391752
125	0xbc086d5b	-0.008326854
126	0xbd4dedc5	-0.050275583
127	0xbda2af2b	-0.07943567
128	0xbd59ab60	-0.05314195
129	0xbd885212	-0.06656279
130	0xbc2cd7f2	-0.010549532
131	0xbdafe672	-0.08588876
132	0xbd084f20	-0.033278584
133	0xbd21329b	-0.0393549
134	0x3ddd6727	0.108106904
135	0xbcf13875	-0.029445866
136	0x3d27e9cd	0.040994454
137	0x3d1a895f	0.037728664
138	0x3ddbf8aa	0.10740788
139	0xbcbf1609	-0.023325937
140	0xbd2eabd3	-0.042644333
141	0xbd452ac5	-0.04813649
142	0xbb96e73a	-0.004605201
143	0xbdbf7b12	-0.09349646
144	0xbdb63530	-0.088968635
145	0x3b98afab	0.004659613
146	0xbc99f32b	-0.01879271
147	0xbdb27186	-0.08713059
148	0x3cde6e6d	0.027152264
149	0xbd0b6462	-0.03403128
150	0xbc54aa00	-0.012979984
151	0xbdd47e0b	-0.10375603
152	0x3d50a344	0.050936952
153	0xbb47659c	-0.0030425554
154	0x3c749bdc	0.014929738
155	0xbbf7b141	-0.007558972
156	0x3db13ec1	0.086545475
157	0x3c7d3249	0.015453883
158	0x3bf22011	0.0073890765
159	0x3de0fff8	0.10986322
160	0x3d5353ca	0.05159358
161	0xbcd25543	-0.025675422
162	0x3d424eb0	0.047438323
163	0xbcb1a6ab	-0.021685919
164	0x3db0b0f2	0.086275
165	0x3c3c7e8e	0.011504782
166	0xbd1f0f93	-0.038833212
167	0x3cefbbaf	0.0292643
168	0xbd0b529b	-0.034014326
169	0x3d494592	0.049138613
170	0xbd88ba0e	-0.06676112
171	0x3dad7362	0.08469273
172	0x3d92dd92	0.071711674
173	0xbd2837a0	-0.041068673
174	0x3d96520d	0.07339869
175	0x3c81b470	0.01583311
176	0x3c93a962	0.018025104
177	0x3cc81beb	0.024427375
178	0x3c436b80	0.0119274855
179	0x3cd15745	0.025554309
180	0xbc6fe6e9	-0.014642456
181	0x3d285e29	0.041105423
182	0x3db70f7c	0.089385
183	0x3ad0b316	0.0015922512
184	0x3ccb4fe2	0.024818365
185	0x3d85bb77	0.06529897
186	0xbdd0b667	-0.101910405
187	0x3d89e8f6	0.06733887
188	0x3c422fcc	0.011852216
189	0xbd20011d	-0.03906356
190	0x3d336b8c	0.043803737
191	0xbc56db04	-0.013113741
192	0xbc9f447d	-0.019441837
193	0xbda5029d	-0.08057139
194	0xbbcd8731	-0.0062722196
195	0x3d93cafb	0.0721645
196	0xbd66be0b	-0.056333583
197	0x3d83e9b2	0.06441058
198	0xbb955cfb	-0.0045582033
199	0xbc726068	-0.014793493
200	0xbc1b8120	-0.009491235
201	0x3c90d728	0.01768072
202	0x3d2a21ce	0.041536145
203	0xbca6a349	-0.020341532
204	0xbd4133d8	-0.047168583
205	0xbdbb91fa	-0.09158702
206	0xbdd08ddd	-0.10183308
207	0xbccd47a2	-0.025058571
208	0xbc2b82b0	-0.01046817
209	0x3d821cec	0.06353173
210	0x3d577b74	0.05260797
211	0xbd6eb930	-0.058282077
212	0xbd1465e8	-0.036229998
213	0xbd654823	-0.055976998
214	0xbd9c9892	-0.07646288
215	0x3d092f89	0.0334926
216	0x3b76cf88	0.003766032
217	0x3dcce2b9	0.100041814
218	0xbc8eb963	-0.017422384
219	0xbdae820e	-0.085209
220	0xbc9c016b	-0.019043645
221	0x3c1ebd1f	0.009688645
222	0xbccea2c2	-0.025224093
223	0xbc81dca9	-0.01585229
224	0x3dc8ad3c	0.09798667
225	0x3d3ef971	0.046624605
226	0x3a394231	0.0007067053
227	0x3d18a813	0.037269663
228	0x3d9a1332	0.075231925
229	0x3d8f1e0f	0.06988155
230	0x3cac87b2	0.021060798
231	0xbda3ebd2	-0.080039635
232	0xbd37edf1	-0.044904653
233	0x3d3cd2e3	0.046099555
234	0x3d0a9c71	0.0338406
235	0xbd49a343	-0.049227964
236	0x3d1b1018	0.037857145
237	0xbba6d5e9	-0.005091418
238	0xbcacdad1	-0.021100434
239	0xbca1f15b	-0.019768408
240	0xbdf275bc	-0.11838862
241	0xbd782ed3	-0.06059153
242	0x3d6e64c1	0.058201555
243	0x3d6bed40	0.057599306
244	0x3d861178	0.06546301
245	0x3dd374db	0.10325023
246	0x3d784de2	0.06062115
247	0xbd8919a9	-0.066943474
248	0xbdcbad05	-0.0994511
249	0xbcbc5a0e	-0.02299216
250	0xbde90e61	-0.11379696
251	0xbd07520f	-0.03303724
252	0x3d7e4a56	0.06208261
253	0x3d9b76b7	0.075910024
254	0xbd29041f	-0.041263696
255	0x3d9ca20f	0.07648098

rnn.weight_hh_l1 f4 [384, 128]
0	0x3d5a42af	0.05328625
1	0xbd446aa9	-0.04795328
2	0x3c549b53	0.012976485
3	0xbd95d333	-0.07315674
4	0x3d4d5aeb	0.050135534
5	0x3dd8e58e	0.10590659
6	0xbd9a5990	-0.07536614
7	0x3d54c6ae	0.05194729
8	0x3d4080b2	0.046997733
9	0x3d00c701	0.031439785
10	0x3d0bf69a	0.034170724
11	0x3c9a43e0	0.018831193
12	0x3d886a0c	0.06660852
13	0xbcaea0b4	-0.021316864
14	0x3da84680	0.08216572
15	0x3d1c06a1	0.03809226
16	0x3dc23bf5	0.09484092
17	0x3d421a1f	0.047388192
18	0x3d878607	0.066173606
19	0x3be6ce42	0.007043631
20	0xbd903a95	-0.07042424
21	0xbcdd3286	-0.02700163
22	0xbdd6dcd1	-0.10491336
23	0xbcf449f3	-0.029820418
24	0x3d8cc1ef	0.068729274
25	0x3d5399bc	0.051660284
26	0xbd3620bf	-0.044464823
27	0x3d22ef1f	0.039778825
28	0x3d391bfa	0.045192696
29	0xbd9366dd	-0.07197354
30	0xbca0ce9b	-0.019629767
31	0xbd65b85c	-0.056084022
32	0xbcfa8cc8	-0.030584708
33	0x3c517edf	0.012786596
34	0xbca2c6af	-0.01987013
35	0x3c8342e6	0.01602311
36	0xbdbe2f19	-0.09286327
37	0xbd81be48	-0.063351214
38	0xbc284ec3	-0.0102726845
39	0x3d36854a	0.044560708
40	0xbd858f3b	-0.0652146
41	0xbc8bfae2	-0.017087404
42	0xbc0553cf	-0.008137657
43	0xbd0416a8	-0.03224817
44	0xbdabfb34	-0.083975226
45	0xbdb2aa8b	-0.08723935
46	0xbd38fa9e	-0.045160882
47	0xbce666c3	-0.028125172
48	0x3db5b4a4	0.08872345
49	0x3bce5416	0.006296645
50	0xbd2824f0	-0.04105085
51	0xbda54ed5	-0.08071677
52	0x3ccdcae6	0.025121164
53	0xbc6b04e3	-0.014344427
54	0x3d471304	0.04860212
55	0x3d806f8f	0.06271278
56	0xbd4e513d	-0.050370444
57	0x3dba30f8	0.09091371
58	0xbccc45b5	-0.024935583
59	0xbd3bf657	-0.045889225
60	0x3d8a4179	0.06750769
61	0x3da1358a	0.0787154
62	0x3b88eab2	0.0041783685
63	0x3c4327eb	0.011911373
64	0xbc7a5537	-0.015279106
65	0x3d01a258	0.031648964
66	0x3db5953e	0.08866356
67	0xbd100884	-0.03516437
68	0xbcdc27c8	-0.026874438
69	0xbdcc9981	-0.09990216
70	0xbca4449a	-0.020052243
71	0x3d58b2e1	0.052904967
72	0xbcd9065f	-0.026492296
73	0xbdb519cd	-0.08842812
74	0xbd8644d6	-0.06556098
75	0xbc0dfcce	-0.00866623
76	0xbd1e7b7e	-0.03869199
77	0xbc0065e3	-0.007836792
78	0xbc431a91	-0.011908189
79	0xbc1a788c	-0.009428155
80	0xbd3f5c3c	-0.04671882
81	0xbde83953	-0.11339059
82	0x3d602c84	0.054729953
83	0xbd27f1d6	-0.041002117
84	0x3c9e1159	0.019295381
85	0x3ca47c21	0.02007872
86	0xbd96d3da	-0.07364626
87	0x3d988f94	0.0744926
88	0x3da61a2d	0.081104614
89	0xbd4cab03	-0.049967777
90	0xbcb12f24	-0.021628924
91	0x3d23d7a6	0.04000058
92	0x3b2b23ca	0.0026113861
93	0x3d04ea39	0.032449935
94	0xbd8906bb	-0.06690737
95	0xbc92e4b8	-0.017931327
96	0x3cf3c2eb	0.02975603
97	0xbd0ac5a7	-0.033879902
98	0x3cd06d58	0.025442764
99	0x3ca2b0c5	0.01985968
100	0xbc80835a	-0.015687633
101	0xbd5393b6	-0.05165454
102	0xbac0a137	-0.0014696483
103	0x3c8f5f13	0.01750139
104	0xbd0aae85	-0.03385784
105	0xbd451f9b	-0.048125844
106	0xbd3ff67e	-0.046865933
107	0x3da36ce1	0.079797514
108	0x3cc4a86d	0.024006093
109	0xbd7e1ce6	-0.06203928
110	0xb90c4a68	-0.00013379159
111	0x3cafb278	0.021447405
112	0x3d898ada	0.06715937
113	0xbd55af59	-0.052169178
114	0x3d80a8f6	0.06282227
115	0xbda80c8b	-0.082055174
116	0xbdf5cfd3	-0.1200253
117	0x3ce1e32e	0.027574148
118	0x3d499c0f	0.049221095
119	0x3b8a1013	0.004213342
120	0x3b85d0e2	0.0040837387
121	0xbd923377	-0.071387224
122	0x3d93a996	0.0721008
123	0xbd7eb409	-0.062183414
124	0xbb903d1d	-0.0044018165
125	0x3d639d02	0.055569656
126	0xbc5395d5	-0.012914141
127	0x3b58af69	0.0033063537
128	0x3ba32bd7	0.0049795914
129	0x3da7e5ae	0.08198105
130	0x3d4ca754	0.049964264
131	0xbd893ee4	-0.067014486
132	0x3d203143	0.03910948
133	0x3d8f9429	0.07010681
134	0xbd8c9586	-0.06864457
135	0x3d8e7fd3	0.06957974
136	0x3b82a1e0	0.003986582
137	0x3bc2490b	0.0059291176
138	0x3d18366c	0.037161276
139	0xbd262b86	-0.04056885
140	0xbd1258c2	-0.035729177
141	0x3d94dc70	0.072686076
142	0x3de6e583	0.11274245
143	0x3d4d5431	0.05012912
144	0x3c15cea7	0.009143508
145	0xbd80221a	-0.06256504
146	0xbb854a4c	-0.004067695
147	0xbdb965bf	-0.0905261
148	0xbde26bbc	-0.11055705
149	0xbd0d3f55	-0.034484226
150	0x3c52dc93	0.012869972
151	0xbd229973	-0.03969712
152	0x3d2c2101	0.042023662
153	0x3cc8ce62	0.024512473
154	0x3cee641f	0.029100476
155	0xbbc478c2	-0.0059958408
156	0xbddd6474	-0.108101755
157	0x3d507f22	0.050902493
158	0xbc118e17	-0.0088839745
159	0x3d4bcc1e	0.04975521
160	0xbdbba36e	-0.09162031
161	0x3d4566d8	0.048193783
162	0x3c9253b8	0.017862186
163	0xbdc3fd12	-0.09569754
164	0x3c319aef	0.010840162
165	0x3d44da96	0.048060022
166	0x3d691edc	0.056914195
167	0x3d1460fb	0.0362253
168	0x3dc10f7d	0.09426782
169	0x3d101cb7	0.035183635
170	0x3dc79812	0.09745802
171	0xbe05711d	-0.1303143
172	0x3d09c63f	0.033636328
173	0xbd937210	-0.0719949
174	0xbc9604f4	-0.018312909
175	0x3d99566e	0.07487188
176	0x3dc766ff	0.09736442
177	0x3d99346d	0.074807025
178	0xbd74a1f6	-0.05972477
179	0xbd31cf60	-0.04341066
180	0xbcfafd95	-0.030638495
181	0x3daf1bee	0.08550249
182	0xbb53bad5	-0.0032307405
183	0xbc84098d	-0.016117835
184	0xbd800374	-0.06250659
185	0xbc536fae	-0.0129050445
186	0x3d106b4f	0.035258587
187	0x3ba2cd77	0.004968341
188	0x3cdbfb06	0.026853096
189	0xbd080fa7	-0.033218052
190	0x3d295ca6	0.041348122
191	0x3d0ff969	0.035149965
192	0xbb3bd025	-0.0028658
193	0x3c820e27	0.015875889
194	0x3d95ea15	0.07320038
195	0x3ddafbc2	0.1069255
196	0xbd9723f8	-0.07379907
197	0xbd14ec9f	-0.036358472
198	0xbd24367e	-0.04009103
199	0x3c88d17d	0.016701454
200	0xbdcc0ae9	-0.099630184
201	0xbc5e4d1a	-0.013568187
202	0x3d197bcd	0.03747158
203	0xbd86565c	-0.065594405
204	0xbbf5caff	-0.0075010057
205	0xbcc700bf	-0.024292348
206	0xbd280e19	-0.04102907
207	0xbd19e1f0	-0.037568986
208	0xbd2f55b7	-0.042806353
209	0xbcc7d948	-0.0243956
210	0xbcb4d8b3	-0.022075986
211	0x3d279ce5	0.04092111
212	0xbc64d532	-0.013966845
213	0xbd89d073	-0.06729212
214	0x3d84ecfd	0.064905144
215	0x3ca7b6ab	0.020472845
216	0x3d4325e2	0.04764355
217	0xbb556f26	-0.003256747
218	0x3d2043c3	0.039127123
219	0x3c67318c	0.014110934
220	0xbd6a5cea	-0.057217516
221	0xbcd642bd	-0.02615487
222	0x3c4d558b	0.012532602
223	0x3d147bce	0.03625088
224	0x3dd278ed	0.10276971
225	0xbcdfc2b9	-0.02731453
226	0xbd3e66ef	-0.046484884
227	0x3d2bc018	0.04193124
228	0xbd07bbe6	-0.03313818
229	0xbd28b371	-0.041186754
230	0x3c33861b	0.010957266
231	0xbd69bac7	-0.05706289
232	0xbd25cf7b	-0.040481072
233	0x3d6bead2	0.05759699
234	0xbdd83664	-0.10557249
235	0xbc72bfd4	-0.014816243
236	0x3cbe14ec	0.023203336
237	0xbd77b5e8	-0.060476214
238	0x3cf072d5	0.029351631
239	0x3caea3ae	0.021318283
240	0x3ddf336a	0.10898478
241	0xbd8bfd58	-0.06835431
242	0x3d2edd76	0.04269167
243	0xbdedaf5b	-0.11605712
244	0x3d0a9bbd	0.03383993
245	0x3d73b83b	0.059501868
246	0xbb3c1f1e	-0.002870507
247	0x3d40d611	0.04707915
248	0x3dc08ef9	0.0940227
249	0xbce10f75	-0.02747319
250	0x3c6a47f4	0.0142993815
251	0x3d38b499	0.045094106
252	0xbdcfda23	-0.10149028
253	0x3a7b5a9c	0.0009588392
254	0xbd31d9f3	-0.043420743
255	0xbd8c8cea	-0.06862815

rnn.bias_ih_l1 f4 [384]
0	0xbd1a8e13	-0.03773315
1	0x3d9a0ba3	0.07521751
2	0x3db5f899	0.08885307
3	0xbc52e702	-0.012872459
4	0xbd94d9b1	-0.07268084
5	0x3c82bd79	0.015959488
6	0xbd973f02	-0.07385065
7	0x3d051c58	0.032497734
8	0xbb2cfe13	-0.0026396557
9	0x3daaab16	0.08333413
10	0xbcb36b0b	-0.021901628
11	0xbc3e2672	-0.011605846
12	0x3d69dde4	0.057096377
13	0xbd16cd86	-0.036817096
14	0xbc9c363f	-0.019068835
15	0xbcc2b1b7	-0.023766382
16	0xbd718cba	-0.058972098
17	0xbd17a02b	-0.037017982
18	0x3df13c8a	0.11779125
19	0x3d239c57	0.03994402
20	0x3d0a8bb4	0.033824638
21	0xbd8072aa	-0.062718704
22	0x3dd44afe	0.10365866
23	0xbb75d302	-0.0037509804
24	0x3d94c9a1	0.0726502
25	0x3d045dad	0.0323159
26	0xbb5fb202	-0.00341332
27	0xbd80b4e2	-0.06284501
28	0xbda292e6	-0.07938175
29	0x3c8d861c	0.017275862
30	0xbd542cf3	-0.05180068
31	0xbd576074	-0.05258222
32	0xbd92c213	-0.07165923
33	0xbd011df8	-0.03152272
34	0x3e280495	0.16407998
35	0xbd871697	-0.065961055
36	0x3d033078	0.032028645
37	0x3d697dd5	0.05700477
38	0xbc0df7d1	-0.008665041
39	0xbd4f1ef3	-0.050566625
40	0xbd16bf56	-0.036803566
41	0xbbdc0bb9	-0.0067152646
42	0xbc4715c0	-0.012151182
43	0xbd499e92	-0.04922349
44	0x3dcc5038	0.09976238
45	0x3dd657a2	0.104659334
46	0x3df295ea	0.11845
47	0xbd607040	-0.05479455
48	0x3d78e608	0.06076625
49	0x3d769dd2	0.060209103
50	0x3cbf2a24	0.023335524
51	0xbdc0f238	-0.094211996
52	0xbc98e1c6	-0.018662345
53	0xbc7b66a3	-0.015344295
54	0x3d8097e0	0.06278968
55	0xbcc86e4e	-0.02446666
56	0x3dc686e6	0.096936986
57	0xbd9b6422	-0.07587458
58	0x3d9e9040	0.07742357
59	0xbd8fb738	-0.07017368
60	0x3df652e3	0.12027528
61	0x3daf7384	0.08566955
62	0x3d09f56c	0.03368132
63	0x3d8f2b30	0.06990659
64	0x3dd64d4e	0.104639634
65	0x3df2e251	0.11859573
66	0x3c507bd4	0.012724835
67	0xbd6fe49f	-0.05856764
68	0x3b2c8956	0.0026326976
69	0xbcb3e999	-0.021961974
70	0x3c9acf7e	0.018897768
71	0x39e59ebd	0.00043796553
72	0xbc5452f0	-0.012959227
73	0xbd9b7e5d	-0.07592461
74	0x3cc13d98	0.02358894
75	0x3c14092c	0.00903539
76	0x3d0798f6	0.03310486
77	0x3d3b9e1b	0.045805078
78	0xbda5decf	-0.08099138
79	0x3d5f25d3	0.05447943
80	0xbd86d582	-0.06583692
81	0xbcb408cb	-0.021976849
82	0x3d631058	0.05543551
83	0x3d125ff9	0.035736058
84	0xbc893f55	-0.016753832
85	0xb8e7b919	-0.000110494155
86	0x3b416d7d	0.0029514723
87	0xbc90fe9d	-0.017699534
88	0x3cce07ba	0.025150169
89	0x3db4836a	0.08814128
90	0x3d7b4096	0.06134089
91	0x3dcec806	0.10096745
92	0x3d27b4e1	0.040943984
93	0x3de1ca38	0.11024898
94	0x3d0b5e13	0.034025263
95	0xbca23cca	-0.019804377
96	0x3ba34489	0.0049825353
97	0x3d246ca3	0.040142667
98	0xbd95965e	-0.07304071
99	0x3cd6a340	0.02620089
100	0xbc0a1a75	-0.008429159
101	0xbda1762b	-0.07883867
102	0xbaa0cdf7	-0.0012268414
103	0xbc849bb7	-0.016187532
104	0x3db2f9a2	0.0873902
105	0xbbde5af0	-0.006785743
106	0xbb0ff11d	-0.0021963783
107	0x3dc0137b	0.093787156
108	0x3bca2778	0.006169256
109	0xbb34ffb7	-0.0027618238
110	0xbd27e3fd	-0.04098891
111	0x3bd87efa	0.0066069337
112	0x3cc13f31	0.023589702
113	0x3bae6e05	0.005323174
114	0x3da1a1d1	0.07892192
115	0x3cc30bfc	0.023809426
116	0x3bd1a670	0.0063980147
117	0xbd834b5f	-0.0641086
118	0xbccd2a01	-0.025044443
119	0x3d9dc1e3	0.077029966
120	0x3dc45c5d	0.095879294
121	0x3c5c2909	0.013437518
122	0xbb4cbaf2	-0.0031239358
123	0xbdb64ed1	-0.08901752
124	0x3c7293eb	0.014805774
125	0xbd6b108c	-0.057388827
126	0x3c4c0746	0.012452906
127	0x3dabb9ea	0.0838507
128	0xbd16146c	-0.03664057
129	0xbcf3c6f6	-0.029757958
130	0xbdaddb84	-0.08489135
131	0xbdbcff2e	-0.09228359
132	0xbc444e16	-0.011981508
133	0xbbae178e	-0.0053128665
134	0xbd65ebd5	-0.05613311
135	0x3d76ca8f	0.06025177
136	0x3c0489ac	0.008089464
137	0x3d3c32c2	0.045946844
138	0xbd64972b	-0.055808228
139	0xbe07f7e4	-0.13278157
140	0x3d6e9c60	0.0582546
141	0xbd19183b	-0.037376624
142	0x3dbbf5b8	0.091777265
143	0xbd60a837	-0.054847922
144	0x3cb9ab1e	0.022664603
145	0xbc98a776	-0.01863454
146	0xbd4f44e9	-0.050602827
147	0xbda83c35	-0.082146086
148	0xbd62a04a	-0.055328645
149	0xbd8e7bfa	-0.069572404
150	0xbde4a580	-0.11164379
151	0xbd48743b	-0.04893897
152	0x3d81a7a5	0.06330804
153	0xbd685428	-0.056720883
154	0xbcc39aa6	-0.023877453
155	0xbdcecdae	-0.10097824
156	0xbcd5d0ee	-0.026100602
157	0xbc673230	-0.014111087
158	0x3d0594fd	0.03261279
159	0xbdd53718	-0.10410899
160	0xbc488c58	-0.012240492
161	0xbdc8fecc	-0.09814224
162	0xbdeef7bf	-0.116683476
163	0x3cabe8d6	0.020985048
164	0xbd2e3ee8	-0.04254046
165	0xbdd7f189	-0.10544116
166	0xbdd0d4bd	-0.101968266
167	0xbd8be50a	-0.06830795
168	0xbd4bbe95	-0.0497423
169	0xbe0aae85	-0.13543136
170	0xbcbf8df8	-0.023383126
171	0xbd4adb78	-0.049525708
172	0x3d04760f	0.032339152
173	0xbca7eda8	-0.020499066
174	0xbcf6c6fa	-0.030124176
175	0x3cca3f87	0.024688495
176	0x3d1b03cb	0.037845414
177	0xbd26d75d	-0.04073273
178	0xbd5b787f	-0.05358171
179	0xbdc7e01e	-0.09759544
180	0xbdfcc57b	-0.12342354
181	0xbb85ef26	-0.0040873466
182	0xbdd4536b	-0.10367473
183	0x3d2dda47	0.042444494
184	0xbba08e51	-0.004899778
185	0xbd96e955	-0.07368723
186	0xbd36b811	-0.044609133
187	0xbd25584c	-0.04036741
188	0xbdeac66a	-0.11463626
189	0xbdb67689	-0.089093275
190	0xbdb014f7	-0.08597749
191	0x3d17fbf9	0.037105534
192	0xbd22ce6d	-0.039747644
193	0xbdd16552	-0.102244034
194	0xbd4e2ac6	-0.05033376
195	0xbdd07588	-0.10178667
196	0x3c038c1f	0.008029013
197	0xbdef14c9	-0.11673886
198	0xbc00b1cf	-0.007854893
199	0xbd94ef96	-0.0727226
200	0xbb9bebe5	-0.0047583454
201	0x3a8677b8	0.0010259068
202	0x3da6cfee	0.08145128
203	0x3acca122	0.0015611986
204	0xbd76d7ef	-0.060264524
205	0x3c578d03	0.013156178
206	0x3cc165c0	0.023608088
207	0x3d62cdad	0.05537193
208	0xbd897b16	-0.0671293
209	0xbdf3ad20	-0.11898255
210	0xbcf52942	-0.0299269
211	0xbe1311cc	-0.14362258
212	0x3d5719e2	0.05251492
213	0xbd73c018	-0.059509367
214	0xbd52cf21	-0.051467065
215	0x3d8a6f09	0.067594595
216	0xbd875fb7	-0.06610053
217	0x3b6abed0	0.00358193
218	0x3d055f24	0.032561436
219	0xbd3efbce	-0.04662686
220	0xbdb61267	-0.08890229
221	0x3da5cfe7	0.08096295
222	0xbb0f9673	-0.0021909743
223	0xbd7efb95	-0.062251646
224	0x3a84b4d4	0.0010124692
225	0xbd69820e	-0.057008795
226	0xbd9210fc	-0.07132146
227	0x3d2b4d3c	0.041821703
228	0xbcfc6bd9	-0.030813145
229	0xbcdb3947	-0.02676071
230	0x3d421c6c	0.047390386
231	0xbdced9a9	-0.10100109
232	0xbd80eff8	-0.062957704
233	0x3d61f8b7	0.055168834
234	0xbc3f745c	-0.011685457
235	0xbba11731	-0.0049160947
236	0xbd0bfc3c	-0.034176096
237	0xbdccf7ad	-0.10008178
238	0x3d0214eb	0.03175823
239	0x3c8e1fbe	0.01734912
240	0xbd62e77f	-0.055396553
241	0xbd59809f	-0.05310118
242	0xbd9beccb	-0.07613524
243	0x3ae38a90	0.001736002
244	0x3c97faed	0.018552268
245	0x3d04ed01	0.032452587
246	0x3ca11479	0.019663082
247	0xbdd9d272	-0.106358424
248	0xbdce5325	-0.10074452
249	0x3d0824f4	0.033238366
250	0x3d04b993	0.03240354
251	0x3d0278b9	0.03185341
252	0x3ac07322	0.001468275
253	0xbc92533b	-0.017861953
254	0xbde25210	-0.110508084
255	0x3c53bc5a	0.0129233245
