16 - Recurrent Neural Network/model/jkse/weights_100.pth (torch, 539823 bytes, 17 tensors)

rnn.weight_ih_l0 f4 [256, 1]
0	0x3d3fba15	0.04680832
1	0xbdd910d4	-0.10598913
2	0x3da76abc	0.08174655
3	0xbce9f120	-0.02855736
4	0x3d16a1fc	0.036775574
5	0xbd4c9698	-0.049948305
6	0x3e31e5ca	0.17372814
7	0xbd64bf61	-0.055846576
8	0xbd103c69	-0.03521386
9	0xbce0c1fa	-0.027436245
10	0x3b97ecf5	0.004636402
11	0x3d8e8b9a	0.06960221
12	0x3d1be77e	0.038062565
13	0xbdcc57e3	-0.099777006
14	0xbc800974	-0.015629508
15	0x3d0f2f5f	0.034957286
16	0x3da7c2e9	0.08191473
17	0x3d893017	0.066986255
18	0x3dc21a80	0.09477711
19	0xbd4e56f5	-0.050375897
20	0x3dd122e1	0.10211731
21	0xbddf9d7b	-0.10918709
22	0xbd4a41fd	-0.049379338
23	0xbb7deb16	-0.0038744858
24	0x3c88b3da	0.016687322
25	0xbe0ec5d7	-0.13942657
26	0x3d56c172	0.052430578
27	0xbc89391d	-0.016750867
28	0x3da10582	0.07862379
29	0xbd03c68b	-0.032171767
30	0x3d84a02c	0.06475863
31	0xbe085884	-0.13315016
32	0x3df7d3bf	0.12100934
33	0xbd753f82	-0.05987502
34	0xbcfc71fc	-0.03081607
35	0x3ce5fd98	0.028075024
36	0xbdd34d98	-0.10317534
37	0xbd6c10ea	-0.057633318
38	0x3ddc206a	0.1074837
39	0xbd87ef30	-0.06637418
40	0x3d3215f7	0.04347798
41	0xbd3229c6	-0.04349687
42	0x3dd5e7b0	0.104445815
43	0x3cbdf39d	0.023187453
44	0x3e5317a6	0.2061449
45	0xbd9caa0b	-0.076496206
46	0xbd0c6349	-0.034274373
47	0x3dc01264	0.09378508
48	0x3db7652c	0.08954844
49	0xbc4e90e4	-0.012607787
50	0xbdb81ab7	-0.089894705
51	0xbd63c80a	-0.055610694
52	0x3d87ae05	0.066249885
53	0x3d8c53b9	0.06851906
54	0xbd364e61	-0.04450834
55	0x3dd6b111	0.104829915
56	0x3d14a7c7	0.036292817
57	0x3d47b4f2	0.048756547
58	0xbd8e8e3b	-0.06960722
59	0xbd8314f2	-0.064004794
60	0xbd6a7a1f	-0.05724537
61	0x3d5e6116	0.054291807
62	0x3e1d4994	0.15360099
63	0xbd3d35cb	-0.04619388
64	0xbdd69a59	-0.10478658
65	0xbd934caa	-0.07192357
66	0xbc82eaf5	-0.015981177
67	0x3b585e7b	0.00330153
68	0x3d5471d1	0.051866356
69	0xbdf2710a	-0.11837967
70	0xbcd5eaf7	-0.026113017
71	0x3e00ae85	0.12566574
72	0xbca0df33	-0.01963768
73	0x3dc3b11c	0.09555265
74	0x3d57d48f	0.052692946
75	0x3ce6e4fa	0.028185356
76	0x3be0b651	0.0068576713
77	0xbc02a909	-0.007974871
78	0x3dd65c3e	0.104668126
79	0xbcbb5eef	-0.022872416
80	0x3da9e6d7	0.08295982
81	0x3def8b17	0.11696451
82	0xbda16f5b	-0.078825675
83	0xbb63e9c4	-0.0034776786
84	0xbdbcd706	-0.092207
85	0xbd278060	-0.040893912
86	0xbdf865ed	-0.12128816
87	0xbdfac9ba	-0.122455075
88	0x3d9cf2cd	0.07663498
89	0xbd8c356c	-0.06846127
90	0xbd55858a	-0.052129306
91	0xbda32fb9	-0.07968087
92	0xbd83ae1f	-0.06429695
93	0xbca857d2	-0.020549688
94	0x3d20833b	0.03918765
95	0xbd3fffb8	-0.04687473
96	0x3dbd05fb	0.09229656
97	0xbb88471a	-0.0041588666
98	0x3c0976cd	0.008390141
99	0xbddbb450	-0.10727751
100	0x3d811079	0.0630197
101	0xbdc82cb3	-0.09774151
102	0xbd0592c9	-0.03261069
103	0xbc59c877	-0.013292423
104	0x3d74a275	0.059725244
105	0xbda981e0	-0.08276725
106	0x3c639555	0.013890584
107	0x3cc4e2dd	0.024033958
108	0xbd56091b	-0.052254777
109	0xbdbd53de	-0.09244512
110	0xbdcd89af	-0.10036027
111	0xbddb65ef	-0.10712802
112	0x3d7a6f0e	0.061141066
113	0x3d569d26	0.052395962
114	0xbb160042	-0.0022888337
115	0xbcdd83df	-0.02704042
116	0xbc5f53a0	-0.013630778
117	0xbb2b234a	-0.0026113563
118	0xbdf6c462	-0.12049176
119	0xbb9cce27	-0.0047853175
120	0x3ddd51f8	0.1080665
121	0xbda21ab9	-0.07915253
122	0xbc6ec65a	-0.014573658
123	0x3d7229fe	0.059122078
124	0x3dab5dee	0.08367525
125	0x3d0a320b	0.03373913
126	0x3dd69914	0.10478416
127	0xbd8100c2	-0.06298973
128	0xbe1a376f	-0.15060209
129	0xbd4832da	-0.04887662
130	0xbde8da1e	-0.113697276
131	0xbe2b8d4f	-0.16753124
132	0xbccf496f	-0.02530357
133	0x3d97ba1a	0.07408543
134	0x3d9663a9	0.073432274
135	0xbe16873d	-0.14700027
136	0x3df0cc4c	0.117577165
137	0xbde653fd	-0.11246488
138	0x3e2b107b	0.16705506
139	0x3dec23cf	0.115302674
140	0x3db5d474	0.08878413
141	0x3e110d90	0.1416533
142	0x3e149a61	0.14512016
143	0x3db5ddce	0.088801965
144	0x3d97ab23	0.074056886
145	0xbdcbd99c	-0.09953615
146	0xbe01b899	-0.12668075
147	0xbe1b2e55	-0.15154393
148	0xbe1ae140	-0.15124989
149	0x3de6a8e9	0.11262686
150	0x3d1eb43e	0.03874611
151	0xbe0f2918	-0.1398052
152	0x3dcbeba0	0.09957051
153	0xbd9ed7b2	-0.07755984
154	0xbdddcb42	-0.10829784
155	0xbdab3990	-0.083605886
156	0x3ddc78bc	0.10765216
157	0xbd7148cd	-0.05890732
158	0xbdd6f5e7	-0.10496121
159	0x3e0b40a5	0.13598879
160	0xbdaa58e2	-0.08317734
161	0xbbb34278	-0.00547057
162	0xbe0d61f6	-0.138069
163	0x3d70ebde	0.05881869
164	0xbd908c7a	-0.07058044
165	0x3d83ef90	0.06442177
166	0x3de9bfb0	0.114135146
167	0x3dd8c503	0.10584452
168	0xbe0d462f	-0.13796304
169	0x3da5ecac	0.08101782
170	0x3dbe1c4a	0.092827395
171	0xbdcfc809	-0.101455756
172	0x3dfe4b95	0.1241676
173	0xbd8efcb8	-0.06981796
174	0x3d3ec2db	0.046572547
175	0x3df10ca9	0.11769993
176	0xbdca8966	-0.09889488
177	0x3de84505	0.113412894
178	0x3df488bf	0.11940145
179	0xbdb15929	-0.08659584
180	0xbdcf2374	-0.10114184
181	0x3dd6b7c6	0.10484271
182	0xbe289bf1	-0.16465737
183	0x3e1540d8	0.14575517
184	0xbdc9d56a	-0.098551586
185	0xbb2f171b	-0.0026716653
186	0x3d142b49	0.036174092
187	0x3d2983b7	0.04138538
188	0xbdca6f24	-0.0988448
189	0xbdc0b816	-0.094101116
190	0xbd899de1	-0.06719566
191	0xbd29980a	-0.04140476
192	0xbdc5c1c8	-0.096561015
193	0x3dcabb0e	0.09898959
194	0x3d95be24	0.07311657
195	0x3ce81974	0.02833245
196	0xbdef0a06	-0.11671834
197	0x3dbf7fc2	0.0935054
198	0x3e472bb9	0.19450273
199	0x3dd162b4	0.10223904
200	0xbc9fb769	-0.019496636
201	0x3d6c4a73	0.057688188
202	0x3d81a4c4	0.06330255
203	0xbd10918d	-0.035295058
204	0xbd43f202	-0.04783822
205	0xbe07d6d5	-0.13265546
206	0xb91d20e4	-0.0001498494
207	0x3d283bbf	0.041072603
208	0x3b5e9585	0.0033963632
209	0x3d92e18d	0.07171927
210	0xbdec2dd4	-0.115321785
211	0xbd3dbaab	-0.0463206
212	0xbdd34e18	-0.103176296
213	0x3d588e3d	0.052870024
214	0xbdad51d6	-0.084628746
215	0x3da3470e	0.07972537
216	0xbdb8cacd	-0.09023056
217	0x3dad5258	0.084629714
218	0xbd90fbb3	-0.07079258
219	0xbd2ad968	-0.04171124
220	0xbd4a802b	-0.049438637
221	0xbdbb3226	-0.091404244
222	0xbca7fae2	-0.020505372
223	0xbdd53824	-0.104110986
224	0xbbec58a5	-0.0072127157
225	0xbe04107a	-0.1289691
226	0x3d1a4544	0.037663713
227	0x3d2124a9	0.039341602
228	0x3dd5af95	0.1043388
229	0x3d340b80	0.04395628
230	0x3dbbda22	0.09172465
231	0xbd73e75e	-0.05954682
232	0x3d2beb38	0.04197237
233	0xbd14ce82	-0.036329754
234	0x3d066b7e	0.032817356
235	0xbe07e06b	-0.13269202
236	0x3c23f8c9	0.0100080455
237	0xbd89dd29	-0.06731636
238	0x3ded5bd6	0.11589782
239	0xbdb67708	-0.08909422
240	0x3d50b958	0.050958008
241	0xbde8ce25	-0.11367444
242	0x3dc6dc45	0.09709982
243	0x3dc9cc1f	0.09853386
244	0xbc50ad50	-0.012736633
245	0xbe0e323e	-0.13886353
246	0x3def9df8	0.11700052
247	0xbdeb3399	-0.11484451
248	0x3d358c99	0.044323537
249	0xbe0232c3	-0.12714677
250	0x3d59d117	0.05317792
251	0xbd674e60	-0.05647123
252	0xbd80a71d	-0.06281874
253	0xbbcb8c3c	-0.0062117856
254	0x3dfb12e6	0.12259464
255	0x3dccf1f5	0.10007087

rnn.weight_hh_l0 f4 [256, 64]
0	0x3d0126b0	0.031531036
1	0x3d7dd59e	0.0619713
2	0xbc80df0a	-0.015731353
3	0xbcaa905f	-0.020820795
4	0xbcbf78a1	-0.02337295
5	0xbd1acfd2	-0.03779585
6	0x3dbd8b8c	0.09255132
7	0xbdfc84f4	-0.12330046
8	0x3b97b6b4	0.004629934
9	0xbded5619	-0.115886874
10	0x3ce66f29	0.028129177
11	0x3e09a920	0.13443422
12	0x3dd2d4e5	0.10294513
13	0x3b8baa98	0.0042622797
14	0x3dbde6cf	0.09272539
15	0xbde94c37	-0.1139149
16	0x3cf15cb0	0.029463142
17	0x3df1f759	0.11814756
18	0x3d5dcb9d	0.05414926
19	0xbd2241b3	-0.039613437
20	0x3d633780	0.05547285
21	0xbd920dc8	-0.07131535
22	0x3d89e948	0.06733948
23	0x3d8a743f	0.067604534
24	0x3d817a47	0.06322151
25	0xbc1f1f35	-0.00971203
26	0xbda72f18	-0.08163279
27	0x3d794bbf	0.060863253
28	0x3d941f97	0.07232588
29	0xbc392cf0	-0.011302218
30	0x3db6db49	0.08928544
31	0xbd87e1a2	-0.06634833
32	0xbcb9b337	-0.022668464
33	0x3db48399	0.08814163
34	0x3dc2c918	0.09511012
35	0xbdee1109	-0.11624343
36	0xbdd9d51d	-0.10636351
37	0x3df167ef	0.11787402
38	0xbcb7366b	-0.022364816
39	0xbdba4180	-0.090945244
40	0x3cadf709	0.02123596
41	0x3d8309f0	0.0639838
42	0x3dad9e50	0.08477461
43	0xbd4c3a7d	-0.049860466
44	0x3d3c4637	0.0459654
45	0x3d4d3680	0.050100803
46	0x3cdec2ab	0.027192434
47	0x3c00b7d5	0.007856329
48	0xbd794529	-0.060856972
49	0xbd978178	-0.07397741
50	0x3975464d	0.0002339121
51	0xbda964c0	-0.0827117
52	0xbd98376d	-0.07432447
53	0xbde6c31e	-0.112676844
54	0x3c82599b	0.015911868
55	0xbd6d8bf1	-0.057994787
56	0x3d3954fd	0.045247067
57	0xbca227de	-0.0197944
58	0xbccf9ef9	-0.025344359
59	0xbd413c1d	-0.04717647
60	0xbe00610c	-0.1253702
61	0x3d9c98eb	0.07646354
62	0xbd934fab	-0.0719293
63	0xbdb5395c	-0.08848831
64	0xbd2cd859	-0.042198513
65	0xbd9a43a4	-0.07532433
66	0x3d6888c8	0.05677107
67	0xbd65cdf1	-0.056104604
68	0x3dc6fe2a	0.09716447
69	0xbdbe93fc	-0.093055695
70	0x3adda0df	0.0016908905
71	0x3c8ffaa8	0.017575577
72	0x3e0f054a	0.13966861
73	0xbd84aee3	-0.064786695
74	0xbcc343c9	-0.023836033
75	0x3e07baa8	0.13254797
76	0xbd5d4faa	-0.05403105
77	0xbdbfd242	-0.09366275
78	0x3db9d24b	0.09073313
79	0xbd8fe6ab	-0.07026418
80	0x3e002939	0.12515725
81	0xbbf5e24f	-0.0075037847
82	0xbcde6ed8	-0.027152464
83	0x3d06d3b0	0.032916725
84	0xbe0d7d4d	-0.1381733
85	0xbd0fed42	-0.035138376
86	0xbdb9286c	-0.09040913
87	0x3c5aa0df	0.013344019
88	0xbb54e763	-0.003248655
89	0xbe0ac549	-0.13551821
90	0xbdd4efe9	-0.10397322
91	0xbe073a5a	-0.13205853
92	0x3c670cea	0.0141022
93	0xbd8c459e	-0.06849216
94	0xbdf1c93e	-0.11805962
95	0xbd2119dd	-0.039331306
96	0x3d0050dc	0.031327114
97	0x3d00e236	0.03146573
98	0xbe1401ec	-0.14453858
99	0xbd52ae76	-0.05143591
100	0xbd2c3467	-0.042042162
101	0xbc344c9f	-0.011004596
102	0xbccda27f	-0.025101898
103	0x3deb2806	0.11482243
104	0xbd4256de	-0.047446124
105	0xbdce3e87	-0.1007052
106	0xbbb3f116	-0.005491386
107	0xbd9da333	-0.076971434
108	0xbdb6605f	-0.089051
109	0x3daa13f4	0.08304587
110	0xbc5581a4	-0.013031397
111	0x3c8b18e1	0.016979637
112	0xba2d6005	-0.00066137343
113	0xbd69e414	-0.057102278
114	0xbdc745a1	-0.097300775
115	0x3db3706c	0.08761677
116	0xbe075a67	-0.1321808
117	0xbcbb92f6	-0.022897225
118	0x3ce7ba74	0.02828715
119	0x3d02b265	0.03190841
120	0xbd9a72fe	-0.07541464
121	0xbd81cae6	-0.06337528
122	0xbe03fec5	-0.12890156
123	0x3a210f29	0.00061439216
124	0x3d7c7f9a	0.061645128
125	0xbd43c802	-0.047798164
126	0x3cdc62d4	0.026902594
127	0x3d87b2f1	0.06625927
128	0x3cac98be	0.021068927
129	0xbccb54fb	-0.024820795
130	0x3cd59f1b	0.026076844
131	0x3d15e82a	0.036598362
132	0xbda4cb81	-0.08046628
133	0x3bbd52ef	0.0057777087
134	0x3c23ac9d	0.009989885
135	0x3d7f205a	0.062286712
136	0xbc562b53	-0.013071853
137	0xbde79c50	-0.11309111
138	0xbc555913	-0.013021725
139	0x3dacd6c2	0.08439399
140	0xb8ae2573	-8.303942e-05
141	0xbdd8e10b	-0.105897985
142	0xbdcba911	-0.09944356
143	0x3d0d2494	0.03445871
144	0xbdcca4e5	-0.09992389
145	0xbda32fcd	-0.07968102
146	0x3c9681c1	0.018372418
147	0x3b1a2559	0.0023520796
148	0x3e094b32	0.13407591
149	0x3dcec6c5	0.10096506
150	0xbcac5c6a	-0.02104016
151	0x3dc527cc	0.09626731
152	0x3b70a36c	0.00367185
153	0x3d324807	0.043525722
154	0xbd859222	-0.06522013
155	0x3d3b5294	0.04573305
156	0xbdbd35d9	-0.09238786
157	0xbde747fb	-0.11293026
158	0xbd6cfa3a	-0.057855822
159	0x3d8a965c	0.0676696
160	0x3d1c1e1d	0.038114656
161	0x3dd6a0fd	0.10479925
162	0xbd391e06	-0.04519465
163	0x3d0dec09	0.03464893
164	0xbc96f3a2	-0.01842672
165	0xbde8d6ef	-0.1136912
166	0x3dd4ec58	0.103966415
167	0xbd87d864	-0.0663307
168	0xbdbb6741	-0.091505535
169	0x3e04dea9	0.12975563
170	0xbcf848a9	-0.030308085
171	0x3d953491	0.07285417
172	0xbdcca358	-0.09992093
173	0x3d859e90	0.06524384
174	0xbd30f235	-0.043199737
175	0xbdbc628f	-0.09198486
176	0x3dcfd310	0.10147679
177	0xbdcf82e4	-0.10132387
178	0x3d9e83cd	0.07739983
179	0xbd61856a	-0.055058874
180	0x3db5bdc4	0.088740855
181	0x3dbebb08	0.09313017
182	0xbd8cd17a	-0.06875892
183	0x3d8c48f9	0.06849856
184	0xbdc95150	-0.09829962
185	0x3c0d5018	0.008625053
186	0x3a80b676	0.0009820003
187	0x3c24c806	0.010057455
188	0x3db47001	0.088104255
189	0x3d0b87a4	0.034064904
190	0xbdff6044	-0.12469533
191	0x3dcd18e6	0.100145146
192	0x3c66e682	0.014093043
193	0x3db4c8f2	0.0882739
194	0xbb1d29b9	-0.0023981167
195	0xbd148590	-0.036260188
196	0xbde766b2	-0.112988845
197	0xbe01edb6	-0.12688336
198	0x3e05765f	0.13033436
199	0x3bc00b9f	0.0058607603
200	0x3c8a4d9e	0.016882714
201	0xbdc0871b	-0.09400769
202	0xbdbac0fc	-0.0911884
203	0x3ddb00f9	0.10693545
204	0x3d8533b0	0.06503999
205	0xbc8cb4df	-0.01717609
206	0xbd9f5d26	-0.077814385
207	0x3de679e7	0.1125372
208	0x3d42b0d7	0.04753193
209	0xbc84565a	-0.016154457
210	0x3da53dff	0.080684654
211	0xbaef3a01	-0.001825154
212	0xbdb1dcba	-0.086846784
213	0xbd9ef243	-0.077610515
214	0x3d8327fb	0.0640411
215	0xbda37360	-0.079809904
216	0xbde1ac49	-0.11019189
217	0xbd497662	-0.049185164
218	0xbcce1e06	-0.0251608
219	0x3d538da6	0.05164876
220	0xbd0c5fbf	-0.034270998
221	0x3d9ee96a	0.07759364
222	0xbde38f7e	-0.11111353
223	0xbd17e661	-0.03708494
224	0xbddd1927	-0.10795813
225	0xbdd80c33	-0.10549202
226	0x3d34a4b5	0.04410239
227	0x3dd714dc	0.105020255
228	0x3dc5c078	0.09655851
229	0x3c6e25d4	0.014535386
230	0x3d70994e	0.058739953
231	0x3d3b7050	0.045761406
232	0x3d25cd6e	0.040479116
233	0x3df2c790	0.1185447
234	0xbd399c8b	-0.045315307
235	0x3c02e900	0.007990122
236	0x3d174710	0.036933005
237	0x3df08311	0.11743749
238	0xbc6a58b2	-0.014303373
239	0xbd90c4db	-0.07068797
240	0xbd8b44e3	-0.068002485
241	0x3cbb2a3b	0.022847285
242	0x3d4e5785	0.050376434
243	0x3e00f4e9	0.12593426
244	0xbd7c0b81	-0.06153441
245	0xbda00f88	-0.07815462
246	0xbcf046c5	-0.02933062
247	0x3d983d5f	0.074335806
248	0xbdb06e2f	-0.08614766
249	0xbd8550a9	-0.06509525
250	0x3bbe2cee	0.005803696
251	0xbdd74620	-0.10511422
252	0xbdd75d15	-0.10515801
253	0xbb17127b	-0.0023051787
254	0x3d2c2fb9	0.0420377
255	0xbc8c1407	-0.017099394

rnn.bias_ih_l0 f4 [256]
0	0x3cb0ecfc	0.021597378
1	0x3d810faf	0.063018195
2	0xbd6b56f5	-0.057455976
3	0xbce60359	-0.028077768
4	0x3dcd5ef5	0.10027877
5	0x3dc6e259	0.09711141
6	0xbd035ee3	-0.032072913
7	0x3dfd278b	0.12361058
8	0xbc7ae771	-0.015313969
9	0x3df81bab	0.12114652
10	0x3c9168ac	0.017750107
11	0x3bbf31d5	0.005834798
12	0x3ca5ed9e	0.020254906
13	0x3d18c365	0.037295718
14	0xbd589a65	-0.052881617
15	0xbd04d8c8	-0.0324333
16	0x3e33af0d	0.17547245
17	0x3dbed745	0.09318403
18	0x3dda60dd	0.106630065
19	0x3e0d005d	0.1376967
20	0x3ddde735	0.10835115
21	0x3cf1bf45	0.02951015
22	0x3db06860	0.08613658
23	0x3e21d23e	0.15802857
24	0x3d789e9b	0.060698133
25	0x3db5d849	0.08879144
26	0x3dd7d742	0.10539104
27	0xbda7a07d	-0.081849076
28	0xbd327044	-0.043564096
29	0x3bfcde3e	0.007716923
30	0x3e0aa0c4	0.1353789
31	0x3c97460e	0.018466022
32	0x3d8a3983	0.06749251
33	0x3d27fa30	0.04101008
34	0xbd802b83	-0.06258299
35	0x3e293f0f	0.16527961
36	0x3d4b246a	0.049595274
37	0xbbef5e33	-0.0073049306
38	0x3b69a439	0.0035650863
39	0xbdc928da	-0.09822245
40	0x3dda0531	0.106455214
41	0xbd7cd122	-0.061722882
42	0xbd3a68f4	-0.045510247
43	0xbbe29eca	-0.006915902
44	0x3cfa9430	0.03058824
45	0x3dd5fa38	0.10448116
46	0xbc541554	-0.012944538
47	0x3a45a536	0.0007539572
48	0x3e196e93	0.14983587
49	0xbde82a75	-0.11336223
50	0x3e2221a6	0.15833148
51	0x3c83361f	0.016017018
52	0xbcab32e4	-0.02089829
53	0xbddbd1be	-0.107333645
54	0x3e700a1b	0.23441355
55	0xbd4ff2be	-0.050768606
56	0x3d7c02f2	0.061526246
57	0xbd754aeb	-0.0598859
58	0x3d4373c2	0.047717817
59	0xbba2e1d1	-0.004970767
60	0x3e0a9e2f	0.13536905
61	0x3e16b488	0.14717305
62	0xbd0be41d	-0.034153093
63	0x3db4bc09	0.08824927
64	0x3d03aa28	0.032144696
65	0xbddedbdb	-0.10881778
66	0x3def2a51	0.11677993
67	0x3de6175d	0.11234925
68	0xbb2304c0	-0.0024874657
69	0x3d836b2c	0.06416926
70	0xbd84f643	-0.06492283
71	0x3d69dbaf	0.057094272
72	0x3df0c3ee	0.117561206
73	0x3dee1617	0.11625307
74	0x3cf9a3cc	0.030473612
75	0x3d84df8b	0.0648795
76	0x3c12eca6	0.008967554
77	0x3d943747	0.07237106
78	0x3df28123	0.11841037
79	0x3cdaf217	0.026726766
80	0x3e036bdb	0.12834112
81	0x3cd633d6	0.026147764
82	0x3d6a03f3	0.057132673
83	0x3b92c721	0.0044793044
84	0xbc127088	-0.008937962
85	0x3d80710f	0.06271564
86	0x3d87eaf2	0.06636609
87	0xbd68fb58	-0.056880325
88	0x3dc7255c	0.097239226
89	0x3c33b48a	0.010968337
90	0xbcfff1f7	-0.031243308
91	0x3de4d0dd	0.1117265
92	0x3dc25e71	0.094906695
93	0x3cb5597d	0.022137398
94	0x3b76141a	0.0037548603
95	0x3c7b01b2	0.015320228
96	0x3da61d5d	0.08111069
97	0x3dd27de9	0.10277922
98	0x3df83276	0.12119
99	0x3dc6b304	0.09702113
100	0xbda0ba73	-0.07848062
101	0x3d19b7e7	0.0375289
102	0x3d616087	0.055023696
103	0x3d7a9012	0.061172552
104	0x3de35aad	0.111012794
105	0x3d9517c8	0.072799265
106	0x3de2db4e	0.11076985
107	0xbdd5314b	-0.104097925
108	0xbd592226	-0.053011082
109	0xbc980d61	-0.018561067
110	0x3d8b0368	0.06787759
111	0xbc978645	-0.018496642
112	0x3e0656a8	0.13118994
113	0xba5dbaf2	-0.0008458338
114	0x3d8689e0	0.06569266
115	0xbdb74274	-0.08948222
116	0x3c030f5e	0.007999269
117	0xbdbe2c39	-0.092857786
118	0x3ca8f214	0.020623244
119	0xbd905f79	-0.0704946
120	0x3af3e5b3	0.0018607884
121	0x3d03a32a	0.032138027
122	0xbcc7940f	-0.024362592
123	0xbd81a450	-0.06330168
124	0xbde65a6a	-0.11247714
125	0x3c8ff984	0.017575033
126	0xbc8e9715	-0.017406026
127	0x3dad4236	0.08459894
128	0x3d975e02	0.073909774
129	0x3dbeea89	0.09322078
130	0x3db80015	0.08984391
131	0x3cc2967f	0.023753403
132	0x3da25acf	0.079274766
133	0xbddee22b	-0.10882982
134	0x3df387d6	0.11891143
135	0xbda2135d	-0.079138495
136	0x3da9114b	0.082552515
137	0x3ce7ca05	0.028294573
138	0xbde48d0e	-0.111597165
139	0x3d5b4db9	0.05354092
140	0x3d72bc91	0.059261862
141	0xbd34b779	-0.044120286
142	0x3d9ca52c	0.076486915
143	0x3e113a7a	0.14182463
144	0x3cdf9f66	0.027297687
145	0xbe09fb94	-0.13474876
146	0x3d2ca902	0.042153366
147	0x3cfb7641	0.030696036
148	0x3d76c12e	0.060242824
149	0xbd554065	-0.052063365
150	0xbdf20d00	-0.11818886
151	0xbc3022b2	-0.0107504595
152	0xbdb37bef	-0.08763873
153	0x3ddbbed1	0.10729755
154	0x3d048a4d	0.032358456
155	0x3cc8fa10	0.024533302
156	0xbc254ef2	-0.010089623
157	0x3d2db699	0.042410467
158	0xbdd1518c	-0.10220632
159	0xbe052b04	-0.1300469
160	0xbd07395e	-0.033013694
161	0xbdf0d8d9	-0.117601104
162	0xbdc44df3	-0.0958518
163	0x3dff6a7f	0.124714844
164	0x3e06424d	0.13111229
165	0xbd4353bd	-0.04768728
166	0xbcab8549	-0.020937579
167	0xbd626a5f	-0.055277225
168	0x3c421fe1	0.011848421
169	0x3cfbf932	0.030758474
170	0xbd86bc67	-0.06578904
171	0xbcc17919	-0.023617314
172	0x3dd2d560	0.10294604
173	0xbd1f9246	-0.038957857
174	0x3da70e8b	0.08157071
175	0x3cb98fcc	0.022651576
176	0xbd5a9f37	-0.053374495
177	0xbc376f2c	-0.011195939
178	0xbdc6e462	-0.09711529
179	0x3dd65da9	0.10467083
180	0xbdc9b450	-0.09848845
181	0xbdc30e9a	-0.095242694
182	0xbdd9379c	-0.1060631
183	0x3d1e8d98	0.038709253
184	0xbd19cc77	-0.03754851
185	0xbd100ce4	-0.035168543
186	0x3d8c789e	0.068589434
187	0x3d8c68e9	0.068559475
188	0x3d25ae51	0.040449444
189	0x3cbbea0c	0.02293875
190	0xbdffb002	-0.12484743
191	0xbe098149	-0.13428225
192	0x3d048a4c	0.032358453
193	0x3d9e5487	0.07730966
194	0x3d2c5f8c	0.042083308
195	0xbd825d99	-0.063655086
196	0x3de76581	0.11298657
197	0x3e1939fc	0.14963526
198	0xbb92cf89	-0.0044803065
199	0x3de4ddc4	0.11175111
200	0x3e284647	0.16433059
201	0x3dfe73c2	0.12424423
202	0x3abf89ec	0.0014613247
203	0x3c5ff7be	0.013669906
204	0xbd2a3de8	-0.041562945
205	0x3c9a3101	0.018822195
206	0xbc7ce4a1	-0.015435369
207	0x3dd4d4d7	0.103921585
208	0x3bcfc21c	0.0063402783
209	0x3cafc0ae	0.021454182
210	0xbca96f4c	-0.020682953
211	0x3d2641ea	0.040590204
212	0x3de0469f	0.1095097
213	0x3da1375e	0.078718886
214	0xbdb62807	-0.08894353
215	0x3c81ab47	0.015828742
216	0xbcc55bd8	-0.024091646
217	0x3e0b8af0	0.13627219
218	0x3e3082f8	0.1723746
219	0x3da99871	0.08281029
220	0x3cb2b046	0.02181257
221	0x3dce5019	0.10073871
222	0x3e049d9e	0.12950751
223	0xbdbfefa3	-0.09371879
224	0xbd67f84a	-0.05663327
225	0xbcea6287	-0.028611435
226	0x3d7ca25d	0.06167828
227	0xbda0068f	-0.07813751
228	0x3d92df83	0.07171538
229	0x3e19f348	0.1503421
230	0xbdaaee87	-0.08346277
231	0xbc800d87	-0.01563145
232	0xbcf578c6	-0.029964816
233	0x3e0f0f28	0.13970625
234	0xbd0cea85	-0.034403343
235	0xbb0db350	-0.002162177
236	0x3e1ed8d0	0.15512395
237	0xbd55acbf	-0.052166697
238	0x3c44477a	0.011979932
239	0x3e20143c	0.15632719
240	0x3dcf1578	0.10111517
241	0xbd052460	-0.032505393
242	0x3cc5eacb	0.02415981
243	0xbc8c12e2	-0.017098848
244	0x3daeeca4	0.08541229
245	0xbda896d1	-0.08231891
246	0x3b124888	0.0022321064
247	0x3e2e8db6	0.17046246
248	0xbca97c0a	-0.02068903
249	0x3df5d623	0.12003734
250	0x3d84aca4	0.06478241
251	0x3d67f68e	0.056631617
252	0x3e0373db	0.12837164
253	0xbdb94306	-0.09045987
254	0x3d15e246	0.036592744
255	0x3e099c6e	0.1343858

rnn.bias_hh_l0 f4 [256]
0	0xbcd4ecc7	-0.02599181
1	0x3e086faf	0.13323854
2	0x3e0be0c5	0.13659962
3	0x3e0646fa	0.13113013
4	0x3da84281	0.082158096
5	0x3e00051c	0.12501949
6	0x3ccd60bf	0.025070546
7	0x3dec932f	0.115515105
8	0x3e3c4167	0.18384324
9	0x3d18b9d7	0.037286606
10	0x3d71ca85	0.05903103
11	0xbd56b27a	-0.052416302
12	0x3a723903	0.0009240063
13	0x3d4c1fec	0.04983513
14	0xbb82fd08	-0.003997449
15	0x3b82db89	0.003993456
16	0x3e2b0181	0.16699792
17	0x3e0781eb	0.13233154
18	0xbd395f57	-0.04525694
19	0xbd98085c	-0.074234694
20	0x3df89ef6	0.121396944
21	0x3c01fe51	0.007934169
22	0xba831d65	-0.0010003267
23	0x3cb0dc9e	0.021589573
24	0xbbbc454a	-0.0057455646
25	0x3e061d7e	0.13097188
26	0xbd2973d3	-0.041370224
27	0xbdb55f6c	-0.08856091
28	0xbba28694	-0.0049598906
29	0xbdab443a	-0.083626226
30	0x3d8c8efe	0.06863211
31	0x3da8b36e	0.082373485
32	0x3dc53ce2	0.09630753
33	0x3df60f20	0.120146036
34	0x3e284b7d	0.16435046
35	0xbb7941d2	-0.0038033617
36	0x3debea76	0.11519329
37	0x3db76db9	0.08956475
38	0x3d8c9d5c	0.068659514
39	0x3d771d0c	0.060330436
40	0xbd234006	-0.03985598
41	0x3dc648d3	0.09681859
42	0xbdbdc87c	-0.09266755
43	0x3cd85057	0.026405497
44	0x3e06da19	0.13169135
45	0x3e211054	0.15728885
46	0xbd951ef2	-0.07281293
47	0xbd99ad65	-0.075037755
48	0xbda6e7fc	-0.08149716
49	0x3d154693	0.036444258
50	0x3b398aea	0.002831156
51	0x3ceea4ea	0.029131372
52	0xbc9de714	-0.019275226
53	0x3cc17c56	0.023618858
54	0x3cab7a99	0.020932483
55	0x3cf0a0de	0.029373582
56	0xbccf78d8	-0.025326177
57	0x3da5a137	0.0808739
58	0xbd4f9bdd	-0.050685752
59	0x3d4cf6ba	0.050039984
60	0x3ddea21f	0.10870766
61	0xbd353db6	-0.044248305
62	0xbd1c9a7e	-0.038233273
63	0x3d91956d	0.07108579
64	0xbddc148e	-0.10746108
65	0x3d1d4612	0.038396902
66	0x3d8b1478	0.067910135
67	0x3d279abc	0.04091905
68	0x3ce2fa2f	0.027707187
69	0x3d9e165a	0.07719107
70	0xbe0732a2	-0.13202909
71	0xbcfef0d3	-0.031120693
72	0x3de3deb0	0.11126459
73	0x3cca0023	0.024658268
74	0xbd837b20	-0.064199686
75	0x3c740003	0.014892581
76	0xbdd2bf03	-0.10290339
77	0xbcc10a08	-0.023564354
78	0x3dea31bf	0.114352696
79	0xbd2037bb	-0.03911565
80	0x3ddad66b	0.10685428
81	0x3d6d82ff	0.057986256
82	0xbdecf189	-0.11569507
83	0x3d587f0f	0.052855548
84	0x3d70008c	0.05859427
85	0x3d676d8f	0.056500968
86	0xbddc8043	-0.107666515
87	0x3da6e67a	0.08149429
88	0xbbdf9238	-0.0068228506
89	0x3d41f95c	0.04735695
90	0xbcd9bf32	-0.026580427
91	0xbb7a462e	-0.0038188803
92	0xbcd4bac0	-0.025967956
93	0x3c8ac838	0.016941175
94	0x3cf21d1e	0.0295549
95	0xbc86a549	-0.016436236
96	0xbd977316	-0.07394998
97	0xbd3bc094	-0.045837954
98	0x3dafbb3f	0.08580636
99	0xbaa15076	-0.0012307304
100	0x3de0edd1	0.1098286
101	0x3d81f301	0.063451774
102	0xbcd16fc6	-0.025565993
103	0xbdde20f4	-0.10846129
104	0x3d0add8c	0.03390269
105	0xbe07ffd5	-0.13281186
106	0xbd205236	-0.039140902
107	0x3bbd8559	0.0057837185
108	0xbe05e010	-0.13073754
109	0x3df466e3	0.119336866
110	0xbcac87bf	-0.021060823
111	0xbd7c997f	-0.061669823
112	0x3bf742db	0.0075458116
113	0xbd99cc13	-0.07509627
114	0xbcdcd425	-0.026956627
115	0x3d3dc598	0.04633102
116	0xbdce9a8e	-0.10088073
117	0xbde42655	-0.11140124
118	0xbc7afcda	-0.015319074
119	0xbdadbec2	-0.0848365
120	0x3de051ac	0.10953078
121	0x3d2deb31	0.042460624
122	0xbdf5ee59	-0.12008352
123	0x3d82739a	0.063697055
124	0xbd54d234	-0.051958278
125	0x3e01f49f	0.12690972
126	0xbb1533ac	-0.0022766395
127	0xbdb50b26	-0.08840017
128	0xbd86e13e	-0.0658593
129	0x3d8450a3	0.06460693
130	0xbc920c33	-0.017828083
131	0xbdd69761	-0.10478092
132	0xbd45e272	-0.04831166
133	0x3cdef21e	0.02721506
134	0x3e08ae75	0.133478
135	0x3d3ad67a	0.045614697
136	0xbd7f06d2	-0.062262364
137	0xbdef884d	-0.11695919
138	0xbd785539	-0.06062815
139	0x3ded1619	0.115764804
140	0xbdd8709a	-0.10568352
141	0xbd271669	-0.040792856
142	0xbc9bcb4a	-0.019017834
143	0xbd21422d	-0.03936975
144	0xbd9d7ab3	-0.07689419
145	0xbd88e0b4	-0.06683484
146	0x3cd30f7e	0.025764223
147	0xbd12d03c	-0.03584312
148	0xbbee4d60	-0.0072724074
149	0xbda4ac31	-0.080406554
150	0xb8a3a712	-7.803565e-05
151	0xbdb7b192	-0.08969416
152	0x3d958d22	0.073023096
153	0xbc21a4ed	-0.0098659815
154	0xbdd65bd7	-0.10466736
155	0xbd242c81	-0.040081505
156	0xbde3b0a2	-0.111176744
157	0xbd8c8bcc	-0.06862602
158	0xbd90ba68	-0.07066804
159	0xbd96f146	-0.07370238
160	0x3d2471d4	0.040147617
161	0x3d80d9af	0.0629152
162	0x3bc6d120	0.00606741
163	0xbd82f693	-0.063946865
164	0x3db04eec	0.08608803
165	0x3da8847b	0.08228394
166	0xbdc2cc51	-0.095116265
167	0xbc1bd010	-0.009510055
168	0x3c48e426	0.012261426
169	0x3d323cff	0.0435152
170	0xbd1a7ad3	-0.03771479
171	0x3cc69c26	0.02424438
172	0x3deecc39	0.11660046
173	0xbd2db974	-0.04241319
174	0xbd560ef8	-0.05226037
175	0xb9ee9eee	-0.0004551331
176	0x3cda61b9	0.026657926
177	0xbddd39ba	-0.10802026
178	0x3de1e6d7	0.11030357
179	0x3d37e8ab	0.044899624
180	0xbc44d50e	-0.012013687
181	0xbca8730d	-0.020562673
182	0x3c015f40	0.0078962445
183	0xb882a343	-6.229293e-05
184	0xbd14c6a1	-0.03632224
185	0xbc46c22b	-0.012131254
186	0x3dfa5702	0.12223627
187	0x3db3df04	0.08782771
188	0xbdc51fbe	-0.09625195
189	0xbd16b270	-0.036791265
190	0xbe1aec46	-0.15129194
191	0x3d83751b	0.064188205
192	0x3ddab1d7	0.106784515
193	0x3df65eb9	0.12029786
194	0xbdc8bd26	-0.09801702
195	0x3dc16686	0.09443383
196	0x3bf9443a	0.00760701
197	0xbda66410	-0.08124554
198	0x3da8e494	0.08246723
199	0xbd972e08	-0.07381827
200	0x3e34b557	0.176473
201	0x3e208338	0.15675056
202	0x3b646171	0.0034848119
203	0x3e0cca32	0.13749006
204	0x3e0e7312	0.13911083
205	0xbcb8f7b1	-0.022579046
206	0xbd48ee72	-0.049055524
207	0xbca1b829	-0.019741135
208	0x3df65175	0.120272554
209	0x3bfc4634	0.0076987986
210	0x3e1267ec	0.14297456
211	0x3d8db769	0.06919748
212	0xbc836244	-0.016038068
213	0xbdaf2579	-0.08552069
214	0xbcf719a0	-0.030163586
215	0x3e5b2ac9	0.2140304
216	0xbc98920c	-0.018624328
217	0x3be33be9	0.006934632
218	0x3de11694	0.109906346
219	0x3d8ec7e0	0.06971717
220	0x3e1ffd96	0.15624079
221	0x3d0838b4	0.0332572
222	0x3d053db6	0.032529555
223	0x3db93484	0.0904322
224	0x3d57388b	0.052544158
225	0xbc73b9ad	-0.0148758115
226	0x3e1da360	0.15394354
227	0x3e25be12	0.16185787
228	0x3d6fcd95	0.058545668
229	0x3cece2a8	0.028916672
230	0x3df99dc3	0.12188294
231	0x3d70f660	0.05882871
232	0x3e2cf924	0.16891915
233	0xbdb028b3	-0.08601513
234	0xbdaa4d75	-0.08315555
235	0x3e028b62	0.12748483
236	0x3d2b0f07	0.041762378
237	0x3d99c3cc	0.075080484
238	0xbbc758a2	-0.006083564
239	0xbd60bcf0	-0.054867685
240	0x3da4d5c3	0.08048584
241	0xbdd428ca	-0.103593424
242	0xbcc82f68	-0.024436668
243	0x3ddbba7a	0.10728927
244	0x3d0e6b04	0.034770027
245	0x3e013a09	0.12619795
246	0x3e18766b	0.14888923
247	0x3e1c5542	0.15266898
248	0x3e20a447	0.15687667
249	0x3d2f7c1a	0.04284296
250	0x3cf91a03	0.030407911
251	0xbd9d09cf	-0.076678865
252	0xbd8015a6	-0.06254129
253	0x3cf48c1e	0.02985197
254	0x3da62d93	0.08114161
255	0x3dec7b81	0.11546994

rnn.weight_ih_l0_reverse f4 [256, 1]
0	0xbe014aef	-0.12626241
1	0xbdb4ab9b	-0.08821794
2	0x3d7f044f	0.06225997
3	0xbd5972a4	-0.053087845
4	0x3d83026c	0.06396946
5	0x3dd49326	0.10379629
6	0xbd06ffd4	-0.03295882
7	0xbdbebcc2	-0.093133464
8	0xbdb7fe48	-0.08984047
9	0x3e54605d	0.20739885
10	0x3db772e3	0.0895746
11	0x3e07652a	0.13222185
12	0x3e363b50	0.17796063
13	0x3a6b1919	0.00089682784
14	0xbdcfc56d	-0.10145078
15	0x3cc6556a	0.02421065
16	0xbd9bcda7	-0.076075844
17	0x3d917b53	0.071036
18	0xbe08141e	-0.13288924
19	0xbe12ce0e	-0.14336416
20	0x3d686060	0.056732535
21	0x3d2da794	0.042396143
22	0xbda089f8	-0.078388155
23	0x3da5f438	0.08103222
24	0xbd433fc5	-0.047668237
25	0xbd84cc70	-0.06484306
26	0x3cc8cb2d	0.024510944
27	0xbbe5ddb7	-0.007014956
28	0x3d80307d	0.062592484
29	0xbdb55846	-0.088547274
30	0x3ba348af	0.00498303
31	0xbdac9958	-0.084276855
32	0x3daa3d08	0.08312422
33	0xbe23236e	-0.15931484
34	0x3d0cbb92	0.03435857
35	0xbd24f4b2	-0.040272422
36	0x3e141a00	0.14463043
37	0x3ca6fb6d	0.020383561
38	0xbd2c1762	-0.042014487
39	0x3d1e93a2	0.038715012
40	0x3d551f13	0.052031588
41	0x3d56565a	0.052328445
42	0x3d94e48a	0.07270153
43	0x3dc33d89	0.09533221
44	0x3dbddf91	0.092711575
45	0xbdb31888	-0.08744913
46	0x3d462ab2	0.04838056
47	0xbdf87bca	-0.12132986
48	0x3d943f98	0.07238692
49	0x3e11bfe8	0.14233363
50	0xbe0525cf	-0.13002704
51	0xbde8d7cd	-0.11369286
52	0xbd141742	-0.036154993
53	0x3d3d0482	0.046146877
54	0x3d8687c1	0.06568862
55	0x3de17c74	0.11010066
56	0x3d8068ad	0.06269965
57	0xbd53607d	-0.05160569
58	0x3dabbfeb	0.08386215
59	0x3dc826eb	0.09773048
60	0x3dbe55da	0.09293719
61	0x3cb7510b	0.022377511
62	0xbd4e5c3d	-0.050380934
63	0xbd2c0e62	-0.042005904
64	0x3d316295	0.043306906
65	0xbd24e75b	-0.0402597
66	0xbd9c5a24	-0.076343805
67	0xbe1f04f1	-0.15529229
68	0x3cf6d3a9	0.030130224
69	0x3dddd72a	0.10832055
70	0xbdcf8c25	-0.10134152
71	0xbdc15708	-0.09440428
72	0xbb6c3777	-0.0036043802
73	0xbdae1a39	-0.08501095
74	0x3d7aca61	0.06122816
75	0x3c87da6e	0.016583648
76	0x3df46811	0.119339116
77	0x3dcc4e46	0.09975867
78	0x3d8c4a9a	0.068501666
79	0xbddb1257	-0.106968574
80	0xbdd7ad58	-0.105311096
81	0x3d9723fb	0.073799096
82	0xbdc129e5	-0.09431819
83	0xbb84adb1	-0.004049026
84	0xbdfaee53	-0.12252488
85	0xbdec545d	-0.115395285
86	0x3dbd1e0c	0.092342466
87	0xbdf48729	-0.11939842
88	0x3c8f82e6	0.017518472
89	0xbdbc5d92	-0.091975346
90	0x3cd8a8f7	0.026447756
91	0xbdafb771	-0.085799105
92	0xbd31d9f7	-0.043420758
93	0xbdd89b66	-0.10576515
94	0xbdc47e29	-0.09594376
95	0x3dbebbae	0.09313141
96	0xbdc72dc4	-0.09725526
97	0xbdc711f2	-0.0972022
98	0xbb1f2842	-0.002428547
99	0xbdd353d2	-0.10318722
100	0x3e0027a6	0.12515125
101	0xbd8b210e	-0.06793414
102	0xbd0b6061	-0.03402746
103	0xbdce6b28	-0.10079032
104	0x3dbe3781	0.0928793
105	0x3c6c4b88	0.014422305
106	0xbddbdfb1	-0.10736025
107	0xbce56716	-0.028003257
108	0xbe0cbf57	-0.13744865
109	0x3d0fdbf7	0.035121884
110	0xbd128e1d	-0.03578006
111	0xbdb6c08a	-0.08923443
112	0x3c76dbbd	0.015067038
113	0xbdb0f64a	-0.08640726
114	0xbd0f9bd7	-0.03506073
115	0xbd79d072	-0.060989805
116	0xbdddcd7c	-0.10830209
117	0xbd0b9532	-0.03407783
118	0x3c39d109	0.011341342
119	0x3daac3f5	0.08338157
120	0x3d4a88c9	0.049446855
121	0xbde08710	-0.10963261
122	0x3d92ce0f	0.07168209
123	0xbd5e8c4d	-0.05433302
124	0xbe05732e	-0.13032219
125	0xbdd720d6	-0.1050431
126	0x3dad8f6b	0.084746204
127	0x3d267c10	0.04064566
128	0x3cc2c017	0.023773236
129	0x3d268e2d	0.040662933
130	0xbddaaa55	-0.106770195
131	0x3cbc3430	0.022974104
132	0xbe0af280	-0.13569069
133	0xbd2865fd	-0.04111289
134	0x3d0ce72f	0.03440016
135	0xbde52b62	-0.11189915
136	0x3dc470dd	0.095918395
137	0xbe3b26cd	-0.1827652
138	0x3d2124a9	0.039341602
139	0x3df47cb9	0.119378515
140	0xbd55c525	-0.052189965
141	0xbdd331cf	-0.103122346
142	0xbdb0574d	-0.08610401
143	0xbdf0a8ce	-0.11750947
144	0xbd29f346	-0.04149177
145	0x3dd68ff9	0.10476679
146	0xbe07479b	-0.13210909
147	0xbdea047c	-0.114266366
148	0xbe08fc97	-0.13377605
149	0xbdb4297b	-0.08796974
150	0x3dff8998	0.12477416
151	0xbd96b8a4	-0.07359436
152	0xbd505053	-0.050857853
153	0xbe2699fc	-0.16269678
154	0xbdf7e0c4	-0.121034175
155	0x3e17f345	0.14838894
156	0xbdaa8208	-0.08325583
157	0x3dbf8c53	0.093529366
158	0xbe002f66	-0.12518081
159	0x3e061d90	0.13097215
160	0x3e211576	0.15730843
161	0x3d847d74	0.06469241
162	0xbe3783d6	-0.17921385
163	0x3d8c97e9	0.06864912
164	0x3e0aee9c	0.13567585
165	0xbe2569c2	-0.16153625
166	0x3daffdb8	0.08593315
167	0x3e167816	0.14694247
168	0x3d0564cd	0.032566834
169	0xbde8a041	-0.11358691
170	0xbd1fe9d2	-0.039041348
171	0xbdb73b18	-0.08946818
172	0x3e2bd84d	0.16781731
173	0xbcba4e49	-0.022742407
174	0x3e1c0d0b	0.1523935
175	0x3e04fc81	0.12986948
176	0xbdf1d22b	-0.118076645
177	0x3d79737e	0.060901158
178	0x3e02bec0	0.12768078
179	0xbdb65ca8	-0.089043915
180	0x3e146806	0.14492807
181	0x3db44252	0.08801712
182	0x3dd1541a	0.10221119
183	0xbe23f5ee	-0.16011783
184	0x3d4df88e	0.05028587
185	0x3e12aad6	0.14322981
186	0xbd1f78cf	-0.03893357
187	0x3de575fc	0.11204144
188	0x3cb7b5c4	0.02242554
189	0xbe13e570	-0.14442992
190	0x3d08820c	0.033327147
191	0xbdf8b1bf	-0.121432774
192	0xbe19361d	-0.14962049
193	0x3d8ad904	0.06779674
194	0x3d5f8cd9	0.054577682
195	0xbd625cb7	-0.0552642
196	0xbdab9b76	-0.08379261
197	0x3d50013e	0.050782435
198	0x3c941d21	0.018080296
199	0x3c96e0cb	0.018417737
200	0xbdcbe841	-0.09956408
201	0x3e373c30	0.17894053
202	0x3ba0b7c1	0.0049047177
203	0xbc2c5df2	-0.010520445
204	0x3e44ec16	0.19230685
205	0x3cf7c13f	0.030243514
206	0xbd8188a9	-0.06324894
207	0xbd2cd393	-0.04219396
208	0xbcdf2277	-0.027238114
209	0xbde51c65	-0.111870565
210	0xbe07bf0a	-0.1325647
211	0xbc5f8e1a	-0.0136447195
212	0x3dd64c1b	0.10463735
213	0x3d4b265d	0.049597133
214	0xbcab8a72	-0.02094004
215	0x3dba7466	0.091042325
216	0xbd922548	-0.07136017
217	0xbdd7327e	-0.105076775
218	0x3d7b8a8b	0.06141142
219	0x3da0c678	0.07850355
220	0xbd709478	-0.05873534
221	0xbdeb39da	-0.11485644
222	0xbd89f4f1	-0.06736172
223	0xbe1860c9	-0.1488067
224	0xbdaadd3b	-0.083429776
225	0xbd80a37a	-0.06281181
226	0x3cff454d	0.031160975
227	0xbb978cde	-0.004624947
228	0x3e29cdd7	0.16582428
229	0x3c71397a	0.014723176
230	0xbda43dba	-0.08019586
231	0xbdfe4495	-0.12415425
232	0xbc2d11d3	-0.010563332
233	0x3d0f3f94	0.034972742
234	0xbd8e087d	-0.06935213
235	0xbd078644	-0.03308703
236	0x3ae980f4	0.001781492
237	0x3d7d63df	0.061862823
238	0xbc12fa49	-0.008970805
239	0x3d831938	0.064012945
240	0x3d90b588	0.07065874
241	0xbd6bfbe3	-0.057613265
242	0xbc9ac837	-0.018894298
243	0x3d0fa78b	0.03507189
244	0xbd14d3e1	-0.036334876
245	0xbdf54ec2	-0.119779125
246	0x3c818bea	0.015813787
247	0x3def6622	0.11689402
248	0xbdf8cb42	-0.12148143
249	0xbb0a2e77	-0.0021084824
250	0xbc2d9e61	-0.0105968425
251	0xbde5804a	-0.1120611
252	0xbc1ad493	-0.009450096
253	0xbda643d6	-0.081184074
254	0xbdba86d8	-0.09107751
255	0x3c334534	0.010941792

rnn.weight_hh_l0_reverse f4 [256, 64]
0	0x3d9102c4	0.070806056
1	0x3c5c254f	0.013436629
2	0x3ce9d5c8	0.028544322
3	0x3c2c6e2b	0.010524313
4	0x3c94815e	0.018128093
5	0xbc1519f0	-0.009100422
6	0x3dd6ae73	0.10482492
7	0xbdc92443	-0.098213695
8	0xbdbf2d95	-0.09334866
9	0x3d9d5fd9	0.07684297
10	0x3dde0659	0.108410545
11	0xbdec3a90	-0.115346074
12	0x3dbbd438	0.09171337
13	0xbd2a5f20	-0.041594625
14	0xbd4ad7e2	-0.04952229
15	0xbcfd0a10	-0.030888587
16	0x3daba8c8	0.08381802
17	0x3ddfb40f	0.10923015
18	0xbd4bd7bb	-0.049766283
19	0x3dc1c2eb	0.09461006
20	0x3ddae6b8	0.10688537
21	0x3e00df2a	0.1258513
22	0x3d949ebe	0.0725684
23	0xbcdd3ae3	-0.027005618
24	0x3d8bdbd3	0.068290375
25	0xbdd38b2c	-0.10329279
26	0x3d51d71b	0.05123053
27	0xbc269a17	-0.010168574
28	0x3dc27831	0.09495581
29	0x3d84a1af	0.06476151
30	0x3d6a9e40	0.057279825
31	0xbd85840b	-0.06519326
32	0xbc1a58b4	-0.009420563
33	0xbd892839	-0.06697125
34	0xbdca857a	-0.0988874
35	0xbded7891	-0.11595262
36	0xbd6df981	-0.058099274
37	0xbcd5fe17	-0.026122136
38	0xbc0b9c70	-0.008521184
39	0xbdda9a39	-0.10673947
40	0xbdf2a10e	-0.11847125
41	0xbd9bdc20	-0.07610345
42	0x3dc9353d	0.098246075
43	0x3d7ec3c8	0.06219843
44	0x3d3856f6	0.045004807
45	0x3c2aa300	0.010414839
46	0xbd083e3a	-0.03326247
47	0x3d965ea3	0.07342269
48	0x3d83e734	0.06440583
49	0xbc7c9709	-0.015416869
50	0xbdfb07ac	-0.12257323
51	0xbd87919f	-0.06619572
52	0xbe0098df	-0.12558316
53	0x3d804bc7	0.062644534
54	0x3d62c562	0.05536402
55	0x3ddafc7e	0.1069269
56	0x3dc3e2a8	0.095647156
57	0xbd277e6d	-0.040892053
58	0xbd52df26	-0.051482342
59	0xbd825a33	-0.063648604
60	0x3cc71ad9	0.024304794
61	0x3d8720df	0.065980665
62	0x3de969d9	0.11397142
63	0x3d5d7fcc	0.054076955
64	0xbdb1e66e	-0.08686529
65	0x3d831e2d	0.0640224
66	0xbd2b9f95	-0.041900236
67	0x3d9f01f3	0.07764044
68	0x3dee394e	0.11632024
69	0xbcc6177e	-0.024181124
70	0x3dd5daef	0.10442149
71	0xbdb6e131	-0.089296706
72	0x3da7c390	0.081915975
73	0x3cd2cfe1	0.02573389
74	0xbc9568eb	-0.018238505
75	0xbdd01eb6	-0.10162108
76	0xbe05eaf3	-0.13077907
77	0x3def9ca0	0.11699796
78	0xbd3848e3	-0.044991385
79	0xbdf2b0a4	-0.11850098
80	0xbd871a9d	-0.06596873
81	0x3d63431c	0.055483922
82	0xbda661d4	-0.08124128
83	0x3d0dd548	0.03462723
84	0xbcd335a0	-0.025782406
85	0x3e10874b	0.1411411
86	0xbd9aa2a6	-0.07550554
87	0xbdbca7d2	-0.09211697
88	0x3dc50262	0.09619595
89	0xbd3d493d	-0.046212424
90	0x3e024b8a	0.12724128
91	0x3d1d62d4	0.038424328
92	0x3e0fec93	0.1405509
93	0xbd1c318f	-0.0381332
94	0x3d94b203	0.072605155
95	0xbc72d5d8	-0.014821492
96	0xbda67ad1	-0.08128894
97	0x3d7bc78b	0.061469596
98	0x3dea7d12	0.114496365
99	0x3d4eae96	0.050459467
100	0xbdcd19e8	-0.10014707
101	0x3bd56e9a	0.006513429
102	0x3d500066	0.05078163
103	0xbcb61035	-0.022224525
104	0xbdb57ffe	-0.08862303
105	0x3d0c1a3f	0.034204718
106	0x3d41a6b6	0.04727813
107	0xbc9934d0	-0.01870194
108	0x3c603bb3	0.013686108
109	0x3d90f20c	0.07077417
110	0xbdce62ff	-0.10077476
111	0xbdde0239	-0.10840268
112	0xbdbb427f	-0.091435425
113	0xbd094cc8	-0.03352049
114	0x3c860b6b	0.016362866
115	0x3ac0fee8	0.0014724405
116	0xbd1b2aca	-0.037882604
117	0x3d81ca8a	0.063374594
118	0x3da786d9	0.08180017
119	0x3dfd9920	0.12382722
120	0x3dcdba67	0.10045319
121	0xbda9501a	-0.08267231
122	0xbd07b886	-0.03313496
123	0xbe19cb78	-0.15019023
124	0x3d3db119	0.04631147
125	0x3d4acfdf	0.049514648
126	0x3dc7895b	0.09742995
127	0x3d87aaa2	0.066243425
128	0xbd55e3a4	-0.05221905
129	0x3c10e475	0.008843531
130	0x3d80ed36	0.062952444
131	0x3d512ef9	0.051070187
132	0x3dd732a4	0.10507706
133	0x3e0643c3	0.13111787
134	0x3d92f7a8	0.07176143
135	0x3bd8c956	0.006615798
136	0xbd6e28e2	-0.058144458
137	0x3ce65db5	0.028120855
138	0x3d863a39	0.06554074
139	0xbd577989	-0.05260614
140	0xbd80cbbf	-0.062888615
141	0xbd4403e7	-0.047855284
142	0xbce007c7	-0.027347459
143	0xbb33a2f1	-0.0027410353
144	0xbb1f918e	-0.0024348232
145	0xbd439886	-0.04775288
146	0xbd10db1f	-0.03536522
147	0x3de28bd3	0.110618256
148	0x3d90ca62	0.070698515
149	0xbd4ccd14	-0.050000265
150	0xbd8a1e97	-0.06744116
151	0x3dc78217	0.097416095
152	0xbcf9d08f	-0.030494956
153	0xbdc7b410	-0.09751141
154	0xbd601ea8	-0.054716736
155	0x3c4e0006	0.012573248
156	0x3dafa39e	0.085761294
157	0xbe07d5ec	-0.13265198
158	0xbdc49ced	-0.09600244
159	0xbdd0f18e	-0.10202323
160	0xbdde3a8b	-0.1085101
161	0x3cf70673	0.030154442
162	0x3cf8c842	0.030368928
163	0x3d7ca8f8	0.06168458
164	0x3ca34ed8	0.019935057
165	0xbd9a60a5	-0.07537965
166	0xbda80997	-0.08204954
167	0xbc419404	-0.011815075
168	0xbdd7fc23	-0.10546138
169	0x3cca79e4	0.024716325
170	0xbd03d33c	-0.03218387
171	0x3ddc32f4	0.10751906
172	0x3d6a93ee	0.057269983
173	0xbc96d478	-0.01841186
174	0xbd9b3744	-0.075789005
175	0xbd747ff2	-0.05969233
176	0x3dc52f89	0.09628207
177	0xbd18ba73	-0.037287187
178	0xbda9e01c	-0.082946986
179	0x3dd3b72d	0.103376724
180	0xbd1e67b4	-0.038673118
181	0xbcb0baa6	-0.021573376
182	0x3dde5a4f	0.10857069
183	0x3d9208f1	0.07130612
184	0xbb9085ec	-0.004410496
185	0x3db706c3	0.089368366
186	0x3cb5695a	0.022144962
187	0xbd980a06	-0.07423787
188	0xbc86e4a2	-0.016466442
189	0x3d0b98e7	0.034081366
190	0x3e0ceece	0.13762972
191	0xbd00ca9d	-0.031443227
192	0xbc311682	-0.010808589
193	0xbdde2c2b	-0.10848268
194	0xbda0fdcf	-0.0786091
195	0xbd838e09	-0.064235754
196	0xbd9be69f	-0.07612347
197	0xbbc4b695	-0.006003211
198	0xbd23e5d4	-0.040014103
199	0x3d5b33a0	0.05351603
200	0xbe1d7abe	-0.15378854
201	0xbd8c5b40	-0.06853342
202	0x3d5dd8f4	0.05416198
203	0xbdc1b639	-0.09458584
204	0xbd7e13c8	-0.062030584
205	0x3d95448d	0.07288466
206	0xbd5f9533	-0.054585647
207	0xbe1110cf	-0.14166568
208	0x3d279729	0.040915642
209	0x3d4a61f9	0.04940984
210	0x3da024b2	0.07819499
211	0x3d5d698e	0.054055743
212	0x3d4bf868	0.049797446
213	0x3de3003c	0.11084029
214	0xbc733886	-0.014845019
215	0x3c1cfbf5	0.009581556
216	0x3c246b81	0.010035397
217	0x3d9b11c7	0.0757175
218	0x3df6fa4b	0.12059458
219	0xbe21d353	-0.1580327
220	0x3e0a0e1f	0.1348195
221	0xbe0d1b23	-0.13779883
222	0x3da78b89	0.08180911
223	0xbdbffc16	-0.093742535
224	0x3d18fd89	0.037351165
225	0xbd197746	-0.037467264
226	0xbd1510bf	-0.036392923
227	0x3da25666	0.079266354
228	0x3d2e4d1a	0.042554
229	0xbcd55f04	-0.026046284
230	0xbc101ffe	-0.00879669
231	0x3da6e27b	0.081486665
232	0x3da7a618	0.08185977
233	0x3bcb44e4	0.0062032808
234	0x3cb7dda8	0.022444561
235	0x3dcb7950	0.09935248
236	0xbe33ba0f	-0.17551444
237	0xbdae5d4f	-0.08513891
238	0xbd7487bf	-0.05969977
239	0xbd27067d	-0.040777672
240	0x3e022748	0.12710297
241	0xbcd0798b	-0.025448581
242	0xbdd6cb4e	-0.10487996
243	0xbbfb6a6c	-0.0076725986
244	0xbd86efee	-0.06588732
245	0xbcf74224	-0.030182905
246	0x3e05d7a9	0.13070549
247	0xbacc8988	-0.0015604952
248	0xbd4d2770	-0.05008644
249	0xbc9bcd9b	-0.019018939
250	0x3e02e7f1	0.12783791
251	0xbb909ea1	-0.0044134413
252	0xbe1d6822	-0.15371755
253	0xbc12cb5f	-0.00895962
254	0x3cf58fb8	0.029975757
255	0x3c3d72cd	0.011563015

rnn.bias_ih_l0_reverse f4 [256]
0	0x3de78d2c	0.11306223
1	0x3dfc5d45	0.12322477
2	0xbc626945	-0.0138190435
3	0xbbeee912	-0.0072909677
4	0xbd8e27d6	-0.06941192
5	0x3e03375d	0.12814088
6	0x3caf78be	0.021419879
7	0xbda15753	-0.07877984
8	0x3d5c98b9	0.053856585
9	0x3e8701f2	0.26368672
10	0x3d6e87af	0.058234867
11	0x3e1d987f	0.15390204
12	0x3e06ec12	0.13175991
13	0x3d704e12	0.058668204
14	0xbc30737a	-0.010769719
15	0x3e06450b	0.13112275
16	0xbda89902	-0.08232309
17	0xbd1ef3ec	-0.03880684
18	0x3ce2b09a	0.0276721
19	0xbd827146	-0.063692614
20	0x3e226fb5	0.15862925
21	0xbc6840c4	-0.014175598
22	0xbc0ca780	-0.008584857
23	0xbde29d99	-0.110652156
24	0x3dc3622a	0.09540208
25	0xbcaf91a9	-0.02143176
26	0xbd4175ce	-0.047231488
27	0x3d73fcfa	0.05956743
28	0x3dbc6f05	0.09200863
29	0x3d0ba0c0	0.03408885
30	0xbc79b732	-0.015241431
31	0x3dc43714	0.09580818
32	0x3df1d08d	0.11807356
33	0xbc7289c8	-0.014803357
34	0xbc4633df	-0.012097328
35	0xbcfedc01	-0.031110765
36	0x3d8f0555	0.06983439
37	0x3d056d20	0.032574773
38	0xbde98bca	-0.11403616
39	0x3ca168c2	0.019703273
40	0x3d4e7b62	0.050410636
41	0x3e06eef0	0.13177085
42	0xbd9da63a	-0.07697721
43	0x3de9caed	0.11415658
44	0x3de7f023	0.11325099
45	0xbc0bfcc0	-0.008544147
46	0x3de1308b	0.10995587
47	0xbdd4f2cf	-0.103978746
48	0x3d17b39b	0.03703652
49	0xbd966007	-0.073425345
50	0x3de83f99	0.11340255
51	0xbd24dc8f	-0.040249404
52	0xbcb69a54	-0.022290386
53	0xbda5e4e9	-0.08100302
54	0xbc79351b	-0.015210415
55	0x3e596b3d	0.21232314
56	0x3dc9c20d	0.098514654
57	0x3e1621ed	0.14661379
58	0x3dd7f830	0.10545385
59	0x3d09b711	0.03362185
60	0xbda8ace4	-0.08236101
61	0x3d45c171	0.048280183
62	0x3cbaccca	0.02280273
63	0x3c6dbffb	0.014511104
64	0xbcd2223f	-0.025651095
65	0x3d8feaaf	0.07027184
66	0xbd68672c	-0.056739017
67	0x3def3936	0.11680834
68	0x3dae17c3	0.08500626
69	0x3ca425e0	0.020037591
70	0xbdb638a6	-0.088975236
71	0xbd5f12a5	-0.05446114
72	0x3df6a128	0.12042457
73	0x3c8505de	0.01623815
74	0xbdb1f73c	-0.08689734
75	0xbdbe5741	-0.09293986
76	0xbd3e7456	-0.046497665
77	0x3c0d2cc6	0.008616632
78	0x3e03cf36	0.12872013
79	0xbc33cc6c	-0.010974031
80	0xbd8907ca	-0.06690939
81	0x3e07633e	0.13221452
82	0x3db253d5	0.08707396
83	0x3ddefc22	0.10887934
84	0xbce9e290	-0.028550416
85	0xbd4608bf	-0.048348185
86	0xbc770ea3	-0.015079173
87	0x3d6d760f	0.057973918
88	0xbdbc33fd	-0.091896035
89	0x3d3bb67f	0.04582834
90	0x3d31c5f6	0.04340168
91	0x3cd4edf8	0.025992379
92	0x3dcdffb9	0.10058541
93	0x3e02e73e	0.12783524
94	0xbd3df239	-0.04637358
95	0x3d3973ac	0.04527633
96	0xbce2a515	-0.027666608
97	0x3d3053d7	0.043048706
98	0x3d1ed99f	0.03878176
99	0xbccf1f13	-0.025283372
100	0x3d356aaa	0.044291176
101	0x3d884d41	0.0665536
102	0x3cce656c	0.025194846
103	0x3d9e2e7b	0.07723709
104	0xbd57e20e	-0.052705817
105	0xbd71430e	-0.05890184
106	0xbd16c9f7	-0.036813702
107	0x3ddcb7fb	0.10777279
108	0xbd008aaf	-0.03138226
109	0x3dc8e9e0	0.09810233
110	0xbd271a27	-0.040796425
111	0x3d068ca4	0.03284897
112	0xbde948f9	-0.113908716
113	0xbaaa9af9	-0.0013016156
114	0x3d8efd83	0.06981947
115	0xbd19cead	-0.037550617
116	0xbc0b4488	-0.008500226
117	0x3dcff7de	0.10154699
118	0x3debae1e	0.115078196
119	0xbc936895	-0.017994205
120	0x3d8abb8f	0.06774055
121	0x3d1e3a6a	0.038629927
122	0xbdc460ef	-0.09588801
123	0xbdb31c3d	-0.087456204
124	0x3cf109af	0.029423563
125	0xbd398ad3	-0.04529841
126	0x3d693736	0.05693742
127	0x3e0418cd	0.12900086
128	0x3db98095	0.09057728
129	0x3d92442b	0.07141908
130	0xbd3cca14	-0.046091154
131	0x3cba0da0	0.022711575
132	0x3dad9a10	0.08476651
133	0x3d876910	0.06611836
134	0x3da42657	0.08015125
135	0x3db57ac7	0.088613085
136	0xbda0f349	-0.07858903
137	0xbd6da997	-0.05802306
138	0xbdfcbc00	-0.12340546
139	0x3d8eda8d	0.06975279
140	0xbdf1943f	-0.11795854
141	0xbd940e49	-0.07229287
142	0xbb0de32b	-0.0021650295
143	0xbdde13b6	-0.10843603
144	0xbd4987e0	-0.049201846
145	0xbd5d0f36	-0.053969584
146	0x3d9855f0	0.07438266
147	0x3b860adb	0.0040906495
148	0xba85d91e	-0.0010211801
149	0xb95d1c70	-0.00021086796
150	0x3dd1e87d	0.10249422
151	0xbc3fe52c	-0.011712354
152	0x3da6f3f0	0.08151996
153	0xbce76350	-0.028245598
154	0x3ddb4d30	0.10708082
155	0x3d900d4f	0.070337884
156	0x3db6742f	0.08908879
157	0xbd22dde4	-0.039762393
158	0xbc548cbc	-0.012973007
159	0xbd42b539	-0.04753611
160	0xbcdeb4b9	-0.027185785
161	0xbdf1cc48	-0.11806542
162	0xbcd2c0dd	-0.02572673
163	0xbd94f636	-0.072735235
164	0x3e2e4c3e	0.17021272
165	0xbdd47e32	-0.10375632
166	0x3c0a11e6	0.008427119
167	0xbda1f4b5	-0.07908002
168	0xbdda3ec4	-0.10656503
169	0xbc1b3f30	-0.009475514
170	0x3dcb84db	0.099374495
171	0x3d9cb47f	0.076516144
172	0x3db5247f	0.08844852
173	0x3dedeae0	0.116170645
174	0x3c1fd1d7	0.00975462
175	0x3c2b371c	0.010450151
176	0xbe0aa3ce	-0.13539049
177	0x3e165213	0.14679746
178	0xbdb3ebf1	-0.087852366
179	0xbd7970ef	-0.060898717
180	0xbd756e74	-0.05991979
181	0xbc2f1db2	-0.010688232
182	0xbda22c49	-0.07918603
183	0x3cca956e	0.024729457
184	0xbdb3a7ed	-0.08772264
185	0x3dacec56	0.08443515
186	0x3bc807fa	0.0061044665
187	0xbd6e6358	-0.05820021
188	0xbdd7f357	-0.1054446
189	0xbdbb433d	-0.09143684
190	0x3da9da5e	0.08293603
191	0xbce2b0ce	-0.027672198
192	0xbd5f393d	-0.054497946
193	0x3d161c34	0.03664799
194	0x3d175042	0.036941774
195	0x3d98eaf6	0.0746669
196	0x3c888de6	0.016669225
197	0xbca09fbf	-0.019607423
198	0xbcaba354	-0.020951904
199	0xbdde1a62	-0.10844876
200	0xbd873430	-0.06601751
201	0x3e46e74b	0.19424169
202	0x3c54f6b0	0.012998268
203	0x3e5dd492	0.2166312
204	0x3e430050	0.19043088
205	0xbd5e73a3	-0.0543095
206	0xbdaca886	-0.08430581
207	0x3de95ac1	0.11394263
208	0x3d72bffa	0.059265114
209	0xbb8a1f44	-0.004215153
210	0xbbef01d8	-0.007293921
211	0xbd2409f7	-0.040048566
212	0x3e47a658	0.19497049
213	0xbd35c4c7	-0.044377115
214	0x3d328715	0.043585856
215	0xbcf24b4c	-0.02957692
216	0x3e074a86	0.13212022
217	0xbd0e1e68	-0.034696966
218	0x3b405fd8	0.0029354002
219	0xbd8f456d	-0.06995664
220	0x3de51c66	0.11187057
221	0xbd87db93	-0.06633677
222	0x3b8d8bdf	0.0043196524
223	0x3d4c84fe	0.04993152
224	0x3e008f64	0.12554699
225	0x3dc345f5	0.095348276
226	0x3e3197e6	0.17343101
227	0xbd3a0dd6	-0.04542335
228	0x3e5b0955	0.21390279
229	0xbd3a5748	-0.045493394
230	0x3db8e8cd	0.09028778
231	0x3b7c1111	0.003846232
232	0x3e0ddb0a	0.13853088
233	0xbca1deeb	-0.019759616
234	0x3df60d44	0.12014249
235	0x3e19fd63	0.15038066
236	0x3deafe45	0.11474279
237	0xbd8ba709	-0.06818969
238	0x3dba3501	0.09092141
239	0x3dbc8991	0.09205926
240	0x3e1fe693	0.15615301
241	0x3dcdc0db	0.1004655
242	0x3d5b3357	0.05351576
243	0x3cb66961	0.022267045
244	0x3de18e4d	0.1101347
245	0x3d8eb162	0.06967427
246	0x3d7c5e4f	0.061613377
247	0x3e2c950b	0.1685373
248	0x3df357dc	0.11881992
249	0x3def7320	0.1169188
250	0xba98937c	-0.0011640633
251	0x3e050244	0.12989146
252	0x3e0df8d7	0.13864456
253	0x3cd2417a	0.025665987
254	0xbde189a9	-0.11012585
255	0x3d97e171	0.074160464
