16 - Recurrent Neural Network/model/jkse/weights_50.pth (torch, 539823 bytes, 17 tensors)

rnn.weight_ih_l0 f4 [256, 1]
0.052029755 -0.10799161 0.08730891 -0.028657436 0.039586775 -0.042637303 0.13702047 -0.0554918
-0.030517578 -0.03990271 0.010481117 0.047714557 0.043853316 -0.09353806 -0.0153644495 -0.0015150395
0.101773225 0.008691519 0.10121123 -0.045290608 0.1069831 -0.10459052 -0.046055492 -0.023384532
0.02156216 -0.13401468 0.052090805 -0.01418048 0.08952438 -0.031772498 0.03777681 -0.12812793
0.12401479 -0.057278816 -0.03173363 0.025298202 -0.10591148 -0.056838542 0.11279647 -0.060839377
0.049895562 -0.06651632 0.11045874 0.027493432 0.17415456 -0.098780945 -0.03492329 0.096921615
0.09163888 -0.007510962 -0.08766619 -0.05028361 0.0564235 0.07412609 -0.056693938 0.1085851
0.029346598 0.049625747 -0.0815048 -0.08309718 -0.056473654 0.05766083 0.10527503 -0.05941206
-0.10143101 -0.07226783 -0.010549907 0.006405239 0.054673035 -0.11673499 -0.03031517 0.12950471
-0.013183505 0.10196441 0.055474687 0.033537313 0.009297137 -0.004479213 0.11040322 -0.02497658
0.095182516 0.09860501 -0.07525819 0.0009531331 -0.09015463 -0.038291384 -0.1206039 -0.11837076
0.07962163 -0.06558084 -0.047599327 -0.075884074 -0.0601808 -0.016589899 0.039562065 -0.04469523
0.09504552 -0.0028275496 0.015320733 -0.10332746 0.06344298 -0.09095663 -0.030782523 -0.011067769
0.07092509 -0.07926889 0.013394951 0.027763397 -0.04854121 -0.09092369 -0.09013698 -0.1031808
0.065027975 0.054220095 0.0011742727 -0.025734946 -0.009320929 -0.00038423866 -0.11333708 -0.00016021653
0.11466439 -0.07361976 -0.013320307 0.055897597 0.0862765 0.03698808 0.087895885 -0.06812222
-0.13245535 -0.052911393 -0.09993896 -0.15603891 -0.020888552 0.065211 0.049234804 -0.12774514
0.09810346 -0.09059882 0.15585247 0.09615052 0.077428035 0.12960248 0.12834246 0.054133866
0.0609438 -0.0666346 -0.11562496 -0.1414942 -0.13872676 0.10552841 0.03526641 -0.10247372
0.092007436 -0.06616861 -0.09409491 -0.07248716 0.09964347 -0.045463856 -0.09020285 0.12981047
-0.06957083 -0.008149807 -0.12788665 0.041370373 -0.07603492 0.045453597 0.10249828 0.09736619
-0.095362246 0.055566546 0.09142042 -0.09158819 0.09761567 -0.042958174 0.024463432 0.10510292
-0.08618972 0.10748207 0.0984124 -0.08011883 -0.08045716 0.09476405 -0.13722387 0.13028097
-0.07511011 -0.0073755514 0.023360386 0.027603043 -0.086899854 -0.08438388 -0.0296594 -0.029888378
-0.09228144 0.09810065 0.07916364 0.02840017 -0.11397569 0.102445394 0.15553917 0.103485905
-0.015210503 0.043393042 0.06926037 -0.06302087 -0.041772157 -0.12637141 -0.0012362233 -0.0008487874
0.026130047 0.0046929927 -0.10904102 -0.0415405 -0.09880551 0.057894118 -0.08103567 0.059745386
-0.085716434 0.09012593 -0.07317614 -0.03932901 -0.037853535 -0.09374205 -0.054296926 -0.098825924
-0.0050244634 -0.126367 0.034934554 0.036493998 0.10298497 0.04459041 0.09757262 -0.05369157
0.048230454 -0.06294911 0.039832443 -0.12904844 -0.026276475 -0.09124602 0.1155161 -0.08745456
0.051768027 -0.108465664 0.10143505 0.10426732 -0.027881969 -0.13315243 0.109739 -0.11365765
0.035594847 -0.12599929 0.04070241 -0.07792465 -0.06257753 -0.0036020868 0.06944607 0.08771977
00000000: 271d 553d b52a ddbd 04cf b23d 00c3 eabc
00000010: be25 223d 74a4 2ebd 184f 0c3e 5f4b 63bd
00000020: 0000 fabc 0671 23bd feb8 2b3c 5770 433d
00000030: 899f 333d e290 bfbd 2cbb 7bbc 4a94 c6ba
00000040: 7b6e d03d df66 0e3c d547 cf3d a582 39bd
00000050: f519 db3d 8e33 d6bd afa4 3cbd eb90 bfbc
00000060: 21a3 b03c 253b 09be 2b5d 553d 3e55 68bc
00000070: 8f58 b73d e123 02bd dbbb 1a3d f833 03be
00000080: 77fb fd3d 319d 6abd 1ffb 01bd 2d3e cf3c
00000090: 1ee8 d8bd 88cf 68bd d601 e73d b632 79bd
000000a0: 4a5f 4c3d b539 88bd 3138 e23d e839 e13c
000000b0: 9355 323e aa4d cabd b90b 0fbd d77e c63d
000000c0: 2aad bb3d 841e f6bb 558a b3bd 30f6 4dbd
000000d0: 541c 673d 6bcf 973d e737 68bd dd61 de3d
000000e0: 4768 f03c 5e44 4b3d fdeb a6bd db2e aabd
000000f0: eb50 67bd c32d 6c3d 6f9a d73d 0f5a 73bd
00000100: 10bb cfbd 2801 94bd 84d9 2cbc 0ae3 d13b
00000110: d5f0 5f3d c112 efbd 8557 f8bc e29c 043e
00000120: a1ff 57bc b7d2 d03d 6d39 633d 6c5e 093d
00000130: 0553 183c 5dc6 92bb 151b e23d af9b ccbc
00000140: 0def c23d 6cf1 c93d f720 9abd aedb 793a
00000150: fea2 b8bd 6dd7 1cbd 2dff f6bd 5e6c f2bd
00000160: aa10 a33d 3f4f 86bd 83f7 42bd 1c69 9bbd
00000170: 2480 76bd 8ae7 87bc d50b 223d 5812 37bd
00000180: 3aa7 c23d 694e 39bb d003 7b3c 599d d3bd
00000190: 65ee 813d 7847 babd a12b fcbc 9655 35bc
000001a0: 2c41 913d ba57 a2bd 7f76 5b3c 1070 e33c
000001b0: 26d3 46bd 3336 babd bd99 b8bd 7550 d3bd
000001c0: 632d 853d e415 5e3d 0eea 993a 18d2 d2bc
000001d0: cfb6 18bc a473 c9b9 451d e8bd ccff 27b9
000001e0: 2ad5 ea3d f5c5 96bd 6b3d 5abc e1f4 643d
000001f0: bcb1 b03d d080 173d c202 b43d aa83 8bbd
00000200: 60a2 07be 9eb9 58bd ccac ccbd aac8 1fbe
00000210: 781e abbc 588d 853d 6faa 493d 9fcf 02be
00000220: 78ea c83d e08b b9bd ca97 1f3e 90ea c43d
00000230: 9792 9e3d 83b6 043e 356c 033e 79bb 5d3d
00000240: 35a0 793d b977 88bd c7cc ecbd dbe3 10be
00000250: 630e 0ebe 471f d83d 8373 103d bedd d1bd
00000260: 656e bc3d 6883 87bd d5b4 c0bd 2674 94bd
00000270: e011 cc3d 4f38 3abd 46bc b8bd 09ed 043e
00000280: 277b 8ebd c586 05bc b8f4 02be fb73 293d
00000290: 32b8 9bbd 8d2d 3a3d 9eea d13d ed67 c73d
000002a0: 484d c3bd bf99 633d a13a bb3d 9792 bbbd
000002b0: b9ea c73d e9f4 2fbd 8967 c83c 3340 d73d
000002c0: 3c84 b0bd 8f1f dc3d 718c c93d 5715 a4bd
000002d0: b9c6 a4bd a713 c23d 6a84 0cbe 6068 053e
000002e0: 54d3 99bd 9cae f1bb 485e bf3c c71f e23c
000002f0: 8df8 b1bd 75d1 acbd 45f8 f2bc 79d8 f4bc
00000300: 0dfe bcbd fee8 c83d 8c20 a23d 79a7 e83c
00000310: 166c e9bd e4ce d13d a945 1f3e 6bf0 d33d
00000320: 7935 79bc e7bc 313d 62d8 8d3d 1611 81bd
00000330: 4819 2bbd 8267 01be c508 a2ba 2881 5eba
00000340: ae0e d63c adc7 993b e650 dfbd 5f26 2abd
00000350: 8b5a cabd 6222 6d3d 08f6 a5bd 94b7 743d
00000360: 198c afbd f293 b83d 5fdd 95bd 7517 21bd
00000370: 4f0c 1bbd d5fb bfbd 7466 5ebd 3f65 cabd
00000380: 41a4 a4bb 5a66 01be 8917 0f3d bb7a 153d
00000390: c9e9 d23d 6fa4 363d 27d4 c73d b1eb 5bbd
000003a0: 4c8d 453d 77eb 80bd 5827 233d 4625 04be
000003b0: c341 d7bc 31df babd b493 ec3d 601b b3bd
000003c0: b60a 543d 3f23 debd 2ebd cf3d 1b8a d53d
000003d0: ba68 e4bc 1c59 08be d7be e03d 58c5 e8bd
000003e0: e7cb 113d f505 01be 92b7 263d f596 9fbd
000003f0: a628 80bd fd10 6cbb be39 8e3d 6ca6 b33d

rnn.weight_hh_l0 f4 [256, 64]
0.027819546 0.05888233 -0.0180075 -0.02404766 -0.02477053 -0.034067653 0.092000395 -0.12707277
0.009931578 -0.120712504 0.03191746 0.13707766 0.10643243 0.007933687 0.097470835 -0.10828898
0.03590032 0.11592189 0.05050372 -0.044866685 0.052207477 -0.06871105 0.07048735 0.063405246
0.06735937 -0.012098169 -0.08549499 0.058613528 0.07810536 -0.015607031 0.08632707 -0.06326529
-0.025970578 0.08956909 0.0907282 -0.11532692 -0.1096703 0.121677145 -0.019375581 -0.08755427
0.01741329 0.07195762 0.09057378 -0.053836375 0.048791204 0.0502258 0.030935202 0.0113470005
-0.06478426 -0.07012984 0.0035431713 -0.08552447 -0.0779177 -0.1097078 0.010129565 -0.054505892
0.041986823 -0.017093273 -0.028142842 -0.048325744 -0.1287351 0.073319666 -0.070413314 -0.091314785
-0.039035626 -0.076105915 0.064157024 -0.05160504 0.10755678 -0.096844606 -0.0018326844 0.020494882
0.1381144 -0.061944738 -0.028288655 0.12681761 -0.05710859 -0.09775037 0.084467664 -0.073900945
0.13032056 -0.007943774 -0.02364676 0.03461067 -0.13438858 -0.040036555 -0.095975645 0.023147348
-0.005487184 -0.13015898 -0.09627698 -0.12263095 0.0145498505 -0.068761855 -0.12107605 -0.04273325
0.034066048 0.017186338 -0.14069124 -0.068285495 -0.040893186 -0.023958523 -0.027580038 0.11204966
-0.03924804 -0.09829675 -0.0041321195 -0.07305315 -0.09412425 0.0757781 -0.028924635 0.013204745
0.005476602 -0.057192814 -0.10215833 0.092657536 -0.12535535 -0.026236242 0.031671897 0.026489295
-0.069056846 -0.083070666 -0.12110618 -0.0025277461 0.06646404 -0.042432338 0.02979333 0.06787015
0.016392061 -0.025561836 0.019971577 0.03274534 -0.08627285 0.009706069 0.0051783826 0.058961384
-0.011493457 -0.11371162 -0.0067729405 0.086460546 0.0044218674 -0.10099049 -0.09562768 0.042005923
-0.10339032 -0.07465706 0.012964672 -0.0009000112 0.12951244 0.106595665 -0.016008815 0.089963496
0.006527182 0.03768627 -0.06880836 0.039565675 -0.09010584 -0.1149483 -0.045441348 0.072935656
0.033931315 0.11262033 -0.050377138 0.04033899 -0.023303196 -0.107594356 0.108906195 -0.061711848
-0.10011667 0.12012022 -0.028907476 0.06901181 -0.10082421 0.07518334 -0.03246912 -0.087438636
0.09776447 -0.09920947 0.081439644 -0.06077228 0.08741 0.09816321 -0.07029503 0.07375074
-0.101398125 0.0194691 -0.008749378 0.011269453 0.08540903 0.029982453 -0.12020996 0.09917071
0.010117867 0.09133447 -0.0040035117 -0.041016053 -0.11475521 -0.1273727 0.13665612 0.0016244533
0.02100459 -0.100115724 -0.089459844 0.1134785 0.067122184 -0.014344068 -0.07220716 0.122131504
0.046054985 -0.02403068 0.07813378 -0.0064434833 -0.090066165 -0.07601294 0.064645894 -0.086780205
-0.10708423 -0.050973278 -0.03027794 0.048410248 -0.033867836 0.072911896 -0.11771571 -0.03563859
-0.11184813 -0.1049926 0.03779904 0.10852092 0.09808682 0.019493934 0.059597354 0.04870905
0.036041114 0.12449502 -0.046579916 0.004420629 0.044114318 0.1170187 -0.00809034 -0.06671385
-0.07306538 0.023132484 0.053481925 0.12509033 -0.06781175 -0.07663801 -0.036015213 0.078922324
-0.09189233 -0.061839357 0.0061138375 -0.09708139 -0.109593846 -0.0064435215 0.034902778 -0.024636388
00000000: d1e5 e33c 992e 713d 7784 93bc 99ff c4bc
00000010: 91eb cabc 868a 0bbd b46a bc3d 5d1f 02be
00000020: 0fb8 223c 1e38 f7bd e2bb 023d 165e 0c3e
00000030: 3ff9 d93d 4cfc 013c ca9e c73d 9dc6 ddbd
00000040: 370c 133d 7568 ed3d fddc 4e3d 21c6 37bd
00000050: 82d7 553d 61b8 8cbd ac5b 903d 9cda 813d
00000060: b6f3 893d 6637 46bc ff17 afbd bd14 703d
00000070: b4f5 9f3d a2b4 7fbc 3fcc b03d 3b91 81bd
00000080: 40c0 d4bc 0070 b73d b5cf b93d 8530 ecbd
00000090: d29a e0bd de31 f93d 8ab9 9ebc a74f b3bd
000000a0: 51a6 8e3c 845e 933d bf7e b93d 8883 5cbd
000000b0: 49d9 473d 92b9 4d3d d26b fd3c c5e8 393c
000000c0: 9cad 84bd 3ca0 8fbd 8d34 683b 7427 afbd
000000d0: 5193 9fbd 7cae e0bd 7af6 253c 9241 5fbd
000000e0: 60fa 2b3d 3107 8cbc d18b e6bc 37f1 45bd
000000f0: 22d3 03be 9f28 963d db34 90bd 3f03 bbbd
00000100: d2e3 1fbd 6bdd 9bbd c264 833d ce5f 53bd
00000110: bb46 dc3d 7756 c6bd af36 f0ba e2e4 a73c
00000120: dc6d 0d3e c4b9 7dbd 9cbd e7bc 7adc 013e
00000130: b2ea 69bd 5931 c8bd 62fd ac3d 6159 97bd
00000140: c172 053e 9a26 02bc dab6 c1bc ebc3 0d3d
00000150: 299d 09be 5ffd 23bd e18e c4bd 829f bd3c
00000160: d6cd b3bb 6548 05be de2c c5bd ef25 fbbd
00000170: 7f62 6e3c 04d3 8cbd b8f6 f7bd 0f09 2fbd
00000180: d788 0b3d 5dca 8c3c 5d11 10be 44d9 8bbd
00000190: 9d7f 27bd aa44 c4bc 88ef e1bc 4b7a e53d
000001a0: 8ec2 20bd ce4f c9bd bb66 87bb e49c 95bd
000001b0: 37c4 c0bd 8c31 9b3d 5bf3 ecbc b758 583c
000001c0: 1175 b33b 0343 6abd 6338 d1bd 3cc3 bd3d
000001d0: 275d 00be 63ed d6bc 64ba 013d 1400 d93c
000001e0: ad6d 8dbd f420 aabd 8406 f8bd 8ba8 25bb
000001f0: 4c1e 883d 88cd 2dbd 2411 f43c 81ff 8a3d
00000200: a548 863c 0e67 d1bc 6f9b a33c fa1f 063d
00000210: d2af b0bd 3406 1f3c 6caf a93b 7e81 713d
00000220: 0d4f 3cbc a3e1 e8bd 8bef ddbb 3a12 b13d
00000230: 50e5 903b 1ad4 cebd 72d8 c3bd 670e 2c3d
00000240: 4ebe d3bd cde5 98bd c769 543c bbee 6bba
00000250: e99e 043e d44e da3d eb24 83bc c83e b83d
00000260: f9e1 d53b eb5c 1a3d 66eb 8cbd 9e0f 223d
00000270: 6989 b8bd 046a ebbd b520 3abd 4a5f 953d
00000280: 90fb 0a3d 7da5 e63d 4258 4ebd 7f3a 253d
00000290: 58e6 bebc 6e5a dcbd 360a df3d 90c5 7cbd
000002a0: f809 cdbd 9701 f63d 5fcf ecbc 1056 8d3d
000002b0: ec7c cebd b9f9 993d 57fe 04bd 0713 b3bd
000002c0: bd38 c83d 562e cbbd d4c9 a63d 5bec 78bd
000002d0: 0404 b33d cb09 c93d d7f6 8fbd a10a 973d
000002e0: d2a9 cfbd a97d 9f3c 8d59 0fbc 83a3 383c
000002f0: eeea ae3d c39d f53c a430 f6bd 031a cb3d
00000300: 69c5 253c 910d bb3d e42f 83bb 7300 28bd
00000310: c804 ebbd fd6d 02be 95ef 0b3e 9ceb d43a
00000320: d111 ac3c 7909 cdbd b936 b7bd 6a67 e83d
00000330: 5b77 893d 6203 6bbc 59e1 93bd 1520 fa3d
00000340: 27a4 3c3d fddb c4bc 9a04 a03d db23 d3bb
00000350: 9c74 b8bd acac 9bbd 1165 843d d2b9 b1bd
00000360: fa4e dbbd 5bc9 50bd 7109 f8bc d349 463d
00000370: 00b9 0abd d552 953d ef14 f1bd c5f9 11bd
00000380: a210 e5bd 5c06 d7bd 2bd3 1a3d 3740 de3d
00000390: bee1 c83d beb1 9f3c 5b1c 743d 2483 473d
000003a0: d99f 133d 3ff7 fe3d 95ca 3ebd ecda 903b
000003b0: 37b1 343d 80a7 ef3d 588d 04bc 45a1 88bd
000003c0: 4da3 95bd 5680 bd3c dd0f 5b3d ae17 003e
000003d0: e3e0 8abd 64f4 9cbd b084 13bd 07a2 a13d
000003e0: 0c32 bcbd 444b 7dbd 9656 c83b 9cd2 c6bd
000003f0: bd72 e0bd 2d24 d3bb 37f6 0e3d 40d2 c9bc

rnn.bias_ih_l0 f4 [256]
0.0089559425 0.053309154 -0.06725841 -0.03963779 0.096888125 0.08234109 -0.048016004 0.105620764
-0.045731455 0.10333336 0.010916847 -0.011787566 0.01267388 0.028814534 -0.07236994 -0.06419666
0.1188814 0.052180547 0.09837947 0.12491043 0.1010615 0.025394527 0.080318525 0.10400509
0.052970983 0.08495776 0.08573682 -0.09382043 -0.06577463 -0.005011226 0.100633964 0.013741161
0.0582752 0.037987262 -0.07629204 0.1451879 0.046449356 -0.02218523 -0.0018553429 -0.103295855
0.07000324 -0.08296606 -0.06471077 -0.017711544 0.0118665015 0.06159502 -0.039624676 -0.010432618
0.1388432 -0.1228851 0.13568063 0.0125624705 -0.047160022 -0.11217758 0.1871252 -0.065836124
0.033157844 -0.06944504 0.029219136 -0.033557862 0.12668318 0.14196682 -0.07128742 0.07387064
0.032367587 -0.10825833 0.11226878 0.11727809 -0.005029568 0.06710003 -0.053770788 0.06174417
0.12027941 0.122718595 0.028336031 0.072827384 0.01114146 0.07226262 0.124742 0.036457777
0.10279108 0.05818057 0.057233587 0.006687138 -0.0072701476 0.062946066 0.06629892 -0.048378758
0.099913046 0.009517273 -0.026373116 0.11066627 0.091806255 0.023505313 0.009705377 0.01590946
0.08407067 0.103086784 0.124479555 0.098516494 -0.07679627 0.03732192 0.053995065 0.062855765
0.09431858 0.07771474 0.110894226 -0.10293453 -0.042005073 -0.020430945 0.062817916 -0.01860505
0.13392882 -0.0020026641 0.070439644 -0.08783137 0.017029673 -0.09265854 0.027554998 -0.06750644
0.010580228 0.01541796 -0.03179072 -0.054199386 -0.10806581 0.020464594 0.0049605407 0.091024436
0.074404545 0.08609119 0.08986216 0.025217261 0.07576909 -0.10186176 0.1070778 -0.077320546
0.081987746 0.03239467 -0.113628246 0.05016778 0.059450995 -0.043398075 0.075595275 0.12743296
0.028545639 -0.11454887 0.039668556 0.03155897 0.064162925 -0.050018653 -0.1119706 0.00042781152
-0.08729736 0.10918736 0.03491327 0.024331965 -0.0063212747 0.046677772 -0.09196422 -0.12667458
-0.033593364 -0.11299911 -0.09549081 0.11959553 0.12448793 -0.048701014 -0.024485419 -0.05811674
0.017942661 0.02767034 -0.061421435 -0.024087422 0.09644696 -0.032326173 0.076084636 0.019836724
-0.05185466 -0.009261194 -0.10114335 0.10248003 -0.092956625 -0.09545475 -0.09846781 0.036671467
-0.032849547 -0.036583412 0.055216268 0.059495732 0.04310573 0.024597738 -0.10258885 -0.12757394
0.018822698 0.06962326 0.032514554 -0.07406963 0.10959489 0.13544716 -0.018965054 0.09595408
0.1340644 0.107389405 -0.005269479 -0.0053862724 -0.04926719 0.010486037 -0.035076007 0.07218479
-0.05275424 -0.019925017 -0.029741896 0.027851792 0.10193342 0.074646495 -0.09534475 -0.036234155
-0.03208038 0.13217795 0.15156472 0.07098228 -6.4358166e-05 0.08846247 0.0934151 -0.09837951
-0.06622076 -0.031692192 0.048147477 -0.09797855 0.06964909 0.13659671 -0.088972695 -0.020795247
-0.06476733 0.118927576 -0.05403314 -0.013404565 0.13609457 -0.09505721 -0.012515667 0.14426112
0.09018978 -0.04158525 0.0037499557 -0.020748658 0.058631655 -0.086721115 -0.042630687 0.15328059
-0.049224466 0.109364115 0.048699196 0.02751329 0.12016888 -0.09590274 -0.00063840003 0.1233385
00000000: f2bb 123c b35a 5a3d c7be 89bd 3c5b 22bd
00000010: 486d c63d 72a2 a83d 6eac 44bd b34f d83d
00000020: e850 3bbd 71a0 d33d 93dc 323c a320 41bc
00000030: 1ba6 4f3c 750c ec3c b136 94bd 8a79 83bd
00000040: 1778 f33d 45bb 553d 2d7b c93d 0ad1 ff3d
00000050: 55f9 ce3d 2f08 d03c 0a7e a43d 9f00 d53d
00000060: 1af8 583d 56fe ad3d c996 af3d ed24 c0bd
00000070: d9b4 86bd 3635 a4bb 2e19 ce3d 9b22 613c
00000080: fab1 6e3d 8898 1b3d 003f 9cbd 23ac 143e
00000090: ae41 3e3d cdbd b5bc fa2e f3ba c78c d3bd
000000a0: dc5d 8f3d 1cea a9bd 1587 84bd cd17 91bc
000000b0: b76b 423c 0f4b 7c3d 7c4d 22bd 92ed 2abc
000000c0: e92c 0e3e 2fab fbbd ddef 0a3e d2d2 4d3c
000000d0: de2a 41bd 5cbd e5bd c09d 3f3e 17d5 86bd
000000e0: 85d0 073d 3339 8ebd f85c ef3c f873 09bd
000000f0: 3cb9 013e c05f 113e 24ff 91bd 7d49 973d
00000100: e093 043d 8bb6 ddbd 2ded e53d 7f2f f03d
00000110: 13cf a4bb be6b 893d c23e 5cbd 74e7 7c3d
00000120: 0d55 f63d e353 fb3d f720 e83c 8626 953d
00000130: ac8a 363c 6dfe 933d bc78 ff3d c054 153d
00000140: 2184 d23d c04e 6e3d c46d 6a3d c81f db3b
00000150: 6b3a eebb dee9 803d bac7 873d ce28 46bd
00000160: 369f cc3d 56ee 1b3c 6f0c d8bc ffa4 e23d
00000170: eb04 bc3d 378e c03c 4d03 1f3c 8e54 823c
00000180: 3e2d ac3d 2a1f d33d 23ef fe3d 04c3 c93d
00000190: 5d47 9dbd dfde 183d ee29 5d3d 86ba 803d
000001a0: 1a2a c13d e828 9f3d 831c e33d 57cf d2bd
000001b0: 830d 2cbd cc5e a7bc aea6 803d 9e69 98bc
000001c0: a324 093e 213f 03bb a942 903d efe0 b3bd
000001d0: d081 8b3c c3c3 bdbd 05bb e13c d140 8abd
000001e0: b158 2d3c 9c9b 7c3c fc36 02bd 2d00 5ebd
000001f0: 9b51 ddbd 5da5 a73c 088c a23b 056b ba3d
00000200: 6961 983d 9450 b03d a709 b83d 6e94 ce3c
00000210: d32c 9b3d e69c d0bd 9b4b db3d 3c5a 9ebd
00000220: 31e9 a73d 46b0 043d edb5 e8bd bb7c 4d3d
00000230: e382 733d 2ec2 31bd b2d1 9a3d c97d 023e
00000240: 8bd8 e93c 9998 eabd 7f7b 223d fb43 013d
00000250: da67 833d 5ce0 4cbd d850 e5bd e44b e039
00000260: f5c8 b2bd 9f9d df3d 3801 0f3d d453 c73c
00000270: b222 cfbb 3131 3f3d bd57 bcbd fbb6 01be
00000280: 3299 09bd 146c e7bd b090 c3bd 80ee f43d
00000290: 87f3 fe3d b77a 47bd a595 c8bc d20b 6ebd
000002a0: 7dfc 923c e9ac e23c 0b95 7bbd fc52 c5bc
000002b0: fc85 c53d 7368 04bd 43d2 9b3d a080 a23c
000002c0: 8d65 54bd 43bc 17bc 3f24 cfbd 0de1 d13d
000002d0: 0b60 bebd c87d c3bd 7ea9 c9bd d234 163d
000002e0: 3f8d 06bd 7dd8 15bd 742a 623d ccb1 733d
000002f0: a28f 303d 3281 c93c 1a1a d2bd bea2 02be
00000300: 0f32 9a3c a496 8e3d fb2d 053d d1b1 97bd
00000310: 4973 e03d a9b2 0a3e 9a5c 9bbc 9383 c43d
00000320: 2e48 093e faee db3d 98ab acbb 547f b0bb
00000330: 65cc 49bd a0cd 2b3c dcab 0fbd 9fd5 933d
00000340: d414 58bd ca39 a3bc 47a5 f3bc 7129 e43c
00000350: 78c2 d03d 43e0 983d 1c44 c3bd 446a 14bd
00000360: b766 03bd a859 073e c833 1b3e 285f 913d
00000370: 07f8 86b8 d02b b53d 6a50 bf3d 327b c9bd
00000380: c09e 87bd accf 01bd 4a36 453d faa8 c8bd
00000390: 2fa4 8e3d 02e0 0b3e 5137 b6bd cb5a aabc
000003a0: bca4 84bd 4d90 f33d db51 5dbd d29e 5bbc
000003b0: 605c 0b3e 5bad c2bd 830e 4dbc 30b9 133e
000003c0: 6bb5 b83d 4c55 2abd d1c1 753b 17f9 a9bc
000003d0: bf27 703d d79a b1bd 849d 2ebd 96f5 1c3e
000003e0: 989f 49bd 4bfa df3d cf78 473d 8d63 e13c
000003f0: 1a1b f63d a868 c4bd 4d5a 27ba e598 fc3d

rnn.bias_hh_l0 f4 [256]
-0.038716726 0.123652935 0.12713768 0.11984952 0.07873562 0.11029815 0.009227629 0.097511105
0.15377487 0.019326365 0.052270178 -0.07014087 -0.0066909175 0.041375935 -0.023400027 -0.027706029
0.11039204 0.091396675 -0.053773962 -0.08739267 0.11413011 0.0037806863 -0.006971162 -0.032673217
-0.013589288 0.12721239 -0.061281804 -0.10054401 -0.027102638 -0.096514605 0.03377028 0.077760816
0.087140806 0.11726204 0.15103956 -0.024191543 0.11216241 0.07485439 0.0633534 0.05553505
-0.07656455 0.075853445 -0.11195091 0.015668279 0.113147035 0.11449548 -0.099598065 -0.08635734
-0.09289541 0.027184196 -0.02009237 0.025699833 -0.045534067 0.01900456 -0.026730368 0.014446563
-0.05384687 0.0715617 -0.06935698 0.021549348 0.099975094 -0.04979013 -0.07537479 0.056677196
-0.10748196 0.039214544 0.06331332 0.04572255 0.025218057 0.080144726 -0.12099479 -0.026625548
0.113971636 0.030963251 -0.06650324 0.02275275 -0.10092573 -0.023842005 0.1206772 -0.029500112
0.08126663 0.09007483 -0.11589786 0.05514818 0.0603806 0.056721076 -0.10803895 0.09023874
-0.004331601 0.045969695 -0.021702072 -0.005081535 -0.029280052 0.01829998 0.035550706 -0.015902849
-0.0712622 -0.045790225 0.08903465 9.254176e-05 0.11184388 0.06329055 -0.026736192 -0.10707565
0.017073264 -0.12825698 -0.039279714 0.007139944 -0.11986792 0.11770897 -0.026276497 -0.061853867
0.010068294 -0.07638296 -0.022372127 0.04822009 -0.09204131 -0.11123565 -0.00845035 -0.081873424
0.11843906 0.025758682 -0.12767972 0.07302212 -0.047440752 0.1299918 0.02011648 -0.08227784
-0.065609634 0.057427224 -0.017998599 -0.103542835 -0.052040953 0.03442187 0.12167012 0.04765132
-0.063080706 -0.1131138 -0.06256982 0.11250074 -0.10578374 -0.040064648 -0.020076614 -0.054079995
-0.07582915 -0.046516284 0.023250734 -0.035096887 -0.003470916 -0.0784117 0.0063472656 -0.07865424
0.07364655 -0.008181498 -0.10235298 -0.040396128 -0.10758565 -0.06455325 -0.06037059 -0.07023091
0.039696272 0.06783383 0.0066072037 -0.06939669 0.079384536 0.08149837 -0.09879406 -0.012269331
0.018356405 0.040449448 -0.033298336 0.02385824 0.11012544 -0.03578761 -0.05798133 -0.003310509
0.028318064 -0.10625516 0.106639676 0.042603917 -0.0063301027 -0.020643806 0.015691562 -0.0021680547
-0.031621233 -0.013505696 0.108957104 0.07879776 -0.09383556 -0.03523709 -0.12907977 0.0712441
0.09337933 0.11268687 -0.10783153 0.084296525 0.004030429 -0.09583857 0.0681348 -0.08994076
0.14622808 0.13995278 -0.003242442 0.118651025 0.13172342 -0.03098781 -0.068755105 -0.051694892
0.06137791 -0.033704523 0.13420278 0.05650931 -0.023834484 -0.08988115 -0.0364617 0.16231525
-0.026603445 0.0026132006 0.08898694 0.05786624 0.13459972 0.020862618 -0.0037328496 0.086094484
0.0431481 -0.017932493 0.14057466 0.14243768 0.056456253 0.014958558 0.116733246 0.053795498
0.13446532 -0.10718967 -0.102870785 0.1164699 0.022534221 0.032413203 -0.030610846 -0.067303844
0.069524266 -0.11279807 -0.044931732 0.10385754 0.007900597 0.122161396 0.10428354 0.13545589
0.12865268 0.032034326 0.014264394 -0.10603112 -0.071079105 0.024620011 0.043988597 0.10438967
00000000: 6e95 1ebd c03d fd3d 6130 023e aa73 f53d
00000010: 2440 a13d ffe3 e13d 7b2f 173c e7b3 c73d
00000020: 2977 1d3e 5352 9e3c 4119 563d 04a6 8fbd
00000030: 7c3f dbbb d079 293d 6ab1 bfbc c1f7 e2bc
00000040: 3915 e23d 2e2e bb3d 1642 5cbd eefa b2bd
00000050: 0cbd e93d 64c5 773b 586e e4bb 5ad4 05bd
00000060: 9ba5 5ebc f743 023e a102 7bbd 05ea cdbd
00000070: 5a06 debc 73a9 c5bd b552 0a3d 1041 9f3d
00000080: e176 b23d 1527 f03d 1daa 1a3e 582d c6bc
00000090: 68b5 e53d 424d 993d 6dbf 813d b878 633d
000000a0: e0cd 9cbd 0d59 9b3d 8546 e5bd c35a 803c
000000b0: a2b9 e73d 9b7c ea3d 12fa cbbd 1edc b0bd
000000c0: f33f bebd 64b1 de3c c198 a4bc 7588 d23c
000000d0: ee81 3abd 73af 9b3c a5f9 dabc 47b1 6c3c
000000e0: 898e 5cbd f18e 923d 080b 8ebd 4288 b03c
000000f0: bebf cc3d bcf0 4bbd 195e 9abd 5926 683d
00000100: 801f dcbd 6e9f 203d 6aaa 813d 9247 3b3d
00000110: 1996 ce3c eb22 a43d 1ecc f7bd d21d dabc
00000120: f669 e93d a5a6 fd3c da32 88bd fa63 ba3c
00000130: 26b2 cebd 4f50 c3bc 9c25 f73d 38aa f1bc
00000140: 1e6f a63d 2779 b83d db5b edbd 0fe3 613d
00000150: a651 773d 5c54 683d 8643 ddbd 17cf b83d
00000160: 1af0 8dbb b84a 3c3d 8bc8 b1bc 0183 a6bb
00000170: b8dc efbc d7e9 953c 9e9d 113d b146 82bc
00000180: ebf1 91bd 888e 3bbd cc57 b63d fb12 c238
00000190: 670e e53d 7a9e 813d dc05 dbbc 7a4a dbbd
000001a0: 3bdd 8b3c cc55 03be c4e3 20bd 31f6 e93b
000001b0: 507d f5bd 6711 f13d cf41 d7bc 7b5a 7dbd
000001c0: 7cf5 243c ab6e 9cbd c045 b7bc 6e82 453d
000001d0: 2880 bcbd 84cf e3bd 5673 0abc 41ad a7bd
000001e0: 2e90 f23d df03 d33c 79be 02be 9f8c 953d
000001f0: 3c51 42bd 921c 053e 51cb a43c 4981 a8bd
00000200: 585e 86bd cf38 6b3d cc71 93bc 440e d4bd
00000210: e528 55bd f2fd 0c3d 2f2e f93d 082e 433d
00000220: 7530 81bd 35a8 e7bd 9b24 80bd ca66 e63d
00000230: 25a5 d8bd d41a 24bd b677 a4bc fc82 5dbd
00000240: 504c 9bbd dc87 3ebd 5378 be3c c1c1 0fbd
00000250: 4f78 63bb 5096 a0bd b9fc cf3b 7915 a1bd
00000260: 01d4 963d b10b 06bc 709e d1bd 6976 25bd
00000270: de55 dcbd 7f34 84bd 2747 77bd 39d5 8fbd
00000280: 8f98 223d 77ec 8a3d 3e81 d83b da1f 8ebd
00000290: 5c94 a23d 9ee8 a63d 8a54 cabd 4e05 49bc
000002a0: 2c60 963c 52ae 253d d663 08bd 5b72 c33c
000002b0: 7289 e13d 0796 12bd d57d 6dbd 20f5 58bb
000002c0: 49fb e73c 4e9c d9bd e765 da3d 7281 2e3d
000002d0: c06c cfbb 331d a9bc 978b 803c ec15 0ebb
000002e0: 4485 01bd ff46 5dbc e724 df3d b860 a13d
000002f0: dc2c c0bd c454 10bd 7d2d 04be 6de8 913d
00000300: aa3d bf3d 60c8 e63d c7d6 dcbd a8a3 ac3d
00000310: b011 843b 0347 c4bd 428a 8b3d dc32 b8bd
00000320: d0bc 153e c84f 0f3e 267f 54bb 4fff f23d
00000330: 81e2 063e 26da fdbc 7acf 8cbd 06be 53bd
00000340: 6767 7b3d c10d 0abd 746c 093e 4e76 673d
00000350: 8940 c3bc 9c13 b8bd dd58 15bd f835 263e
00000360: 78ef d9bc 3b42 2b3b c93e b63d 2705 6d3d
00000370: 82d4 093e 15e8 aa3c d3a2 74bb 4e52 b03d
00000380: 10bc 303d 2ae7 92bc cef2 0f3e 2fdb 113e
00000390: ac3e 673d bd14 753c d711 ef3d ab58 5c3d
000003a0: 47b1 093e 4286 dbbd ebad d2bd c587 ee3d
000003b0: b099 b83c b5c3 043d 99c3 fabc 99d6 89bd
000003c0: bd62 8e3d ad02 e7bd 560a 38bd 43b3 d43d
000003d0: 8171 013c c12f fa3d 9c92 d53d f3b4 0a3e
000003e0: 87bd 033e 6d36 033d 34b5 693c d826 d9bd
000003f0: ec91 91bd e8af c93c 632d 343d 40ca d53d

rnn.weight_ih_l0_reverse f4 [256, 1]
-0.12964752 -0.084385306 0.06462905 -0.04958435 0.066511035 0.10995187 -0.033763528 -0.08961309
-0.08685271 0.1408132 0.09440535 0.117711216 0.10772891 -0.0077885147 -0.092975624 0.0133366035
-0.07218956 0.07856701 -0.12742744 -0.14033367 0.047183912 0.04242829 -0.08079288 0.086941175
-0.041034237 -0.060576756 0.03215542 -0.0052835434 0.065564275 -0.084512256 0.006423001 -0.08045729
0.0904776 -0.14937602 0.03394592 -0.035389416 0.11776306 0.022101078 -0.03971587 0.045791894
0.052794214 0.053907137 0.076586984 0.09888698 0.09531992 -0.088529006 0.055135883 -0.118968144
0.05808755 0.11072134 -0.12578031 -0.108269535 -0.032093532 0.048698217 0.07213998 0.09059655
0.068182714 -0.04692479 0.08974662 0.102043085 0.09548985 0.019837124 -0.055865467 -0.038547546
0.04401049 -0.037935343 -0.07531486 -0.15164043 0.03146793 0.11406318 -0.10310262 -0.093509905
-0.0007976484 -0.06864843 0.061018117 0.020879643 0.107421964 0.101662844 0.07173216 -0.10555321
-0.10377887 0.076964766 -0.09207795 -0.002893176 -0.11687892 -0.113967866 0.09594196 -0.118240334
0.01787139 -0.09185734 0.03186276 -0.082813784 -0.04265618 -0.10384444 -0.09339707 0.09459815
-0.09461108 -0.095244296 -0.00026361158 -0.10198322 0.12716205 -0.06642516 -0.032641083 -0.09911011
0.09310564 0.017050957 -0.10777646 -0.023891004 -0.13144344 0.031954322 -0.032665696 -0.08863269
0.020392101 -0.0930429 -0.033741873 -0.05894037 -0.10676332 -0.030172035 0.01122102 0.09024098
0.051113877 -0.107636794 0.07411786 -0.05276679 -0.13091858 -0.10016993 0.084934555 0.041341253
0.020616043 0.031026363 -0.09801275 0.019511113 -0.12808321 -0.042084727 0.035217494 -0.1099403
0.08200893 -0.09822335 0.036380332 0.08083454 -0.011691079 -0.08507482 -0.075741254 -0.10155376
-0.0323632 0.093524314 -0.12433175 -0.10438417 -0.11561365 -0.07615932 0.10969778 -0.067501314
-0.044821147 -0.150668 -0.099478 0.13513398 -0.08029297 0.08334694 -0.11672406 0.12207566
0.14430386 0.059251633 -0.15870588 0.060774382 0.07236535 -0.1510946 0.08027775 0.13456437
0.0356067 -0.099489324 -0.033577554 -0.06782569 0.15002725 -0.0230946 0.13972245 0.12230161
-0.07726036 0.04492258 0.12284767 -0.07659976 0.13888478 0.07974068 0.09929907 -0.1180853
0.040099703 0.13119082 -0.030323947 0.104727864 0.017636964 -0.13096629 0.029704513 -0.112409145
-0.15153368 0.07201191 0.05715096 -0.050246544 -0.08154648 0.056463983 0.017662479 0.02292341
-0.09601126 0.11606307 0.009727784 -0.027791265 0.12263647 0.022389943 -0.05473191 -0.053046934
-0.023012023 -0.10410175 -0.12689021 -0.009841289 0.09591573 0.05043529 -0.022604717 0.09772039
-0.06417282 -0.10124077 0.06921953 0.0815628 -0.055863965 -0.11028842 -0.065741725 -0.14491992
-0.07655235 -0.05140367 0.031031786 0.00042807133 0.14259945 0.016694298 -0.07753219 -0.11714205
-0.0092357565 0.036244515 -0.06638175 -0.029469823 0.0027858857 0.058084294 -0.002145771 0.06702373
0.059493396 -0.09364084 -0.013864415 0.041560397 -0.031451855 -0.11794277 0.022706812 0.09421506
-0.116225086 0.0030646564 -0.0047512166 -0.1083544 -0.00731343 -0.08485081 -0.097410545 0.014486138
00000000: 52c2 04be 34d2 acbd 3c5c 843d f618 4bbd
00000010: f036 883d 722e e13d a04b 0abd 1187 b7bd
00000020: d5df b1bd 5631 103e 9857 c13d 9412 f13d
00000030: faa0 dc3d cc36 ffbb 016a bebd c581 5a3c
00000040: 1fd8 93bd bee7 a03d 577c 02be a1b3 0fbe
00000050: eb43 413d 49c9 2d3d bd76 a5bd 370e b23d
00000060: 8413 28bd 551f 78bd 67b5 033d 9321 adbb
00000070: 9046 863d c314 adbd 0a78 d23b cbc6 a4bd
00000080: 524c b93d 07f6 18be e10a 0b3d 7ef4 10bd
00000090: c22d f13d 520d b53c 1cad 22bd 4890 3b3d
000000a0: bf3e 583d bbcd 5c3d a3d9 9c3d 4285 ca3d
000000b0: 1737 c33d b24e b5bd 2ad6 613d 92a5 f3bd
000000c0: 36ed 6d3d dfc1 e23d 8ecc 00be 6bbc ddbd
000000d0: 8274 03bd c877 473d 20be 933d af8a b93d
000000e0: 61a3 8b3d 3534 40bd 13cd b73d f7fb d03d
000000f0: 2f90 c33d 7781 a23c 30d3 64bd 08e4 1dbd
00000100: 5844 343d 1762 1bbd ad3e 9abd a147 1bbe
00000110: 84e4 003d f599 e93d 7727 d3bd 1f82 bfbd
00000120: 4719 51ba 8c97 8cbd 22ee 793d c90b ab3c
00000130: 0c00 dc3d 9c34 d03d 50e8 923d 482c d8bd
00000140: 048a d4bd b49f 9d3d 5d93 bcbd 709b 3dbb
00000150: 375e efbd fc67 e9bd 387d c43d fd27 f2bd
00000160: 0567 923c b31f bcbd 8782 023d 469a a9bd
00000170: 3fb8 2ebd 65ac d4bd f746 bfbd adbc c13d
00000180: 74c3 c1bd 710f c3bd 5935 8ab9 94dc d0bd
00000190: c536 023e ea09 88bd a8b2 05bd 3efa cabd
000001a0: 2bae be3d 73ae 8b3c e8b9 dcbd 11b7 c3bc
000001b0: 1c99 06be 89e2 023d 77cc 05bd 0e85 b5bd
000001c0: 560d a73c 478d bebd eb34 0abd 756b 71bd
000001d0: baa6 dabd 582b f7bc 5ed8 373c 43d0 b83d
000001e0: c95c 513d ae70 dcbd 1bcb 973d fd21 58bd
000001f0: 850f 06be e425 cdbd 2bf2 ad3d 7255 293d
00000200: fae2 a83c 002b fe3c e9ba c8bd c5d5 9f3c
00000210: 3f28 03be 0961 2cbd 3840 103d 6128 e1bd
00000220: 4cf4 a73d 5329 c9bd 8b03 153d 948c a53d
00000230: f08b 3fbc b53b aebd 3b1e 9bbd 6bfb cfbd
00000240: 468f 04bd ad89 bf3d a5a1 febd 5ec7 d5bd
00000250: d9c6 ecbd 6bf9 9bbd 3ba9 e03d 213e 8abd
00000260: 6196 37bd b648 1abe 1fbb cbbd 9060 0a3e
00000270: a470 a4bd cdb1 aa3d 060d efbd ce02 fa3d
00000280: 64c4 133e d7b1 723d cb83 22be 8fee 783d
00000290: 4934 943d 8bb8 1abe a968 a43d 3ecb 093e
000002a0: 55d8 113d 0fc1 cbbd 9e88 09bd 32e8 8abd
000002b0: bea0 193e e330 bdbc 6713 0f3e 4479 fa3d
000002c0: ae3a 9ebd bd00 383d 8f97 fb3d 56e0 9cbd
000002d0: d037 0e3e 154f a33d 505d cb3d b5d6 f1bd
000002e0: 963f 243d e356 063e ed69 f8bc 907b d63d
000002f0: 657b 903c 071c 06be e156 f33c c436 e6bd
00000300: a52b 1bbe fb7a 933d 2017 6a3d 52cf 4dbd
00000310: d701 a7bd c746 673d e7b0 903c e0c9 bb3c
00000320: 8da1 c4bd 7ab2 ed3d 4961 1f3c 82aa e3bc
00000330: d428 fb3d 1d6b b73c 912e 60bd be47 59bd
00000340: b683 bcbc 4c33 d5bd 82ef 01be 5c3d 21bc
00000350: 776f c43d 3c95 4e3d 872d b9bc a121 c83d
00000360: 0a6d 83bd 5257 cfbd f8c2 8d3d 660a a73d
00000370: 9dd1 64bd e5de e1bd 99a3 86bd e365 14be
00000380: 7ac7 9cbd a88c 52bd 5f36 fe3c c36e e039
00000390: 9705 123e 7bc2 883c 32c9 9ebd 2ce8 efbd
000003a0: 9251 17bc 2175 143d 28f3 87bd b36a f1bc
000003b0: 6893 363b cce9 6d3d 10a0 0cbb bd43 893d
000003c0: 59af 733d c5c6 bfbd 9227 63bc 3c3b 2a3d
000003d0: a9d3 00bd fb8b f1bd a303 ba3c d3f3 c03d
000003e0: 6b07 eebd 67d8 483b 18b0 9bbb e9e8 ddbd
000003f0: 7fa5 efbb 43c6 adbd 2e7f c7bd 4457 6d3c

rnn.weight_hh_l0_reverse f4 [256, 64]
0.07018873 0.0138985105 0.031532917 0.010728322 0.020291382 -0.0041788244 0.10423654 -0.09610115
-0.09430292 0.081400566 0.10564385 -0.118945554 0.09030066 -0.038528293 -0.04507786 -0.030233804
0.08474942 0.10760769 -0.047459874 0.09661121 0.11114267 0.12814699 0.070468806 -0.02419609
0.07004634 -0.10175333 0.05686609 -0.012261246 0.0965213 0.062761776 0.058461 -0.06680004
-0.011859379 -0.07099839 -0.096385315 -0.11637572 -0.06109631 -0.0237443 -0.009722248 -0.11006313
-0.123753585 -0.07389079 0.09886682 0.06360665 0.037335843 0.011226367 -0.03605629 0.072870255
0.06555423 -0.014913112 -0.12433685 -0.06373594 -0.12667665 0.062023573 0.049103208 0.12148939
0.09576039 -0.04418054 -0.04888686 -0.06630967 0.02240049 0.06757202 0.11329348 0.0560064
-0.08836833 0.06482724 -0.043142043 0.07917178 0.115320146 -0.029282343 0.10343253 -0.09196582
0.0831249 0.023167694 -0.016192423 -0.10162641 -0.12662362 0.11658759 -0.04752127 -0.11818459
-0.06745466 0.057533115 -0.083861575 0.03330708 -0.026934355 0.14078382 -0.074757785 -0.09498578
0.0935404 -0.047793142 0.12460236 0.040321622 0.13897079 -0.036444053 0.072076395 -0.0132325245
-0.07918792 0.065207295 0.11383666 0.05216265 -0.10572543 0.005383671 0.05211557 -0.020075237
-0.08407309 0.03352025 0.045336034 -0.019636294 0.016458781 0.06865285 -0.09885649 -0.107142456
-0.09197245 -0.036411352 0.018408876 -0.0002443585 -0.036140032 0.064553946 0.087106355 0.11863726
0.10197583 -0.080802344 -0.034585286 -0.14866167 0.047455586 0.047781114 0.09636588 0.06509158
-0.052574303 0.009315415 0.063232 0.052333288 0.10511481 0.13313346 0.072338626 0.0062058633
-0.057562746 0.024890913 0.06422134 -0.052156538 -0.06510831 -0.049007956 -0.02731163 -0.003202185
-0.0031715003 -0.047771197 -0.035982672 0.11064087 0.068456076 -0.050411552 -0.06623726 0.09794275
-0.030170241 -0.09790382 -0.054705705 0.014172923 0.08573036 -0.13250855 -0.09688567 -0.101762734
-0.10816087 0.030168215 0.03003978 0.062224686 0.018932564 -0.0759143 -0.08176575 -0.011810863
-0.10775095 0.024605608 -0.03286507 0.1075118 0.058351424 -0.018698316 -0.07579201 -0.059006434
0.09499466 -0.036203783 -0.08259835 0.10353891 -0.038290177 -0.020433456 0.10803863 0.07004965
-0.004290108 0.0898088 0.02206316 -0.07380628 -0.016838403 0.030578801 0.1375503 -0.03145682
-0.011811996 -0.107361965 -0.078436926 -0.062299684 -0.07645717 -0.00024986657 -0.04025355 0.053514548
-0.15280156 -0.07162463 0.05131635 -0.09383047 -0.06552906 0.07169223 -0.054181557 -0.14138019
0.039628547 0.049610894 0.07790814 0.053955935 0.04754642 0.11044056 -0.013237878 0.010608116
0.011011187 0.0757063 0.1220709 -0.15645608 0.13484599 -0.1375069 0.08069079 -0.09331226
0.037851054 -0.038236693 -0.03690954 0.080320835 0.042961124 -0.026498634 -0.0080647385 0.081213504
0.07472801 0.005886635 0.021283992 0.098843396 -0.175974 -0.08597933 -0.05993081 -0.039611727
0.12504366 -0.02403507 -0.10448704 -0.007789878 -0.06534508 -0.02840633 0.12014747 0.0026705994
-0.049481746 -0.019298557 0.1276416 -0.0039209486 -0.15394904 -0.01293684 0.028748069 0.0115715815
00000000: 1cbf 8f3d 94b6 633c a928 013d d8c5 2f3c
00000010: 1d3a a63c 85ee 88bb f879 d53d aed0 c4bd
00000020: e421 c1bd 57b5 a63d ce5b d83d ba99 f3bd
00000030: 8def b83d d8cf 1dbd 90a3 38bd e2ac f7bc
00000040: 1b91 ad3d 6c61 dc3d 4965 42bd 19dc c53d
00000050: c59e e33d f738 033e f351 903d e136 c6bc
00000060: 7574 8f3d 0d64 d0bd 6bec 683d 65e3 48bc
00000070: f6ac c53d 3f89 803d cd74 6f3d 76ce 88bd
00000080: d74d 42bc 9b67 91bd aa65 c5bd 6556 eebd
00000090: 2040 7abd 6883 c2bc 104a 1fbc c768 e1bd
000000a0: 8572 fdbd 0e54 97bd b07a ca3d 3444 823d
000000b0: 78ed 183d ccee 373c c3af 13bd 003d 953d
000000c0: 4c41 863d 2056 74bc 52a4 febd fd87 82bd
000000d0: 86b7 01be 6e0c 7e3d 7220 493d 6ecf f83d
000000e0: 061e c43d a7f6 34bd 973d 48bd 5dcd 87bd
000000f0: 3b81 b73c 3363 8a3d 6906 e83d f866 653d
00000100: 74fa b4bd 25c4 843d b6b5 30bd d024 a23d
00000110: f82c ec3d 86e1 efbc 6fd4 d33d 9358 bcbd
00000120: 633d aa3d 2dca bd3c f9a5 84bc 8221 d0bd
00000130: 9fa9 01be 79c5 ee3d aaa5 42bd c30a f2bd
00000140: ab25 8abd d8a7 6b3d 9ebf abbd 016d 083d
00000150: 70a5 dcbc a229 103e 9c1a 99bd e887 c2bd
00000160: 1c92 bf3d bec2 43bd 862f ff3d 4928 253d
00000170: 5c4e 0e3e 5c46 15bd ca9c 933d 3bcd 58bc
00000180: 472d a2bd 678b 853d 3223 e93d 81a8 553d
00000190: 9386 d8bd 8169 b03b 2377 553d d374 a4bc
000001a0: 832e acbd 884c 093d 47b2 393d 4bdc a0bc
000001b0: 91d4 863c de99 8c3d 4575 cabd 816d dbbd
000001c0: 0d5c bcbd 1224 15bd 36ce 963c 3e1d 80b9
000001d0: 9207 14bd dc34 843d d164 b23d 17f8 f23d
000001e0: b4d8 d03d b37b a5bd 4da9 0dbd c43a 18be
000001f0: ca60 423d 21b6 433d 795b c53d bc4e 853d
00000200: 2758 57bd af9f 183c c77f 813d 6e5b 563d
00000210: 6f46 d73d 2354 083e 4626 943d 8e5a cb3b
00000220: eac6 6bbd 07e8 cb3c 7a86 833d 18a2 55bd
00000230: 8157 85bd 91bc 48bd a4bc dfbc c0db 51bb
00000240: f2d8 4fbb bbab 43bd 9162 13bd ae97 e23d
00000250: b332 8c3d 587c 4ebd 67a7 87bd 3596 c83d
00000260: 9527 f7bc cc81 c8bd 1713 60bd 8c35 683c
00000270: 6693 af3d 52b0 07be ff6b c6bd fb68 d0bd
00000280: 7283 ddbd 5523 f73c fc15 f63c 50df 7e3d
00000290: 7718 9b3c f578 9bbd cd74 a7bd 5a82 41bc
000002a0: 88ac dcbd b391 c93c 869d 06bd 262f dc3d
000002b0: e701 6f3d 362d 99bc d738 9bbd bbb0 71bd
000002c0: 8f8c c23d 6b4a 14bd 5329 a9bd 350c d43d
000002d0: 29d6 1cbd 1064 a7bc 5b43 dd3d 3176 8f3d
000002e0: 0994 8cbb aded b73d cdbd b43c bf27 97bd
000002f0: b1f0 89bc 6580 fa3c fcd9 0c3e ded8 00bd
00000300: 1a87 41bc 97e0 dbbd 8aa3 a0bd f42d 7fbd
00000310: 9495 9cbd 8600 83b9 e8e0 24bd 1232 5b3d
00000320: 0378 1cbe efaf 92bd 1831 523d 312a c0bd
00000330: 1a34 86bd 60d3 923d 7bed 5dbd f8c5 10be
00000340: 8b51 223d cb34 4b3d 4e8e 9f3d e600 5d3d
00000350: 09c0 423d a92e e23d afe3 58bc aacd 2d3c
00000360: 4468 343c e80b 9b3d 4f00 fa3d 0636 20be
00000370: 1115 0a3e 9cce 0cbe 3741 a53d 801a bfbd
00000380: b509 1b3d 149e 1cbd 752e 17bd 407f a43d
00000390: 01f8 2f3d aa13 d9bc f721 04bc 4453 a63d
000003a0: 000b 993d ace4 c03b c45b ae3c 686e ca3d
000003b0: 8732 34be ee15 b0bd 027a 75bd e83f 22bd
000003c0: 720b 003e 32e5 c4bc 4dfd d5bd 3c42 ffbb
000003d0: a4d3 85bd 64b4 e8bc e00f f63d 3905 2f3b
000003e0: 5fad 4abd 0218 9ebc 7bb4 023e 4d7b 80bb
000003f0: d1a4 1dbe 0af5 53bc 1281 eb3c bb96 3d3c

rnn.bias_ih_l0_reverse f4 [256]
0.11164723 0.11853075 -0.018679697 -0.0075264527 -0.07375925 0.10606882 0.019026186 -0.08339895
0.04415546 0.17146055 0.04202173 0.1105039 0.06418613 0.030396707 -0.023360532 0.116062984
-0.08611152 -0.047575727 0.0194453 -0.06954897 0.13190195 -0.022457287 -0.023138855 -0.12016082
0.090760864 -0.027357679 -0.06849182 0.043942872 0.08919368 0.022889128 -0.019612748 0.09130826
0.106710754 -0.026757728 -0.029481947 -0.032692246 0.0028407525 0.023796534 -0.11519835 0.008207261
0.025405053 0.12284734 -0.08557221 0.09675794 0.076208234 -0.017916434 0.09576828 -0.10935634
-0.0052493126 -0.10367723 0.10892789 -0.051212452 -0.027559392 -0.086856134 -0.03523845 0.13170113
0.09115318 0.13615604 0.103029296 0.028446775 -0.08578787 0.0266422 0.014526853 0.01004855
-0.026756007 0.0696865 -0.053787883 0.11695699 0.08870593 0.015946884 -0.085600205 -0.051929675
0.122591205 0.057489283 -0.08687321 -0.07843907 -0.013959913 0.01507402 0.12984246 -0.012602546
-0.0661207 0.12830761 0.088394605 0.11119302 -0.017408805 -0.043084733 -0.009415837 0.057915173
-0.089500464 0.050479334 0.036930863 0.028171178 0.10168258 0.12995142 -0.042709175 0.04772231
-0.027204456 0.04480585 0.045361023 -0.025227912 0.040520795 0.07039632 0.027952656 0.07734394
-0.06262774 -0.05330492 -0.040420685 0.10787132 -0.032820355 0.100415684 -0.04079141 0.033712443
-0.105250224 0.0071372124 0.070907496 -0.0353284 -0.0076520215 0.1046491 0.11095592 -0.029365944
0.063318744 0.03974045 -0.0958485 -0.085298456 0.029511258 -0.042532235 0.05390624 0.13112578
0.08924379 0.07088746 -0.04210988 0.024182012 0.0846926 0.045532595 0.075219825 0.08141357
-0.07806108 -0.029749697 -0.10583723 0.06000084 -0.084779635 -0.06725951 -0.0066257855 -0.104993545
-0.054592676 -0.05115826 0.0752604 0.0047824467 0.002929049 0.0021219463 0.099807575 -0.016859617
0.079745315 -0.031740006 0.11063928 0.064052604 0.08505953 -0.03924837 -0.013028195 -0.04754303
-0.027818972 -0.11343404 -0.025045566 -0.07367014 0.15025413 -0.10325516 0.0077472352 -0.078671366
-0.092865475 -0.0078042513 0.09077014 0.07959124 0.085683376 0.10710275 0.009660328 0.014140205
-0.12633215 0.13297106 -0.08444226 -0.059108987 -0.05894742 -0.009804208 -0.07089282 0.03470509
-0.08339745 0.08457984 0.00729825 -0.05890443 -0.103436045 -0.08787844 0.07883464 -0.028621769
-0.05620512 0.032005798 0.032203805 0.07388472 0.012401448 -0.04184886 -0.022887148 -0.11353403
-0.07444303 0.10165483 -0.002332606 0.17250842 0.12376451 -0.08097811 -0.09595209 0.09808189
0.05573897 -0.012474317 -0.014612113 -0.045257963 0.16856799 -0.052221976 0.029667145 -0.039056513
0.12763698 -0.038907625 -0.017881459 -0.083279505 0.10930611 -0.07697837 -0.00011019898 0.045394566
0.11443428 0.08257573 0.15685728 -0.047180727 0.15383483 -0.053850736 0.08959953 -0.008797073
0.112011835 -0.029090798 0.112141185 0.1326315 0.079280406 -0.07586569 0.07732559 0.087606244
0.11622326 0.06697513 0.048890263 0.012096277 0.10518471 0.063520834 0.042028304 0.0857671
0.11165012 0.10665048 -0.0034530945 0.12455374 0.13587108 0.002102208 -0.11905814 0.07016774
00000000: 4ea7 e43d 40c0 f23d 2a06 99bc 76a0 f6bb
00000010: 170f 97bd 9c3a d93d cedc 9b3c 12cd aabd
00000020: 5bdc 343d 5b93 2f3e fa1e 2c3d de4f e23d
00000030: 0574 833d 8402 f93c 965e bfbc 6eb2 ed3d
00000040: 3d5b b0bd c4de 42bd c04b 9f3c b16f 8ebd
00000050: 4e11 073e 58f8 b7bc b28d bdbc e016 f6bd
00000060: d5e0 b93d 361d e0bc 7045 8cbd 71fd 333d
00000070: 2dab b63d fb81 bb3c eaaa a0bc d3ff ba3d
00000080: 2b8b da3d 0633 dbbc 2084 f1bc 4ee8 05bd
00000090: eb2b 3a3b f3f0 c23c 1ded ebbd bf77 063c
000000a0: 421e d03c 6397 fb3d 7c40 afbd 0729 c63d
000000b0: 1013 9c3d 7cc5 92bc 2922 c43d 37f6 dfbd
000000c0: 6d02 acbb ba54 d4bd 9615 df3d 26c4 51bd
000000d0: 3cc4 e1bc a1e1 b1bd 3156 10bd a9dc 063e
000000e0: 85ae ba3d 7d6c 0b3e 0601 d33d 3609 e93c
000000f0: 8db1 afbd be40 da3c 0a02 6e3c aca2 243c
00000100: 6a2f dbbc ccb7 8e3d af50 5cbd 2587 ef3d
00000110: 74ab b53d 0aa3 823c 294f afbd 36b4 54bd
00000120: 1911 fb3d e279 6b3d 95ea b1bd aaa4 a0bd
00000130: 1eb8 64bc 06f9 763c 6cf5 043e e97a 4ebc
00000140: 4a6a 87bd 1263 033e 3b08 b53d 2bb9 e33d
00000150: e99c 8ebc 9e79 30bd e244 1abc 7638 6d3d
00000160: 054c b7bd 6bc3 4e3d d144 173d 3ec7 e63c
00000170: f53e d03d fc11 053e d1ef 2ebd 7878 433d
00000180: e1db debc 5786 373d 7bcc 393d c4aa cebc
00000190: 22f9 253d f22b 903d f8fc e43c 8066 9e3d
000001a0: f942 80bd 4356 5abd 2990 25bd a3eb dc3d
000001b0: a36e 06bd bda6 cd3d e514 27bd 0f16 0a3d
000001c0: 6e8d d7bd 47df e93b f337 913d 83b4 10bd
000001d0: cfbd fabb 4452 d63d db3c e33d d990 f0bc
000001e0: 42ad 813d e2c6 223d 384c c4bd f5b0 aebd
000001f0: 98c1 f13c 4836 2ebd cacc 5c3d d645 063e
00000200: 73c5 b63d 722d 913d 697b 2cbd 5b19 c63c
00000210: 5073 ad3d 6380 3a3d da0c 9a3d 28bc a63d
00000220: 7dde 9fbd a3b5 f3bc 31c1 d8bd 71c3 753d
00000230: f2a0 adbd 5bbf 89bd 1e1d d9bb db06 d7bd
00000240: 929c 5fbd 538b 51bd 2022 9a3d 12b6 9c3b
00000250: 4af5 3f3b 5a10 0b3b ea67 cc3d 2e1d 8abc
00000260: 8351 a33d cf01 02bd d996 e23d 032e 833d
00000270: b133 ae3d e6c2 20bd 3674 55bc 7bbc 42bd
00000280: 9de4 e3bc 1b50 e8bd 5c2c cdbc 5fe0 96bd
00000290: 38dc 193e 7177 d3bd 85dc fd3b 741e a1bd
000002a0: 4130 bebd ceba ffbb b2e5 b93d bb00 a33d
000002b0: c47a af3d b058 db3d 5a46 1e3c 52ac 673c
000002c0: 375d 01be 9129 083e 10f0 acbd 441c 72bd
000002d0: da72 71bd d4a1 20bc 4130 91bd ed26 0e3d
000002e0: 48cc aabd 3238 ad3d 2926 ef3b c645 71bd
000002f0: 47d6 d3bd 9df9 b3bd 0e74 a13d 3378 eabc
00000300: 5737 66bd 8318 033d 23e8 033d df50 973d
00000310: 712f 4b3c b669 2bbd d47d bbbc 8884 e8bd
00000320: 9675 98bd 6830 d03d a2de 18bb 0ca6 303e
00000330: 3f78 fd3d dad7 a5bd 8882 c4bd 28df c83d
00000340: 8c4e 643d 1461 4cbc a567 6fbc 6a60 39bd
00000350: 169d 2c3e b6e6 55bd 8308 f33c b9f9 1fbd
00000360: 45b3 023e 9a5d 1fbd 237c 92bc 728e aabd
00000370: e2db df3d d6a6 9dbd a01a e7b8 a7ef 393d
00000380: 855c ea3d 771d a93d 329f 203e 9440 41bd
00000390: e186 1d3e 9792 5cbd f57f b73d 9921 10bc
000003a0: 7666 e53d d34f eebc 47aa e53d 8dd0 073e
000003b0: c45d a23d 795f 9bbd e15c 9e3d e76a b33d
000003c0: 7606 ee3d 422a 893d 2841 483d 772f 463c
000003d0: 156b d73d 3617 823d df25 2c3d a9a6 af3d
000003e0: d1a8 e43d 916b da3d 504d 62bb 0816 ff3d
000003f0: ca21 0b3e 33c5 093b c1d4 f3bd 1bb4 8f3d
