16 - Recurrent Neural Network/model/bilstm/weights_200.pth (torch, 939287 bytes, 25 tensors)

rnn.weight_ih_l0 f4 [256, 1]
0	0x3df5548e	0.11979018
1	0x3e27fb6d	0.16404505
2	0xbcc22379	-0.023698555
3	0xbad9d9e3	-0.0016620721
4	0xbda0822f	-0.078373305
5	0x3d28b44c	0.04118757
6	0xbcf6402d	-0.030059898
7	0x3e04a356	0.12952933
8	0xbd280a50	-0.04102546
9	0x3d9b81f9	0.0759315
10	0xbdb16313	-0.08661475
11	0x3c70ac7d	0.014689562
12	0x3de4f350	0.11179221
13	0x3db1e19b	0.08685609
14	0x3db4a41a	0.088203624
15	0x3e1714a4	0.14753968
16	0x3e1a557d	0.15071674
17	0xbd6da72f	-0.058020767
18	0x3d8bfda6	0.06835489
19	0xb8d7f8a8	-0.00010298315
20	0x3d54ca8a	0.05195097
21	0xbc52d30f	-0.012867703
22	0x3e298a2c	0.16556615
23	0x3d86e2b3	0.06586208
24	0xbda8defe	-0.082456574
25	0x3d355e7e	0.044279568
26	0x3d865896	0.06559865
27	0x3e099651	0.13436247
28	0x3dcf2dc7	0.10116153
29	0x3e235b15	0.15952714
30	0x3dafb126	0.0857871
31	0x3d616f93	0.055038046
32	0xbd5fea9d	-0.054667104
33	0x3d2051c4	0.039140478
34	0x3caddd04	0.021223553
35	0x3e0df2d1	0.13862158
36	0x3d4c390d	0.049859095
37	0x3d0bc7ce	0.034126095
38	0x3e08425f	0.13306569
39	0x3d85b19b	0.06528016
40	0x3d9d9f4a	0.076963976
41	0x3d903ed5	0.07043234
42	0x3cc96a7d	0.02458691
43	0xbd95679e	-0.07295154
44	0x3bb77501	0.0055986647
45	0x3da89c6a	0.082329586
46	0x3d979968	0.07402307
47	0x3c75538f	0.014973535
48	0x3a8d7888	0.0010793367
49	0x3c14013c	0.009033497
50	0xbc86afd4	-0.016441263
51	0x3c106f3e	0.008815585
52	0x3e0dd8d3	0.13852243
53	0x3e2ecf57	0.17071281
54	0x3d4bcf0c	0.049758002
55	0x3d451954	0.048119858
56	0xbc7cfd6c	-0.01544128
57	0x3d9d3391	0.07675851
58	0x3e3be776	0.18350014
59	0x3e02c020	0.12768602
60	0x3df81f7a	0.12115379
61	0x3deef1aa	0.116671875
62	0x3d87f835	0.066391386
63	0xbc9f9f95	-0.019485274
64	0x3dd10f53	0.10208001
65	0xbd6cb754	-0.057792023
66	0x3d8e9b34	0.069631964
67	0xbd0aa7cc	-0.03385143
68	0xbdcb8d2a	-0.09939034
69	0x3dadf4fe	0.08493994
70	0x3c839c94	0.016065873
71	0x3d49a597	0.049230184
72	0x3deb9a04	0.115039855
73	0xbb803198	-0.003912162
74	0xbd2f52fe	-0.042803757
75	0x3d1ab14a	0.037766732
76	0xbc726739	-0.014795118
77	0xbc478faf	-0.012180253
78	0x3ded1a97	0.11577337
79	0x3a949c58	0.0011338098
80	0x3d56a608	0.052404433
81	0x3d35e2ac	0.044405624
82	0x3d1876e3	0.037222754
83	0x3d76674d	0.06015711
84	0xbd148716	-0.03626164
85	0x3d5ad767	0.05342808
86	0xbe0f1ad5	-0.1397508
87	0x3e0049aa	0.125281
88	0x3da56022	0.080749765
89	0x3cbc5697	0.022990508
90	0x3de1df8b	0.110289656
91	0x3dc753e4	0.09732798
92	0x3bd32e19	0.0064447043
93	0xbe0e2d83	-0.13884549
94	0x3ce0f3d4	0.027460016
95	0xbd87af8d	-0.066252805
96	0xbd1857f8	-0.03719327
97	0xbd149c80	-0.036282063
98	0x3d9a6a46	0.07539801
99	0x3d9005ec	0.070323795
100	0x3e0763ac	0.13221616
101	0xbdf1b2eb	-0.11801704
102	0xbca1afe1	-0.019737186
103	0x3d0de0e9	0.03463832
104	0x3d48c1b6	0.049012862
105	0xbb9b3747	-0.004736814
106	0x3d0a8679	0.03381965
107	0x3dabf29f	0.08395886
108	0x3d511e82	0.051054485
109	0x3d593c35	0.053035934
110	0xbc71652b	-0.014733593
111	0xbdc46826	-0.09590177
112	0xba566476	-0.0008178422
113	0x3d0786c3	0.033087503
114	0xbd1a0173	-0.03759904
115	0x3dce5af4	0.10075942
116	0x3cc1ef0e	0.02367356
117	0x3d7e369f	0.06206381
118	0xbc88951e	-0.016672667
119	0x3b8b0eca	0.0042437064
120	0x3cf00ff0	0.029304475
121	0xbcab67e2	-0.020923559
122	0x3c3343f8	0.010941498
123	0x3d930813	0.071792744
124	0xbd8014fa	-0.06254001
125	0xbc585aa3	-0.013205203
126	0x3e0a482b	0.13504092
127	0xbd22de96	-0.039763056
128	0x3d960c59	0.07326574
129	0x3dbe04f9	0.09278292
130	0xbdd72703	-0.10505488
131	0xbded5edd	-0.11590359
132	0xbe082e2b	-0.13298862
133	0x3d06803f	0.03283715
134	0x3d9cbcbb	0.07653185
135	0x3c71de39	0.014762455
136	0x3dec8327	0.11548453
137	0x3dbdeb27	0.092733674
138	0x3da9c90e	0.08290301
139	0x3d32583d	0.04354118
140	0x3d8d02ec	0.06885323
141	0x3d9849bb	0.07435938
142	0x3d80cf2e	0.062895164
143	0x3da1942c	0.0788959
144	0xbdbb83fd	-0.09156034
145	0xbde6ef6c	-0.11276135
146	0x3d8ab350	0.067724824
147	0x3dbb773b	0.09153601
148	0x3e041321	0.12897922
149	0x3c27be8c	0.010238301
150	0x3dc1a14b	0.09454592
151	0xbda28c34	-0.07936898
152	0x3d517666	0.051138304
153	0xbd904de9	-0.0704611
154	0x3e027176	0.12738594
155	0x3ddf6f8c	0.10909948
156	0xbc201b90	-0.009772196
157	0x3db85cfa	0.09002109
158	0xbd82a6e2	-0.063794866
159	0x3d3a8c03	0.04554368
160	0xbd63e735	-0.055640418
161	0x3de0d75f	0.10978579
162	0x3d5e9d7f	0.05434942
163	0x3d510e12	0.05103881
164	0xbdeabdc1	-0.11461974
165	0x3da8d6db	0.082441054
166	0x3e0382ec	0.12842911
167	0x3d2b32ef	0.04179662
168	0x3daf7b93	0.08568492
169	0x3db3d438	0.08780712
170	0xbd00453d	-0.03131603
171	0x3d5cdba4	0.053920403
172	0xbdde37e6	-0.108505055
173	0xbd9ef5b2	-0.077617064
174	0x3e003b40	0.12522602
175	0xbdffbce2	-0.124871984
176	0x3e0a8dfe	0.13530728
177	0xbdf0b41a	-0.11753102
178	0x3d24b96e	0.040215902
179	0x3cff2d4b	0.031149527
180	0xbe0de5c6	-0.13857183
181	0x3d077866	0.033073805
182	0x3d7963c5	0.060886163
183	0x3d55cc13	0.052196573
184	0x3dc3b675	0.09556285
185	0x3d43b189	0.047776733
186	0x3d96dbc3	0.07366135
187	0x3db0fb5b	0.08641692
188	0x3dc39fb2	0.09551944
189	0xbe097277	-0.13422571
190	0x3d86ac01	0.06575776
191	0x3da4f0f8	0.08053774
192	0x3d3ba415	0.045810778
193	0x3de8c787	0.11366182
194	0x3db09fdb	0.0862424
195	0x3de40d51	0.111353524
196	0xbd876eb5	-0.066129126
197	0x3dac181c	0.08403036
198	0x3e2a4560	0.16628027
199	0xbdb7987c	-0.08964631
200	0x3dce0352	0.10059227
201	0x3d872522	0.065988794
202	0x3d8dc67a	0.06922622
203	0x3d4c02bd	0.0498073
204	0xbd4d635b	-0.05014358
205	0x3d464e80	0.048414707
206	0x3df0e4f8	0.11762422
207	0x3d86150f	0.06546985
208	0x3dc08527	0.09400397
209	0xbc30e651	-0.010797099
210	0x3e5e6be2	0.21720842
211	0x3df0191e	0.11723541
212	0x3caca73b	0.021075835
213	0x3dcf442e	0.10120426
214	0x3c9a1b64	0.018811889
215	0x38303318	4.2009255e-05
216	0xbd73f9de	-0.059564464
217	0xbc843e03	-0.01614285
218	0x3de2dea4	0.110776216
219	0x3e1ac492	0.15114048
220	0x3b5a2a96	0.0033289543
221	0x3d93557c	0.07194039
222	0x3dc75a10	0.09733975
223	0x3d874313	0.0660459
224	0xbd60a41c	-0.054844007
225	0x3d805e66	0.06268005
226	0x3ce85415	0.028360406
227	0xbd917038	-0.07101482
228	0x3e1d2e80	0.1534977
229	0x3cebfc63	0.02880687
230	0x3d0884b6	0.033329688
231	0xbcc77ae2	-0.024350587
232	0xbca1f1b9	-0.019768583
233	0xbcc4af5d	-0.024009401
234	0xbc82099a	-0.015873719
235	0x3d8464e4	0.06464556
236	0x3d280db0	0.04102868
237	0xbd8dd09f	-0.06924557
238	0x3dbd2e1b	0.092373095
239	0x3d95c5a9	0.07313091
240	0xbcaf6566	-0.021410655
241	0x3d430d3a	0.047620036
242	0x3d9b8720	0.075941324
243	0x3dc2935b	0.09500762
244	0xbd413789	-0.047172103
245	0xbdf9d505	-0.121988334
246	0x3b32b44d	0.0027268112
247	0xbc7840b9	-0.01515215
248	0x3cc22a75	0.023701886
249	0x3e338c12	0.17533901
250	0x3c4522bf	0.01203221
251	0x3b89f59c	0.004210187
252	0x3d292677	0.04129645
253	0x3c23a012	0.009986894
254	0x3d46e900	0.04856205
255	0x3e123247	0.14276992

rnn.weight_hh_l0 f4 [256, 64]
0	0x3c816dd9	0.01579945
1	0xbd812417	-0.06305712
2	0x3d729b06	0.059229873
3	0xbd92a700	-0.07160759
4	0xbd83cdd0	-0.0643574
5	0xbc9b725e	-0.018975433
6	0xbc1b9206	-0.009495264
7	0xbd132db2	-0.03593225
8	0xbdec9630	-0.115520835
9	0x3dc226bf	0.094800465
10	0x3d137e77	0.03600928
11	0xbc7f0fe4	-0.015567753
12	0xbd7acb73	-0.06122918
13	0x3d99418e	0.07483207
14	0x3d0928f0	0.033486307
15	0x3d2d120c	0.04225354
16	0xbdfb3499	-0.122658916
17	0xbe02622c	-0.12732762
18	0x3c32936f	0.010899409
19	0x3d5c074a	0.05371789
20	0x3df43784	0.11924651
21	0xbda52793	-0.08064189
22	0xbdc7705e	-0.09738229
23	0xbdce7d7d	-0.10082529
24	0x3b9ba688	0.0047500767
25	0x3c8b3d3a	0.016996969
26	0xbc83a530	-0.016069978
27	0x3daab1e8	0.08334714
28	0xbcb18c30	-0.021673292
29	0x3d9a0286	0.075200126
30	0xbdc975da	-0.098369315
31	0x3dfa5c3c	0.122246236
32	0xbd13bcbb	-0.03606866
33	0xbc38853b	-0.011262233
34	0xbd32fe50	-0.043699563
35	0x3daa666e	0.08320318
36	0xbddb0eb8	-0.10696167
37	0x3ca3dd7c	0.020003073
38	0xbdf56d7d	-0.11983774
39	0x3defc7eb	0.11708053
40	0xbe0113fc	-0.1260528
41	0x3cfc4603	0.030795103
42	0xbc9ce2e1	-0.019151153
43	0x3db9f2db	0.09079524
44	0xbcc9be9a	-0.024627019
45	0x3d7e0f06	0.062026046
46	0xbd56a998	-0.05240783
47	0x3cc6e3ae	0.024278488
48	0xbe08b12a	-0.13348833
49	0x3dcb140a	0.099159315
50	0xbc82b34c	-0.015954636
51	0x3a47c2c0	0.00076202676
52	0xbd5cdeac	-0.053923294
53	0xbd5f7c7f	-0.054562088
54	0x3ca421f9	0.02003573
55	0x3d713e88	0.058897525
56	0xbd561e54	-0.052275017
57	0x3d02947d	0.03187989
58	0xbd3a615c	-0.045503005
59	0xbd92f3e2	-0.07175423
60	0x3c0a15c8	0.008428045
61	0x3d7a9d0a	0.06118492
62	0x3d92d836	0.07170145
63	0xbdb67636	-0.08909266
64	0x3dc17e3f	0.09447908
65	0x3e07b9c9	0.13254465
66	0x3d6895dd	0.056783546
67	0x3dd3f37d	0.10349176
68	0xbb48bdf3	-0.0030630797
69	0x3ddccb05	0.107809104
70	0xbd0c7f22	-0.03430093
71	0x3d66bb56	0.056331
72	0x3e275f50	0.16344953
73	0xbda9cabf	-0.08290624
74	0xbd0e532f	-0.0347473
75	0xbcb9836d	-0.022645677
76	0x3d113463	0.03545035
77	0xbd7a0858	-0.061043113
78	0xbd395913	-0.045250963
79	0xbd365cc9	-0.04452208
80	0xbdc017c8	-0.09379536
81	0xbdc383b6	-0.09546606
82	0x3c88b2fb	0.016686907
83	0x3df9483d	0.121719815
84	0xbd498eab	-0.049208324
85	0xbd15a02b	-0.0365297
86	0x3d7bfbfd	0.06151961
87	0x3d01e33e	0.031710856
88	0x3c026d0e	0.007960571
89	0xbde2972f	-0.11063992
90	0x3d2dcb75	0.04243036
91	0xbdb75f20	-0.089536905
92	0xbda0d22a	-0.078525856
93	0xbcf8778d	-0.030330444
94	0x3c951bb0	0.018201679
95	0x3da602d2	0.08106007
96	0x3dc88e64	0.09792784
97	0x3c9f59d6	0.019452017
98	0xbd1337bc	-0.035941824
99	0xbdb7ec69	-0.089806385
100	0x3d625a8a	0.055262126
101	0xbcdef441	-0.027216079
102	0x3da8afe0	0.082366705
103	0x3cbd7004	0.023124702
104	0xbcf2537a	-0.02958082
105	0xbd192344	-0.037387148
106	0xbd15213f	-0.03640866
107	0x3d80cbc4	0.06288865
108	0xbd29e80a	-0.041481055
109	0xbdeeaa19	-0.11653537
110	0xbd43c0a1	-0.047791127
111	0xbd827b29	-0.06371147
112	0x3a6d82ba	0.00090603123
113	0xbd661420	-0.056171536
114	0xbccc0a53	-0.024907267
115	0x3e2982fa	0.1655387
116	0xbde18ab3	-0.11012783
117	0x3d538762	0.051642783
118	0x3e122d25	0.14275034
119	0xbc527c0b	-0.012846957
120	0xbdef5ecc	-0.11688003
121	0x3bb17b9f	0.005416348
122	0x3c845ae0	0.016156614
123	0xbdd58906	-0.10426526
124	0xbe0b2679	-0.13588895
125	0x3d5807b7	0.052741732
126	0x3e1057f9	0.14096059
127	0x3d730a64	0.05933608
128	0x3deccacf	0.1156212
129	0x3d9e08aa	0.07716496
130	0xbdbf9ccf	-0.09356081
131	0x3db13ac4	0.08653787
132	0xbdf7c918	-0.120989025
133	0x3da288ed	0.07936273
134	0xbd2e7ac6	-0.042597555
135	0x3de52a1e	0.11189674
136	0x3cdeebc2	0.027212027
137	0x3ca1a10a	0.01973011
138	0x3d45d739	0.048300955
139	0x3e2a78de	0.1664767
140	0xbcdce205	-0.026963243
141	0x3e03c147	0.12866698
142	0x3d02f895	0.031975348
143	0xbda6957b	-0.0813398
144	0xbdf9a1c9	-0.12189061
145	0xbdd032da	-0.10165949
146	0x3e08b941	0.13351919
147	0x3a98a0df	0.0011644623
148	0x3da52239	0.08063168
149	0x3e126543	0.14296441
150	0xbd0f6299	-0.03500614
151	0xbe20273c	-0.15639967
152	0x3c90a23e	0.017655488
153	0xbdaa38d8	-0.08311623
154	0x3e105f02	0.14098743
155	0x3daf4213	0.085575245
156	0xbdd410a6	-0.10354738
157	0x3e098464	0.1342941
158	0x3cc768f4	0.024342038
159	0x3e22f487	0.15913592
160	0x3d5c008e	0.053711466
161	0x3d576f0c	0.052596137
162	0x3de525cb	0.11188849
163	0x3e148366	0.1450325
164	0xbd4da61c	-0.050207242
165	0x3cbccb48	0.02304615
166	0x3db21bec	0.08696732
167	0x3dc91319	0.09818096
168	0xbd5b24fb	-0.053502064
169	0xbcebfe86	-0.02880789
170	0x3c81b232	0.01583204
171	0xbcdbdaa7	-0.02683766
172	0x3c94fe3b	0.018187633
173	0xbdad6144	-0.084658176
174	0x3e140ce4	0.14458042
175	0xbc9a0296	-0.018800061
176	0xbd25bbe4	-0.04046239
177	0xbe1ae853	-0.15127687
178	0x3e0f513c	0.13995832
179	0x3d8a750e	0.06760608
180	0x3d7a7388	0.061145335
181	0x3de53d1c	0.11193296
182	0xbcf80d41	-0.030279757
183	0x3e173faf	0.14770387
184	0x3cc9f469	0.024652677
185	0x3dc311d7	0.09524887
186	0x3d4bcedb	0.04975782
187	0xbdad4e45	-0.08462194
188	0x3cc23bd9	0.023710178
189	0x3cbf52fa	0.023354996
190	0xbd80f415	-0.06296555
191	0x3d9d21c6	0.076724574
192	0x3d0074cf	0.031361397
193	0x3e039fdf	0.12853955
194	0xbe16adb7	-0.14714704
195	0x3c3cfb07	0.011534459
196	0x3dd9dd3b	0.106378995
197	0x3e2baecd	0.167659
198	0x3e2ea841	0.17056371
199	0x3db9c7fb	0.09071346
200	0x3e28f754	0.16500598
201	0x3de61ded	0.11236177
202	0x3d29df09	0.04147247
203	0x3d66dd6d	0.05636351
204	0x3e3553ad	0.17707701
205	0xbb03bc66	-0.0020101308
206	0x3e30ba21	0.17258503
207	0xbd84b66c	-0.06480107
208	0xbe1cf2d5	-0.15327008
209	0x3cc25df2	0.023726437
210	0x3d9aec6a	0.07564624
211	0x3e001106	0.12506494
212	0x3e4a1613	0.19734983
213	0x3df13279	0.11777205
214	0x3dd34e65	0.10317687
215	0xbc12b95c	-0.008955326
216	0x3df25e15	0.11834351
217	0xbda061fe	-0.078311905
218	0xbd77d4f7	-0.060505833
219	0x3d61e5dd	0.055150855
220	0x3ceb7ebb	0.028746953
221	0xbdf12160	-0.11773944
222	0x3cf65523	0.030069893
223	0xbab9ced7	-0.0014176023
224	0x3d9dbd03	0.07702067
225	0x3d6ba358	0.057528824
226	0x3e631668	0.22176516
227	0x3cd9b356	0.026574772
228	0x3c58f3bb	0.013241704
229	0x3d13af91	0.036056105
230	0xbdb5ef21	-0.08883501
231	0xbd2b8c4a	-0.041881837
232	0x3d4cf7e2	0.050041087
233	0xbc897357	-0.016778631
234	0xbd6c3c6a	-0.057674803
235	0x3df3df15	0.11907784
236	0xbe417c0e	-0.1889498
237	0x3c962147	0.018326415
238	0x3e264451	0.16236998
239	0xbde1a629	-0.11018021
240	0x3c201fe4	0.009773228
241	0x3c933f59	0.017974542
242	0x3cbd4c03	0.023107534
243	0x3c5b3b6c	0.0133808665
244	0xbe1f5fd3	-0.15563898
245	0xbd78f7af	-0.060783084
246	0x3e399c15	0.18125947
247	0x3dcba03d	0.099426724
248	0x3c6c28f4	0.014414061
249	0xbcaad10e	-0.020851638
250	0x3bd30082	0.0064392695
251	0x3d85850a	0.06519516
252	0x3cb72b19	0.022359418
253	0x3d6d709e	0.05796873
254	0x3d32c21b	0.043642145
255	0x3d0aaaad	0.033854175

rnn.bias_ih_l0 f4 [256]
0	0xbd4eb18c	-0.05046229
1	0x3d7b47b5	0.061347682
2	0xbd8dc983	-0.06923201
3	0xbd163e2d	-0.03668039
4	0xbdaae428	-0.083442986
5	0x3e26b8e2	0.16281465
6	0xbd2fcea4	-0.042921677
7	0x3e0f9cfb	0.14024727
8	0x3d077bc6	0.033077024
9	0x3ddd7a52	0.108143464
10	0xbdba29b7	-0.09089988
11	0xbcfc8ab8	-0.030827865
12	0x3dd79285	0.10525993
13	0x3e4ca41b	0.19984476
14	0x3d8b9353	0.06815209
15	0x3e03c8b5	0.12869532
16	0x3d83141f	0.06400322
17	0x3db4458a	0.08802326
18	0x3d3b0e2f	0.045667823
19	0xbdc3bda7	-0.09557658
20	0x3e22ce2b	0.1589896
21	0x3dd1e594	0.10248867
22	0x3e1c3a90	0.15256715
23	0x3e11cca7	0.14238225
24	0xbdb8a13f	-0.0901513
25	0xbcb759da	-0.022381712
26	0x3daec3aa	0.08533414
27	0x3da1ae5e	0.07894586
28	0xbdc0e4ae	-0.09418617
29	0x3e536a0f	0.20645927
30	0x3dc7a92a	0.09749062
31	0x3e10a80c	0.14126605
32	0xbd18295f	-0.03714883
33	0x3d61693d	0.055032004
34	0x3c5fd7b1	0.013662265
35	0x3dc71e1f	0.09722542
36	0xbd02d064	-0.031937018
37	0xbdba12eb	-0.090856396
38	0x3e604aa6	0.21903476
39	0x3c8813d0	0.01661101
40	0x3d70ea41	0.058817152
41	0x3dd2ebaf	0.10298859
42	0xbd792518	-0.06082639
43	0xbb27893c	-0.0025563976
44	0x3dfa5653	0.12223496
45	0x3e08097b	0.13284867
46	0xbacef39f	-0.0015789157
47	0x3e0e579d	0.1390061
48	0x3e00045c	0.12501663
49	0x3dee0c0d	0.11623392
50	0x3c76b4c1	0.0150577435
51	0xbd1bd6a3	-0.03804649
52	0xbd0c5bb1	-0.03426713
53	0x3d25f4a9	0.04051653
54	0xbd47384e	-0.04863768
55	0xbdb52146	-0.08844237
56	0x3dde2194	0.10846248
57	0xbd80ea0e	-0.062946424
58	0xbcf91014	-0.030403174
59	0x3df7c663	0.12098386
60	0x3e27f296	0.16401133
61	0x3dff2b28	0.12459403
62	0x3d1b8c5b	0.03797565
63	0xbd60e30c	-0.05490403
64	0xbcbda0b4	-0.023147918
65	0x3dbfa9ba	0.09358545
66	0x3db5792e	0.08861004
67	0xbcc9b4c1	-0.024622323
68	0xbdbfdd7f	-0.09368419
69	0xbd25c3fc	-0.04047011
70	0x3cd52509	0.026018636
71	0xbbfb13fc	-0.0076622944
72	0xbdaa939d	-0.08328936
73	0xbdc19964	-0.09453085
74	0x3e057265	0.1303192
75	0x3d9429b6	0.07234518
76	0x3d921af9	0.07134051
77	0xbcc7e163	-0.024399465
78	0x3d626010	0.055267394
79	0x3de7e086	0.11322121
80	0x3cfccc28	0.030859068
81	0xbda39d73	-0.079890154
82	0x3dff05ae	0.12452255
83	0xbccdf4fc	-0.025141232
84	0x3e026eac	0.1273753
85	0xbd29f659	-0.0414947
86	0xbd1f1d4e	-0.038846307
87	0x3d93f810	0.072250485
88	0x3d059205	0.03260996
89	0x3e0e2934	0.13882905
90	0x3e11a64a	0.1422359
91	0x3d270f82	0.040786274
92	0x3d3546bb	0.044256907
93	0xbdcd6b6b	-0.10030254
94	0xbd71bbb2	-0.05901689
95	0x3e0c477e	0.13699147
96	0xbe101dcb	-0.14073865
97	0x3d8a818e	0.06762992
98	0xbddbc654	-0.107311875
99	0xbdffb814	-0.12486282
100	0xbcbda014	-0.02314762
101	0xbd4aee61	-0.049543742
102	0xbe27ad97	-0.16374813
103	0x3e038018	0.12841833
104	0x3c2a7a75	0.010405173
105	0x3df7642c	0.12079653
106	0x3d115952	0.035485573
107	0xbe049946	-0.12949094
108	0xbd3943b7	-0.045230594
109	0x3d733d09	0.05938438
110	0xbc3500ba	-0.0110475365
111	0x3acb45c0	0.0015508458
112	0xbdef6ea3	-0.11691024
113	0xbd767d8d	-0.06017833
114	0xbd98bfe1	-0.07458473
115	0x3d031eec	0.03201191
116	0x3de5e956	0.11226146
117	0xbddb1f2d	-0.10699306
118	0x3e091a6a	0.13388982
119	0x3d5c1ce2	0.053738482
120	0x3d580c51	0.05274612
121	0x3d098136	0.03357049
122	0xbdc18b27	-0.09450369
123	0x3d484045	0.048889417
124	0x3d5d315e	0.05400216
125	0x3d37001a	0.04467783
126	0x3dae1e0a	0.08501823
127	0x3a90f37e	0.0011058894
128	0xbcbaaa51	-0.022786291
129	0x3dfa197f	0.12211894
130	0x3b36d70d	0.0027899176
131	0xbce14c58	-0.027502224
132	0x3dc53290	0.09628785
133	0xbdd6d9f2	-0.104907885
134	0x3d2c349d	0.042042363
135	0xbd7e9448	-0.06215313
136	0x3da894c8	0.08231503
137	0xbe0be393	-0.13661031
138	0xbe18a68c	-0.14907283
139	0x3e127bf1	0.14305092
140	0xbd9b268c	-0.075757116
141	0xbde8593a	-0.113451436
142	0x3d3e94d3	0.04652865
143	0xbdbc0d14	-0.09182182
144	0xbd252af5	-0.04032417
145	0xbd2d5914	-0.04232128
146	0xbb21a274	-0.002466348
147	0xbbc09fc6	-0.0058784215
148	0x3d506527	0.050877716
149	0x3e1e4f6b	0.15459983
150	0xbe097e86	-0.13427171
151	0x3daa49b9	0.08314843
152	0x3d7cb1ad	0.061692882
153	0xbdc04388	-0.093878806
154	0xbc8b7649	-0.017024176
155	0x3da4f0de	0.08053754
156	0xbe1051ca	-0.140937
157	0xbe0d2c42	-0.13786414
158	0xbc56d292	-0.013111727
159	0x3e0602c5	0.13086994
160	0x3d080f05	0.03321745
161	0xbd8461da	-0.06463976
162	0xbd50f65d	-0.0510162
163	0xbd0d2f0a	-0.034468688
164	0xbc59f618	-0.013303302
165	0xbda467e2	-0.080276266
166	0xbe0a0bd2	-0.13481072
167	0xbdc1fbad	-0.094718315
168	0x3d3f35a8	0.04668203
169	0xbd27c2c3	-0.040957224
170	0x3dc11187	0.09427171
171	0xbdc5f7b8	-0.09666389
172	0xbdec6848	-0.115433276
173	0xbccefbe7	-0.0252666
174	0x3d385448	0.045002252
175	0xbdc3cbd8	-0.095603645
176	0xbd6179b1	-0.055047695
177	0x3d2c5f19	0.04208288
178	0x3cd24de4	0.025671907
179	0x3d11b811	0.03557593
180	0x3dc69cf5	0.09697906
181	0xbbb61249	-0.005556379
182	0x3ddc2752	0.10749687
183	0x3b190758	0.0023350324
184	0x3c168db2	0.009189056
185	0x3d89063e	0.06690644
186	0xbd533f63	-0.051574122
187	0xbd61ed29	-0.055157814
188	0xbe056a5b	-0.13028853
189	0x3e1a7f3b	0.15087597
190	0x376e31cc	1.41975e-05
191	0x3d93eaba	0.07222505
192	0x3e216eef	0.15764974
193	0x3dc5c067	0.096558385
194	0x3c016231	0.007896946
195	0x3d2848bc	0.04108499
196	0x3d0b8683	0.034063827
197	0x3c0e6bd1	0.008692698
198	0x3dad06b9	0.08448548
199	0xbc14a332	-0.009072112
200	0xbd8f9036	-0.07009928
201	0xbd1ebc61	-0.03875387
202	0xbd059692	-0.0326143
203	0xbd4f64e8	-0.05063334
204	0x3e12758b	0.14302652
205	0x3de261be	0.11053799
206	0x3da13b83	0.07872679
207	0xbd39d662	-0.045370467
208	0x3e0049cf	0.12528156
209	0xbd359045	-0.04432704
210	0x3d004b05	0.031321544
211	0x3d6c05ea	0.057622828
212	0x3c25596c	0.010092121
213	0x3dea3741	0.1143632
214	0x3caf420c	0.021393798
215	0xbd396477	-0.045261826
216	0x3c14c8ab	0.009081046
217	0xbafa463f	-0.0019094421
218	0x3c9a9d1b	0.018873742
219	0xbd3ce3ee	-0.04611581
220	0x3e10d1c4	0.14142519
221	0x3daaad45	0.0833383
222	0x3ddb634f	0.10712301
223	0xbd315a5f	-0.043299075
224	0x3de9d746	0.11418013
225	0x3e472aaa	0.19449869
226	0x3e054082	0.13012889
227	0x3e1e3e03	0.15453343
228	0xbdc87d74	-0.09789553
229	0xbd815ab4	-0.063161284
230	0x3ce7566d	0.028239453
231	0x3db825db	0.08991595
232	0xbda8c9ae	-0.08241592
233	0x3d879ee6	0.06622104
234	0xbd178590	-0.03699261
235	0xbd08d65c	-0.033407554
236	0x3e08198a	0.13290992
237	0x3e212409	0.15736403
238	0xbd6ef5df	-0.05833995
239	0x3e00cdef	0.12578557
240	0x3d81bae3	0.06334474
241	0xbc61af56	-0.0137747135
242	0x3d977212	0.07394804
243	0x3d80e196	0.06293027
244	0x3c42cf9d	0.011890319
245	0x3de5f959	0.112292
246	0x3dd2eb80	0.10298824
247	0xbd5cef77	-0.05393931
248	0xbd9ffef1	-0.07812298
249	0xbdd3c030	-0.10339391
250	0xbd1c2b1c	-0.03812705
251	0x3ca33ed2	0.019927416
252	0x3e259c24	0.16172844
253	0x3e5ae36c	0.21375817
254	0xbd1ef623	-0.038808953
255	0xbdb868da	-0.09004374

rnn.bias_hh_l0 f4 [256]
0	0xbdc237e2	-0.09483315
1	0x3d70b7fc	0.05876921
2	0x3dc8f227	0.09811812
3	0x3dffa45e	0.124825224
4	0xbdcad698	-0.09904212
5	0x3d1c11d3	0.038102936
6	0x3c489dfb	0.012244697
7	0xbb8331ce	-0.00400374
8	0x3da7d463	0.081948064
9	0x3de76e28	0.113003075
10	0xbd8c7012	-0.06857313
11	0x3d0c372e	0.03423231
12	0xbd696ce2	-0.056988604
13	0x3e2141ae	0.15747711
14	0xbdd2f76d	-0.10301099
15	0xbd7b6a72	-0.06138081
16	0xbd8917ef	-0.06694018
17	0x3d12ced5	0.03584178
18	0x3d9aa5e9	0.07551176
19	0x3e011580	0.12605858
20	0xbd3bb3b1	-0.045825664
21	0x3b2e3ac7	0.0026585327
22	0x3e0dd4eb	0.13850753
23	0xbdbe066e	-0.0927857
24	0x3db8650f	0.090036504
25	0xbcf853ce	-0.030313399
26	0x3dba1d90	0.0908767
27	0x3d2b9631	0.04189128
28	0x3e034dcc	0.12822646
29	0x3e1a9cba	0.15098849
30	0x3cceccb6	0.025244098
31	0x3e17aabc	0.14811224
32	0x3e20a5cb	0.15688245
33	0x3c62c9ae	0.0138420295
34	0x3d40f4d2	0.04710848
35	0xbd129526	-0.03578677
36	0xbcddd531	-0.027079197
37	0xbd5513c7	-0.052020814
38	0x3e52893e	0.20560166
39	0x3df10f83	0.11770537
40	0x3dc8b3a5	0.097998895
41	0xbd7da258	-0.0619224
42	0x3dbc8624	0.09205273
43	0x3cca3d1f	0.024687348
44	0xbd70490b	-0.05866341
45	0x3d0eb03c	0.03483604
46	0x3da3493a	0.07972951
47	0xbd1bb815	-0.03801735
48	0x3e24be3c	0.16088194
49	0x3df82836	0.12117045
50	0x3c1616cc	0.009160709
51	0x3be41b41	0.0069612567
52	0x3d056449	0.032566343
53	0xbd442160	-0.04788339
54	0x3d83e049	0.064392634
55	0xbdd43094	-0.10360828
56	0x3db6a3bd	0.08917949
57	0x3bc550cc	0.0060215946
58	0x3d850768	0.06495553
59	0xbd095f05	-0.033537883
60	0x3bebd2cd	0.0071967603
61	0x3b989131	0.00465598
62	0x3de01a9c	0.10942575
63	0x3d909e96	0.07061498
64	0xbc00b58f	-0.007855787
65	0xbd829932	-0.06376876
66	0xbd4fd354	-0.050738648
67	0xbd4b46e2	-0.049628146
68	0xbe631631	-0.22176434
69	0xbb857a10	-0.004073389
70	0x3d62116e	0.055192403
71	0xbc506ee4	-0.012721751
72	0xbda5c9ca	-0.08095129
73	0xbcfc62fd	-0.03080892
74	0x3d117817	0.035514917
75	0xbce8e6b0	-0.028430313
76	0x3d9c5bda	0.07634707
77	0xbde9c819	-0.11415119
78	0xbbca7105	-0.0061780238
79	0x3b7e4c84	0.003880293
80	0xbd8ea66a	-0.06965335
81	0xbce937b1	-0.028468939
82	0x3a849243	0.001011439
83	0xbdeda176	-0.11603062
84	0x3e02ff2b	0.12792651
85	0x3e281424	0.16413933
86	0xbe0e39c7	-0.13889228
87	0x3df7a3b1	0.120917685
88	0x3d01b93f	0.031670805
89	0x3dc2b964	0.09508017
90	0xbdbe0822	-0.09278895
91	0xbdec5bc3	-0.1154094
92	0x3cbce7d7	0.023059769
93	0xbda2658c	-0.07929525
94	0xbdbb13d1	-0.09134639
95	0x3d38a900	0.045083046
96	0xbdfd956d	-0.12382016
97	0x3c57a8e9	0.01316283
98	0xbd664dcd	-0.05622654
99	0xbd82cddf	-0.06386923
100	0x3de0e68a	0.10981472
101	0xbcf4b5d0	-0.029871851
102	0xbd187ea6	-0.037230156
103	0x3dc7bd30	0.097528815
104	0x3df6215f	0.12018084
105	0xbd4496e6	-0.04799547
106	0x3cf79d0d	0.030226255
107	0x3c5982b6	0.013275793
108	0x3d265485	0.040607948
109	0x3d1df551	0.03856403
110	0xbdc9ec11	-0.09859479
111	0x3c9c4477	0.019075615
112	0xbcf1f593	-0.029536044
113	0xbda0970f	-0.07841312
114	0xbe0aa11c	-0.13538021
115	0xbbf7aa44	-0.007558139
116	0xbdcd5696	-0.100262806
117	0x3b9cf03c	0.0047893804
118	0x3c1045be	0.00880569
119	0x3ceb8ff1	0.02875516
120	0x3defdb66	0.11711769
121	0x3c9b0157	0.018921537
122	0xbc947200	-0.018120766
123	0xbbeb8729	-0.007187743
124	0xbc72f265	-0.014828299
125	0x3d4e52f3	0.050372075
126	0x3dd1e9a9	0.10249645
127	0x3c99a1ce	0.018753912
128	0xbd6818c5	-0.056664247
129	0x3c964209	0.018342035
130	0xbbce495f	-0.0062953676
131	0x3e1f3527	0.1554762
132	0xbd1b43d3	-0.03790648
133	0xbca24c3c	-0.019811742
134	0x3e212420	0.15736437
135	0xbcd19ecf	-0.025588421
136	0x3e144dfc	0.14482874
137	0xbd3dd1aa	-0.04634253
138	0xbdf5c140	-0.1199975
139	0x3c336cef	0.010951265
140	0x3ca9e461	0.020738782
141	0x3c1ca3b7	0.009560517
142	0x3d906e79	0.07052321
143	0xbe0662cc	-0.13123626
144	0xbdcbc40b	-0.099495016
145	0xbcc546c5	-0.024081597
146	0x3dcd1bde	0.10015081
147	0xbd98e58d	-0.07465658
148	0x3cf0e944	0.029408105
149	0x3d621908	0.055199653
150	0xbe1ff8e8	-0.15622294
151	0xbd9e944d	-0.0774313
152	0xbcb23df3	-0.021758055
153	0x3db7dd92	0.08977808
154	0xbdce6fbc	-0.100799054
155	0x3ceade40	0.02867043
156	0xbd1fc987	-0.03901055
157	0xb9f4d477	-0.00046697605
158	0xbd94e746	-0.072706744
159	0x3dfb9d08	0.12285811
160	0x3e3aa909	0.18228544
161	0x3e0254f5	0.12727721
162	0x3d73d438	0.05952856
163	0x3b5d9f99	0.0033817051
164	0xbd28fb0a	-0.041255035
165	0xbbbc052a	-0.0057379203
166	0xbce07078	-0.02739738
167	0xbd9cf3dc	-0.076637
168	0x3dda1ceb	0.10650047
169	0xbb7f0ba6	-0.0038916855
170	0xbdb7c7a6	-0.08973627
171	0x3cfd0eb6	0.030890804
172	0x3d81adc1	0.06331969
173	0xbe076312	-0.13221386
174	0xbd78b496	-0.060719095
175	0x3dcdc1c9	0.10046727
176	0xbe23c37a	-0.15992537
177	0x3d5b80e5	0.05358972
178	0x3d7c65bc	0.06162046
179	0xbcc0e159	-0.023544954
180	0xbdcbf934	-0.09959641
181	0x3dd773d4	0.10520139
182	0x3d98f10b	0.0746785
183	0xbc1f4523	-0.009721073
184	0xbe15b917	-0.14621387
185	0x3db19e15	0.0867273
186	0x3d8c2b5c	0.06844208
187	0xbb9d3586	-0.0047976403
188	0xbcd18547	-0.025576247
189	0x3d21d130	0.039506137
190	0xbdda10cd	-0.10647736
191	0x3d72bbea	0.05926124
192	0xbd812824	-0.06306484
193	0x3de966ce	0.113965616
194	0x3d3a3499	0.045460317
195	0xbd049e06	-0.032377265
196	0x3d2cce46	0.042188905
197	0x3d80e466	0.062935635
198	0xbbb6f178	-0.0055829845
199	0x3ce82a7a	0.028340567
200	0xbc960866	-0.018314552
201	0xbd07827c	-0.033083424
202	0xbd9b83b2	-0.07593478
203	0xbcd278b8	-0.025692329
204	0x3ccdaceb	0.025106868
205	0x3de18ff5	0.11013786
206	0x3e11fe31	0.14257123
207	0xbd8a29ff	-0.06746291
208	0xbdb12e17	-0.08651369
209	0x3d7b9101	0.061417583
210	0xbd9949e8	-0.074847996
211	0x3e08086f	0.13284467
212	0x3d7b65a0	0.061376214
213	0x3d9e2892	0.07722582
214	0x3e018c4c	0.12651175
215	0xbdbc08c7	-0.09181362
216	0x3dd22d6e	0.10262571
217	0x3e0e7969	0.13913502
218	0xbbfc3380	-0.007696569
219	0xbd54ad98	-0.051923364
220	0x3c846520	0.016161501
221	0x3ded4451	0.11585296
222	0x3c744128	0.014908113
223	0xbd2e2c25	-0.04252257
224	0x3de441c0	0.11145353
225	0x3d9c39e0	0.07628226
226	0xbc9ce7e6	-0.019153547
227	0x3e0d4e13	0.13799314
228	0x3ce26992	0.02763823
229	0x3d5b6d2a	0.053570904
230	0x3e35e74c	0.17764014
231	0xbd1258ec	-0.035729334
232	0xbb47a87f	-0.0030465422
233	0x3cc53fca	0.024078269
234	0xbd81538a	-0.06314762
235	0xbd09cdfa	-0.0336437
236	0x3d80e852	0.062943116
237	0x3e01d7b7	0.12679945
238	0x3e2b6d34	0.16740876
239	0x3d12345f	0.035694476
240	0x3d1911fe	0.037370674
241	0xbcc0c0c3	-0.023529416
242	0x3d9d3929	0.07676918
243	0xbd5c5134	-0.05378838
244	0xbcc4d583	-0.024027592
245	0x3e18a148	0.14905274
246	0x3da45c00	0.0802536
247	0x3d84b753	0.06480279
248	0x3de1ee28	0.11031753
249	0x3dd6f1e2	0.10495354
250	0x3d87a38e	0.066229925
251	0xbc211e98	-0.009833954
252	0x3e362395	0.17787011
253	0x3dede2eb	0.11615547
254	0xbcdd9ca4	-0.027052231
255	0x3d5c49a0	0.05378115

rnn.weight_ih_l0_reverse f4 [256, 1]
0	0xbd91d799	-0.071212
1	0xbc8a4c5a	-0.01688211
2	0x3d57b033	0.05265827
3	0x3dcf5e41	0.101253994
4	0xbca38eb6	-0.01996551
5	0x3daf7af6	0.08568375
6	0x3c9358df	0.017986713
7	0xbcb37bf2	-0.021909688
8	0x3e1f5508	0.1555978
9	0xbd8cd5f2	-0.06876744
10	0xbd7b2972	-0.061318822
11	0xbc135438	-0.008992247
12	0xbdaffe62	-0.085934415
13	0x3de736cc	0.112897485
14	0x3d7a0245	0.06103732
15	0x3d0b28a5	0.03397431
16	0xbd90fff2	-0.07080068
17	0xbd5c0c23	-0.053722512
18	0xbd680c26	-0.05665221
19	0x3d297f25	0.04138102
20	0x3d08b4fc	0.033375725
21	0x3dcc46ae	0.099744186
22	0xbd630aec	-0.055430338
23	0x3e1f0abb	0.15531437
24	0xbc352da5	-0.011058246
25	0x3e3f679a	0.18691865
26	0x3e207a80	0.1567173
27	0x3d25722c	0.040392086
28	0xbd9e8ec8	-0.07742077
29	0x3dfb645d	0.12275002
30	0x3ca02b7f	0.01955199
31	0x3e03dda7	0.12877522
32	0xbbd6f579	-0.0065600243
33	0x3d67a921	0.05655778
34	0x3d5a5ca2	0.053310998
35	0x3e0875f3	0.13326244
36	0x3d9cde7f	0.07659625
37	0x3d9a651c	0.07538816
38	0x3ca3a6be	0.01997697
39	0xbc03b595	-0.008038898
40	0xbd6dc126	-0.05804553
41	0xbdba16b2	-0.0908636
42	0x3d20a502	0.039219864
43	0x3e6993e5	0.22810324
44	0xbca9c2ad	-0.020722711
45	0x3d55f5e0	0.052236438
46	0x3d82a869	0.06379778
47	0x3e16d588	0.14729893
48	0xbd3d7a8e	-0.046259455
49	0xbd99c43f	-0.07508134
50	0xbdbff676	-0.093731806
51	0x3d121c2f	0.03567141
52	0xbd374b71	-0.04474968
53	0x3dda74d9	0.10666818
54	0x3b435812	0.0029807133
55	0xbcc1fb12	-0.02367929
56	0x3d9b28a8	0.07576114
57	0x3dbc6d18	0.092004955
58	0x3de0ff06	0.10986142
59	0x3d84cded	0.0648459
60	0xbd2f122b	-0.042741936
61	0xbd19c573	-0.037541818
62	0x3de1b496	0.11020772
63	0xbd6e5ee9	-0.058195982
64	0xbdd40edd	-0.103543974
65	0xbd21da1c	-0.039514646
66	0xbd83f97c	-0.0644407
67	0x3cac91bb	0.021065583
68	0xbc21b7e9	-0.009870508
69	0x3d89d4ec	0.06730065
70	0x3da27f14	0.079343945
71	0x3cc0982f	0.023510067
72	0x3dc601ef	0.096683376
73	0xbddc14bc	-0.10746142
74	0x3d3f5a24	0.046716824
75	0x3db8ff6a	0.09033091
76	0xbdb5c3c4	-0.0887523
77	0x3d776f06	0.060408615
78	0x3da6636c	0.08124432
79	0x3e10d5ec	0.14144105
80	0x3df83db2	0.121211424
81	0xbba50349	-0.005035792
82	0x3de5bf23	0.11218097
83	0xba9c0cdf	-0.0011905691
84	0x3df637d4	0.12022367
85	0x3da93008	0.08261114
86	0x3de459f4	0.1114997
87	0x3db0ea3d	0.086384274
88	0xbdd2eb09	-0.10298736
89	0x3d769797	0.06020316
90	0x3d278146	0.04089477
91	0x3d8f9738	0.070112646
92	0xbcd90752	-0.026492748
93	0x3d8845fd	0.06653974
94	0x3c9dc546	0.019259106
95	0xbd08987d	-0.03334855
96	0x3d628811	0.055305544
97	0x3d9e9bf0	0.077445865
98	0x3d196631	0.037450973
99	0x3d48a174	0.0489821
100	0xbd1f0140	-0.03881955
101	0x3c634bbf	0.01387304
102	0xbdc76ae9	-0.09737188
103	0x3d51faaa	0.051264443
104	0x3ca1258b	0.019671222
105	0xbdd22a22	-0.102619424
106	0xba995f31	-0.0011701343
107	0xbd337d7a	-0.043820836
108	0x3ceda4a6	0.029009175
109	0xbd9eb475	-0.07749263
110	0x3d343b13	0.04400165
111	0x3d7b8d61	0.061414126
112	0x3de5f150	0.11227667
113	0xbb4eb46b	-0.0031540643
114	0x3d52a558	0.051427215
115	0xbc0c9fd6	-0.00858303
116	0x3e04602c	0.12927312
117	0xbc272214	-0.010200996
118	0x3dadc19b	0.08484193
119	0x3d3f9846	0.04677608
120	0x3c6e9234	0.014561225
121	0x3d2f810c	0.042847678
122	0xbbe76325	-0.0070613795
123	0x3d3a2a97	0.045450773
124	0xbce490f8	-0.027901158
125	0x3aa4b759	0.0012566849
126	0xbcecfdf9	-0.028929697
127	0x3cd325b5	0.025774816
128	0xbe00ac77	-0.1256579
129	0xbda87c54	-0.08226839
130	0xbc90534f	-0.01761785
131	0xbd9cd26d	-0.07657323
132	0x3d87fff5	0.06640617
133	0xbcf0ba67	-0.029385759
134	0x3db23a97	0.087025814
135	0xbdeeedba	-0.116664365
136	0x3d75c1c5	0.059999246
137	0x3e1d54f9	0.15364446
138	0x3df74427	0.12073546
139	0xbe090b36	-0.13383183
140	0x3de8daae	0.11369835
141	0xbe0a60a4	-0.13513428
142	0x3d697e4a	0.057005204
143	0xbdc6fd11	-0.09716237
144	0xbded6a33	-0.115925215
145	0x3dea45a3	0.114390634
146	0x3da746ea	0.08167823
147	0x3e143a24	0.14475304
148	0xbd9568af	-0.072953574
149	0x3cc64a46	0.024205338
150	0x3e3078dc	0.17233604
151	0xbd1a7405	-0.0377083
152	0x3cee9ae6	0.029126596
153	0x3cc7a482	0.024370436
154	0x3dcffc62	0.1015556
155	0x3dd897e7	0.10575848
156	0xbd8c6554	-0.06855264
157	0xbd51078f	-0.0510326
158	0xbda9b86f	-0.08287131
159	0x3dd462ce	0.10370408
160	0xbdbd3f64	-0.092406064
161	0xbe0f5b06	-0.13999566
162	0xbdfb2191	-0.12262262
163	0x3d2c7bd3	0.042110275
164	0x3d80110b	0.06253251
165	0x3de2c975	0.11073581
166	0x3e121294	0.142649
167	0x3d87f7b6	0.06639044
168	0xbe1d8d21	-0.15385868
169	0x3db3e9c0	0.08784819
170	0xbdcc2cd2	-0.09969486
171	0xbe159618	-0.14608037
172	0x3d70f17c	0.058824047
173	0xbdee3183	-0.11630537
174	0xbd632ac2	-0.0554607
175	0xbcbef722	-0.023311201
176	0xbdc14403	-0.094368
177	0x3e0224b2	0.1270931
178	0x3d0ad171	0.033891145
179	0xbdd18a69	-0.10231478
180	0xbe03fdcd	-0.12889786
181	0x3df828fb	0.121171914
182	0x3d4ec088	0.05047658
183	0xbd82a13c	-0.06378409
184	0x3d663fef	0.056213316
185	0x3cc9bf1f	0.024627266
186	0x3c6bc1e9	0.0143894935
187	0x3e0c4719	0.13698997
188	0x3e2261c2	0.15857604
189	0xbdd8fd3d	-0.10595176
190	0xbd670eb4	-0.056410506
191	0x3dee60d7	0.116395645
192	0x3db915e0	0.090373755
193	0x3dbf74a6	0.09348421
194	0x3c6e4cc3	0.014544669
195	0xbda2ce03	-0.0794945
196	0x3e140e90	0.1445868
197	0x3da475f3	0.080303095
198	0x3d2c6d5a	0.042096473
199	0x3e13e207	0.14441691
200	0xbd9a0d0d	-0.075220205
201	0x3e114ad0	0.14188695
202	0x3c972ffd	0.0184555
203	0x3d0043ea	0.031314768
204	0x3a8f8b78	0.0010951599
205	0x3e046adc	0.12931389
206	0x3d7cf967	0.061761286
207	0xbdcc2174	-0.09967318
208	0xbc3f7cc2	-0.011687459
209	0xbd2dae10	-0.042402327
210	0x3d36b9c7	0.044610765
211	0xbbfe5d8b	-0.007762616
212	0xbdb5ce86	-0.08877282
213	0x3dbe6f1e	0.09298538
214	0x3da9e0b9	0.082948156
215	0x3d246c60	0.040142417
216	0xbd68ae0c	-0.05680661
217	0x3e00fc34	0.12596208
218	0x3e1c3ada	0.15256825
219	0x3df5329f	0.11972546
220	0x3c962c4f	0.018331675
221	0x3d12f521	0.035878304
222	0x3e0b8c3e	0.13627717
223	0x3db3f909	0.08787734
224	0x3d9ae3d3	0.07562985
225	0x3dcf8bba	0.101340726
226	0x3dc36abd	0.09541843
227	0x3deb90ca	0.11502226
228	0xbd880b0d	-0.06642733
229	0xbc970d41	-0.018438937
230	0x3e01707a	0.12640563
231	0xbd6f9927	-0.058495667
232	0xbd3e7293	-0.046495985
233	0x3e0bd435	0.1365517
234	0x3c3d0fdd	0.011539427
235	0xbd533eca	-0.051573552
236	0x3d99f763	0.075178884
237	0x3e024965	0.1272331
238	0x3c55d91c	0.013052251
239	0x3d30a1d5	0.043123085
240	0xbdd27514	-0.10276237
241	0x3df03a76	0.117299005
242	0x3dd6c374	0.104864985
243	0x3cf242ce	0.02957287
244	0xbd533f4c	-0.051574036
245	0x3e0af6b2	0.1357067
246	0x3dc89ba5	0.09795312
247	0xbd842d58	-0.06453961
248	0x3d2508fe	0.04029178
249	0xbd99fc45	-0.0751882
250	0xbaf8948d	-0.001896517
251	0xbc400762	-0.01172051
252	0x3dc0f2c5	0.094213046
253	0xbb20eabf	-0.0024553982
254	0xbca37fae	-0.019958343
255	0xbc579685	-0.013158445

rnn.weight_hh_l0_reverse f4 [256, 64]
0	0xbe01eaee	-0.12687275
1	0xbdc85041	-0.09780932
2	0x3d140073	0.03613324
3	0xbde3aff6	-0.11117546
4	0x3d58ac0f	0.052898463
5	0x3dd4b1ca	0.10385473
6	0xbd760042	-0.06005884
7	0x3d2a0add	0.041514266
8	0x3dab672c	0.08369288
9	0xbcf8c3da	-0.030366827
10	0x3d25e028	0.040496975
11	0xbc2b1a43	-0.010443273
12	0x3ced7305	0.02898551
13	0x3db413d1	0.08792842
14	0x3e37f189	0.17963232
15	0x3d4d2a36	0.050089084
16	0xbd10e6e5	-0.03537645
17	0xbd567c56	-0.05236467
18	0xbd1786f6	-0.036993943
19	0xbdc5b4b4	-0.09653607
20	0x3d39aa0b	0.04532818
21	0x3cd22e08	0.025656715
22	0x3cd93fe7	0.026519729
23	0x3db0a6bd	0.08625553
24	0x3d30d7be	0.043174498
25	0x3dc459b8	0.09587425
26	0x3dff3b30	0.12462461
27	0x3dde8e4f	0.10866987
28	0xbe0ade3f	-0.13561343
29	0xbd23c6c9	-0.0399845
30	0xbd3f9d00	-0.046780586
31	0xbd9712c6	-0.073766276
32	0xbe00610f	-0.12537025
33	0xbdc71850	-0.09721434
34	0xbdb6cb83	-0.089255355
35	0x3db301df	0.08740591
36	0x3df18533	0.11792984
37	0x3bdb4423	0.006691472
38	0x3ca98961	0.02069539
39	0xbdd16900	-0.10225105
40	0xbd523a95	-0.0513254
41	0x3de46955	0.11152903
42	0xbe0b40db	-0.13598959
43	0xbe06fc80	-0.13182259
44	0xbd4e8c68	-0.05042687
45	0x3da6cb4d	0.08144245
46	0x3dc2db1f	0.0951445
47	0x3d9fe46d	0.07807241
48	0x3c6648ea	0.01405547
49	0x3e2eb63f	0.17061709
50	0x3d9a8680	0.07545185
51	0xbd651bec	-0.05593483
52	0xbe037d0e	-0.12840673
53	0x3e0515c3	0.12996583
54	0x3cfa8f22	0.03058583
55	0xbda2a630	-0.07941854
56	0xbde7399e	-0.112902865
57	0xbdd53df9	-0.10412211
58	0xbd9235cb	-0.071391664
59	0x3dc01ff3	0.09381094
60	0x3c097748	0.008390255
61	0xbcbcfe92	-0.023070607
62	0x3ca09e45	0.019606719
63	0x3ced7091	0.02898434
64	0xbe009e24	-0.12560326
65	0xbc39b811	-0.011335389
66	0xbdd01bdc	-0.10161564
67	0xbd94aeb6	-0.07259886
68	0x3e31adde	0.17351481
69	0xbd8cc5ea	-0.068736866
70	0xbd99600b	-0.07489022
71	0xbe06b8eb	-0.13156478
72	0x3d8c1ac6	0.06841044
73	0x3d9e4f6c	0.07729992
74	0x3e2f89a7	0.17142354
75	0xbcd6015f	-0.0261237
76	0x3d22aa08	0.039712936
77	0xbde3c0f7	-0.111207895
78	0xbe26dee2	-0.1629596
79	0xbe0479f6	-0.1293715
80	0xbb3ee7a4	-0.0029129768
81	0x3c8622b5	0.016373971
82	0x3e190c71	0.14946152
83	0x3d9b3493	0.07578387
84	0xbd477ec7	-0.04870489
85	0x393396d3	0.00017126957
86	0x3cb82d9b	0.022482684
87	0xbe01ebf1	-0.12687661
88	0xbd0c162e	-0.03420084
89	0x3cf77605	0.030207643
90	0x3dbeb557	0.093119316
91	0x3da971e3	0.08273675
92	0x3ccc9126	0.024971556
93	0xbd6b6dc4	-0.057477728
94	0xbc3c37ca	-0.0114879105
95	0xbd854fac	-0.06509337
96	0xbe022bcd	-0.12712021
97	0xbddf7b9d	-0.10912249
98	0xbdd37051	-0.10324157
99	0x3de74369	0.11292154
100	0xbca8b6eb	-0.020595035
101	0x3d3b4c49	0.045727048
102	0x3e156f13	0.14593153
103	0xbe0f17be	-0.139739
104	0x3d7f616b	0.062348764
105	0x3e117204	0.1420365
106	0xbd5600e1	-0.052246932
107	0xbd5efc72	-0.05443997
108	0xbb7671a8	-0.0037604365
109	0x3d239df1	0.039945547
110	0xbdb9bffd	-0.09069822
111	0xbd0672ac	-0.032824203
112	0x3d347f7b	0.044066887
113	0x3de46bae	0.11153351
114	0x3d3962e0	0.04526031
115	0x3cb28625	0.02179248
116	0xbc1ea634	-0.009683181
117	0x3cec6e88	0.0288613
118	0xbd7309f1	-0.059335653
119	0xba889d3f	-0.001042284
120	0x3e01dfc8	0.12683022
121	0x3d7f3a34	0.062311366
122	0x3e126c85	0.1429921
123	0xbcef8dec	-0.029242478
124	0x3ddd3216	0.10800569
125	0xbd30ac62	-0.043133147
126	0xbd494781	-0.049140457
127	0xbdefda8e	-0.11711608
128	0x3ccdf5d8	0.025141641
129	0x3d8f4525	0.0699561
130	0x3c099f99	0.008399867
131	0xbd9427ec	-0.07234177
132	0x3db12403	0.08649447
133	0xbe355b13	-0.17710523
134	0xbd829d74	-0.06377688
135	0x3d3b0338	0.045657367
136	0x3d803370	0.06259811
137	0x3e0864e1	0.13319732
138	0xbcceecc9	-0.025259392
139	0xbe250734	-0.16116029
140	0x3d182b3b	0.037150603
141	0xbe1a097c	-0.1504268
142	0xbd95f7d1	-0.07322658
143	0xbe0374ff	-0.12837599
144	0xbe2a5707	-0.16634761
145	0x3cc1db79	0.023664223
146	0x3dd1070c	0.10206422
147	0x3da0b1d1	0.07846416
148	0xbe0a9bbe	-0.13535973
149	0x3d0a6e77	0.033796754
150	0xbd1bfb9d	-0.038081754
151	0xbe11b715	-0.14229997
152	0x3e29ce35	0.16582568
153	0x3cce94b5	0.025217393
154	0x3e0db049	0.13836779
155	0x3e10a079	0.14123715
156	0xbd2e04f3	-0.04248519
157	0xbdeef2e9	-0.11667425
158	0x3b6cae28	0.0036114547
159	0x3dcca6d5	0.09992758
160	0x3de2225a	0.11041708
161	0xbd319b5a	-0.043361045
162	0xbde15e9c	-0.110043734
163	0x3d08e416	0.033420645
164	0x3dd39af8	0.10332292
165	0x3e27f195	0.1640075
166	0x3e0770a4	0.13226563
167	0x3da10e80	0.07864094
168	0xbd2a6eae	-0.04160946
169	0x3e141a40	0.14463139
170	0xbc86021d	-0.01635843
171	0xbe0d6583	-0.13808255
172	0x3d88fae6	0.0668848
173	0xbe28dbd5	-0.1649011
174	0xbe121ffd	-0.14270015
175	0xbde0a03e	-0.10968064
176	0xbc917fac	-0.017761074
177	0xbd73d2c4	-0.059527174
178	0x3e1d00f7	0.153324
179	0xbdd9e27f	-0.10638904
180	0xbb6fb657	-0.003657719
181	0xbcfde440	-0.030992627
182	0x3e2d50dc	0.16925377
183	0xbc12aa60	-0.008951753
184	0x3da16d68	0.07882196
185	0x3d8a6720	0.06757951
186	0x3e501b19	0.20322837
187	0x3dee2bd8	0.11629456
188	0xbc01941e	-0.007908849
189	0xbd162cf7	-0.036663976
190	0xbdea3af5	-0.114370264
191	0xbd95dfb2	-0.07318057
192	0x3bb60e63	0.0055559142
193	0x3d91c07a	0.0711679
194	0x3d5eba22	0.05437673
195	0xbe1f1c72	-0.15538195
196	0x3e0d55ab	0.13802211
197	0xbd57ff3c	-0.052733645
198	0x3d588b05	0.052866954
199	0xbc5a040f	-0.013306632
200	0x3c094312	0.008377807
201	0x3de271c5	0.11056856
202	0xbd923256	-0.07138507
203	0xbdd8e6d1	-0.105909
204	0xbce914df	-0.028452335
205	0xbddab4e5	-0.10679034
206	0x3d91d796	0.07121198
207	0x3dbc3ff8	0.091918886
208	0xbd72db8b	-0.059291404
209	0x3dfd58bc	0.1237044
210	0xbd46693e	-0.04844021
211	0xbc2f29f7	-0.010691158
212	0xbdbcb61b	-0.09214421
213	0x3d893c62	0.0670097
214	0xbcb5991d	-0.022167737
215	0xbde55935	-0.111986555
216	0xbd87ac0a	-0.06624611
217	0x3de67a5b	0.11253806
218	0xbd57ab1f	-0.05265343
219	0x3e08032f	0.13282464
220	0xbcf2251c	-0.02955871
221	0xbd704994	-0.05866392
222	0xbe1e4734	-0.1545685
223	0x3c127d03	0.008940938
224	0xbd409ff9	-0.04702756
225	0xbd98eef4	-0.07467452
226	0x3d277674	0.04088445
227	0x3c69ae28	0.0142627135
228	0x3daf157f	0.08549022
229	0x3d2e92d5	0.0426205
230	0x3c799370	0.015232906
231	0xbcab6edf	-0.02092689
232	0xbd52e971	-0.05149216
233	0xbbe31581	-0.0069300537
234	0xbd895d5e	-0.067072615
235	0x3d63fa69	0.05565873
236	0x3a8545a8	0.0010167854
237	0xbe192b84	-0.14958006
238	0xbe0736ab	-0.13204448
239	0x3d9ca3e6	0.07648449
240	0x3d827385	0.0636969
241	0xbb7ef408	-0.0038902778
242	0x3dd61f27	0.104551606
243	0x3d8fdfc2	0.070251
244	0xbdadcfdf	-0.08486914
245	0xbda23e60	-0.07922053
246	0xbd1f2856	-0.038856827
247	0xbe119a22	-0.14218953
248	0x3dcadd35	0.09905473
249	0xbbca44b0	-0.006172739
250	0x3ac5a402	0.0015078785
251	0xbd81c70d	-0.06336794
252	0x3d63f325	0.055651803
253	0x3da133b6	0.07871191
254	0xbe085fd2	-0.13317803
255	0x3df47a3d	0.119373776

rnn.bias_ih_l0_reverse f4 [256]
0	0x3dd7a24a	0.10529001
1	0x3d81a13a	0.0632958
2	0x3c6714eb	0.014104108
3	0x3df43671	0.119244464
4	0x3d5d37f9	0.054008458
5	0xbd0ae6a5	-0.033911366
6	0xbda5a563	-0.08088186
7	0x3d31ee56	0.043440185
8	0x3aa5100b	0.0012593282
9	0x3dc9f08e	0.09860335
10	0xbd534be7	-0.051586058
11	0x3e0713f5	0.13191207
12	0x3d1dc197	0.0385147
13	0xbd340e3a	-0.04395888
14	0x3e337a36	0.17527089
15	0x3dc6b0fb	0.09701725
16	0xbd479daa	-0.048734345
17	0x3d865074	0.06558314
18	0x3c280cac	0.010256927
19	0x3daed919	0.08537502
20	0x3d13c6e5	0.036078352
21	0xbd2b23ca	-0.041782178
22	0x3e167c20	0.14695787
23	0x3c1d8edb	0.009616579
24	0xbd734ef4	-0.059401467
25	0x3def7297	0.11691778
26	0x3e278f5f	0.16363285
27	0xbd4fff33	-0.050780486
28	0xbd858dc3	-0.065211795
29	0xbbcbb202	-0.0062162885
30	0x3d6cc335	0.05780335
31	0x3de6ee74	0.1127595
32	0x3c737448	0.014859267
33	0xbd4b9060	-0.049698234
34	0x3e30f25e	0.17279956
35	0x3d95b123	0.07309177
36	0x3cbd5ef4	0.023116566
37	0x3d9f11e0	0.07767081
38	0xbd52e977	-0.05149218
39	0x391f9715	0.00015219704
40	0x3daea333	0.085272215
41	0x3e0efccf	0.13963626
42	0x3dd8d9ae	0.10588394
43	0x3dcd611e	0.10028289
44	0x3d24b4dd	0.040211547
45	0xbd45195e	-0.048119895
46	0xbd31af6e	-0.043380193
47	0x3db9e0d1	0.090760835
48	0xbc782cef	-0.015147432
49	0xbc675ecd	-0.014121723
50	0x3d217d57	0.039426174
51	0x3deeaa8a	0.116536215
52	0xbde1b216	-0.11020295
53	0xbd40684c	-0.046974465
54	0xbd70f012	-0.0588227
55	0x3e2f024c	0.1709072
56	0x3c6b1687	0.014348633
57	0x3d2ef5a2	0.042714722
58	0x3d9a38fe	0.07530402
59	0xbe0c3573	-0.13692264
60	0xbd3b4b21	-0.045725945
61	0x3d88dd2e	0.06682812
62	0x3e2dca57	0.16971718
63	0x3d8a4c8d	0.06752882
64	0x3d96ce0a	0.073635176
65	0x3dda3b4b	0.106558405
66	0xbd79f555	-0.061024982
67	0x3de3ff1b	0.11132642
68	0x3b82d0b2	0.0039921636
69	0x3d5a288f	0.053261336
70	0x3c21e842	0.009882035
71	0xbdbd394d	-0.09239445
72	0x3db12ec0	0.08651495
73	0x3d19ed99	0.037580106
74	0x3c280399	0.010254764
75	0x3d6d36a3	0.057913434
76	0x3dca5a38	0.09880489
77	0x3e0aa94c	0.13541144
78	0xb9acaed7	-0.00032936662
79	0x3d98dfaf	0.07464539
80	0xbc81fdb6	-0.01586805
81	0x3c582b34	0.013193894
82	0x3d900292	0.0703174
83	0x3d135af7	0.035975423
84	0x3e0d295e	0.13785312
85	0x3e2dbe6d	0.16967173
86	0x3dcc99f4	0.09990302
87	0xbd3c148d	-0.045918036
88	0x3d1580b6	0.0364997
89	0xbcf9e687	-0.030505432
90	0xbd989cdc	-0.074517936
91	0x3d817e8b	0.06322964
92	0x3d7c14cc	0.06154327
93	0xbc87696c	-0.016529761
94	0xbc84c2ac	-0.016206108
95	0x3c9f4928	0.019444063
96	0x3d6111c1	0.054948572
97	0x3d2c4625	0.042059083
98	0x3d981b25	0.074270524
99	0x3cae979e	0.021312531
100	0xbdae7ead	-0.08520255
101	0x3db27f72	0.087157145
102	0x3cb9ad53	0.022665655
103	0x3d28e602	0.041234978
104	0x3e0f0d81	0.13969995
105	0xbd6b9781	-0.057517532
106	0x3db5c73d	0.08875892
107	0x3d09162d	0.033468414
108	0xbd02a51d	-0.031895746
109	0x3d821ad7	0.063527755
110	0x3dbec999	0.093157955
111	0x3d9eea7f	0.0775957
112	0xbcfdff7c	-0.031005614
113	0xbcb09237	-0.021554096
114	0x3e16f8c7	0.14743339
115	0x3d1474cc	0.0362442
116	0x3d030035	0.03198262
117	0xbe07b10c	-0.13251132
118	0x3c8030fd	0.01564836
119	0x3d350f82	0.044204243
120	0xbc9e5df3	-0.019331908
121	0x3cce322f	0.025170414
122	0xbd2d8bba	-0.04236958
123	0xbd04100b	-0.032241862
124	0x3d6c0d69	0.057629976
125	0x3b05cd56	0.002041658
126	0xbd34cac9	-0.044138703
127	0x3d9f17ad	0.07768188
128	0xbdd09ce1	-0.10186172
129	0x3dfde917	0.12397974
130	0xbca4895b	-0.020085027
131	0xbde05da8	-0.109553635
132	0x3dd59368	0.10428506
133	0xbd7b50d3	-0.061356377
134	0xbdebf9a5	-0.11522225
135	0x3dc8e6b7	0.0980963
136	0x3db66418	0.0890581
137	0x3e44d76f	0.19222806
138	0x3e06b474	0.13154775
139	0x3d82ff96	0.063964054
140	0x3e00ca35	0.12577136
141	0xbccb2661	-0.024798574
142	0xbe1cc5ea	-0.15309873
143	0x3b1f6365	0.0024320718
144	0xbd28c11e	-0.041199796
145	0x3e2def83	0.16985898
146	0x3dd120e7	0.10211354
147	0xbd9c296d	-0.07625089
148	0xbe1a8fde	-0.15093943
149	0x3cb69815	0.022289315
150	0x3c68c38e	0.01420678
151	0xbd8bbbd6	-0.06822936
152	0x3de4541d	0.11148856
153	0x3d14ec89	0.03635839
154	0x3cce159d	0.02515679
155	0x3d943fd6	0.07238738
156	0xbdb20963	-0.086931966
157	0xbd006cbc	-0.031353697
158	0x3e41de3a	0.18932429
159	0x3d88693d	0.066606976
160	0x3e43dcf9	0.19127263
161	0xbcca11b1	-0.024666639
162	0xbd829d45	-0.06377653
163	0xbd235e5c	-0.03988491
164	0xbcf69401	-0.03009987
165	0x3d89394e	0.06700383
166	0xbc98f063	-0.018669313
167	0xb9e1690a	-0.00042993604
168	0xbd0ae391	-0.03390843
169	0x3e21c029	0.1579596
170	0x3e2aa234	0.16663438
171	0xbdd37de0	-0.10326743
172	0xbdb5ab08	-0.08870512
173	0xbd5d5113	-0.054032397
174	0x3da24ee1	0.07925201
175	0xbd613217	-0.05497941
176	0x3b823ee5	0.003974783
177	0xbdf39bf7	-0.11894982
178	0x3e100f50	0.14068341
179	0xbd2f60e3	-0.042817008
180	0x3debf5b2	0.11521472
181	0xbd970674	-0.07374278
182	0x3e069022	0.1314092
183	0xbdef7d3f	-0.11693811
184	0xbc4eb826	-0.012617147
185	0xbd4ed3b6	-0.050494872
186	0x3da76a18	0.08174533
187	0xbbd1e444	-0.006405385
188	0xbc2e292a	-0.010629931
189	0xbe12b417	-0.14326511
190	0xbded2bea	-0.115806416
191	0xbdb10d18	-0.086450756
192	0x3d2abd0d	0.0416842
193	0x3defeec1	0.117154606
194	0x3e1ef590	0.15523362
195	0x3dc94ce3	0.09829118
196	0x3e3af707	0.18258296
197	0xbd8e21b1	-0.0694002
198	0x3d2bbf5f	0.041930553
199	0x3d733ed9	0.059386108
200	0x3db5f970	0.08885467
201	0x3e33da58	0.1756376
202	0x3d8ad85d	0.06779549
203	0x3de723ad	0.112861015
204	0x3d85e88c	0.065384954
205	0x3e04b4b9	0.12959565
206	0x3db9008b	0.09033307
207	0xbba38edf	-0.004991397
208	0xbcc1c8c1	-0.023655297
209	0xbd083da6	-0.033261918
210	0x3d637961	0.055535678
211	0x3e297aa4	0.1655069
212	0x3d2d5165	0.042313952
213	0x3d8a5ec7	0.067563586
214	0x3e12514d	0.14288826
215	0xbb6af96c	-0.0035854233
216	0x3df607ce	0.120132074
217	0xbd440494	-0.04785593
218	0x3dab471d	0.08363173
219	0x3ceaea42	0.028676156
220	0x3d28afbd	0.041183222
221	0x3c2173eb	0.009854297
222	0xbcb16de1	-0.02165884
223	0x3dfd7781	0.12376309
224	0x3d647e64	0.055784598
225	0x3dce5aa3	0.10075881
226	0xbcc9b3c4	-0.024621852
227	0x3e0cd6a7	0.13753758
228	0xbc9a0c0e	-0.018804576
229	0x3beb1d4e	0.0071751243
230	0x3d806945	0.062700786
231	0x3e1e2dc6	0.15447149
232	0x3d0ddee1	0.034636382
233	0x3e1de4aa	0.1541926
234	0xbc960d80	-0.018316984
235	0x3e0e4e46	0.13897046
236	0x3db590a7	0.08865481
237	0xbd789f13	-0.06069858
238	0x3bf76336	0.0075496687
239	0xbd9882d3	-0.07446828
240	0x3d1448c8	0.036202222
241	0xbd9d8782	-0.07691862
242	0x3df20101	0.11816598
243	0xbd3b3070	-0.04570049
244	0x3e31353f	0.17305468
245	0x3e03b340	0.12861347
246	0x3e1c6d8e	0.15276167
247	0x3dd0da7f	0.10197925
248	0xbdac0b23	-0.08400562
249	0x3ce72be7	0.028219176
250	0x3e0e5c44	0.13902384
251	0x3e146bb1	0.14494206
252	0xbb999e20	-0.0046880394
253	0x3d3d86f5	0.046271283
254	0xbd84f03e	-0.06491135
255	0x3d849fe7	0.064758115
