16 - Recurrent Neural Network/model/bilstm/weights_50.pth (torch, 939287 bytes, 25 tensors)

rnn.weight_ih_l0 f4 [256, 1]
0	0x3db47b3b	0.08812567
1	0x3de05ccb	0.10955199
2	0xbd39b375	-0.04533716
3	0xbd932bdc	-0.071861
4	0xbd17b578	-0.037038296
5	0xbc9865fb	-0.018603316
6	0xbd5cd46c	-0.05391352
7	0x3e0aea6d	0.13565989
8	0xbd4a9f5d	-0.049468387
9	0x3d631747	0.05544212
10	0xbda26a37	-0.07930415
11	0xbd60161b	-0.05470858
12	0x3dbacba7	0.09120875
13	0xbc9bcc8d	-0.019018436
14	0x3dceda30	0.1010021
15	0x3e079390	0.13239884
16	0x3e02dd20	0.12779665
17	0xbd88eaa1	-0.06685377
18	0xba59d51c	-0.0008309649
19	0xbd199b0f	-0.03750139
20	0x3cb35cbc	0.021894805
21	0xbd0a0737	-0.033698287
22	0x3e052cef	0.13005422
23	0x3d8ce52d	0.06879649
24	0xbdc04c08	-0.09389502
25	0x3c9992ff	0.018746851
26	0x3d784758	0.060614914
27	0x3de07b1b	0.109609805
28	0x3ddc1b1b	0.107473575
29	0x3dd18e28	0.10232192
30	0x3d8aac40	0.06771135
31	0x3d1aa908	0.037758857
32	0xbd941c4d	-0.072319604
33	0xbd2b5e95	-0.041838247
34	0xbd2d3baa	-0.04229323
35	0x3e0a85b2	0.13527563
36	0xb9338f21	-0.0001712409
37	0x3cde3be7	0.027128173
38	0x3d847875	0.06468288
39	0x3d2433e6	0.040088557
40	0x3d767b06	0.060175918
41	0x3d721d9a	0.05911026
42	0x3bcf6da0	0.006330207
43	0xbd9eba46	-0.077503726
44	0xbd3fa657	-0.046789493
45	0x3d55ea42	0.05222536
46	0x3d429a1c	0.04751025
47	0x3c2be109	0.010490664
48	0xbc6f1e63	-0.014594647
49	0xbd30a623	-0.04312719
50	0xbceed7bd	-0.029155606
51	0xbbff0011	-0.0077819903
52	0x3de7b7ad	0.1131433
53	0x3de84f54	0.11343256
54	0x3cbbf516	0.022944015
55	0x3bc76129	0.0060845804
56	0xbce6a121	-0.028153004
57	0x3cbceebe	0.02306306
58	0x3dfdd747	0.123945765
59	0x3dc1c327	0.094610505
60	0x3d86fa69	0.06590731
61	0x3db2222b	0.08697923
62	0x3ccefe5a	0.025267769
63	0xbd86c7bc	-0.06581065
64	0x3dc1dcb5	0.09465925
65	0xbda1b7c6	-0.0789638
66	0x3d837df7	0.0642051
67	0xbcac51a2	-0.02103502
68	0xbc3d4976	-0.011553159
69	0x3d335acd	0.043787766
70	0xbb93e2e7	-0.004513133
71	0x3ddcc92c	0.10780558
72	0x3dd59f5a	0.104307845
73	0x3cb4f59e	0.022089776
74	0xbd96f278	-0.07370466
75	0x3c6e2d66	0.014537191
76	0xbc960140	-0.018311143
77	0x3c252a8f	0.010080948
78	0x3de50889	0.111832686
79	0x3c42bd42	0.011885943
80	0x3d559309	0.052142177
81	0x3d448bce	0.04798489
82	0x3cb77c03	0.022398
83	0x3d5e205f	0.05423009
84	0xbd51167a	-0.051046826
85	0x3d021ec0	0.031767607
86	0xbda8feee	-0.08251749
87	0x3e098b8e	0.13432142
88	0x3d935466	0.07193832
89	0x3b7cb568	0.0038560275
90	0x3dd92fba	0.10604806
91	0x3dfdf1e5	0.12399653
92	0x3ac433d6	0.0014969062
93	0xbd823a40	-0.063587666
94	0x3cc2719e	0.023735818
95	0xbd978a2b	-0.073994
96	0x3d5f8b73	0.05457635
97	0xbd3d62b6	-0.046236716
98	0x3d63ef2b	0.05564801
99	0x3deefa8a	0.1166888
100	0x3e0f111f	0.13971375
101	0xbd1b933c	-0.03798221
102	0x3d2819c7	0.04104021
103	0x3cd67776	0.02618001
104	0x3d368e06	0.044569038
105	0xbc0f0984	-0.008730296
106	0x3cca8077	0.02471946
107	0x3df3a2ac	0.118962616
108	0x3d1dfd11	0.03857142
109	0x3d64506e	0.055740766
110	0xbb77b55f	-0.0037797315
111	0xbdc66bf3	-0.096885584
112	0x3d629397	0.055316534
113	0x3c337714	0.010953683
114	0xbd267af5	-0.040644605
115	0x3da8aca4	0.082360536
116	0x3d207ade	0.039179675
117	0x3d53730f	0.0516234
118	0xbd118841	-0.035530332
119	0xbc58124b	-0.013187955
120	0x3cd9f339	0.026605235
121	0xbd81fc17	-0.063469104
122	0x3dc4ebac	0.09615263
123	0x3db0884c	0.086197466
124	0xbc945a25	-0.01810939
125	0xbcf10b6c	-0.029424392
126	0x3df2c696	0.118542835
127	0xbd132fd4	-0.035934284
128	0x3d75b4a9	0.059986744
129	0x3d31df2d	0.043425728
130	0xbdc6569f	-0.096844904
131	0xbdc544c1	-0.096322544
132	0xbe064639	-0.13112725
133	0x3d82187c	0.06352326
134	0x3d70af92	0.058761187
135	0x3d946c0b	0.0724717
136	0x3dcd7740	0.10032511
137	0x3db7ba3d	0.08971069
138	0x3dbb90a4	0.091584474
139	0xba75ab74	-0.0009371557
140	0x3d9528c0	0.07283163
141	0x3d9a2e95	0.07528416
142	0x3daac1f0	0.08337772
143	0x3da7ba51	0.08189834
144	0xbd9975aa	-0.07493146
145	0xbdd38118	-0.10327357
146	0x3d10f199	0.035386655
147	0x3dc47f6f	0.095946185
148	0x3dd264cf	0.10273134
149	0xbbd98c93	-0.006639072
150	0x3db9a8c8	0.090653956
151	0xbda6dd6c	-0.081477016
152	0x3d822fde	0.06356786
153	0xbd59ee15	-0.05320557
154	0x3dfddec5	0.123960055
155	0x3dcb1bef	0.09917437
156	0xbc2f9897	-0.010717533
157	0x3d8bd863	0.06828382
158	0xbd932676	-0.0718507
159	0x3d13b9b2	0.036065765
160	0xbda469ab	-0.08027967
161	0x3d72a195	0.059236128
162	0x3cac903c	0.02106487
163	0x3d8aae37	0.0677151
164	0xbe00adf5	-0.1256636
165	0x3dba9f7a	0.09112449
166	0x3e086e4a	0.13323322
167	0x3d48f500	0.049061775
168	0x3db86c9d	0.09005091
169	0x3dce7d2d	0.10082469
170	0xbcba0016	-0.02270512
171	0x3cf51f49	0.029922144
172	0xbda1273c	-0.078688115
173	0xbd98574d	-0.07438526
174	0x3e0081b1	0.12549473
175	0xbe02ec17	-0.12785374
176	0x3df904f2	0.12159146
177	0xbdf20f44	-0.11819318
178	0x3cc4380f	0.023952512
179	0x3c8873aa	0.016656715
180	0xbdba3ccb	-0.090936266
181	0xbd4652be	-0.048418753
182	0x3d2669e1	0.040628318
183	0x3d8b516e	0.06802641
184	0x3dcd78fb	0.10032841
185	0x3d279d5f	0.040921565
186	0x3da9dae7	0.082937054
187	0x3daf9f6c	0.08575329
188	0x3d91f2bf	0.07126378
189	0xbe072eb4	-0.1320141
190	0x3d7c63e4	0.0616187
191	0x3da6a173	0.08136263
192	0x3c912bed	0.01772114
193	0x3d3f5041	0.046707395
194	0x3d984fc0	0.07437086
195	0x3d90fc23	0.07079341
196	0xbdad73b7	-0.084693365
197	0x3d4dc958	0.050240844
198	0x3df0bb61	0.1175449
199	0xbd8faffb	-0.070159875
200	0x3daa3943	0.08311703
201	0x3d18495f	0.037179347
202	0x3daefbc1	0.08544112
203	0xbb0559f9	-0.0020347817
204	0xbdb066f7	-0.08613389
205	0xbd5089b8	-0.05091259
206	0x3df17459	0.1178977
207	0x3d326ed4	0.043562725
208	0x3da049e3	0.07826593
209	0xbcfe0205	-0.031006822
210	0x3e196e4a	0.14983478
211	0x3dbedb02	0.09319116
212	0xbbce008b	-0.006286686
213	0x3d7fde30	0.062467754
214	0xbced7df2	-0.02899072
215	0xbc1306c1	-0.008973778
216	0xbd92aae9	-0.07161505
217	0xbd133224	-0.03593649
218	0x3dd95910	0.106126904
219	0x3e0cf53e	0.13765427
220	0xbb19759b	-0.0023416046
221	0xbcd3f032	-0.02587137
222	0x3da0c92e	0.07850872
223	0x3d53ee5a	0.05174098
224	0xbd461ecd	-0.048369218
225	0x3c80b15c	0.015709572
226	0xbd31889c	-0.04334317
227	0xbd921bd6	-0.071342155
228	0x3e0da68c	0.13833064
229	0xbc39a64a	-0.01133115
230	0xbcbd81ea	-0.023133237
231	0xbd862795	-0.065505184
232	0xbd079901	-0.0331049
233	0xbd212841	-0.03934503
234	0xbd212371	-0.03934044
235	0x3d343d4c	0.04400377
236	0x3aa63498	0.0012680469
237	0xbd9d2ac4	-0.076741725
238	0x3d87f298	0.06638068
239	0x3d91bdda	0.071162894
240	0xbdae0264	-0.0849655
241	0xbc3c4221	-0.011490376
242	0x3d8115db	0.06302997
243	0x3d5bd1b1	0.053666774
244	0xbd6c2113	-0.05764873
245	0xbdb12939	-0.08650441
246	0xbce3aa7e	-0.027791258
247	0xbd6e0a9e	-0.058115594
248	0xbd17a224	-0.037019864
249	0x3e057217	0.13031803
250	0xbc479a5a	-0.012182796
251	0xbd125e18	-0.035734266
252	0xbd0bcba8	-0.03412977
253	0xbd6d9b95	-0.058009703
254	0x3a3f5bca	0.00072997494
255	0x3dde85e3	0.108653806

rnn.weight_hh_l0 f4 [256, 64]
0	0x3cc7784f	0.02434936
1	0xbd4b90c5	-0.04969861
2	0x3d47fcdd	0.048825134
3	0xbdbdf630	-0.09275472
4	0xbd97a763	-0.07404973
5	0xbd42f095	-0.04759272
6	0x3be2f91f	0.00692667
7	0xbce71d7e	-0.028212305
8	0xbddc79ea	-0.10765441
9	0x3dfe124a	0.12405832
10	0x3d5e4ac7	0.054270532
11	0x3bde651a	0.0067869546
12	0xbd4a58ad	-0.049400974
13	0x3dbcbf0d	0.092161275
14	0x3d2a854d	0.04163103
15	0x3d114023	0.035461556
16	0xbe07a1c8	-0.13245308
17	0xbdf72240	-0.120670795
18	0x3ce2d2a8	0.02768834
19	0x3d825ee3	0.063657545
20	0x3e089d2d	0.13341208
21	0xbd843285	-0.06454948
22	0xbdaf9d02	-0.08574869
23	0xbdd974c6	-0.10617976
24	0x3c295977	0.0103362715
25	0x3b924582	0.0044638524
26	0xbba73bc7	-0.0051035616
27	0x3dc4425f	0.09582972
28	0xbd006a74	-0.03135152
29	0x3dade48d	0.08490858
30	0xbdc9117b	-0.09817787
31	0x3e0a046c	0.1347825
32	0xbd0ffac8	-0.035151273
33	0x3bdeef1b	0.006803406
34	0xbbdc4b9c	-0.0067228805
35	0x3dad8298	0.084721744
36	0xbdef0568	-0.11670953
37	0x3c9a9605	0.018870363
38	0xbddda241	-0.10821963
39	0x3e08d143	0.13361077
40	0xbddd3169	-0.1080044
41	0x3d4670c8	0.0484474
42	0xbcd2da09	-0.025738733
43	0x3db23608	0.08701712
44	0xbd1f5f77	-0.0389094
45	0x3d1b146c	0.037861273
46	0xbd0c3321	-0.034228448
47	0x3c6a554f	0.014302566
48	0xbdbf8524	-0.093515664
49	0x3d8bddc3	0.06829407
50	0xbc4c1729	-0.012456694
51	0x3c344198	0.011001967
52	0xbdb79326	-0.08963613
53	0xbd514d1e	-0.051098935
54	0x3d1417c2	0.03615547
55	0x3d817583	0.06321242
56	0xbd097314	-0.033557013
57	0x3d3fbf4c	0.046813294
58	0xbd07d752	-0.03316433
59	0xbd79bd94	-0.06097181
60	0x3d03f9e5	0.03222074
61	0x3cca4ebc	0.024695747
62	0x3da45558	0.080240905
63	0xbd9dd339	-0.07706303
64	0x3dbd4d23	0.09243228
65	0x3dede1aa	0.11615308
66	0x3da46575	0.08027164
67	0x3daf933a	0.08573003
68	0x3af8033a	0.001892186
69	0x3dcdb27e	0.1004381
70	0xbd7156de	-0.058920734
71	0x3db48dee	0.088161334
72	0x3e0c1762	0.13680795
73	0xbdbf6e0d	-0.093471624
74	0xbc9e73c5	-0.019342313
75	0xbd104a27	-0.035226967
76	0x3cc93719	0.024562405
77	0x39f83950	0.00047344947
78	0xbd8a0c65	-0.06740645
79	0xbd145772	-0.036216207
80	0xbda160ff	-0.07879829
81	0xbdd60d85	-0.104517974
82	0xbb3de5a7	-0.0028975995
83	0x3dde70a1	0.10861326
84	0xbd8ec010	-0.06970227
85	0xbd80d4de	-0.06290601
86	0x3da6f4d5	0.08152167
87	0x3d558f3b	0.05213855
88	0xbc03a5c8	-0.008035131
89	0xbdb289b3	-0.0871767
90	0x3cc2788c	0.023739122
91	0xbdc642fd	-0.09680746
92	0xbd71e3a2	-0.05905498
93	0x3cfbf010	0.03075412
94	0x3ca768b6	0.020435672
95	0x3d84f922	0.06492831
96	0x3da9bb80	0.08287716
97	0x3b3303dc	0.0027315533
98	0xbd31e22d	-0.04342859
99	0xbdb00aff	-0.08595847
100	0x3d88098b	0.06642445
101	0xbb9948c4	-0.004677864
102	0x3df2ded6	0.11858909
103	0x3cd8eb29	0.02647932
104	0xbd4244bd	-0.047428835
105	0xbd391935	-0.045190055
106	0xbcbc96fa	-0.02302121
107	0x3da64503	0.08118632
108	0xbccad3b9	-0.02475916
109	0xbdcf891d	-0.10133574
110	0xbd7965b1	-0.060887996
111	0xbd3d89bb	-0.046273928
112	0xbcac51df	-0.021035133
113	0xbd498239	-0.049196456
114	0xbcd66855	-0.026172796
115	0x3e0f2075	0.13977225
116	0xbdbb12f0	-0.091344714
117	0x3cd3ca62	0.02585334
118	0x3dfef18a	0.12448414
119	0xbbfa7c2d	-0.0076441974
120	0xbdcaddd0	-0.099055886
121	0xbb8859e4	-0.0041611064
122	0x3d6eb6c2	0.05827976
123	0xbdd85c8f	-0.10564529
124	0xbdb7a72f	-0.089674346
125	0x3d6795ec	0.05653946
126	0x3e0f4b56	0.13993582
127	0x3d478783	0.04871322
128	0x3dd0c965	0.10194663
129	0x3d45ab5d	0.048259128
130	0xbda7470a	-0.081678465
131	0x3dd0cd39	0.10195393
132	0xbe069de1	-0.13146164
133	0x3d92f9cb	0.071765505
134	0xbd865e8c	-0.06561002
135	0x3e018eec	0.12652177
136	0x3c8b9d22	0.0170427
137	0x3bf8ce96	0.0075929863
138	0x3ce223ec	0.02760502
139	0x3e0c1395	0.13679345
140	0xbd40f522	-0.047108777
141	0x3e009b4f	0.12559246
142	0x3cb3c24e	0.021943238
143	0xbdbbfa58	-0.09178609
144	0xbde0ded7	-0.10980003
145	0xbdd3bf79	-0.10339255
146	0x3db55aab	0.08855184
147	0xbc228cec	-0.009921294
148	0x3d831087	0.06399637
149	0x3dfb6e91	0.12276948
150	0xbd42d0ff	-0.047562595
151	0xbe146e87	-0.14495288
152	0x3c714963	0.014726969
153	0xbd745793	-0.05965383
154	0x3e053e92	0.1301215
155	0x3d9fe730	0.078077674
156	0xbdb88147	-0.09009033
157	0x3df204c0	0.11817312
158	0x3d0a14b8	0.033711165
159	0x3e12e8e1	0.14346649
160	0x3d1571e0	0.036485553
161	0x3cb257cf	0.021770386
162	0x3da382db	0.07983943
163	0x3e10f866	0.14157256
164	0xbd2d3b29	-0.042292748
165	0x3c60ac2b	0.013712923
166	0x3db18d83	0.08669569
167	0x3db5bb1f	0.08873581
168	0xbd872e81	-0.06600667
169	0xbd26c4ec	-0.040715143
170	0x3d1d0984	0.038339153
171	0xbd0ba1a3	-0.034089696
172	0x3d23232d	0.039828468
173	0xbd97698f	-0.073931806
174	0x3e09acb7	0.13444792
175	0xbbccffb2	-0.006256067
176	0xbd3619d6	-0.044458233
177	0xbe087f41	-0.13329794
178	0x3e02234c	0.12708777
179	0x3d2be8f6	0.041970216
180	0x3d8e213c	0.06939933
181	0x3dbc8155	0.092043556
182	0xbd693311	-0.056933466
183	0x3e0a3df5	0.13500197
184	0x3c8d8192	0.017273698
185	0x3d98bda0	0.07458043
186	0x3d444e78	0.047926396
187	0xbdc67327	-0.09689932
188	0x3c31fbdf	0.010863273
189	0x3cfbf1f7	0.030755026
190	0xbd9c68bf	-0.07637166
191	0x3d76fe88	0.060301334
192	0x3c16dcaa	0.009207884
193	0x3d8d8efc	0.06912038
194	0xbdd43a38	-0.10362667
195	0xbd19b61f	-0.0375272
196	0x3d14db2a	0.036341824
197	0x3df69dc8	0.12041813
198	0x3dd19663	0.10233762
199	0x3e10ea20	0.14151812
200	0x3e027d4d	0.12743111
201	0x3ddd70f2	0.10812558
202	0xbd04c82b	-0.032417458
203	0xbd2d6755	-0.042334873
204	0x3df22f98	0.11825484
205	0x3d194b23	0.03742517
206	0x3e127c18	0.1430515
207	0xbd8b9698	-0.06815833
208	0xbdfffabd	-0.124989964
209	0xbca4d070	-0.020118922
210	0x3ca12607	0.019671453
211	0x3dc735c7	0.09727054
212	0x3e1b9728	0.1519438
213	0x3d533a41	0.051569227
214	0x3ddb8ec2	0.10720588
215	0x3cc75160	0.024330795
216	0x3dab146d	0.08353505
217	0xbba0730d	-0.0048965276
218	0xbdb912b9	-0.09036774
219	0x3d4904c7	0.04907682
220	0x3da31307	0.079626136
221	0xbda96b75	-0.08272449
222	0x3d43404f	0.04766875
223	0xbd387d3c	-0.045041308
224	0x3ccda891	0.025104793
225	0xbc95a9e6	-0.01826949
226	0x3e0ce953	0.13760881
227	0x3d2eb6c0	0.042654753
228	0x3d057b6e	0.032588415
229	0x3d82db4d	0.063894846
230	0xbd85865f	-0.0651977
231	0xbd8a86fe	-0.06764029
232	0x3c8f3283	0.01748014
233	0xbd3e25b4	-0.046422675
234	0x3c3acb1f	0.011400967
235	0x3d9a9b14	0.0754911
236	0xbe0d1edc	-0.13781303
237	0x3d67b89f	0.056572553
238	0x3e165bac	0.14683408
239	0xbd9724b8	-0.073800504
240	0x3d131585	0.035909194
241	0x3d345d97	0.044034567
242	0x3c755994	0.01497497
243	0xbd24f4c4	-0.04027249
244	0xbe172f0a	-0.14764038
245	0xbdf58b49	-0.11989457
246	0x3de998b8	0.11406082
247	0x3d51ae59	0.05119166
248	0x3c2aba37	0.010420374
249	0xbd4cdfb7	-0.05001804
250	0x3cb0ac73	0.021566605
251	0x3d7e5a3b	0.06209777
252	0x3d8fd6c8	0.07023388
253	0x3bd1ed83	0.0064064874
254	0x3c781925	0.015142714
255	0xbc446d0f	-0.011988892

rnn.bias_ih_l0 f4 [256]
0	0xbd6bbc2b	-0.057552498
1	0x3cfb7069	0.03069325
2	0xbdb79ce3	-0.08965471
3	0xbdbfbe44	-0.09362462
4	0xbcb2d77e	-0.02183127
5	0x3e10779e	0.1410813
6	0xbd94ea1f	-0.072712176
7	0x3e0adfa4	0.13561875
8	0x3c9445c9	0.018099682
9	0x3da7b6da	0.08189173
10	0xbd862580	-0.06550121
11	0xbd847ae2	-0.064687505
12	0x3dc96ee1	0.098356016
13	0x3de40b08	0.111349165
14	0x3d99db14	0.07512489
15	0x3e030420	0.12794542
16	0x3d7e2d56	0.062054954
17	0x3daff8b7	0.085923605
18	0xbbd857c9	-0.0066022617
19	0xbdeff7e4	-0.11717203
20	0x3e04f8da	0.12985554
21	0x3dba0cf5	0.090845026
22	0x3db868cc	0.090043634
23	0x3e0ca87f	0.13736151
24	0xbd9c20cd	-0.07623444
25	0xbd25ef83	-0.04051162
26	0x3da602b6	0.08105986
27	0x3d4a0ab7	0.049326625
28	0xbdb85053	-0.08999696
29	0x3de71ed3	0.11285176
30	0x3dd3a1a2	0.103335634
31	0x3e08548a	0.13313499
32	0xbd918c03	-0.07106783
33	0xba6e12d9	-0.0009081788
34	0xbc97d61c	-0.018534712
35	0x3da8cca6	0.082421586
36	0xbd8066da	-0.062696174
37	0xbdaed8cd	-0.08537445
38	0x3e0eb669	0.13936771
39	0x3ccd3784	0.025050886
40	0x3d70945d	0.05873524
41	0x3dd7edc8	0.105434
42	0xbd5d4914	-0.05402477
43	0xbbcb347a	-0.006201324
44	0x3da3d318	0.07999247
45	0x3df8ae0c	0.12142572
46	0xbd271693	-0.040793013
47	0x3e0cefe0	0.1376338
48	0x3da3a822	0.07991053
49	0x3d99bfb3	0.07507267
50	0x3b72e117	0.0037060434
51	0xbd49605e	-0.04916417
52	0xbd87e444	-0.06635335
53	0x3adcdc5c	0.001685034
54	0xbd90c58c	-0.07068929
55	0xbda77be7	-0.08177929
56	0x3dca675c	0.098829955
57	0xbdb75903	-0.089525245
58	0xbdaf16bd	-0.08549259
59	0x3db92916	0.0904104
60	0x3dadeb57	0.08492153
61	0x3d306273	0.04306264
62	0x3cd70cd3	0.026251232
63	0xbdab20ba	-0.083558515
64	0x3a508672	0.0007954604
65	0x3daa548e	0.08316909
66	0x3d9b1b3a	0.075735524
67	0x3c9c21cc	0.019059084
68	0x3ca040fd	0.019562239
69	0xbd8c895e	-0.06862138
70	0xbc0f3166	-0.008739805
71	0x3d39664b	0.04526357
72	0xbdd2435a	-0.102667525
73	0xbd3dfc7d	-0.04638337
74	0x3dd171e2	0.102267995
75	0x3d78d1db	0.06074701
76	0x3dae09d1	0.08497966
77	0x3cf1f9cd	0.02953806
78	0x3d14e6e0	0.036352992
79	0x3e07c404	0.13258368
80	0x3d1790dc	0.037003383
81	0xbd8927c1	-0.066970356
82	0x3def06db	0.116712295
83	0xbcaade12	-0.020857845
84	0x3de285dc	0.11060688
85	0xbd89bb90	-0.06725228
86	0x3ce7100f	0.0282059
87	0x3dabe587	0.08393388
88	0x3d3a447f	0.04547548
89	0x3df1c9c5	0.118060626
90	0x3e05274a	0.13003269
91	0x3d9dd7e3	0.07707193
92	0x3d00a7a7	0.031409886
93	0xbcc81039	-0.024421798
94	0xbd376395	-0.044772703
95	0x3e06def5	0.13170989
96	0xbda7f743	-0.08201458
97	0x3d6c30d1	0.057663742
98	0xbdcbc2e0	-0.09949279
99	0xbdcba1f0	-0.099429965
100	0x3a886ac5	0.0010407796
101	0x3d0d0042	0.034424074
102	0xbd9b7128	-0.07589942
103	0x3e139ece	0.14416048
104	0x3cae64a1	0.021288218
105	0x3e0ac50e	0.13551733
106	0x3d21af4c	0.039473817
107	0xbdd88db0	-0.105739
108	0xbd4d0375	-0.050052125
109	0x3d8104fa	0.06299777
110	0x3c98ea7a	0.018666495
111	0xba96a007	-0.0011491784
112	0xbc95f14f	-0.018303541
113	0xbd541185	-0.05177452
114	0xbd8e9293	-0.069615506
115	0x3c30676a	0.010766843
116	0x3e07dd91	0.13268115
117	0xbdb9f302	-0.09079553
118	0x3df6e877	0.12056058
119	0x3d9600c7	0.07324367
120	0x3d6736cc	0.056448743
121	0x3d71e741	0.05905843
122	0x3c35cdaa	0.011096397
123	0x3dc9b8d6	0.09849708
124	0x3df03894	0.117295414
125	0x3dfb843c	0.12281081
126	0x3dbbe348	0.0917421
127	0x3c87f7d5	0.016597668
128	0x3b28dc00	0.0025765896
129	0x3dd36874	0.10322657
130	0x3bd8420c	0.0065996703
131	0xbdf5331b	-0.11972638
132	0x3d92b9bc	0.07164332
133	0xbd552e21	-0.052045945
134	0x3c39edfc	0.011348244
135	0xbade5784	-0.0016963338
136	0x3d8bbb78	0.06822866
137	0xbded0c14	-0.11574569
138	0xbdfc5e32	-0.12322654
139	0x3dff6e98	0.12472266
140	0xbd461ea3	-0.04836906
141	0xbc93ef33	-0.018058395
142	0x3d72612e	0.05917471
143	0xbd7b85b5	-0.06140681
144	0xbd45d9eb	-0.048303526
145	0xbd808a3f	-0.06276368
146	0xbcb70254	-0.022339977
147	0x3cd1ad16	0.02559523
148	0x3d308f49	0.043105397
149	0x3e11cf5c	0.14239258
150	0xbd92560b	-0.07145318
151	0x3da933e6	0.08261852
152	0x3dd3917d	0.10330484
153	0xbdc07980	-0.09398174
154	0xbc8ea7d8	-0.017414019
155	0x3dbd493a	0.092424825
156	0xbe135dca	-0.14391246
157	0xbdcdb2ab	-0.10043844
158	0xbd4049c5	-0.046945352
159	0x3e0462de	0.1292834
160	0xbcf7cdbf	-0.030249475
161	0xbdbebac6	-0.09312968
162	0xbd2c18f5	-0.04201599
163	0xbc6c68de	-0.014429299
164	0xbd5438ac	-0.05181186
165	0xbd26729d	-0.040636647
166	0x3c3ce750	0.011529759
167	0xbd766bd7	-0.060161438
168	0x3d86cfd3	0.06582608
169	0xbb2cb4b2	-0.002635282
170	0x3dab5374	0.08365527
171	0xbda71f71	-0.08160294
172	0xbde66cfe	-0.11251257
173	0xbcfeb057	-0.031089945
174	0x3da41a18	0.080127895
175	0xbdd7fb4a	-0.105459765
176	0x3cbf6c06	0.02336694
177	0xbd0ba610	-0.034093916
178	0x3ca201b9	0.019776212
179	0x3cdbd360	0.02683419
180	0x3db1aff4	0.086761385
181	0xbd992696	-0.07478063
182	0x3dc0b3b2	0.09409274
183	0x3d5ed645	0.054403562
184	0x3dc0387f	0.09385776
185	0x3db76584	0.089549094
186	0x3c7510cd	0.014957619
187	0xbb815fc6	-0.0039481847
188	0xbdb94f59	-0.090483375
189	0x3d820b11	0.06349767
190	0x3d072c14	0.03300102
191	0x3ddf0c8f	0.10891067
192	0x3e0feb85	0.14054687
193	0x3d63da13	0.055627894
194	0xbc4eb20c	-0.012615692
195	0xbb9099cf	-0.0044128667
196	0x3ce0db8c	0.027448438
197	0x3b816538	0.003948834
198	0x3d095d9f	0.03353655
199	0xbb6efc73	-0.003646639
200	0xbdb63e69	-0.088986225
201	0xbd8dbf4c	-0.069212526
202	0xbc5d95e9	-0.013524511
203	0xbdb0bf5b	-0.08630248
204	0x3de92d7b	0.11385628
205	0x3ce1310f	0.027489213
206	0x3d9e18ea	0.07719596
207	0xbd6ac84e	-0.05731993
208	0x3df8b891	0.12144578
209	0xbd630900	-0.055428505
210	0x3d75d36a	0.060016073
211	0x3d51f1e4	0.051256076
212	0xbca97bcd	-0.020688916
213	0x3ddd5a6e	0.10808264
214	0xbcc1c961	-0.023655595
215	0xbd495e00	-0.04916191
216	0x3c9ac428	0.018892363
217	0xbcd668c9	-0.026173012
218	0x3c48df58	0.012260281
219	0xbd68d202	-0.056840904
220	0x3e0c4641	0.13698675
221	0xbcf3ea5d	-0.029774839
222	0x3de17d4c	0.110102266
223	0xbd5a52ea	-0.05330173
224	0x3dadc495	0.08484761
225	0x3e1db3cd	0.1540062
226	0x3db592e8	0.08865911
227	0x3e185b2d	0.14878531
228	0xbdb635b7	-0.08896964
229	0xbdbfbea6	-0.09362535
230	0xbd001846	-0.03127315
231	0x3d919020	0.07107568
232	0xbdb9d11b	-0.09073087
233	0x3d73ab7d	0.059489716
234	0xbd2425f9	-0.040075276
235	0xbd8876fc	-0.066633195
236	0x3dca822a	0.09888108
237	0x3e12ef46	0.14349088
238	0xbda93e88	-0.0826388
239	0x3e03f048	0.12884629
240	0xbbb9cc64	-0.005670117
241	0xbd6e1431	-0.058124725
242	0x3d8788aa	0.066178635
243	0x3d32c238	0.043642253
244	0xbb2b96a7	-0.0026182325
245	0x3d83c170	0.0643338
246	0x3da32001	0.07965089
247	0xbd9b594b	-0.07585391
248	0xbddc75ab	-0.10764631
249	0xbd9dd085	-0.077057876
250	0xbd81d187	-0.06338792
251	0xbbd630ea	-0.0065365927
252	0x3da86692	0.08222689
253	0x3e0f97bf	0.1402273
254	0xbd8ef46a	-0.06980212
255	0xbdbe9049	-0.09304864

rnn.bias_hh_l0 f4 [256]
0	0xbdd13787	-0.10215669
1	0x3ce63447	0.0281011
2	0x3da0ed4a	0.07857759
3	0x3d8cc332	0.06873168
4	0xbd19a6b5	-0.0375125
5	0x3c80b718	0.015712306
6	0xbc8d5a6f	-0.017255036
7	0xbc19e24b	-0.009392331
8	0x3d89af05	0.067228355
9	0x3db1b832	0.086777106
10	0xbd305c58	-0.043056816
11	0x3a3b9490	0.00071556214
12	0xbd849a9f	-0.06474804
13	0x3d8cd12a	0.068758324
14	0xbdc688ce	-0.09694062
15	0xbd814b99	-0.06313247
16	0xbd8e7f3b	-0.06957861
17	0x3d091484	0.03346683
18	0x3cbfaf47	0.023399008
19	0x3dd854bb	0.10563036
20	0xbd9bbad3	-0.07603993
21	0xbc1bd32b	-0.009510796
22	0x3d9b768c	0.075909704
23	0xbdcad876	-0.09904568
24	0x3dd6d775	0.10490314
25	0xbd46985b	-0.04848514
26	0x3db16b67	0.086630635
27	0x3c45ddc0	0.012076795
28	0x3e08cb65	0.13358839
29	0x3d69d5c2	0.05708862
30	0x3cfb8fe4	0.03070826
31	0x3e0f6159	0.14001979
32	0x3dfdec6c	0.123986095
33	0xbd2d52c3	-0.042315256
34	0x3c7732d4	0.015087802
35	0xbd521737	-0.05129167
36	0xbd6ccd23	-0.05781282
37	0xbd3dc94c	-0.04633455
38	0x3e00e28b	0.1258642
39	0x3e01b7db	0.12667792
40	0x3dc8f528	0.09812385
41	0xbd772d01	-0.060345653
42	0x3dcc1a77	0.09965985
43	0x3cad8e2b	0.021185955
44	0xbdd09bb3	-0.10185947
45	0x3cbb91fb	0.022896757
46	0x3d27b4ae	0.040943794
47	0xbd25295a	-0.04032264
48	0x3ded7ee5	0.11596469
49	0x3da3e9bf	0.08003568
50	0xbb119ffb	-0.00222206
51	0xbb806cb8	-0.0039192103
52	0x3a5a3275	0.0008323559
53	0xbdb28bc6	-0.08718066
54	0x3d2fde9f	0.042936917
55	0xbdc6b51b	-0.09702512
56	0x3da2b437	0.079445295
57	0xbca56d21	-0.020193638
58	0x3c29e172	0.010368692
59	0xbd84f7d2	-0.064925805
60	0xbd94ee25	-0.07271985
61	0xbd9ebc52	-0.07750763
62	0x3dc8dce7	0.09807759
63	0x3d2e946e	0.042622022
64	0x3c847350	0.016168267
65	0xbd99a164	-0.07501486
66	0xbd83c889	-0.064347334
67	0xbbc72f12	-0.0060786093
68	0xbddfa072	-0.109192744
69	0xbd0334f8	-0.032032937
70	0x3ca8a7b4	0.02058778
71	0x3d249115	0.040177424
72	0xbdcd7317	-0.10031717
73	0x3c90c978	0.017674193
74	0x3be43416	0.006964217
75	0xbd262199	-0.040559385
76	0x3db858ba	0.09001298
77	0xbd7892ce	-0.06068688
78	0xbcd035b2	-0.025416229
79	0x3cb9ae92	0.02266625
80	0xbd8326d9	-0.06403894
81	0xbc7a502c	-0.0152779035
82	0xbbf42025	-0.007450121
83	0xbde5d705	-0.11222652
84	0x3de3a7e8	0.1111601
85	0x3e0ecfff	0.13946532
86	0xbd943534	-0.0723671
87	0x3e080bbb	0.13285725
88	0x3d366696	0.044531427
89	0x3d97b7a6	0.07408075
90	0xbdd99049	-0.10623223
91	0xbda3bb61	-0.07994724
92	0x3c257efb	0.010101075
93	0xbb588497	-0.0033038014
94	0xbd9e4164	-0.07727316
95	0x3d2109cb	0.03931598
96	0xbd852228	-0.065006554
97	0x3b3ea59e	0.0029090415
98	0xbd452b51	-0.048137013
99	0xbd1c1f1c	-0.038115606
100	0x3e09efdd	0.13470407
101	0x3d5e009e	0.054199807
102	0x3d5210c6	0.051285528
103	0x3de7a563	0.11310842
104	0x3e06cd52	0.13164261
105	0xbd0bf00a	-0.034164466
106	0x3d0c0776	0.034186803
107	0x3d1abf79	0.03778026
108	0x3d146f34	0.036238864
109	0x3d2c4f1c	0.042067632
110	0xbd8e0352	-0.06934227
111	0x3c86e7f8	0.016468033
112	0x3d8e66e8	0.069532216
113	0xbd8f9353	-0.07010522
114	0xbe05de3e	-0.1307306
115	0xbcedaa1c	-0.029011779
116	0xbda5cfe1	-0.080962904
117	0x3cb0c013	0.021575963
118	0xbba9d59c	-0.005182935
119	0x3d452280	0.048128605
120	0x3df82295	0.12115971
121	0x3d3595c1	0.04433227
122	0x3db3fb62	0.08788182
123	0x3d2c8a66	0.042124175
124	0x3d450695	0.04810198
125	0x3e039eae	0.128535
126	0x3ddfdf18	0.10931224
127	0x3d0ca6bb	0.034338694
128	0xbd00f111	-0.0314799
129	0xba8fc912	-0.0010969958
130	0xbb2608f1	-0.002533492
131	0x3d8383d4	0.064216286
132	0xbd818de8	-0.063258946
133	0x3d0936a2	0.033499368
134	0x3e025546	0.12727842
135	0x3d0f9c59	0.035061214
136	0x3e06374f	0.13107036
137	0xbcccd07f	-0.025001762
138	0xbdc08151	-0.09399665
139	0xbc044a31	-0.008074329
140	0x3d47361c	0.048635587
141	0x3dd8456c	0.10560116
142	0x3daa96c0	0.083295345
143	0xbdcee773	-0.10102739
144	0xbddcbf07	-0.10778623
145	0xbd35f9f5	-0.04442783
146	0x3da583d4	0.08081785
147	0xbd325ca7	-0.04354539
148	0x3cb0501f	0.02152258
149	0x3d2df4c4	0.042469755
150	0xbdbf877f	-0.09352016
151	0xbda165d9	-0.07880754
152	0x3c9f0a82	0.01941419
153	0x3db9a2ec	0.09064278
154	0xbdd023ce	-0.10163079
155	0x3d250115	0.040284235
156	0xbd29c553	-0.04144795
157	0x3d1a59c8	0.03768328
158	0xbddad69d	-0.106854655
159	0x3df8467e	0.1212282
160	0x3df4f36d	0.11960492
161	0x3dcc635c	0.09979889
162	0x3d8d8a62	0.0691116
163	0x3cc17fc6	0.023620497
164	0xbda3a851	-0.07991088
165	0x3d0c7777	0.034293618
166	0x3df4c111	0.11950887
167	0xbd2bf839	-0.04198477
168	0x3e00fb99	0.12595977
169	0x3d0dd390	0.03462559
170	0xbdcf8212	-0.10132231
171	0x3d3ef85a	0.046623565
172	0x3d8996f2	0.06718244
173	0xbe0ded0d	-0.13859959
174	0xbcd63a08	-0.026150718
175	0x3dbbb027	0.09164458
176	0xbda810dc	-0.08206341
177	0xbcb8898c	-0.022526525
178	0x3d65061f	0.05591404
179	0xbd0585d2	-0.032598324
180	0xbde3057c	-0.110850304
181	0x3d15c0a8	0.036560684
182	0x3d7a4562	0.061101325
183	0x3d2d31e0	0.042283893
184	0xbd7f7278	-0.062365025
185	0x3de0340a	0.10947426
186	0x3e0adc81	0.13560678
187	0x3d3f30d1	0.046677414
188	0x3c722e53	0.014781552
189	0xbd467d10	-0.048459113
190	0xbd97a830	-0.07405126
191	0x3dc45bbd	0.0958781
192	0xbda69109	-0.08133132
193	0x3d95c376	0.07312672
194	0x3ccdfe52	0.025145683
195	0xbda0480d	-0.078262426
196	0x3d11e270	0.03561634
197	0x3d6f8654	0.058477715
198	0xbd697fe0	-0.057006717
199	0x3d0b1cf5	0.033963162
200	0xbd174259	-0.03692851
201	0xbd8212ac	-0.06351218
202	0xbd69c60e	-0.057073645
203	0xbd7acc4e	-0.061229996
204	0xbb9984b5	-0.0046850094
205	0x3cdde5a4	0.02708704
206	0x3e10c50e	0.1413767
207	0xbda2e026	-0.07952909
208	0xbdbb527b	-0.09146591
209	0x3d50617b	0.050874215
210	0xbd3f564c	-0.04671316
211	0x3e01eb96	0.12687525
212	0x3cfcda4c	0.03086581
213	0x3d90e4fe	0.07074927
214	0x3da7f830	0.08201635
215	0xbdc48670	-0.095959544
216	0x3de7479f	0.112929575
217	0x3decc77c	0.11561486
218	0xbc6cbfeb	-0.014450054
219	0xbd805de1	-0.06267906
220	0x3c35530f	0.011067166
221	0x3b3ecab4	0.002911252
222	0x3c8e8c8b	0.017401
223	0xbd57205a	-0.052521087
224	0x3da8276a	0.08210643
225	0x3d100ad4	0.035166577
226	0xbd7b895f	-0.061410304
227	0x3e0753f0	0.13215613
228	0x3d187a28	0.037225872
229	0x3cc2553d	0.023722285
230	0x3df389d6	0.118915245
231	0xbd623aaf	-0.055231746
232	0xbc334988	-0.010942824
233	0x3c8c4988	0.017124906
234	0xbd87ec50	-0.0663687
235	0xbd88f37b	-0.06687065
236	0x3ce9d833	0.028545475
237	0x3de6f11b	0.11276456
238	0x3e13c34b	0.14429967
239	0x3d1ccc23	0.038280617
240	0xbd022cf1	-0.03178114
241	0xbd8b1f50	-0.06793082
242	0x3d8d57a3	0.06901481
243	0xbd96eaba	-0.07368989
244	0xbd1e9e96	-0.038725458
245	0x3dcf7036	0.101288244
246	0x3d68a3e7	0.056796934
247	0x3d323bbb	0.043513995
248	0x3da78045	0.08178762
249	0x3e0790bb	0.13238804
250	0x3d2a0fdd	0.041519035
251	0xbd1551ab	-0.036454838
252	0x3dc9a213	0.09845366
253	0x3d2c7b8e	0.04211002
254	0xbd6d8027	-0.057983544
255	0x3d5315bb	0.051534396

rnn.weight_ih_l0_reverse f4 [256, 1]
0	0xbd8fc2d9	-0.07019586
1	0xbd912590	-0.070872426
2	0x3c3d2177	0.011543623
3	0x3d5eaa61	0.054361705
4	0xbd3e4a75	-0.046457727
5	0x3da08022	0.078369394
6	0xbc08e6f0	-0.008355841
7	0xbcc8a6c2	-0.024493579
8	0x3da375ea	0.07981475
9	0xbd92f1c7	-0.071750216
10	0xbd819802	-0.06327821
11	0xbc843838	-0.016140088
12	0xbdb87c52	-0.09008087
13	0x3da31b6f	0.07964217
14	0xbd1085d9	-0.035283897
15	0xbcd1e4d6	-0.025621813
16	0xbd908924	-0.070574075
17	0xbd71bd5b	-0.059018474
18	0xbd66a2f7	-0.05630776
19	0x3c18c4cb	0.009324263
20	0xbcde2e93	-0.027121818
21	0xbb695f5c	-0.0035609817
22	0xbd2687f5	-0.040657002
23	0x3e030944	0.12796503
24	0xbd2e79a4	-0.042596474
25	0x3e0a4ada	0.13505116
26	0x3dda2a01	0.10652543
27	0x3cd0ba3f	0.025479434
28	0xbd9a688d	-0.07539473
29	0x3dc416ca	0.09574659
30	0xb81f849b	-3.8032053e-05
31	0x3dd74dc3	0.10512879
32	0xbc834a97	-0.016026778
33	0x3d8cd0f8	0.06875795
34	0x3c8749e7	0.016514732
35	0x3df6db14	0.120535046
36	0x3d94366c	0.07236943
37	0x3d39b015	0.04533394
38	0xbac014bb	-0.0014654616
39	0xbd074451	-0.033024136
40	0xbd8bc9bb	-0.068255864
41	0xbda9cc7c	-0.082909554
42	0x3cecdf86	0.028915178
43	0x3e113882	0.14181712
44	0xbd70c216	-0.058778845
45	0x3d2c353e	0.042042963
46	0x3d91f6c7	0.07127147
47	0x3df981b2	0.121829405
48	0xbd60a8b6	-0.054848395
49	0xbdc0a905	-0.09407238
50	0xbdbda42e	-0.092598304
51	0x3d023bfb	0.031795483
52	0xbd407cf2	-0.046994157
53	0x3db8d886	0.090256736
54	0xbb717ada	-0.0036846907
55	0xbd345602	-0.044027336
56	0x3d8b9cb3	0.068169974
57	0x3d9b5499	0.07584495
58	0x3d94652d	0.0724586
59	0x3dbb91be	0.091586575
60	0xbd826e5d	-0.063687064
61	0xbd808087	-0.06274515
62	0x3db0219a	0.08600159
63	0xbd980557	-0.074228935
64	0xbd9fd0fe	-0.07803534
65	0xbd200c0a	-0.03907398
66	0xbd5c4021	-0.053772096
67	0x3b105f99	0.0022029637
68	0xbc8812f6	-0.016610604
69	0x3d8703c0	0.06592512
70	0x3d921d77	0.07134526
71	0x3cae34b7	0.02126537
72	0x3d82eb5b	0.06392547
73	0xbdae3174	-0.08505526
74	0x3d17245a	0.036899902
75	0x3da55c88	0.080742896
76	0xbd81f19e	-0.06344913
77	0x3d54ee90	0.051985323
78	0x3dbdfed9	0.09277124
79	0x3de6bed1	0.11266864
80	0x3df15795	0.11784283
81	0x3bc6fa1f	0.006072297
82	0x3de63cfd	0.11242101
83	0xbc9786ff	-0.018496988
84	0x3de02bb3	0.10945835
85	0x3d277d97	0.040891256
86	0x3df42e35	0.11922876
87	0x3dc073d7	0.09397095
88	0xbdc4d613	-0.09611144
89	0x3d01d78c	0.031699702
90	0x3cea2a04	0.028584488
91	0x3dc24606	0.09486012
92	0xbb956a9b	-0.0045598275
93	0x3df2ffee	0.11865221
94	0x3c7d1f66	0.0154493805
95	0xbd02e6d1	-0.031958405
96	0x3d993ab1	0.074818976
97	0x3de8239f	0.11334919
98	0x3b1c8e2a	0.0023888447
99	0x3d56a7a9	0.052405987
100	0xbd1fb5b8	-0.03899166
101	0x3c1e8068	0.009674169
102	0xbdad2f65	-0.084563054
103	0x3d8b60bb	0.06805559
104	0x3ca625be	0.020281669
105	0xbda01fd1	-0.078185685
106	0x3d297b43	0.041377317
107	0xbc83748b	-0.016046783
108	0x3c2b7f95	0.01046743
109	0xbd9befad	-0.07614074
110	0x3d05f858	0.032707542
111	0x3d9768bf	0.073930256
112	0x3de29ad9	0.11064691
113	0x3c090da6	0.00836507
114	0x3d02df15	0.03195103
115	0xbc6b4c1e	-0.0143614095
116	0x3e058c81	0.13041879
117	0xbb9c9480	-0.0047784448
118	0x3da4b110	0.080415845
119	0x3cd42a4c	0.025899075
120	0x3c789667	0.015172577
121	0x3ce5066f	0.02795717
122	0xbc11afa7	-0.008891976
123	0x3d4f7066	0.0506443
124	0xbda9e9c6	-0.08296542
125	0xbd55a4ad	-0.052159
126	0xbccf40d7	-0.025299473
127	0x3d99599c	0.07487795
128	0xbdb28c29	-0.0871814
129	0xbdb728a1	-0.08943296
130	0xbd4937a8	-0.049125344
131	0xbd400eaa	-0.046888985
132	0x3c8f8cd4	0.017523207
133	0xbcc86b85	-0.024465332
134	0x3dc0b907	0.09410291
135	0xbe089d89	-0.13341345
136	0x3ca93cdb	0.020658901
137	0x3dc3b45f	0.095558874
138	0x3dc43f88	0.0958243
139	0xbdc610f4	-0.09671202
140	0x3da3d660	0.07999873
141	0xbdaf289b	-0.08552667
142	0x3d987320	0.07443833
143	0xbd1f30d2	-0.038864918
144	0xbddeb719	-0.10874767
145	0x3d933012	0.07186903
146	0x3d5632ec	0.052294657
147	0x3dda6167	0.10663109
148	0xbd022885	-0.031776924
149	0x3d31596c	0.04329817
150	0x3df698b1	0.12040842
151	0xbcb0e8bf	-0.021595357
152	0xbca4be1e	-0.020110186
153	0x3d38fcb0	0.045162857
154	0x3d77cfa4	0.060500756
155	0x3de35e7c	0.11102006
156	0xbd8256a3	-0.06364181
157	0xbdfe5e77	-0.124203615
158	0xbdf97df3	-0.12182226
159	0x3d97dcd6	0.07415168
160	0xbe050c6b	-0.12993018
161	0xbdfd8278	-0.123784006
162	0xbd639e6b	-0.055571
163	0x3d8b3ba0	0.06798482
164	0x3d68f95a	0.056878425
165	0x3d8f19eb	0.06987365
166	0x3e0064f2	0.12538508
167	0x3da7b398	0.08188552
168	0xbdd83072	-0.10556115
169	0x3d5bb172	0.053636022
170	0xbdfde29c	-0.12396738
171	0xbdc6a113	-0.09698691
172	0x3dfee09a	0.12445183
173	0xbdc0cd64	-0.09414175
174	0xbd91c3af	-0.07117402
175	0xbd59f38f	-0.05321079
176	0xbda60840	-0.08107042
177	0x3e088988	0.13333714
178	0x3c450a4c	0.012026381
179	0xbdd31be0	-0.10308051
180	0xbde3b39f	-0.111182444
181	0x3df02697	0.117261104
182	0x3d0d03a2	0.034427293
183	0xbcb94d65	-0.022619912
184	0x3d374ef4	0.04475303
185	0x3cb283ae	0.021791305
186	0x3d2f2822	0.042762883
187	0x3e02b81a	0.12765542
188	0x3dea2d8b	0.11434468
189	0xbd1d3c9d	-0.038387883
190	0xbd832648	-0.06403786
191	0x3dfe7125	0.12423924
192	0x3da0bdca	0.078486994
193	0x3d78c681	0.060736183
194	0xbc7e4002	-0.01551819
195	0xbd73438a	-0.059390582
196	0x3dc85f92	0.097838536
197	0x3da12420	0.078682184
198	0x3c9e6e0d	0.019339586
199	0x3e103581	0.1408291
200	0xbd747eb3	-0.059691142
201	0x3dd251d2	0.10269512
202	0xbbc23f01	-0.005927921
203	0x3ce33f8b	0.02774026
204	0xbb08bb87	-0.0020863728
205	0x3ddc77ed	0.107650615
206	0xbcf11e1a	-0.029433299
207	0xbd89801a	-0.067138866
208	0xbc60ef73	-0.013728964
209	0xbd117229	-0.035509262
210	0x3d51f9b4	0.051263526
211	0xbc968f32	-0.018378828
212	0xbd7ff016	-0.062484823
213	0xbd2558dc	-0.040367946
214	0x3d9df500	0.07712746
215	0x3d3a7ff9	0.0455322
216	0xbd6bbbe0	-0.05755222
217	0x3dcc237e	0.09967707
218	0x3ddc8c4b	0.10768946
219	0x3df6d79e	0.120528445
220	0x3cf0aa25	0.029378006
221	0x3cc1d246	0.023659837
222	0x3e03d457	0.1287397
223	0x3daf162b	0.0854915
224	0x3d99e32e	0.07514034
225	0x3dc38552	0.09546913
226	0x3d7b9f9a	0.061431505
227	0x3daeb11f	0.08529877
228	0xbd65e1f5	-0.056123693
229	0xbb909718	-0.004412543
230	0x3dc2afdd	0.095061995
231	0xbd816f62	-0.06320073
232	0xbcf14684	-0.02945257
233	0x3df4cc1d	0.11952994
234	0xbb72e070	-0.0037060045
235	0xbd7cd957	-0.06173071
236	0x3d792c00	0.060832977
237	0x3df51955	0.11967722
238	0xba15a597	-0.0005708574
239	0x3be8a102	0.0070992718
240	0xbd72481d	-0.059150804
241	0x3e01ec0d	0.12687702
242	0x3db66911	0.089067586
243	0x3ceb3559	0.028711962
244	0xbd882a45	-0.06648687
245	0x3de4abe5	0.11165599
246	0x3dbc69b3	0.09199848
247	0xbd7ace07	-0.06123164
248	0x3d38d659	0.045126293
249	0xbd67971c	-0.056540594
250	0xbd1a8066	-0.037720107
251	0xbd1280c7	-0.035767343
252	0x3d834c0c	0.06410989
253	0xbd137d70	-0.0360083
254	0xbd15a599	-0.03653488
255	0xbce0eb92	-0.027456079

rnn.weight_hh_l0_reverse f4 [256, 64]
0	0xbe0f561a	-0.13997689
1	0xbdf005fb	-0.11719891
2	0x3d896e68	0.067105114
3	0xbe012e0a	-0.12615219
4	0x3d98249a	0.07428856
5	0x3db6f14b	0.08932742
6	0xbd235184	-0.03987266
7	0x3d13e437	0.036106315
8	0x3dd6c594	0.10486904
9	0xbc9b5999	-0.018963622
10	0x3d3f69c6	0.046731733
11	0xbca07ee6	-0.01959176
12	0x3d468bce	0.048473172
13	0x3d9ec336	0.07752077
14	0x3e27b1ff	0.16376494
15	0x3ca6a1fc	0.020340912
16	0xbd38374c	-0.04497461
17	0xbd336afb	-0.043803196
18	0xbcb850de	-0.022499498
19	0xbda74a08	-0.08168417
20	0x3cdfd204	0.027321823
21	0x3c8b33fe	0.016992565
22	0x3d0a4bc5	0.033763666
23	0x3d5d7064	0.054062262
24	0x3d70fd94	0.05883558
25	0x3dc03c93	0.093865536
26	0x3e098d62	0.1343284
27	0x3df54841	0.11976672
28	0xbe194971	-0.14969422
29	0xbd15206a	-0.036407866
30	0xbd2ed3f1	-0.04268259
31	0xbd830404	-0.0639725
32	0xbe0a27e1	-0.13491775
33	0xbdbfb23b	-0.09360167
34	0xbdd4bf74	-0.10388079
35	0x3dcd454e	0.100229844
36	0x3e0a4e53	0.13506441
37	0x3c856deb	0.016287765
38	0x3d2e6448	0.042576104
39	0xbdb6e73a	-0.08930822
40	0xbd813f93	-0.06310954
41	0x3e037ac6	0.12839803
42	0xbe0e1e24	-0.13878685
43	0xbe083d33	-0.13304596
44	0xbd6b9c5b	-0.05752216
45	0x3d8db73e	0.06919716
46	0x3da217c4	0.07914689
47	0x3dab2943	0.083574794
48	0x39884428	0.00025990722
49	0x3e1faabd	0.15592475
50	0x3dae404f	0.0850836
51	0xbd8eb9e1	-0.06969047
52	0xbe0bfb36	-0.13670048
53	0x3e0e3d2d	0.13890524
54	0x3d3eb2d0	0.046557248
55	0xbdd4f2cf	-0.103978746
56	0xbdc170dd	-0.09445355
57	0xbda2b04f	-0.079437844
58	0xbd86aa28	-0.065754235
59	0x3dd5ebfa	0.104453996
60	0x3ca68749	0.02032818
61	0xbd36f857	-0.04467043
62	0x3bf0dd68	0.0073506124
63	0x3d28b279	0.04118583
64	0xbdf04200	-0.117313385
65	0xbd4617a7	-0.0483624
66	0xbdc28a62	-0.09499051
67	0xbd6c22fe	-0.05765056
68	0x3e17bdb4	0.1481846
69	0xbd299878	-0.04140517
70	0xbd8cbf08	-0.06872374
71	0xbde7d7e0	-0.11320472
72	0x3d8ed389	0.06973941
73	0x3da24600	0.07923508
74	0x3e28d340	0.16486835
75	0xbc62e7c4	-0.013849203
76	0x3d430045	0.04760768
77	0xbdbbe85b	-0.09175178
78	0xbdaa5490	-0.0831691
79	0xbdf8d6a3	-0.12150314
80	0x3c0807dd	0.008302656
81	0x3d59bb08	0.053156883
82	0x3e0b6373	0.13612156
83	0x3d6d07b7	0.057868686
84	0xbd1be34a	-0.038058557
85	0x3d8a0328	0.06738883
86	0x3cab19a0	0.020886242
87	0xbdee0c1e	-0.11623405
88	0xbda46e3a	-0.080288365
89	0x3cb08bb0	0.021550983
90	0x3d810316	0.06299417
91	0x3ddb5d5f	0.107111685
92	0x3b7a0910	0.0038152374
93	0xbd99ba92	-0.075062886
94	0x3c25348e	0.010083331
95	0xbdaf51ca	-0.08560522
96	0xbe0a7c78	-0.13524044
97	0xbdd29dfa	-0.10284038
98	0xbd999d59	-0.07500715
99	0x3ddf7c2a	0.10912354
100	0xbd012427	-0.03152862
101	0x3d090eed	0.0334615
102	0x3e04914e	0.12946054
103	0xbda418d9	-0.08012552
104	0x3d2df670	0.04247135
105	0x3e233d6d	0.15941401
106	0xbd9b1b66	-0.07573585
107	0xbda64968	-0.0811947
108	0xbd8e3438	-0.06943554
109	0x3d964dff	0.07339095
110	0xbd4c94ea	-0.049946703
111	0xbd03dd65	-0.03219356
112	0x3d36cb08	0.04462722
113	0x3e181022	0.14849904
114	0x3c7a123b	0.015263136
115	0x3d2f8b85	0.042857666
116	0xbd5cfbfa	-0.05395124
117	0x3c1e3f80	0.009658694
118	0xbd9bf325	-0.076147355
119	0x3c7cbbd6	0.015425643
120	0x3ddb693f	0.107134335
121	0x3d1bd149	0.038041387
122	0x3dfe405a	0.12414618
123	0xbc67fed2	-0.014159875
124	0x3da7805f	0.08178782
125	0xbcf80a0a	-0.030278224
126	0xbd997f05	-0.0749493
127	0xbd3ed805	-0.04659273
128	0x3dd45dcc	0.10369453
129	0x3d4cd212	0.050005026
130	0xbc522253	-0.012825566
131	0x3c86943a	0.016428102
132	0x3b70c94b	0.0036741074
133	0xbe0044c7	-0.12526236
134	0xbda4bf74	-0.08044329
135	0x3db5e34c	0.08881244
136	0xbd0c942c	-0.034320995
137	0x3d43d893	0.047813963
138	0xbdb29a52	-0.087208405
139	0xbdd7c682	-0.10535909
140	0xbd6ffc1d	-0.058590043
141	0xbdbd49d0	-0.09242594
142	0xbd7d25df	-0.061803695
143	0xbcec3040	-0.028831601
144	0xbdd15be4	-0.10222605
145	0xbd731e42	-0.059355028
146	0x3d35149e	0.044209115
147	0x3a51f76d	0.00080095866
148	0xbd41deff	-0.047331806
149	0x3d33838d	0.04382663
150	0xbdb6b945	-0.08922056
151	0xbd97a155	-0.074038185
152	0x3df34cae	0.1187986
153	0xbcd6c387	-0.026216282
154	0x3da5294a	0.08064516
155	0x3dfa2bef	0.12215411
156	0x3cef6f55	0.029227892
157	0xbd958680	-0.073010445
158	0x3d22228d	0.03958373
159	0x3d2758e1	0.040856246
160	0x3df16f4b	0.117888056
161	0xbd1b57f6	-0.037925683
162	0xbd372e44	-0.044721857
163	0x3cc4bbda	0.024015356
164	0x3cb48b92	0.022039209
165	0x3db443b3	0.08801975
166	0x3daf548f	0.0856105
167	0x3da68717	0.08131235
168	0x3d3acc43	0.045604955
169	0x3d621eb9	0.05520508
170	0xbc25e62d	-0.010125679
171	0xbdae6841	-0.085159786
172	0x3cee7bae	0.02911171
173	0xbdd17678	-0.10227674
174	0xbda8f375	-0.08249561
175	0xbd89fdf8	-0.06737894
176	0x3d953670	0.07285774
177	0xbcfd1a64	-0.030896373
178	0x3dc99b4e	0.09844075
179	0xbd3603ba	-0.044437148
180	0x3bb1cc19	0.0054259417
181	0xbd7a6ef2	-0.061140962
182	0x3defb736	0.117048666
183	0x3da2a611	0.07941831
184	0x3c862e6f	0.016379563
185	0xbc94c5a9	-0.018160658
186	0x3e07177a	0.1319255
187	0x3dbd06ab	0.092297874
188	0xbda5dab2	-0.080983534
189	0x3d6db618	0.058034986
190	0xbd40fcae	-0.047115974
191	0xbd988b42	-0.07448436
192	0x3d055422	0.03255094
193	0x3d5465ef	0.051855024
194	0x3d74d8d8	0.05977711
195	0xbe0427c2	-0.12905791
196	0x3dd9ef01	0.106412895
197	0xbcf6329f	-0.030053435
198	0x3d30a4d9	0.04312596
199	0x3c8808d3	0.01660577
200	0xbc54d2b7	-0.012989691
201	0x3db4c5d6	0.08826797
202	0xbdd6195e	-0.10454057
203	0xbdac25c9	-0.084056444
204	0xbd6564a5	-0.056004185
205	0xbdb10c9d	-0.08644984
206	0x3dc45c94	0.095879704
207	0x3df191ae	0.11795364
208	0xbd105915	-0.035241205
209	0x3ddebcd6	0.10875861
210	0xbd90ed5e	-0.07076524
211	0xbd2a84fc	-0.04163073
212	0xbd8c68cb	-0.06855925
213	0x3dc5268a	0.09626491
214	0xbd2bdc25	-0.041957993
215	0xbdc10ba9	-0.09426052
216	0xbdb353b1	-0.08756197
217	0x3dc85a28	0.09782821
218	0xbd9e01f9	-0.0771522
219	0x3e06f0ba	0.13177767
220	0xbbd58de0	-0.006517157
221	0xbd33e7e7	-0.04392233
222	0xbe04fad3	-0.12986307
223	0xbc747484	-0.014920358
224	0xbd3086ab	-0.04309718
225	0xbd5c4ebf	-0.053786036
226	0x3d8e0bf5	0.069358744
227	0x3cb647db	0.02225106
228	0x3d681217	0.056657877
229	0x3ca336cf	0.019923596
230	0xbc231499	-0.009953641
231	0xbc876a30	-0.016530126
232	0xbd00238a	-0.031283893
233	0xbd007a7a	-0.031366803
234	0xbd8402e0	-0.06445861
235	0x3da03922	0.07823397
236	0xbd2969a4	-0.041360512
237	0xbdf99195	-0.12185971
238	0xbdd5eecf	-0.1044594
239	0x3db43769	0.08799631
240	0x3db6a19b	0.089175425
241	0xbc685b69	-0.01418195
242	0x3d9e0f4b	0.07717761
243	0x3dc4d510	0.09610951
244	0xbdcc971b	-0.099897586
245	0xbdd4b42b	-0.10385927
246	0xbd6f20e2	-0.05838097
247	0xbdf4f944	-0.11961606
248	0x3da62185	0.08111862
249	0xbd029174	-0.031876996
250	0xbd069f14	-0.032866552
251	0xbd890fb4	-0.06692448
252	0x3cba16d9	0.022715973
253	0x3dd6feed	0.10497842
254	0xbde68b9a	-0.11257096
255	0x3e0431cc	0.12909621

rnn.bias_ih_l0_reverse f4 [256]
0	0x3da08b31	0.07839049
1	0x3d3c909f	0.04603636
2	0xbd624db5	-0.05524989
3	0x3d91222a	0.070865944
4	0x3b845db5	0.004039491
5	0xbcf483bf	-0.029847978
6	0xbd9532d9	-0.07285089
7	0x3d3327bc	0.043739066
8	0xbdbcbd94	-0.09215847
9	0x3d3bde72	0.045866437
10	0xbd5870ed	-0.05284207
11	0x3dc84630	0.09779012
12	0xbb40359a	-0.0029328824
13	0xbdc9083c	-0.09816024
14	0x3de31396	0.1108772
15	0x3c80fdbd	0.015745992
16	0xbd5677a9	-0.05236021
17	0x3cc865e7	0.024462653
18	0xbbfb7d46	-0.007674846
19	0x3d43bd9a	0.04778824
20	0xbcf20212	-0.029542003
21	0xbdb45f5c	-0.08807251
22	0x3e095fd3	0.1341546
23	0xbcbf44ef	-0.0233483
24	0xbdfd9f02	-0.12383844
25	0x3d75cf86	0.060012363
26	0x3dc491b0	0.095981
27	0xbd21bf52	-0.039489098
28	0xbd9959a9	-0.074878044
29	0xbd1ac526	-0.03778567
30	0x3d52d722	0.051474698
31	0x3d834088	0.06408793
32	0x3cf50eb2	0.029914234
33	0xbd6585cc	-0.0560358
34	0x3dcc36f0	0.09971416
35	0x3dd2c19e	0.10290836
36	0x3c928407	0.017885221
37	0x3cc2025a	0.023682762
38	0xbdb84ff1	-0.089996226
39	0x3c5867ef	0.013208373
40	0x3d543751	0.051810566
41	0x3ddf585a	0.109055236
42	0x3e0e3836	0.1388863
43	0x3b4df390	0.0031425692
44	0x3cdabbd3	0.02670089
45	0xbd8a2afb	-0.06746479
46	0xbcc3778a	-0.023860712
47	0x3d870be5	0.065940656
48	0xbcdb3b20	-0.026761591
49	0x3b02a2ae	0.001993339
50	0x3cde097d	0.027104134
51	0x3def72a1	0.116917856
52	0xbda56900	-0.08076668
53	0xbda03132	-0.07821883
54	0xbda13aa8	-0.07872516
55	0x3e00ad81	0.12566186
56	0x3ba1aa96	0.0049336655
57	0x3cc9838d	0.024598861
58	0x3cb06a81	0.02153516
59	0xbdba501a	-0.090973094
60	0xbda7992d	-0.08183513
61	0xbb028be7	-0.0019919814
62	0x3e106a91	0.14103152
63	0x3dc6a88f	0.09700119
64	0x3da9ea86	0.08296685
65	0x3dd218c8	0.10258633
66	0xbdb5d386	-0.088782355
67	0x3db2b0fc	0.08725163
68	0xbc4ed5e4	-0.012624238
69	0x3d6b6ec8	0.057478696
70	0x3bff1d17	0.00778545
71	0xbdaed3d5	-0.085364975
72	0x3d5aa33a	0.05337832
73	0x3d1afa8c	0.037836596
74	0x3c9083ac	0.017640911
75	0x3d374869	0.04474679
76	0x3dc539ce	0.09630166
77	0x3e0d30c3	0.13788132
78	0x3c0ed790	0.008718386
79	0x3d498129	0.049195442
80	0xbc8024af	-0.015642492
81	0x3c584ce5	0.013201927
82	0x3da12d1c	0.07869932
83	0x3c8ed741	0.017436625
84	0x3e049c43	0.12950234
85	0x3e196bb6	0.14982495
86	0x3dec3ce1	0.11535049
87	0xbd04c943	-0.0324185
88	0x3c364400	0.011124611
89	0xbd4a6eef	-0.0494222
90	0xbdc74031	-0.097290404
91	0x3da0edf7	0.07857888
92	0x3da65f08	0.081235945
93	0x3cec44c4	0.028841384
94	0xb9799167	-0.00023800657
95	0x3cd26182	0.025681261
96	0x3dae61f3	0.08514776
97	0x3dba1c4a	0.09087427
98	0x3d009189	0.031388793
99	0x3d0d9ea2	0.034575112
100	0xbdabd67b	-0.08390518
101	0x3daaf74e	0.08347951
102	0x3cfccfa3	0.030860728
103	0x3d91b995	0.07115475
104	0x3e0af207	0.13568889
105	0xbd3af966	-0.045648
106	0x3e0e0dba	0.13872424
107	0x3d8656c0	0.06559515
108	0xbd0f8400	-0.035037994
109	0x3d9dbf81	0.07702542
110	0x3dde4c20	0.108543634
111	0x3dbe5168	0.09292871
112	0xbd1c34b8	-0.038136214
113	0xbad74c56	-0.0016425948
114	0x3e004df3	0.12529735
115	0x3d222c02	0.03959275
116	0x3c481169	0.012211182
117	0xbdd1ddc2	-0.10247375
118	0x3c2f3cd5	0.010695656
119	0x3ca73068	0.020408824
120	0xbc7d5690	-0.015462533
121	0x3c8548ba	0.01627003
122	0xbb4d2e1b	-0.0031307999
123	0xbcc34cbf	-0.023840306
124	0x3c6410ea	0.013920048
125	0xbd76f09b	-0.060288053
126	0xbcf4b918	-0.029873416
127	0x3df3d756	0.119063064
128	0xbd747257	-0.059679355
129	0x3daa707f	0.08322238
130	0xbd4c7541	-0.04991651
131	0xbd94aff7	-0.07260125
132	0x3d40521a	0.0469533
133	0xbd83304a	-0.06405695
134	0xbd97f585	-0.07419876
135	0x3d674822	0.056465276
136	0x3cfd5488	0.030924097
137	0x3dd409f8	0.10353464
138	0x3e089972	0.13339785
139	0x3dcff746	0.101545855
140	0x3d9cac00	0.07649994
141	0x3ca3e2bd	0.020005578
142	0xbdb8b22e	-0.0901836
143	0x3d958212	0.073001996
144	0xbd3a28e5	-0.045449156
145	0x3deef8b4	0.1166853
146	0x3d86332d	0.0655273
147	0xbdc75b50	-0.09734213
148	0xbdd8cb52	-0.10585655
149	0x3db721fe	0.0894203
150	0xbd1e92d8	-0.03871426
151	0xbd2eb219	-0.042650316
152	0x3d645011	0.05574042
153	0x3d5720a8	0.052521378
154	0xbce098a5	-0.027416537
155	0x3dcebafb	0.100942574
156	0xbdb12a15	-0.08650605
157	0xbddc00e7	-0.107423596
158	0x3dd6bdd8	0.104854286
159	0x3ca3366e	0.019923415
160	0x3dce689e	0.10078548
161	0xbcfca673	-0.030841088
162	0x3c6a7837	0.014310888
163	0x3d259025	0.04042067
164	0xbd1b70d4	-0.0379494
165	0x3c6019db	0.013678039
166	0xbd1ef945	-0.03881194
167	0x3d6aa4eb	0.057286184
168	0x3d084583	0.033269417
169	0x3dd4e15f	0.103945486
170	0x3de09269	0.109654255
171	0xbda086a9	-0.078381844
172	0x3cf69dab	0.030104479
173	0xbd344006	-0.04400637
174	0x3cefcc27	0.029272152
175	0xbdc0a8e3	-0.094072126
176	0x3cfe4905	0.031040678
177	0xbda7262e	-0.08161579
178	0x3dd8662e	0.10566364
179	0xbd64ec60	-0.055889487
180	0x3df8455a	0.12122603
181	0xbca03719	-0.019557523
182	0x3dd79765	0.10526923
183	0xbd83fb86	-0.06444459
184	0xbcff8fa3	-0.031196421
185	0xbd7b7675	-0.061392266
186	0x3ddf226f	0.108952396
187	0xbb2778cd	-0.002555418
188	0xbd253dae	-0.040342025
189	0xbd84daa5	-0.06487016
190	0xbdeca6fc	-0.11555287
191	0xbd4f22c0	-0.05057025
192	0x3c2847e5	0.010271047
193	0x3db7a094	0.08966175
194	0x3de79b55	0.11308924
195	0x3d9df10c	0.07711992
196	0x3deb8581	0.11500073
197	0xbd963ca0	-0.07335782
198	0x3d063f6d	0.03277533
199	0x3d4c88c8	0.049935132
200	0x3d6e46ce	0.058172993
201	0x3d98b93a	0.07457204
202	0x3d3816a6	0.044943474
203	0x3dc89d84	0.09795669
204	0x3cefdccc	0.029280089
205	0x3db99748	0.09062058
206	0x3cd67439	0.026178466
207	0xbce6a0ac	-0.028152786
208	0xbd138f7b	-0.036025506
209	0xbd6caa45	-0.05777957
210	0x3d4cfee6	0.050047778
211	0x3e02b36b	0.12763755
212	0x3cc653d3	0.024209892
213	0xbc55801f	-0.013031035
214	0x3df1a615	0.11799256
215	0xbc1fc772	-0.009752141
216	0x3da840fd	0.082155205
217	0xbd4a21b3	-0.049348544
218	0x3cb98a93	0.022649085
219	0x3ce183e2	0.027528707
220	0x3d0193f6	0.031635247
221	0x3971a000	0.00023043156
222	0xbcf34fce	-0.02970114
223	0x3db6c050	0.089233994
224	0x3d5fc244	0.054628626
225	0x3da76983	0.08174422
226	0xbdb1bfd2	-0.08679165
227	0x3df755c0	0.120769024
228	0xbca5dbe1	-0.020246448
229	0xbc202b19	-0.0097759
230	0x3c578b77	0.01315581
231	0x3e0ceec1	0.13762952
232	0x3c6fd0ee	0.014637215
233	0x3ddf2344	0.10895398
234	0xbcfa7b1c	-0.030576281
235	0x3dbd5655	0.09244982
236	0x3db00491	0.08594621
237	0xbda41f95	-0.08013836
238	0xbc597080	-0.013271451
239	0xbdc03aec	-0.093862385
240	0x3c7a0dce	0.01526208
241	0xbd9f12b7	-0.077672414
242	0x3dbec6df	0.093152754
243	0xbd5189ac	-0.051156685
244	0x3e286d0e	0.16447851
245	0x3dc531da	0.09628649
246	0x3e0e7adf	0.13914059
247	0x3da27214	0.07931915
248	0xbdb129e1	-0.08650566
249	0x3c8b56f9	0.017009245
250	0x3dab210d	0.08355913
251	0x3e1504c8	0.14552605
252	0xbd205518	-0.03914365
253	0xbc88f904	-0.016720302
254	0xbdb13b5c	-0.086539
255	0x3d64a85d	0.055824626
