16 - Recurrent Neural Network/model/bilstm/weights_100.pth (torch, 939287 bytes, 25 tensors)

rnn.weight_ih_l0 f4 [256, 1]
0.115902126 0.15250081 -0.04052308 -0.016125647 -0.06229732 -0.010211568 -0.022690726 0.12772296
-0.04452929 0.07549984 -0.08658052 0.004895608 0.1057504 0.03929872 0.092472 0.1350634
0.1387781 -0.056078177 0.04541645 -0.015406982 0.04980696 -0.015986865 0.15972312 0.067730285
-0.09017927 0.035487413 0.067873985 0.11816038 0.10820512 0.14997719 0.07802894 0.046196476
-0.06080934 0.017365655 0.012247749 0.12085162 0.026141219 0.025423324 0.114230506 0.04788549
0.07155925 0.06493745 0.015839439 -0.066723414 -0.004195007 0.066187546 0.07247323 0.010991115
0.0070413183 -0.00663671 -0.018546576 0.014232856 0.12231647 0.14072025 0.048051942 0.030306198
0.004182179 0.05923629 0.16337241 0.118082136 0.11017486 0.13101813 0.046706464 -0.037605062
0.096907765 -0.057493195 0.06535773 -0.015909148 -0.079205334 0.052644357 0.017408354 0.055292826
0.10851406 -0.0006994761 -0.04981667 0.037887614 -0.010169864 -0.013554461 0.11760681 0.00043765138
0.050895076 0.03668564 0.033177927 0.05905146 -0.03891052 0.04974564 -0.12696677 0.12420972
0.07764045 0.016664727 0.10806166 0.094484664 0.0038073023 -0.1164663 0.025460128 -0.06777555
-0.028346842 -0.028815519 0.072375715 0.0767824 0.12402769 -0.098085016 -0.0169523 0.029817767
0.04610169 -0.013764864 0.027468214 0.08255772 0.047391906 0.0579808 -0.010711851 -0.095244005
-0.016495775 0.021053357 -0.04282837 0.10398309 0.025882477 0.040957224 -0.020798266 0.0056226235
0.044920187 -0.043422226 0.018080162 0.07516457 -0.054626305 -0.061499998 0.1253666 -0.033687472
0.07228875 0.08133971 -0.09443249 -0.12037299 -0.1316919 0.042212367 0.07767918 0.014848122
0.10233974 0.08950079 0.08373085 0.04000658 0.072047144 0.06820676 0.06773609 0.078900136
-0.08260121 -0.11119683 0.05881287 0.0956769 0.11492478 0.008177126 0.08615568 -0.07536765
0.053334028 -0.062848896 0.12162768 0.10249181 -0.013165483 0.09269654 -0.06874118 0.041308224
-0.04868174 0.09622798 0.050472382 0.052633777 -0.10679492 0.08212186 0.122722514 0.041457795
0.086330466 0.083043 -0.026816571 0.057009373 -0.09781843 -0.07740054 0.1178633 -0.12032982
0.13929984 -0.109802194 0.035704374 0.03318408 -0.10734633 0.016223563 0.05755248 0.05552981
0.095682934 0.05585862 0.082356825 0.08503675 0.089672856 -0.1345024 0.061211567 0.07951204
0.03482246 0.10045989 0.077230185 0.11193277 -0.046793997 0.07328432 0.16257045 -0.08621923
0.09104352 0.062498268 0.06572051 0.0428213 -0.058212332 0.0027280464 0.11851666 0.05063985
0.08822072 -0.015508203 0.20709826 0.109779716 0.019993093 0.09048171 -0.00081815786 0.0013168536
-0.074829355 -0.022615647 0.1114239 0.14474484 0.0024298278 0.0432439 0.09059236 0.062299717
-0.06365792 0.05632272 0.014723958 -0.07159984 0.14957918 0.020765975 0.016086731 -0.04762362
-0.02622384 -0.030452723 -0.024734637 0.05765272 0.034751724 -0.07389687 0.08941042 0.072586596
-0.03697224 0.029142218 0.071323425 0.09458191 -0.05169951 -0.12369771 -0.002576333 -0.037238955
-0.004285087 0.1722998 0.0045718555 -0.013099447 0.01405915 0.002490736 0.02496138 0.13357913
00000000: 185e ed3d 2c29 1c3e 87fb 25bd ef19 84bc
00000010: 7a2b 7fbd 6c4e 27bc e7e1 b9bc cfc9 023e
00000020: 5864 36bd a99f 9a3d 2151 b1bd 566b a03b
00000030: aa93 d83d b2f7 203d f661 bd3d 0f4e 0a3e
00000040: d91b 0e3e 3bb2 65bd 9906 3a3d 916d 7cbc
00000050: 6202 4c3d e3f6 82bc 758e 233e 2db6 8a3d
00000060: e9af b8bd 405b 113d 8401 8b3d 12fe f13d
00000070: a59a dd3d 9f93 193e a3cd 9f3d 8438 3d3d
00000080: 3713 79bd 6b42 8e3c c8aa 483c 0e81 f73d
00000090: 1c26 d63c 9344 d03c aff1 e93d 9323 443d
000000a0: a88d 923d edfd 843d b6c1 813c 49a6 88bd
000000b0: 4576 89bb 568d 873d d86c 943d 1414 343c
000000c0: dcba e63b c278 d9bb fdee 97bc ed30 693c
000000d0: 0f81 fa3d f818 103e 1dd2 443d b444 f83c
000000e0: a90a 893b c1a1 723d 194b 273e 0cd5 f13d
000000f0: 5ba3 e13d 9e29 063e 474f 3f3d c407 1abd
00000100: 9477 c63d fc7d 6bbd 46da 853d e753 82bc
00000110: 6836 a2bd 9ca1 573d f79b 8e3c bb7a 623d
00000120: 9f3c de3d 0c5d 37ba 910c 4cbd 0b30 1b3d
00000130: 809f 26bc 8813 5ebc d7db f03d 9374 e539
00000140: 5b77 503d af43 163d 94e5 073d f2df 713d
00000150: a360 1fbd 16c2 4b3d 9403 02be aa61 fe3d
00000160: f501 9f3d 7784 883c 6e4f dd3d 2d81 c13d
00000170: ef83 793b e285 eebd c291 d03c e8cd 8abd
00000180: a337 e8bc 860e ecbc b839 943d 1740 9d3d
00000190: 3b02 fe3d cce0 c8bd 8ddf 8abc 6444 f43c
000001a0: 20d5 3c3d 0686 61bc 0505 e13c 0614 a93d
000001b0: 041e 423d 467d 6d3d c280 2fbc 4a0f c3bd
000001c0: 2622 87bc 1778 ac3c cd6c 2fbd 16f5 d43d
000001d0: 7d07 d43c c3c2 273d 2061 aabc fc3d b83b
000001e0: 3bfe 373d 81db 31bd d91c 943c e2ef 993d
000001f0: d5bf 5fbd 6ce7 7bbd 1a60 003e e0fb 09bd
00000200: 200c 943d 6f95 a63d d265 c1bd 1d86 f6bd
00000210: 3eda 06be e0e6 2c3d 4316 9f3d 8a45 733c
00000220: 7f97 d13d 314c b73d 147b ab3d f1dd 233d
00000230: 748d 933d fcaf 8b3d 38b9 8a3d 6596 a13d
00000240: d32a a9bd 2abb e3bd c4e5 703d 40f2 c33d
00000250: af5d eb3d 5af9 053c 6472 b03d 5b5a 9abd
00000260: c874 5a3d ecb6 80bd ef17 f93d 3ae7 d13d
00000270: 0ab4 57bc afd7 bd3d 2dc8 8cbd d032 293d
00000280: 8166 47bd 2d13 c53d 21bc 4e3d 8496 573d
00000290: 4cb7 dabd 812f a83d f155 fb3d a6cf 293d
000002a0: 07ce b03d 7312 aa3d 6dae dbbc a982 693d
000002b0: 0755 c8bd 2d84 9ebd 5062 f13d 7b6f f6bd
000002c0: 9ea4 0e3e f9df e0bd c03e 123d 08ec 073d
000002d0: 65d8 dbbd 47e7 843c 26bc 6b3d 3a73 633d
000002e0: 6af5 c33d 02cc 643d b2aa a83d bf27 ae3d
000002f0: 67a6 b73d ffba 09be fbb8 7a3d 35d7 a23d
00000300: ffa1 0e3d eabd cd3d dc2a 9e3d 023d e53d
00000310: 10ab 3fbd 1716 963d de78 263e b593 b0bd
00000320: 0675 ba3d 2ffe 7f3d 7a98 863d 6365 2f3d
00000330: 0e70 6ebd 06c9 323b ddb8 f23d bb6b 4f3d
00000340: 11ad b43d 1e16 7ebc 9111 543e 30d4 e03d
00000350: 8ec8 a33c 7a4e b93d a579 56ba 469a ac3a
00000360: 2240 99bd 7344 b9bc 3732 e43d fe37 143e
00000370: bf3d 1f3b 8420 313d 7d88 b93d fd2d 7f3d
00000380: 155f 82bd a7b2 663d c23c 713c f0a2 92bd
00000390: 492b 193e 681d aa3c 52c8 833c fc10 43bd
000003a0: 61d3 d6bc fd77 f9bc 4ba0 cabc 4225 6c3d
000003b0: d357 0e3d 3e57 97bd cf1c b73d 48a8 943d
000003c0: 3470 17bd a9bb ee3c 0412 923d 29b4 c13d
000003d0: dec2 53bd 3a55 fdbd b2d7 28bb e087 18bd
000003e0: ea69 8cbb 5c6f 303e 81cf 953b 109f 56bc
000003f0: 5958 663c 9e3b 233b cf7b cc3c f8c8 083e

rnn.weight_hh_l0 f4 [256, 64]
0.013569732 -0.057054024 0.052575342 -0.062060647 -0.0474454 -0.031776674 -0.0013194254 -0.039972812
-0.10879993 0.1170438 0.030880414 -0.012796708 -0.061772194 0.063166134 0.03912137 0.025738478
-0.12785722 -0.111722015 0.0151015 0.06128888 0.12651035 -0.074572235 -0.101937056 -0.10427984
0.0020809877 0.011190181 -0.009341821 0.08781514 -0.026663829 0.054728933 -0.09158419 0.12696525
-0.038742773 -0.005173292 -0.03389106 0.06768002 -0.113196954 0.0061544757 -0.13094434 0.12635982
-0.11711671 0.039210867 -0.017891912 0.08672741 -0.031613626 0.04609093 -0.041108347 0.01865775
-0.114233054 0.07956283 -0.021532604 0.003921106 -0.07641248 -0.04774066 0.024987571 0.053463954
-0.051391684 0.03967694 -0.052003328 -0.07662772 -0.004960206 0.0487294 0.074406855 -0.0829032
0.09135944 0.12050092 0.071279496 0.10584824 0.008943621 0.12603582 -0.051483992 0.074295804
0.14680125 -0.0807139 -0.032418832 -0.039759833 0.026235953 -0.029482445 -0.05749955 -0.038086787
-0.0846337 -0.079634115 0.00671599 0.11478703 -0.06388122 -0.053934004 0.086108744 0.04169804
-0.009275691 -0.09725206 0.031099195 -0.09630459 -0.06666673 -0.0139624495 0.019801274 0.068922326
0.084339365 0.0056168404 -0.05177201 -0.085599 0.064058065 -0.014427138 0.10820995 0.025067683
-0.04355186 -0.042663988 -0.0268165 0.062172122 -0.026768064 -0.10209028 -0.05135345 -0.05317357
-0.004692651 -0.04669369 -0.029720768 0.15189108 -0.091759235 0.034941837 0.12865473 -0.013596042
-0.11436208 0.0015626663 0.050808445 -0.10675164 -0.11705407 0.05598029 0.1355698 0.050241984
0.1038659 0.054999325 -0.084474646 0.10246712 -0.10833461 0.071557365 -0.060903016 0.116854064
0.018220494 0.009935242 0.023729326 0.14058538 -0.043794055 0.1243321 0.023752347 -0.09114208
-0.111780934 -0.09258956 0.09906976 -0.0073386966 0.067079015 0.12696938 -0.048387013 -0.14690062
0.007378843 -0.06636547 0.13213482 0.07773646 -0.09349789 0.11734272 0.03255618 0.14561863
0.046859786 0.02900329 0.080675036 0.13852498 -0.042728588 0.009678007 0.08447738 0.092378885
-0.06560172 -0.040246334 0.03212182 -0.051961567 0.03614577 -0.075387545 0.13608696 -0.008212246
-0.045475338 -0.13649407 0.1268301 0.048929803 0.0704003 0.10134595 -0.05073348 0.13736078
0.015690675 0.07546686 0.046649534 -0.09591613 0.009078826 0.032482453 -0.07408634 0.063087404
0.035021607 0.12982313 -0.14211503 -0.03708991 0.045915514 0.15177807 0.16638374 0.100185074
0.16051406 0.12190944 0.023630913 0.048922237 0.1738213 0.02817382 0.171846 -0.052570216
-0.15527293 -0.024843562 0.077502936 0.13429134 0.19317602 0.10695165 0.1162559 -0.005631077
0.104293264 -0.067206405 -0.060142715 0.062409572 0.038391616 -0.08629009 0.025411041 -0.004173554
0.06441325 0.055692013 0.21409453 0.03601348 0.011529343 0.067442104 -0.06225435 -0.03620809
0.05161815 -0.016982438 -0.044184078 0.090857804 -0.18769284 0.016454035 0.16324499 -0.1081122
0.039761953 0.0109784305 0.032601118 0.0035639636 -0.16077182 -0.07235145 0.17519683 0.10456864
0.041762996 -0.011786819 0.023784658 0.07844412 0.064302385 0.011666644 0.043607507 0.03844082
00000000: 9553 5e3c 7bb1 69bd 3e59 573d 4e33 7ebd
00000010: 1c56 42bd 4228 02bd 92f0 acba 88ba 23bd
00000020: 7fd2 debd a9b4 ef3d ecf8 fc3c 49a9 51bc
00000030: d704 7dbd 3f5d 813d bb3d 203d 80d9 d23c
00000040: 01ed 02be 83ce e4bd 486c 773c 0c0a 7b3d
00000050: ee8b 013e 54b9 98bd 60c4 d0bd ab90 d5bd
00000060: 2e61 083b 0557 373c 700e 19bc 6dd8 b33d
00000070: 1a6e dabc 722b 603d 7e90 bbbd 2e03 023e
00000080: beb0 1ebd b884 a9bb 5ad1 0abd d39b 8a3d
00000090: ced3 e7bd 7cab c93b 4616 06be 7864 013e
000000a0: e3da efbd 939b 203d 0f92 92bc 249e b13d
000000b0: 4a7d 01bd d8c9 3c3d 3a61 28bd 23d8 983c
000000c0: 05f3 e9bd d6f1 a23d 2565 b0bc 9f7c 803b
000000d0: 257e 9cbd b68b 43bd bcb2 cc3c 05fd 5a3d
000000e0: 1680 52bd 4984 223d 7101 55bd feee 9cbd
000000f0: 3989 a2bb 7b98 473d 9f62 983d 27c9 a9bd
00000100: a81a bb3d 30c9 f63d fcfa 913d f6c6 d83d
00000110: 4488 123c 890f 013e e1e0 52bd 6628 983d
00000120: 1153 163e 544d a5bd 9cc9 04bd 35db 22bd
00000130: c8ec d63c 2b85 f1bc a684 6bbd e400 1cbd
00000140: 6f54 adbd 3617 a3bd cf11 dc3b 7615 eb3d
00000150: 28d4 82bd e7e9 5cbd c859 b03d 90cb 2a3d
00000160: 11f9 17bc 172c c7bd bdc3 fe3c 573b c5bd
00000170: 9188 88bd c2c2 64bc 4836 a23c 2627 8d3d
00000180: 1eba ac3d 790d b83b e30e 54bd 874e afbd
00000190: e030 833d cd5f 6cbc 2e9d dd3d be5a cd3c
000001a0: 6f63 32bd 6fc0 2ebd 47ae dbbc 32a8 7e3d
000001b0: b348 dbbc b514 d1bd ff57 52bd 88cc 59bd
000001c0: cfc4 99bb e241 3fbd f878 f3bc 5689 1b3e
000001d0: 44ec bbbd 2c1f 0f3d 11be 033e efc1 5ebc
000001e0: ab36 eabd 61d2 cc3a 841c 503d 9ba0 dabd
000001f0: 0bba efbd 974b 653d cfd2 0a3e 8aca 4d3d
00000200: a5b7 d43d f946 613d 0b01 adbd 48da d13d
00000210: 89de ddbd ab8c 923d 7175 79bd 2f51 ef3d
00000220: 2543 953c 6dc7 223c 0164 c23c 9df5 0f3e
00000230: 6561 33bd d4a1 fe3d 4894 c23c b3a8 babd
00000240: 67ed e4bd 989f bdbd 16e5 ca3d 7379 f0bb
00000250: b960 893d 4304 023e 7631 46bd 1e6d 16be
00000260: 39ca f13b 9fea 87bd 5a4e 073e 4b34 9f3d
00000270: d27b bfbd 6151 f03d a159 053d 0d1d 153e
00000280: 0cf0 3f3d 4f98 ed3c f438 a53d 7ed9 0d3e
00000290: 2c04 2fbd 8190 1e3c 7a02 ad3d 2431 bd3d
000002a0: 325a 86bd 57d9 24bd 2b92 033d a7d5 54bd
000002b0: 960d 143d c964 9abd 615a 0b3e a88c 06bc
000002c0: 5944 3abd 1ac5 0bbe c0df 013e 9e6a 483d
000002d0: 082e 903d 778e cf3d e9cd 4fbd 4ea8 0c3e
000002e0: bb89 803c 5e8e 9a3d 9513 3f3d ad6f c4bd
000002f0: 5bbf 143c 520c 053d 94ba 97bd f833 813d
00000300: d172 0f3d 5bf0 043e 9a86 11be 97eb 17bd
00000310: e811 3c3d b66b 1b3e 8060 2a3e d52d cd3d
00000320: cc5d 243e a8ab f93d 9e95 c13c af62 483d
00000330: 36fe 313e c8cc e63c 66f8 2f3e de53 57bd
00000340: deff 1ebe ba84 cbbc dcb9 9e3d ab83 093e
00000350: efcf 453e 7709 db3d 9317 ee3d e684 b8bb
00000360: b597 d53d 83a3 89bd 3558 76bd 2ea1 7f3d
00000370: 8740 1d3d dcb8 b0bd d12a d03c 4fc2 88bb
00000380: 18eb 833d 4f1d 643d 993b 5b3e df82 133d
00000390: 92e5 3c3c 161f 8a3d 6bfe 7ebd ef4e 14bd
000003a0: 8e6d 533d c11e 8bbc 5dfa 34bd a813 ba3d
000003b0: 8d32 40be 9dca 863c b229 273e ee69 ddbd
000003c0: 6edd 223d e0de 333c c088 053d 6391 693b
000003d0: 5ea1 24be ff2c 94bd cc66 333e 1528 d63d
000003e0: ad0f 2b3d 811d 41bc 0bd8 c23c 50a7 a03d
000003f0: f8b0 833d 7425 3f3c c99d 323d 1f74 1d3d

rnn.bias_ih_l0 f4 [256]
-0.05011991 0.04380549 -0.08733989 -0.045877457 -0.057254672 0.13721791 -0.04124546 0.13451661
0.021351624 0.10217563 -0.08774951 -0.031807274 0.08896054 0.16394645 0.06843087 0.1177976
0.05830893 0.08896044 0.02837293 -0.101254866 0.14805308 0.09596471 0.12548375 0.13653922
-0.09332291 -0.03291602 0.08291229 0.052509665 -0.09034992 0.16540375 0.09791179 0.13739896
-0.04347845 0.039305855 0.0069911983 0.0742351 -0.047199346 -0.091004975 0.19708638 0.016263897
0.059074108 0.10185589 -0.06360208 0.0037424297 0.1103897 0.12490286 -0.013683365 0.13491522
0.11390694 0.10151162 0.011154588 -0.038472876 -0.058637336 0.017713897 -0.05633203 -0.08060994
0.1166614 -0.060614664 -0.05158005 0.10601294 0.14587818 0.10152483 0.025016315 -0.06863942
-0.02563649 0.08977525 0.08025491 -0.016434986 -0.06407994 -0.080732085 0.014033934 -0.0020768761
-0.097805284 -0.089769684 0.12519428 0.068973854 0.069338135 -0.02489226 0.04953805 0.10807922
0.02691501 -0.0859272 0.11325395 -0.021438818 0.117398076 -0.055219613 -0.040372275 0.07127793
0.03155877 0.1293761 0.1361377 0.027391389 0.035988625 -0.115016714 -0.0605139 0.13602126
-0.13816291 0.06774908 -0.10986262 -0.1352381 -0.029176226 -0.042189054 -0.1638331 0.13428412
0.010239551 0.11448182 0.030705798 -0.1262237 -0.051604215 0.060963254 -0.0020628748 -0.0009369129
-0.11099857 -0.06794503 -0.07690302 0.021704255 0.10716969 -0.11079918 0.12605253 0.06878002
0.048255935 0.032420292 -0.07954277 0.058299907 0.059207905 0.045916695 0.07216255 0.009702358
-0.022443326 0.10780733 0.014759626 -0.046492275 0.09870949 -0.10304618 0.03097261 -0.06342464
0.06413403 -0.14082013 -0.14828812 0.14317738 -0.07960934 -0.09650634 0.045378584 -0.08549513
-0.037748445 -0.037678972 -0.009834478 0.0030821518 0.027503628 0.1493448 -0.13694704 0.09043066
0.065606095 -0.08599439 -0.027484138 0.063850634 -0.1447213 -0.13386282 -0.019994078 0.13064884
0.028503282 -0.07940646 -0.054804903 -0.044510227 -0.011671907 -0.077321164 -0.10710106 -0.09235324
0.04374396 -0.045208566 0.09718761 -0.09427053 -0.1037428 -0.020528985 0.03176841 -0.091132775
-0.04263837 0.037165403 0.017848013 0.03392527 0.10725382 -0.010711129 0.097799614 0.0058722547
0.01519836 0.07611304 -0.04275844 -0.054874916 -0.12083167 0.14717767 0.0026648398 0.07357453
0.15075913 0.080868974 -0.0075157816 0.029098015 0.0518996 0.008134425 0.061713 -0.006513299
-0.084631994 -0.047522865 -0.036552403 -0.06267206 0.13345154 0.07726628 0.07649027 -0.057448655
0.12039707 -0.048501052 0.015597906 0.061113585 0.0003884579 0.10170659 0.0021519733 -0.04793216
0.0042761276 -0.014165878 0.01302735 -0.059458826 0.14103028 0.044477724 0.105223574 -0.047765635
0.10659653 0.17763136 0.12032754 0.14828065 -0.1007733 -0.0700947 0.010504206 0.0777809
-0.08803318 0.06180487 -0.039309092 -0.033421595 0.121158935 0.1502707 -0.06472538 0.12368563
0.04775751 -0.03482856 0.06761251 0.057886 0.0022927206 0.08592346 0.09444635 -0.060662143
-0.08898917 -0.072512634 -0.047275312 0.0100339 0.13721797 0.20398778 -0.057040438 -0.09091162
00000000: 894a 4dbd 636d 333d 42df b2bd 00ea 3bbd
00000010: e083 6abd da82 0c3e 00f1 28bd b9be 093e
00000020: 9ae9 ae3c 7541 d13d 04b6 b3bd 5848 02bd
00000030: f230 b63d 94e1 273e 7c25 8c3d de3f f13d
00000040: 58d5 6e3d e430 b63d 596e e83c b65e cfbd
00000050: 3a9b 173e 2589 c43d d07e 003e f0d0 0b3e
00000060: 1520 bfbd f3d2 06bd ebcd a93d 6014 573d
00000070: 6109 b9bd 9a5f 293e fa85 c83d 50b2 0c3e
00000080: 7616 32bd 2dff 203d 6c16 e53b 9208 983d
00000090: 1a54 41bd d160 babd 03d1 493e dd3b 853c
000000a0: b1f7 713d d299 d03d cf41 82bd 8d43 753b
000000b0: ff13 e23d 12cd ff3d 3130 60bc 3727 0a3e
000000c0: 0b48 e93d 53e5 cf3d bcc1 363c bc95 1dbd
000000d0: b42d 70bd bc1c 913c 6abc 66bd d316 a5bd
000000e0: 2cec ee3d 1547 78bd 9a45 53bd 501d d93d
000000f0: 1761 153e 40ec cf3d 04ef cc3c d392 8cbd
00000100: 9e03 d2bc 16dc b73d b05c a43d aaa2 86bc
00000110: 583c 83bd dd56 a5bd 96ee 653c 331c 08bb
00000120: 234e c8bd 2bd9 b7bd ee32 003e 2a42 8d3d
00000130: 2701 8e3d daea cbbc 69e8 4a3d a358 dd3d
00000140: de7c dc3c 9afa afbd b0f1 e73d 76a0 afbc
00000150: 676e f03d f62d 62bd 665d 25bd 2afa 913d
00000160: c543 013d 2b7b 043e ae67 0b3e e863 e03c
00000170: cf68 133d e28d ebbd 6cdd 77bd 2849 0b3e
00000180: 947a 0dbe 08c0 8a3d a7ff e0bd db7b 0abe
00000190: fb02 efbc 6ece 2cbd ddc3 27be c781 093e
000001a0: cac3 273c 7275 ea3d ba8a fb3c c940 01be
000001b0: f15e 53bd 9bb4 793d 4c31 07bb 299b 75ba
000001c0: 3853 e3bd c426 8bbd 557f 9dbd 1fcd b13c
000001d0: c87b db3d aeea e2bd ea13 013e 8adc 8c3d
000001e0: 04a8 453d 24cb 043d 52e7 a2bd e2cb 6e3d
000001f0: fd83 723d 2513 3c3d f6c9 933d a4f6 1e3c
00000200: 11db b7bc 17ca dc3d 5cd2 713c af6e 3ebd
00000210: 3328 ca3d e009 d3bd 45ba fd3c c7e4 81bd
00000220: b458 833d 2733 10be d7d8 17be 179d 123e
00000230: 390a a3bd 1ea5 c5bd e5de 393d 1218 afbd
00000240: 1d9e 1abd 4455 1abd ca20 21bc edfd 493b
00000250: 4a4f e13c d8ed 183e d83b 0cbe b633 b93d
00000260: 7d5c 863d d41d b0bd 6a26 e1bc 1fc4 823d
00000270: d231 14be 5613 09be 9fca a3bc cfc8 053e
00000280: b77f e93c db9f a2bd 1b7b 60bd 5b50 36bd
00000290: 873b 3fbc 8f5a 9ebd cd57 dbbd b223 bdbd
000002a0: de2c 333d 9e2c 39bd 4c0a c73d e810 c1bd
000002b0: 1b77 d4bd 672c a8bc 981f 023d d2a3 babd
000002c0: 92a5 2ebd c03a 183d ff35 923c 39f5 0a3d
000002d0: e4a7 db3d bb7d 2fbc 2a4b c83d 0b6c c03b
000002e0: 8b02 793c 27e1 9b3d 7923 2fbd 85c4 60bd
000002f0: 9876 f7bd beb5 163e 98a4 2e3b 3eae 963d
00000300: 9a60 1a3e a29e a53d f246 f6bb f65e ee3c
00000310: ad94 543d 4046 053c c5c6 7c3d 836d d5bb
00000320: 8a53 adbd 56a7 42bd f9b7 15bd 365a 80bd
00000330: 85a7 083e c93d 9e3d eea6 9c3d 484f 6bbd
00000340: bd92 f63d 0aa9 46bd 5c8e 7f3c 3d52 7a3d
00000350: f0a9 cb39 8b4b d03d 1f08 0d3b 8354 44bd
00000360: c21e 8c3b 0018 68bc ab70 553c 198b 73bd
00000370: 3e6a 103e 462e 363d 757f d73d e6a5 43bd
00000380: 484f da3d ffe4 353e 496e f63d e2d6 173e
00000390: 3b62 cebd cf8d 8fbd d519 2c3c 984b 9f3d
000003a0: bd4a b4bd 1a27 7d3d 9202 21bd 15e5 08bd
000003b0: 2d22 f83d 90e0 193e bd8e 84bd e44e fd3d
000003c0: 619d 433d 64a8 0ebd 6d78 8a3d df19 6d3d
000003d0: 7841 163b a4f8 af3d 176d c13d de78 78bd
000003e0: f43f b6bd 8181 94bd c2a3 41bd 3a65 243c
000003f0: de82 0c3e 2ce2 503e 3ca3 69bd df2f babd

rnn.bias_hh_l0 f4 [256]
-0.094646074 0.04121791 0.08059784 0.11619461 -0.07290848 0.012068372 0.014114648 -0.01024076
0.07039431 0.1070523 -0.065344416 0.03348127 -0.07385759 0.12143013 -0.10333339 -0.072945565
-0.0730941 0.036595646 0.05832166 0.121157385 -0.05748161 -0.004215538 0.111374594 -0.09945392
0.08749733 -0.040875584 0.08847331 0.015325009 0.13284416 0.10973823 0.025411757 0.14427173
0.15123408 -0.002028716 0.040554848 -0.059244078 -0.042324472 -0.05203343 0.1836064 0.11771317
0.09839372 -0.06363363 0.089813635 0.031081788 -0.071143836 0.026546432 0.067910396 -0.042729482
0.14989829 0.106465906 0.0052368673 0.0066927825 0.00843076 -0.07099627 0.05709528 -0.09582873
0.0973107 0.008595585 0.044113424 -0.049051292 -0.011487179 -0.018834276 0.096717045 0.057320185
-0.010290582 -0.06813183 -0.05958285 -0.04152869 -0.19260949 -0.044207636 0.04331014 -0.0071540894
-0.09545899 -0.025824273 0.03005733 -0.032155383 0.07436281 -0.11495917 -0.012123017 -0.0016457593
-0.07395007 -0.03432541 -0.01069098 -0.11264748 0.11795043 0.15113616 -0.14076929 0.12011559
0.030616386 0.08547307 -0.09971394 -0.12935252 0.014717155 -0.093935736 -0.092957325 0.043789767
-0.121184655 0.01309028 -0.05859708 -0.07403086 0.10425319 -0.022447914 -0.036870852 0.10328663
0.12040087 -0.054902997 0.025428042 0.01704442 0.03453574 0.0400698 -0.0899174 0.01664946
-0.023316603 -0.086243786 -0.13791151 -0.018004708 -0.10610054 0.001375676 0.0005290054 0.043708943
0.1128537 0.017719898 -0.0028917782 0.0020257398 -0.009864338 0.051630847 0.0897021 0.027412329
-0.056440208 0.0036664691 0.0056424397 0.13712834 -0.0359567 -0.017650573 0.14669995 -0.026731443
0.1268658 -0.050235417 -0.11910922 0.01061293 0.017225347 0.02693675 0.06945709 -0.1250464
-0.09712698 -0.019375207 0.093142666 -0.06593742 0.0059585846 0.049596827 -0.15897548 -0.07071278
-0.018137803 0.09830695 -0.11155345 0.011801377 -0.042435754 0.0040170886 -0.07979849 0.12260824
0.17809531 0.11318444 0.056128122 -0.006527022 -0.03972174 -0.0025219042 0.0006890244 -0.074208364
0.10377237 -0.008012954 -0.08746621 0.03373146 0.07563767 -0.12784997 -0.07432416 0.105626605
-0.14788423 0.04871255 0.053922553 -0.02540314 -0.0900119 0.10043545 0.064866 -0.0062261745
-0.14075097 0.096003436 0.077679604 -0.004337968 -0.015751032 0.035416923 -0.10420013 0.060564794
-0.07073083 0.09833716 0.030179476 -0.044622276 0.06005325 0.06256777 -0.028671697 0.03103062
-0.03266548 -0.041832518 -0.080025226 -0.0376435 0.01511783 0.076864794 0.14055894 -0.07961863
-0.09214175 0.05761556 -0.090944394 0.13659994 0.05185291 0.06443882 0.10763889 -0.09464771
0.09814871 0.12737365 -0.013636227 -0.06528676 0.015330949 0.077106595 0.012684776 -0.04698638
0.10386027 0.05899973 -0.029479107 0.13168086 0.025201185 0.047047477 0.16042957 -0.048305407
-0.0083849635 0.019514227 -0.06555639 -0.033658613 0.050946474 0.119597904 0.16181588 0.03327852
0.021692237 -0.044617523 0.0704436 -0.059240773 -0.03375128 0.12281317 0.071632475 0.05849679
0.100113034 0.13656648 0.05744797 -0.019831954 0.1534163 0.10604235 -0.045242477 0.053418215
00000000: cdd5 c1bd 1cd4 283d 7b10 a53d 71f7 ed3d
00000010: 0b51 95bd 6cba 453c 2041 673c dcc8 27bc
00000020: e42a 903d 3c3e db3d 4bd3 85bd a823 093d
00000030: a642 97bd 5cb0 f83d 75a0 d3bd 7c64 95bd
00000040: 5cb2 95bd 51e5 153d b1e2 6e3d 5d21 f83d
00000050: d671 6bbd 7f22 8abb 5d18 e43d 7fae cbbd
00000060: cd31 b33d 286d 27bd 7f31 b53d bf15 7b3c
00000070: 4d08 083e 70be e03d 512c d03c f8bb 133e
00000080: 1bdd 1a3e 35f4 04bb d71c 263d eba9 72bd
00000090: 6d5c 2dbd 0221 55bd 5103 3c3e 9a13 f13d
000000a0: a682 c93d 5952 82bd 36f0 b73d 3c9f fe3c
000000b0: dcb3 91bd e777 d93c 9b14 8b3d 1c05 2fbd
000000c0: f07e 193e cc0a da3d 079a ab3b 214f db3b
000000d0: 2c21 0a3c 7e66 91bd bedc 693d da41 c4bd
000000e0: d54a c73d 7fd4 0c3c 47b0 343d 02ea 48bd
000000f0: b934 3cbc 574a 9abc 9613 c63d 92c8 6a3d
00000100: d499 28bc b388 8bbd 260d 74bd fd19 2abd
00000110: 6c3b 45be 1113 35bd f965 313d da6c eabb
00000120: 0180 c3bd 6d8d d3bc ca3a f63c 5db5 03bd
00000130: 874b 983d b76f ebbd 9e9f 46bc 85b6 d7ba
00000140: 2273 97bd cd98 0cbd 3829 2fbc b9b3 e6bd
00000150: ff8f f13d 70c3 1a3e d325 10be 2aff f53d
00000160: 37cf fa3c 810c af3d d236 ccbd fd74 04be
00000170: 3920 713c 6161 c0bd 6960 bebd e65c 333d
00000180: a92f f8bd 9d78 563c 7e03 70bd 7e9d 97bd
00000190: b282 d53d b0e4 b7bc e405 17bd f187 d33d
000001a0: bb94 f63d f7e1 60bd 784e d03c bda0 8b3c
000001b0: 5975 0d3d 3b20 243d 9d26 b8bd 7364 883c
000001c0: 7602 bfbc 95a0 b0bd ad38 0dbe 9c7e 93bc
000001d0: 3d4b d9bd 0750 b43a f4ac 0a3a 2608 333d
000001e0: d71f e73d 5229 913c fd83 3dbb 46c2 043b
000001f0: 089e 21bc de7a 533d bcb5 b73d d28f e03c
00000200: d92d 67bd 2549 703b 37e4 b83b 5f6b 0c3e
00000210: 5547 13bd ef97 90bc 8338 163e e6fb dabc
00000220: 1ce9 013e a7c3 4dbd 89ef f3bd dbe1 2d3c
00000230: 2c1c 8d3c 76aa dc3c 853f 8e3d 2a0c 00be
00000240: 83ea c6bd c1b8 9ebc 95c1 be3d 330a 87bd
00000250: 3b40 c33b 0b26 4b3d 78ca 22be ddd1 90bd
00000260: bb95 94bc 2755 c93d 2376 e4bd 905a 413c
00000270: 1dd1 2dbd c8a1 833b 646d a3bd 071a fb3d
00000280: 9e5e 363e 3ecd e73d 9ae6 653d a1e0 d5bb
00000290: 43b3 22bd 8846 25bb a59f 343a 8efa 97bd
000002a0: 9c86 d43d c448 03bc 7c21 b3bd 002a 0a3d
000002b0: ece7 9a3d 1aeb 02be 4437 98bd c352 d83d
000002c0: f76e 17be d086 473d e5dd 5c3d 3f1a d0bc
000002d0: 2958 b8bd 1ab1 cd3d 77d8 843d f004 ccbb
000002e0: 0621 10be 739d c43d 7c16 9f3d 8325 8ebb
000002f0: 4f08 81bc 5611 113d e166 d5bd ca12 783d
00000300: 53db 90bd fe64 c93d f33a f73c d9c5 36bd
00000310: 66fa 753d 8823 803d e8e0 eabc ed33 fe3c
00000320: 3dcc 05bd 9358 2bbd 44e4 a3bd 1230 1abd
00000330: c6b0 773c 4a6b 9d3d afee 0f3e 180f a3bd
00000340: d0b4 bcbd 4bfe 6b3d 0e41 babd dbe0 0b3e
00000350: b863 543d 80f8 833d c771 dc3d a9d6 c1bd
00000360: 3102 c93d 3d6e 023e 7b6a 5fbc 11b5 85bd
00000370: a92e 7b3c 10ea 9d3d cfd3 4f3c ca74 40bd
00000380: b1b4 d43d b3a9 713d 2b7e f1bc 59d7 063e
00000390: b772 ce3c dbb4 403d a647 243e e4db 45bd
000003a0: 1661 09bc 4ddc 9f3c 6e42 86bd 9ddd 09bd
000003b0: 40ad 503d bfef f43d 10b3 253e 0f4f 083d
000003c0: ebb3 b13c ddc0 36bd bc44 903d 74a6 72bd
000003d0: c83e 0abd 7985 fb3d 0cb4 923d 549a 6f3d
000003e0: 1008 cd3d 15d8 0b3e 904e 6b3d 9f76 a2bc
000003f0: 2a19 1d3e bb2c d93d 2d50 39bd 0fcd 5a3d

rnn.weight_ih_l0_reverse f4 [256, 1]
-0.06588726 -0.025789559 0.053035844 0.091029115 -0.022429572 0.08422467 0.0127643645 -0.018863661
0.14658116 -0.06403097 -0.056481123 -0.006933797 -0.08741936 0.10777161 0.044495422 0.025866121
-0.07182075 -0.053960808 -0.052368917 0.033269122 0.020488447 0.08454115 -0.04756408 0.14938313
-0.011278705 0.18871301 0.14253794 0.037990298 -0.07360911 0.120836176 0.015636828 0.12978637
-0.0069341725 0.07333266 0.048655998 0.12972093 0.077253036 0.070924155 0.011860917 -0.010414783
-0.058073126 -0.08834125 0.04000816 0.21603636 -0.030441327 0.05117106 0.070875265 0.14963922
-0.037378576 -0.07497018 -0.087458685 0.03569537 -0.043476027 0.11737611 0.0025703744 -0.022860615
0.07621833 0.09286878 0.11433011 0.06992114 -0.04517137 -0.038372472 0.10388227 -0.061912633
-0.10207362 -0.039377354 -0.08154112 0.017869087 -0.01275134 0.06536172 0.078200966 0.024910579
0.09153131 -0.11022859 0.045428954 0.08910526 -0.09001088 0.05893552 0.090362005 0.13930675
0.12097445 -0.005977164 0.11537466 -0.007451719 0.123844124 0.07249265 0.113372 0.080149315
-0.10249076 0.042370547 0.038238995 0.07940808 -0.02195872 0.07951094 0.010757084 -0.037727177
0.054565962 0.08821984 0.032182924 0.049237043 -0.04122528 0.013660364 -0.08624228 0.05239727
0.015579435 -0.10329437 0.005462434 -0.04133715 0.021340901 -0.08091191 0.035400946 0.049549975
0.11351776 -0.0060878163 0.050491996 -0.009491324 0.12414426 -0.010143163 0.08320974 0.046966337
0.013840263 0.03989429 -0.016487189 0.04607836 -0.04246452 -0.00897257 -0.032708835 0.028411163
-0.12116269 -0.08188596 -0.029827163 -0.07167202 0.056878753 -0.029053278 0.09045216 -0.11497077
0.05543764 0.14896189 0.11810165 -0.12962127 0.11307214 -0.12635632 0.057146158 -0.09326232
-0.11377025 0.11061812 0.07754038 0.13646342 -0.068287805 0.025277663 0.1676647 -0.03432797
0.012030597 0.029493198 0.09205396 0.10817354 -0.06520101 -0.06860483 -0.09186752 0.102735445
-0.09892827 -0.13849682 -0.11435092 0.047646258 0.06280792 0.10511764 0.14031376 0.06908326
-0.1480738 0.08359359 -0.10465312 -0.1377473 0.07226894 -0.10149504 -0.06910169 -0.03269144
-0.09981392 0.12583454 0.031112395 -0.09884628 -0.12695968 0.1233409 0.049080513 -0.05965565
0.057308678 0.028645447 0.023042446 0.13751966 0.15117602 -0.099499404 -0.06627514 0.1142872
0.08433963 0.09300183 0.0045460477 -0.07363032 0.1323136 0.07693443 0.037029166 0.13940962
-0.0716159 0.13568465 0.014041307 0.02958784 -0.0033230376 0.12413209 0.04520088 -0.093825854
-0.011856333 -0.04285255 0.04466195 -0.011347049 -0.08494204 0.0691016 0.08403851 0.036742847
-0.056122504 0.12828049 0.13855326 0.12137288 0.018451225 0.03437108 0.13662829 0.09285327
0.07702056 0.10567662 0.090341106 0.10674293 -0.06279268 -0.016295554 0.11492037 -0.051865425
-0.041463807 0.1309862 0.010902824 -0.054698948 0.070485 0.12483101 0.008925154 0.029932367
-0.091528535 0.123532765 0.10091541 0.027730493 -0.048863754 0.13654631 0.09485617 -0.06489688
0.038659576 -0.069767624 -0.0035293908 -0.017141316 0.08585933 -0.008176631 -0.02771883 -0.009606531
00000000: e6ef 86bd a044 d3bc 1d3c 593d 796d ba3d
00000010: 39be b7bc fc7d ac3d a021 513c f787 9abc
00000020: 5f19 163e ab22 83bd c058 67bd e834 e3bb
00000030: ec08 b3bd 5db7 dc3d d540 363d 30e5 d33c
00000040: c216 93bd 0206 5dbd ca80 56bd 3445 083d
00000050: 63d7 a73c e923 ad3d 8ed2 42bd e4f7 183e
00000060: 51ca 38bc fc3d 413e 77f5 113e b79b 1b3d
00000070: 60c0 96bd f578 f73d ce18 803c b8e6 043e
00000080: 0e38 e3bb 6f2f 963d 834b 473d 90d5 043e
00000090: d736 9e3d af40 913d 4b54 423c c4a2 2abc
000000a0: 16de 6dbd 42ec b4bd 99df 233d a338 5d3e
000000b0: 1760 f9bc bf98 513d 0d27 913d 063b 193e
000000c0: 471a 19bd f789 99bd 8a1d b3bd 4f35 123d
000000d0: eb13 32bd e362 f03d ba73 283b 2f46 bbbc
000000e0: 5b18 9c3d fd31 be3d e825 ea3d d132 8f3d
000000f0: 9d05 39bd 742c 1dbd 3ac0 d43d 1a98 7dbd
00000100: f90b d1bd 264a 21bd 08ff a6bd 3162 923c
00000110: ffea 50bc 5edc 853d d427 a03d 4511 cc3c
00000120: c474 bb3d 87bf e1bd b613 3a3d d27c b63d
00000130: a057 b8bd 5f66 713d b70f b93d 6ea6 0e3e
00000140: 74c1 f73d 16dc c3bb 8d49 ec3d 8d2d f4bb
00000150: fda1 fd3d 0777 943d 942f e83d 5325 a43d
00000160: ade6 d1bd bd8c 2d3d 7ea0 1c3d b4a0 a23d
00000170: c6e2 b3bc a2d6 a23d 7b3e 303c d087 1abd
00000180: 8f80 5f3d 9aac b43d 3ed2 033d c8ac 493d
00000190: d7db 28bd b8cf 5f3c cb9f b0bd 859e 563d
000001a0: e340 7f3c 008c d3bd 38fe b23b 2551 29bd
000001b0: 1dd3 ae3c 25b5 a5bd 9500 113d eaf4 4a3d
000001c0: 007c e83d 4e7c c7bb b2d0 4e3d 8081 1bbc
000001d0: 593f fe3d 822f 26bc de69 aa3d c65f 403d
000001e0: 45c2 623c 3268 233d 2410 87bc aabc 3c3d
000001f0: 47ef 2dbd b001 13bc b3f9 05bd 87be e83c
00000200: 2524 f8bd d4b3 a7bd 1858 f4bc c8c8 92bd
00000210: b2f9 683d 2401 eebc fb3e b93d cc75 ebbd
00000220: 9412 633d 7789 183e 47df f13d 70bb 04be
00000230: 5e92 e73d 8d63 01be 1712 6a3d 5100 bfbd
00000240: 6000 e9bd c18b e23d 7ecd 9e3d 11bd 0b3e
00000250: 7ada 8bbd 1a13 cf3c 4cb0 2b3e 7c9b 0cbd
00000260: fb1b 453c b89b f13c c986 bc3d 178a dd3d
00000270: 1b88 85bd b080 8cbd 0a25 bcbd f666 d23d
00000280: e89a cabd 1cd2 0dbe d130 eabd b928 433d
00000290: 70a1 803d eb47 d73d 69ae 0f3e 867b 8d3d
000002a0: a9a0 17be 1e33 ab3d 6054 d6bd a10d 0dbe
000002b0: bd01 943d a2dc cfbd 3085 8dbd 76e7 05bd
000002c0: 3e6b ccbd c5da 003e 6cdf fe3c eb6f cabd
000002d0: b801 02be 279a fc3d a608 493d 7c59 74bd
000002e0: 81bc 6a3d dba9 ea3c 83c3 bc3c f4d1 0c3e
000002f0: e3cd 1a3e 58c6 cbbd 43bb 87bd 680f ea3d
00000300: 42ba ac3d be77 be3d 03f7 943b 7ecb 96bd
00000310: 377d 073e cc8f 9d3d e5ab 173d 65c1 0e3e
00000320: 5bab 92bd ebf0 0a3e 830d 663c 3362 f23c
00000330: 52c7 59bb f738 fe3d 8f24 393d c527 c0bd
00000340: 1141 42bc 2886 2fbd 73ef 363d f9e8 39bc
00000350: 18f6 adbd 2485 8d3d 621c ac3d ab7f 163d
00000360: b6e0 65bd f65b 033e e8e0 0d3e 5892 f83d
00000370: 0627 973c b1c8 0c3d 49e8 0b3e db29 be3d
00000380: f5bc 9d3d fc6c d83d c204 b93d 0a9c da3d
00000390: 7399 80bd 417e 85bc 5f5b eb3d d770 54bd
000003a0: f4d5 29bd 3f21 063e c2a1 323c 010c 60bd
000003b0: 715a 903d 67a7 ff3d cf3a 123c b934 f53c
000003c0: 5073 bbbd bffe fc3d bdac ce3d 0f2b e33c
000003d0: 5c25 48bd ccd2 0b3e f443 c23d a8e8 84bd
000003e0: 8159 1e3d 54e2 8ebd 5a4d 67bb f26b 8cbc
000003f0: 04d7 af3d 47f7 05bc 9a12 e3bc b664 1dbc

rnn.weight_hh_l0_reverse f4 [256, 64]
-0.1268566 -0.10607755 0.036181204 -0.1122826 0.05524543 0.100575306 -0.056880847 0.03831812
0.085126616 -0.029817438 0.042572033 -0.012210132 0.027808685 0.08555058 0.17106639 0.04875024
-0.036190324 -0.053274058 -0.034366153 -0.09527625 0.046234135 0.026587024 0.029856859 0.0782119
0.038834862 0.09601354 0.12629224 0.11609715 -0.13546243 -0.04279341 -0.04331851 -0.069780484
-0.13262717 -0.10492388 -0.091632 0.085967034 0.11968101 0.008235695 0.039639857 -0.093446024
-0.051194638 0.111613885 -0.14093848 -0.13492636 -0.055998176 0.077364855 0.09317008 0.07651151
0.015971895 0.17557363 0.07477586 -0.058878727 -0.12973495 0.14042282 0.033846833 -0.08098419
-0.108658046 -0.10341248 -0.05843198 0.09621448 0.010027714 -0.02552468 0.013792833 0.03921391
-0.12925316 -0.007018524 -0.08263762 -0.07674843 0.17397784 -0.06751199 -0.079606235 -0.12525235
0.07723714 0.081162825 0.1732647 -0.026522642 0.047610488 -0.10816464 -0.16929032 -0.14090426
-0.004067671 0.02459049 0.15350224 0.07597438 -0.055261068 -0.016513016 0.024901139 -0.1285329
-0.033144407 0.010222883 0.08832682 0.09031247 0.019065816 -0.043626755 -0.0014877301 -0.069530934
-0.11890616 -0.10285852 -0.10168505 0.0895435 -0.017719164 0.0439812 0.14596513 -0.13360289
0.054753654 0.14811791 -0.058868468 -0.054758783 -0.023866814 0.046219327 -0.07868303 -0.013575613
0.036100704 0.11183205 0.04699297 0.026232038 -0.013339619 0.01970099 -0.06005149 -0.007798307
0.12442675 0.069517255 0.1491339 -0.030781312 0.109770894 -0.049808927 -0.0527668 -0.10298422
0.02865333 0.07405255 0.010761816 -0.06855907 0.08203183 -0.17429054 -0.06838257 0.04833576
0.057999145 0.12949756 -0.030871768 -0.16029806 0.034305815 -0.14554745 -0.07391386 -0.12493792
-0.16447254 0.02144997 0.09957313 0.07526952 -0.13215281 0.03391762 -0.040314835 -0.13923922
0.16665842 0.022982104 0.13469651 0.13843013 -0.04055796 -0.1155236 0.004139591 0.09513567
0.11209016 -0.040826302 -0.10725474 0.034168955 0.09880877 0.16050528 0.13152851 0.07908453
-0.039790414 0.1411097 -0.015058631 -0.13651413 0.06929639 -0.15860341 -0.13954367 -0.108305156
-0.014115177 -0.06285073 0.15312515 -0.10342183 -0.0017775134 -0.03464067 0.16630007 -0.0056017195
0.07490017 0.06237441 0.19923522 0.111122176 -0.010011643 -0.03320857 -0.1124261 -0.0746984
0.009815432 0.07681867 0.051981606 -0.15206172 0.13306846 -0.04867065 0.043812472 -0.00901491
0.004257204 0.10654365 -0.07695521 -0.10099531 -0.032417186 -0.10153014 0.07030396 0.09596286
-0.056960605 0.120766975 -0.052250966 -0.017215641 -0.089278795 0.06648058 -0.025500631 -0.107604004
-0.06909581 0.111993425 -0.05939868 0.13018759 -0.02583075 -0.057689603 -0.15363403 0.0031955338
-0.04507953 -0.069066554 0.0467208 0.013203201 0.081108525 0.037692204 0.010777815 -0.02343433
-0.048409395 -0.011927478 -0.06527351 0.06211733 -0.0014023568 -0.14461316 -0.12804039 0.07660764
0.06780185 -0.011824329 0.10161011 0.075691685 -0.08010248 -0.08332881 -0.0434792 -0.13962865
0.094645336 -0.009645347 0.0010232462 -0.071168296 0.050690092 0.08307709 -0.12997591 0.116223425
00000000: b2e6 01be 303f d9bd be32 143d 6bf4 e5bd
00000010: 0849 623d 6dfa cd3d e4fb 68bd 76f3 1c3d
00000020: dd56 ae3d b343 f4bc 0360 2e3d 010d 48bc
00000030: 0acf e33c 2435 af3d 072c 2f3e 55ae 473d
00000040: 4e3c 14bd e635 5abd 86c3 0cbd 3220 c3bd
00000050: 0160 3d3d 08cd d93c 5f96 f43c 902d a03d
00000060: 4e11 1f3d bfa2 c43d c152 013e 58c4 ed3d
00000070: aab6 0abe 2548 2fbd c06e 31bd 12e9 8ebd
00000080: 6bcf 07be 55e2 d6bd 8fa9 bbbd 7c0f b03d
00000090: 511b f53d 02ef 063c 675d 223d a160 bfbd
000000a0: 78b1 51bd d295 e43d 2d52 10be 232a 0abe
000000b0: 585e 65bd 7771 9e3d f4cf be3d 11b2 9c3d
000000c0: 7ed7 823c 93c9 333e 1624 993d d22a 71bd
000000d0: 3dd9 04be 00cb 0f3e faa2 0a3d 0adb a5bd
000000e0: 1c88 debd ecc9 d3bd 5f56 6fbd 190c c53d
000000f0: 484b 243c 2219 d1bc 56fb 613c c49e 203d
00000100: f15a 04be a6fb e5bb ea3d a9bd 482e 9dbd
00000110: 3f27 323e ba43 8abd 9808 a3bd 2742 00be
00000120: 812e 9e3d b238 a63d 4d6c 313e 0346 d9bc
00000130: 3703 433d 6c85 ddbd 715a 2dbe 3549 10be
00000140: 194a 85bb ff71 c93c b12f 1d3e 7598 9b3d
00000150: 6e59 62bd 4e46 87bc 79fd cb3c 219e 03be
00000160: 6ec2 07bd e17d 273c b1e4 b43d bff5 b83d
00000170: ea2f 9c3c f8b1 32bd f0ff c2ba 3c66 8ebd
00000180: 1385 f3bd 7da7 d2bd 4040 d0bd 9562 b73d
00000190: c827 91bc a125 343d e277 153e 32cf 08be
000001a0: 5e45 603d 39ac 173e 1020 71bd bf4a 60bd
000001b0: 5684 c3bc 7a50 3d3d 9224 a1bd 3f6c 5ebc
000001c0: 55de 133d 3408 e53d b37b 403d 92e4 d63c
000001d0: 6b8e 5abc f863 a13c 8df8 75bd f188 ffbb
000001e0: 74d3 fe3d 105f 8e3d 8fb6 183e 1729 fcbc
000001f0: 90cf e03d 7204 4cbd 0022 58bd 64e9 d2bd
00000200: 63ba ea3c dda8 973d 5452 303c b368 8cbd
00000210: 4e00 a83d 3879 32be 290c 8cbd b8fb 453d
00000220: 8390 6d3d 029b 043e cae6 fcbc 2d25 24be
00000230: 4184 0c3d 640a 15be 2660 97bd 74df ffbd
00000240: 7d6b 28be d9b7 af3c ffec cb3d e826 9a3d
00000250: 1153 07be 34ed 0a3d 2b21 25bd ba94 0ebe
00000260: 81a8 2a3e f744 bc3c e2ed 093e a1c0 0d3e
00000270: 1a20 26bd a397 ecbd 68a5 873b 7dd6 c23d
00000280: 878f e53d 7b39 27bd 60a8 dbbd bff4 0b3d
00000290: 415c ca3d 7f5b 243e 69af 063e 12f7 a13d
000002a0: 46fb 22bd 107f 103e 7ab8 76bc 5cca 0bbe
000002b0: 44eb 8d3d ef68 22be 89e4 0ebe 18cf ddbd
000002c0: 5843 67bc e2b7 80bd d7cc 1c3e d3ce d3bd
000002d0: 74fb e8ba 60e3 0dbd 914a 2a3e a18e b7bb
000002e0: 4365 993d 4f7c 7f3d 5104 4c3e 0694 e33d
000002f0: e007 24bc b605 08bd a83f e6bd 7afb 98bd
00000300: e8d0 203c 1b53 9d3d aaea 543d 11b6 1bbe
00000310: 1943 083e e05a 47bd b574 333d 46b3 13bc
00000320: 0480 8b3b 8f33 da3d b19a 9dbd a1d6 cebd
00000330: e2c7 04bd 09ef cfbd 86fb 8f3d 2d88 c43d
00000340: 864f 69bd ad54 f73d 1c05 56bd d107 8dbc
00000350: cdd7 b6bd f826 883d b3e6 d0bc 7d5f dcbd
00000360: 1b82 8dbd cf5c e53d 084c 73bd e54f 053e
00000370: 029b d3bc ef4b 6cbd 3d52 1dbe 296c 513b
00000380: 50a5 38bd c472 8dbd 4f5e 3f3d 3d52 583c
00000390: 3a1c a63d 2463 1a3d 6f95 303c 5af9 bfbc
000003a0: ee48 46bd 786b 43bc 1eae 85bd be6e 7e3d
000003b0: 49cf b7ba 7915 14be 051d 03be 77e4 9c3d
000003c0: b2db 8a3d d5ba 41bc f618 d03d 3e04 9b3d
000003d0: c50c a4bd 4ca8 aabd 3f17 32bd d0fa 0ebe
000003e0: 6ad5 c13d 8407 1ebc 721e 863a afc0 91bd
000003f0: 6aa0 4f3d 5224 aa3d 6818 05be 8c06 ee3d

rnn.bias_ih_l0_reverse f4 [256]
0.101388946 0.06299405 0.021443218 0.110239334 0.047519114 -0.032596573 -0.07874171 0.042363297
-0.01114326 0.09235783 -0.048682507 0.12831576 0.030829977 -0.05325561 0.17009231 0.0892916
-0.050283257 0.06008088 0.010154014 0.07519256 0.028935183 -0.043610014 0.15027376 0.0067060553
-0.061601017 0.12187855 0.15200588 -0.047439832 -0.067424506 -0.0072623296 0.060350355 0.107232474
0.020405026 -0.048276752 0.16224532 0.0814785 0.022307374 0.06856827 -0.06739267 0.003492341
0.08035088 0.13457054 0.11742179 0.090184614 0.03494576 -0.054913543 -0.037851978 0.098568
-0.0067744553 -0.009351436 0.041697208 0.11521485 -0.10847925 -0.038902905 -0.06230111 0.16863236
0.014857019 0.04030167 0.07327445 -0.13078801 -0.052881647 0.060168616 0.1613971 0.07129065
0.07159975 0.108559266 -0.06914678 0.10685814 0.00069708 0.052932438 0.011650357 -0.09186172
0.07859245 0.030536529 0.013028534 0.056367483 0.093611225 0.13919555 0.009738142 0.07738003
-0.015689544 0.010796401 0.07504283 0.032553375 0.1431044 0.16662794 0.10314263 -0.05131907
0.037047606 -0.045262728 -0.0786765 0.06659127 0.062908 -0.012517088 -0.01715942 0.017153472
0.056153826 0.050841186 0.06762574 0.017779998 -0.088238575 0.08805059 0.026166739 0.039254047
0.13320139 -0.059700582 0.09360575 0.04005286 -0.037447307 0.062381517 0.09266011 0.065553814
-0.033333838 -0.02051537 0.14489755 0.037346587 0.021362811 -0.12344229 0.011818448 0.043593984
-0.01990234 0.023554577 -0.0311177 -0.0281581 0.049102657 -0.007262238 -0.04401963 0.07779429
-0.09835297 0.124476485 -0.024671994 -0.10338292 0.09822878 -0.06257597 -0.11220263 0.098709695
0.08090027 0.17613909 0.1270557 0.061296303 0.12177659 -0.026257144 -0.15245004 0.0057624476
-0.041667998 0.16347638 0.09833716 -0.070409104 -0.15281598 0.023797898 0.0027626303 -0.06586011
0.10751095 0.032007564 0.0215451 0.072787955 -0.08620734 -0.03036019 0.17727397 0.057830155
0.18525408 -0.015969992 -0.05941491 -0.032238122 -0.033656716 0.059046395 -0.027220964 0.0026415505
-0.014251095 0.15252267 0.1618383 -0.102345526 -0.07970519 -0.04133293 0.06706057 -0.048128754
0.020631805 -0.121801145 0.13739528 -0.042797297 0.122713104 -0.06616767 0.12700872 -0.11488493
-0.014978223 -0.052443422 0.08261991 -0.00938886 -0.0046920357 -0.14000018 -0.113106996 -0.090673104
0.03479465 0.12805125 0.15706924 0.093989454 0.1734113 -0.07216202 0.041585673 0.050461628
0.08511709 0.16093071 0.063947126 0.11120586 0.057131566 0.121250436 0.090063736 -0.0072554136
-0.028158652 -0.039020788 0.054499056 0.15313801 0.04076346 0.0666904 0.13971634 -0.008700913
0.12015329 -0.027364967 0.06999656 0.028446442 0.035422277 0.009284746 -0.020624278 0.122424275
0.057595976 0.09820517 -0.03391003 0.13488774 -0.020822449 0.0039077536 0.03859396 0.15611465
0.02907754 0.14810733 -0.015526102 0.12669685 0.08694103 -0.0687786 0.0011172878 -0.07802003
0.032613184 -0.07258621 0.115090206 -0.051010065 0.17564137 0.13045377 0.14894447 0.100795425
-0.08504597 0.023268742 0.13627408 0.1441051 -0.012414712 0.03741084 -0.07339301 0.06890585
00000000: 02a5 cf3d 0603 813d b0a9 af3c 29c5 e13d
00000010: 67a3 423d fc83 05bd 5543 a1bd 2385 2d3d
00000020: 3892 36bc 1a26 bd3d 4f67 47bd 3565 033e
00000030: 268f fc3c 8e22 5abd ae2c 2e3e 84de b63d
00000040: d1f5 4dbd 5e17 763d 065d 263c 8ffe 993d
00000050: 7a09 ed3c 6aa0 32bd 5de1 193e 78be db3b
00000060: 5951 7cbd 769b f93d 6ea7 1b3e 4550 42bd
00000070: dc15 8abd d6f8 edbb ef31 773d b39c db3d
00000080: 7128 a73c d8bd 45bd a323 263e 33de a63d
00000090: f4bd b63c 856d 8c3d 2b05 8abd c2df 643b
000000a0: 018f a43d dccc 093e d67a f03d b6b2 b83d
000000b0: 4923 0f3d 06ed 60bd ad0a 1bbd 05de c93d
000000c0: 40fc ddbb c436 19bc b1ca 2a3d c3f5 eb3d
000000d0: 5e2a debd a758 1fbd 732f 7fbd f6ad 2c3e
000000e0: db6a 733c 5d13 253d ea10 963d 4bed 05be
000000f0: 6d9a 58bd 5e73 763d 4845 253e d500 923d
00000100: e4a2 923d 5254 de3d d49c 8dbd 71d8 da3d
00000110: 3fbc 363a afcf 583d 24e1 3e3c ff21 bcbd
00000120: 14f5 a03d be27 fa3c a275 553c 97e1 663d
00000130: 3eb7 bf3d 4789 0e3e ba8c 1f3c 6c79 9e3d
00000140: 5c87 80bc 63e3 303c 0eb0 993d b056 053d
00000150: f689 123e 84a0 2a3e 713c d33d f233 52bd
00000160: 3bbf 173d 6965 39bd 2521 a1bd 0161 883d
00000170: e9d5 803d 7914 4dbc e991 8cbc 7085 8c3c
00000180: 8e01 663d d93e 503d 5d7f 8a3d 5ca7 913c
00000190: 6db6 b4bd de53 b43d a15b d63c dac8 203d
000001a0: f265 083e 9988 74bd 5fb4 bf3d 780e 243d
000001b0: 5962 19bd c383 7f3d 95c4 bd3d 1441 863d
000001c0: 1089 08bd d90f a8bc 0660 143e bcf8 183d
000001d0: 1001 af3c 50cf fcbd 2aa2 413c 9b8f 323d
000001e0: 3b0a a3bc 87f5 c03c 8cea febc d1ab e6bc
000001f0: de1f 493d 11f8 edbb ed4d 34bd 9d52 9f3d
00000200: 486d c9bd 87ed fe3d ec1c cabc 6dba d3bd
00000210: 2c2c c93d d527 80bd 7eca e5bd 4f28 ca3d
00000220: 0aaf a53d ce5d 343e e41a 023e d511 7b3d
00000230: 0166 f93d 3919 d7bc dd1b 1cbe ead2 bc3b
00000240: 10ac 2abd 5a66 273e fe64 c93d a632 90bd
00000250: cb7b 1cbe cff3 c23c 3f0d 353b aae1 86bd
00000260: b32e dc3d 5d1a 033d 597f b03c da11 953d
00000270: 798d b0bd efb5 f8bc 4f87 353e 50df 6c3d
00000280: 3fb3 3d3e 80d3 82bc 0c5d 73bd 1f0c 04bd
00000290: a0db 09bd a2da 713d 80fe debc dd1d 2d3b
000002a0: 6d7d 69bc e72e 1c3e f0b8 253e 889a d1bd
000002b0: 7a3c a3bd b84c 29bd 0d57 893d a822 45bd
000002c0: 0804 a93c e172 f9bd 59b1 0c3e 384c 2fbd
000002d0: 0251 fb3d ea82 87bd 930e 023e ca48 ebbd
000002e0: 3867 75bc eace 56bd a134 a93d bcd3 19bc
000002f0: a6bf 99bb 355c 0fbe a4a4 e7bd d2b2 b9bd
00000300: d684 0e3d de1f 033e c2d6 203e 8b7d c03d
00000310: bb92 313e aec9 93bd bd55 2a3d dab0 4e3d
00000320: de51 ae3d 05cb 243e b6f6 823d e6bf e33d
00000330: ca02 6a3d 2652 f83d 5673 b83d d2be edbb
00000340: f9ac e6bc 43d4 1fbd 673a 5f3d 36d0 1c3e
00000350: 96f7 263d fa94 883d cd11 0f3e 468e 0ebc
00000360: ee12 f63d 7f2c e0bc 5b5a 8f3d 8308 e93c
00000370: f316 113d 0c1f 183c 3ff4 a8bc 94b9 fa3d
00000380: c2e9 6b3d cb1f c93d 3ee5 0abd 0320 0a3e
00000390: d793 aabc 9d0c 803b b314 1e3d 85dc 1f3e
000003a0: 0534 ee3c 73a9 173e 3161 7ebc d2bc 013e
000003b0: 240e b23d cbdb 8cbd f571 923a f7c8 9fbd
000003c0: 6795 053d 14a8 94bd 6ab4 eb3d eeef 50bd
000003d0: 55db 333e ac95 053e e684 183e d56d ce3d
000003e0: 952c aebd 179e be3c 6f8b 0b3e 4a90 133e
000003f0: 1467 4bbc 1c3c 193d 134f 96bd 831e 8d3d

rnn.bias_hh_l0_reverse f4 [256]
0.08929258 -0.021455614 0.0651988 0.16300651 0.08131145 -0.10493639 -0.098559916 0.035381977
0.025515886 0.17051472 -0.010059704 0.099783346 -0.039032925 0.050766177 -0.029668614 -0.011605864
-0.09984011 0.09662733 -0.025022903 0.06302904 -0.006977636 -0.018621432 0.14546283 -0.054035883
0.15599805 0.17589766 0.19783424 -0.062502645 -0.0027976504 -0.019910067 0.09620214 0.15524237
0.008151504 0.060367167 0.070604995 0.097279325 0.12156401 0.07902815 -0.0027569367 0.0067845043
0.08902051 0.01998011 -0.11231996 0.16715305 0.042652693 -0.06620862 0.07301835 0.07195547
0.13887116 0.029636318 -0.039343704 -0.0020744603 0.1128362 0.0978975 0.08683334 -0.008295279
0.11715138 0.14296934 0.0029110562 -0.13037871 0.12765683 0.21485806 0.108623385 0.0445128
0.0901367 0.110520914 0.12831865 0.097910084 0.07797398 0.029997524 0.008575602 0.095553316
0.035564613 0.10882341 -0.089244656 0.06907608 0.011915465 -0.09707545 0.013577997 -0.0218109
0.042702932 0.026094468 -0.008353042 0.050286442 0.1375849 0.064856604 0.07439941 -0.11804483
0.07364351 -0.09467111 -0.040603057 0.051676895 0.08449596 -0.13663319 -0.0941422 0.061366826
-0.08783075 0.045359455 0.08026269 0.0626773 0.020802343 -0.03946392 0.1372251 0.048963077
-0.10398105 0.013869888 0.05419849 -0.08273558 0.07463701 0.048837144 -0.049393136 -0.06909704
-0.022719983 -0.0496375 -0.039288867 0.043357454 0.1333496 0.112039275 -0.019437674 0.13052708
-0.0303484 0.09950195 -0.13028479 0.03593792 -0.01332095 0.09374756 -0.07294231 0.050787903
-0.0057115494 0.14107731 0.11083228 -0.077916056 0.15401581 -0.14332414 -0.0038448083 -0.017159348
0.18500923 0.08380036 0.035337713 -0.08853974 0.046490792 -0.089233905 -0.13746192 0.0244965
-0.12245649 0.17918068 0.016264135 0.048312347 -0.032841053 -0.06276767 0.14145756 0.012183447
0.0011598788 -0.04087953 0.056337297 0.06808981 -0.12827808 0.09704001 0.09545014 0.15372215
0.007416929 0.02431804 -0.177195 -0.18476234 0.033343613 0.08104121 0.117045015 -0.015456446
-0.103049934 0.0759767 0.01578135 0.013392863 -0.19767281 0.0056828563 0.04160475 0.09332412
0.0507981 -0.043058887 0.14236976 0.049348094 -0.065182224 -0.121642955 0.14197718 -0.034142874
0.028810067 0.054122634 0.09515891 -0.12139681 0.010337807 -0.17701563 -0.11792203 0.05961308
0.035967294 -0.02141725 0.13147792 0.14330854 0.18542354 -0.0023081878 0.022921797 0.045845326
-0.02752094 0.03471437 -0.077859625 -0.0400097 0.11713942 0.012547683 0.1349228 -0.029036917
0.06638361 0.13846506 -0.055227406 -0.018282184 0.15165994 0.16631877 0.055440474 -0.09375653
0.081364945 0.14219518 0.13623944 -0.04048141 -0.09721279 -0.046442986 0.12055592 -0.048243854
-0.01684941 -0.017589033 -0.043374974 0.06910867 -0.07479573 -0.052250635 -0.02467288 -0.010289306
-0.032880653 0.08926574 -0.081353955 0.0035125478 0.13366643 0.014096882 0.00711396 -0.019836169
0.00986168 -0.05339127 0.037698563 0.08725409 -0.05100902 0.061659608 0.061745927 0.059291154
0.02119993 -0.084276475 -0.028857319 -0.054150973 -0.027133057 0.19013369 0.069748454 -0.011850903
00000000: 07df b63d afc3 afbc f386 853d 2eeb 263e
00000010: 9e86 a63d e4e8 d6bd c8d9 c9bd b1ec 103d
00000020: b106 d13c 699b 2e3e 75d1 24bc 365b cc3d
00000030: fde0 1fbd 32f0 4f3d 980b f3bc 8626 3ebc
00000040: f978 ccbd 8de4 c53d d5fc ccbc 5f15 813d
00000050: a7a4 e4bb f98b 98bc 35f4 143e bb54 5dbd
00000060: f4bd 1f3e 841e 343e 0f95 4a3e 6301 80bd
00000070: c958 37bb 701a a3bc a105 c53d dbf7 1e3e
00000080: e38d 053c 9043 773d 5a99 903d 623a c73d
00000090: 8df6 f83d 83d9 a13d b9ad 34bb 8c50 de3b
000000a0: 6350 b63d 54ad a33c 0208 e6bd 2b2a 2b3e
000000b0: 97b4 2e3d 6398 87bd a58a 953d 645d 933d
000000c0: 3e34 0e3e ddc7 f23c dd26 21bd abf3 07bb
000000d0: aa16 e73d 7c7e c83d aed5 b13d ece8 07bc
000000e0: 10ed ef3d 8e66 123e 6bc7 3e3b ff81 05be
000000f0: 79b8 023e c003 5c3e f075 de3d 0e53 363d
00000100: 9799 b83d ca58 e23d f765 033e 1585 c83d
00000110: d2b0 9f3d 5ebd f53c af80 0c3c 75b1 c33d
00000120: 33ac 113d cfde de3d e7c5 b6bd c377 8d3d
00000130: 1539 433c 7ecf c6bd 3f76 5e3c c6ac b2bc
00000140: 45e9 2e3d 11c4 d53c 33db 08bc 28f9 4d3d
00000150: 0ee3 0c3e 8ad3 843d b85e 983d 7dc1 f1bd
00000160: 69d2 963d ede2 c1bd 644f 26bd 27ab 533d
00000170: 380c ad3d 92e9 0bbe a0cd c0bd c85b 7b3d
00000180: 9ce0 b3bd d6ca 393d c460 a43d f55c 803d
00000190: ad69 aa3c eba4 21bd bd84 0c3e 828d 483d
000001a0: 04f4 d4bd 873e 633c 3cff 5d3d 4671 a9bd
000001b0: 4adb 983d 7509 483d 7550 4abd c082 8dbd
000001c0: 421f babc b150 4bbd 5ded 20bd 9697 313d
000001d0: cc8c 083e d974 e53d c23b 9fbc e4a8 053e
000001e0: 359d f8bc aec7 cb3d 6069 05be a433 133d
000001f0: 1d40 5abc b9fe bf3d c762 95bd fa06 503d
00000200: f327 bbbb 9276 103e 09fc e23d 7492 9fbd
00000210: 52b6 1d3e 90c3 12be 2ef9 7bbb c391 8cbc
00000220: 0f73 3d3e 869f ab3d 47be 103d 5354 b5bd
00000230: 216d 3e3d 44c0 b6bd d1c2 0cbe e2ac c83c
00000240: 78ca fabd 247b 373e 5d3c 853c 2be3 453d
00000250: 5784 06bd 568c 80bd 40da 103e 159d 473c
00000260: 1307 983a 4b71 27bd f0c1 663d ac72 8b3d
00000270: 545b 03be eabc c63d 5d7b c33d 5769 1d3e
00000280: b609 f33b a036 c73c 9b72 35be 5732 3dbe
00000290: 5093 083d eff8 a53d 4cb5 ef3d 093d 7dbc
000002a0: d80b d3bd ac99 9b3d e447 813c bd6d 5b3c
000002b0: be6a 4abe 4137 ba3b be69 2a3d b720 bf3d
000002c0: ab11 503d 845e 30bd 61c9 113e 3a21 4a3d
000002d0: 427e 85bd f11f f9bd 7762 113e 66d9 0bbd
000002e0: 1703 ec3c b2af 5d3d ade2 c23d e49e f8bd
000002f0: e85f 293c 9643 35be 1b81 f1bd d82c 743d
00000300: 7152 133d 3b73 afbc 26a2 063e 79bf 123e
00000310: abdf 3d3e f744 17bb 7ec6 bb3c 4fc8 3b3d
00000320: 9873 e1bc a830 0e3d de74 9fbd 36e1 23bd
00000330: cbe6 ef3d cc94 4d3c 3429 0a3e d4de edbc
00000340: 21f4 873d c9c9 0d3e 2236 62bd 85c4 95bc
00000350: be4c 1b3e 784f 2a3e 8d15 633d 6c03 c0bd
00000360: aaa2 a63d 9d9b 113e 5a82 0b3e d6cf 25bd
00000370: 8017 c7bd 003b 3ebd 06e6 f63d 599b 45bd
00000380: c607 8abc e016 90bc f5a9 31bd d988 8d3d
00000390: 812e 99bd c304 56bd c81e cabc 7a94 28bc
000003a0: ddad 06bd f5d0 b63d e79c a6bd c632 663b
000003b0: dadf 083e 9cf6 663c 391c e93b 767f a2bc
000003c0: e292 213c ceb0 5abd cf69 1a3d 46b2 b23d
000003d0: d6ee 50bd c98e 7c3d 4ce9 7c3d 48db 723d
000003e0: 7aab ad3c 2599 acbd 2f66 ecbc 69cd 5dbd
000003f0: 2546 debc 68b2 423e 47d8 8e3d 4a2a 42bc
