16 - Recurrent Neural Network/model/bilstm/weights_150.pth (torch, 939287 bytes, 25 tensors)

rnn.weight_ih_l0 f4 [256, 1]
00000000: f2d8 f13d fba8 263e fae5 fcbc 4408 e1bb
00000010: 9269 9dbd 52ef 643c c56b d7bc 894e 033e
00000020: c0a5 26bd bc22 9b3d c75f b9bd 69df 403c
00000030: f57b df3d 0039 8e3d f1c9 bd3d 52ce 0e3e
00000040: a0c6 153e 1a05 7ebd ad43 7c3d 0db9 6dbb
00000050: acf0 633d d393 48bc f715 263e 2cc4 8e3d
00000060: eb69 b1bd d41d 2e3d 8f35 8d3d 82cc 003e
00000070: df4c d93d aeab 1c3e 4bfd a93d ab0a 533d
00000080: 6306 75bd 17f9 fe3c 4102 aa3c 7fb0 023e
00000090: a232 323d 9f80 f33c 5f9a 033e dfb8 793d
000000a0: 352c 9c3d c7a8 8a3d 6c8f ab3c 0402 8fbd
000000b0: 00e2 693b 6e2f 9a3d 3ebf 983d 92de 5f3c
000000c0: 45a4 463b a3b2 cc3b aeea 88bc 5098 393c
000000d0: f9d8 073e 7424 213e 9c18 583d e457 2b3d
000000e0: 488a f3b9 f34d 8d3d fdd4 353e 22c6 f73d
000000f0: 1664 ee3d a34c f93d f365 7a3d 464c debc
00000100: ffb8 ca3d b347 6abd c801 8b3d 0531 03bd
00000110: 858d adbd 9e2b 863d 86d5 933c ab33 4e3d
00000120: e873 e73d adc0 49ba 4a65 3dbd 84f2 193d
00000130: 1941 4fbc 5b5b 69bc aea9 f13d 4554 ad38
00000140: 1e9b 503d d7ee 253d 7eb1 173d d054 793d
00000150: a343 14bd e8e0 5c3d 2c5e 0cbe f3f8 013e
00000160: fa5a 9f3d 594d b13c e33a e23d 2e70 c53d
00000170: 0c91 af3b f32a 0bbe 602d e53c 3b87 88bd
00000180: bf51 10bd cdda 0abd f77d 9d3d f187 993d
00000190: 08e7 053e 75fb d1bd b2c5 8cbc 9c92 1a3d
000001a0: e8c4 4a3d 8ed1 f4bb 8774 ee3c 933e aa3d
000001b0: 3d33 4c3d e540 613d 4baa 72bc 0ee8 c3bd
000001c0: 6288 e0bb 8b40 ec3c a6ff 2bbd 9eaa d13d
000001d0: 6237 bd3c 8d74 573d 8dd1 84bc ebd1 c23b
000001e0: 1383 0d3d ab1d e9bc f939 8b3c f4db 893d
000001f0: a794 72bd ae2c b6bc b0f0 063e b09a 2dbd
00000200: ee24 953d a4e5 ba3d 7e3d cdbd eccd edbd
00000210: fe38 07be 115b 103d f0d3 a23d 13cb 453c
00000220: 7596 e53d 71fc be3d c7a2 a93d 6b1c 303d
00000230: 5b15 8e3d 2a61 903d 0af0 8b3d 0ee4 9f3d
00000240: d8cc b3bd e6ef e1bd c9e1 853d 875f bc3d
00000250: 47e6 053e 1faf 2b3c 1571 b83d e6b9 a5bd
00000260: b33f 553d 0eb9 8cbd 892a 033e 4e2a da3d
00000270: 98af 4abc b2bc b73d 89f4 82bd c131 303d
00000280: 199b 56bd 409d d43d db43 593d ba67 573d
00000290: 5f37 e8bd 38a4 a43d 389f fe3d 1aa4 2c3d
000002a0: 8d6d b33d ab55 b13d af40 f2bc c24f 663d
000002b0: 6ee4 d9bd 4f44 9fbd 513f fd3d 224b fbbd
000002c0: 7494 0c3e ac9c f3bd a7bb 223d 947e 043d
000002d0: b908 02be 2f8d de3c 8fa7 813d deed 553d
000002e0: 0071 bf3d 74bf 4c3d 39c2 963d 0173 ae3d
000002f0: d7b9 bd3d ddc0 07be 59bc 843d 8c82 9f3d
00000300: 3682 293d 5776 e63d 68b1 a83d 919b dc3d
00000310: 5eef 7dbd cd5c 9d3d 65b3 2b3e 98e3 b6bd
00000320: 4214 c63d 9e96 843d 4e56 823d 7052 423d
00000330: a533 56bd ee1a 073d 7a99 f33d ebf8 6f3d
00000340: e0c3 bb3d 47e0 47bc 46ef 5a3e 7f56 e93d
00000350: 138b b83c fdde c73d d262 393c 9260 0a3a
00000360: d0a4 86bd 34bd 96bc ec28 e53d 18f0 163e
00000370: 9b4a 233b 7559 7f3d e458 c23d e3a9 853d
00000380: 8f2b 77bd 8c05 7e3d 0feb cf3c c826 94bd
00000390: fad9 1b3e b328 da3c 3ae5 e73c 6d20 08bd
000003a0: 7394 b4bc c5a8 d8bc 8076 98bc ebe8 7c3d
000003b0: 3bfc 213d 1867 90bd 0076 bc3d b12d 963d
000003c0: 3152 dbbc 85d4 293d d431 973d a9fc c53d
000003d0: 384a 4abd a80e febd 20d9 233b 58f2 c2bc
000003e0: 3a36 2f3c 9cad 2e3e 38b1 173c fedb 44bb
000003f0: fdc8 023d e41a 203c 8729 293d 9bed 0f3e
0.11808957 0.16275398 -0.03087138 -0.0068674404 -0.076861516 0.013973074 -0.026296506 0.12822928
-0.040685415 0.075749844 -0.09051471 0.011772015 0.10912315 0.06944466 0.09267033 0.13945892
0.1462655 -0.062016584 0.06158798 -0.003627363 0.055649444 -0.012242275 0.16219316 0.069710106
-0.086627804 0.042508915 0.06894981 0.12578014 0.10610365 0.15299866 0.08300265 0.051523846
-0.059820544 0.031124635 0.020753028 0.1276264 0.04350532 0.029724417 0.12851857 0.060967322
0.07625619 0.06770473 0.020942412 -0.06982806 0.0035687685 0.07528578 0.074583516 0.013663905
0.0030310315 0.006246881 -0.016713466 0.011327818 0.13266362 0.15736562 0.052757844 0.041831866
-0.000464516 0.06899633 0.1775703 0.12098338 0.11640184 0.121728204 0.061132383 -0.02713598
0.098985665 -0.057197284 0.06787449 -0.03202917 -0.08474258 0.06551288 0.018046152 0.050342243
0.11301404 -0.00076962524 -0.046239175 0.037584797 -0.012649798 -0.014242972 0.11799942 8.264979e-05
0.05092918 0.04051098 0.037034504 0.0608719 -0.036197316 0.053925425 -0.13707799 0.12692623
0.07781024 0.021643328 0.11046388 0.09640537 0.005357867 -0.13590603 0.027975738 -0.06666418
-0.03523421 -0.03390007 0.076900415 0.07496632 0.13076413 -0.1025304 -0.017184112 0.037737474
0.04950419 -0.00747127 0.029108299 0.08312716 0.049853552 0.05499353 -0.014811109 -0.09565745
-0.0068521956 0.02883937 -0.041991852 0.10237621 0.023097698 0.052601386 -0.016213203 0.0059454343
0.03454883 -0.02845653 0.016995417 0.06731406 -0.059223797 -0.022238102 0.13177752 -0.04238385
0.072824344 0.09125832 -0.10021494 -0.11611542 -0.13205335 0.035243098 0.0795058 0.012072342
0.11210338 0.09325493 0.082830004 0.04299585 0.06937667 0.070497826 0.06832893 0.0780717
-0.08779305 -0.11032085 0.06537206 0.09197908 0.13076125 0.010478764 0.09005944 -0.08092098
0.0520627 -0.06871234 0.12809195 0.106526 -0.012370966 0.08971538 -0.06394298 0.0430162
-0.052394006 0.103815556 0.053043228 0.052589156 -0.11338686 0.08039135 0.12432712 0.042148687
0.087611295 0.08658918 -0.02957186 0.056228407 -0.10639273 -0.07776701 0.12365592 -0.1227019
0.13728505 -0.11895117 0.03972974 0.032347277 -0.1269864 0.027166931 0.063307874 0.0522288
0.09347725 0.04998727 0.07361264 0.08518029 0.09263962 -0.13257165 0.06481237 0.07788572
0.041383944 0.1125304 0.082369626 0.107718594 -0.061995856 0.07683716 0.16767652 -0.08930129
0.096718326 0.064740404 0.063641176 0.0474419 -0.052295346 0.032984667 0.11894508 0.058586996
0.091682196 -0.012199468 0.21380338 0.11393451 0.022527253 0.097593285 0.0113150645 0.00052786723
-0.06574404 -0.018400766 0.11189446 0.14740026 0.0024916294 0.062341172 0.09489611 0.06526544
-0.060344275 0.06201701 0.02538064 -0.072339594 0.1521987 0.026630735 0.028307546 -0.03323405
-0.022043442 -0.026447663 -0.018611193 0.061745565 0.039547186 -0.070509136 0.09202194 0.07332934
-0.02677259 0.04146244 0.07382551 0.09667332 -0.049387187 -0.12405139 0.0025001243 -0.0237972
0.010694081 0.17058414 0.009258561 -0.0030038352 0.03192996 0.009772036 0.04129937 0.14055483

rnn.weight_hh_l0 f4 [256, 64]
00000000: 9f57 513c 2f47 76bd e4d3 633d 1eb5 7cbd
00000010: fa8a 38bd 60f4 c6bc 4e7e b4bb 9700 1ebd
00000020: 7829 e5bd 5075 d23d 86e6 083d 09b1 68bc
00000030: bb9b 7dbd b38a 8c3d 608c 153d a4f2 e43c
00000040: c1aa ffbd 2624 e1bd 968e 4f3c d158 613d
00000050: c017 fc3d 7ea8 9ebd 8e51 d2bd f197 d2bd
00000060: a449 5e3b e583 5f3c 695c 51bc 930a ad3d
00000070: e3fd c4bc d3e8 693d fe5d bdbd 43a8 fe3d
00000080: c61f 19bd 6186 0bbc e8ab 22bd 0481 913d
00000090: c652 dfbd 5f2c 1c3c 3ec6 01be 3c72 f23d
000000a0: 855b fbbd f58d 0b3d 800e 92bc 20a6 b73d
000000b0: 2116 e1bc ae79 5f3d 63b4 3ebd 917c af3c
000000c0: 8474 01be f755 b83d 05a5 99bc db92 2b3b
000000d0: f868 84bd b430 4dbd 4de8 b83c a1a3 553d
000000e0: 57c2 69bd dc14 073d 710e 49bd c8cb 9cbd
000000f0: c2ec 24bb 8555 723d e573 913d fcbf b4bd
00000100: 10a1 bf3d 13ec 043e 4f15 7c3d d401 d13d
00000110: b5b6 d9bb 7661 f03d dfb5 1ebd 42c9 7f3d
00000120: 6d04 233e 30f4 a6bd ddf5 10bd b7dd e3bc
00000130: 18c6 023d 19d2 45bd 1e37 46bd 7c00 2bbd
00000140: aae4 bbbd 0a8a c1bd 7749 6a3c ee0b f63d
00000150: 0e1b 5abd d044 2abd 1b04 8f3d bf75 0e3d
00000160: bdc6 473b 2222 d9bd c953 203d cba2 b8bd
00000170: 1b3c 99bd bf78 b2bc 9af7 8d3c ec24 a03d
00000180: 9252 be3d 3b11 813c efba 27bd 71c2 b0bd
00000190: 3170 6b3d 76d1 8fbc 43b0 c03d 5858 c33c
000001a0: 61c6 05bd 066d 20bd 62d3 04bd cd90 823d
000001b0: 9d00 1abd 453f e7bd 25ad 44bd bfcc 79bd
000001c0: 5278 603b 691c 5abd 9a43 c2bc b780 253e
000001d0: 49a4 d7bd 024d 3d3d 9e3a 0e3e 7b67 43bc
000001e0: 773b ebbd 4ba5 f33b e723 063d 66ca d4bd
000001f0: 763a 00be 3902 4d3d 9205 0e3e ca51 6b3d
00000200: 488e e33d 6302 8e3d 6b33 b8bd e741 bb3d
00000210: 1f35 ecbd 52a1 9a3d aed0 47bd 9f80 e93d
00000220: 5a5d c13c 5d58 843c af6e 2e3d 8a4a 233e
00000230: 281e 05bd b216 023e 886f ea3c f0b4 aebd
00000240: a653 f1bd 5e3b c9bd e3cd fd3d a40d efba
00000250: 37cd 9a3d f9e5 0c3e 9cf3 25bd 6188 1cbe
00000260: 81fb 5b3c a27d 9ebd cbde 0c3e 77b4 a83d
00000270: e1bc ccbd 3902 033e 5711 e23c dda9 1d3e
00000280: 12ab 4e3d a47d 373d a174 d53d 0dff 113e
00000290: 3200 42bd fd58 913c 7a02 b23d 8d59 c53d
000002a0: 9903 6ebd 65aa 08bd fad5 b13c 7fc6 09bd
000002b0: e4dd c73c bf63 a6bd 7dc7 103e 63eb 6ebc
000002c0: bfaf 21bd 47cb 16be 416e 093e 959d 7d3d
000002d0: b944 843d 1d2e dc3d 1374 18bd e77f 133e
000002e0: e6f6 b33c a5f1 b33d d121 463d 684d b6bd
000002f0: 8f4c 933c 7231 d43c 944d 89bd d5de 923d
00000300: 6047 033d e365 fa3d a401 10be 7406 2dbc
00000310: ed66 9c3d 52ca 273e 6c5c 253e 5094 cc3d
00000320: 34b2 223e b36e ef3d 14cb 113d 40ce 3a3d
00000330: 9699 303e 5b70 923c a492 2c3e eb41 6dbd
00000340: b3eb 1abe acb5 3ebb c8ba 923d f0bc 043e
00000350: 5f93 423e 3421 dc3d f228 e93d dd00 8ebb
00000360: 8638 e33d 3078 8abd 5de1 82bd 6bef 6b3d
00000370: 1b45 173d edf9 c8bd d343 e53c cbd8 dbbb
00000380: 8944 883d 4f10 4c3d bfef 583e e718 053d
00000390: 0d61 643c 05ce 683d 053f 91bd 4f2f 1bbd
000003a0: 7216 433d f2ab 98bc f5aa 49bd 84cd da3d
000003b0: e49c 3bbe 4f5e ab3c 08e4 243e e3b7 d8bd
000003c0: b449 ec3c cafe 863c e6da ca3c 1725 9d3b
000003d0: e57f 1fbe 1ffd 93bd c251 303e 48d0 d73d
000003e0: 6c26 043d 556e 84bc 4244 973c fd3b 923d
000003f0: 256f 3f3d f644 f73c 9b86 2e3d 370f 0d3d
0.012777238 -0.06012648 0.055621997 -0.061696164 -0.045054413 -0.024286449 -0.0055082208 -0.03857478
-0.1118955 0.10276282 0.03342297 -0.014202365 -0.061916094 0.06862392 0.036510825 0.027947731
-0.124837406 -0.10993223 0.0126682725 0.055016343 0.123092175 -0.07746981 -0.102694616 -0.10282887
0.0033918405 0.013642286 -0.01277838 0.084492825 -0.024046844 0.057106804 -0.09246443 0.12434437
-0.037383817 -0.008515925 -0.039714724 0.07104686 -0.1090446 0.009532063 -0.1267328 0.11838195
-0.12273315 0.034070928 -0.01782918 0.08967233 -0.027476372 0.054559402 -0.04655875 0.021421703
-0.12642103 0.090007715 -0.018755445 0.0026180062 -0.06465334 -0.050095275 0.022571707 0.052158
-0.057070103 0.032978877 -0.049086038 -0.07656056 -0.0025165533 0.05916359 0.07102183 -0.088256806
0.09356892 0.1298068 0.06154376 0.10205427 -0.006644095 0.11737339 -0.038747665 0.062447794
0.15919657 -0.08152044 -0.035390723 -0.027815683 0.0319272 -0.048296068 -0.048392408 -0.04174851
-0.091744736 -0.09450157 0.014299742 0.12013994 -0.053248458 -0.04156953 0.06983205 0.03478026
0.0030483447 -0.106022134 0.039142404 -0.09015425 -0.07482167 -0.021786092 0.01732998 0.07819542
0.09293093 0.015755286 -0.04094976 -0.08630837 0.05748004 -0.017555933 0.09408619 0.023845837
-0.032659892 -0.039166473 -0.032428153 0.06375275 -0.03759824 -0.112913646 -0.048016686 -0.060986277
0.0034251404 -0.05324975 -0.023713876 0.16162382 -0.10529382 0.04621602 0.13889548 -0.011926527
-0.114859514 0.007435476 0.032749083 -0.10390167 -0.12522301 0.050050948 0.13869312 0.057451047
0.11111122 0.06934049 -0.08994182 0.09143429 -0.115335695 0.07550301 -0.048782997 0.11401486
0.023604084 0.016155416 0.042586025 0.15946403 -0.032499462 0.1270397 0.028617635 -0.08530605
-0.11783533 -0.098257765 0.123927854 -0.0018238318 0.07558673 0.13759603 -0.040515527 -0.152864
0.013426662 -0.07738806 0.13756864 0.08237546 -0.09996963 0.12793817 0.027596159 0.15396829
0.050456114 0.044797555 0.10422636 0.1425745 -0.047363468 0.017742628 0.086918786 0.09636221
-0.0581089 -0.033365626 0.021708477 -0.033636566 0.024397798 -0.08124494 0.14138599 -0.014582488
-0.039474245 -0.14725982 0.13420965 0.06191786 0.0645842 0.10750983 -0.037220072 0.1440426
0.021968316 0.087863244 0.048372094 -0.08901483 0.017980842 0.025902484 -0.0670425 0.07171408
0.03205049 0.122264646 -0.14063126 -0.010560621 0.07636819 0.16385773 0.16148537 0.09989226
0.15888292 0.11691036 0.03559406 0.04560685 0.17246088 0.01787584 0.16852814 -0.057924192
-0.15128975 -0.0029099984 0.07164532 0.12962699 0.1900153 0.107485205 0.11384763 -0.004333599
0.11094765 -0.06761205 -0.06390641 0.057601374 0.03693114 -0.098132946 0.027986443 -0.0067091933
0.06653697 0.04982024 0.21185206 0.03249445 0.013939154 0.0568371 -0.07092098 -0.037886914
0.047628827 -0.018636677 -0.049235303 0.1068373 -0.18321568 0.020918993 0.16102612 -0.105819486
0.028843738 0.016478915 0.024762582 0.004795681 -0.15576132 -0.072260134 0.17218688 0.10537773
0.032263204 -0.016165892 0.018465165 0.07140348 0.046736855 0.03018425 0.04260884 0.034438338

rnn.bias_ih_l0 f4 [256]
00000000: 35ea 49bd c8c3 723d 6175 9ebd d2a7 34bd
00000010: 86c6 9cbd 5f0d 173e 179c 21bd 7f67 0e3e
00000020: 0f14 f83c 6e9b d93d 30b2 bcbd 96bc f7bc
00000030: 8be0 c53d 6959 423e bff2 903d cd2b f63d
00000040: 0c77 793d 9e6c b03d 299f 2a3d 48c7 c6bd
00000050: 47ff 243e 8db7 d23d 4f64 0e3e 79bf 123e
00000060: b015 c1bd 70db cabc cd94 b23d 1efd 883d
00000070: e675 b7bd bfa2 3b3e 86a6 c53d 43fe 0d3e
00000080: 98da 28bd 6a35 463d 3824 483c 811c ac3d
00000090: 3baa 12bd 36e1 bbbd fda8 5a3e 0836 993c
000000a0: 08f5 753d 221e d13d 532d 80bd c583 9eba
000000b0: 6688 f53d 1906 043e 3129 d7bb 3d8a 0c3e
000000c0: fe3d f03d e8fa ea3d ad8c 783c 8a96 1ebd
000000d0: dfc6 2ebd 02df d33c 3670 3ebd a1cc b2bd
000000e0: 52fc e23d 5786 83bd 75a7 15bd e4ff e53d
000000f0: fb2c 1f3e 12b9 e93d 569e 0a3d b9c1 76bd
00000100: 853f c2bc 62bf be3d 6d70 ad3d 86b1 dcbc
00000110: e94c a6bd c4df 84bd d75b be3c f278 b3bb
00000120: c358 b5bd e805 bdbd d56c 033e 7e01 913d
00000130: 5ddb 8c3d ce43 f3bc cc65 5b3d 8af2 de3d
00000140: dee3 e33c 9a2f adbd 6f47 fb3d abe9 bfbc
00000150: 8600 023e b36b 3bbd 1a80 3abd e5a1 973d
00000160: f45a f93c 6c2c 0c3e 4cc2 103e 4994 0f3d
00000170: afc9 2b3d f44c f8bd 018e 72bd bf43 0c3e
00000180: c512 11be 0639 883d df11 dabd 958d 06be
00000190: cdcb cabc 857e 41bd d80f 2cbe 8d5f 0c3e
000001a0: 1f3c 443c 3b1d f23d 83e9 fd3c 9ae3 02be
000001b0: 8a9e 42bd 50f4 743d fdf4 09bc 270e e139
000001c0: d7fe eebd d11d 7ebd 9813 9bbd be97 dc3c
000001d0: b12a dc3d 45fa eabd af86 083e 0233 793d
000001e0: ccdd 463d 29f5 023d 0517 b6bd 8ce5 403d
000001f0: bfdc 4a3d 7c14 663d f02c a23d 86c9 ae3a
00000200: 6b3f adbc 0d20 fa3d b87c 123c 79b1 02bd
00000210: 11ae c53d 5f56 d8bd 177c 363d 8b2d 86bd
00000220: f1fc a33d cc58 0cbe 0ff2 17be 8a89 143e
00000230: 8c3f a1bd 7844 e8bd b5ba 493d 289f bdbd
00000240: ac69 19bd 2aae 26bd 0a71 65bb 456d a6bb
00000250: bbf6 5d3d 0948 1f3e bcf0 0cbe 0ccb a73d
00000260: d020 813d eb82 c0bd f59b 81bc 1681 983d
00000270: bb08 14be 2d7f 0ebe 2cec 5cbc 9335 043e
00000280: 42ca 003d 746d 8ebd d1c7 5bbd 7918 1ebd
00000290: c64f 50bc 2cdd a4bd 4019 08be bcc5 c1bd
000002a0: 479e 423d e820 2cbd dfa7 c33d 1dbb c1bd
000002b0: 1fd0 eabd d538 b3bc db63 2c3d d618 c0bd
000002c0: 11b3 4bbd d5ad 1d3d ead2 d23c 908e 123d
000002d0: e869 cb3d f66c f3bb ef20 e13d a7e5 373b
000002e0: 4d3b f93b b51d 8f3d 3a4c 5bbd 1084 60bd
000002f0: f1aa 03be 0203 193e da03 1c3a 7074 9b3d
00000300: 378a 1e3e a7e6 be3d ba9f 143a d16d 033d
00000310: 1bfa 1d3d e934 a13b df6f a63d b28e 0ebc
00000320: 2be7 9abd 3a9b 2fbd 5e98 16bd 1a94 66bd
00000330: 8219 0e3e 4f66 ce3d d34f a13d 5874 54bd
00000340: 6dab fb3d 0428 39bd ec02 c93c 90b0 743d
00000350: 9613 1c3c 897c df3d 347a 513c 6aac 3bbd
00000360: 560c a13b ad8a d9bb cb62 893c 7ccc 5abd
00000370: a58f 103e b248 883d d5c3 d83d fe19 36bd
00000380: f67f e03d d7e2 3e3e 8ed5 023e 6c1b 193e
00000390: 96d0 cbbd 2e09 89bd 64cd ba3c 1571 af3d
000003a0: e869 acbd 3a33 833d 9d4c 1dbd 2136 f9bc
000003b0: 4abf 043e 275d 1e3e 43e1 79bd 7c67 ff3d
000003c0: d5f2 653d f2f6 aabc 969d 943d f1d9 803d
000003d0: 4b48 e93b 41c5 d43d a701 d23d 32e4 68bd
000003e0: d3b3 adbd ea0c bebd e055 2abd 5d63 783c
000003f0: de3d 1c3e a650 583e 774f 39bd 5e53 adbd
-0.049295623 0.059268743 -0.07737232 -0.04410536 -0.07655053 0.14751194 -0.0394555 0.13906668
0.030283002 0.10625349 -0.09213674 -0.030241292 0.09661969 0.1897942 0.0707755 0.12020073
0.060904548 0.08614467 0.041655693 -0.09705979 0.16113006 0.10288916 0.13905452 0.14330854
-0.09427965 -0.02476284 0.08719788 0.06688903 -0.08958034 0.18323801 0.096509025 0.13866524
-0.041224092 0.048390783 0.0122156665 0.08403874 -0.035806876 -0.09173815 0.21353526 0.018702522
0.060048133 0.102108255 -0.06258645 -0.0012093714 0.119889066 0.12892951 -0.0065661897 0.13724609
0.11730574 0.11473638 0.0151702585 -0.038717784 -0.042670127 0.025863174 -0.04649373 -0.08730436
0.110832825 -0.06422108 -0.036536653 0.11230448 0.15544502 0.114122525 0.033842407 -0.060243342
-0.02371193 0.09313847 0.08468709 -0.026940119 -0.08120138 -0.064879924 0.023237152 -0.0054770643
-0.088548206 -0.09229642 0.12834485 0.07080363 0.06877778 -0.029695418 0.053563878 0.108861044
0.027818616 -0.08456345 0.12269484 -0.023426851 0.12695512 -0.045757007 -0.045532323 0.07403926
0.030438878 0.1368882 0.14136618 0.035053525 0.041940387 -0.12124053 -0.059217457 0.13697718
-0.14167316 0.06651501 -0.1064794 -0.13139947 -0.024755383 -0.0472398 -0.16802919 0.13708325
0.011977225 0.118219815 0.030995136 -0.12782136 -0.047514476 0.059803307 -0.008420226 0.0004292589
-0.116697006 -0.062040154 -0.075720966 0.026927825 0.1075033 -0.114735164 0.13332628 0.06083966
0.048551366 0.031972084 -0.088911094 0.047093913 0.049526926 0.05617188 0.079187274 0.0013335205
-0.021148404 0.122131445 0.008940868 -0.031907532 0.09652341 -0.10563349 0.044551935 -0.065516554
0.08007229 -0.13705748 -0.14838432 0.14505592 -0.07873449 -0.113411844 0.049250323 -0.09258872
-0.037454292 -0.04069344 -0.0035010003 -0.005078944 0.05419038 0.15554823 -0.13763708 0.08193025
0.063050866 -0.093999706 -0.015821436 0.07446496 -0.14456455 -0.13915701 -0.013484042 0.12911062
0.031442888 -0.0695447 -0.053657357 -0.038597558 -0.012714332 -0.08049998 -0.13290882 -0.09461543
0.047514226 -0.04202357 0.09553503 -0.09459517 -0.11465477 -0.021877686 0.042087417 -0.09379737
-0.049731318 0.038495857 0.025735337 0.03578049 0.099323094 -0.0074287606 0.1099261 0.0028060467
0.007605946 0.06988088 -0.053539492 -0.054813445 -0.12858178 0.14942554 0.00059515017 0.07590568
0.15482412 0.09321337 0.0005669553 0.03208715 0.038568597 0.0049196375 0.081268065 -0.008701013
-0.07563623 -0.042872645 -0.036766402 -0.056293584 0.13876918 0.100781076 0.078765534 -0.051868767
0.12288556 -0.045204177 0.024537526 0.059738696 0.009526154 0.10912425 0.012785483 -0.045818724
0.0049148006 -0.006638846 0.016770741 -0.053417668 0.14117296 0.066544905 0.10584227 -0.04445838
0.109619066 0.1864122 0.12776777 0.14951867 -0.09951894 -0.06691204 0.022803016 0.085664906
-0.084186375 0.06406255 -0.038403142 -0.030421318 0.12963596 0.15465222 -0.061005842 0.1247091
0.056139786 -0.020869706 0.0725662 0.06291569 0.0071192137 0.10389186 0.102542214 -0.05685825
-0.084815644 -0.09279807 -0.041585803 0.015160409 0.15257975 0.21124515 -0.0452418 -0.08463167

rnn.bias_hh_l0 f4 [256]
00000000: 13fd bfbd 492f 683d 38e0 b83d 1a04 f13d
00000010: 3dc7 bcbd 7bfc b83c f37e 813c 3e2b b2bb
00000020: 7548 a23d bd93 e33d 09e4 8ebd ed15 0f3d
00000030: 9bfd 86bd 8ee3 163e 5e35 cebd 85c9 8fbd
00000040: e9e8 8fbd a9bc 0a3d d889 923d a3ec ff3d
00000050: 4c68 34bd 9f07 3d3b 59f0 ff3d d4f8 bcbd
00000060: 3f96 b03d 53f9 05bd 95f3 bd3d 1ddf f33c
00000070: 746b 083e e7bb 023e bab8 c53c 1404 153e
00000080: cad2 1c3e e396 e93b 7945 3b3d 018d 49bd
00000090: 0177 fdbc 4d69 58bd 7be1 4c3e fcb4 f53d
000000a0: 225d cb3d 4136 81bd e777 b93d 2caa d53c
000000b0: ae31 7bbd 5bdd fb3c 2f5d 993d c532 24bd
000000c0: 6de9 1c3e d81b f53d 59c3 173c 87b1 d03b
000000d0: 0ce8 c63c 8a64 80bd 55ac 883d bae9 d1bd
000000e0: bf6c bb3d 3584 9f3b bf9e 713d 3608 2ebd
000000f0: cc97 d7ba d574 c5bb 3ce5 d73d a622 863d
00000100: 7c82 09bc 7614 84bd f3e4 60bd 57f3 54bd
00000110: af88 56be c1cf e8bc 75e2 563d 96c6 2cbc
00000120: d08c b0bd fd2a e9bc f0b3 083d 98fa f6bc
00000130: d720 973d 3cf3 f4bd 7ee5 02bc 6114 30ba
00000140: e23c 95bd 6961 07bd f86a 87ba 4572 eabd
00000150: 0591 023e 4c15 243e 8440 15be 417a fb3d
00000160: f4a5 f13c 6997 be3d 54a9 c0bd 05a9 f8bd
00000170: ef9f a93c c533 cdbd d89a bbbd b3f0 373d
00000180: a26f ffbd 5ad3 433c 4b86 62bd daf8 8fbd
00000190: 1216 de3d 708d e1bc 4b1f 29bd b55f d93d
000001a0: 9cbe f93d 505b 50bd 9fc0 d23c 5bf7 783c
000001b0: 9597 1d3d 5086 1f3d 28db c4bd d354 933c
000001c0: ebf2 eebc f577 a4bd 2be7 0bbe 6c44 50bc
000001d0: a5d8 d7bd 26a9 34bb f071 033c 21b0 123d
000001e0: 597f e73d 53b3 8d3c 5a11 4bbc b0cb 14bc
000001f0: ae1f 9fbc da71 7d3d a008 c63d 0dc0 9b3c
00000200: 91a1 61bd 60df 943c d222 28b9 6806 1b3e
00000210: 5044 1bbd c803 a7bc 17eb 233e 98a5 ecbc
00000220: 6a1e 123e 0f00 3fbd 523d f4bd 3179 503c
00000230: 66e3 923c a8cf 203c 8717 963d ac3d 07be
00000240: c119 c6bd d1ad b7bc 885b cb3d 9581 97bd
00000250: b6de 053d 8c45 653d 7375 23be 9ba6 a1bd
00000260: bc50 a8bc df46 b83d 5946 ccbd 5660 b83c
00000270: 27ea 2dbd 4517 c7ba 6de1 95bd 04fb f73d
00000280: 7d1c 393e e14e fb3d 2fce 693d 9b77 32ba
00000290: d0c4 26bd 6717 bfbb ab51 cfbc 5fad 9cbd
000002a0: 2c08 dc3d 5156 a0bb 72da b5bd a0eb 073d
000002b0: 46ea 833d c41b 04be bab3 82bd 3129 d23d
000002c0: 0182 1ebe cde4 4c3d 22ea 7c3d 970d c0bc
000002d0: f3e0 c7bd d103 d43d 79cc 9d3d 3de6 17bc
000002e0: 9d9f 17be c8c7 b73d 7b93 883d df08 8fbb
000002f0: 6107 c2bc ad13 1b3d cb41 d9bd 97db 803d
00000300: a5bc 87bd 069d e23d a673 1c3d 0a00 2abd
00000310: d850 3f3d 23b8 723d 1cc6 12bc 29be eb3c
00000320: b1a5 c2bc ed56 18bd 7f2c a4bd b43d 00bd
00000330: af1a a93c 2f94 cd3d b425 123e 5e8d 97bd
00000340: 24d9 b6bd 36bc 783d 5190 a7bd 9755 0a3e
00000350: d072 793d b04b 933d f4d7 f13d d257 bdbd
00000360: 1efb c93d 7ae2 093e c751 21bc d0a0 72bd
00000370: 6a8b 803c a6fd ca3d 739f 5c3c 50ea 32bd
00000380: e5e7 da3d 733d 8b3d 7164 b2bc e223 083e
00000390: abea d63c 06e7 4c3d e29a 303e 72a9 24bd
000003a0: 5f47 99bb 5ef6 b23c 084f 84bd 3f26 fbbc
000003b0: cbe6 733d 5c05 fe3d 581a 293e 7e26 0d3d
000003c0: 96be f63c ef03 fbbc 5367 9a3d e235 5dbd
000003d0: 626f ecbc 2218 103e a55d a33d 3554 7e3d
000003e0: 98e6 d43d c364 ed3d 19ee 803d c413 70bc
000003f0: b8cc 2c3e 9063 e83d 1112 09bd 0f7d 733d
-0.09374442 0.05668572 0.09027141 0.117683604 -0.09217689 0.02258133 0.015807604 -0.005437284
0.07923976 0.11112163 -0.06977088 0.03493302 -0.0659134 0.14735243 -0.10068773 -0.07020859
-0.07026846 0.033871327 0.07155198 0.12496307 -0.044044778 0.0028843654 0.124970146 -0.09227148
0.08622407 -0.032708477 0.09274975 0.029769475 0.1332224 0.12766992 0.024135936 0.14552337
0.15314785 0.007128583 0.04572055 -0.049206737 -0.030940535 -0.052834798 0.20007889 0.11997411
0.09929873 -0.06309176 0.09056073 0.02608212 -0.061326675 0.030745199 0.074884765 -0.04008748
0.1532342 0.119682014 0.009262883 0.006368819 0.02428057 -0.06269176 0.06673495 -0.10249658
0.09151601 0.004868055 0.058989283 -0.0424883 -0.0016448437 -0.0060258904 0.1054177 0.065495774
-0.008392926 -0.06449215 -0.054905843 -0.05198988 -0.20950578 -0.028419377 0.05246206 -0.010545393
-0.08620608 -0.028462881 0.033374727 -0.03014879 0.073793106 -0.11960456 -0.0079892855 -0.0006716904
-0.07287003 -0.033051882 -0.0010331562 -0.114475764 0.12750633 0.16023749 -0.14575392 0.122791775
0.029498078 0.09306223 -0.09407297 -0.12141613 0.020706145 -0.1001964 -0.091603935 0.044907283
-0.12472464 0.011952246 -0.055303853 -0.070298865 0.10844053 -0.027533263 -0.04128961 0.10613958
0.12194559 -0.050868332 0.025726615 0.015195693 0.038474638 0.03894645 -0.09612113 0.017984783
-0.029168567 -0.080306925 -0.13662402 -0.012711626 -0.105393685 -0.002756664 0.00802277 0.0358125
0.113035865 0.017297423 -0.012394274 -0.009081766 -0.019424286 0.061876155 0.09669614 0.019012475
-0.055085722 0.01817292 -0.000160347 0.15139163 -0.037906945 -0.020387545 0.16007648 -0.028887555
0.14269415 -0.046630915 -0.119257584 0.012724207 0.017930698 0.009815134 0.07328706 -0.1320712
-0.09672881 -0.02242175 0.099295676 -0.07397763 0.032683097 0.05597453 -0.15962772 -0.078931056
-0.02054631 0.089978926 -0.09974355 0.022506874 -0.042459633 -0.001518943 -0.07318387 0.12108424
0.18077274 0.12270904 0.057081398 -0.0006807984 -0.04071504 -0.005831647 -0.025307497 -0.076502554
0.10743746 -0.004893102 -0.08879556 0.033183694 0.064411685 -0.12901217 -0.06381936 0.10261763
-0.1547928 0.05002289 0.061746724 -0.02344398 -0.097597025 0.103522904 0.07705016 -0.009271202
-0.14806981 0.08973652 0.06668755 -0.004365071 -0.02368516 0.03786056 -0.10608252 0.062918834
-0.06627778 0.11065106 0.03819623 -0.041503944 0.046707958 0.059257638 -0.008958366 0.028777199
-0.023760648 -0.037192274 -0.080162995 -0.031308845 0.020642607 0.100380294 0.14272195 -0.074000105
-0.08928135 0.060726367 -0.08181823 0.13509212 0.06090051 0.071921706 0.11808768 -0.09245266
0.0986235 0.134653 -0.009846157 -0.059235394 0.015691478 0.09911661 0.01346575 -0.04368049
0.106887616 0.0679883 -0.02177641 0.13294938 0.026234945 0.05002501 0.17246583 -0.04020066
-0.0046776976 0.021845993 -0.064603865 -0.030657886 0.059546273 0.12403366 0.16513956 0.034460537
0.030120175 -0.030641524 0.07539239 -0.054006465 -0.028861705 0.14071706 0.07976846 0.062092025
0.10395545 0.115914844 0.062954135 -0.01465315 0.16874969 0.11347115 -0.033464495 0.059445437

rnn.weight_ih_l0_reverse f4 [256, 1]
00000000: 71f1 8fbd d388 98bc 77d1 603d ae14 ca3d
00000010: 6781 a8bc 3d43 ae3d 01d0 833c 60ed acbc
00000020: d79c 1d3e 7577 87bd 4731 75bd 5c50 0cbc
00000030: 0c04 b0bd 5514 e33d be33 633d f24e 013d
00000040: 40d4 92bd bd87 5cbd 4a33 67bd df32 203d
00000050: 9279 ef3c 94b7 c13d 2f7c 59bd 5dc7 1d3e
00000060: 619d 3dbc 912b 423e a656 1b3e ac88 263d
00000070: 8fe5 9bbd 795a f93d f138 9c3c cff4 043e
00000080: 650c c8bb 7c38 763d 3a75 543d 3c20 063e
00000090: 367f 9e3d 74a5 973d 4117 993c 78e1 e6bb
000000a0: 3fc7 69bd 3039 b8bd e6c4 293d 2242 683e
000000b0: 7dd4 c7bc d60f 553d 460f 843d dac9 193e
000000c0: bfc0 33bd 310d 99bd 1598 b9bd 75be 133d
000000d0: bb40 32bd 286f e53d fe0f 243b 49ce c5bc
000000e0: 84cb 9c3d fe73 bd3d 06b2 e63d 7bc4 883d
000000f0: 6dc7 31bd 2f5a 1ebd b4d3 de3d f6dd 6ebd
00000100: 231b d4bd a624 21bd 957a 90bd 100e a13c
00000110: c819 32bc 0510 873d 11ea a13d 9d4b c83c
00000120: 492c c23d 750e dfbd 6d2c 3b3d 232d b83d
00000130: cc53 b5bd 0562 703d 9398 a23d 420a 103e
00000140: f987 f83d c18a b7bb 081e e63d bb4d a2bb
00000150: 0be4 f83d 1a10 a23d 85c9 e33d ed41 ad3d
00000160: eb7f d2bd 76e8 5a3d 8591 243d 3ecb 953d
00000170: a57a ccbc c116 8d3d 0647 4a3c e116 10bd
00000180: b0fb 5f3d ed6c a43d 53f1 103d e58f 433d
00000190: 10b8 25bd 5c30 5b3c 6276 bbbd 536e 523d
000001a0: 40e1 973c 0621 d2bd 8b54 acb9 f8d6 2cbd
000001b0: 65ba d03c f290 a3bd 7b24 1d3d 02f8 643d
000001c0: 1b29 e53d 5e05 7dbb af84 543d ba34 19bc
000001d0: eb50 043e 2355 38bc 06f7 ac3d 60b1 3d3d
000001e0: 827e 673c 9fe4 283d efad 53bc 1a71 3a3d
000001f0: b182 0cbd 9b55 1dbb af51 00bd 63e1 c43c
00000200: fc79 00be d909 a8bd 1b18 b2bc 18e2 9abd
00000210: c62e 833d d50a f1bc 5a6a b33d 4da0 efbd
00000220: ea30 723d 0a10 1c3e 2701 f73d 5d7e 08be
00000230: 450c eb3d 613c 07be 9fa8 6b3d 4f1d c6bd
00000240: 740e ecbd 0ce4 e83d 33e0 a33d c473 133e
00000250: d89e 93bd d306 c03c 1203 313e c416 17bd
00000260: 4ec7 c13c f895 cb3c c3dd c93d 41c5 d93d
00000270: d410 8bbd 5514 64bd 074f acbd cf4d d43d
00000280: 2ffe bebd 4d89 0ebe e8ba f7bd c231 2f3d
00000290: fe69 813d 9121 df3d 63fe 0f3e e260 893d
000002a0: 3f06 1cbe 5bd8 b13d 8574 cfbd 9c67 15be
000002b0: cef9 7b3d 11b3 e3bd afe7 72bd e92a c3bc
000002c0: 3d41 c7bd ab4e 023e e8b4 083d 55b9 cdbd
000002d0: c0d7 03be 7964 fa3d bbbf 4e3d e3a5 80bd
000002e0: 9c02 6b3d d483 da3c 3e77 873c 8683 0c3e
000002f0: bf89 213e 4a1d d7bd 483c 72bd 6179 ea3d
00000300: 6ec9 b43d 4160 c03d cba4 573c ba1f a0bd
00000310: 574b 103e ee4b a13d 029a 243d 1c46 123e
00000320: 02a4 97bd a314 103e 8c29 8e3c ce99 fc3c
00000330: e7ab 7938 e34a 023e 9774 623d 6f9e c8bd
00000340: a1d8 3cbc ef0c 2dbd 31f5 343d 74c5 12bc
00000350: ccc8 b3bd fdc5 ad3d c307 ab3d 5937 1d3d
00000360: 039c 67bd 4437 003e 9d1e 173e 8785 f73d
00000370: f624 993c 769f 0e3d 7bc2 0c3e 9d48 ba3d
00000380: 9f75 9b3d f096 d13d b413 c03d 2616 e53d
00000390: d2f1 85bd 9201 91bc 856a fb3d 6550 64bd
000003a0: fea6 35bd bb0f 0a3e 2213 413c ae4e 56bd
000003b0: b556 963d 9f98 013e 679f 393c 0f32 203d
000003c0: 98d3 ccbd 8bef f33d 4f0e d43d 6ef9 f03c
000003d0: f62b 50bd 4363 0c3e 09aa c73d 3297 84bd
000003e0: af06 223d 1667 98bd 51ef c5b9 06a4 59bc
000003f0: 82af ba3d f16e 8dbb 979b bbbc 0728 43bc
-0.07028473 -0.01861993 0.05488726 0.098672256 -0.020569516 0.085089184 0.016090395 -0.021109283
0.15391861 -0.066145815 -0.059861448 -0.008564081 -0.08594522 0.110878624 0.055469267 0.03156943
-0.0716939 -0.053840388 -0.056445397 0.039111014 0.029232774 0.09458843 -0.053096946 0.15408082
-0.011573167 0.18961932 0.15169773 0.040657684 -0.07612144 0.121754594 0.01907012 0.12984012
-0.006104993 0.06011246 0.05186961 0.13098234 0.07739107 0.074046046 0.018687846 -0.007045921
-0.05707478 -0.08995283 0.041447543 0.22681478 -0.024393314 0.052017055 0.06448226 0.15018407
-0.04388499 -0.07473219 -0.090622105 0.036070306 -0.043518763 0.11202842 0.0025033946 -0.024146216
0.07656005 0.092506394 0.11264424 0.06678101 -0.043403078 -0.038660225 0.10880223 -0.058317147
-0.103567384 -0.03934159 -0.07054631 0.019660026 -0.010870405 0.06594852 0.07905973 0.024450118
0.09481103 -0.10891429 0.045696665 0.08992984 -0.088538736 0.05868723 0.079392575 0.14066413
0.1213531 -0.0056012576 0.11236197 -0.004953114 0.12152871 0.079132274 0.11122421 0.0845984
-0.10278305 0.05344435 0.04017784 0.07314156 -0.024960825 0.068891056 0.012346035 -0.03517807
0.054683387 0.080285884 0.035386395 0.04774465 -0.04045874 0.013378229 -0.09153439 0.051374745
0.018540025 -0.10260205 -0.00032869386 -0.042197198 0.025479505 -0.079866305 0.03836487 0.05590058
0.11189481 -0.0038607935 0.05188435 -0.00935095 0.12921493 -0.011250767 0.084455535 0.046311736
0.014129283 0.041233655 -0.012919887 0.04551802 -0.034304325 -0.0024007324 -0.0313279 0.024033254
-0.12546533 -0.08205003 -0.02174001 -0.07562655 0.06405406 -0.02942411 0.08760519 -0.11700497
0.05912868 0.15240493 0.12060767 -0.13329454 0.114769496 -0.13206626 0.057533856 -0.09673559
-0.11526194 0.113716215 0.08001747 0.1439963 -0.072080314 0.023440754 0.17286327 -0.036886945
0.023654606 0.024851784 0.09856751 0.10633326 -0.06790319 -0.055683453 -0.08413511 0.10366403
-0.093258254 -0.13919564 -0.120961964 0.042772062 0.063190445 0.10895074 0.14061885 0.06707932
-0.15236758 0.08683845 -0.10129646 -0.14590305 0.06151753 -0.111181386 -0.059302982 -0.023824172
-0.0972924 0.12725322 0.03337565 -0.10045115 -0.12875271 0.12226195 0.050475817 -0.062816404
0.057375535 0.026674189 0.016536351 0.13722047 0.15775202 -0.10503633 -0.05913952 0.114489324
0.08827482 0.09393359 0.013161848 -0.07818551 0.1409124 0.078758106 0.040185936 0.14284557
-0.07404329 0.14070372 0.017353795 0.030835059 5.9526323e-05 0.1272388 0.05528697 -0.09795844
-0.011526258 -0.042248663 0.044179145 -0.008958209 -0.08778533 0.08485029 0.0835109 0.03838286
-0.05654527 0.12521082 0.14757772 0.12086015 0.018694382 0.034820043 0.13746063 0.09095881
0.07590794 0.10233867 0.09378758 0.11185865 -0.06540264 -0.017700944 0.12276176 -0.055740733
-0.04434871 0.13482563 0.011784347 -0.05232113 0.07340757 0.12655877 0.011329508 0.03911024
-0.10001296 0.119109236 0.10354292 0.029415812 -0.050823174 0.1370974 0.097492285 -0.06474151
0.039557155 -0.07441537 -0.00037753073 -0.013283735 0.09115507 -0.0043162038 -0.02290134 -0.011911399

rnn.weight_hh_l0_reverse f4 [256, 64]
00000000: 3887 01be 40d8 c6bd b8ee 143d 2bea e2bd
00000010: aade 573d 73d6 d43d 361a 79bd 4ac9 2a3d
00000020: b629 ab3d 68c9 fcbc 8e1b 243d f40b 2abc
00000030: 5f6b e53c b688 b43d 497d 383e e05e 4d3d
00000040: 5881 0dbd 0cb0 59bd 65c3 17bd 32bf c6bd
00000050: 1ffc 3b3d e697 d33c 1857 dd3c 0e8f ae3d
00000060: 5bf9 2b3d 5571 c23d e6ac fe3d d3cb df3d
00000070: 1f28 0abe 59e5 28bd 1dcb 3fbd e681 96bd
00000080: 6f7a 01be 19cb cbbd 16c7 b6bd f668 ae3d
00000090: 3eac f03d 7559 d93b 6ffc e83c 3fd4 cdbd
000000a0: 494d 51bd d068 e33d 2dd5 0dbe fdb6 07be
000000b0: 8e4d 65bd 490f a73d b6eb c53d be99 9f3d
000000c0: cdfc 813c d087 2f3e bea5 973d 26f7 63bd
000000d0: 2b4e 03be 3952 073e 520a fc3c b246 a2bd
000000e0: 92d5 e6bd 21fd d6bd c9a8 8cbd 6898 bf3d
000000f0: d0c3 063c bd26 bfbc 0a36 8a3c cb3a f63c
00000100: 9345 01be 7b90 22bc 44f7 c4bd 8f2f 96bd
00000110: 8db7 313e e214 8cbd cf1b 9dbd c35c 04be
00000120: c216 903d 3786 9f3d f68c 303e 37a7 d4bc
00000130: e3ac 263d 69b2 e1bd 20d3 2ebe c293 06be
00000140: 25fd 52bb 6378 923c 151e 1a3e b95f 9a3d
00000150: 62ea 4cbd 92db ecbb 8f03 bb3c 5d9b 01be
00000160: c72f 0bbd a919 be3c 5fb3 bb3d 8417 ae3d
00000170: 3833 cb3c e340 4fbd 055a 8cbb 6d2e 88bd
00000180: 5db1 fdbd 09b7 dcbd 536c d2bd cb1d d33d
00000190: 4441 aabc 11d8 363d dd81 153e e6f7 0ebe
000001a0: 35c4 7a3d 2d2f 123e 32f4 52bd 76b6 5dbd
000001b0: d923 36bc da0e 2b3d 0a22 b1bd bfbb d2bc
000001c0: 82ce 303d e25a e43d ef22 3e3d e9c7 c03c
000001d0: 800a 32bc 761b d03c 69d1 73bd 00ce 31bb
000001e0: 88a7 003e 80d5 823d 289e 133e c25e f5bc
000001f0: fb01 de3d 7468 37bd 5797 45bd 0cb5 e8bd
00000200: 7fe9 cd3c cb91 913d 5976 083c 64ff 93bd
00000210: 536e b03d f7b8 34be 660a 85bd 79be 3b3d
00000220: fda8 7e3d 71ef 083e 7b3f d6bc a6f9 25be
00000230: 934a 193d 0381 19be 07db 95bd 1419 03be
00000240: cf87 2abe 12be c93c d576 d03d 2215 a13d
00000250: 905e 0abe 80e9 0c3d e450 1abd 843d 11be
00000260: d8b5 2a3e c6c2 cf3c e3d6 0d3e cbcc 103e
00000270: 41e0 2ebd e666 f0bd 3572 323b b993 cc3d
00000280: fd2b e23d 676a 32bd a7e3 e1bd 119a 0b3d
00000290: a4d1 d13d 8982 283e 1887 083e fd41 a33d
000002a0: 2437 2ebd 7656 143e acbe 89bc 371f 0fbe
000002b0: df49 8d3d a9b4 27be 7c9d 11be 85da e1bd
000002c0: 5652 91bc 5055 77bd 5ea5 1d3e 2aae d9bd
000002d0: 13b9 68bb 0eb1 fbbc 1e36 2d3e be2e 0abc
000002e0: 193d a03d b922 873d b5ee 503e e807 ec3d
000002f0: a42c f7bb dbd3 15bd 5467 ecbd fcd3 94bd
00000300: 5b69 dd3b 84f3 953d a290 593d 4d32 1ebe
00000310: d4d8 0b3e 9640 52bd 4082 4b3d 94aa 44bc
00000320: 78eb e93b e9ef e03d 0c50 94bd 5c9c d5bd
00000330: fde0 f1bc ed76 d7bd 44f4 8f3d 0194 bf3d
00000340: 8260 71bd 5a16 fd3d ec06 4bbd ebda 52bc
00000350: 3e1f bbbd 82d7 873d 1e51 babc c82e e2bd
00000360: 53fd 89bd 5495 e53d 79fe 60bd 95e3 073e
00000370: 4e9e e9bc 8b5d 6ebd daaa 1dbe 5aa0 f33b
00000380: b6db 3dbd fc75 96bd be2b 2f3d 4bb4 5e3c
00000390: f70c ac3d 6758 293d e08f 6b3c 56d9 adbc
000003a0: 1876 50bd e334 06bc d739 88bd 4b71 683d
000003b0: 0f24 aab9 77c7 17be a2f3 05be a7fc 9c3d
000003c0: 4c94 853d 595a c4bb 56a5 d43d 58d8 933d
000003d0: 72a0 aabd 0a43 a5bd 37d3 24bd 09c6 10be
000003e0: e9e0 c73d 1f95 f4bb 7a5b 113b f80d 87bd
000003f0: 3cc2 5c3d 7ed3 a33d cbfe 07be ca01 f43d
-0.12649238 -0.09709215 0.036360472 -0.1107982 0.052702583 0.103924654 -0.060816012 0.04169587
0.08357565 -0.030857757 0.04006534 -0.010378826 0.0280053 0.08815138 0.18016542 0.050139308
-0.03454718 -0.053146407 -0.037051577 -0.09704436 0.04589474 0.025829267 0.027019069 0.08523379
0.04198585 0.094942726 0.124353215 0.10927548 -0.13491867 -0.041234348 -0.046824563 -0.07348995
-0.12644361 -0.09950847 -0.089246914 0.085161135 0.117516026 0.0066329786 0.028440682 -0.10050248
-0.051099095 0.11103976 -0.13850851 -0.13253398 -0.055982165 0.08157212 0.09664099 0.07792996
0.015867615 0.17141652 0.0740466 -0.05565562 -0.12822787 0.13214959 0.03076664 -0.0792364
-0.11271204 -0.10497499 -0.06868131 0.09355241 0.008225396 -0.023333902 0.016871471 0.030057332
-0.12624197 -0.009922142 -0.09617475 -0.0733329 0.17355175 -0.068399206 -0.0767132 -0.12926011
0.07035591 0.07789271 0.17241272 -0.02595864 0.04069222 -0.11020357 -0.17072725 -0.13142303
-0.0032194343 0.01787967 0.15050538 0.07537789 -0.050028212 -0.0072283233 0.022828845 -0.12656923
-0.03398111 0.023205595 0.09165072 0.08500579 0.024804696 -0.05059899 -0.004283192 -0.0664948
-0.12387345 -0.10777099 -0.102745675 0.10308417 -0.020783074 0.04463965 0.1460032 -0.13961753
0.061222274 0.14275809 -0.051502414 -0.054129086 -0.011116945 0.04176221 -0.086490706 -0.02572429
0.04316569 0.11150147 0.046420034 0.023532825 -0.010866761 0.02540372 -0.05952588 -0.0027130842
0.12563908 0.06388378 0.144158 -0.02995241 0.108402215 -0.04477735 -0.048240032 -0.11362657
0.025135754 0.07107886 0.0083289975 -0.07226446 0.08614793 -0.17648683 -0.06496124 0.045835946
0.06217288 0.1337259 -0.026153317 -0.16208515 0.037424635 -0.1499062 -0.07317167 -0.12802535
-0.1665337 0.024626765 0.101789154 0.07865359 -0.13512635 0.03440237 -0.0376748 -0.14183623
0.1667093 0.02536143 0.13851504 0.14140622 -0.042694334 -0.11738376 0.0027228717 0.09989113
0.11043546 -0.043558504 -0.11029749 0.034082476 0.10245064 0.16456045 0.13332784 0.07971571
-0.042533055 0.14486107 -0.016814552 -0.13976751 0.068988554 -0.1637751 -0.14220232 -0.110280074
-0.017739456 -0.060384095 0.15395114 -0.10628922 -0.0035510703 -0.030724075 0.16915175 -0.008433996
0.078241535 0.0659842 0.2040356 0.115249455 -0.0075431634 -0.036578994 -0.11543146 -0.07266995
0.006756944 0.073218375 0.05311645 -0.15448876 0.13656932 -0.051331125 0.049684763 -0.01200356
0.0071386658 0.10983259 -0.0724183 -0.10430214 -0.029526228 -0.1052073 0.07029012 0.093544014
-0.058929928 0.12357779 -0.049567148 -0.012869577 -0.09136818 0.06632902 -0.022743758 -0.11044079
-0.06737771 0.11210123 -0.054930184 0.1327041 -0.028517868 -0.05819468 -0.15397206 0.007434887
-0.04635211 -0.073467225 0.042766325 0.01359279 0.0840091 0.041344073 0.014377564 -0.021221798
-0.050893873 -0.00819132 -0.06651657 0.05674867 -0.00032451793 -0.14822184 -0.1308122 0.07665377
0.06522426 -0.0059922156 0.10383098 0.07218999 -0.08331384 -0.08069427 -0.040240493 -0.14138044
0.09759695 -0.0074640657 0.0022179768 -0.06594461 0.053896174 0.07999323 -0.1328079 0.11914404

rnn.bias_ih_l0_reverse f4 [256]
00000000: 553a d53d 025b 833d b6c6 a33c b0df f13d
00000010: 5c29 583d 66d6 07bd 9611 a5bd 7d9b 2f3d
00000020: 16c4 aeba 067c c73d fd54 4fbd be98 063e
00000030: bbc3 163d 28ff 40bd 5d31 333e 9633 c43d
00000040: bb32 4abd 2f04 833d 21e4 1a3c f08c aa3d
00000050: dbc8 0f3d 753c 28bd 99f5 173e 5ffa 223c
00000060: a6dc 74bd f777 f73d 8c1e 253e 6599 4bbd
00000070: acf6 86bd 57c4 cbbb 8f21 733d 6129 e43d
00000080: 3868 873c 0e5a 4ebd d5ce 2e3e 40b1 9c3d
00000090: ca61 c13c 3ffe 983d ccfa 64bd edcb 003b
000000a0: 5c9e ad3d 2aaf 0d3e ced6 e13d 6e87 cd3d
000000b0: 32af 183d 395d 4ebd 3908 2ebd 3424 c43d
000000c0: bd0b 4bbc 7133 4fbc b13e 293d 09d1 ed3d
000000d0: adac dfbd 8b8b 31bd abac 73bd 8a8a 2e3e
000000e0: d983 7a3c 8cf7 2f3d ec91 983d d684 0abe
000000f0: 8ffc 42bd 7b5c 863d 0a0e 2b3e 180f 8c3d
00000100: 9951 953d a641 dd3d 54a8 84bd a630 e13d
00000110: 801b 503b c0be 573d e7ce 2d3c 7a79 bcbd
00000120: 3f84 ab3d 62e3 0d3d 1b6c 373c 03de 6c3d
00000130: bfa0 c73d 8a6c 0b3e 80ec 433a ba90 9b3d
00000140: be61 7fbc 7f92 413c 6918 913d 4890 0c3d
00000150: d4bf 0e3e bec4 2c3e b895 ce3d bc05 42bd
00000160: 3349 153d d6cc 19bd cfa4 9abd bcc1 833d
00000170: 46cb 7d3d bfa3 90bc c1fc 92bc 5bff 983c
00000180: 7b2f 643d a9ec 373d da25 953d b88c a23c
00000190: 1236 b2bd f97c b23d 5cd9 e03c 1d5b 253d
000001a0: 0927 0d3e 67da 6ebd d2cc b83d 5191 153d
000001b0: 0747 13bd 50b2 803d 8387 bc3d f93c 913d
000001c0: 476b 03bd 8769 aabc 48ec 163e 1729 153d
000001d0: 3b5d fe3c edfa 05be b843 713c ec95 313d
000001e0: ee3c 9fbc b56b ca3c 6aff 23bd e5b7 00bd
000001f0: c3e7 5f3d 0db0 4bb8 5dec 35bd ddfc 9b3d
00000200: 6e76 d3bd 0a0a ff3d e4d5 aabc 611b e0bd
00000210: 3f80 d53d 00e0 7ebd d28c ebbd 8c9f c73d
00000220: 1f74 b23d 2771 3f3e cf89 063e eeed 733d
00000230: 2275 003e 166d e2bc e981 1cbe 1cf0 023b
00000240: ec8c 2dbd 7438 2c3e 6247 d03d 5be2 8abd
00000250: 3293 1dbe d9d1 b13c 6ed7 493c e075 8bbd
00000260: 5d7a e63d f9a0 0d3d 97b5 d73c 32e5 933d
00000270: 5ea6 b1bd d4ad f3bc b856 403e 7208 843d
00000280: db12 433e c224 b4bc fb13 86bd 8295 1bbd
00000290: 55c7 fdbc c1d5 843d 257b a3bc 69f2 0cb9
000002a0: 350a dcbc 3f93 203e 5c12 2a3e d8de d9bd
000002b0: 139d b3bd f83c 52bd 2021 9a3d 3c22 4cbd
000002c0: 8ad6 233c b766 f4bd bba8 103e 4446 2ebd
000002d0: 01b5 f03d bb85 96bd 39f8 053e 1313 f1bd
000002e0: 66fa 51bc e769 4ebd 9ff4 a63d 1cc8 04bc
000002f0: 2641 20bb a846 14be 5d90 ebbd de36 b5bd
00000300: 8607 233d 31bc f93d 34c3 203e f7ea c63d
00000310: 06f7 383e 860d 90bd fa36 2c3d 0ecd 663d
00000320: 0349 b43d d64b 303e b4ff 883d b857 e63d
00000330: 1f8d 813d ab74 013e d444 ba3d eb01 afbb
00000340: 6696 cdbc 0d07 10bd 5ecb 5f3d 4f2e 253e
00000350: 7ab8 2b3d b37c 8e3d 29d8 113e 5774 b8bb
00000360: 5115 f63d 31dd 2bbd d816 a33d 5dff ea3c
00000370: 8b34 213d e307 183c f956 a7bc 7ddf fe3d
00000380: 1bae 663d c374 cb3d 1454 dcbc b019 0d3e
00000390: 73d6 a1bc c0d7 c93b b8b2 613d 5316 1f3e
000003a0: 4404 093d b021 1c3e 017b 88bc 5592 0a3e
000003b0: b9c2 b23d 13f5 81bd 0139 b83b 32f8 9abd
000003c0: 3a2f 0f3d 1140 9bbd 0894 f03d a881 41bd
000003d0: 3dfc 313e 5eba 043e 9256 1c3e f138 d03d
000003e0: 0a1a acbd eb1b d33c 0542 0f3e e849 143e
000003f0: 754e f0bb 557d 353d c1f0 8abd df78 863d
0.104115166 0.06413843 0.019992214 0.11810243 0.05277382 -0.03316345 -0.08059995 0.042872895
-0.0013333585 0.097404525 -0.05061816 0.13144204 0.036807757 -0.047118336 0.174993 0.09580152
-0.049364787 0.06397282 0.009453804 0.08327663 0.03510366 -0.04107328 0.14839782 0.009947388
-0.05978074 0.12083428 0.16124934 -0.049706835 -0.06590018 -0.006218474 0.059358176 0.11140705
0.016529188 -0.05037885 0.17071088 0.07650995 0.0236062 0.074703686 -0.05590324 0.00196528
0.0847747 0.13836351 0.11027299 0.10035597 0.037276454 -0.050381873 -0.04248831 0.09577218
-0.012392935 -0.012646542 0.041319553 0.11612136 -0.10921607 -0.04334597 -0.05949084 0.17045036
0.015290224 0.04296069 0.074497074 -0.13527235 -0.04760414 0.06560608 0.16704574 0.068388164
0.07290954 0.10803537 -0.064774185 0.10995607 0.0031754673 0.052672148 0.010608411 -0.09202857
0.08374833 0.034640677 0.011195208 0.057828914 0.09747457 0.13615623 0.0007473901 0.07595964
-0.015587268 0.011814713 0.07084734 0.034317285 0.13940364 0.16871926 0.1008715 -0.04736875
0.03644676 -0.037548862 -0.07550966 0.06433436 0.061961435 -0.017656205 -0.017942788 0.01867645
0.055709343 0.04490343 0.0728261 0.01984249 -0.08701719 0.08715243 0.027447395 0.040370096
0.13784422 -0.058313753 0.090234414 0.036515538 -0.03595641 0.062840104 0.09205534 0.07091708
-0.03208473 -0.020802272 0.14738572 0.03641614 0.031050315 -0.13084002 0.014725618 0.043355867
-0.019438233 0.024709562 -0.040038504 -0.031425375 0.054664385 -4.856293e-05 -0.044414867 0.07616589
-0.10325323 0.12453087 -0.020853944 -0.10942722 0.104248516 -0.06222534 -0.11501469 0.09747228
0.087135546 0.18695508 0.13138507 0.05955308 0.12544683 -0.027639907 -0.15283932 0.0019979542
-0.04237072 0.1681841 0.10169865 -0.06781455 -0.15388182 0.021706508 0.012319429 -0.06809592
0.11253808 0.034577344 0.026331706 0.0722145 -0.0867431 -0.029745974 0.1878308 0.06446923
0.19050162 -0.021990184 -0.0654678 -0.03798438 -0.030978838 0.06486083 -0.01995618 -0.00013441745
-0.026860336 0.1568117 0.16608566 -0.10638207 -0.08770194 -0.051327676 0.07525849 -0.049837336
0.009999881 -0.11933654 0.14126866 -0.04254748 0.11753274 -0.07349726 0.1308297 -0.11771216
-0.012816047 -0.050393965 0.081521265 -0.00810435 -0.0024452894 -0.14480078 -0.115021445 -0.08848356
0.039802097 0.12194098 0.15699464 0.09712785 0.18062982 -0.070338294 0.042044617 0.0563479
0.088029884 0.17216429 0.066893965 0.112472 0.06325745 0.12642162 0.09095159 -0.005340805
-0.02509613 -0.035162974 0.054637305 0.16130947 0.041923977 0.06957378 0.14242615 -0.005629103
0.120157845 -0.04195899 0.079633415 0.02868622 0.03935675 0.009279224 -0.020427214 0.12444971
0.056318384 0.0993438 -0.02689556 0.1377933 -0.019755578 0.0061597526 0.05510208 0.1553586
0.033451334 0.15247226 -0.016660215 0.13532384 0.08728547 -0.06345572 0.00562203 -0.07566871
0.034957148 -0.07580579 0.11746985 -0.04724279 0.17381378 0.12961718 0.15267399 0.10167111
-0.08403404 0.025770148 0.13990028 0.14481318 -0.0073335716 0.04430898 -0.067842014 0.06566023

rnn.bias_hh_l0_reverse f4 [256]
00000000: 777f bc3d d52d a5bc f065 823d 37e0 2e3e
00000010: 892a b13d 2bcf d7bd 2296 cdbd b80f 133d
00000020: 7c6e 103d 64a2 333e 22a4 45bc 9bdc d23d
00000030: 9fe4 06bd 9d54 683d 0d08 c8bc f032 a1bb
00000040: cb69 cabd aabb cd3d 1438 d2bc f0ae 913d
00000050: 55a5 43ba b61f 84bc 6f0a 133e 679e 4fbd
00000060: ff36 213e fff3 323e 33f7 533e 2998 84bd
00000070: f5b7 b5ba d35e 9abc 68dc c23d 5928 233e
00000080: bfce 8c3b d1df 6d3d dc43 a23d f4fe bc3d
00000090: 8644 fb3d a060 ae3d 4d38 0d3c 4e16 ac3b
000000a0: c357 bf3d b262 c43c 1ed9 f3bd 4071 353e
000000b0: 5b32 383d 508c 7cbd 17a6 8b3d 05bc 8d3d
000000c0: 8130 083e 523a d73c 101e 22bd 9342 7cba
000000d0: c1c9 e43d 62e7 be3d 2b0e b73d 011c cabb
000000e0: 2872 f03d 64f0 143e a07f 8b3b a019 0abe
000000f0: 22cd 073e 174e 613e c137 ea3d a4a0 2a3d
00000100: 4937 bb3d f743 e13d a285 073e 84e5 ce3d
00000110: 2e7d a43d 2df0 f33c 420a f73b b6ad c23d
00000120: 8619 273d b2fe e63d 2129 babd 4b6a 903d
00000130: 416e 823c d32f ccbd 3d18 963b a3e3 bcbc
00000140: a4e9 2e3d 8be3 dd3c 8e33 4bbc 4512 553d
00000150: 8e1b 093e 9b79 893d 36d2 933d 1e6d e9bd
00000160: fd75 953d 41e9 b1bd 919c 19bd ef87 4a3d
00000170: 2c08 ab3d caf3 10be 6f21 c2bd d8a3 803d
00000180: 7e45 b4bd b582 213d b6fb ae3d 326d 843d
00000190: 6dda b23c e567 24bd 5da1 0d3e e90d 4d3d
000001a0: 1398 cabd b3da 773c 7b78 503d 103f b0bd
000001b0: 2482 9b3d 0d03 4a3d 7ac5 4bbd 590b 82bd
000001c0: bf0a b0bc 2948 4cbd 3a6b 15bd f5bc 2d3d
000001d0: e444 123e 1676 d53d 37f8 86bc 3942 053e
000001e0: 84a9 f4bc 87df cd3d 665e 0ebe 055c 053d
000001f0: 85ac fabb 1468 ce3d 7a17 96bd 228d 493d
00000200: a884 30bc 6f7d 103e 5c51 ea3d d80a acbd
00000210: acc6 233e b142 12be 2e59 e0bb 640b 95bc
00000220: d0a5 433e fe1a c23d 7922 233d 855c b8bd
00000230: c5ff 4d3d 8d5b b9bd b52f 0dbe 6491 a93c
00000240: 78f0 fbbd db45 3c3e 50f3 a13c eda9 4f3d
00000250: 56bf 0bbd 5785 84bd da63 1a3e 28be 203c
00000260: d7d7 d03b df64 1cbd 1a1d 7a3d ad4a 8a3d
00000270: a4d4 03be c889 c73d 4e65 d93d a709 243e
00000280: 4f9a 543c 7551 953c 636f 3bbe a0ce 42be
00000290: 5110 133d 28cd b13d b211 fe3d af19 95bc
000002a0: 378d ecbd 93a8 a43d 402c a63c ccf8 153c
000002b0: cc64 52be 71fd 8fbb 8b2c 4c3d 071f bb3d
000002c0: de4d 243d a7d6 26bd 3fbe 153e c77d 4a3d
000002d0: d16d 8fbd ebf7 03be 3f45 153e 1602 18bd
000002e0: ba18 fd3c 1351 653d 9497 c03d a996 f5bd
000002f0: 08c1 4d3c 131d 3abe 6768 f5bd a610 7c3d
00000300: f1d2 273d ea5c dfbc 549a 063e 8bdf 153e
00000310: 723e 453e bb01 1fba 40cd bf3c 00ed 533d
00000320: 1cf9 c7bc b51b 3d3d b4e9 98bd 239c 1dbd
00000330: 543b fc3d 76b5 923c f7fc 0a3e a2df ddbc
00000340: 07e3 8d3d 866b 113e 31dc 60bd e2bb 20bc
00000350: 514a 1c3e 7c15 2d3e 59ca 6e3d cf6a b9bd
00000360: 99c8 a63d 0e5c 023e 2442 153e 0e56 24bd
00000370: ed8e bebd efda 3dbd 0acc f63d d215 3cbd
00000380: bc6d 93bc 2a1a 85bc 5bdd 14bd 84b8 933d
00000390: 61cd 96bd 5964 4cbd bcf4 03bc 8d38 30bc
000003a0: b4a3 e8bc 70f7 bf3d ecb2 a8bd c06c 4a3c
000003b0: ae24 093e d0e5 9d3c 4730 3e3c d211 90bc
000003c0: 41a1 483c 3f04 68bd 3db7 243d 68ea b93d
000003d0: 8dca 56bd 3fa1 793d c667 863d 25bd 763d
000003e0: 6d6e b43c 0717 a7bd 6452 ccbc 3f7a 59bd
000003f0: 3070 b4bc 8f7c 493e 39b3 993d 5d06 75bc
0.092039995 -0.020163456 0.06367099 0.17077719 0.08650691 -0.10537561 -0.10038401 0.035903662
0.035261616 0.17542416 -0.012063058 0.102959834 -0.032932874 0.05672132 -0.024417901 -0.0049194023
-0.0988346 0.1004556 -0.025661506 0.07113445 -0.0007463296 -0.016128402 0.14359449 -0.050688174
0.15743636 0.1747589 0.20699768 -0.06474335 -0.0013864028 -0.018844044 0.095146954 0.1593336
0.004297107 0.058074776 0.079230994 0.09228316 0.12268929 0.085145235 0.00861938 0.0052516824
0.09342911 0.023972843 -0.11906646 0.17718983 0.044969898 -0.06165725 0.068187885 0.069206275
0.13299753 0.026272926 -0.03957945 -0.00096229574 0.11171294 0.093214765 0.08938249 -0.006167889
0.117405236 0.14544827 0.0042571574 -0.13486338 0.13261846 0.22002445 0.114364155 0.041657105
0.09141404 0.109992914 0.1323457 0.101023704 0.08031689 0.02977761 0.0075390646 0.09505789
0.040795825 0.11279048 -0.09089876 0.07051524 0.015921714 -0.09970059 0.004580526 -0.023057764
0.042703286 0.02708604 -0.012402428 0.052019376 0.13389418 0.067126475 0.07217829 -0.113977656
0.07297895 -0.08687068 -0.03750283 0.049446043 0.08351168 -0.14155498 -0.09479033 0.06281251
-0.08802317 0.039431293 0.08544104 0.0646614 0.02183267 -0.040138144 0.13831086 0.050062094
-0.09892287 0.015127826 0.05089615 -0.08605778 0.07593182 0.049319316 -0.049748875 -0.06349821
-0.0214895 -0.049873505 -0.036479212 0.04241653 0.14284092 0.10422914 -0.01647578 0.13013543
-0.029865988 0.100524 -0.13903198 0.03255846 -0.0076499605 0.10078445 -0.073286965 0.04920686
-0.010773815 0.14110349 0.11441299 -0.08400506 0.15993756 -0.14283253 -0.0068465685 -0.018193908
0.19106221 0.094778046 0.039827798 -0.09002022 0.05029275 -0.09050665 -0.1378773 0.02069921
-0.12301725 0.18386023 0.01976934 0.050699163 -0.03411802 -0.06470745 0.15077153 0.009810962
0.0063733864 -0.038182136 0.06106291 0.067525245 -0.12874085 0.097430766 0.106150255 0.16019307
0.012976243 0.018227318 -0.1830421 -0.19024134 0.035904232 0.086817086 0.12405719 -0.018200723
-0.11550372 0.080399655 0.020284772 0.009153556 -0.20546263 -0.0043942262 0.049847167 0.09136777
0.040113322 -0.040732052 0.14623354 0.049436357 -0.07003368 -0.12887542 0.14577197 -0.037111364
0.03089558 0.05598552 0.09403911 -0.11991627 0.012558229 -0.18175153 -0.11982804 0.061539315
0.040972654 -0.027265985 0.13144809 0.14636056 0.19262102 -0.00060656265 0.0234133 0.051739693
-0.024410777 0.046169 -0.0746645 -0.03847898 0.123160034 0.017908793 0.13573061 -0.027084175
0.06928068 0.14201173 -0.05489749 -0.00981042 0.15262724 0.16902727 0.058298443 -0.09053575
0.0814373 0.12730429 0.14576012 -0.04012113 -0.09304605 -0.04635137 0.12050636 -0.045919247
-0.017996661 -0.016247828 -0.036343914 0.07212928 -0.07363392 -0.049900386 -0.008053955 -0.01075567
-0.028398372 0.09373367 -0.08237252 0.01235503 0.13392898 0.019274622 0.01160819 -0.017586622
0.012245477 -0.056644674 0.040213812 0.090779126 -0.05243926 0.060944792 0.06562762 0.060238976
0.022025311 -0.08158689 -0.02494163 -0.0530951 -0.022026151 0.19676422 0.07504887 -0.01495513
