16 - Recurrent Neural Network/model/bilstm/weights_best.pth (torch, 939287 bytes, 25 tensors)

rnn.weight_ih_l0 f4 [256, 1]
00000000: 0d31 f53d 45eb 273e e9a0 c5bc 99fa 05bb
00000010: bd4f a0bd 87b0 1f3d 85db f4bc 6d8c 043e
00000020: d9c7 27bd fd81 9b3d 0c3c b2bd 5051 703c
00000030: 08aa e43d cc11 b03d 7240 b53d 007a 163e
00000040: ee1c 1a3e facd 6ebd 7370 8b3d d21d c9b9
00000050: 7fdb 553d a653 51bc 8526 293e ba53 873d
00000060: 9d53 a9bd aa34 353d 0ec1 863d cc05 093e
00000070: 58df cf3d 23c9 223e bc3f af3d ae88 603d
00000080: 2bf6 60bd 958c 1e3d 8cc2 ad3c 225f 0d3e
00000090: 961e 4b3d 83f0 0a3d 790c 083e 34d2 843d
000000a0: b5ac 9d3d 97d3 8f3d 4c0d c83c aa02 95bd
000000b0: 85ce b63b dfa4 a73d 8d93 973d c7c7 733c
000000c0: d2c7 9c3a aedb 123c 0d93 87bc 0f70 0c3c
000000d0: 2480 0d3e 4b09 2e3e d5d2 4c3d 25e7 423d
000000e0: 6b66 70bc 8ee7 9b3d 9d79 3b3e a52e 023e
000000f0: 5b54 f73d 7e4d ef3d f664 873d c23b a4bc
00000100: 68d2 d03d 9728 6cbd 2d67 8e3d 2283 0fbd
00000110: 4415 cabd 4890 aa3d b28d 843c 3b1f 4a3d
00000120: 1958 eb3d 12f3 72bb 2670 30bd d24b 1b3d
00000130: 9ceb 6fbc aaf2 47bc bd65 ed3d 8ec2 903a
00000140: c63d 563d 622c 353d 10d5 183d 0f18 763d
00000150: c210 14bd ec58 5b3d c107 0fbe 716b 003e
00000160: b7fa a43d 39b3 bc3c beee e13d 09ad c63d
00000170: ceb4 d13b f532 0ebe 51e7 e03c bec5 87bd
00000180: 204f 18bd e392 13bd 66b0 9a3d b9e0 903d
00000190: e763 073e 79a0 efbd ea06 9fbc 9e36 0e3d
000001a0: 0848 493d 5b15 a0bb 4c48 093d 2123 ac3d
000001b0: 17fa 503d c23d 5a3d c1d5 71bc 666a c4bd
000001c0: 6a58 8cba 46c4 063d 38f5 1bbd d038 ce3d
000001d0: a7a4 c03c 358e 7b3d 6bab 87bc 394f 893b
000001e0: b1b2 f13c ff71 afbc ef30 3b3c 6d76 913d
000001f0: 571e 7fbd 290c 5abc 98ff 093e 9add 24bd
00000200: 801e 963d f1d6 bd3d 9c90 d6bd e834 edbd
00000210: 760e 08be 85f8 063d 8bee 9c3d 0861 6e3c
00000220: 4afb eb3d c711 be3d 34be a93d c17f 323d
00000230: b6eb 8c3d 7b2e 983d 56aa 813d 0d76 a13d
00000240: 4920 bbbd 3482 e6bd dd8b 8a3d 7fad bb3d
00000250: 5632 043e 17b5 273c 4d2f c13d 50a8 a2bd
00000260: e621 523d c225 90bd 677b 023e 743d df3d
00000270: ecfd 22bc 8c53 b83d 698a 82bd 60eb 393d
00000280: bdb5 62bd f3d3 df3d 055c 5e3d 6fd9 503d
00000290: e0c9 eabd 9877 a83d 745d 033e 0435 2b3d
000002a0: c4c8 af3d bfdb b33d 891c 00bd 1a5a 5d3d
000002b0: 2f2b debd 26e2 9ebd 5328 003e a387 ffbd
000002c0: f598 0a3e 16f9 f0bd e785 243d 532b fe3c
000002d0: d246 0dbe d035 063d 5516 7a3d 1894 553d
000002e0: cc5e c33d c620 443d 5bdb 963d b7aa b03d
000002f0: ca22 c33d 5a55 09be 02a9 863d 9bf6 a43d
00000300: 37b0 3a3d 58c8 e83d 3223 b03d 470c e33d
00000310: 842d 87bd 1788 a93d 1858 2a3e 60b2 b7bd
00000320: db93 cd3d b2f2 863d f8cb 8c3d 34ef 4b3d
00000330: 67db 4dbd ef20 433d 3417 f13d ab1c 853d
00000340: db40 c03d 70ca 33bc 1450 5e3e 14af ef3d
00000350: 4c8d ad3c bdf8 ce3d 5955 953c 3777 8738
00000360: f172 75bd 34ec 84bc 580e e33d 847a 1a3e
00000370: dfe9 563b 4309 923d 6af9 c63d d333 873d
00000380: 8103 62bd c16c 803d a56b e73c 86ad 91bd
00000390: 0729 1d3e f07f ea3c 056f 073d 22e2 cbbc
000003a0: 67c2 a2bc ba2b c7bc 750f 83bc 71f8 833d
000003b0: bffe 273d 3f07 8ebd 2c28 bd3d 52c8 953d
000003c0: d112 b2bc 13fb 413d 6603 9b3d adc4 c23d
000003d0: 24da 41bd c76d fabd 6e92 363b 2fa9 80bc
000003e0: c1a3 bb3c 52f2 323e ee18 423c 1863 753b
000003f0: 1c06 273d 8b93 243c dc59 453d f010 123e
0.11972246 0.16398342 -0.02412458 -0.0020443557 -0.07827709 0.03898671 -0.029889831 0.12944193
-0.040962074 0.07593153 -0.08702859 0.014667824 0.111652434 0.085971445 0.088501826 0.14694977
0.15050098 -0.058301903 0.06808557 -0.00038359925 0.05221128 -0.012776291 0.165186 0.066077664
-0.08267901 0.044239677 0.06579791 0.13381118 0.10150021 0.1589704 0.08557078 0.054817848
-0.054922264 0.03870829 0.021210931 0.13805822 0.049589716 0.033920776 0.13286008 0.064854056
0.07698957 0.070227794 0.024420403 -0.07275899 0.0055788183 0.081857435 0.0740119 0.014879174
0.0011961407 0.0089635085 -0.016549611 0.008571639 0.13818413 0.16995732 0.050005753 0.047583718
-0.014672856 0.07612525 0.1830811 0.12713106 0.120766364 0.11684702 0.06611054 -0.020048026
0.10196382 -0.057655897 0.06953273 -0.035037167 -0.09867337 0.08328301 0.016180847 0.04934619
0.11491413 -0.003707115 -0.043075703 0.037914105 -0.014643576 -0.012203852 0.11591671 0.001104431
0.052305005 0.04423178 0.037312567 0.060081538 -0.036148794 0.0535516 -0.13967802 0.12540986
0.080556326 0.023034679 0.110318646 0.097009726 0.0063997274 -0.13886626 0.02745405 -0.06629513
-0.037184834 -0.036028754 0.075531766 0.070741124 0.13221703 -0.117005296 -0.019412477 0.034720056
0.04914096 -0.0048853583 0.033516213 0.08405138 0.051019754 0.053281553 -0.014760436 -0.095906064
-0.0010707502 0.032902025 -0.038075656 0.1006943 0.023516012 0.061414916 -0.01656123 0.0041903523
0.029504152 -0.021416662 0.011425241 0.07102666 -0.062284794 -0.013308563 0.13476408 -0.0402504
0.07330036 0.092695124 -0.10476801 -0.11582357 -0.13286766 0.03295185 0.07662686 0.014549501
0.11522539 0.092807345 0.082882315 0.043578867 0.06880896 0.074307404 0.06331317 0.078838445
-0.09137017 -0.11255303 0.06764958 0.09163951 0.12909827 0.010236046 0.0943285 -0.07942259
0.05130186 -0.07038452 0.12742387 0.10900393 -0.009948235 0.0900031 -0.06374056 0.045390487
-0.0553491 0.10929098 0.054286975 0.05098861 -0.11464286 0.08225936 0.12828618 0.041798607
0.08583215 0.087821476 -0.031277213 0.054041006 -0.1084808 -0.07757978 0.12515382 -0.124770425
0.13534911 -0.11766259 0.04016676 0.031026518 -0.13796547 0.032766163 0.061056454 0.052143186
0.095395654 0.047882818 0.073660575 0.08626311 0.0952812 -0.13411465 0.065752044 0.08054849
0.045578208 0.113663375 0.08600463 0.11086326 -0.06600478 0.0827791 0.16635168 -0.08969569
0.10037967 0.06589259 0.068748415 0.04978867 -0.050258067 0.04763883 0.11772004 0.064996086
0.0938737 -0.010973558 0.21710235 0.117033154 0.02118554 0.10106037 0.018229173 6.459507e-05
-0.05992407 -0.016225912 0.1108672 0.15085799 0.0032793207 0.07130673 0.09715541 0.066016816
-0.055179123 0.06270743 0.028249571 -0.07113175 0.15347682 0.028625458 0.03306486 -0.024888102
-0.019868089 -0.024312843 -0.015998581 0.06443871 0.04101443 -0.06934976 0.09236178 0.07313599
-0.021737488 0.047358584 0.075690076 0.09510169 -0.047327176 -0.122279696 0.0027858275 -0.015705673
0.022905232 0.1747525 0.011846764 0.0037443098 0.04077731 0.010044943 0.0481814 0.14264274

rnn.weight_hh_l0 f4 [256, 64]
00000000: 28c4 7f3c 06cc 80bd 34df 713d 691b 92bd
00000010: bb96 81bd b5ec a0bc 2958 18bc 009f 13bd
00000020: 3331 ecbd 823b c33d cba8 123d 2c2e 7ebc
00000030: ef32 7bbd d4a7 983d a8cf 093d 9213 2a3d
00000040: 0778 fbbd 15bf 01be 430a 343c 1704 5d3d
00000050: b79f f43d 59e1 a4bd 5b0b c8bd bcac cebd
00000060: c413 983b 4816 8a3c c620 82bc 6c00 ab3d
00000070: 162a b2bc ba56 983d 76d6 c8bd af99 fa3d
00000080: 3bf2 13bd 6803 36bc 1a2d 32bd 1e6c a83d
00000090: 5c52 dbbd f50f a13c ead8 f5bd 245f f03d
000000a0: 59e2 00be 6575 fd3c 22dc 9bbc a79b b93d
000000b0: 15ca cabc 343d 7c3d 6742 55bd 04b1 c53c
000000c0: 4468 08be 0a09 ca3d efdf 83bc 03ca 523a
000000d0: d916 5fbd 22fc 5ebd 2714 a53c b933 703d
000000e0: f729 56bd 2e96 043d ff07 3bbd 7288 93bd
000000f0: 67f7 043c 667a 783d 7ba9 923d 1a1f b6bd
00000100: 836c c13d 0597 073e 5ba7 693d 6f9b d33d
00000110: 10bf 61bb 3004 de3d 8173 0dbd 891b 683d
00000120: a925 273e eb9b a9bd 2b80 0ebd e0aa bbbc
00000130: 2f60 103d 22e7 76bd 7a08 3abd 9c8f 35bd
00000140: e8e5 bfbd 9e9a c3bd 53c8 873c e230 f93d
00000150: 926f 4abd 37bc 16bd f677 7d3d 5b90 023d
00000160: e727 fd3b 1315 e2bd 6318 2d3d f572 b7bd
00000170: ce6a a0bd 4f40 f4bc d17a 943c 41bf a53d
00000180: 2009 c83d 90d5 9d3c 7743 14bd 1670 b7bd
00000190: d9d3 623d 3ec1 d9bc c229 aa3d 1a4a be3c
000001a0: 4d5e f3bc b98f 19bd a23a 14bd c6cb 803d
000001b0: 0a1e 29bd 525a eebd 580f 44bd fe31 82bd
000001c0: 1424 803a a195 65bd d79c cbbc 9c4b 293e
000001d0: 5219 e1bd a15a 523d aefa 113e 18d4 50bc
000001e0: 09d5 eebd 92e6 b63b efaa 8c3c 487b d5bd
000001f0: 0184 0abe 62ba 573d d73d 103e 30d4 723d
00000200: de63 ec3d ce2b 9d3d 6a1e bfbd e358 b13d
00000210: b783 f7bd 2501 a23d e1fd 2fbd 867f e53d
00000220: 8fea dc3c 0a68 a03c fa93 453d 161c 2a3e
00000230: 93ff debc 25c5 033e 6b21 023d 53ec a6bd
00000240: a02a f9bd b80a d0bd 3949 083e cdc5 893a
00000250: 0281 a43d 5a09 123e e046 10bd 68f4 1fbe
00000260: 6bd0 8e3c 1c89 a9bd dd2b 103e ade8 ae3d
00000270: 6d9d d3bd 3e54 093e 25bb c83c 18a7 223e
00000280: f822 5b3d 4cba 553d a27d e43d fa65 143e
00000290: d40e 4dbd a053 bb3c cf51 b23d c50e c93d
000002a0: a421 5cbd 26c9 edbc 52f8 833c bf14 debc
000002b0: 1495 973c 6ffc acbd c8df 133e c4f2 97bc
000002c0: e2e2 24bd 16d3 1abe ecf8 0e3e 29cc 893d
000002d0: f638 7b3d c199 e43d d639 fbbc 0520 173e
000002e0: 592b ca3c 6d57 c23d 3784 4b3d 03b2 adbd
000002f0: b7d9 c03c 3e60 bf3c 0747 81bd 4db4 9c3d
00000300: 0965 003d 49e9 023e 1d06 16be e93f 253c
00000310: 5ec9 d63d f25f 2b3e dbc6 2d3e 1a4d bb3d
00000320: a153 283e 6395 e63d 8910 283d 3b15 633d
00000330: aade 343e 7f89 28ba 4546 303e e0a4 83bd
00000340: 42a3 1cbe d65a b53c 57d5 993d 1956 003e
00000350: 255b 493e c05d ef3d 978f d43d de58 0bbc
00000360: 4131 f13d 188b 9ebd 7978 79bd e8f0 613d
00000370: 9418 f13c bb40 eebd 8091 f53c a86f ffba
00000380: 075c 9c3d 2d83 683d 5248 623e b8ea dc3c
00000390: 8c94 5b3c 55bd 183d 8e56 b3bd c647 2abd
000003a0: 6cd4 4b3d 6be9 8bbc d295 69bd d4f1 f13d
000003b0: 53e1 40be 0f21 983c 22ff 253e 9bae e0bd
000003c0: 40f7 303c 81f3 923c 2886 bb3c b31a 4f3c
000003d0: 7a37 1fbe ecb9 7cbd 89c5 383e e677 cc3d
000003e0: 10a6 813c 82fb a8bc 2207 f03b 4036 863d
000003f0: dead c33c 45e1 663d ae39 323d 657f 0a3d
0.015610732 -0.062889144 0.059050754 -0.07134134 -0.06327578 -0.01964412 -0.009298363 -0.036040306
-0.115328215 0.095328346 0.035805505 -0.015513938 -0.06132787 0.07453886 0.033645302 0.04152257
-0.12278753 -0.12670548 0.010988775 0.05395898 0.11944526 -0.08050794 -0.09767791 -0.1009154
0.004641028 0.016856328 -0.015884768 0.0834969 -0.021748584 0.07438417 -0.0980653 0.12236344
-0.03611968 -0.011109211 -0.043500043 0.08223747 -0.10709068 0.01966093 -0.12004264 0.11736897
-0.12586345 0.030939767 -0.019025866 0.090628915 -0.024754563 0.061581805 -0.05206528 0.02413226
-0.13321024 0.09865005 -0.01609799 0.00080409663 -0.05446515 -0.05443967 0.020151211 0.058643077
-0.052286115 0.032369785 -0.045661923 -0.07203759 0.008115626 0.060663603 0.07161232 -0.08892651
0.09444525 0.13241203 0.05704437 0.10332381 -0.0034446158 0.108406425 -0.03453398 0.056666885
0.1632296 -0.08281692 -0.0347902 -0.022908628 0.035247978 -0.06027902 -0.04541824 -0.04432641
-0.09370023 -0.09550975 0.016575014 0.12167527 -0.049422808 -0.03680059 0.06188198 0.03187595
0.007725704 -0.11039176 0.042259585 -0.08957473 -0.078328714 -0.029815821 0.01812497 0.080931194
0.097673655 0.019266874 -0.036197152 -0.089569256 0.055377815 -0.026581403 0.08308746 0.023228694
-0.029708052 -0.03749058 -0.03618873 0.06288867 -0.041288413 -0.11638321 -0.047866195 -0.063571915
0.0009776377 -0.0560509 -0.02485506 0.16532749 -0.109911576 0.05135596 0.14255783 -0.01274588
-0.11661727 0.0055816853 0.017171351 -0.10423905 -0.13526918 0.052667983 0.1408609 0.05928439
0.11542486 0.07674371 -0.09331973 0.08659532 -0.120856695 0.079103746 -0.042966727 0.11205964
0.026967315 0.01958086 0.048236825 0.16612276 -0.027221477 0.12868173 0.03177015 -0.08150544
-0.12166333 -0.101582944 0.13309182 0.001051122 0.08032419 0.1426138 -0.03522384 -0.15620577
0.017433366 -0.08278105 0.14079233 0.08540473 -0.10332761 0.13411042 0.0245033 0.15884054
0.053500146 0.05217962 0.11156775 0.14492026 -0.05006297 0.022867024 0.0870701 0.0981727
-0.05374302 -0.02902658 0.01610962 -0.027109502 0.018503703 -0.084465854 0.14440835 -0.018548377
-0.040255435 -0.15119585 0.13962144 0.067283936 0.06133362 0.11162139 -0.030667227 0.14758308
0.024678873 0.094893314 0.049686637 -0.08481219 0.023541315 0.023361322 -0.063123755 0.07651577
0.031346355 0.12784304 -0.1465077 0.010086038 0.104876265 0.16735819 0.16970389 0.09145565
0.16438152 0.11258962 0.041031394 0.05544017 0.17663065 -0.000642918 0.17214306 -0.06427932
-0.15296653 0.02213804 0.075113945 0.12532844 0.19663675 0.11687803 0.1037895 -0.008505074
0.117769726 -0.07741374 -0.060905907 0.055161387 0.029430665 -0.1163344 0.029976606 -0.0019488232
0.0763474 0.056765724 0.220979 0.026967391 0.013402116 0.037289936 -0.08756743 -0.041572355
0.04976313 -0.017079076 -0.057027645 0.11813703 -0.18835954 0.018570451 0.16210607 -0.10970803
0.0108011365 0.017938377 0.02289112 0.012640643 -0.15548506 -0.061700746 0.18044104 0.09983806
0.015826255 -0.02062774 0.007325069 0.06553316 0.023886617 0.056367178 0.04351204 0.0338129

rnn.bias_ih_l0 f4 [256]
00000000: 440f 4ebd a1d4 7a3d d5d6 8ebd 6605 19bd
00000010: c364 aabd 701b 253e 9248 2fbd 26a3 0f3e
00000020: 47d8 063d 276d dd3d e192 babd 6666 fbbc
00000030: 9dac d63d 6a4c 4c3e a1e9 8b3d fe72 033e
00000040: ff94 823d 1cb5 b33d bf73 3a3d bef5 c3bd
00000050: 1af6 223e 1510 d23d 2859 1b3e fed9 113e
00000060: f938 b9bd f2c2 b7bc d7fb ae3d 1b0f a03d
00000070: 272f c0bd 8eed 513e 8e67 c73d 3a76 103e
00000080: 2788 19bd 4445 5f3d 11a4 5e3c 50be c53d
00000090: 2458 03bd 364c babd be1e 603e 71e1 873c
000000a0: 8b5d 713d 9ce6 d23d 5482 79bd 9426 2cbb
000000b0: 7639 fa3d 39af 073e 19bc f7ba bb37 0e3e
000000c0: 33e9 fe3d 1119 ee3d 3107 763c 04a0 1dbd
000000d0: d620 0ebd d5c4 213d 3c73 46bd 7e9c b5bd
000000e0: 2f37 de3d 6488 81bd d200 fcbc 6e8f f63d
000000f0: e858 273e d1cd fd3d e5b9 1a3d f718 62bd
00000100: f1a0 bdbc 07af bf3d eccd b43d b442 d2bc
00000110: fb52 bfbd b382 2ebd 50c9 d33c d0e4 f2bb
00000120: f138 abbd d73c c1bd 7650 053e d43e 943d
00000130: 00e2 913d c204 cabc a3ac 613d f69d e73d
00000140: 61cb fa3c 2ebc a4bd 33f4 fe3d 97f8 cdbc
00000150: fc8a 023e b396 2abd 3834 21bd 3b83 943d
00000160: d7aa 043d 343d 0e3e 6c9c 113e e9f4 243d
00000170: d8f0 343d 30e4 d0bd 48f1 71bd 283f 0c3e
00000180: 3a43 10be cd2a 8a3d 5bb3 dbbd d762 00be
00000190: 9624 bebc d8a2 4abd 7dd4 27be 30dc 033e
000001a0: effa 2c3c ef06 f73d 1104 103d b368 04be
000001b0: fb9a 39bd 1e85 733d 602a 33bc 6d8a be3a
000001c0: e976 efbd 8048 77bd 4413 99bd 060d 013d
000001d0: 760c e53d c98d dcbd 5d2e 093e de10 5d3d
000001e0: 06d0 563d be0d 083d 0aea c0bd 23fd 453d
000001f0: 1d8b 5b3d c82d 3a3d e41d ad3d 8aee 6d3a
00000200: 9e82 b9bc f323 fa3d 4b92 593b 252e e3bc
00000210: 673d c53d 22f9 d6bd fe84 2c3d 3cf0 7fbd
00000220: fc31 a83d 18e2 0bbe af98 18be dfb5 123e
00000230: 3f8f 9bbd 196f e8bd 099c 3f3d d82d bcbd
00000240: 8fff 23bd eec6 2cbd f7ec 24bb 9d5c bebb
00000250: 1a98 513d 2a68 1e3e f486 09be 6421 aa3d
00000260: 1ef0 7c3d bb88 c0bd d9d8 8abc bc54 a43d
00000270: 3e95 10be d230 0dbe a282 56bc 2bdb 053e
00000280: 9499 073d 0779 85bd a083 51bd b9b0 0ebd
00000290: d0d3 59bc 839b a4bd 26f6 09be 9800 c2bd
000002a0: 488f 3f3d 3f86 27bd e714 c13d e5bd c5bd
000002b0: 64b6 ecbd bf13 ccbc 6eef 373d 0e85 c3bd
000002c0: 2670 60bd 218f 2b3d 66a4 d23c 8a01 113d
000002d0: 2896 c63d 98a4 bdbb e37f dc3d 5c7a 1a3b
000002e0: 5641 143c 114f 893d b6ab 53bd f7a4 61bd
000002f0: 3b5f 05be 8e69 1a3e 9a66 b038 c70f 953d
00000300: a34d 213e 325d c53d 3cc9 f23b 927f 253d
00000310: 4b9d 0b3d c39c f43b 52ba ac3d c0b5 14bc
00000320: c431 90bd 36ab 1fbd cb1f 07bd 7679 50bd
00000330: 072b 123e 7078 e13d 4a33 a13d b670 3bbd
00000340: db1b 003e 1837 36bd 05c9 fd3c 87be 6c3d
00000350: 6f68 253c 9aab e93d d007 aa3c bb8e 39bd
00000360: 1234 0f3c 138b 0cbb 95d1 993c 22e6 3ebd
00000370: b6c8 103e b86a a83d f220 db3d 3bab 31bd
00000380: b30a e93d e496 463e 3f21 053e eadf 1d3e
00000390: d19c c8bd 0927 82bd de1b e53c b091 b73d
000003a0: f8ec a8bd 3528 873d ef17 18bd 9c2d 08bd
000003b0: a5fa 073e 68f0 203e be97 6fbd c1b9 003e
000003c0: 29a9 803d e46a 66bc a52a 973d 74d8 803d
000003d0: aad6 3d3c 78f6 e43d 80f8 d23d 501c 5ebd
000003e0: 67e0 a0bd fc94 d3bd b300 1dbd 953c a03c
000003f0: e707 253e c196 5a3e f07e 20bd 205e b7bd
-0.050307527 0.061237935 -0.0697457 -0.037358664 -0.0832 0.16123748 -0.042793818 0.1402708
0.032921102 0.10811835 -0.09110046 -0.030688476 0.10482142 0.19951025 0.068316706 0.12836835
0.06376075 0.08774778 0.04552054 -0.09568356 0.15914193 0.10256974 0.15170729 0.14243314
-0.0904407 -0.022431824 0.085441284 0.07815381 -0.093839936 0.20500776 0.09736548 0.141076
-0.03748336 0.054509416 0.013588921 0.0965544 -0.03206648 -0.09096567 0.21886727 0.016586991
0.0589271 0.102978915 -0.060915306 -0.0026268112 0.12217991 0.13250436 -0.0018900662 0.13888447
0.12446823 0.11625875 0.015016363 -0.03848268 -0.034699284 0.039494354 -0.04844974 -0.08867739
0.10850369 -0.063248426 -0.03076211 0.12039076 0.16342509 0.12392772 0.03777494 -0.05519959
-0.023148032 0.09359556 0.08828339 -0.025666572 -0.09341999 -0.042605113 0.02585283 -0.0074125305
-0.0836047 -0.094354324 0.13018975 0.07238546 0.07123184 -0.024660472 0.05509628 0.113094255
0.030614557 -0.08043705 0.12448921 -0.025142951 0.12748331 -0.041647624 -0.03935644 0.07251593
0.032389488 0.13890535 0.14219826 0.040272627 0.044175 -0.10199773 -0.059067994 0.13695967
-0.14088145 0.06746445 -0.10727569 -0.12537704 -0.023210805 -0.049471706 -0.16389652 0.12876964
0.010557874 0.12061869 0.035160128 -0.12930565 -0.045313817 0.059453122 -0.010935396 0.0014537104
-0.11692602 -0.060371876 -0.07474378 0.03150656 0.11184017 -0.10769231 0.13396592 0.053971164
0.05244448 0.03321623 -0.094196394 0.048337113 0.053599466 0.045453817 0.08452967 0.00090763776
-0.022645291 0.12213888 0.003319877 -0.027731964 0.09630852 -0.10496737 0.04211902 -0.062484965
0.08212659 -0.13660467 -0.14901994 0.14327191 -0.075956814 -0.11349315 0.046779666 -0.091884315
-0.04003864 -0.0421819 -0.0025165656 -0.00580938 0.051170446 0.15469423 -0.13430387 0.0830715
0.06175243 -0.09401079 -0.016949104 0.08023974 -0.14119431 -0.13788155 -0.013092669 0.13071887
0.033105448 -0.06517225 -0.051150918 -0.034836505 -0.013295129 -0.08037474 -0.13472804 -0.094727695
0.046767503 -0.04089951 0.09427815 -0.0965536 -0.11558226 -0.02491176 0.044906072 -0.095468625
-0.054794453 0.041884545 0.025713157 0.03540186 0.09696609 -0.0057874434 0.1076658 0.0023571467
0.00904878 0.06704534 -0.05167743 -0.055088963 -0.13024609 0.15079328 8.411445e-05 0.072784
0.15752272 0.09636916 0.007409243 0.040404864 0.034085553 0.0074649765 0.08433975 -0.009076536
-0.07040742 -0.03898164 -0.032989305 -0.050897084 0.14274226 0.110093 0.07871111 -0.045761786
0.12510626 -0.044486135 0.030979643 0.05779889 0.0100957 0.114096835 0.020755678 -0.045302134
0.008740442 -0.00214452 0.018776694 -0.04660619 0.14139065 0.0822348 0.10699643 -0.04337619
0.11378994 0.19393498 0.13000964 0.15417448 -0.09795535 -0.063551016 0.02796739 0.089633346
-0.08248323 0.06599466 -0.0371322 -0.03324662 0.13279207 0.15716708 -0.058494322 0.1257086
0.06282265 -0.014063571 0.07381181 0.06291285 0.011586824 0.11179823 0.10301304 -0.05422622
-0.07855301 -0.10331151 -0.038330745 0.019560138 0.16116296 0.2134657 -0.039183557 -0.089535

rnn.bias_hh_l0 f4 [256]
00000000: 32e9 c1bd a544 703d 1aee c73d af49 fe3d
00000010: 0b58 cabd 4f8e 153d aace 4a3c 4beb 82bb
00000020: 5585 a73d 3c61 e73d 01d8 8cbd 83d0 0c3d
00000030: 9d4a 6bbd d7e8 203e 8eaa d2bd 30d6 7cbd
00000040: 479e 89bd 38a8 113d 5f5a 9a3d 88ff 003e
00000050: 6a2a 3bbd 8bda 323b 1cf3 0c3e aff8 bdbd
00000060: 43d7 b73d aebe f8bc 1156 ba3d 8d53 283d
00000070: adae 033e b31e 193e 7fb6 cd3c 2979 173e
00000080: 7853 203e 9c27 5a3c 93ab 403d 6f63 15bd
00000090: 9ce3 debc 1782 55bd ed5c 523e 7a08 f13d
000000a0: 75ef c83d 9dbe 7dbd f85f bc3d 70af c93c
000000b0: b296 70bd 513c 0d3d 96aa a23d 354b 1cbd
000000c0: 772f 243e 7935 f83d a366 153c ccf7 d53b
000000d0: 82a6 033d f05a 48bd 0449 843d a7ac d4bd
000000e0: 47b8 b63d caa7 bb3b 7e50 843d f5dd 0bbd
000000f0: ed12 d83b ee51 823b 4ab5 df3d 880a 903d
00000100: 4daf 00bc 979c 82bd 2439 51bd 9e90 4fbd
00000110: 6cd4 62be 9f4f cbbb c466 613d 8759 4cbc
00000120: fd6e a6bd cfe2 fabc e0e5 103d 88a8 e8bc
00000130: 2023 9c3d ea55 eabd 9742 d0bb 9139 753b
00000140: 262c 8fbd 3da7 edbc 1efb 7c3a 60a7 edbd
00000150: 7b1b 033e b8f1 273e 48c2 0ebe 7c31 f83d
00000160: f2d1 003d eede c23d da28 bebd b171 edbd
00000170: 7d37 bc3c 28dd a5bd 5e30 bbbd 887d 383d
00000180: 67df fdbd 24db 543c 3c22 66bd 1bd8 83bd
00000190: c5cc e03d 641a f4bc 470c 19bd c173 c83d
000001a0: 7d77 f63d fb63 45bd 6af1 f43c 6eca 5c3c
000001b0: c306 263d 1a3b 1e3d 16b6 c9bd 9c7c 9b3c
000001c0: 3503 f2bc 8cfd a0bd 7ecc 0abe 2d2e 04bc
000001d0: 253f cebd d968 863b e44d 113c 7172 ed3c
000001e0: d240 ef3d 2917 983c d1dc 91bc a1d1 fdbb
000001f0: bca9 79bc 4381 513d 7eea d03d ea05 983c
00000200: a488 67bd fa54 963c c3f3 bcbb f2fd 1e3e
00000210: fb3c 1bbd 33b6 a2bc 663b 213e 9c4e d4bc
00000220: 5a1e 143e b3c1 3dbd fba3 f5bd 9fd1 363c
00000230: d756 a83c c52a 1c3c 62f3 903d 3f74 06be
00000240: 9e31 cbbd 711e c4bc 2e07 cd3d 22c5 98bd
00000250: 664a f33c 0671 623d f601 20be 7ec5 9ebd
00000260: 7dd3 b1bc 76a2 b73d 064d cebd 4462 e83c
00000270: 3acc 20bd ac6d f6b9 96e0 94bd 604d fb3d
00000280: c48f 3a3e b2ce 013e 2e53 733d 83c7 453b
00000290: 86f5 28bd 70fd bebb b0ab dfbc c8f7 9cbd
000002a0: 0e4d da3d 0702 7bbb 5dce b7bd 3012 fe3c
000002b0: 8469 813d f708 07be 1c25 79bd 6713 ce3d
000002c0: 0284 23be 31b2 5a3d f694 7c3d 7b5b c2bc
000002d0: d50a ccbd d200 d73d ce47 993d b2ed 1ebc
000002e0: 20e2 15be f9e7 b13d d0fb 8b3d 90c7 9abb
000002f0: 0d15 d1bc 166e 213d 0ef2 d9bd 8604 753d
00000300: e076 81bd 9104 e93d 5d39 383d 4c6f 07bd
00000310: f5e5 2c3d 68c7 7c3d bd07 bcbb 6b29 e83c
00000320: 3f83 98bc bc70 08bd af4a 9cbd 609c d4bc
00000330: c63e cb3c a8a6 e03d d7fb 113e 62f8 8abd
00000340: a595 b1bd d8f5 7a3d 0103 9abd ac38 083e
00000350: 106f 7b3d de9a 9d3d e2e7 003e 8020 bcbd
00000360: 0780 d13d af3f 0e3e 2179 ffbb 6fb0 56bd
00000370: d700 843c 8d03 eb3d 8305 723c ec7c 2ebd
00000380: 0775 e33d de0b 9b3d 2603 9ebc 7cef 0c3e
00000390: d107 e23c 6de1 593d 22a4 353e 038f 13bd
000003a0: b886 4bbb db5b c33c 2c9e 81bd 3a25 09bd
000003b0: 9fa6 803d 44a3 013e ef4a 2b3e cdd9 113d
000003c0: b1eb 163d b120 c3bc e4f1 9c3d 4670 5cbd
000003d0: e859 c7bc df20 183e c567 a43d 7227 843d
000003e0: 1d17 e13d 9528 d73d 7c3e 873d 2e30 27bc
000003f0: d68f 353e 2844 ed3d abab e0bc e26e 5e3d
-0.094683066 0.058659215 0.09762211 0.12416398 -0.09880074 0.03651267 0.012378374 -0.0039953343
0.08179728 0.11297843 -0.06877137 0.03437854 -0.057444204 0.15713821 -0.10286437 -0.061727703
-0.06719642 0.035560817 0.07536768 0.12597477 -0.045694746 0.0027290906 0.13764614 -0.09275948
0.08976605 -0.03036436 0.09098447 0.041095305 0.12859602 0.14953117 0.025111435 0.14792313
0.15656841 0.013315108 0.047038626 -0.03647178 -0.027208142 -0.052126016 0.20543261 0.11769195
0.09811298 -0.06194936 0.09197992 0.024619788 -0.058737464 0.03448135 0.07942693 -0.03815766
0.16033731 0.12119574 0.009118709 0.006529784 0.032141216 -0.04891485 0.06459239 -0.10384493
0.08921867 0.005726789 0.06460665 -0.03414722 0.006594053 0.003977052 0.1092325 0.07033259
-0.007854295 -0.063775234 -0.051079884 -0.050675027 -0.22151345 -0.00620456 0.055029646 -0.012472517
-0.08126638 -0.030625729 0.035375476 -0.028400674 0.07623887 -0.11442168 -0.0063555944 0.0037418345
-0.069908425 -0.02901041 0.00096504565 -0.1160419 0.12803452 0.16400802 -0.139413 0.121188134
0.03145022 0.09515177 -0.092851356 -0.115939505 0.022975678 -0.08098823 -0.09140085 0.04504159
-0.12396126 0.0129917 -0.056184992 -0.06437703 0.10976557 -0.02979774 -0.037365224 0.09787703
0.12034509 -0.048191052 0.029900271 0.013475997 0.040533792 0.038630582 -0.09849183 0.018980317
-0.029542545 -0.0786086 -0.1355457 -0.00806765 -0.100706376 0.0041018543 0.008868668 0.028985234
0.11682285 0.018565731 -0.017805489 -0.007745937 -0.015238222 0.051148664 0.10200976 0.018557508
-0.056526795 0.018351067 -0.0057663633 0.1552656 -0.037899952 -0.01986227 0.15745315 -0.02591639
0.14464703 -0.046327304 -0.119941674 0.011158376 0.020549221 0.009531681 0.070776716 -0.13130282
-0.09921573 -0.023940297 0.10011135 -0.07459475 0.029698562 0.05528357 -0.15625748 -0.077525124
-0.02170729 0.08966534 -0.10073285 0.02836717 -0.039257266 -0.00047002488 -0.07269399 0.122706175
0.18218905 0.12676504 0.0594055 0.0030178733 -0.041249774 -0.005828552 -0.027303547 -0.07664448
0.10659228 -0.003830077 -0.089749075 0.031014532 0.06318954 -0.13187014 -0.060826406 0.100622945
-0.15968326 0.053392593 0.061665498 -0.023725262 -0.099630035 0.10498203 0.07484399 -0.009700226
-0.14637041 0.086868234 0.06835139 -0.0047234967 -0.025522733 0.039411627 -0.106418714 0.059818767
-0.06321502 0.11377824 0.04497658 -0.033065125 0.04221149 0.061713606 -0.005738227 0.028340062
-0.01861727 -0.033310637 -0.07631432 -0.025953472 0.024810206 0.10969287 0.14256226 -0.067856565
-0.086711206 0.06126961 -0.07520104 0.13302869 0.061385214 0.07695554 0.12588456 -0.091858864
0.102294974 0.13891481 -0.007796422 -0.052414354 0.016113682 0.11475287 0.014771822 -0.042599604
0.111063056 0.07570623 -0.01928861 0.13763231 0.027591618 0.0531935 0.17738393 -0.03602506
-0.003105564 0.023847511 -0.06328997 -0.033482768 0.062817805 0.12659937 0.16727804 0.0356081
0.036845867 -0.0238193 0.076633245 -0.05381801 -0.024334863 0.1485629 0.08027605 0.06452836
0.10990737 0.10505787 0.06603715 -0.010204358 0.1773065 0.115852654 -0.027425608 0.054304965

rnn.weight_ih_l0_reverse f4 [256, 1]
00000000: bbc4 91bd 9b9e 8abc 6b7c 583d 742c cf3d
00000010: 06f4 a3bc 8b62 af3d bd80 923c 03fc b2bc
00000020: d34b 1f3e 149f 8cbd e11c 7bbd 7249 12bc
00000030: fc09 b0bd 49ee e63d 111d 793d b0c0 0a3d
00000040: e503 91bd b943 5cbd b607 68bd 9cc8 283d
00000050: e8ed 073d 79d6 cb3d d9f5 62bd 7602 1f3e
00000060: 1e83 35bc 4892 3f3e f043 203e c05a 253d
00000070: f25d 9ebd 912d fb3d ca65 a03c 86f6 033e
00000080: 2cb7 d4bb 344c 683d 574e 5a3d 165d 083e
00000090: 7ce7 9c3d 0540 9a3d d34c a33c fcf9 02bc
000000a0: f16c 6dbd 2e0b babd 15f2 203d 9a9e 693e
000000b0: 60d3 aabc e3dd 553d e0fb 823d ef09 173e
000000c0: 4a77 3cbd 29aa 99bd 64a7 bfbd db2e 123d
000000d0: 2759 37bd 1804 db3d 76b6 403b facc c1bc
000000e0: 1e51 9b3d 8b7e bc3d a13d e13d 26cd 843d
000000f0: 9f1e 2fbd e3f4 19bd 778b e13d 5248 6ebd
00000100: 3b01 d4bd d384 21bd 019c 84bd b563 ac3c
00000110: 6c99 22bc 65ac 893d 6074 a23d eae7 c03c
00000120: 67d3 c53d 5238 dcbd 1240 3f3d a00d b93d
00000130: 57ae b5bd 59f3 763d 7b73 a63d e3d6 103e
00000140: c64f f83d e4a3 a7bb 71b9 e53d 6dda bdba
00000150: 8865 f63d 1ed3 a83d 0e47 e43d 57cd b03d
00000160: 7ce8 d2bd 8fd7 743d 6b68 273d b6f4 8f3d
00000170: 8c11 d8bc eaab 883d 72ac 9b3c 571d 09bd
00000180: 410f 623d c0b4 9e3d d451 193d 9fa6 483d
00000190: 545d 1fbd 06c6 623c b9bd c6bd b0cb 513d
000001a0: bbec a03c 6e18 d2bd adf6 96ba 4073 33bd
000001b0: 2d46 eb3c 24f8 9ebd 0c54 333d 2626 7a3d
000001c0: 79ee e53d 0853 4fbb 25cf 523d 8981 0dbc
000001d0: 743e 043e bb2a 28bc 23bb ad3d 13a8 3f3d
000001e0: 7762 6e3c 161e 2f3d cca0 f2bb d5e9 393d
000001f0: 4a0f e7bc 645a 923a 53c7 eebc f0f7 d23c
00000200: c8b6 00be 6c69 a8bd e781 91bc 32c9 9cbd
00000210: 73c6 873d 05a6 f0bc 0d27 b23d cffb eebd
00000220: 3aae 753d c84c 1d3e f43d f73d 4e14 09be
00000230: 870e e93d 7538 0abe adc5 693d 9a01 c7bd
00000240: 3d80 edbd cc47 ea3d 4826 a73d 0a31 143e
00000250: f15a 95bd 5100 c63c 2e9c 303e a269 1abd
00000260: 3bba ec3c 4f9d c73c 5ac7 cf3d 3bad d83d
00000270: db5a 8cbd db46 52bd 8ea8 a9bd a568 d43d
00000280: 5747 bdbd da49 0fbe 8324 fbbd 91ae 2c3d
00000290: 471b 803d 1ca2 e23d 3714 123e d3f9 873d
000002a0: b982 1dbe 3ae4 b33d b81f ccbd 9896 15be
000002b0: 63a7 713d c26a edbd dede 63bd f24c bfbc
000002c0: 458a c1bd f127 023e 08e8 0a3d a244 d1bd
000002d0: e3e9 03be 2128 f83d 66c7 4e3d 65a8 82bd
000002e0: 6e8f 663d b39f ca3c 5b38 6d3c 7940 0c3e
000002f0: f971 223e 9505 d9bd 4d11 67bd 042b ee3d
00000300: 98eb b83d df78 bf3d 716e 6d3c f9b1 a2bd
00000310: 7edc 133e 8d4c a43d c00f 2c3d dfcb 133e
00000320: 36f6 99bd 943a 113e fbb4 963c 681c 003d
00000330: 04f7 8a3a 174b 043e b9b7 7b3d 95f5 cbbd
00000340: 7ceb 3ebc 28b3 2dbd bc86 363d 4a3a 00bc
00000350: 4bbb b5bd 0fbc bd3d 40f3 a93d 5ee5 233d
00000360: 4cb0 68bd efd0 003e d700 1c3e 1141 f53d
00000370: 1e5c 963c 5590 123d e4a6 0b3e a358 b43d
00000380: b1ea 9a3d 90ac cf3d 7156 c33d 7a43 eb3d
00000390: b9c7 87bd f431 97bc 274b 013e 36df 6ebd
000003a0: 68e6 3dbd 50c8 0b3e 8782 3d3c 82d5 53bd
000003b0: 5cd9 993d 8037 023e a1af 553c 0fb4 2f3d
000003c0: 8713 d2bd 8c52 f03d 0ba7 d63d ac26 f23c
000003d0: 2d26 53bd 0c10 0b3e 4487 c83d b436 84bd
000003e0: 4901 253d c2c9 99bd 8c2e ebba c07d 41bc
000003f0: fcb6 c03d 4d6b 25bb dada a4bc 9b74 56bc
-0.071176015 -0.016921332 0.05285303 0.10115901 -0.02001382 0.085637175 0.017883653 -0.021848684
0.15556268 -0.06866279 -0.061306838 -0.008928644 -0.08595654 0.11275918 0.060818736 0.033875167
-0.07080821 -0.053775523 -0.05664798 0.04120694 0.03318587 0.09953017 -0.05541024 0.15528283
-0.011078624 0.18708146 0.15650916 0.04036975 -0.077327624 0.122645505 0.019579787 0.1288701
-0.0064915624 0.056713298 0.053297367 0.1331676 0.0766134 0.07531742 0.019934094 -0.007994171
-0.057965223 -0.090841636 0.039293367 0.22814408 -0.020852745 0.05221356 0.063956976 0.14749883
-0.0460122 -0.075031586 -0.09358099 0.035689216 -0.044762757 0.1069414 0.002940563 -0.02365731
0.07583831 0.09203824 0.10998083 0.064844415 -0.042753812 -0.037587058 0.11012929 -0.05817444
-0.10351797 -0.03943331 -0.06475068 0.021043638 -0.009924274 0.06722335 0.07932353 0.023548085
0.096594624 -0.1075293 0.04669196 0.09035802 -0.08871143 0.06029067 0.08127495 0.14144473
0.121245906 -0.005115973 0.11217011 -0.0014484652 0.12031084 0.082433924 0.11146365 0.086329155
-0.10298249 0.059775885 0.040871065 0.07029097 -0.026375555 0.06673415 0.019003127 -0.033475246
0.05519033 0.07749319 0.037431553 0.048987027 -0.038907364 0.013841158 -0.097041555 0.051219642
0.019644132 -0.10258566 -0.0011517607 -0.043811083 0.028719986 -0.07762173 0.043781325 0.061071537
0.11227126 -0.0031635184 0.05146708 -0.008636841 0.12914449 -0.010264094 0.08482959 0.046791147
0.014549843 0.0427533 -0.0074044224 0.045389015 -0.028205533 0.0011165855 -0.02914778 0.025752991
-0.12569726 -0.082232326 -0.017762138 -0.076555625 0.06629648 -0.02937604 0.086988546 -0.116691224
0.05998061 0.15361321 0.120723635 -0.13386652 0.11379724 -0.13498099 0.057073284 -0.09717102
-0.11596725 0.114394754 0.081615984 0.14471832 -0.07292736 0.024170073 0.17247078 -0.037698396
0.028897395 0.024367003 0.10145445 0.10579916 -0.06853267 -0.051337104 -0.082841024 0.10371522
-0.092421226 -0.13993016 -0.122628234 0.042158667 0.06255203 0.11066076 0.14265524 0.06639447
-0.15381898 0.08783765 -0.09966987 -0.14608228 0.058997523 -0.11592628 -0.055632465 -0.02335212
-0.09450201 0.12710549 0.03391269 -0.10218169 -0.1288219 0.12117029 0.05048313 -0.06379775
0.05628913 0.024734354 0.014478768 0.1369647 0.1586379 -0.10596768 -0.056412984 0.11629298
0.09029311 0.09349226 0.014491663 -0.07944102 0.1443958 0.080224134 0.042007208 0.1443324
-0.07517664 0.14182502 0.018396845 0.03127709 0.0010602181 0.1291927 0.06145451 -0.099589504
-0.011652824 -0.042407185 0.044562086 -0.007826397 -0.08873614 0.09264385 0.082983494 0.040013663
-0.056808755 0.12579702 0.15234695 0.11975301 0.018354472 0.035782177 0.13637882 0.088059686
0.07564295 0.101403356 0.09537972 0.114874795 -0.06629891 -0.018456437 0.12626325 -0.05831834
-0.04636231 0.13650632 0.011566765 -0.05171729 0.07512161 0.12716484 0.0130423615 0.042896327
-0.10257631 0.117344946 0.1048108 0.029559456 -0.05155008 0.1358034 0.09791425 -0.06455746
0.04028443 -0.075091854 -0.0017942949 -0.011809766 0.094099015 -0.0025240958 -0.020123888 -0.013089324

rnn.weight_hh_l0_reverse f4 [256, 64]
00000000: def0 01be 7c47 c8bd a52a 143d 51b1 e3bd
00000010: f2a8 583d 74b4 d43d e51f 76bd 0522 2a3d
00000020: 8b74 ab3d 5aaf f8bc 44c7 253d 804b 2bbc
00000030: 1f7b ed3c 2013 b43d f1fe 373e 9c0d 4d3d
00000040: c7b7 10bd 2e70 56bd 1f81 17bd d0b7 c5bd
00000050: 83a4 393d f562 d23c 3c96 d93c 8c87 b03d
00000060: b8bb 303d 3b48 c43d 563d ff3d e897 de3d
00000070: 02e0 0abe 8f10 24bd 8496 3fbd 6604 97bd
00000080: 9f6b 00be 764b c7bd 71d3 b6bd 79bd b23d
00000090: 128a f13d baf5 db3b 378b ab3c a039 d1bd
000000a0: 7753 52bd 3278 e43d 8758 0bbe e605 07be
000000b0: d792 50bd 3ece a63d 551b c33d 7fdd 9f3d
000000c0: 4993 673c e1c5 2e3e ed59 9a3d 920d 65bd
000000d0: 737c 03be 4e20 053e e5a4 fa3c fba8 a2bd
000000e0: ee32 e7bd 7253 d5bd 3563 92bd 1d1d c03d
000000f0: 6686 093c c13a bdbc e345 9f3c 02c5 ed3c
00000100: 27bd 00be d04c 3abc 62e0 cebd a40d 95bd
00000110: c9d5 313e 1018 8dbd b040 99bd aaaa 06be
00000120: be9d 8c3d fc8b 9e3d 7dc7 2f3e 37bb d6bc
00000130: ca6d 233d 60d3 e3bd 908b 27be 12c1 04be
00000140: e190 4bbb d262 873c 7045 193e a96c 9b3d
00000150: 356b 48bd 628d 08ba c9f5 b83c 6f09 02be
00000160: f97a 0bbd 7a47 f23c d8b7 be3d 80a0 a93d
00000170: 4292 cb3c 73ce 68bd 0f9c 31bc f24e 85bd
00000180: f102 02be 5b5f dfbd 209f d3bd 9ce3 e53d
00000190: 0d8a a7bc 254d 3b3d 6966 153e f32a 0fbe
000001a0: 299e 7e3d 2c93 113e b554 55bd d502 5fbd
000001b0: f8b4 88bb 4d9f 233d d692 b9bd 7665 03bd
000001c0: 9198 333d 0c95 e43d ef7d 3a3d fd57 b23c
000001d0: c0af 22bc f735 ea3c 177f 72bd 6a56 afba
000001e0: a2ea 013e 0b45 803d ca77 123e 34ad eebc
000001f0: c28c dd3d 69c3 31bd 308f 48bd 8468 efbd
00000200: 4f9a cd3c e85d 8f3d 3798 093c 0b41 94bd
00000210: fd33 b13d df58 35be 74b0 82bd 46de 3a3d
00000220: a53d 803d 937c 083e 02f0 cebc 261f 25be
00000230: 6f68 183d a40c 1abe ddf8 95bd 8677 03be
00000240: 9863 2abe 42ba c23c 970a d13d bdc9 a03d
00000250: a9a1 0abe 1997 0a3d b0bc 1bbd 77b4 11be
00000260: 3ce6 293e 35c8 ce3c 0cc1 0d3e 1cab 103e
00000270: 902f 2ebd a412 efbd 39b5 673b d4c1 cc3d
00000280: e414 e23d 0cdd 31bd c07f e1bd d30e 093d
00000290: 6890 d33d 6209 283e 7190 073e 4b3a a13d
000002a0: 7fe0 2abd b42a 143e 2472 86bc a094 0dbe
000002b0: 2a4b 893d 89d7 28be ca21 12be 40ba e0bd
000002c0: 84bf 91bc 7fe6 73bd 7713 1d3e fbf4 d9bd
000002d0: bfc3 70bb 0e44 fdbc b45a 2d3e 6bbd 12bc
000002e0: 776c a13d 6043 8a3d 9d3d 503e f81e ee3d
000002f0: 4a80 00bc 3f5e 16bd 447d eabd 96c2 95bd
00000300: b830 b53b aaf9 913d 40e8 5e3d 2a29 1fbe
00000310: 7c5f 0d3e f0ff 57bd df2d 583d 2d65 59bc
00000320: f6f2 093c 8790 e23d 871a 92bd 7aeb d8bd
00000330: 74b6 e8bc cbb5 dabd 7ea1 913d a03c bc3d
00000340: 5d0f 73bd 1484 fd3d 4b62 46bd 1b2c 2fbc
00000350: 2cd1 bcbd 4404 893d 6961 b5bc 0c57 e5bd
00000360: be9d 87bd 045b e63d 78c4 57bd ad0d 083e
00000370: 1438 f2bc e604 70bd 9b33 1ebe c35f 123c
00000380: 436a 40bd c5dd 98bd cf75 273d 2758 683c
00000390: b415 af3d 7cad 2e3d 6be9 783c 05a7 abbc
000003a0: 3f2d 53bd 9318 e2bb 3b44 89bd 9409 643d
000003b0: 820e 683a 222d 19be 2929 07be 52d1 9c3d
000003c0: 896d 823d 3adf 81bb 7735 d63d 62f2 8f3d
000003d0: 5fde adbd e569 a2bd 3019 1fbd aea7 11be
000003e0: 3fd9 ca3d bfbe c9bb 06af c73a 9ad7 81bd
000003f0: 17fc 633d f11b a13d 3464 08be b17f f43d
-0.1268954 -0.097792596 0.03617348 -0.11117805 0.052895494 0.10385981 -0.06008901 0.04153635
0.08371838 -0.030357052 0.040473238 -0.010455012 0.028989373 0.0879271 0.17968346 0.050061807
-0.035331514 -0.052353077 -0.036988374 -0.096542 0.045322906 0.025681952 0.026560895 0.086196035
0.043147773 0.09584089 0.12462871 0.108688176 -0.13562015 -0.040054854 -0.046774402 -0.07373886
-0.12541054 -0.0973119 -0.08927048 0.08727545 0.11793913 0.0067126425 0.020940406 -0.10216069
-0.05134913 0.11155738 -0.13607989 -0.13185844 -0.050921287 0.08144806 0.095266975 0.07805919
0.014134237 0.17067672 0.07536683 -0.055921145 -0.12840442 0.13000605 0.030596206 -0.07942387
-0.11289011 -0.104163066 -0.071478285 0.09380553 0.0083938595 -0.023099305 0.019442504 0.029024605
-0.12572156 -0.011370853 -0.101013914 -0.07277992 0.17366709 -0.06889355 -0.07483041 -0.1315104
0.068660244 0.07741544 0.17165942 -0.026212318 0.039899625 -0.11124301 -0.16361833 -0.12964275
-0.0031061696 0.016526613 0.14967895 0.07589085 -0.048930366 -0.0005209056 0.022578137 -0.12698911
-0.034052823 0.029575098 0.09312409 0.08282566 0.024850015 -0.05683751 -0.01084043 -0.06509198
-0.12696435 -0.109068595 -0.10333085 0.11225054 -0.02045157 0.045727868 0.14589848 -0.13981228
0.062162552 0.14216298 -0.052082736 -0.05444606 -0.004171964 0.039946843 -0.0906121 -0.032079183
0.04384667 0.11161241 0.045530256 0.021770472 -0.009929597 0.028590186 -0.059203234 -0.0013377194
0.12687162 0.06263169 0.14303508 -0.029135324 0.10817863 -0.04339925 -0.04896468 -0.11689857
0.025097994 0.07000333 0.008398107 -0.072389685 0.08652494 -0.17709683 -0.06381312 0.045622133
0.06261758 0.13328771 -0.025260929 -0.16125163 0.03720897 -0.15043885 -0.073228575 -0.12838563
-0.16639555 0.023770455 0.10207098 0.078509785 -0.13538231 0.033835504 -0.038021743 -0.14228998
0.16591734 0.02524195 0.13843173 0.14127773 -0.042525828 -0.11673477 0.003535582 0.09997907
0.11039141 -0.043423697 -0.110106945 0.033461403 0.10330278 0.1640983 0.13238694 0.078724466
-0.041718002 0.14469415 -0.016411848 -0.13826227 0.067037895 -0.1648847 -0.14270702 -0.10973024
-0.017791517 -0.05954599 0.15339456 -0.106424294 -0.0036737768 -0.03091624 0.16929132 -0.008956294
0.07882016 0.06751132 0.20336004 0.116270006 -0.0078430865 -0.036710974 -0.11449674 -0.07312505
0.0055294894 0.07127698 0.05442071 -0.15543047 0.13805956 -0.052734315 0.05277812 -0.013268751
0.008419743 0.11062723 -0.07133966 -0.105917886 -0.028407313 -0.106792055 0.0711088 0.09191251
-0.059340823 0.123787075 -0.048433583 -0.010691668 -0.09219584 0.06690267 -0.022141175 -0.111982435
-0.06621884 0.112478286 -0.0526776 0.13286467 -0.029567756 -0.05859842 -0.15449373 0.008933964
-0.04697634 -0.07464174 0.040883835 0.014181173 0.085490614 0.042645916 0.01519237 -0.020953665
-0.051556822 -0.006899902 -0.06702467 0.055673197 0.00088522595 -0.14958623 -0.13199295 0.07657112
0.063685484 -0.0039633783 0.10459416 0.07028653 -0.084896795 -0.07930354 -0.03884238 -0.14224121
0.09904718 -0.006156772 0.0015234656 -0.06339951 0.055660333 0.078666575 -0.13319474 0.11938418

rnn.bias_ih_l0_reverse f4 [256]
00000000: 6695 d73d 93bc 813d b0a1 6d3c 3151 f43d
00000010: 4b00 5d3d 89e3 0abd 48b5 a5bd 23d8 313d
00000020: 3680 9c3a 26d6 c93d 7860 53bd 5620 073e
00000030: c17e 1d3d 62bf 34bd d687 333e 42ab c63d
00000040: 738d 47bd 6221 863d 4dc2 273c 7f90 ae3d
00000050: 3cc6 133d 28dc 2abd 3385 163e 0bbb 1e3c
00000060: d133 73bd 9efb ef3d 928e 273e be0b 50bd
00000070: 2194 85bd 5e98 cdbb 0b15 6d3d 4de5 e63d
00000080: 9f67 743c 14be 4bbd faf4 303e 06e8 953d
00000090: 1081 bd3c bbcc 9e3d 4c7c 53bd 0d54 4839
000000a0: caa9 ae3d 02f4 0e3e f01a d93d d081 cd3d
000000b0: e512 243d 56c5 45bd e757 31bd 4187 ba3d
000000c0: 8d2f 75bc 5762 66bc 4d07 223d e595 ee3d
000000d0: 8fcd e1bd 00b7 3fbd 750f 71bd 0212 2f3e
000000e0: e94b 6c3c dc18 2f3d 6213 9a3d 5f39 0cbe
000000f0: 2778 3bbd 5bd8 883d 1fa9 2d3e 354e 8a3d
00000100: 44d9 963d 787e da3d cba8 7abd ed0a e43d
00000110: 75f8 823b f6f5 593d 81d0 213c d430 bdbd
00000120: 9ff8 b03d 1051 193d 4bdb 283c 8d8b 6d3d
00000130: b151 ca3d 8ab4 0a3e b79d c1b8 3141 993d
00000140: 9080 81bc 0b24 563c 3e0d 903d f5f0 123d
00000150: 2d63 0d3e b4bb 2d3e f9c3 cc3d 7e2d 3cbd
00000160: f49b 153d 53a9 fdbc 58a9 98bd fea2 813d
00000170: 8955 7c3d e1df 87bc b4c3 84bc 2adf 9e3c
00000180: b624 613d d49a 2c3d 1d2e 983d 492f af3c
00000190: e0af aebd 6789 b23d b0db bc3c d2c4 283d
000001a0: bef9 0e3e 03a5 6bbd 23bc b53d e783 093d
000001b0: 9ee7 03bd 60f3 813d 42b3 be3d 6afb 9d3d
000001c0: c16e febc 2039 b0bc 9c04 173e 795d 143d
000001d0: feef 013d 5da4 07be 87ce 7f3c ee17 353d
000001e0: 1c4d 9ebc 2903 ce3c 9d61 2dbd c641 04bd
000001f0: 62b2 6b3d ab35 023b 9c37 35bd 1c10 9f3d
00000200: 3df9 d0bd d911 fe3d 9a56 a4bc 1492 e0bd
00000210: a1a9 d53d e065 7bbd 8526 ecbd 7ac6 c83d
00000220: d343 b63d f6a8 443e 53ad 063e 7d42 823d
00000230: d7cc 003e 782d cdbc cac3 1cbe 32d8 193b
00000240: f683 29bd 00e3 2d3e b83c d13d 15c5 9abd
00000250: 2fcd 1abe 0723 b63c 57bd 693c 4dd3 8bbd
00000260: 8592 e43d e87d 143d 2396 cf3c b93a 943d
00000270: e806 b2bd e871 00bd 67f0 413e bd34 883d
00000280: 9bd7 433e 89e7 c8bc db1b 83bd 8f0d 23bd
00000290: ced4 f6bc 3422 893d 9cca 97bc 87a2 e9b9
000002a0: 50c1 09bd 3bbd 213e acba 2a3e 1c1b d4bd
000002b0: 9578 b5bd c58b 5cbd 1715 a23d e246 60bd
000002c0: 0770 8c3b 2faa f3bd ae2f 103e 3652 2fbd
000002d0: c375 ec3d 0a2d 97bd 028e 063e 08ba efbd
000002e0: 57a2 4ebc 70ca 4ebd 8955 a73d df66 d7bb
000002f0: b50e 24bc 71df 12be 5ffc ecbd 2948 b1bd
00000300: a882 2a3d 8e5f f03d d118 1f3e 1342 c93d
00000310: dae5 3a3e 1648 8ebd c5b8 2b3d d698 723d
00000320: a4f0 b53d bfbb 333e a3b5 8a3d aa22 e73d
00000330: bdc3 853d f989 043e e52d b93d 5bf0 a2bb
00000340: fe4e c2bc fdab 08bd f243 633d ac3e 293e
00000350: 024e 2d3d f0d7 8a3d 0754 123e b2c7 72bb
00000360: e813 f63d 3a1c 43bd 2907 ab3d ca96 ea3c
00000370: 9358 283d cf2a 203c 2ac8 b0bc ab9e fd3d
00000380: f58b 643d a42f ce3d 8fe9 c9bc a7f3 0c3e
00000390: f84f 9abc b2bd e83b 609b 7f3d 303b 1e3e
000003a0: 37cc 0d3d 09d9 1d3e 936d 95bc 0217 0e3e
000003b0: e359 b53d 4081 79bd 66b5 f53b 23bf 98bd
000003c0: f60d 143d 2583 9dbd cb08 f23d d5a1 3bbd
000003d0: 9b35 313e 3bbf 033e 8e6d 1c3e d4e0 d03d
000003e0: a9fe abbd ee50 e63c 546a 0e3e 0161 143e
000003f0: 760f 9bbb 8a61 3d3d 8c44 85bd 73a4 843d
0.10526542 0.06334796 0.014503881 0.119295485 0.053955358 -0.0339084 -0.08091217 0.043419015
0.0011940065 0.09855299 -0.05160567 0.13195929 0.03845096 -0.04412783 0.17532286 0.097006336
-0.04871888 0.06549336 0.010239196 0.08523654 0.036077723 -0.041713864 0.14699249 0.009688149
-0.059375588 0.11717914 0.1636298 -0.05079245 -0.06522394 -0.006274267 0.057881396 0.112742044
0.014917283 -0.04974182 0.17280951 0.073196456 0.02313283 0.07753893 -0.05163221 0.00019104798
0.085284784 0.13960269 0.10600841 0.100345254 0.04005708 -0.048283897 -0.04329672 0.09107829
-0.01496495 -0.014061532 0.039557744 0.11649684 -0.11025535 -0.04680538 -0.05885263 0.17096713
0.014422395 0.042748317 0.07523228 -0.1369376 -0.045768883 0.066818915 0.16959046 0.06753198
0.07365659 0.10668653 -0.06119613 0.111348964 0.0039969035 0.053213082 0.009876371 -0.09237829
0.08641171 0.037430823 0.01030619 0.057994414 0.09878863 0.13545433 -9.232334e-05 0.074831374
-0.015808374 0.013070117 0.07033776 0.035874326 0.13807364 0.16966134 0.09998316 -0.045941822
0.03652568 -0.03096453 -0.07454175 0.063299164 0.06160501 -0.016586246 -0.0162066 0.019393522
0.05496665 0.042139843 0.074306704 0.021384852 -0.08529639 0.08717614 0.023053974 0.041203327
0.13962457 -0.057530414 0.08873775 0.033573058 -0.03220331 0.06345248 0.093115345 0.07713969
-0.031058671 -0.021511614 0.14747852 0.036221955 0.031723015 -0.13246293 0.015613205 0.044212274
-0.019323878 0.025147991 -0.04232942 -0.03228929 0.057543166 0.0019868414 -0.044242486 0.077667445
-0.102037884 0.12405748 -0.020060826 -0.10965362 0.10432745 -0.061376452 -0.115307845 0.098034814
0.08899655 0.19205078 0.13152055 0.06360338 0.1257814 -0.025046095 -0.15309063 0.002347481
-0.041385613 0.16981125 0.10216659 -0.07557122 -0.15117334 0.0222335 0.014266334 -0.06827412
0.11160759 0.036252886 0.025340145 0.07237763 -0.086927235 -0.03135863 0.18939362 0.06650684
0.19125216 -0.024524467 -0.064017974 -0.039807852 -0.03013077 0.06695977 -0.018529229 -0.00044562315
-0.033631623 0.15794842 0.16672772 -0.10356733 -0.0886089 -0.053844232 0.07914179 -0.0547551
0.0042858156 -0.11897694 0.14080688 -0.04280301 0.11545899 -0.073816374 0.13140109 -0.117054045
-0.012611947 -0.05048603 0.081706114 -0.0065735425 -0.010013272 -0.14343049 -0.115715735 -0.086563416
0.04162851 0.117369756 0.1553681 0.09827056 0.18251744 -0.06947343 0.041924257 0.059227787
0.08883789 0.17552088 0.06772926 0.112859085 0.06531475 0.12943257 0.09041957 -0.0049725003
-0.023719307 -0.033367146 0.05548472 0.16527814 0.042310722 0.06779468 0.14289866 -0.0037045297
0.120155156 -0.04763434 0.08350975 0.028636355 0.041100096 0.009775831 -0.02157982 0.12383779
0.055797536 0.100676805 -0.024647502 0.13764821 -0.01883696 0.0071026916 0.062404037 0.15452266
0.034618583 0.15414824 -0.018240726 0.13875964 0.08855035 -0.060914278 0.007498431 -0.074583314
0.036146127 -0.076910295 0.118180834 -0.045808632 0.17305605 0.12865917 0.15276167 0.101991326
-0.08398182 0.028114762 0.13907748 0.14490129 -0.0047320677 0.0462356 -0.06507215 0.06476679

rnn.bias_hh_l0_reverse f4 [256]
00000000: 03e5 be3d 7d83 aabc 9c05 6e3d f101 303e
00000010: d478 b33d 8217 d9bd 0628 cebd 7058 153d
00000020: 6289 1a3d 0aae 343e aadb 56bc 8203 d43d
00000030: 6b62 ffbc 29e1 733d 42a2 c2bc b991 68bb
00000040: acec c8bd 5ab9 d03d bd4f cbbc f3bc 953d
00000050: 6a4c 9639 11b5 89bc 199c 113e a645 50bd
00000060: 6243 213e 7f1e 2f3e a353 563e 3ec4 86bd
00000070: ae02 56ba 33a8 9abc 50b7 bf3d 4871 243e
00000080: c64b 313b c6c0 6f3d 5edf a63d 0028 b63d
00000090: 12f7 f93d 1626 b43d 0875 513c 318b 633b
000000a0: 7b5b c03d ec16 d03c 1acf fbbd 004d 353e
000000b0: c288 433d ece0 73bd c89e 893d fa35 843d
000000c0: 934f 053e 831c cb3c 03ca 28bd 18d4 ceb9
000000d0: 49ea e13d db5b b73d c0dc b73d 84b6 afbb
000000e0: ff52 ee3d 548c 143e b65e a73b 7fce 0bbe
000000f0: 5560 093e a349 623e 8f9b ef3d 174d 273d
00000100: 70ae bc3d df7e de3d 8dda 0a3e 81c7 d13d
00000110: 98e9 a53d 5aad f83c 1c38 df3b 9d54 c13d
00000120: 6c4c 323d 2472 ec3d 62a3 bbbd feb5 903d
00000130: c34a 8e3c 8cd3 ccbd 89be 743b e1ca c4bc
00000140: 859d 2d3d aaf7 e73c 8b50 51bc 6654 5b3d
00000150: 66c1 073e 7abf 8b3d 5a19 923d 7147 e6bd
00000160: e67f 953d 9842 a4bd c5e6 15bd a064 463d
00000170: b63a aa3d fba5 0fbe e350 bebd edf5 813d
00000180: 064f b5bd 763a 163d 41f9 b13d 436f 873d
00000190: d87b bf3c 2b72 23bd edf1 083e e466 503d
000001a0: 2426 c6bd 8f5a 813c 0f9b 4a3d 07dc b5bd
000001b0: 59d1 a23d 079d 4c3d c879 46bd e3b1 69bd
000001c0: 7cc7 a7bc c1fd 4ebd 3aca 13bd 0fe7 2c3d
000001d0: 37c5 123e e458 d13d 538e 7ebc 01fd 053e
000001e0: b595 f3bc 8a83 ce3d 428c 10be d663 013d
000001f0: 5cfb 98bb 243c d23d 9aa4 95bd 13e2 4f3d
00000200: 9f17 1fbc 95fa 0f3e c27c eb3d 7497 acbd
00000210: f0c2 233e 2641 11be 6fc9 efbb 3adf 8ebc
00000220: d060 453e f9d9 cc3d 824d 243d fa8f afbd
00000230: 17df 4f3d 67d5 b3bd 0278 0dbe ea2d ac3c
00000240: 8ba6 f9bd fae9 3d3e 74e4 a63c db17 2f3d
00000250: d375 01bd b926 83bd 9626 1c3e c6b7 1b3c
00000260: 2e15 b83b 720a 15bd 81d1 753d 4fa5 8a3d
00000270: e5f2 03be a2ce c33d 98df dc3d b4f6 253e
00000280: 9bad 653c db03 803c a8c0 39be 3a6b 44be
00000290: 3c16 163d c006 b63d cd40 003e d867 97bc
000002a0: ca1e fabd 983e a73d 2166 ad3c 18fa 403c
000002b0: 0e20 53be a8fc e4bb 6340 5c3d ea92 b03d
000002c0: 49b2 0c3d 95e5 25bd ce42 153e 51d3 483d
000002d0: 230b 93bd 6634 04be 9bd4 153e e0da 15bd
000002e0: bb2d fe3c d538 643d 36ee c03d 9613 f2bd
000002f0: 01b6 a23b e5a5 38be 35d0 f6bd dc75 813d
00000300: 244c 2f3d 4666 01bd dafa 043e 2ef6 163e
00000310: 2228 473e 0d58 1639 8c10 bf3c b6c0 5f3d
00000320: 74d6 bfbc d2b4 4b3d bcb9 96bd 1801 1bbd
00000330: 251f 003e fed5 ac3c 755e 0a3e 1a90 dabc
00000340: 8163 903d ccf5 123e 7da6 5cbd de35 b6bb
00000350: 5680 1c3e 1d18 2b3e 504b 713d 7430 b5bd
00000360: 9ae8 a63d 7e86 f83d ca1d 193e 6b13 24bd
00000370: b98a babd 2372 3bbd 23f6 f33d 0c71 3dbd
00000380: f1b1 96bc c63f 71bc cd97 0bbd cda3 933d
00000390: 77bd 94bd c526 48bd 5be1 29ba 0771 39bc
000003a0: 833e debc ef98 c33d e2b6 abbd 3704 833c
000003b0: 5f5c 0a3e 569a b13c 21c5 5c3c bcf5 87bc
000003c0: ceb8 5c3c 4cab 6cbd a025 283d 2c63 bc3d
000003d0: ca5f 58bd df29 763d 4fe0 863d ef53 783d
000003e0: 4270 b33c 1fed a1bd 09d6 d0bc b7c6 57bd
000003f0: bfed 9ebc d133 4b3e 17e4 9e3d 8abd 80bc
0.09321024 -0.020814652 0.05811082 0.1718824 0.087632805 -0.10600187 -0.100662276 0.036461294
0.037728675 0.17644516 -0.013113895 0.103522316 -0.031174859 0.0595409 -0.023759011 -0.0035487248
-0.098107666 0.10191603 -0.024818296 0.0731143 0.00028667162 -0.016809972 0.14219703 -0.050847672
0.15748361 0.17101477 0.20930342 -0.06580399 -0.00081638515 -0.018879032 0.09361136 0.16058838
0.002705322 0.058533452 0.08148073 0.08894348 0.12205328 0.08796327 0.01278425 0.0034720416
0.093924485 0.025401555 -0.12295361 0.17705154 0.047737844 -0.059540674 0.06719738 0.06455608
0.13018636 0.024793869 -0.04120828 -0.00039449404 0.110310145 0.08953067 0.089776516 -0.0053623337
0.11636924 0.14506656 0.005107726 -0.13652991 0.13415654 0.22098403 0.11699592 0.040845003
0.09212959 0.108640425 0.13559933 0.102431305 0.08101195 0.030356098 0.0068121087 0.09439967
0.043529913 0.11545208 -0.09162022 0.07065962 0.017369634 -0.10001287 0.0037345013 -0.024022521
0.04238655 0.028316338 -0.012775551 0.053547285 0.1325737 0.06823631 0.07133742 -0.11244095
0.07299785 -0.08020514 -0.036597032 0.048435807 0.083119795 -0.1402816 -0.09292772 0.06345735
-0.08852963 0.036676846 0.086901195 0.06613018 0.023374483 -0.0399038 0.13373537 0.050879374
-0.096752435 0.015790252 0.04946428 -0.088798575 0.07950086 0.04995444 -0.048455983 -0.05705441
-0.020480864 -0.050534967 -0.03608153 0.042212542 0.14333044 0.10222033 -0.015536862 0.13084795
-0.029734472 0.10083683 -0.14116004 0.03158935 -0.0046686362 0.10265377 -0.07306786 0.05075271
-0.009710222 0.14060433 0.11498405 -0.08427325 0.15992332 -0.14185008 -0.007317714 -0.017440427
0.19275212 0.100025125 0.04011298 -0.08572383 0.050749864 -0.08780938 -0.1381531 0.021017987
-0.12189969 0.18546286 0.020372607 0.04274736 -0.031606507 -0.0640387 0.15249094 0.009504264
0.005617759 -0.036386915 0.06001425 0.06769811 -0.12885626 0.095608965 0.107848346 0.16207391
0.014018442 0.015626838 -0.18139899 -0.19181529 0.036642298 0.08888006 0.1252472 -0.018482134
-0.12212904 0.08166236 0.021166863 0.011778377 -0.20617697 -0.006988127 0.05377234 0.08621772
0.034349713 -0.04050215 0.14576265 0.049029652 -0.071798585 -0.12910613 0.14631884 -0.03658569
0.031027665 0.05571826 0.09420435 -0.11820142 0.004965544 -0.18032034 -0.12051431 0.06321308
0.042797223 -0.031591676 0.12986317 0.14742348 0.19448903 0.00014337916 0.02332332 0.054627143
-0.023417689 0.04973299 -0.07359645 -0.03784284 0.1251188 0.021098133 0.13512595 -0.026680041
0.07050229 0.14351577 -0.053869713 -0.0055606207 0.15283331 0.16708417 0.058909714 -0.08847132
0.08149834 0.12135027 0.1495277 -0.04005758 -0.091084905 -0.045763146 0.11912181 -0.046250388
-0.018395396 -0.014724677 -0.034080315 0.07208977 -0.072627 -0.0488651 -0.0006480419 -0.011318452
-0.027129417 0.09550654 -0.083844915 0.01599322 0.135118 0.021680038 0.013474734 -0.016596667
0.013471795 -0.05778055 0.041051507 0.09198603 -0.052825727 0.060098525 0.06585752 0.06062692
0.021904115 -0.079065554 -0.025492685 -0.052679744 -0.019400476 0.19843985 0.077583484 -0.01571538
